submit_entry/checkpoints/cv_dgcn_all_12s_slice_nosing/5/best.pth (torch_old, 340809 bytes, 25 tensors)

conv_time.weight f4 [75, 1, 10]
00000000: e08e d1bc 70ed 9fbd 41ed a23a 9f24 9cbd
00000010: d725 7cbd d35c 8abd 405b dfba 46c6 343d
00000020: 2e34 63bd 0563 35bd 6755 3cbd 8be1 ad3d
00000030: fb23 143d a15b 973d 9aac 483d f410 04bd
00000040: 5a9e ffbc 87aa 94bd f3ec a4bd ac3d 75bd
00000050: 386c d03d e1d6 2a3c 11c1 15bc 627d d83b
00000060: 7903 1f3c 4598 883d 5634 ac38 11c6 9f3c
00000070: 3077 5fbd 80b5 93bc 1812 b8bd 4ae1 c6bd
00000080: 10b6 bdbd 3311 c7bd e078 c2bd 6e09 abbc
00000090: 389a 88bd 60d7 863c 45ed 84bc 2fbb 73bd
000000a0: 6ef2 3e3d df7f 8f3d fd92 4dbb 333d c73c
000000b0: dedf ae3d 90c4 c03d bd60 a43d a2fa 903d
000000c0: da21 563d dbdd d33c 6441 1abc 7ce5 01bd
000000d0: 6a89 acbc 3cea 403d e8bd ca3d a6eb bc3d
000000e0: 1695 b63d e8ff 713d 14bd f73b 9a9d 9cbc
000000f0: df10 b13b 849e 653c 657d b1bc f200 9e3d
00000100: e7a6 d23d f946 903d 99cb 02bd 6d1c a8bb
00000110: d61b 893c 9c91 083d d3cb be3d 5886 413c
00000120: 403f 903d ba62 a43d 02fe 8abd a47a c63d
00000130: c51d e23d 9f85 863d 8fb8 07bd 3979 9e3d
00000140: 110c b3bd cf66 a3bd a6a2 1d3d 70cc 9a3c
00000150: b860 9fbc a385 90bb c6ee 62bd 2f43 a9bc
00000160: 21ff bd3d 991e 973a ea0f 92bd 510e 88bd
00000170: 5d9b 87bd a4ad 01bd e539 793d 73bb 623d
00000180: 9f78 b03d 68ab 943d dfc8 2d3d 5ee4 283d
00000190: 9d81 cbbd ce5e 4dbd 18b3 a9bd 012a 0cbc
000001a0: 5864 9dbd 7c21 323d 1edd acbc e5ed 19bd
000001b0: 9b56 633d f86f 16bd 4b51 b53d 7415 de3c
000001c0: f1b4 da3d ce42 11bc b1af b63d 8105 eb3c
000001d0: 6445 21bc d7c0 893d c62e 22bd 2fe2 8e3a
000001e0: 9609 4abd a28f 60bd a90c a4bd ddaf 85bc
000001f0: 1352 7e3c 865a 08ba fecd 81bd d272 4fbd
00000200: a5f6 923c 573a ad3d 55ba 1fbd 4f4f 793c
00000210: 0cbe adbd 331a 14bd 0f6f 73bd eb71 5d3c
00000220: 7967 80bd 49ed 4f3d f0bc 503c 196a bfbd
00000230: 88f1 9fbc a18f 5abd 492e 1e3d 9e61 993d
00000240: 9790 5e3d 1dba d0bc c464 023d a02e 13bc
00000250: 9396 553d 4806 863d 7f67 123d 104a 863d
00000260: 4cf9 383d 12a0 313d 0f9d 383d 8a15 23bd
00000270: 539e 95bc e195 97bd 4c10 9ebd 2aa1 113b
00000280: ab22 8cbd 152e 6a3d 5ce2 17bd 2671 68bc
00000290: 6c95 a53d 76e5 8cbd c022 293d 4e44 90bd
000002a0: 674c 543c 44f2 97bd 11bc b93c 0bba c73d
000002b0: e9b0 4b3c 4c7f d23d 74d1 2f3d e69f ac3d
000002c0: 5fd4 683d 0bf7 293c b5e9 683d 55b2 1f3d
000002d0: 2bef 063c 4052 8abd 99f6 17bd 7a19 b6bd
000002e0: c63a 97bd a0ad 2bbc ec60 b7bd aa38 3bbd
000002f0: 34fb 20bd 45b8 2c3d e95a 683d a7e9 ba3d
00000300: 6ed6 9d3d 95b5 9abc 1e8b e13d cff8 1c3c
00000310: acd6 103b 58d0 8d3b 3e63 9c3d bbb0 bd3a
00000320: a6e4 f0bb b05c c6bc 87f2 8e3d d6ee 833d
00000330: 3f84 6abd 519a 14bd c840 dabc b7d1 603d
00000340: e83d be3d ebe3 333b 3d32 063c 9c43 8e3d
00000350: bafe 0f3d 1647 353d 248a 6a3b fe18 8fbd
00000360: c601 87bd 98ea e5bd 9eae c0bd 67fb 86bd
00000370: e1b9 ea3d 942f 04bd 968b 823c 268d 223d
00000380: 9bc2 a53d c3df 913d 4264 60bd 5271 3e3c
00000390: d725 dc3d 28cb 573d 67f5 54bd db79 dd3c
000003a0: 20dd 1f3d ce43 0fbb 7d73 c8bd 4520 84bd
000003b0: 606b 36bd bc9d 85bd 9e07 6d3a 9e42 8dbd
000003c0: fc66 903d bc91 4b3d e57f 933d 60cf 683d
000003d0: 4561 8b3d 91e3 4e3d 1ced 07bc faed 88bc
000003e0: 0378 81bd b3ea 823b 45aa 1e3b 9d7f 783d
000003f0: 217c f63c a47d 58bd f108 48bd 0a9e 403b
-0.025580823 -0.078089595 0.0012430326 -0.076241724 -0.061559524 -0.06755986 -0.0017040744 0.0441344
-0.055469684 -0.044283886 -0.045979884 0.084902845 0.036167126 0.07390524 0.04899273 -0.03224273
-0.031203438 -0.07259088 -0.08053007 -0.059873268 0.10176891 0.010427208 -0.009140269 0.0066067437
0.009705418 0.06669668 8.2113474e-05 0.019503625 -0.054557025 -0.018030882 -0.08987826 -0.09710939
-0.09263241 -0.09720077 -0.09495711 -0.02087852 -0.0667004 0.01646012 -0.01622642 -0.059504684
0.046617918 0.07006811 -0.003136813 0.024321174 0.08538793 0.09412491 0.08026264 0.070790544
0.052278377 0.025862625 -0.009415004 -0.031712994 -0.021061618 0.047098383 0.09899503 0.09224634
0.08915155 0.05908194 0.0075603817 -0.019118119 0.0054036225 0.014014844 -0.021666238 0.07715024
0.1028574 0.07044787 -0.031932447 -0.0051303417 0.016736906 0.03334199 0.0931622 0.011811815
0.07043314 0.08026643 -0.067867294 0.096913606 0.11040834 0.06568455 -0.033134993 0.07737965
-0.08742536 -0.079785936 0.03848519 0.018896312 -0.019455299 -0.004410462 -0.055403493 -0.020661918
0.092771776 0.0011529505 -0.071319416 -0.06643356 -0.0662143 -0.031659737 0.06084623 0.055354547
0.08616757 0.07259256 0.042427894 0.041233413 -0.09936831 -0.05013924 -0.082861125 -0.008554936
-0.07685155 0.043488964 -0.02110153 -0.03758039 0.055502515 -0.036727875 0.08853396 0.027109839
0.10679043 -0.008866025 0.08920229 0.028689148 -0.009843204 0.067262344 -0.039595388 0.0010901148
-0.049325548 -0.05482448 -0.08010227 -0.01631921 0.015522498 -0.00052014773 -0.06338118 -0.05064661
0.017939875 0.08458393 -0.03899606 0.015216663 -0.08483514 -0.036157798 -0.059432086 0.01351593
-0.06269736 0.050763402 0.012740359 -0.093464084 -0.01952435 -0.05335963 0.03861836 0.07489322
0.05433711 -0.02547937 0.03183438 -0.008983284 0.052145552 0.06544167 0.035743233 0.06557095
0.045159623 0.043365546 0.045071658 -0.039815463 -0.018263971 -0.07401634 -0.07717952 0.0022221305
-0.0684255 0.057172853 -0.037081107 -0.014187133 0.080851406 -0.06879704 0.041292906 -0.07044278
0.012957669 -0.074192554 0.022672685 0.09752282 0.012432315 0.10278186 0.04292436 0.08428936
0.056843158 0.010373841 0.056863505 0.03898843 0.008235733 -0.06753969 -0.03710041 -0.08891578
-0.07384257 -0.010478407 -0.08954033 -0.045708336 -0.039302066 0.04216792 0.056727324 0.09126597
0.07706915 -0.018885413 0.110128626 0.009580805 0.002210061 0.004327815 0.076361164 0.0014472225
-0.007351476 -0.024214119 0.06979852 0.06442039 -0.057255026 -0.03627998 -0.026642218 0.0548875
0.092891514 0.0027449082 0.008190689 0.06946489 0.035155036 0.044257246 0.0035787905 -0.06987189
-0.06592135 -0.11226386 -0.094083056 -0.0659092 0.11461235 -0.032271937 0.0159357 0.03968539
0.08093759 0.07122757 -0.054783113 0.011623697 0.10749405 0.05268398 -0.051991846 0.027035644
0.03902924 -0.0021860483 -0.09787653 -0.064514674 -0.044535995 -0.06524226 0.00090419676 -0.06897472
0.07050893 0.04969953 0.07202128 0.056838393 0.06805662 0.050509993 -0.008296277 -0.016715039
-0.063217185 0.0039952635 0.0024210375 0.060668577 0.030088486 -0.052854195 -0.048836652 0.0029391074

conv_time.bias f4 [75]
00000000: 7d31 df3b dd0f 213b b85d 86ba 87dd dbba
00000010: f4f4 8cbb 1603 e53a cdbb adbb 7be6 59bb
00000020: c67f 08bc 6932 68bb c81d 963a a682 963a
00000030: 849a 41bb c863 0b3b aa95 17bb fc30 6cbb
00000040: be60 62ba 1a09 9e3b dcef d13b fd7e 1c3c
00000050: 8bfb c53b a3d2 61ba b62d fd3a 0b61 acbb
00000060: 7f9c c43b d0cd 08bc aecc ccbb 2da4 b23a
00000070: 8bb0 263c 53d9 cc3a 3518 80bb ef7b 943b
00000080: 4f40 793b c5a3 4ebc 0e82 7cba 4600 6739
00000090: 4795 043a f15a c1ba 5d85 6535 78a1 043b
000000a0: 969f d43b 3221 86bb 302d cbba f7f4 e439
000000b0: b2c2 443b e6b1 1dbb c2d3 133b 9e6a ca3b
000000c0: a21e 26ba fdba cdb9 9609 513b f722 dc3b
000000d0: ef79 09bc 1de2 a03a 9b71 92ba 1d34 c93b
000000e0: a669 75bb 50a8 313b b545 c13a eff6 203b
000000f0: 5d73 c539 6936 8bb8 7fc7 03b7 5594 8cb9
00000100: f458 063b cb83 cb3a 4cad 67b8 f494 b638
00000110: a732 f237 c513 aab9 d404 133a 611c 323a
00000120: a50c 61b9 7cdf 42b9 f2b4 efb8
0.0068113194 0.0024576106 -0.0010251319 -0.0016774394 -0.0043016616 0.0017472233 -0.0053019286 -0.003324895
-0.008331245 -0.0035430437 0.0011452967 0.0011483028 -0.0029541561 0.002126919 -0.0023129978 -0.003603994
-0.00086356315 0.0048228623 0.0064067673 0.009551761 0.006041949 -0.0008614456 0.0019315991 -0.005260592
0.006000101 -0.008349851 -0.0062499857 0.001362925 0.010173927 0.0015628733 -0.0039091357 0.0045313756
0.0038032716 -0.012612288 -0.0009632417 0.00022029979 0.00050576444 -0.0014751834 8.5503217e-07 0.0020237844
0.0064887507 -0.0040933127 -0.0015501138 0.00043670062 0.0030023274 -0.0024062335 0.0022556637 0.0061772605
-0.0006336962 -0.00039239964 0.0031896583 0.0067180353 -0.008390888 0.0012274418 -0.0011172773 0.0061402456
-0.0037447005 0.0027108379 0.0014745506 0.0024561246 0.0003766072 -6.638171e-05 -7.854657e-06 -0.00026813397
0.0020499798 0.0015526948 -5.5236087e-05 8.706181e-05 2.8872235e-05 -0.00032439656 0.00056083244 0.000679439
-0.00021462383 -0.00018584536 -0.00011430112

bnorm.weight f4 [75]
00000000: 7263 803f edf5 7c3f c2ff 743f 4e55 7f3f
00000010: fa3d 7e3f 84a6 803f ca79 803f 1b8b 803f
00000020: 74dc 7b3f fa76 813f 19d0 7e3f e986 833f
00000030: a509 7d3f d8ab 813f b5b7 7c3f 5195 803f
00000040: a8f0 7b3f 42b8 813f a635 823f 2e01 7f3f
00000050: 526e 7b3f 94fa 813f 9ca0 7c3f 6d67 7c3f
00000060: 20dc 803f d99a 7e3f bcb6 793f ca42 823f
00000070: 32e8 803f e4d7 813f 4088 7d3f 3269 793f
00000080: 8e11 7a3f 06a5 803f 4fe0 7e3f f622 7a3f
00000090: 9590 7f3f b52f 813f da14 7c3f 0ff3 7e3f
000000a0: 1698 843f 3d6b 7c3f 4755 833f f21e 793f
000000b0: 3627 7f3f d427 823f 472f 7f3f 1917 833f
000000c0: 05a1 813f a347 7b3f 4a00 7f3f 2e41 823f
000000d0: 5041 823f caeb 7c3f a1dd 7f3f 12b2 793f
000000e0: 2268 7c3f c1d7 813f a6cf 7e3f d72c 7a3f
000000f0: 3bfc 753f b7fa 7f3f d243 803f c906 813f
00000100: ffa6 803f 4bf2 823f e297 7f3f 2810 7d3f
00000110: 943e 813f 3622 7e3f 5e7e 803f 1b12 803f
00000120: ae0b 813f 099f 813f d153 7f3f
1.0030348 0.9881275 0.95702755 0.9973954 0.9931332 1.0050817 1.0037167 1.0042452
0.9838326 1.0114434 0.9953628 1.0275546 0.9884284 1.0130568 0.98717815 1.0045568
0.9841409 1.0134356 1.0172622 0.99611175 0.9821521 1.0154595 0.9868257 0.98595315
1.0067177 0.9945503 0.97544456 1.0176632 1.007086 1.014401 0.99036026 0.9742614
0.97683036 1.0050361 0.9956102 0.97709596 0.9982999 1.0092684 0.98469317 0.9958963
1.0358913 0.9860113 1.02604 0.97312844 0.99669206 1.0168405 0.99681515 1.0241424
1.0127264 0.98156184 0.99609816 1.0176141 1.0176182 0.98797286 0.99947554 0.9753734
0.98596394 1.0143968 0.99535596 0.9772467 0.96088 0.99991935 1.0020697 1.0080196
1.0050963 1.0230192 0.9984113 0.9885278 1.0097222 0.9927095 1.0038564 1.0005525
1.0081689 1.0126659 0.9973727

bnorm.bias f4 [75]
00000000: f5de 2f3d a79d 8d3d eec7 25bc a0f0 c33d
00000010: af9f 18bc a60b 553c 8d85 fe3a 2eb3 b1bc
00000020: 46f2 283d 9877 6eba 62aa 593d cb7e f33b
00000030: 8a3b ad3c beb0 0c3d 2099 83bd e394 e53c
00000040: 2ec2 84bc 8e7f a33c c354 763d 6579 1c3d
00000050: b1a4 6c3b bd30 f83c 2022 453d 856d c7bd
00000060: e601 cb3c f813 533d 8576 023d e018 a43c
00000070: 3f1c e03c ec48 253d e7c9 fc3b 4bbf 673c
00000080: 4454 c6b9 ee68 0f3d 1732 d63c 5bd4 16bc
00000090: f8c6 b43c 18ff 29bc 415e 63bd 719b 023d
000000a0: 8912 31bd 2d86 ec3c 7da2 89bd a069 d0ba
000000b0: e1ad d03c 1d7b e23c 7d02 e2bc eb22 89bc
000000c0: 8d82 083c c29c 66bb 6afa 89bc 2a61 143c
000000d0: e18f f4bb 07a2 b5bc fb1c d4bc 0298 103d
000000e0: f073 f2bb 7a68 a9bb a613 8dbc bdac 71bc
000000f0: bd9c 03bc b01e 113c d2f4 1fbc 7b96 c6bc
00000100: 4628 b4bc c3db 953c d318 21bc 6410 caba
00000110: 63be 82bc f530 91bc cf6d 75bc 9034 e139
00000120: 4d07 1a3c d153 823c 44bb 00bc
0.042937238 0.069148354 -0.010118468 0.0956738 -0.009315415 0.0130032655 0.0019418463 -0.021691885
0.041246675 -0.00090968003 0.053141005 0.0074308864 0.021146554 0.034348242 -0.06425691 0.028025096
-0.016205873 0.019958284 0.06013943 0.03820171 0.0036108906 0.030296678 0.048128247 -0.09737686
0.024781179 0.051532716 0.03185131 0.020031393 0.027357219 0.040352747 0.0077144983 0.014144729
-0.00037828286 0.035012178 0.026146932 -0.009205903 0.022067532 -0.0103757605 -0.05550981 0.03188652
-0.043230567 0.028872574 -0.06720445 -0.0015900619 0.025473537 0.027646596 -0.027589077 -0.016740283
0.008331907 -0.003518865 -0.01684304 0.009056369 -0.0074634408 -0.022171987 -0.025892725 0.035301216
-0.0073990747 -0.0051699253 -0.017221283 -0.014750657 -0.008032975 0.008857414 -0.00976296 -0.024241677
-0.02199186 0.018293267 -0.009832579 -0.0015416262 -0.015959924 -0.01772354 -0.014979794 0.00042954506
0.009401155 0.015909107 -0.007857148

bnorm.running_mean f4 [75]
00000000: 59ec 9abd 1c27 70bc 2af5 ed3c a43c 11be
00000010: 5fe1 f43d 9073 953d 9917 5d3d a8a7 e33d
00000020: c5b5 0cbd ebff c83c 8cd2 8ebd 60a6 a43d
00000030: 3538 42bd a345 7dbd 43cd 393d 3d8c 7e3b
00000040: 84e1 14bd 1a07 0d3e cc37 c3bd eaa4 e73d
00000050: ad0e 203d 1e9f 81bd c38e d63d 2c21 b5bd
00000060: 7c4d 9f3d 2307 113d e092 86bd 29a2 e7bd
00000070: 7226 e13d 2fcb 163d 15c7 00bd 074d 4dbb
00000080: 452b 12bc 71c9 f8bc 184f 1fbd fbad 52bc
00000090: 9f5c e4bc 90eb 7d3c 08b4 6c3c 8b24 69bc
000000a0: 27ca 183d 823a 96bc 37a7 973c 6ad8 1bbc
000000b0: 46dc c9bc 6a32 643c 46d3 5a3e 44d6 82be
000000c0: ecc1 40bd a8fb a73d 96ff ea3d a2eb 36be
000000d0: 0a26 78bd 8eb9 463e baf1 913e 411a 013d
000000e0: 0501 213e 00fc 81be 0039 9d3e 707c fe3d
000000f0: 4941 cb3f 5dce d340 e124 4fc1 1aab 37c1
00000100: bbfc 90bf af12 27bf ac70 0e3f 4310 9e40
00000110: 9046 24c1 3844 cbc0 2365 18c0 c8ca bdbf
00000120: aed7 0441 5369 1bc0 af51 2a41
-0.07564611 -0.014657762 0.029047567 -0.14183289 0.119570486 0.072974324 0.053977583 0.11115962
-0.034353036 0.024536094 -0.069737524 0.08039546 -0.047416884 -0.06183399 0.04536177 0.0038840913
-0.03634788 0.1377224 -0.09532127 0.11310752 0.039076496 -0.06329177 0.104764484 -0.08844218
0.07778451 0.035407197 -0.06570983 -0.113102265 0.10993661 0.036814865 -0.03143986 -0.003132643
-0.008921449 -0.030369492 -0.03889379 -0.012858863 -0.027876196 0.015498057 0.01444722 -0.014229904
0.037302162 -0.018338446 0.018512351 -0.009512046 -0.024641167 0.013928035 0.21369657 -0.25554097
-0.04705994 0.082022965 0.114745304 -0.17863324 -0.060583152 0.19406721 0.28504735 0.03151918
0.15723045 -0.25387573 0.3070755 0.12426078 1.5879298 6.618941 -12.946504 -11.479273
-1.1327127 -0.65262884 0.55640674 4.939485 -10.267227 -6.3520775 -2.381173 -1.4827509
8.302656 -2.4283035 10.644942

bnorm.running_var f4 [75]
00000000: 8e9a f43d d99d c53c b7b9 b93c 9471 ac3e
00000010: e803 863e 17f7 cb3d a297 873d b3eb 6a3e
00000020: d443 ba3c 86fb 173d a014 c03d 7ecd eb3d
00000030: 7593 373d 93b4 9a3d d3ee 3a3d ed73 483c
00000040: 1e86 a83c eb7b 323e 9557 dd3d 9eb2 e03d
00000050: 99a2 923c a2b5 673d a0fb df3d 3b28 973d
00000060: 6240 763d 0582 c43c 8487 2e3d 0d97 053e
00000070: 33a5 cf3d 0245 b23c 7df6 793c e322 b23a
00000080: 70c6 563b 7f96 cf3b a9eb ed3c 1a61 613b
00000090: 505c 843c 4c3d bc3b 9470 903b 5a34 b63b
000000a0: 1016 9e3c cd6f 8a3b 066a 023c 70b7 003b
000000b0: df78 7d3c c9db 193b a8b3 a83d 9e55 ff3d
000000c0: d829 d43b 98a7 6f3c 3b54 c43c 65e8 823d
000000d0: 70b4 da3b b6b2 8c3d 5b2d 193e 506a ff3a
000000e0: 0de8 433d e682 f63d 3e8b 2e3e 607d e63c
000000f0: 4d37 ab40 16bc ac42 d36f a343 c5ba 8043
00000100: 0b58 8540 be63 0d40 c6a5 ce3f a242 4442
00000110: 339d 4d43 08be 9e42 e140 4041 eebe a240
00000120: 9807 0743 65e1 4641 5697 5e43
0.119435415 0.02412312 0.022671564 0.33680403 0.26174855 0.09959238 0.066207185 0.22941475
0.022737421 0.037105106 0.09378934 0.11513804 0.04481836 0.07553973 0.045637917 0.01223467
0.020571765 0.17430083 0.108077206 0.109715685 0.017899798 0.056569703 0.109366655 0.0738072
0.060119994 0.02398778 0.042609707 0.13045903 0.10138931 0.021761421 0.015256521 0.0013590719
0.0032772087 0.006335079 0.029043036 0.0034390152 0.0161573 0.005744612 0.0044079516 0.00556044
0.01929763 0.0042247535 0.007959848 0.0019640587 0.015470712 0.002347695 0.08237392 0.12467502
0.0064747147 0.01462736 0.023965945 0.06391982 0.006674342 0.06870024 0.14958708 0.001948664
0.047828723 0.12036686 0.17045304 0.028135955 5.3505006 86.367355 326.87363 257.45914
4.1669974 2.2092128 1.614434 49.06507 205.61406 79.371155 12.01584 5.085807
135.02966 12.430028 222.59116

block2.conv_2.weight f4 [75, 15, 10]
00000000: 45f4 44bd a7f7 283d 16c7 e33c 1a54 5bbd
00000010: fb02 c0bd 79e8 483c 45d1 613d f406 79bb
00000020: 19d6 e3bc bf81 86bc be8b 663d 4636 533b
00000030: f4aa 30bd 58ce a63c 1b64 3abd f033 f23c
00000040: cb6c 073d 264f ff3b d652 ecbd 2fe7 e4bd
00000050: 5ab1 833b 2775 eebc 45ee 16ba 7bb2 343d
00000060: cb36 e53c 5f8d 1ebd ad2d 88bb 3024 d63c
00000070: 78f8 1abd 95e9 67bd b107 6d3b 8f56 813c
00000080: 637c 7abd 1483 803d 7147 9abd 6836 d93c
00000090: c470 93bd 6682 cf3c 1f2f b0bc 02bf 613d
000000a0: 5f83 68bd d654 f63c 852f 8dbd a91c 123d
000000b0: d04f aabb fd76 293d fac8 453d 3fe8 953c
000000c0: 4f89 1c3d d70d 5abb d69c 4abc eacd d6bc
000000d0: 61f3 70bc a4c0 5cbd 2d32 28bd bbdf 4b3d
000000e0: 509d 78bc d125 823d 0006 37bd 3835 8bbd
000000f0: 5736 45bd 36a5 a3bc a097 9ebd 9528 793d
00000100: a1e8 04bd 0771 a4bd 4e5c 9bbd 2b19 993d
00000110: 458d e73c 089c febc 861a 39bc 49d9 71bd
00000120: 55d7 96bd ef33 2d3d afdb 65bd 5869 05bd
00000130: a054 a9bd ce10 033d dd87 3f3d d440 883d
00000140: 4a28 5abd 32ba 873d d6fd 9c3b 1006 a33d
00000150: d442 893d 11a5 7cbd 373a 8dbd 968f 673d
00000160: 401b 0dbd 3cbc 98bd bd3c 2a3d d5a0 b83d
00000170: cbca e4bc 72e2 043d fb3a c4bc e889 53bd
00000180: 3d2d 52bd 9e19 8c3d 066d 2cbc 254c e1bc
00000190: 7340 dc3b c13e 673c 2e5b d83c dcc0 8c3d
000001a0: 213b 683d 5c9c 26bd 3d24 afbd 0f84 52bd
000001b0: 49c7 703d e377 97bd 9227 e8bc a48b 27bd
000001c0: d6e4 563d b070 323d a58f 8fbd 65dc 4b3d
000001d0: cb20 fb3b 4127 733d b969 99bd e6b9 bd3c
000001e0: 3302 a6bd a497 01bd e655 623b 239f 783d
000001f0: 8118 433a b82b 9fbd f979 a3bd 7b62 073d
00000200: 0ad1 053c a218 3d3d 2409 123c 7e0e 2ebd
00000210: cf79 c2bc 5e36 843d 626f 92bd 02db 81bc
00000220: f749 66bd 38d6 2ebd d953 903d 668e 75bd
00000230: 8348 9fbd fd0e cf3c ea1e aebd 5204 293d
00000240: 8625 d0bc 89f7 933c a8e6 0dbc 4392 253d
00000250: 825d 5f3d acc1 dd3c a581 813d ac04 d5bd
00000260: 72ca 9cbd 65b6 81bd 44f1 4bbd 5bf5 293c
00000270: f5d3 543d d4fa 633d 33a1 403d 1907 1cbc
00000280: 0ab4 cf3c 3df6 6a3d b72f 923c 196d 513d
00000290: 530d 923b 33af cebc e66b 3f3c b43b 6c3d
000002a0: 21f2 04bd 3958 d93c 7e15 8a3d a608 5fbd
000002b0: 5217 cebc 9c40 d0bc 73df b0bd d309 983c
000002c0: bf26 503c e044 b1bc 9f7e fb3c 396e fdbc
000002d0: 328b 7f3d f321 4bbd 10d4 b53c e002 88bd
000002e0: b031 b0bd 6a08 9a3c fda5 763b b3fb 46bd
000002f0: 7940 93bc f445 76bc 2215 273c d252 7fbc
00000300: 7110 75bd b3d9 1ebd 70dc 053d db8a 2c3d
00000310: 63ee 5fbd 7fae ac3d 4bb8 ddbc c5eb aabd
00000320: 79cf da3c 5c36 f53c 83cc 173d c572 c6ba
00000330: ab68 a4bd 999f 813b 99ea e4bc d11a dcbc
00000340: c23b 333d 1a35 80bd be1e afbd 4104 863d
00000350: e45a 8bbd a56e 583d e102 9c3d d398 a13b
00000360: 7b3a 613d 9fce 3d3d 27de 333d ee20 fb3c
00000370: d4e8 52bc 8dbb babd 5f33 a4bd 5af9 81bd
00000380: 388d 75bd e986 2bbd 8fad b3bc 43af 0ebd
00000390: 0a66 3ebd a0fe 063d 9723 4cbc 8a44 c73b
000003a0: df40 05bd 0838 eb3c 23e7 13bd 57dd 10bd
000003b0: b9a1 6e3d c1b5 363d 140b 80bc 8f2c 573d
000003c0: 250c c13d 19aa 953d 2bf0 573c d276 aabc
000003d0: f04f 653c e639 ddbb 1184 08bd c78a 6dbd
000003e0: 7c87 82bd 7295 0b3c b105 6ebd f769 79bd
000003f0: 887c 223d da7e 6e3d 2fa6 a43c 9936 453d
-0.048084516 0.041251805 0.027804893 -0.053547002 -0.093755685 0.012262457 0.055131216 -0.003799853
-0.02781205 -0.01641929 0.056285612 0.0032228394 -0.043131784 0.020362064 -0.045505624 0.029565781
0.033062737 0.0077914177 -0.11539237 -0.11176907 0.0040189447 -0.029108597 -0.0005757551 0.044115525
0.027980229 -0.03870904 -0.0041558356 0.026140302 -0.037834615 -0.056619246 0.0036167915 0.015788345
-0.06115378 0.06275001 -0.075331576 0.0265152 -0.07199243 0.025330734 -0.021506844 0.0551138
-0.05676591 0.03006975 -0.06893829 0.035671864 -0.0051975027 0.04137324 0.04828737 0.01829922
0.038216885 -0.003327241 -0.012366494 -0.026221234 -0.014706464 -0.053894654 -0.041063476 0.049773913
-0.015174225 0.06354869 -0.044683456 -0.0679726 -0.048147526 -0.01997624 -0.07743764 0.060829718
-0.032448415 -0.08029371 -0.07585965 0.074755035 0.028265605 -0.03108026 -0.011297828 -0.05904511
-0.0736529 0.042285856 -0.05611771 -0.032571167 -0.08268094 0.031998448 0.04676043 0.0665299
-0.05326108 0.06627311 0.004791002 0.07960141 0.067021996 -0.061680857 -0.06895869 0.05653342
-0.034449816 -0.07457778 0.04156183 0.09015051 -0.02792873 0.032442518 -0.023953905 -0.05164519
-0.051312674 0.068408236 -0.01052404 -0.027502129 0.00672155 0.014114083 0.026410665 0.068727225
0.056697015 -0.04067646 -0.08551834 -0.051395472 0.058783803 -0.073959135 -0.028339181 -0.040904656
0.05246433 0.0435645 -0.0700982 0.04977073 0.0076638213 0.059363607 -0.07490868 0.023159932
-0.08105888 -0.031638756 0.0034536063 0.06069864 0.0007442311 -0.077720106 -0.07982249 0.033052903
0.008167515 0.04616607 0.008913312 -0.04249429 -0.023739723 0.06455682 -0.07150151 -0.015851501
-0.056222882 -0.042684764 0.07047243 -0.059950255 -0.077775024 0.025275702 -0.0850199 0.041263886
-0.025408518 0.01806237 -0.00866095 0.04042269 0.054532535 0.027069889 0.06323556 -0.10401282
-0.07655801 -0.06333617 -0.049790636 0.010373439 0.05195995 0.05565913 0.04702873 -0.009523177
0.025354404 0.057363737 0.017845018 0.051129434 0.004457155 -0.025230026 0.01168344 0.057674125
-0.032457475 0.026531326 0.067423806 -0.054451607 -0.025157604 -0.025421433 -0.086363696 0.018559372
0.01270455 -0.021639287 0.030700026 -0.030936347 0.062388606 -0.049592923 0.022195846 -0.06641173
-0.08603227 0.01880284 0.0037635558 -0.048579883 -0.017975079 -0.015031327 0.01019791 -0.015583711
-0.059830133 -0.038781833 0.03268093 0.04212461 -0.054670703 0.0843172 -0.027065417 -0.08345751
0.026710259 0.029933147 0.037060272 -0.0015140405 -0.08027776 0.003955793 -0.027943896 -0.026868256
0.04375816 -0.06260128 -0.085507855 0.0654378 -0.068044454 0.052839894 0.076177366 0.004931548
0.054987412 0.046339627 0.043913033 0.03065535 -0.012872893 -0.09117804 -0.08017611 -0.06346388
-0.05994913 -0.041876707 -0.021933345 -0.03483511 -0.04648403 0.032957673 -0.012459657 0.0060811685
-0.03253257 0.028713241 -0.0361091 -0.035367336 0.0582597 0.044606928 -0.015630282 0.05253273
0.094261445 0.07307834 0.013179819 -0.020808611 0.013996109 -0.006751287 -0.033329073 -0.057993677
-0.06373498 0.008519517 -0.058110896 -0.06089207 0.039669544 0.058226444 0.020098774 0.04814777

block2.bnorm_2.weight f4 [75]
00000000: a16a 803f ce93 813f 3f66 843f cfc5 7f3f
00000010: 1c5e 823f 99e0 743f e064 803f a216 7a3f
00000020: 478c 7b3f 60ff 833f 3a4f 853f 6540 7b3f
00000030: a282 803f 6d2c 7c3f 0a09 7d3f 4ed6 823f
00000040: 6b5a 833f 4a92 7b3f 9216 7a3f 5828 823f
00000050: 8f9f 7a3f 233c 863f f2c7 783f c912 843f
00000060: 2cd6 833f 3640 833f 1475 7d3f f135 793f
00000070: 51bf 7a3f dd97 763f 6c12 803f 2714 7d3f
00000080: 18ad 7d3f 60fa 803f f0f6 7d3f 434e 813f
00000090: 4264 803f 68ac 803f 3af4 763f 0bb3 843f
000000a0: 52f2 783f 3951 803f 5d05 7f3f ad2d 813f
000000b0: 9184 843f bd42 7b3f 97f9 803f 0d83 7c3f
000000c0: e643 853f 697d 7b3f e5e3 813f 3aff 7a3f
000000d0: 5a64 803f 76f2 863f e028 833f 8ef3 7a3f
000000e0: c556 823f 4bf1 7c3f 0e9b 7d3f b79b 7f3f
000000f0: d5fe 813f 7392 7f3f 476d 823f 2ce1 7f3f
00000100: 1dc2 813f b5f8 7b3f 8c5b 7e3f c272 803f
00000110: 0081 803f c1e7 803f 98c5 7d3f 24f0 7f3f
00000120: 6e27 793f 7942 7a3f eccf 7c3f
1.003254 1.0123231 1.0343703 0.99911207 1.018497 0.9565521 1.0030785 0.97690785
0.9826092 1.0312309 1.0414803 0.98145133 1.0039866 0.9850529 0.9884192 1.0221651
1.0261968 0.98270094 0.9769069 1.0168562 0.9789972 1.0487102 0.9718009 1.0318233
1.0299735 1.0253971 0.9900677 0.97347933 0.97948176 0.96325475 1.0005622 0.98858875
0.99092245 1.0076408 0.9920492 1.0102009 1.0030596 1.0052614 0.9646641 1.036714
0.9724475 1.0024787 0.9961756 1.0092064 1.0352956 0.9814871 1.0076169 0.9863747
1.0411346 0.98238236 1.0147673 0.98045695 1.0030625 1.0542743 1.0246849 0.98027885
1.018273 0.98805684 0.9906472 0.99846977 1.0155894 0.9983284 1.0189599 0.9995296
1.0137364 0.9842637 0.9935844 1.0035021 1.0039368 1.0070726 0.9912963 0.999758
0.9732579 0.9775768 0.98754764

block2.bnorm_2.bias f4 [75]
00000000: bc60 c5bc 3b38 853c 681a be3c 2275 eabc
00000010: 18d7 69bb 62a2 dbbc 5540 43bc c504 ca3c
00000020: c30d 7c3a 1d5e c9bc b694 7e3b e638 583b
00000030: 32d0 983c f023 aa3c c6c2 e0ba 4bf0 32bb
00000040: cefd bcba c99b a339 b964 4e3b 6d95 eebc
00000050: 1864 bebc 9d64 27bd 870d 63bc 5273 f53c
00000060: e345 1abc 25d6 503c f887 39bc 7645 8abc
00000070: c5e2 12bd e7fa aebc 7048 e13b 1766 633c
00000080: d459 04bd 42b9 afbc 821a 0cbc 3a50 653d
00000090: d447 9ebc dbd3 ac3c 91ed 25bc 920a d33d
000000a0: 6062 e0bc 61a1 95bc 3526 1a3d a742 09bd
000000b0: ba0a 293d 5820 4cbb d64f 933a ccbd 173c
000000c0: 902f a23c 7e28 2ebc 9f92 a53b deb0 ccbc
000000d0: e56a 6e3c c572 4b3d 4de0 a1bb 486b ddba
000000e0: 4a83 2bbc 288c 21bc 9aba 86bc cf56 c0bb
000000f0: 1cf1 cb3b a4f4 93bb 7fe1 d9bb ff88 ccbc
00000100: 721a f4bb 1eb8 c8bc 1ec3 0b3b 5b48 92bc
00000110: 7a8c 5ebc 0659 083b bd74 113b 7311 92bc
00000120: d9f8 c9bc d093 03bd 09d6 08bc
-0.024093978 0.016262164 0.02320595 -0.028620306 -0.0035681184 -0.026810829 -0.011917193 0.024660477
0.0009615088 -0.02458101 0.0038845963 0.0032992898 0.018653963 0.02076909 -0.0017147891 -0.002730387
-0.0014418901 0.00031205852 0.003149314 -0.029123986 -0.023241088 -0.040867437 -0.013858206 0.029962216
-0.009416076 0.012746369 -0.011323921 -0.016878825 -0.035860796 -0.021359874 0.0068750903 0.013879321
-0.03231223 -0.021450642 -0.008551242 0.055984713 -0.01932136 0.021097114 -0.010127441 0.103047505
-0.027390659 -0.018265428 0.037634093 -0.03351083 0.041269995 -0.0031147208 0.0011239003 0.00926156
0.01979807 -0.010629771 0.005052879 -0.02498668 0.014551853 0.04967 -0.004940069 -0.0016892934
-0.0104683135 -0.009860076 -0.0164464 -0.0058697234 0.006223811 -0.0045152474 -0.0066491957 -0.024967669
-0.0074494416 -0.024501856 0.0021326016 -0.017856767 -0.013583297 0.0020805015 0.0022194826 -0.017830586
-0.024654793 -0.032123387 -0.008351811

block2.bnorm_2.running_mean f4 [75]
00000000: eb34 babe f8eb 9fbe 7da8 e9be a5a6 cabe
00000010: 1f63 dfbd 5b17 233f b86c 8fbe 873b 283f
00000020: e12b a23e 4dd4 e5be 17d4 2bbf 6428 09bf
00000030: dd5f f7be 8387 83be 8f39 4dbe 2661 e1be
00000040: 30bb 2bbe dc1f 34be b909 a8bd b022 2fbf
00000050: 3573 2ebd 53fc 7abd fef2 b33e 515f 07bf
00000060: c66d 7cbe e72d b7be 81b5 1ebf 21e4 fe3e
00000070: 8250 53bc c4a4 47be 8691 19bf 2585 77bc
00000080: e468 013f cf6f 7bbe 1547 b73e c804 ccbe
00000090: 4c02 753e 2d6f 6fbe cccd af3e eb60 9fbe
000000a0: 0c9d dc3e bcae 823e e42c b3be 0d2f a93e
000000b0: 6610 98be 118e 47bf f9e2 9ebd 2370 053f
000000c0: 4a1f 92be 35fc e43e f716 6f3e e827 8d3e
000000d0: e32b 4bbf 7082 f0be 7103 32bf d227 24bf
000000e0: e350 89be 3fef 70bb df9a 5d3f 1941 3ebe
000000f0: a099 e4be f421 f5be 12af e63e be2d 473e
00000100: dd6d 483f c4ad df3e 41c6 153f 81b0 d1be
00000110: 6ba7 68bf 1532 5d3f d5a6 993e 25c6 a83c
00000120: 34a1 983e caac f9be 46d5 64be
-0.36368498 -0.31234717 -0.4563636 -0.39580265 -0.10907578 0.6370751 -0.28012633 0.6571583
0.31674102 -0.44888535 -0.671205 -0.53577256 -0.48315325 -0.25689325 -0.20041488 -0.4401943
-0.16770625 -0.17590278 -0.082049794 -0.68412304 -0.04259034 -0.06127579 0.35146326 -0.52879816
-0.2465125 -0.35777208 -0.61995703 0.49783424 -0.0128976125 -0.19496447 -0.59987676 -0.015107428
0.50550675 -0.2455437 0.3579642 -0.39847398 0.23926657 -0.23382254 0.34336698 -0.3112863
0.43088567 0.25523937 -0.34995186 0.3304371 -0.2970001 -0.7795115 -0.07758135 0.5212423
-0.28539497 0.4472367 0.23348604 0.2756951 -0.7936384 -0.46974516 -0.695365 -0.6412326
-0.26819524 -0.0036763696 0.8656444 -0.1857952 -0.44648457 -0.47877467 0.45055443 0.19451043
0.7829264 0.4368726 0.58505636 -0.40954974 -0.9088046 0.86404544 0.30010095 0.020602295
0.29810488 -0.4876464 -0.22346982

block2.bnorm_2.running_var f4 [75]
00000000: 91a4 7c3e 3522 403e b211 cd3e 8030 df3e
00000010: aeaa c83e c64a 0e3f 1c1e 963e ed6a 353f
00000020: d2ec be3e 4538 193f 9ad5 603f c427 f73e
00000030: 837d de3e c4c2 283e cec3 8f3e e3db ae3e
00000040: 7377 a53e e3d1 ea3e ba01 8a3f c9b0 323f
00000050: dd79 163e 43b1 453e c6a6 8e3e 0bf8 e03e
00000060: f6f2 0d3e bb4c c73e b1c9 853f 4b6e 123f
00000070: 27b4 753e 1e0d 763f d937 353f 3c54 373f
00000080: ea5c d13e b389 663e fe21 093f 0f8d fe3e
00000090: b950 203e 48be 923d 81b3 8b3f af42 963e
000000a0: 1212 cc3e b208 5d3f 713c d23e b347 a33f
000000b0: 9239 163e 1e84 043f 6a72 8a3e 3a32 be3e
000000c0: a368 aa3d c069 453e 4c23 bc3e 7dc8 b13e
000000d0: a939 9e3e c63c 233e 920f 9e3e 7e14 443e
000000e0: 551a ca3d 7515 4c3e 053d 5840 3257 473f
000000f0: 1fa3 173e f1c6 b63e 1abb 183e 6af1 803e
00000100: 52a8 953e b617 903f e2d7 4d3f 9d14 903f
00000110: e3a3 c93e 68a2 313e a21e bf3d 9389 d63d
00000120: 0abc 2a3e 898a 933e 6447 ba3d
0.24672152 0.18763049 0.40052563 0.4359169 0.39192718 0.55582845 0.29319847 0.7086628
0.37290055 0.59851485 0.8782593 0.48272526 0.43455133 0.16480547 0.28079075 0.34152135
0.32317695 0.45863256 1.0781777 0.69801 0.14694925 0.19305901 0.27861613 0.43939242
0.13862213 0.38925728 1.0452176 0.57199544 0.23994504 0.96113765 0.7078834 0.71612906
0.408912 0.22513466 0.5356749 0.49716994 0.15655793 0.071651995 1.0914155 0.2934775
0.39857537 0.86341393 0.41061738 1.2756256 0.14670399 0.51764095 0.27040416 0.37147695
0.08320739 0.19278622 0.3674568 0.34723273 0.30903366 0.15941152 0.30871254 0.19148442
0.09868304 0.1993006 3.3787243 0.77867424 0.1480832 0.35698655 0.14915124 0.25184184
0.2922998 1.1257236 0.80407536 1.1256291 0.39382848 0.1734711 0.093320146 0.10475459
0.16673294 0.2881663 0.09095648

block3.conv_3.weight f4 [150, 15, 10]
00000000: 5b68 873d 690b 4c3c b14f 0cbd 7baa ab3c
00000010: a79c 10bd 5c06 d33c 3963 b7bc 6598 4fbd
00000020: b78d 8fbd 9f71 8b3b 0f9f 22bd be00 37bc
00000030: 11ae 91bd 0e67 ea3c e59d e53c d8e3 1cbd
00000040: cb70 ab3b b6a7 7c3d 0c54 063b 30be f13c
00000050: fa90 fe3c c21d 27bd 0ef9 7fbc e4a5 963c
00000060: bde9 fe3c 2719 b3bb 9735 a5bb f644 89bd
00000070: 58b5 bcbd a7a5 3c3d 07c2 ffbb 3a3d a839
00000080: 8951 03bd 14a2 58bd 4390 2fbd 8028 c33b
00000090: 2051 8ebc 75c2 22bd 561c 87bd e706 ed3c
000000a0: 57e1 2cbb 2f5e ea3b cc25 873c da2d 193b
000000b0: 4352 b83c 8fb0 823c b745 b23c f89c 3bbd
000000c0: a0bb 0a3d 197b 1dbd 8b2f 53bd 6ca9 ce3c
000000d0: c4f6 003d b53a e7bc 947a 003d 68c3 17bd
000000e0: ba0c d9bc 2f9a 213d 6715 0d3d 7151 52bd
000000f0: aacd 6cbd 92be 13bd 83a9 47bd 3866 c5bc
00000100: 3ca7 36bc 403b d43b e85b 5dbd 44ef bd3b
00000110: 8191 db3c dc4a 7fbc 6bb5 68bc 4fe0 0abc
00000120: 9218 75bd 56be 20bd ed36 523d a2cf 1fbd
00000130: 3402 0a3d b79c 51bd 1507 debc 6975 edbc
00000140: 6159 193d eefd 493c b375 e3bc 4342 86bd
00000150: 2fdf 243c 338f b7bb 353f f23c 9e7b 1fbc
00000160: acb7 4bbd 2bc6 863c 12dc ac3c 7d96 bcbc
00000170: f31a db3c 639b c23c 1735 a73d c31a 513d
00000180: 6258 873d 5362 a43d a997 0e3d 6f78 12bd
00000190: 6faf 4b3d 3c8b 3c3d e3d0 753d 6602 e5bc
000001a0: b21e 723d 9664 5f3c 0681 34bd ea8c 95bd
000001b0: 4d38 20bd bfeb 7fbd 92e0 9d3d cb38 4cbc
000001c0: 108a cf3b 3d2f cb3c 1814 5d3d 3c45 8c3c
000001d0: f628 da3a d165 5fbd e7bf 723a e244 033d
000001e0: ee04 043b 0825 80bd c92f 973c 4bf6 2c3d
000001f0: b7ba aebc ae7c 833d ca0a 773d 61c0 263d
00000200: d736 a6bc 5fc6 083d 5f85 b3bb 6ba4 20bc
00000210: 6655 64bd 679c 0bbd 6f5c 8fbc 0fa1 1a3c
00000220: 38f0 05bc 5e96 9c3a 09ff 4dbd be10 a33d
00000230: 6f38 703c 4e6e 8fb8 07a4 80ba 7648 2fbd
00000240: 3516 efb9 f069 85bc 835b 16bd fa62 f13c
00000250: d21f 66bc fe3d 5bbd ea6a 09bc 705c 6d3d
00000260: 365c 2e3c 3749 66bc ec9a 5ebd 21f5 80bc
00000270: 79f8 063c 014d 8b3c 1dce 2cbd e08b 95bd
00000280: 7aa4 d2bc 16d5 093b c15b 023d 9c5d aabc
00000290: 83d9 b6ba 50ce bbbc d41c a2bc 62af 133d
000002a0: eeb6 313d 690a 583d 7c4d 3abd 369e a1bc
000002b0: d220 213c 5324 b3bb a377 393c b622 7ebd
000002c0: 4e02 88bb adab f0bc 225d bcbc ebbe c33b
000002d0: 2432 1e3c 03b9 17bc 562f bebc a66a ff3c
000002e0: e23f c03c 4c1e c13c 29ff 553b e3c3 ccbc
000002f0: aaa4 3f3d ad27 cc3c deb0 2fbd 457c 12bd
00000300: 4481 ffbb 3dea 4fbc 0d3d 793b 4fff dcbb
00000310: 8c7b 913d 1791 bc3c 00d2 283b 43cf edbc
00000320: 7a19 4abd cd57 38bd 13b1 493c 7f7e 33bd
00000330: 9b15 553d 1a18 25bd 2054 20bd bbf8 133d
00000340: 2a57 8b3d e57d abbb 9ffd 683d d183 a2bc
00000350: 262d 35bd 8fed bbbb 0dcd 2e3b 81d9 423d
00000360: fe47 9abc 09af 133d b1a5 afbc ddb9 95bc
00000370: fdf9 6fbc f96b 9f3b bcba 50bd 18d9 37bd
00000380: a759 dcbc 546a 28bd e5b0 4b3c f85d 21bd
00000390: 1f64 33bd 67c9 723d 3eee 8c3c 86f0 b43c
000003a0: 6f6c 71bc d607 e93c a0e2 413d ff18 163d
000003b0: c2fb 2abd a924 143d 3c4b 5bb8 8dac 363c
000003c0: 3e95 c13c 487e 3d3d a724 3dbd 1090 823c
000003d0: 7123 2dbd 7355 173c 219e 2f3d d1dc 53bd
000003e0: 3dbe 133d d734 dd3c 172f 233d 606b 28b8
000003f0: d968 d9bc 1a96 073d 2233 16bc b3a3 3dbd
0.06611701 0.012453892 -0.034255687 0.020955315 -0.035305645 0.025759868 -0.02238618 -0.050682444
-0.07009452 0.004255488 -0.03970247 -0.011169611 -0.07113279 0.028613593 0.028029392 -0.038303226
0.005231952 0.06168338 0.0020496873 0.029509634 0.03107499 -0.040799864 -0.015623344 0.01838965
0.031117314 -0.005465645 -0.005041789 -0.067026064 -0.09214276 0.046056416 -0.0078051123 0.00032089074
-0.03206018 -0.052888945 -0.042862188 0.0059557557 -0.017372668 -0.03973623 -0.065972015 0.028933955
-0.002637943 0.007152341 0.016497515 0.0023373277 0.022500163 0.01595333 0.021761758 -0.045803994
0.03387034 -0.038447473 -0.051559012 0.025227271 0.031485334 -0.028226236 0.0313669 -0.03705159
-0.026495326 0.03945368 0.03444424 -0.0513472 -0.057813324 -0.036070414 -0.048745643 -0.024096593
-0.01114827 0.0064767897 -0.054042727 0.005796345 0.02680278 -0.015581813 -0.01420341 -0.008476331
-0.059837885 -0.03924402 0.051321913 -0.039016373 0.033693507 -0.051174846 -0.027102986 -0.02898665
0.037438754 0.012328608 -0.027766084 -0.06555607 0.010062977 -0.0056017875 0.029571155 -0.0097340625
-0.04973571 0.016451916 0.021101031 -0.023020977 0.026746249 0.023755735 0.08164423 0.051050913
0.066086546 0.08026566 0.034812603 -0.035759386 0.049727853 0.04603122 0.060013663 -0.027955245
0.059111305 0.013634821 -0.04406836 -0.07302268 -0.039116193 -0.062480684 0.07708849 -0.012464712
0.006333597 0.024802798 0.05397424 0.017122857 0.0016644287 -0.05454046 0.0009260163 0.032048114
0.002014454 -0.06257063 0.018455403 0.04222707 -0.021329267 0.06420265 0.060313024 0.04071081
-0.020289822 0.033392306 -0.0054785456 -0.009804825 -0.055745505 -0.034084704 -0.01750013 0.009437813
-0.008174948 0.0011946668 -0.05029205 0.07962178 0.014661892 -6.839317e-05 -0.0009814509 -0.042793714
-0.00045602178 -0.016285866 -0.036708366 0.029466141 -0.0140456725 -0.053525917 -0.008387307 0.057949483
0.010642102 -0.014055542 -0.054346964 -0.015741887 0.008237951 0.017004492 -0.042188752 -0.0730207
-0.025713194 0.002103155 0.031825785 -0.02079659 -0.0013950322 -0.022925526 -0.019789137 0.03605593
0.043387346 0.052744303 -0.04548405 -0.019728761 0.009834485 -0.0054669767 0.0113200275 -0.06204482
-0.0041506654 -0.029378736 -0.022993628 0.005973687 0.009655509 -0.009260419 -0.02321593 0.031178784
0.023467962 0.023574017 0.0032653308 -0.02499575 0.046787895 0.024921263 -0.042893283 -0.035763044
-0.007797392 -0.012690124 0.0038030774 -0.0067443023 0.07103643 0.023018403 0.0025759935 -0.029029494
-0.049340703 -0.04500561 0.012310284 -0.043821808 0.052022558 -0.04030619 -0.039142728 0.03612588
0.068037346 -0.0052335137 0.056882497 -0.019838246 -0.04423251 -0.0057351063 0.0026672513 0.04757071
-0.018833157 0.0360556 -0.021441313 -0.018277103 -0.014647004 0.0048651663 -0.050959334 -0.04488477
-0.026898218 -0.041117027 0.012432312 -0.039396256 -0.043796655 0.059274103 0.017203446 0.022087347
-0.014735325 0.02844612 0.047335267 0.036644932 -0.041744 0.036167774 -5.2283736e-05 0.011149538
0.023630735 0.04626301 -0.046177533 0.015937835 -0.042270128 0.009236681 0.042875413 -0.05172426
0.036070097 0.027002735 0.03983983 -4.0154322e-05 -0.026539253 0.033102132 -0.009167464 -0.046298694

block3.bnorm_3.weight f4 [150]
00000000: ca28 833f 3630 803f fb1a 803f bbd0 743f
00000010: ac28 8b3f 010c 783f 0aaf 853f 017a 813f
00000020: a722 763f 6960 813f cfeb 823f 06dd 733f
00000030: 0b63 703f 56b0 823f e9ed 7f3f 1c65 863f
00000040: 3809 753f 728a 803f 5308 7a3f 5b79 863f
00000050: 5605 873f bf5e 833f 1387 653f 8e17 833f
00000060: 0a86 823f 2638 863f 43f9 7e3f b348 853f
00000070: dab2 7d3f dae9 713f dcc2 813f 6175 7c3f
00000080: 9b0c 823f b0bb 8a3f 6278 763f 0d8c 763f
00000090: 8113 873f 8546 833f 8a7e 7f3f 7c0b 763f
000000a0: ba2b 8d3f dcc5 783f fb51 8a3f 16dd 773f
000000b0: c1cf 833f 2c92 7c3f 6027 833f a753 753f
000000c0: 754b 7c3f 9352 813f dab4 873f ae9c 823f
000000d0: b516 833f 1ea3 7d3f c716 683f 16e0 773f
000000e0: 03df 7d3f d33c 863f 53ba 873f 75b4 803f
000000f0: a86a 803f f9df 7f3f 0146 783f 061f 7f3f
00000100: 48a2 7b3f 5d6b 7e3f 9251 813f 7fdb 803f
00000110: d67a 7d3f aca6 7c3f 4242 803f 41ca 7c3f
00000120: ad60 7c3f c851 843f a865 843f d97f 813f
00000130: 8599 7e3f 5f1d 853f 58d5 813f 3fda 803f
00000140: 1630 853f 753d 803f 4900 7b3f 1bdd 803f
00000150: f487 7a3f 3884 813f 9222 833f 1275 803f
00000160: 3708 7f3f 025d 803f 914e 853f 1d81 883f
00000170: 1a84 7f3f 31a5 833f bd62 803f 3c0c 7e3f
00000180: 9de3 7e3f 0994 7b3f 4b2d 823f f768 7e3f
00000190: 8e0a 7c3f 1595 7a3f 695b 7c3f 3d5f 8a3f
000001a0: 7651 803f 203a 7b3f 25d8 843f 040c 793f
000001b0: 8277 763f 8d7c 7e3f 0f88 863f 5254 803f
000001c0: 06da 7a3f bf2a 833f 84a7 743f e93c 803f
000001d0: 9ff4 773f c0fc 823f 4a95 853f 3ae6 703f
000001e0: ba23 823f 0c4f 813f 0ff7 773f ca80 7e3f
000001f0: 45fe 803f a559 7f3f 7c05 823f 9c95 7f3f
00000200: 00d6 7f3f 2af1 803f 8e8d 813f d25a 773f
00000210: 377e 7e3f 87f2 7f3f 3f14 823f 17e8 7c3f
00000220: d75d 813f d7bd 7a3f 710e 813f 6066 793f
00000230: 6625 813f 20d2 803f 12c8 7d3f aa26 813f
00000240: ea03 7c3f afa2 7d3f 8cab 823f be01 813f
00000250: 7af7 7b3f aa4e 7c3f
1.0246823 1.0014713 1.0008234 0.95631 1.0871787 0.96893317 1.0444043 1.0115358
0.96146625 1.0107547 1.0228213 0.9525913 0.9390113 1.0210063 0.999724 1.0499606
0.9571719 1.004225 0.9766895 1.0505785 1.0548503 1.0263289 0.8965923 1.0241563
1.0197155 1.0485885 0.99599093 1.0412811 0.9910103 0.94497454 1.0137591 0.98616606
1.0160097 1.0838528 0.9627744 0.9630745 1.0552827 1.0255896 0.9980246 0.96111274
1.1028969 0.9717691 1.0806268 0.96821725 1.0297776 0.9866054 1.0246391 0.9583077
0.9855264 1.0103325 1.0602067 1.0204065 1.0241305 0.9907702 0.90659755 0.96826303
0.99168414 1.0487312 1.0603737 1.0055071 1.0032549 0.9995113 0.9698182 0.99656713
0.98294497 0.99382573 1.0103018 1.0066985 0.9901556 0.9869182 1.002022 0.98746115
0.98585016 1.0337458 1.0343523 1.0117141 0.99453 1.0399588 1.0143232 1.0066603
1.04053 1.0018755 0.9804731 1.0067476 0.978637 1.0118475 1.0244925 1.0035727
0.9962191 1.0028384 1.0414602 1.0664402 0.99810946 1.0284787 1.0030133 0.9923742
0.9956606 0.9827276 1.0170072 0.99378914 0.98453605 0.9788373 0.9857698 1.0810314
1.002486 0.98135567 1.0378462 0.9728396 0.96276104 0.994088 1.0510272 1.0025733
0.9798893 1.024742 0.9556811 1.0018588 0.9685764 1.0233383 1.0436184 0.941013
1.0167153 1.0102248 0.96861356 0.99415267 1.0077597 0.9974616 1.0157924 0.9983766
0.99935913 1.0073597 1.0121324 0.96622956 0.9941134 0.9997944 1.0162429 0.9879164
1.0106763 0.9794592 1.0082532 0.97421837 1.0089538 1.0064125 0.9913341 1.0089924
0.9844347 0.9907636 1.0208602 1.0078657 0.98424494 0.9855753

block3.bnorm_3.bias f4 [150]
00000000: 4846 f83a 21aa 4ebc 1e6e 263b 4467 c0bb
00000010: 7ca0 223d 72fa babc b76d fdbb 6aee 613a
00000020: 1169 4ebc 2de3 80bc 1135 b9bc ebe7 3fbd
00000030: c3f3 8abd 3d1e 68bc 2a54 923c 0ecc b33c
00000040: b160 edbc 4a7a 1f3b 26dd 07bd 3325 abbc
00000050: 05d4 b4bc 2a3a a1bc 96a6 7ebd 731e 19bd
00000060: e81b f5bc 77f1 ccbb 2c27 a7bc 7ba0 6a3a
00000070: 7560 b63b 492f 5bbd 7dd4 e6bc 8a36 35bc
00000080: 1110 e23b 572a 733c f7c5 d3bc fd55 03bd
00000090: 6564 c03c 23cd f2bc e4ed cbbc cfd5 82bd
000000a0: ff03 383d 204a 3dbd 306f 2c3d 3583 3fbd
000000b0: 7640 693c fe54 523c 51fb af3c b352 a6bc
000000c0: 9d67 193b b734 37bd 1dd5 92bc 5408 123b
000000d0: 1014 25bb 30f6 56bd 0ad9 25bd 9961 283c
000000e0: 18a8 a4bb ca6b bf3c df64 213c fbdd 89bc
000000f0: 0c5d a5bc 317a 84bc 36c5 8abc f499 42bd
00000100: 7f84 4cbc 31ba 28bd 8aed 043d 6fa9 b83b
00000110: d824 21bb 8222 e2bc 7d3a ffbb b077 b7bc
00000120: 11f1 f8bb f717 483d 76b9 be3b 0ff0 9d3c
00000130: 0c83 68bd 8491 83bb 461e f1bb 189f 053c
00000140: f256 453d 2d72 1c3c 7759 a8bc bec5 ce3c
00000150: 7f2b cdbc 3ae8 943c 5cd1 a53c ddd1 84bc
00000160: e936 17bc 2d6e 8f3c 1c35 a03c 7da8 fc3a
00000170: 16cf 27bc a151 c43c ccf0 f53b 37ce b6bc
00000180: 0b56 9abc 5174 15bd 3383 8f3c 36ee 03bc
00000190: e55c 16bc 5227 ae3b fcb3 4bbc 3c0a 323d
000001a0: b0cf 77bb 5c9c 9ebc 54e2 9c3d cfd8 c2bc
000001b0: 73c4 c7bc 090e 043c 9d82 423d 2a17 0fbd
000001c0: cc7b 88bc cc47 6bbc 23a5 0cbd e1ef 90bc
000001d0: 4fa9 d6bc 0b4f 453c 91e7 423d 2da8 2cbd
000001e0: 8e2e df3b d603 88bc b28c b7bc 93e2 2eb9
000001f0: 3808 97bb 83ad 463b 1b4a 01bd 7ddd 35bc
00000200: 221f 3b3c 65cb 17bd c952 213c 9471 42bd
00000210: d686 65bc 2f47 c13c 8a97 2fbb a73b 4f3b
00000220: 5168 0abd 89e1 90bc d9ee d83b 4c80 dcbb
00000230: b236 80bc 1aad 57bc 6967 ccbb 33fe e2bc
00000240: be8c 97bc 6905 97bc c810 543c a276 29bc
00000250: b34b b1bc 1794 79bb
0.0018941844 -0.012613804 0.0025395225 -0.005871685 0.03970383 -0.0228245 -0.0077340263 0.00086185953
-0.012598292 -0.015733326 -0.022608312 -0.046852034 -0.06784775 -0.014167366 0.017862398 0.021947887
-0.02897677 0.0024334365 -0.033169888 -0.020891761 -0.022073755 -0.019681055 -0.062170587 -0.037382554
-0.029920533 -0.006254371 -0.02040442 0.0008950305 0.005565698 -0.05351189 -0.028177494 -0.011060366
0.006898888 0.014841638 -0.025851233 -0.032064427 0.023485372 -0.029638832 -0.024893709 -0.06388437
0.044925686 -0.04621327 0.042098224 -0.04675599 0.01423656 0.0128376465 0.021482142 -0.020303106
0.0023407706 -0.044728007 -0.017923886 0.0022282796 -0.002518896 -0.052480876 -0.040490188 0.010277175
-0.005024921 0.023366828 0.00985071 -0.016829481 -0.02018597 -0.016171547 -0.01693974 -0.047510102
-0.012482761 -0.04119319 0.032453097 0.0056354324 -0.002458861 -0.027604345 -0.007788955 -0.022395939
-0.0075970967 0.04885098 0.0058204485 0.019279508 -0.0567656 -0.0040151495 -0.007358345 0.008155607
0.04817862 0.009548706 -0.020550473 0.025240775 -0.025045155 0.01817714 0.020241432 -0.016213352
-0.0092294 0.01750859 0.019556575 0.0019276288 -0.010242244 0.023964705 0.007505512 -0.022315128
-0.018839857 -0.03648788 0.017518615 -0.008052399 -0.009177421 0.005314746 -0.012433048 0.04346679
-0.0037813 -0.019361667 0.07660356 -0.023785023 -0.024385666 0.008059987 0.047487844 -0.0349342
-0.016660593 -0.014360379 -0.034337174 -0.017692508 -0.02620378 0.012042771 0.04758412 -0.042152572
0.0068109697 -0.016603392 -0.022405956 -0.00016678339 -0.004609134 0.0030315823 -0.031564813 -0.01110017
0.011420997 -0.037059207 0.009846398 -0.047471598 -0.014009198 0.023593513 -0.0026793205 0.003162125
-0.03379089 -0.017685669 0.0066202697 -0.0067291614 -0.01565108 -0.013163829 -0.0062379134 -0.027709102
-0.018499728 -0.018435197 0.012943454 -0.010343226 -0.021642542 -0.0038082653

block3.bnorm_3.running_mean f4 [150]
00000000: 9c3d 3abe 8e98 86bc 77ae 04be 7216 803e
00000010: a7e1 9fbd 1848 b93e a618 903d 65d5 0abe
00000020: 5129 1c3e aaac 97be c7a2 c53d 14ab 08be
00000030: d2e6 213f 0c8b d1bd 8f00 06be bdee 48bd
00000040: 758f 673f 069f d0bd dc9a cd3e b930 613d
00000050: 82d1 92bd af1d eebd 7920 a23e 443b 27be
00000060: 7ac6 00be 548d 9f39 d513 01be 6106 4abc
00000070: ae30 cf3c 579f 69bd 64f3 1ebe 868d a3be
00000080: d546 1fbe 9881 23be 09a7 83be efc8 6b3e
00000090: 45ee 51be 8387 70be ed83 cbbe 6a8d 4fbe
000000a0: bf31 94be c4d3 8dbe 1c9c 84be 94c9 a73e
000000b0: d73f 0ebe 4f1e 96be 70f2 84bd 6de1 8fbe
000000c0: 22d3 46be d717 f5bd 693f 9ebc 1a9e aabe
000000d0: 7294 95be 74d1 26bf 8971 c43d 30f3 c93e
000000e0: 33e3 72be 828d bcbe f485 91be 90be 1abe
000000f0: 6bb9 12be 3c5e 593c 2d9a cabe 492c ffbc
00000100: 8e25 5abe 8433 ecbc 209c 1abf cbea 1dbe
00000110: a2bf fdbe b695 82bd 6aa9 87be 7d3a 803b
00000120: aa81 f6be db75 9dbd 5bbd 753d 7bce 49be
00000130: edb4 7cbe db38 91be cb86 58be 270f c7be
00000140: a266 88be addc f8be 2186 7cbe fe42 863e
00000150: b12a c6bd 3438 3ebe 9019 bfbe 6ea4 a4bd
00000160: dcd8 02bf bad3 fcbd 823f 923d 48dd b2be
00000170: 438f dcbd d38c 4abe 9203 a3be 85db 27be
00000180: d051 993d d774 eabd 481d 8abe 196d 073f
00000190: da5f 67be 9dca 99be 8f27 8d3e 8f54 29be
000001a0: b850 11be bf81 173f 7e53 043e f379 89be
000001b0: d4a6 db3e ff59 8fbd 5493 2abc bbdc 973e
000001c0: b06c 583e 7bd3 8bbe 7863 c63d 5af8 f83d
000001d0: 34e9 183f c8ea 5cbc 11ff 18be 107c 943e
000001e0: a59d bbbd 2d31 8d3e 54b7 2d3e 780a 1dbe
000001f0: 26f9 9f3d 7119 22bf 42ae 273e 3506 9e3d
00000200: 7c1f 3bbe cc0b b53e 4026 023e cc85 2c3f
00000210: 6e7c efbc df7d 0bbe fbbc 803e eb9d af3d
00000220: c242 b13e 02de c3be a5f2 12be 34bc 653e
00000230: 3b28 353e aef2 b73a f141 323f ed01 013e
00000240: 0489 933d 1b88 9d3e 9859 063f d06a a63e
00000250: f921 0b3f 6f91 883e
-0.18187565 -0.016430166 -0.12957178 0.25017124 -0.07806712 0.36187816 0.07035951 -0.13557966
0.15250136 -0.2962392 0.09650188 -0.13346511 0.6324283 -0.10231599 -0.1308615 -0.049055804
0.90453273 -0.10186581 0.4015721 0.054978106 -0.07168867 -0.116267554 0.316654 -0.16331202
-0.12575713 0.0003043214 -0.12605222 -0.012330622 0.025291767 -0.057036724 -0.15522534 -0.3194391
-0.15554364 -0.15967405 -0.25713375 0.23025869 -0.20501049 -0.23489194 -0.3974909 -0.20268789
-0.28944203 -0.27700627 -0.25900352 0.3277098 -0.1389154 -0.2932 -0.06491554 -0.28101674
-0.19416478 -0.11967438 -0.019317346 -0.33323747 -0.29214817 -0.6516335 0.095919676 0.3944335
-0.23719482 -0.36826712 -0.2842251 -0.15111756 -0.14328544 0.013267096 -0.39570752 -0.031149046
-0.21303388 -0.028833158 -0.6039448 -0.15421598 -0.49560267 -0.06376211 -0.2649644 0.0039132223
-0.481458 -0.07688495 0.059995037 -0.19707672 -0.24678393 -0.2836369 -0.2114517 -0.38878748
-0.26640803 -0.48605862 -0.24660541 0.26222986 -0.096761115 -0.18576127 -0.3732419 -0.08039175
-0.5111215 -0.12345071 0.071410194 -0.3493445 -0.107695125 -0.19780283 -0.3183866 -0.16392334
0.074863076 -0.11448067 -0.26975465 0.52900845 -0.22595158 -0.30037394 0.27569243 -0.16536163
-0.14190948 0.5918235 0.12922475 -0.26850852 0.42900717 -0.06999587 -0.010411102 0.2966059
0.21135211 -0.27309784 0.09686941 0.12156744 0.5973084 -0.013483711 -0.1494105 0.29000902
-0.09160928 0.2757658 0.16964465 -0.15336025 0.07811193 -0.6332007 0.16375068 0.07716028
-0.18273729 0.35360563 0.12709904 0.6739166 -0.029234137 -0.13622235 0.2514418 0.08575042
0.34621245 -0.38255316 -0.14350374 0.22435075 0.17691128 0.0014034116 0.6963187 0.12598391
0.07203868 0.30767903 0.5248046 0.32503366 0.54348713 0.26673457

block3.bnorm_3.running_var f4 [150]
00000000: 1717 ba3d fc15 c83d 8c8d 9a3d f9f1 0b3e
00000010: 63c5 793d e1ec 313e 03d6 c33d ced8 ef3d
00000020: 8237 053f e6e1 123e e45b bf3d cf13 ab3d
00000030: 52b7 8c3e 8a23 193e 64ec a43d 02db 943d
00000040: 3724 453e faeb 603d 8c98 aa3e 6d58 a73d
00000050: d811 d83d 5eac 603d e4b9 1e3f d458 983d
00000060: 3a6a 003e c8e4 043e 0946 c33d 5599 ae3d
00000070: e7c5 0c3e ab01 863e a8d9 563e 76e4 663e
00000080: 5b27 033e 2242 8f3d e935 fc3d 65da 4f3e
00000090: 5aa4 f13d 6be8 003e 2585 603e a3aa 573e
000000a0: 9cd7 ee3d 3b4d dd3d f065 0b3e bd5b d23e
000000b0: 5c4c e93d 9d4d 213e 8e2f fc3d 2cf8 283e
000000c0: 2cb4 853e be91 d03d 91a0 cb3d 7dbf 3f3e
000000d0: bfbb 003e 65ec 893e 2afd f73d 6a8e 153e
000000e0: 2891 df3d 6404 c23d 7a7f e33d 7532 d03d
000000f0: 2c2d 8c3d 6bdb 0e3e 2d63 ed3d 003b 3d3e
00000100: 4fe5 d13e 63cc 583e fa95 a03f 7cca 2d3d
00000110: 97dc 053e 08c2 9c3d 9531 9d3d 30cf aa3e
00000120: 576c e73e ab6b b43e 4e87 523e 6b76 4b3d
00000130: 74da 1e3e eacf 683d 0e74 d23d 413c 573e
00000140: 96c1 eb3d ce4d 6d3e 9bbd a73d f42e 423d
00000150: f7fb 9b3e 8fe0 673e 39cd c93d d87f d93d
00000160: 188b cb3e e6e8 973d 2873 523e e551 593e
00000170: d687 9f3e c0c4 6b3e 1ece 3c3e cdaa 943d
00000180: afc8 953e f1d3 653e bf68 443e 55a9 773e
00000190: 865a 9e3d 23f2 a63d c4e9 be3d de4d ae3d
000001a0: 443d b03d a1e9 163e 7aab b43d cdbe d93d
000001b0: 5c28 f03e cbfc ec3d 3d32 343e d247 913e
000001c0: 2871 da3d 2d00 1e3e 1659 063e 1eca f83d
000001d0: abc8 b63e 7b1c c43d 2e2e b03d d4e5 853e
000001e0: ecea 103e 7b6b 1f3e c536 a03d ea37 103e
000001f0: 272d 283e 08f8 c43e fabd be3d ca8a e03d
00000200: d4bb 123f 2aff 143e b44e 273e ab53 b73e
00000210: 6971 dd3d 6f83 613e a190 473e 0f60 f83d
00000220: 366f 9e3e c6cd 0f3f 52fa 253e e082 d93e
00000230: 29cf a93d f951 7d3e 543c 5b3e a64c f53d
00000240: 6aec 363e 6327 403f 5fc5 213e 4b2f 253e
00000250: 46ba 113f 0432 4b3f
0.09086435 0.09769818 0.07546529 0.13666524 0.06097926 0.17375518 0.09562304 0.11711274
0.52037823 0.14343986 0.093436986 0.083533876 0.27483612 0.14954963 0.080529004 0.07268335
0.19252096 0.054912545 0.3331951 0.08171163 0.105502784 0.054851882 0.62002397 0.074388176
0.12540522 0.12977898 0.095348425 0.085253395 0.13747369 0.26173148 0.20981467 0.22548088
0.12807982 0.06995036 0.1231497 0.20298155 0.11798926 0.1258866 0.2192579 0.21061186
0.11662218 0.10805746 0.13613105 0.41085616 0.113915175 0.15752263 0.12313758 0.1650092
0.26114023 0.10184048 0.09942735 0.1872539 0.1257162 0.26938167 0.12108834 0.14605108
0.10916358 0.09473494 0.111082986 0.10165874 0.06844553 0.13950889 0.11591182 0.18479538
0.4099526 0.21171717 1.2545769 0.042429432 0.1307243 0.07654196 0.07675473 0.33361197
0.45199844 0.35238394 0.20559427 0.04967348 0.15513021 0.056838907 0.10276042 0.21019079
0.11511533 0.23174211 0.08190461 0.04740806 0.3046567 0.22644256 0.09853596 0.106200874
0.39754558 0.07417469 0.20551741 0.21222647 0.31158322 0.23024273 0.18438002 0.0725914
0.29254672 0.2244413 0.19180582 0.24185689 0.0773211 0.08151653 0.09321931 0.08510946
0.086054355 0.1473756 0.08821769 0.106320955 0.46905792 0.11571654 0.1759729 0.28375107
0.10666114 0.15429755 0.13119921 0.12147926 0.35699973 0.09575745 0.08602558 0.26151907
0.14152116 0.15568344 0.078229465 0.1408383 0.16423474 0.38470483 0.09313579 0.10963972
0.5731785 0.14550462 0.16338617 0.3580602 0.10812647 0.22022794 0.19488765 0.12127697
0.30944222 0.5617336 0.16208771 0.42482662 0.08291466 0.24738301 0.21409732 0.1197751
0.17863622 0.750601 0.15797947 0.16131322 0.56924856 0.7937319
