submit_entry/checkpoints/Combined_edgcn_12s_slice_norm/V/2/best.pth (torch_old, 75847 bytes, 26 tensors)

conv_time.weight f4 [15, 1, 10]
-0.020790124 -0.14957307 -0.017636169 -0.020395702 -0.03355539 -0.06846833 -0.21685784 0.14637628
-0.018556386 0.16735795 0.17357308 0.1222398 0.11204103 0.12361155 -0.17915055 -0.119747445
0.15789081 -0.068918705 -0.18933663 -0.17750649 0.17375854 -0.024219533 0.0483092 0.12577006
-0.074661 -0.1907782 0.044892732 -0.11695759 -0.038410228 0.10576089 0.07094479 0.056458052
-0.11386599 -0.071878 0.11965454 -0.044003222 0.043922074 -0.01582782 -0.022187695 -0.066762984
0.14485005 -0.07104015 -0.05007279 -0.05971224 -0.10379812 0.18619697 -0.17601763 -0.14792508
0.10933664 0.15381253 0.0953851 -0.14150974 -0.022014087 0.14238672 0.06753461 -0.16999233
-0.15153313 0.17507736 0.06496453 0.20370585 -0.1728086 0.034376584 0.17312467 -0.13406946
0.034558903 -0.15102072 0.100019485 -0.004486334 -0.11683877 0.0013878644 0.06316714 -0.10242791
-0.0020679843 0.15951811 -0.032528043 -0.0066264705 -0.17099309 -0.08116774 -0.08837936 -0.19941914
0.09067682 -0.034802727 0.0016298847 0.10464062 0.16623038 0.081772596 0.20967911 0.1299308
0.07732109 0.081226945 0.10340349 -0.08961719 0.17665488 -0.06812809 0.1830796 -0.005888012
0.13845621 -0.14804651 -0.033646125 -0.14180458 0.13156378 0.020613942 0.18342945 0.07110325
-0.08750071 0.09682895 0.1171468 -0.12195395 0.07280228 0.06541261 -0.15901682 0.13714215
-0.029420124 -0.1108669 0.035947878 0.1289591 0.06408389 -0.11406351 -0.037100125 0.008812039
0.107103884 -0.12870203 0.17316793 -0.0075951302 0.107174724 -0.029286847 -0.12903018 -0.05843816
0.07496198 0.09465482 -0.06925934 -0.003717581 -0.0661204 -0.058626316 0.01017307 -0.04681881
0.122530006 -0.04995328 0.17303954 0.014828943 -0.17989533 0.031072952 -0.07305375 0.11006732
-0.080389716 -0.17095898 0.11796978 0.019819861 -0.0793265 0.07022025
00000000: 0d50 aabc af29 19be ba79 90bc e314 a7bc
00000010: 6071 09bd 2039 8cbd fb0f 5ebe aae3 153e
00000020: 9003 98bc e25f 2b3e 24bd 313e dc58 fa3d
00000030: c475 e53d 0d28 fd3d 3e73 37be 263e f5bd
00000040: 21ae 213e 4025 8dbd 76e1 41be 43c4 35be
00000050: c2ed 313e 0b68 c6bc dedf 453d dec9 003e
00000060: dee7 98bd 5c5b 43be 71e1 373d 7687 efbd
00000070: 0b54 1dbd 2a99 d83d 814b 913d 8f40 673d
00000080: 9232 e9bd c634 93bd 710d f53d b93c 34bd
00000090: a2e7 333d 58a9 81bc f8c2 b5bc 08bb 88bd
000000a0: 9253 143e 807d 91bd 2019 4dbd d294 74bd
000000b0: 1c94 d4bd 6baa 3e3e f73d 34be ac79 17be
000000c0: e3eb df3d 0881 1d3e 4359 c33d eee7 10be
000000d0: e356 b4bc d3cd 113e 964f 8a3d 7812 2ebe
000000e0: 802b 1bbe 7b47 333e 200c 853d 4498 503e
000000f0: bdf4 30be 76ce 0c3d 9847 313e 8149 09be
00000100: a38d 0d3d 2da5 1abe 04d7 cc3d 1902 93bb
00000110: 2a49 efbd 00e9 b53a c65d 813d b9c5 d1bd
00000120: 0587 07bb b758 233e 203c 05bd dd22 d9bb
00000130: d018 2fbe 463b a6bd 3d00 b5bd 8834 4cbe
00000140: c5b4 b93d 4e8d 0ebd dba1 d53a d24d d63d
00000150: 4c38 2a3e 6478 a73d 1fb6 563e 940c 053e
00000160: 855a 9e3d 505a a63d 35c5 d33d 3889 b7bd
00000170: 04e5 343e bd86 8bbd 3879 3b3e 39f0 c0bb
00000180: 77c7 0d3e 8199 17be 85d0 09bd 3835 11be
00000190: a8b8 063e 92de a83c eed4 3b3e 959e 913d
000001a0: 9233 b3bd 424e c63d a9ea ef3d fec2 f9bd
000001b0: 5d19 953d 0cf7 853d 4ed5 22be fe6e 0c3e
000001c0: 7902 f1bc 2f0e e3bd 153e 133d db0d 043e
000001d0: 6a3e 833d 219a e9bd 4df6 17bd 5f60 103c
000001e0: 4859 db3d 77ca 03be ef52 313e 92e0 f8bb
000001f0: 6c7e db3d f8ea efbc 7d20 04be da5c 6fbd
00000200: ab85 993d 63da c13d d7d7 8dbd a9a2 73bb
00000210: 226a 87bd 2622 70bd f3ac 263c 15c5 3fbd
00000220: 03f1 fa3d cf9b 4cbd 4731 313e 18f5 723c
00000230: 7b36 38be b48c fe3c 349d 95bd fa6a e13d
00000240: 5da3 a4bd df0f 2fbe 249a f13d 435d a23c
00000250: ef75 a2bd a2cf 8f3d

conv_time.bias f4 [15]
-0.013258825 -0.0076355 0.0037836675 -0.008837995 -0.0023040802 0.000255761 -0.0036070384 -0.008505548
-0.015513383 -0.008862698 -0.0067542335 -0.0044877324 -0.02405268 0.0005448024 0.0053503644
00000000: 8b3b 59bc 3733 fabb 68f7 773b 3dcd 10bc
00000010: 0d00 17bb a917 8639 1064 6cbb db5a 0bbc
00000020: d82b 7ebc da34 11bc 9e52 ddbb d40d 93bb
00000030: 200a c5bc 12d1 0e3a 1c52 af3b

bnorm.weight f4 [15]
0.97377867 0.99812967 1.0044047 0.9800888 1.0085717 0.989651 0.99255544 0.97722
1.0044258 1.0357412 0.9960017 0.98805803 0.9850509 1.0229585 1.001507
00000000: 8f49 793f 6d85 7f3f 5590 803f 19e7 7a3f
00000010: e118 813f c559 7d3f 1d18 7e3f 172b 7a3f
00000020: 0691 803f 2b93 843f f8f9 7e3f 5ff1 7c3f
00000030: 4c2c 7c3f 4ef0 823f 6231 803f

bnorm.bias f4 [15]
-0.03611152 -0.0004477219 0.0755507 0.0004552739 0.034318518 -0.0026235227 -0.021443427 0.024145013
0.026837217 0.055830497 -0.050313324 -0.01064423 0.02217612 0.03893133 -0.0081115225
00000000: ace9 13bd 37bc eab9 53ba 9a3d d4b1 ee39
00000010: 9391 0c3d 68ef 2bbb 20aa afbc c3cb c53c
00000020: b9d9 db3c 85ae 643d 5815 4ebd 2365 2ebc
00000030: b2aa b53c 7576 1f3d 31e6 04bc

bnorm.running_mean f4 [15]
-0.1452489 -0.03224691 0.03385041 -0.035245765 -0.01052689 0.15044713 -0.13883023 -0.27095714
0.5022098 0.05617922 0.3067017 -0.047696307 0.09248955 0.014602579 -0.12852198
00000000: 21bc 14be 5615 04bd baa6 0a3d dd5d 10bd
00000010: fa78 2cbc d00e 1a3e 8329 0ebe e5ba 8abe
00000020: d290 003f 2f1c 663d 0108 9d3e 345d 43bd
00000030: 296b bd3d a83f 6f3c 449b 03be

bnorm.running_var f4 [15]
0.0033564698 0.0029719374 0.00063475454 0.00018451792 0.00034615744 0.0035310953 0.0025636882 0.010701061
0.038877614 0.0015001901 0.013954005 0.0003169883 0.0019292 0.0006047818 0.0027426148
00000000: 38f8 5b3b d6c4 423b a865 263a 277b 4139
00000010: 777c b539 f369 673b 8d03 283b 8153 2f3c
00000020: 223e 1f3d 07a2 c43a 579f 643c 7331 a639
00000030: 36dd fc3a 388a 1e3a 71bd 333b

block2.conv_2.weight f4 [15, 15, 10]
-0.11752574 -0.0033869413 -0.030644188 0.10459607 0.1102842 -0.07532001 -0.019261379 -0.0747902
-0.100456975 0.081667356 0.06667008 -0.019317808 -0.07541677 0.1014286 -0.008954581 0.10194879
-0.15587428 -0.008034051 0.1320909 -0.07722601 0.096512355 -0.030362021 0.01981614 -0.11658128
-0.09654165 -0.11793901 -0.12832947 0.05330213 -0.026246265 0.05031736 -0.091819264 0.111122094
0.09630048 -0.11310925 -0.09763079 -0.07478492 -0.13939478 0.022097006 0.066802226 0.044375617
0.030128611 -0.04963753 -0.03492276 0.032244448 0.024879126 0.010320573 0.16765128 0.056982227
-0.12535086 -0.12454377 -0.115871586 0.0885281 0.042404238 -0.080637656 -0.09133087 0.091573305
0.031375732 -0.11014431 -0.009276794 -0.07496611 0.0027517958 -0.044175882 -0.0967842 -0.04731194
-0.023862824 0.030693103 0.000104960134 0.040173247 0.013099795 -0.0063784714 0.08182439 -0.035233337
0.1491025 0.0060404735 0.023622096 0.019661581 0.00048171106 -0.057859533 -0.064013556 -0.12804696
-0.0015992865 -0.05861392 -0.124492615 -0.14040123 -0.08681649 0.007035485 0.14478625 -0.018743161
0.14213242 -0.02978451 0.10198922 0.069578335 -0.10627229 -0.022475649 -0.089491665 -0.105638534
0.07356088 0.032405317 0.06649172 -0.07304366 -0.07104306 0.0069790897 -0.12264363 -0.007012613
0.06461355 0.038889732 0.064508475 -0.10648017 0.112620376 0.023646235 0.049156055 -0.113721915
0.0020801958 0.006531819 -0.0033071213 0.14879055 0.1023163 -0.009465949 0.14381197 -0.052930333
-0.059690196 0.021059196 0.043938607 -0.024690809 0.11343263 0.070475325 -0.024157288 -0.018822966
0.11676542 -0.07236538 0.13955304 0.09818565 -0.1336059 -0.09175723 0.0012905227 0.13352337
-0.034734923 -0.13507305 0.101724856 -0.12787311 -0.04250642 0.0046077445 -0.071898796 0.11677464
0.11782402 0.028696949 0.06344561 -0.010439724 0.0063480525 0.05525721 -0.014713602 -0.09889482
0.0849831 0.032614045 -0.10052653 -0.03367472 0.10423426 -0.079177 -0.13624935 0.051922776
0.03880511 0.047193807 -0.097803585 0.11504133 -0.03956301 -0.027150476 -0.14422357 -0.1432071
-0.17288437 0.050540175 0.1404087 -0.123752445 -0.003895257 -0.111813866 0.026651638 0.003245781
-0.15500951 0.01100684 -0.083764255 -0.089608856 0.09794454 0.1052706 0.06654325 -0.0722238
0.1425484 -0.097526595 -0.1114912 0.0059688548 -0.081881516 0.023923282 -0.017076287 0.011746029
-0.030155506 0.10920904 -0.1259838 -0.12336429 -0.049269248 0.08799076 -0.105115876 0.009981937
0.08368294 0.045640122 -0.11085312 0.11994831 -0.10050584 0.091413915 0.0035526038 -0.011413248
0.06271128 -0.013087507 -0.014532115 0.10357109 -0.066676445 -0.11917213 0.10431516 -0.11105437
0.050526522 0.13164422 -0.0016927462 -0.03896613 0.13940246 0.02320608 0.1235404 0.14477605
0.047544226 -0.08880977 0.060897484 0.13666008 -0.106937736 -0.06785947 0.014851398 0.102323495
-0.07720689 0.08400159 0.08064777 -0.17101404 -0.11240571 0.090467505 -0.079283305 -0.034707
0.055797324 0.08084632 0.11902346 -0.073656365 0.013293915 -0.13645324 0.025424499 -0.021931527
-0.08857345 -0.12358306 0.03611816 -0.091012746 -0.11886187 -0.02562158 0.03338942 -0.13686402
00000000: 56b1 f0bd 72f7 5dbb 8509 fbbc 7736 d63d
00000010: afdc e13d 6141 9abd 0aca 9dbc 9b2b 99bd
00000020: 63bc cdbd 3741 a73d 538a 883d 6140 9ebc
00000030: 1c74 9abd ccb9 cf3d 3cb6 12bc 87ca d03d
00000040: 829d 1fbe 41a1 03bc d642 073e ac28 9ebd
00000050: 45a8 c53d c6b9 f8bc 7555 a23c 2bc2 eebd
00000060: a1b7 c5bd 028a f1bd cd68 03be 5653 5a3d
00000070: 6802 d7bc 9319 4e3d bd0b bcbd fb93 e33d
00000080: 3039 c53d d3a5 e7bd a7f2 c7bd d628 99bd
00000090: 81bd 0ebe c804 b53c 9bcf 883d 35c3 353d
000000a0: 47d0 f63c b950 4bbd 2b0b 0fbd c112 043d
000000b0: 4fcf cb3c 9f17 293c c7ac 2b3e 3266 693d
000000c0: fa5b 00be ce10 ffbd 154e edbd 384e b53d
000000d0: 11b0 2d3d 5b25 a5bd ae0b bbbd c98a bb3d
000000e0: d783 003d 5793 e1bd b2fd 17bc d587 99bd
000000f0: 7957 343b c5f1 34bd cb36 c6bd 2aca 41bd
00000100: f87b c3bc 1a70 fb3c 0b1e dc38 b48c 243d
00000110: 86a0 563c 7f02 d1bb 8c93 a73d d550 10bd
00000120: 53ae 183e 2aef c53b 2083 c13c 5311 a13c
00000130: 2a8e fc39 1efe 6cbd 8a19 83bd be1e 03be
00000140: 269f d1ba 2615 70bd fcf5 febd 57c5 0fbe
00000150: d8cc b1bd ed89 e63b d942 143e 428b 99bc
00000160: 298b 113e a5fe f3bc b9df d03d 167f 8e3d
00000170: 49a5 d9bd da1e b8bc 6847 b7bd 0459 d8bd
00000180: 16a7 963d 70bb 043d d02c 883d ea97 95bd
00000190: 067f 91bd d9b0 e43b 952c fbbd 10ca e5bb
000001a0: 1c54 843d d74a 1f3d 051d 843d 4612 dabd
000001b0: 83a5 e63d c0b5 c13c dc57 493d 09e7 e8bd
000001c0: e553 083b de08 d63b 4abc 58bb 8d5c 183e
000001d0: 358b d13d 1117 1bbc 7243 133e 7acd 58bd
000001e0: b57d 74bd 5684 ac3c f8f8 333d 6144 cabc
000001f0: 5e4f e83d 5e55 903d 81e5 c5bc 9f32 9abc
00000200: b522 ef3d 4d34 94bd fee6 0e3e 8f15 c93d
00000210: fccf 08be 37eb bbbd c226 a93a 5aba 083e
00000220: 3546 0ebd 9750 0abe 1f55 d03d 2bf1 02be
00000230: 361b 2ebd 90fc 963b ad3f 93bd 8b27 ef3d
00000240: b84d f13d dd15 eb3c c6ef 813d 600b 2bbc
00000250: 5303 d03b 6255 623d 5211 71bc 5e89 cabd
00000260: 9f0b ae3d 4e96 053d dae0 cdbd 81ee 09bd
00000270: c678 d53d 8d27 a2bd f384 0bbe faac 543d
00000280: 1bf2 1e3d 4b4e 413d 3f4d c8bd ca9a eb3d
00000290: d30c 22bd ad6a debc 58af 13be e2a4 12be
000002a0: 9a08 31be 3703 4f3d 4cc7 0f3e ec71 fdbd
000002b0: 9147 7fbb abfe e4bd 8954 da3c 2bb7 543b
000002c0: d0ba 1ebe 0856 343c 988c abbd d984 b7bd
000002d0: 2697 c83d 1d98 d73d d447 883d 12ea 93bd
000002e0: 35f8 113e 06bc c7bd 8055 e4bd 6296 c33b
000002f0: 7fb1 a7bd c2fa c33c 92e3 8bbc 6b72 403c
00000300: ae08 f7bc fda8 df3d e601 01be 6ba6 fcbd
00000310: 8dce 49bd 8034 b43d fe46 d7bd 478b 233c
00000320: f661 ab3d 23f1 3a3d f606 e3bd 76a7 f53d
00000330: 01d6 cdbd 3837 bb3d cdd2 683b a2fe 3abc
00000340: c66e 803d fc6c 56bc 1c18 6ebc 141d d43d
00000350: a98d 88bd 8510 f4bd 30a3 d53d 7970 e3bd
00000360: e6f4 4e3d becd 063e 23df ddba f39a 1fbd
00000370: 85bf 0e3e ad1a be3c c002 fd3d 2c40 143e
00000380: bcbd 423d e6e1 b5bd a46f 793d 9ff0 0b3e
00000390: 2c02 dbbd e8f9 8abd 4753 733c fb8e d13d
000003a0: a51e 9ebd 0709 ac3d a82a a53d 4e1e 2fbe
000003b0: f734 e6bd 0747 b93d 495f a2bd ed28 0ebd
000003c0: bc8b 643d c192 a53d 92c2 f33d 26d9 96bd
000003d0: b9ce 593c 66ba 0bbe 0a47 d03c bfa9 b3bc
000003e0: ff65 b5bd 1e19 fdbd a3f0 133d e464 babd
000003f0: da6d f3bd 59e4 d1bc 58c3 083d 1526 0cbe

block2.bnorm_2.weight f4 [15]
1.0234984 1.0071661 0.99407434 0.9947979 0.9890918 0.9759253 0.9588058 1.0425003
0.9834969 1.0356584 0.9962987 0.9954752 0.99715215 1.00789 1.020931
00000000: ff01 833f d2ea 803f a87b 7e3f 13ab 7e3f
00000010: 1f35 7d3f 3ed6 793f 4c74 753f a670 853f
00000020: 74c6 7b3f 7490 843f 6e0d 7f3f 76d7 7e3f
00000030: 5d45 7f3f 8a02 813f dead 823f

block2.bnorm_2.bias f4 [15]
0.001340686 -0.03852554 -0.026819369 -0.0091051 0.0051855673 -0.044530332 -0.026051197 0.023378197
-0.051900916 0.06296612 -0.13632497 -0.028224422 0.002040134 0.0070156376 -0.013844825
00000000: f5b9 af3a f5cc 1dbd 4bb4 dbbc 8f2d 15bc
00000010: b1eb a93b 7065 36bd 5269 d5bc a283 bf3c
00000020: 0e96 54bd 62f4 803d c698 0bbe e736 e7bc
00000030: c5b3 053b 6fe3 e53b 68d5 62bc

block2.bnorm_2.running_mean f4 [15]
-0.175594 -0.25776842 -0.40279827 0.092469804 -0.29851943 0.038175136 0.25297782 -0.4266153
0.6637061 0.11642112 0.4964735 -0.049385708 -0.44641668 -0.30535504 -0.16995966
00000000: eace 33be 39fa 83be 933b cebe cf60 bd3d
00000010: 8ad7 98be 885d 1c3d 4f86 813e 526d dabe
00000020: a5e8 293f 326e ee3d c631 fe3e ab48 4abd
00000030: ba90 e4be 7f57 9cbe e809 2ebe

block2.bnorm_2.running_var f4 [15]
0.6068407 0.8512822 0.6449841 0.4538979 0.52824444 0.5308234 1.368878 0.42861962
0.3759035 0.3292151 0.82735384 0.4514543 0.69387275 0.4710924 0.2402582
00000000: ea59 1b3f a1ed 593f ae1d 253f 4e65 e83e
00000010: 073b 073f 0be4 073f 6537 af3f 0874 db3e
00000020: 6c76 c03e e28e a83e 76cd 533f 0525 e73e
00000030: a5a1 313f 0633 f13e 3f06 763e

block3.conv_3.weight f4 [30, 15, 10]
0.053191006 0.029704437 -0.041489147 0.026504593 -0.11767323 -0.06253526 0.040597934 -0.052050464
0.038915385 -0.041928213 0.07948307 -0.09227353 -0.06547283 0.057903554 -0.04200782 0.06415436
0.015012124 -0.038689755 0.046201292 -0.036243796 0.08076978 -0.00059961114 0.06600695 -0.049973078
0.05072222 0.07212528 0.02530191 -0.07864768 -0.031223195 -0.09004992 -0.026154725 -0.09212297
-0.114203654 0.0064766835 -0.015076001 -0.116326615 0.053913884 0.08224626 0.108637705 0.020633215
-0.065617576 -0.0629914 -0.10824055 -0.089660436 -0.03348341 0.07987475 0.06303027 0.07529525
0.059901785 0.027507108 -0.10290445 0.03725089 -0.08384161 0.017872028 0.015382723 0.016067315
-0.015880497 -0.05990059 0.028533066 -0.05084434 -0.08057037 0.054615352 0.03975645 0.035612527
-0.074409775 0.094109245 0.15096255 0.017608574 -0.060741212 -0.071320504 0.007156776 -0.093131475
-0.089208946 -0.017620765 0.03983303 0.09999842 0.10144449 0.08143775 -0.03701766 -0.042896844
0.057888024 0.0031701855 0.053499907 -0.11725201 0.04218751 0.02412921 0.03236819 -0.014751743
0.087994486 0.053372737 -0.09913879 -0.1378009 -0.10803837 0.09561907 -0.03502031 0.06567886
-0.06866874 -0.047224056 -0.06258132 0.044561904 -0.0976423 -0.1006224 -0.024245614 0.013502204
-0.09529743 -0.07941078 0.013631915 -0.053269207 0.07926975 -0.10480933 -0.076006174 -0.018387454
0.074549034 0.060548585 -0.022672001 -0.029675528 -0.042301983 -0.08209903 0.013421718 0.02414472
-0.12678261 0.09532023 0.04965849 0.049288932 -0.09766369 -0.07368239 -0.037364703 -0.09015902
-0.10673599 0.12034622 0.055928573 0.095459394 -0.048690844 0.10319515 0.09522645 0.06181406
-0.040887684 -0.022618197 0.0035168594 0.06426413 -0.0053160847 0.044822324 -0.096433654 -0.06109899
0.07225704 -0.04359925 -0.09227128 0.11848005 -0.025316179 0.014361403 0.07214829 -0.01188345
-0.010196076 0.051502805 -0.059067063 0.03125762 0.0020803546 -0.11872606 -0.16052572 -0.022173857
0.10145726 -0.066832505 -0.095769204 -0.080090046 -0.10180061 0.000286679 0.02630452 -0.09282293
-0.08063764 -0.070645764 -0.10269021 0.07828575 -0.06752348 0.044346254 0.06307286 -0.08633232
-0.06653204 0.05373993 -0.07953769 0.010161521 -0.11339041 0.09770688 -0.08642497 0.07970146
0.03494479 0.06494508 -0.11303432 -0.036232416 -0.08168623 -0.04327298 -0.10520669 0.02880986
0.0072713206 0.06193629 0.017749378 -0.04635229 -0.08866274 0.09219213 -0.06998214 0.006754927
0.07204933 0.029565986 0.05257157 0.009113479 -0.08683029 0.09063669 -0.06576194 0.08098609
-0.12738328 0.028767033 -0.006000373 0.010808693 0.061126415 -0.028802997 0.030713268 -0.021751719
-0.07754586 -0.031474058 -0.13294642 0.09507265 -0.16681433 0.016497372 -0.033810917 0.14421494
-0.06366962 -0.072122954 -0.00019579749 -0.096716695 0.08192094 0.069736116 -0.076825246 0.09136825
0.03998698 -0.09838818 0.06340726 -0.028712565 0.079773255 0.07287463 -0.12443119 0.061301865
0.09852561 0.024474641 0.035316627 0.039097443 -0.096187055 -0.016981024 0.103489995 0.012544641
-0.123602666 -0.12976153 -0.08002702 -0.12044424 0.007573502 0.021504525 -0.077522196 -0.059233546
00000000: d0de 593d b856 f33c 86f0 29bd 2920 d93c
00000010: aafe f0bd 7d12 80bd 054a 263d de32 55bd
00000020: bd65 1f3d ebbc 2bbd 05c8 a23d e8f9 bcbd
00000030: 9e16 86bd 472c 6d3d 6410 2cbd 5c63 833d
00000040: 69f5 753c 2679 1ebd 913d 3d3d 6074 14bd
00000050: a06a a53d 392f 1dba a72e 873d 92b0 4cbd
00000060: 1ac2 4f3d 6bb6 933d f345 cf3c 0912 a1bd
00000070: c9c7 ffbc 186c b8bd 6f42 d6bc f8aa bcbd
00000080: 9be3 e9bd 5c3a d43b 5501 77bc a63c eebd
00000090: ced4 5c3d ba70 a83d 727d de3d fd06 a93c
000000a0: 8262 86bd a301 81bd 39ad ddbd e49f b7bd
000000b0: e625 09bd 5f95 a33d 0416 813d 6534 9a3d
000000c0: 935b 753d 9656 e13c 91bf d2bd 6494 183d
000000d0: 26b5 abbd 5c68 923c d107 7c3c 9a9f 833c
000000e0: d117 82bc 525a 75bd 2dbe e93c 2842 50bd
000000f0: 1402 a5bd 59b4 5f3d a9d7 223d 71de 113d
00000100: 2764 98bd 59bc c03d ed95 1a3e db3f 903c
00000110: c7cb 78bd 7c10 92bd 6383 ea3b b7bb bebd
00000120: 2eb3 b6bd 6c59 90bc f627 233d f9cb cc3d
00000130: 21c2 cf3d d6c8 a63d d49f 17bd 9ab4 2fbd
00000140: fe1b 6d3d e3c2 4f3b b822 5b3d d221 f0bd
00000150: cfcc 2c3d 9faa c53c 8294 043d 4bb1 71bc
00000160: 7436 b43d 5f9d 5a3d 4709 cbbd ae1b 0dbe
00000170: 3943 ddbd eed3 c33d 7571 0fbd a382 863d
00000180: 32a2 8cbd 036e 41bd a32a 80bd 8b86 363d
00000190: b0f8 c7bd 1e13 cebd bd9e c6bc 5938 5d3c
000001a0: 4d2b c3bd 1ea2 a2bd 6558 5f3c d030 5abd
000001b0: 2e58 a23d 46a6 d6bd 20a9 9bbd 49a1 96bc
000001c0: 2aad 983d cb01 783d a2ba b9bc 181a f3bc
000001d0: d844 2dbd 8923 a8bd c4e6 5b3c 26cb c53c
000001e0: 4dd3 01be 4137 c33d b366 4b3d 31e3 493d
000001f0: e703 c8bd cbe6 96bd bb0b 19bd 4ba5 b8bd
00000200: 6698 dabd 1478 f63d 5c15 653d 3780 c33d
00000210: 0d70 47bd fb57 d33d 1606 c33d bd30 7d3d
00000220: d879 27bd cc49 b9bc 1c7b 663b ea9c 833d
00000230: 8d32 aebb 9d97 373d 027f c5bd ef42 7abd
00000240: 80fb 933d 2195 32bd baf8 bcbd aba5 f23d
00000250: e063 cfbc 174c 6b3c 7cc2 933d cdb2 42bc
00000260: 710d 27bc 9bf4 523d 4ef0 71bd fd07 003d
00000270: 8f56 083b a626 f3bd db60 24be f3a5 b5bc
00000280: d3c8 cf3d 7bdf 88bd a522 c4bd 4006 a4bd
00000290: d77c d0bd 674d 9639 947c d73c f319 bebd
000002a0: 5925 a5bd baae 90bd 3f4f d2bd 4754 a03d
000002b0: c049 8abd 6ba4 353d 582c 813d 00cf b0bd
000002c0: f341 88bd 671e 5c3d a8e4 a2bd 827c 263c
000002d0: 3b39 e8bd 8b1a c83d 93ff b0bd 853a a33d
000002e0: 4522 0f3d ed01 853d 8a7e e7bd 7168 14bd
000002f0: 1c4b a7bd 023f 31bd 9b76 d7bd a802 ec3c
00000300: 4244 ee3b e8b0 7d3d 2567 913c e6db 3dbd
00000310: d094 b5bd 3acf bc3d cc52 8fbd 6f58 dd3b
00000320: 998e 933d 5e34 f23c 4955 573d b450 153c
00000330: 14d4 b1bd bb9f b93d 32ae 86bd 09dc a53d
00000340: c370 02be d7a8 eb3c c79e c4bb f216 313c
00000350: b15f 7a3d 43f4 ebbc 649a fb3c a930 b2bc
00000360: 5dd0 9ebd f1ea 00bd 1b23 08be 73b5 c23d
00000370: 60d1 2abe 7f25 873c 517d 0abd 15ad 133e
00000380: 3865 82bd 33b5 93bd fd4e 4db9 6713 c6bd
00000390: 2ac6 a73d cfd1 8e3d 8e56 9dbd 471f bb3d
000003a0: 63c9 233d be7f c9bd aadb 813d 9d36 ebbc
000003b0: 2960 a33d 4b3f 953d c8d5 febd aa17 7b3d
000003c0: ccc7 c93d 0b7f c83c 2ba8 103d a424 203d
000003d0: b8fd c4bd ca1b 8bbc 90f2 d33d 0a88 4d3c
000003e0: 6523 fdbd 35e0 04be 35e5 a3bd 78ab f6bd
000003f0: 242b f83b 422a b03c f5c3 9ebd e09e 72bd

block3.bnorm_3.weight f4 [30]
0.9925399 0.98457366 1.0083908 1.0896409 1.0073731 1.0026537 1.0006478 0.99832696
1.0338925 1.0113866 0.93414265 0.97335553 1.00845 1.0423722 1.0457232 1.0206668
1.0025198 0.9859306 0.9798372 0.9508609 0.99273 1.0048386 0.96691656 1.0011226
1.0014396 1.0143602 1.0102893 0.99679965 1.0285835 1.0319201
00000000: 1817 7e3f 050d 7c3f f312 813f 5a79 8b3f
00000010: 9af1 803f f556 803f 3a15 803f 5b92 7f3f
00000020: 9756 843f 1e75 813f f923 6f3f d42d 793f
00000030: e414 813f 746c 853f 42da 853f 36a5 823f
00000040: 9252 803f f365 7c3f 9cd6 7a3f 9f6b 733f
00000050: 8e23 7e3f 8d9e 803f d887 773f c924 803f
00000060: 2c2f 803f 8ed6 813f 2951 813f 432e 7f3f
00000070: a0a8 833f f515 843f

block3.bnorm_3.bias f4 [30]
-0.06298563 0.013372974 -0.023607146 0.082969636 -0.0075831353 0.0016953443 -0.0026597856 -0.021170922
0.024306837 -0.035487674 -0.043099992 -0.010736634 -0.020158354 -0.037003487 -0.060683474 0.0040259054
-0.05312874 -0.0646131 -0.0017475777 -0.03505484 0.020187173 -0.017882053 -0.028232427 -0.037103057
0.024081446 -0.024649153 -0.0031704719 -0.024012275 0.015091358 0.018433275
00000000: 9cfe 80bd 511a 5b3c c663 c1bc fceb a93d
00000010: f37b f8bb 5136 de3a cc4f 2ebb a46e adbc
00000020: 221f c73c 865b 11bd 9e89 30bd b5e8 2fbc
00000030: 2223 a5bc f890 17bd 3c8f 78bd beeb 833b
00000040: 869d 59bd df53 84bd fa0e e5ba aa95 0fbd
00000050: 925f a53c 627d 92bc b147 e7bc 60f9 17bd
00000060: 7446 c53c 05ed c9bc b1c7 4fbb 64b5 c4bc
00000070: be41 773c 6101 973c

block3.bnorm_3.running_mean f4 [30]
-0.3788015 -0.46992534 -0.52867025 -0.378073 -0.11895187 0.047384795 -0.2846624 0.5929002
-0.46637282 -0.9313688 0.11261698 -0.17872488 -0.096671775 -0.22856599 -0.5876161 -0.7936317
0.08389159 -0.73472905 -0.787107 -0.058333613 0.40774074 0.0079108905 -0.23956981 -0.58200735
-0.027043255 -0.51695174 0.024453383 -0.30635262 -0.47269523 0.0010131072
00000000: 45f2 c1be 0e9a f0be ef56 07bf c992 c1be
00000010: 0a9d f3bd 8f16 423d 45bf 91be 4fc8 173f
00000020: 6bc8 eebe 306e 6ebf bba3 e63d a803 37be
00000030: dafb c5bd 340d 6abe 026e 16bf 722b 4bbf
00000040: 5bcf ab3d 3417 3cbf d87f 49bf 3aef 6ebd
00000050: 65c3 d03e ae9c 013c ca51 75be 6ffe 14bf
00000060: d189 ddbc f356 04bf 7652 c83c 40da 9cbe
00000070: 1c05 f2be 3dca 843a

block3.bnorm_3.running_var f4 [30]
0.68650407 0.29576737 0.6934586 0.39577436 0.36383578 0.22066744 0.36352527 0.50084275
0.45009437 0.42437506 0.40167922 0.4789544 0.48764962 0.16836664 0.3605737 0.85668796
0.3425609 0.45041695 0.37942633 0.5490999 0.31376413 0.3916785 0.47364303 0.49113664
0.31158012 0.4237684 0.21698177 0.6363059 0.29863593 0.3665116
00000000: bbbe 2f3f d26e 973e 8186 313f f0a2 ca3e
00000010: af48 ba3e a5f6 613e fc1f ba3e 3b37 003f
00000020: c572 e63e b047 d93e e6a8 cd3e 8339 f53e
00000030: 36ad f93e 4e68 2c3e 1e9d b83e e74f 5b3f
00000040: 2464 af3e 0d9d e63e 2b44 c23e d091 0c3f
00000050: b1a5 a03e 168a c83e 5781 f23e 4376 fb3e
00000060: 6e87 9f3e 2cf8 d83e 7830 5e3e f2e4 223f
00000070: cfe6 983e 69a7 bb3e

block4.conv_4.weight f4 [30, 30, 10]
-0.010785789 -0.04583879 0.08659787 -0.03379028 0.059295747 0.015559704 0.04848269 0.096702
0.046705145 -0.05889162 -0.038022712 -0.086868085 0.04436456 -0.026446672 0.02182369 -0.049553018
-0.021323647 -0.05558887 -0.035599377 -0.04031773 0.06472537 0.051450245 -0.038091164 -0.07115384
0.028575437 -0.07728266 -0.07622415 -0.114658825 -0.025707982 0.055848423 -0.030285347 -0.022422826
-0.013312056 0.033738025 -0.046078295 -0.049914878 0.09861078 0.0036325578 -0.020002887 0.06708871
-0.048559587 0.09162421 -0.06159138 0.046073396 0.033550285 0.059009176 0.057222556 0.024004763
-0.09160818 -0.03344246 0.003206692 0.048095558 0.061219767 0.021429798 -0.09008556 0.021513315
-0.017573006 -0.0065885945 0.04904992 0.027445493 -0.00055581634 -0.00088833587 0.08331313 0.07515439
-0.070089564 0.06732878 -0.056109592 0.05492558 0.005485146 -0.050688755 0.008850083 0.05410584
-0.026240623 0.004613683 0.049450263 0.08285877 -0.02232014 -0.009963976 -0.0019802204 -0.028609235
-0.070534766 -0.07429299 0.042789485 -0.06401618 -0.12038361 0.058037434 0.055968467 0.01811963
-0.03774934 0.13016935 0.030989736 0.041153 0.09768046 -0.09784683 0.039838985 -0.0040543927
0.033402376 -0.07576411 -0.086735666 0.009984114 -0.053239923 -0.052975602 0.0020380053 -0.13889797
-0.052933402 0.022980776 0.082183585 0.07095356 -0.042548995 -0.040499717 -0.01025645 -0.089482665
-0.06354849 -0.033683248 0.04449102 -0.018846298 0.066103764 0.09913091 -0.06995277 0.026617436
0.029505104 -0.062209044 -0.002132882 -0.08912863 0.024660757 0.047990028 0.038870677 -0.0945191
0.01843697 0.02712153 -0.019775134 -0.08114331 -0.12589625 -0.04440927 -0.08634755 0.023565343
0.058018237 -0.078846134 0.030842636 0.0032739402 -0.09912241 -0.056065436 -0.023301264 -0.057503726
-0.0019543844 0.090578504 -0.041178416 0.010666456 0.09270387 0.08218578 0.09245661 -0.012453461
0.062261786 -0.028663695 0.1009106 0.048785884 0.022423811 -0.070349604 0.00536783 -0.10635397
0.0034759936 0.009949764 0.07086467 -0.097671956 -0.087301336 0.04002486 0.038241543 0.0030249641
0.018537663 0.010864649 -0.09583374 -0.040151708 -0.026788002 -0.03841212 0.031218894 0.08092364
0.078838855 -0.08805878 0.08788809 0.060809415 0.06037555 -0.0404698 -0.04350559 0.0893924
0.012330763 0.030769553 -0.1017164 -0.023768181 0.018529486 -0.021802327 -0.02065429 0.07500206
-0.011020316 -0.04582988 -0.06525736 -0.0041415375 -0.08197344 -0.009304921 -0.06938063 -0.07194733
-0.06292575 -0.01157922 0.026011683 -0.0770552 -0.033484284 -0.094730765 -0.06978019 0.06888128
-0.014386118 0.035337724 -0.10154872 -0.059938204 0.06458573 0.042569946 0.060396988 -0.0641625
-0.069264255 -0.067362085 0.0015643166 -0.08993817 0.042332858 -0.026712948 -0.035480227 0.015344368
-0.048861466 -0.08656532 0.089487426 0.08566189 0.07453794 -0.023527417 0.044461135 -0.09053216
0.057642777 0.020390954 0.08120495 -0.03291567 0.03125769 -0.055741202 0.072840914 0.10674031
-0.09000504 0.0514405 0.044997763 0.008498286 -0.060376376 0.05533009 0.00026168948 0.022669157
0.036750052 0.12611158 -0.04649699 0.027063029 0.053577 -0.028364103 -0.048253004 -0.018958187
00000000: e1b6 30bc 74c1 3bbd 395a b13d ad67 0abd
00000010: 19e0 723d 21ee 7e3c c995 463d b30b c63d
00000020: e54d 3f3d 5738 71bd b4bd 1bbd e5e7 b1bd
00000030: 9db7 353d b1a6 d8bc 98c7 b23c 1bf8 4abd
00000040: eeae aebc 28b1 63bd a7d0 11bd 3424 25bd
00000050: bc8e 843d 7ebd 523d 7b05 1cbd 1bb9 91bd
00000060: 0917 ea3c 5f46 9ebd 681b 9cbd 3fd2 eabd
00000070: 8c99 d2bc 51c1 643d fa18 f8bc 13b0 b7bc
00000080: cf1a 5abc e230 0a3d 98bc 3cbd 8b73 4cbd
00000090: 73f4 c93d 3510 6e3b 18dd a3bc ce65 893d
000000a0: 6be6 46bd 79a5 bb3d 3e47 7cbd 75b7 3c3d
000000b0: 066c 093d 9bb3 713d 3362 6a3d a3a5 c43c
000000c0: 129d bbbd f6fa 08bd 5d27 523b d9ff 443d
000000d0: 94c1 7a3d 8b8d af3c c77e b8bd b13c b03c
000000e0: 44f5 8fbc 23e5 d7bb 92e8 483d 5fd5 e03c
000000f0: 34b4 11ba 36df 68ba 13a0 aa3d 8bea 993d
00000100: 1e8b 8fbd ace3 893d 2cd3 65bd a5f9 603d
00000110: bdbc b33b 039f 4fbd f0ff 103c 169e 5d3d
00000120: 93f6 d6bc 612e 973b 5c8c 4a3d dcb1 a93d
00000130: bad8 b6bc f23f 23bc 96c6 01bb ea5d eabc
00000140: 8874 90bd ec26 98bd 0744 2f3d ea1a 83bd
00000150: af8b f6bd a9b8 6d3d 313f 653d 9e6f 943c
00000160: 0d9f 1abd 1d4b 053e 30de fd3c 0c90 283d
00000170: b10c c83d eb63 c8bd 342e 233d b6da 84bb
00000180: eed0 083d 372a 9bbd 78a2 b1bd 6994 233c
00000190: 1b12 5abd f2fc 58bd 0e90 053b 453b 0ebe
000001a0: b2d0 58bd 2e42 bc3c de4f a83d 1a50 913d
000001b0: db47 2ebd 08e3 25bd ab0a 28bc b042 b7bd
000001c0: b625 82bd 72f7 09bd 373c 363d 8d63 9abc
000001d0: 6961 873d 2605 cb3d 6643 8fbd cf0c da3c
000001e0: b0b4 f13c e9ce 7ebd d2c7 0bbb 1289 b6bd
000001f0: 5b05 ca3c 3191 443d dc36 1f3d 3b93 c1bd
00000200: 2109 973c f92d de3c 76ff a1bc 772e a6bd
00000210: f2ea 00be 7fe6 35bd fcd6 b0bd 1b0c c13c
00000220: 88a4 6d3d 157a a1bd b2a9 fc3c 9a8f 563b
00000230: b100 cbbd dfa4 65bd 4be2 bebc 0789 6bbd
00000240: 2115 00bb 3981 b93d b3aa 28bd 5cc2 2e3c
00000250: 87db bd3d 0551 a83d e459 bd3d 9a09 4cbc
00000260: 3706 7f3d 20d0 eabc 37aa ce3d b5d3 473d
00000270: 24b2 b73c 7413 90bd 9fe4 af3b 1cd0 d9bd
00000280: 7fcd 633b 5604 233c 7f21 913d 3c08 c8bd
00000290: 0bcb b2bd 1cf1 233d 2aa3 1c3d 7a3e 463b
000002a0: 4cdc 973c a401 323c 7b44 c4bd 1e76 24bd
000002b0: 8372 dbbc 0756 1dbd c4be ff3c 4bbb a53d
000002c0: 4476 a13d 2958 b4bd acfe b33d 4b13 793d
000002d0: 5a4c 773d a9c3 25bd eb32 32bd 5d13 b73d
000002e0: f806 4a3c 6e10 fc3c b050 d0bd 7db5 c2bc
000002f0: 26cb 973c cb9a b2bc 3033 a9bc ae9a 993d
00000300: 8e8e 34bc 1db8 3bbd a7a5 85bd bcb5 87bb
00000310: b1e1 a7bd ab73 18bc 6f17 8ebd 1f59 93bd
00000320: 37df 80bd c5b6 3dbc 7416 d53c 1ecf 9dbd
00000330: d126 09bd 3402 c2bd ebe8 8ebd a111 8d3d
00000340: c1b3 6bbc 4abe 103d c6f8 cfbd c381 75bd
00000350: 8645 843d d35d 2e3d d562 773d a167 83bd
00000360: 6bda 8dbd 22f5 89bd c109 cd3a 8131 b8bd
00000370: 3865 2d3d 1dd5 dabc b753 11bd f266 7b3c
00000380: f622 48bd 2949 b1bd 2f45 b73d 806f af3d
00000390: 59a7 983d 92bc c0bc e11c 363d ed68 b9bd
000003a0: d51a 6c3d ee0a a73c c84e a63d 95d2 06bd
000003b0: 1008 003d e350 64bd 9e2d 953d aa9a da3d
000003c0: 9054 b8bd 46b3 523d 934f 383d 653c 0b3c
000003d0: 384d 77bd cea1 623d 5e33 8939 abb4 b93c
000003e0: 3987 163d 6523 013e a173 3ebd 49b3 dd3c
000003f0: 8e73 5b3d d65b e8bc f1a4 45bd 334e 9bbc

block4.bnorm_4.weight f4 [30]
1.0294712 1.048317 1.0081772 1.0036637 1.0071132 1.061781 1.0619107 1.0300076
1.0332445 1.0149896 1.0528344 0.9994926 1.0168351 1.0127918 1.0392581 1.0363475
1.0231444 1.0279981 1.0234675 1.0507532 1.0459987 1.05039 1.1417787 1.0364625
1.0092648 1.0023929 1.1564723 1.0567502 1.0350536 0.994992
00000000: b6c5 833f 402f 863f f30b 813f 0d78 803f
00000010: 16e9 803f 71e8 873f b1ec 873f 4ad7 833f
00000020: 5b41 843f 2eeb 813f 47c3 863f bfde 7f3f
00000030: a727 823f 29a3 813f 6906 853f 09a7 843f
00000040: 65f6 823f 7195 833f fc00 833f 157f 863f
00000050: 49e3 853f 2e73 863f ce25 923f ceaa 843f
00000060: 972f 813f 694e 803f 4907 943f 9743 873f
00000070: a37c 843f ccb7 7e3f

block4.bnorm_4.bias f4 [30]
-0.022172512 0.01465431 -0.02369053 -0.017545205 -0.025560426 0.017793564 0.01756252 -0.024338607
0.016714217 -0.019569755 -0.0030229792 -0.025584828 -0.020456797 -0.018086404 0.020214278 0.018153865
-0.027362289 -0.014336228 -0.023316776 0.013326315 0.017231012 0.020643182 0.005299894 -0.02468231
-0.026419906 -0.021779725 0.007953888 0.017985953 0.009909449 -0.029447656
00000000: 21a3 b5bc a218 703c a412 c2bc f6ba 8fbc
00000010: 1964 d1bc cfc3 913c 46df 8f3c c261 c7bc
00000020: 41ec 883c c050 a0bc 2d1d 46bb 4697 d1bc
00000030: 0395 a7bc f029 94bc 6a98 a53c 6ab7 943c
00000040: e126 e0bc 80e2 6abc d302 bfbc 9e56 5a3c
00000050: 0d28 8d3c e41b a93c bcaa ad3b 8e32 cabc
00000060: 8f6e d8bc 656b b2bc 0651 023c 4757 933c
00000070: 3e5b 223c 363c f1bc

block4.bnorm_4.running_mean f4 [30]
-0.27227378 -0.8976848 0.50196147 -0.91873765 0.214055 0.6030941 -1.4653496 -0.060628485
0.17523172 -0.21073997 -0.62305397 -0.60696304 -0.11737982 0.26765013 0.2713866 -1.0877439
0.62304115 0.12836318 0.16167343 0.37734446 1.0273595 -0.35685226 0.663247 -1.0528877
0.018551486 -0.10326108 0.6145649 -0.35322276 0.92740345 -0.19367002
00000000: 7867 8bbe acce 65bf 8c80 003f 6432 6bbf
00000010: 3c31 5b3e 6064 1a3f 9390 bbbf 9355 78bd
00000020: f26f 333e 38cc 57be 7780 1fbf ee61 1bbf
00000030: d564 f0bd 7009 893e 2ff3 8a3e 313b 8bbf
00000040: a07f 1f3f a371 033e b88d 253e 4b33 c13e
00000050: 8480 833f 57b5 b6be 8eca 293f 06c5 86bf
00000060: 49f9 973c 8c7a d3bd 2054 1d3f 9dd9 b4be
00000070: 506a 6d3f 6f51 46be

block4.bnorm_4.running_var f4 [30]
0.3132485 0.5671282 0.37136403 0.5092721 0.32009295 0.29060292 0.586548 0.40641707
0.46971235 0.3117375 0.41561133 0.43376806 0.4598964 0.31877378 0.73186266 0.68596107
0.5001353 0.39108574 0.42454013 0.4041211 0.5455913 0.5656534 0.34847277 0.3756826
0.31643876 0.46012518 0.38935718 0.3472241 0.5752695 0.4721825
00000000: 1b62 a03e 502f 113f 6d23 be3e a85f 023f
00000010: 39e3 a33e e8c9 943e 0228 163f e615 d03e
00000020: 237e f03e 0f9c 9f3e 02cb d43e d916 de3e
00000030: 8a77 eb3e 5136 a33e 5a5b 3b3f 259b 2f3f
00000040: de08 003f 643c c83e 535d d93e f6e8 ce3e
00000050: dfab 0b3f a9ce 103f 066b b23e 7859 c03e
00000060: 4304 a23e 8795 eb3e d359 c73e 5bc7 b13e
00000070: dd44 133f e8c1 f13e

conv_channel_res.weight f4 [1, 30, 3]
0.044070184 -0.02795016 -0.03856636 -0.019211167 0.07158519 0.06258222 -0.029505633 -0.113362454
-0.021569964 -0.10304234 -0.10381614 -0.08791034 -0.08767759 -0.10139617 -0.09835954 -0.04616942
0.1453713 0.15450636 0.112021916 -0.039336827 0.071874544 -0.041886076 -0.084456906 -0.104179464
0.011865881 0.04955469 0.051603034 -0.09843026 -0.057589862 -0.109537765 0.08747148 -0.08560864
0.025921568 -0.037426632 -0.08457026 -0.040776957 0.027434899 -0.009837289 -0.093004994 -0.10389793
-0.08060829 -0.09913307 -0.04297728 0.1007945 0.12564354 -0.02015181 0.059648927 0.09814108
0.030338954 -0.07976023 -0.09565198 -0.05801041 -0.043642305 -0.10315817 -0.10835861 0.061818216
-0.03763981 0.010330178 0.13570568 0.1279586 0.07902032 0.11827128 0.040545337 0.08781993
0.019887442 0.12828864 0.13356541 -0.072668396 -0.052522812 -0.023188323 -0.08664513 0.07972487
-0.0075795157 -0.110145755 -0.0320119 -0.0363355 -0.059546676 -0.10930486 0.08082635 0.021056155
-0.10111674 -0.048380397 0.09339735 0.06165973 0.10072714 0.06709954 0.038790148 -0.061495896
0.0140688205 -0.047421165
00000000: f082 343d bcf7 e4bc c2f7 1dbd bd60 9dbc
00000010: 429b 923d 1b2b 803d ccb5 f1bc 932a e8bd
00000020: 7eb3 b0bc dd07 d3bd 8e9d d4bd 560a b4bd
00000030: 4f90 b3bd cca8 cfbd ba70 c9bd 251c 3dbd
00000040: 37dc 143e ea36 1e3e bf6b e53d a71f 21bd
00000050: f632 933d bc90 2bbd bef7 acbd 0b5c d5bd
00000060: 1d69 423c dcf9 4a3d b45d 533d ce95 c9bd
00000070: 59e3 6bbd 5655 e0bd 3f24 b33d 9553 afbd
00000080: 7859 d43c ab4c 19bd 2c33 adbd bd05 27bd
00000090: 27bf e03c 952c 21bc 6779 bebd 70c8 d4bd
000000a0: f615 a5bd 4706 cbbd f208 30bd 596d ce3d
000000b0: b3a8 003e 6915 a5bc 6f52 743d 31fe c83d
000000c0: 6689 f83c 5559 a3bd 2fe5 c3bd 539c 6dbd
000000d0: 46c2 32bd 9744 d3bd 1eeb ddbd 1935 7d3d
000000e0: 342c 1abd e83f 293c 6ef6 0a3e 9407 033e
000000f0: 68d5 a13d 3638 f23d de12 263d efda b33d
00000100: fdea a23c 195e 033e 5fc5 083e 2bd3 94bd
00000110: 2922 57bd 70f5 bdbc 0073 b1bd cb46 a33d
00000120: 965d f8bb 1994 e1bd e91e 03bd 89d4 14bd
00000130: 37e7 73bd 3adb dfbd 4988 a53d f57d ac3c
00000140: 4b16 cfbd 862a 46bd 1c47 bf3d ea8e 7c3d
00000150: 084a ce3d 7c6b 893d 6be2 1e3d 1fe3 7bbd
00000160: e980 663c b23c 42bd

classifier_conv.weight f4 [32, 1, 35]
-0.065013774 -0.089674644 -0.050827567 -0.09253712 -0.043918546 -0.15379104 -0.1354621 -0.07605652
-0.028147964 -0.02872277 -0.120579295 -0.041267574 -0.09756401 -0.061865684 -0.13620579 -0.15473074
-0.094354495 -0.12686475 -0.12883304 -0.10666339 -0.12778369 -0.08496113 -0.12430179 -0.1811902
-0.0647988 -0.12540172 -0.09446356 -0.17645782 -0.11605933 -0.1584336 0.10204915 -0.2707354
0.15408698 -0.04327588 0.03186152 0.08135695 0.09644279 0.085810296 0.16958839 0.15813006
0.077081054 0.07614666 0.09829014 0.050559513 0.1384535 0.053068735 0.16539605 0.10429026
0.1766766 0.19670135 0.16988276 0.10944133 0.17272489 0.19310568 0.22609419 0.10353979
0.12324311 0.16319434 0.14370069 0.15711729 0.20935592 0.19993266 0.215142 0.069834195
0.2268905 -0.12216119 0.34054053 -0.21580727 0.15259658 -0.058162764 -0.030643513 -0.008960564
-0.12748533 -0.11016275 -0.1652608 -0.12127774 -0.10106326 -0.033394296 -0.081604615 -0.0761394
-0.13333309 -0.1551887 -0.112485245 -0.04657526 -0.10294282 -0.109146275 -0.10183436 -0.19146943
-0.13024925 -0.07374584 -0.13788952 -0.12194561 -0.14324346 -0.18218687 -0.12761962 -0.11262688
-0.13294284 -0.1988716 -0.049663067 -0.18960117 0.1244293 -0.28814733 0.17083226 -0.026022315
0.05703266 -0.08295048 -0.08843338 -0.06284832 -0.17344953 -0.065168634 -0.20612127 -0.13497856
-0.15406404 -0.16628128 -0.15493138 -0.108879864 -0.067423105 -0.14825527 -0.11899302 -0.14075908
-0.20068169 -0.10010181 -0.12606902 -0.1608785 -0.185509 -0.22426449 -0.16317691 -0.1161288
-0.12579572 -0.15397747 -0.2723349 -0.22871925 -0.14445537 -0.08987151 -0.15111174 0.08729035
-0.31748477 0.16879338 -0.10204358 -0.040673323 -0.14978373 -0.05934889 -0.079408124 -0.08769969
-0.15705948 -0.12684216 -0.06461979 -0.14431758 -0.10817236 -0.060602136 -0.13789617 -0.11366956
-0.12988427 -0.1398577 -0.16323371 -0.11153746 -0.13547996 -0.20597742 -0.1348752 -0.15961148
-0.088210635 -0.12832265 -0.22549874 -0.11762989 -0.1798681 -0.14673401 -0.14250208 -0.22244036
-0.17294285 -0.18837455 0.13383466 -0.3309076 0.17506073 -0.12341806 -0.06451232 0.16237994
0.09188836 0.12534803 0.07348848 0.07989301 0.060546234 0.1385231 0.09204176 0.106167
0.10739806 0.13862021 0.14546944 0.122031346 0.15844928 0.17028007 0.07960926 0.09247862
0.0816143 0.080306076 0.16773556 0.13476744 0.2002122 0.20399733 0.09045001 0.111361
0.18502462 0.23137398 0.16999507 0.056346353 0.16552521 -0.118981704 0.23034398 -0.11714021
0.09790844 0.077225745 -0.11908303 -0.101077124 -0.11166893 -0.09263937 -0.08794842 -0.06997363
-0.11680036 -0.11905082 -0.042132907 -0.049241673 -0.045077447 -0.13322493 -0.12758617 -0.028397717
-0.09439103 -0.03592223 -0.13667554 -0.059273854 -0.16106856 -0.13135982 -0.17999706 -0.16259211
-0.094439 -0.09477722 -0.055029746 -0.1507418 -0.13728492 -0.05700932 -0.068497695 -0.20209527
0.1114121 -0.17651431 0.17802954 -0.053953372 -0.026980612 -0.13130286 -0.13117412 -0.055635817
-0.19296624 -0.092209704 -0.1360127 -0.11878894 -0.15898484 -0.0503879 -0.09117055 -0.10811083
00000000: f125 85bd 57a7 b7bd 9130 50bd 1a84 bdbd
00000010: efe3 33bd 667b 1dbe 94b6 0abe 85c3 9bbd
00000020: 8f96 e6bc 044c ebbc 47f2 f6bd 3008 29bd
00000030: a4cf c7bd df66 7dbd 8879 0bbe bc71 1ebe
00000040: ee3c c1bd d5e8 01be cfec 03be 5672 dabd
00000050: bad9 02be 1a00 aebd f091 febd ec89 39be
00000060: 3cb5 84bd 4f69 00be 1c76 c1bd 5cb1 34be
00000070: 84b0 edbd 6b3c 22be 25ff d03d d59d 8abe
00000080: fac8 1d3e 0d42 31bd 3a81 023d 799e a63d
00000090: cc83 c53d 4fbd af3d 94a8 2d3e d9ec 213e
000000a0: acdc 9d3d c8f2 9b3d 574c c93d 7e17 4f3d
000000b0: c1c6 0d3e 9a5e 593d 955d 293e 2296 d53d
000000c0: b6ea 343e 146c 493e bff5 2d3e c722 e03d
000000d0: cbde 303e 7fbd 453e 3c85 673e ab0c d43d
000000e0: e266 fc3d 6b1c 273e 4626 133e 5be3 203e
000000f0: 6661 563e 26bb 4c3e 2f4e 5c3e 3b05 8f3d
00000100: fc55 683e a52f fabd 545b ae3e 95fc 5cbe
00000110: 4742 1c3e 143c 6ebd 1b08 fbbc 54cf 12bc
00000120: 848b 02be 029d e1bd 213a 29be 7760 f8bd
00000130: 41fa cebd 75c8 08bd 5220 a7bd f9ee 9bbd
00000140: 7888 08be c9e9 1ebe aa5e e6bd b3c5 3ebd
00000150: afd3 d2bd 1588 dfbd 888e d0bd 9010 44be
00000160: 0f60 05be 0f08 97bd e932 0dbe 9fbe f9bd
00000170: 6aae 12be 328f 3abe b8ae 02be eca8 e6bd
00000180: 2b22 08be ffa4 4bbe 806b 4bbd cf26 42be
00000190: cad4 fe3d 0c88 93be a7ee 2e3e c02c d5bc
000001a0: 149b 693d f1e1 a9bd 8f1c b5bd 9fb6 80bd
000001b0: c19c 31be 2277 85bd 7411 53be d237 0abe
000001c0: f7c2 1dbe a445 2abe 55a6 1ebe 68fc debd
000001d0: 2015 8abd 3bd0 17be 9db2 f3bd 2623 10be
000001e0: 807f 4dbe 2e02 cdbd 3d18 01be 55bd 24be
000001f0: 12f6 3dbe 97a5 65be d917 27be f0d4 edbd
00000200: 98d0 00be 45ac 1dbe 7b6f 8bbe 6135 6abe
00000210: 1cec 13be 8e0e b8bd 09bd 1abe 48c5 b23d
00000220: 5d8d a2be 2cd8 2c3e 39fc d0bd 1299 26bd
00000230: e860 19be d217 73bd baa0 a2bd e59b b3bd
00000240: 33d4 20be e9e2 01be 6157 84bd fdc7 13be
00000250: 7889 ddbd f239 78bd a734 0dbe 96cb e8bd
00000260: 6200 05be db36 0fbe bd26 27be c06d e4bd
00000270: 42bb 0abe bfeb 52be b91c 0abe 3171 23be
00000280: c7a7 b4bd 0367 03be 24e9 66be f1e7 f0bd
00000290: 582f 38be 7141 16be 11ec 11be 68c7 63be
000002a0: ee17 31be 42e5 40be f40b 093e b96c a9be
000002b0: 1f43 333e 9cc2 fcbd 091f 84bd ed46 263e
000002c0: f72f bc3d 3c5b 003e 2181 963d f29e a33d
000002d0: 54ff 773d 00d9 0d3e 6480 bc3d 166e d93d
000002e0: 84f3 db3d 75f2 0d3e f1f5 143e 92eb f93d
000002f0: 8740 223e e65d 2e3e 2e0a a33d 6e65 bd3d
00000300: 6625 a73d 8377 a43d dfc2 2b3e 7a00 0a3e
00000310: 6d04 4d3e ade4 503e db3d b93d 3c11 e43d
00000320: 1877 3d3e 4ded 6c3e 3013 2e3e 6fcb 663d
00000330: 717f 293e aeac f3bd 4bdf 6b3e 35e7 efbd
00000340: 3884 c83d 8828 9e3d cee1 f3bd 8601 cfbd
00000350: aeb2 e4bd b6b9 bdbd 4d1e b4bd 564e 8fbd
00000360: 0735 efbd ebd0 f3bd 8e93 2cbd a3b1 49bd
00000370: 21a3 38bd 1e6c 08be f3a5 02be 54a2 e8bc
00000380: 1650 c1bd 3023 13bd acf4 0bbe 24c9 72bd
00000390: 28ef 24be 3083 06be 2651 38be 8c7e 26be
000003a0: 3c69 c1bd 8f1a c2bd df66 61bd 0f5c 1abe
000003b0: 6b94 0cbe 9b82 69bd 8548 8cbd 10f2 4ebe
000003c0: 072c e43d 2bc0 34be 604d 363e 36fe 5cbd
000003d0: 7206 ddbc 4274 06be 8252 06be 62e2 63bd
000003e0: f198 45be 71d8 bcbd ea46 0bbe 9e47 f3bd
000003f0: eccc 22be 8b63 4ebd a0b7 babd 3669 ddbd

classifier_conv.bias f4 [32]
0.0032891196 -0.008705642 0.0063130124 0.012004138 0.007185582 -0.0002531832 0.005222749 0.0060455995
0.005151656 0.0068802414 0.0021434561 -0.0047162394 -0.00850176 -0.008976138 -0.003009268 -0.0064093377
0.0066020964 0.0029966692 0.0066251927 0.005463987 -0.0026914498 -0.012075705 -0.009258791 -0.0073171733
0.004921497 0.007140516 0.0084636 0.007069283 -0.008106273 0.009395089 0.0101630315 -0.005928748
00000000: 458e 573b 1ca2 0ebc 63dd ce3b 01ad 443c
00000010: 0875 eb3b adbd 84b9 9823 ab3b 2a1a c63b
00000020: 39cf a83b a673 e13b 3a79 0c3b af8a 9abb
00000030: f74a 0bbc a710 13bc 2437 45bb 6c05 d2bb
00000040: 6656 d83b c463 443b 2518 d93b 3f0b b33b
00000050: 0963 30bb 2ed9 45bc 2fb2 17bc e6c4 efbb
00000060: 8244 a13b fdfa e93b e9aa 0a3c 72a5 e73b
00000070: 2cd0 04bc dced 193c d882 263c f145 c2bb

fc.weight f4 [2, 32]
0.08643934 -0.086050615 0.08801491 0.08337633 0.091540225 -0.09223663 0.08845193 0.08870251
0.08799758 0.09158457 0.086463846 -0.087311655 -0.08419499 -0.08726925 -0.08364779 -0.09554856
0.093067534 0.09307298 0.086713895 0.09075134 -0.07825073 -0.087218516 -0.08374439 -0.089888036
0.085215695 0.090672396 0.09354277 0.083518766 -0.08912298 0.0849109 0.091736704 -0.09541788
-0.089682795 0.09024837 -0.09315667 -0.09005704 -0.08968179 0.08976469 -0.09077073 -0.08835832
-0.09139139 -0.09039343 -0.087458365 0.08537325 0.08638738 0.082139015 0.08180693 0.0918213
-0.09236103 -0.09006484 -0.090993896 -0.08639062 0.083425246 0.087097265 0.0857435 0.09250606
-0.08649415 -0.08749679 -0.0941105 -0.081756935 0.082238585 -0.08307233 -0.09434001 0.089442596
00000000: 1c07 b13d 4e3b b0bd 2941 b43d 36c1 aa3d
00000010: 7179 bb3d 8fe6 bcbd 4926 b53d a9a9 b53d
00000020: 1338 b43d b190 bb3d f513 b13d 74d0 b2bd
00000030: 6c6e acbd 38ba b2bd 884f abbd f7ae c3bd
00000040: 319a be3d 0c9d be3d 0e97 b13d d7db b93d
00000050: eb41 a0bd 9f9f b2bd 2e82 abbd 3817 b8bd
00000060: 9185 ae3d 73b2 b93d 5a93 bf3d e30b ab3d
00000070: 1c86 b6bd c4e5 ad3d 74e0 bb3d 736a c3bd
00000080: 9dab b7bd 23d4 b83d edc8 bebd d36f b8bd
00000090: 16ab b7bd 8dd6 b73d 01e6 b9bd 35f5 b4bd
000000a0: 692b bbbd 3120 b9bd 5f1d b3bd 2cd8 ae3d
000000b0: deeb b03d 8038 a83d 648a a73d ce0c bc3d
000000c0: c827 bdbd ea73 b8bd 025b babd 91ed b0bd
000000d0: dbda aa3d 0d60 b23d 4a9a af3d d173 bd3d
000000e0: d823 b1bd 8431 b3bd 01bd c0bd 2e70 a7bd
000000f0: b46c a83d d321 aabd 5635 c1bd ae2d b73d

fc.bias f4 [2]
0.013072286 -0.013072208
00000000: 242d 563c d02c 56bc
