submit_entry/checkpoints/cv_edgcn_all_12s_slice/3/best.pth (torch_old, 360028 bytes, 27 tensors)

conv_time.weight f4 [75, 1, 10]
0	0x3d892a68	0.066975415
1	0x3dad5871	0.084641345
2	0x3d3c1adb	0.04592405
3	0x3c67b42d	0.014142078
4	0x3caec2e1	0.02133316
5	0x3cacbeac	0.021087013
6	0x3d658b6f	0.056041177
7	0xbdabf756	-0.08396785
8	0xbdb95ec0	-0.09051275
9	0xbcb645bf	-0.022250054
10	0xbd903edb	-0.07043239
11	0xbb9b72b0	-0.0047438964
12	0xbcaa5b84	-0.020795591
13	0x3d47dc62	0.048794158
14	0xbc7eeeb2	-0.015559839
15	0xbd1e066e	-0.03858035
16	0x3c28874c	0.010286164
17	0x3d617287	0.055040862
18	0xbd26faac	-0.040766403
19	0xbb9c3d64	-0.0047680605
20	0xbdb081b1	-0.08618487
21	0xbce384f1	-0.027773352
22	0xbc48c4bd	-0.012253937
23	0xbd46c175	-0.04852434
24	0xbb804071	-0.003913932
25	0xbca9a8b1	-0.020710321
26	0x3d0489f7	0.032358136
27	0xbd08f816	-0.03343972
28	0x3d31f055	0.04344209
29	0x3d6cb341	0.057788137
30	0x3d70af58	0.05876097
31	0xbdbd8c2d	-0.09255252
32	0xbd967af3	-0.073476695
33	0xbd935d4d	-0.0719553
34	0xbd85a0ec	-0.06524834
35	0x393e3239	0.00018138521
36	0x3c10c1b2	0.008835243
37	0xbd73762a	-0.059438862
38	0x3bd03bd8	0.00635479
39	0x3d99b1b8	0.075046
40	0x3ca15510	0.019693881
41	0xbd7a4552	-0.061101265
42	0x3d046ea2	0.03233207
43	0xbca1fe60	-0.019774616
44	0xbcae0c98	-0.02124624
45	0x3dad370d	0.08457766
46	0x3dbcdbd3	0.09221616
47	0xbcdb0370	-0.026735038
48	0xb9ba5944	-0.00035543193
49	0xbda93ba5	-0.082633294
50	0x3d8ce34f	0.06879293
51	0xbc83469b	-0.016024878
52	0xb8d99e87	-0.00010376894
53	0x3d255477	0.040363755
54	0xbdac10b6	-0.08401625
55	0x3da05fcb	0.07830771
56	0xbd84b805	-0.064804114
57	0xbd8689e5	-0.0656927
58	0xbcb8ef3a	-0.02257501
59	0x3c44598f	0.011984243
60	0xbccdc290	-0.025117189
61	0xb7f016b8	-2.8620809e-05
62	0xbd475718	-0.048667043
63	0xbd3687e8	-0.044563204
64	0xbd239c13	-0.039943766
65	0x3dab9e77	0.08379834
66	0xbda7a97d	-0.08186624
67	0x3985aec4	0.00025497947
68	0x3daaa810	0.08332837
69	0x3dbc71f0	0.09201419
70	0x3ccd210f	0.025040178
71	0xbca12510	-0.019670993
72	0xbcd93a62	-0.026517097
73	0xbc44bae4	-0.012007449
74	0x3d816e95	0.0631992
75	0xbd8642ad	-0.06555686
76	0x3d7fd5af	0.062459644
77	0x3cf8db86	0.030378114
78	0x3c9a2b6f	0.018819539
79	0xbc67eed4	-0.014156062
80	0x3d41e16b	0.047334116
81	0xbd891bea	-0.06694777
82	0x3d8f38f7	0.06993287
83	0xbd0afd87	-0.03393319
84	0x3d9bc95f	0.07606768
85	0xbd3407f1	-0.043952886
86	0x3d295b0c	0.041346595
87	0x3d9c4aed	0.076314785
88	0x3aa0229b	0.0012217344
89	0xbdb9e0ab	-0.09076055
90	0x3ce8877c	0.028384916
91	0x3d9b7bd2	0.07591976
92	0x3d0928c3	0.03348614
93	0x3c313cd8	0.010817729
94	0xbc9331bf	-0.017968057
95	0x3d1cfead	0.038328815
96	0xbdb0cdaa	-0.08632977
97	0x3d732055	0.059357006
98	0xbd6a40f8	-0.057190865
99	0xbda4dfe8	-0.08050519
100	0x3d9d6cbe	0.076867566
101	0xbd87e633	-0.06635704
102	0x3da5e9e8	0.08101255
103	0xbab7fb17	-0.0014036623
104	0x3da55520	0.08072877
105	0xbc38420d	-0.0112462165
106	0x3d9092c3	0.070592426
107	0xbd72478d	-0.059150267
108	0xbd996d6e	-0.07491575
109	0x3bdf5d48	0.00681654
110	0x3d806f21	0.06271196
111	0x3d170f0e	0.03687959
112	0x3dcb99f3	0.09941473
113	0x3cbcf9f8	0.023068413
114	0x3c60beca	0.013717363
115	0xbc297f07	-0.010345227
116	0xbd1a0df7	-0.037610974
117	0xbbeefdec	-0.0072934534
118	0x3d789c56	0.06069597
119	0x3c0b67d2	0.008508639
120	0xbdc41eb3	-0.09576168
121	0xbd69ddb0	-0.057096183
122	0xbb7244b0	-0.003696721
123	0x3ca20186	0.019776117
124	0x3bc96814	0.0061464403
125	0x3ae77007	0.0017657288
126	0xbc821345	-0.015878329
127	0xbd8b46e2	-0.06800629
128	0xbda5616e	-0.08075224
129	0xbc3ba997	-0.011454008
130	0xbd515d97	-0.051114645
131	0x3dbdc56d	0.092661716
132	0x3c428b41	0.011874021
133	0x3cd555a6	0.026041817
134	0x3da3a223	0.079899095
135	0xbd4407ad	-0.047858883
136	0x3d47fde3	0.04882611
137	0xbd686c1e	-0.056743734
138	0xbd8ac7e2	-0.06776406
139	0x3c4cd7b3	0.012502599
140	0x3dd67270	0.10471046
141	0x3c73c7ac	0.014879148
142	0x3d4bb80f	0.04973608
143	0x3ccfb357	0.02535407
144	0x3cc7017a	0.024292696
145	0x3b88536d	0.0041603358
146	0x3d696444	0.056980386
147	0x3cbb8308	0.022889629
148	0xbc8bf6c3	-0.017085439
149	0x3d196b69	0.03745595
150	0xbce7e807	-0.028308881
151	0x3d5573e9	0.052112494
152	0xbc01b881	-0.007917524
153	0x3db3dc9a	0.08782311
154	0x3c8055c2	0.015665893
155	0xbd90ecc4	-0.070764095
156	0x3dacc6f7	0.08436387
157	0xbd7112f0	-0.05885595
158	0x3d0a5283	0.033770096
159	0x3db6ecc6	0.0893188
160	0xbd1cfe3f	-0.038328405
161	0xbcf47251	-0.029839667
162	0xbda45df7	-0.08025735
163	0x3da691b0	0.081332564
164	0xbdbcbb6a	-0.09215434
165	0x3d6d14a5	0.057881016
166	0x3d314254	0.043276146
167	0xbcaac595	-0.020846168
168	0x3cd7e6d6	0.026355188
169	0x3d427b6c	0.047480986
170	0xbcd600cc	-0.026123427
171	0xbd35ed95	-0.04441603
172	0x3d149337	0.036273208
173	0xbccdba0b	-0.025113126
174	0x3d2bb91f	0.041924592
175	0xbd005136	-0.03132745
176	0xbd060bfb	-0.03272627
177	0x3da73483	0.08164313
178	0x3d574d6b	0.052564066
179	0xbdbee3a7	-0.09320765
180	0xbd925c90	-0.07146561
181	0xbc309f88	-0.010780223
182	0xbda0ba36	-0.07848017
183	0x3d0741eb	0.03302185
184	0x3d700df9	0.058607075
185	0xbcdd829d	-0.02703982
186	0x3da73cce	0.081658944
187	0x3d25a069	0.040436182
188	0x3d0d73b7	0.034534182
189	0xbb722981	-0.0036951008
190	0xbdbbbd0f	-0.091669194
191	0x3d56b270	0.052416265
192	0xbd808638	-0.062756
193	0x3bf692b2	0.0075248117
194	0x3bc1ed6c	0.0059181955
195	0x3cf409d2	0.029789839
196	0x3c3b8012	0.011444109
197	0x3c04bc40	0.008101523
198	0x3c08bb16	0.008345386
199	0xbc9b2529	-0.018938618
200	0xbcdb4db5	-0.026770452
201	0x3ce7dbc0	0.028303027
202	0x3d4d1953	0.05007298
203	0xbd7dfe3e	-0.062010042
204	0x3da176ba	0.078839734
205	0x3d474677	0.048651185
206	0xbce60e9a	-0.028083134
207	0xbd4e27c0	-0.050330877
208	0xbda1b925	-0.07896642
209	0xbd04a120	-0.032380223
210	0xbcf5d78c	-0.030010007
211	0xbd85e851	-0.065384515
212	0xba8731a4	-0.0010314477
213	0x3da4cf7b	0.08047386
214	0xbb03dde1	-0.0020121264
215	0xbbf636f7	-0.0075138765
216	0x3c8586eb	0.016299685
217	0x3da32ec6	0.07967906
218	0xbbe4cb3a	-0.0069822343
219	0x3c5b74f2	0.013394581
220	0x3d2ca3f2	0.042148538
221	0x3d9e9258	0.077427566
222	0xbd017cac	-0.031613037
223	0x3cd70908	0.026249424
224	0xbcd8a44b	-0.026445528
225	0xbd8759e1	-0.0660894
226	0xbc7ff9bf	-0.015623509
227	0x3d2c0a60	0.042002082
228	0xbdb214ec	-0.08695397
229	0xbd999415	-0.074989475
230	0x3ba10928	0.0049144216
231	0xbd0a4c8f	-0.03376442
232	0xbc93b166	-0.018028926
233	0xbd395f15	-0.045256693
234	0xba139284	-0.00056294375
235	0xbd0f7f7a	-0.03503368
236	0x3d36b819	0.044609163
237	0x3dab8731	0.08375395
238	0x3db2c98e	0.0872985
239	0x3d0a9b90	0.033839762
240	0x3d5efd21	0.05444062
241	0xbd0b0776	-0.033942662
242	0x3d6eb97a	0.058282353
243	0x3d91f02f	0.071258895
244	0xbd2353ea	-0.03987495
245	0xbd191669	-0.037374888
246	0x3d8c1900	0.06840706
247	0x3d31aa95	0.04337557
248	0xbbee0cf2	-0.007264727
249	0xbdaae0dc	-0.0834367
250	0x3ba88d8b	0.0051438264
251	0xbcbc301f	-0.022972165
252	0x3d99cfee	0.075103626
253	0xbb876899	-0.004132342
254	0x3c9695a6	0.018381905
255	0xbcfe4457	-0.031038446

conv_time.bias f4 [75]
0	0xbb5652ce	-0.0032703164
1	0xbb84f011	-0.0040569385
2	0x3a22c6de	0.0006209443
3	0xb8ced6e8	-9.862875e-05
4	0x3b9ac544	0.004723223
5	0xbb679159	-0.0035334437
6	0xbb37caf7	-0.002804456
7	0xbb051c35	-0.0020311002
8	0x3b5644b5	0.0032694761
9	0xbbe2312b	-0.006902834
10	0xbb005e5e	-0.0019587497
11	0x3bdb3129	0.00668921
12	0xbace3b0a	-0.0015734148
13	0xbb38ab63	-0.0028178326
14	0x3b204004	0.0024452219
15	0xbac685f0	-0.0015146118
16	0x3c21c1b3	0.009872842
17	0xba535d95	-0.0008062956
18	0xbacb6cd0	-0.00155201
19	0x3acb1036	0.0015492502
20	0x3bdae857	0.006680529
21	0xbb079fb3	-0.0020694553
22	0x38936bb2	7.029566e-05
23	0xbbc747de	-0.0060815653
24	0x3ab98d46	0.0014156483
25	0x3ad46839	0.0016205377
26	0xbc00e2d2	-0.007866578
27	0x3b86b2ba	0.0041106613
28	0xbb6e7d16	-0.0036390475
29	0x3c0753a6	0.008259689
30	0xbacafa5a	-0.0015485988
31	0x3b5aa032	0.0033359644
32	0xbbf89c3e	-0.007586985
33	0x3947d11a	0.00019056015
34	0xbbb861c4	-0.005626889
35	0x3bfa9a16	0.007647763
36	0x3a2a8875	0.0006505319
37	0xbb5125fc	-0.003191351
38	0x3af82f28	0.0018934952
39	0xbb8d0ea8	-0.0043047257
40	0xbb13fe0e	-0.0022581848
41	0xbb88247a	-0.004154739
42	0xbb65166e	-0.0034955996
43	0x3a378679	0.0007000934
44	0x39a4e236	0.00031449058
45	0xb9f56545	-0.00046805493
46	0x3b00ff2c	0.0019683344
47	0x3aa47981	0.0012548418
48	0xbafc52ce	-0.0019250752
49	0xbb9cb0c5	-0.0047818148
50	0x3ba7acec	0.0051170494
51	0xb92a7974	-0.00016257708
52	0x3b946c9e	0.0045295497
53	0xbaa9aec1	-0.0012945757
54	0x3bd56a83	0.0065129413
55	0x3b99de12	0.0046956623
56	0xbb4b8a98	-0.003105795
57	0xbac275e6	-0.0014836162
58	0xbac5fcf2	-0.0015105291
59	0xbb06b507	-0.0020554678
60	0x38a84ec8	8.0255384e-05
61	0x38d52c8c	0.00010164929
62	0x372392c2	9.749727e-06
63	0xb93a022e	-0.00017739154
64	0x3a5b2dc8	0.0008361009
65	0xb8797b38	-5.9480983e-05
66	0xb95266df	-0.00020065483
67	0x38412848	4.60523e-05
68	0x37af0db4	2.0868007e-05
69	0x3a8ce312	0.0010748825
70	0xb9cb6816	-0.00038796727
71	0xba93d9c2	-0.0011280107
72	0xb628455b	-2.507432e-06
73	0xb997dde3	-0.00028966283
74	0x3a35575c	0.00069176196

bnorm.weight f4 [75]
0	0x3f803c37	1.0018376
1	0x3f7ed523	0.9954397
2	0x3f7ebc7d	0.9950636
3	0x3f7ea404	0.9946902
4	0x3f7cf404	0.9880984
5	0x3f7f8747	0.9981579
6	0x3f83bf0d	1.0292679
7	0x3f802e26	1.0014083
8	0x3f801107	1.0005196
9	0x3f836fb1	1.026846
10	0x3f7e4e6e	0.99338424
11	0x3f7f63fe	0.9976195
12	0x3f7b5f00	0.98191833
13	0x3f7e5491	0.9934779
14	0x3f8074c3	1.0035633
15	0x3f7f794d	0.99794465
16	0x3f7f8f3f	0.9982795
17	0x3f7f69f1	0.9977103
18	0x3f808edb	1.0043596
19	0x3f80690c	1.0032058
20	0x3f7ea0ea	0.99464285
21	0x3f806392	1.0030386
22	0x3f7f7dd7	0.9980139
23	0x3f815356	1.0103557
24	0x3f80119c	1.0005374
25	0x3f80b303	1.005463
26	0x3f7ff0df	0.99976915
27	0x3f7eb087	0.9948811
28	0x3f7e3872	0.9930488
29	0x3f80ad22	1.0052836
30	0x3f7fbc4c	0.99896693
31	0x3f8018f6	1.0007617
32	0x3f80504f	1.0024508
33	0x3f7f4053	0.99707526
34	0x3f7fee62	0.9997312
35	0x3f809638	1.0045843
36	0x3f7eaf31	0.9948607
37	0x3f7fb419	0.9988418
38	0x3f7ea8b4	0.9947617
39	0x3f806f28	1.0033922
40	0x3f80d582	1.0065157
41	0x3f802b2e	1.0013177
42	0x3f80390c	1.0017409
43	0x3f7e68ac	0.99378467
44	0x3f7efb93	0.9960262
45	0x3f80282f	1.0012263
46	0x3f7db9b7	0.99111503
47	0x3f800617	1.0001858
48	0x3f809bdd	1.0047566
49	0x3f7ff56e	0.9998387
50	0x3f7f97b1	0.9984084
51	0x3f7fe932	0.999652
52	0x3f7fda50	0.99942493
53	0x3f7fda95	0.99942905
54	0x3f80bbfd	1.005737
55	0x3f7edbc3	0.9955408
56	0x3f80f17d	1.0073696
57	0x3f803952	1.0017493
58	0x3f7e822c	0.99417377
59	0x3f7f4efc	0.99729896
60	0x3f8005c0	1.0001755
61	0x3f7e7757	0.9940085
62	0x3f7eb8f8	0.9950099
63	0x3f7e8993	0.9942867
64	0x3f7eedc8	0.99581575
65	0x3f808803	1.0041507
66	0x3f801c9c	1.0008731
67	0x3f8005d9	1.0001785
68	0x3f80238e	1.001085
69	0x3f800d18	1.0003996
70	0x3f7fbb44	0.9989512
71	0x3f7f8c4d	0.99823457
72	0x3f8040fe	1.0019834
73	0x3f7fe8be	0.9996451
74	0x3f800518	1.0001554

bnorm.bias f4 [75]
0	0x3b858358	0.0040744953
1	0x3be43ad0	0.006965019
2	0x3a9044cd	0.0011006832
3	0x3c4f0216	0.012634775
4	0xbc8cc9b0	-0.017186016
5	0x3d0e0b05	0.034678478
6	0x3da09180	0.07840252
7	0x3b1d6e9c	0.0024022227
8	0xbbd2c75e	-0.006432458
9	0xbc6eb8a7	-0.014570392
10	0xbba63633	-0.005072379
11	0x3bf28ad8	0.0074018054
12	0xbc752d85	-0.014964466
13	0xbc508750	-0.0127275735
14	0xbb8e9732	-0.00435152
15	0x3b17b243	0.0023147024
16	0x3ce0ae67	0.027426912
17	0xbaa0662d	-0.0012237482
18	0x3bcc51c6	0.006235334
19	0x3af4b428	0.0018669413
20	0x3bb3c929	0.0054866266
21	0x3bdea8d6	0.006795029
22	0x3c2c0293	0.010498661
23	0xbd059c89	-0.032619987
24	0x3c07a2fa	0.008278603
25	0xbbe3ed9b	-0.006955815
26	0x3ba02fc9	0.004888509
27	0x3c19f1cc	0.009396028
28	0x3c38268b	0.011239658
29	0x3abc1c52	0.0014351702
30	0xbc8688db	-0.01642268
31	0xbbf08b88	-0.007340852
32	0xbaad8836	-0.0013239447
33	0x3c280589	0.010255226
34	0x3c263ab7	0.010145835
35	0xbb9d81f5	-0.004806752
36	0x3b9a717d	0.004713236
37	0xbb925e5e	-0.004466816
38	0x3c365ded	0.011130792
39	0x3c10acd8	0.008830272
40	0xb5f74f1f	-1.8425961e-06
41	0xbbecce23	-0.007226722
42	0x3ad42bdd	0.0016187389
43	0xbb4c969e	-0.0031217705
44	0x3c5d1379	0.013493412
45	0xba22a404	-0.000620425
46	0x3af53c21	0.0018709936
47	0xba35281a	-0.00069105776
48	0xbcb0b6bf	-0.021571515
49	0x3bbfb9b9	0.0058509973
50	0x3be9e6d0	0.0071381107
51	0xbbf44778	-0.007454809
52	0xbb5ccde8	-0.0033692066
53	0x3a087ddf	0.00052067445
54	0xbc8c3077	-0.017112954
55	0xbc7ca628	-0.015420474
56	0x3c9a728c	0.018853448
57	0x3b8f7b21	0.004378692
58	0xba99a4a5	-0.0011722042
59	0x3a01e375	0.0004954853
60	0xbac6265e	-0.0015117635
61	0xbc1f6752	-0.009729223
62	0xbc700459	-0.014649474
63	0xbc222496	-0.009896418
64	0xbb385cee	-0.0028131562
65	0x3bd3a176	0.0064584566
66	0x3acaeef8	0.0015482595
67	0x3b627553	0.0034554794
68	0x3c338a20	0.010958225
69	0xbbd54be3	-0.0065092905
70	0xbb55dfc9	-0.0032634607
71	0xbb7f4929	-0.003895352
72	0x3b6259da	0.003453842
73	0xba4a375b	-0.0007713937
74	0xbabe55ae	-0.0014521384

bnorm.running_mean f4 [75]
0	0x3c87b6dc	0.016566686
1	0xbc92c13e	-0.01791441
2	0xbc88c4f4	-0.016695477
3	0xbd18fb57	-0.03734907
4	0x3bef565d	0.0073039965
5	0xbc52d04d	-0.012867046
6	0x3a49dce1	0.0007700455
7	0x3c0e2ec7	0.008678145
8	0x3c877611	0.01653579
9	0xbbd5f51c	-0.0065294635
10	0x3c85e311	0.016343625
11	0x3d4e1bf3	0.050319623
12	0xbd5fd0a7	-0.054642346
13	0x3bb269bb	0.005444733
14	0x3d700bed	0.058605123
15	0x3d52bba0	0.051448464
16	0x3c105b2d	0.0088108005
17	0xbc47dc60	-0.012198538
18	0x3c6845b0	0.014176771
19	0xbc48f288	-0.012264855
20	0xbc50ef0e	-0.012752308
21	0x3c9a86c2	0.018863086
22	0xbcf788a2	-0.030216519
23	0x3cdd9967	0.027050687
24	0x3cd7e0ca	0.026352305
25	0x3c8abbe4	0.016935296
26	0xbca9bb6b	-0.02071925
27	0x3d6055d2	0.054769345
28	0xbd0dfe90	-0.034666598
29	0x3cc0b139	0.023522006
30	0x3b9d5b41	0.004802138
31	0x3c918f0d	0.017768407
32	0xbc895e66	-0.016768645
33	0xbc38b27a	-0.011273021
34	0xbbcf3c7f	-0.0063243504
35	0x3c299483	0.010350349
36	0xbbde1878	-0.0067778192
37	0x3c05c48a	0.008164534
38	0xbae9b8ec	-0.00178316
39	0xba533673	-0.0008057125
40	0xba3d71a8	-0.0007226714
41	0x39cd30de	0.00039137056
42	0xbba55afd	-0.005046247
43	0x3b3f5bea	0.0029199072
44	0x3c0754c8	0.0082599595
45	0x3e21ce7e	0.15801427
46	0xbd9e5de4	-0.07732752
47	0x3d83bc0d	0.06432352
48	0xbcefd038	-0.029274091
49	0xbe0c1059	-0.13678111
50	0xbc8e9806	-0.017406475
51	0xbe6bb92a	-0.23019853
52	0xbe02a6da	-0.12758961
53	0x3cf065b4	0.02934537
54	0xbcfe1584	-0.031016119
55	0x3d503389	0.050830398
56	0xbca9e628	-0.02073963
57	0x3ea9d258	0.33168292
58	0xbe773c42	-0.2414408
59	0x3cb56256	0.022141617
60	0xc10939e5	-8.576634
61	0xc06efebe	-3.7342982
62	0xc02c2564	-2.6897821
63	0xc09db9c8	-4.9289284
64	0xc046ac8e	-3.104282
65	0x40b9256f	5.7858195
66	0xbf6a766c	-0.9158695
67	0xbfe3b171	-1.7788526
68	0x40df263a	6.9734163
69	0x3f0f21d6	0.55911005
70	0x406ce848	3.7016773
71	0xbf104d1f	-0.5636768
72	0x40a40704	5.1258564
73	0xc03b8589	-2.9300253
74	0x40412579	3.0179121

bnorm.running_var f4 [75]
0	0x3c8e1439	0.017343627
1	0x3ba0d11c	0.0049077403
2	0x3c33fa98	0.010985039
3	0x3d19f58b	0.037587684
4	0x3aecceec	0.0018067039
5	0x3b8274f0	0.003981225
6	0x3b9d7f21	0.0048064147
7	0x3b46ad25	0.0030315605
8	0x3baf4e0b	0.0053498796
9	0x3b983faf	0.0046462636
10	0x3c295c3b	0.010336931
11	0x3d3aae2c	0.04557626
12	0x3d867cbc	0.0656676
13	0x3b7ab34b	0.003825384
14	0x3d988d53	0.074488305
15	0x3cd38204	0.025818832
16	0x3b2bceef	0.0026215871
17	0x3ad77c01	0.0016440154
18	0x3bcbf055	0.006223718
19	0x3b1dd246	0.0024081632
20	0x3bbac865	0.0057001584
21	0x3bbfa375	0.005848343
22	0x3c5463ca	0.012963245
23	0x3c6f6ba9	0.0146130705
24	0x3bf7e974	0.0075656716
25	0x3b350d36	0.0027626283
26	0x3b4c7cd9	0.0031202345
27	0x3ccec681	0.025241138
28	0x3c6ed73c	0.014577683
29	0x3b7e6912	0.003881995
30	0x3bc107a2	0.0058908025
31	0x3cfe4d5e	0.03104275
32	0x3c4b9036	0.012424519
33	0x3ca465dd	0.020068103
34	0x38fc9a81	0.00012045075
35	0x3aa679d0	0.0012701098
36	0x3c0363d6	0.008019408
37	0x3ca074e1	0.019586982
38	0x3b0a44f3	0.0021098226
39	0x3ae8c359	0.0017758413
40	0x39a4b47d	0.00031414992
41	0x3b3bc041	0.0028648528
42	0x399ded26	0.00030122063
43	0x3a5fe3cb	0.00085407187
44	0x3c1db6a8	0.009626068
45	0x3d4c5b38	0.04989168
46	0x3c4e3059	0.012584769
47	0x3c014050	0.007888868
48	0x3ae462cf	0.0017424467
49	0x3d0e3687	0.03471997
50	0x3a89e6d5	0.0010521064
51	0x3dd74fc9	0.10513265
52	0x3d0ef97e	0.034905903
53	0x3b1a968d	0.002358827
54	0x3b453ae6	0.003009492
55	0x3b8a4c8b	0.0042205504
56	0x3a5c5c5f	0.00084060983
57	0x3e61f1ca	0.22064891
58	0x3deaa3a8	0.11456996
59	0x3a96dd6c	0.0011510081
60	0x4353e025	211.87556
61	0x422073ca	40.113075
62	0x41a70f99	20.882616
63	0x428cb730	70.35779
64	0x41dfec7c	27.99047
65	0x42c1d661	96.91871
66	0x401db959	2.4644377
67	0x4116a424	9.415073
68	0x430c0ab9	140.04189
69	0x3f6ec1d1	0.9326449
70	0x421db826	39.429832
71	0x3f85c8db	1.0451921
72	0x42976584	75.69827
73	0x41c5e5c9	24.7372
74	0x41d2df6c	26.359093

block2.conv_2.weight f4 [75, 15, 10]
0	0x3c7c7532	0.015408801
1	0x3d45a849	0.048256192
2	0x3cb7d144	0.022438653
3	0xbd6b90dd	-0.0575112
4	0xbda08870	-0.078385234
5	0x3c5e7ca0	0.013579518
6	0x3d32ec37	0.043682303
7	0xbc84110a	-0.016121406
8	0xbc951c97	-0.01820211
9	0xbd359cfb	-0.04433916
10	0xbd5dddc4	-0.05416657
11	0x3d682113	0.056672167
12	0xbccb6dee	-0.024832692
13	0x3d607fce	0.054809384
14	0xbda76cf3	-0.08175077
15	0x3d463e8d	0.048399497
16	0xbd345257	-0.044023838
17	0xbd46dcf6	-0.04855057
18	0xbd6b10c2	-0.05738903
19	0xbd84296e	-0.064532146
20	0x3cf68fb7	0.030097825
21	0xbd2f49a8	-0.042794853
22	0x3d59916f	0.053117212
23	0xbd0302c6	-0.031985067
24	0xbd1c7c17	-0.03820428
25	0xbc0956df	-0.008382528
26	0xbd30a890	-0.043129504
27	0x3d3e00b5	0.046387393
28	0x3c10e69f	0.008844047
29	0x3cdd761f	0.027033864
30	0x3c82014b	0.015869757
31	0xbaa96f8f	-0.0012926924
32	0xbc2213b9	-0.009892398
33	0x3d8bcc6d	0.068261005
34	0x3d3cd10e	0.046097808
35	0xbc6d4c62	-0.014483543
36	0x3cca83b1	0.024720998
37	0xbccc72d1	-0.024957092
38	0x3d9aea0d	0.07564173
39	0xbba26845	-0.0049562776
40	0x3cccac74	0.024984576
41	0x3ce845ed	0.028353656
42	0x3d525714	0.051352575
43	0xbcdb74c6	-0.02678908
44	0x3d2f2315	0.042758066
45	0xbcb4e20e	-0.022080448
46	0x3c173013	0.00922777
47	0xbd0fde2b	-0.035123985
48	0x3c8e2234	0.017350294
49	0xbd1f9690	-0.038961947
50	0x3b2a392d	0.002597402
51	0x3cc87f49	0.024474757
52	0xbd45c9d0	-0.048288167
53	0x3d324586	0.043523334
54	0xbd4eee36	-0.050520144
55	0x3d61ed13	0.055157732
56	0xbd528f9e	-0.051406495
57	0xbbe3683a	-0.006939915
58	0xbcde20da	-0.027115274
59	0xbd61d7c3	-0.055137407
60	0xbd275f9c	-0.040862665
61	0xbddb59e0	-0.10710502
62	0xbcd96a33	-0.026539898
63	0x3ccd6492	0.02507237
64	0xbca084dd	-0.019594604
65	0xbd22d09b	-0.039749723
66	0xbcd0006f	-0.025390832
67	0xbd5f5d78	-0.054532498
68	0x3c48521d	0.012226609
69	0x3d1caa84	0.038248554
70	0x3cc2319f	0.023705302
71	0x3d01957a	0.031636693
72	0xbd979edf	-0.07403349
73	0x3d2de30c	0.042452857
74	0x3d2fb43d	0.042896498
75	0x3d97adb0	0.07406175
76	0x3c82d0b0	0.01596865
77	0x3d1d740a	0.03844074
78	0xbc836064	-0.016037174
79	0x3bcc96ff	0.006243586
80	0xbbb0dabc	-0.005397169
81	0x3cde8364	0.027162261
82	0x3da63721	0.08115984
83	0xbce5c2a4	-0.028046913
84	0xbc89685c	-0.016773395
85	0x3d10f6bc	0.035391554
86	0xbd1fa49d	-0.038975347
87	0xbd992524	-0.07477787
88	0x3d935917	0.07194727
89	0xbd3af055	-0.045639355
90	0x3d2d67e1	0.042335395
91	0x3d20c61b	0.039251428
92	0x3d29168d	0.04128127
93	0x3d534f6f	0.051589426
94	0x3c9fb9f5	0.01949785
95	0x3d540774	0.05176492
96	0xbcba7932	-0.022762869
97	0xbc2f5b15	-0.010702868
98	0x3ce12d17	0.02748732
99	0xbd87fd13	-0.06640067
100	0x3cdf41f2	0.027253125
101	0x3d8b33ad	0.06796966
102	0x3d5e63f2	0.054294534
103	0x3cc93007	0.024559034
104	0xbdbdd646	-0.09269385
105	0x3cd93ee6	0.02651925
106	0xbd9a6a42	-0.07539798
107	0x3d667023	0.056259286
108	0xbcb7f6d0	-0.022456557
109	0xbda2ec24	-0.079551965
110	0x3da20534	0.07911149
111	0xbd3ab148	-0.045579225
112	0x3d41a482	0.047276028
113	0x3d7641cc	0.060121343
114	0xbd9a02d3	-0.0752007
115	0x3d0934e8	0.03349772
116	0xbc23ddbf	-0.010001599
117	0xbd0fa80b	-0.035072368
118	0x380668c1	3.204565e-05
119	0x3c1c5593	0.009541887
120	0xbc5a7137	-0.013332657
121	0x3d0b2daa	0.033979096
122	0x3d9aea70	0.07564247
123	0xbd11daa9	-0.03560892
124	0xbd7c9e25	-0.061674256
125	0xbd534104	-0.051575676
126	0xbd2e9218	-0.042619795
127	0x3d6741fa	0.056459405
128	0x3c9fd1ea	0.019509275
129	0x3d148efb	0.03626917
130	0xbd14ebc9	-0.036357675
131	0xbd7fe2a2	-0.062471993
132	0x3d1f376a	0.038871206
133	0xbda93b88	-0.08263308
134	0xbc162e57	-0.009166322
135	0xbda28953	-0.07936349
136	0xbd82428b	-0.06360348
137	0xbc396dbb	-0.011317666
138	0xbc88b1a1	-0.016686263
139	0x3d9e32d6	0.0772454
140	0x3c8bd2ba	0.017068256
141	0x3b67021f	0.0035249067
142	0x3c55f67d	0.013059256
143	0xbd0b5fb6	-0.034026824
144	0xbd0cdb80	-0.03438902
145	0xbd7a57fe	-0.061119072
146	0xbca3a74d	-0.019977236
147	0x3c83e53e	0.016100522
148	0xbd71a6b3	-0.058996867
149	0xbae40d4d	-0.0017398983
150	0x3ce80982	0.028324846
151	0x3d2479b8	0.040155143
152	0x3c1bffe1	0.0095214555
153	0x3d8ed172	0.06973542
154	0xbd3b8c00	-0.04578781
155	0x3d4d747d	0.05015992
156	0xbd6faa18	-0.058511823
157	0xbd137c76	-0.036007367
158	0x3daf6ed3	0.0856606
159	0x3d1f7b88	0.038936168
160	0xbd740fd3	-0.059585404
161	0x3ba616d6	0.00506864
162	0xbd3bac5d	-0.045818675
163	0x3d8de203	0.06927874
164	0x3bc889e5	0.006119954
165	0x3d003b62	0.031306632
166	0x3bd45f0a	0.006481056
167	0x3d5aae6a	0.05338899
168	0xbda64439	-0.08118481
169	0x3d72ec8c	0.05930762
170	0xbca6893a	-0.020329107
171	0xbd39ca72	-0.045359083
172	0x3dad0486	0.084481284
173	0xbd42d625	-0.047567505
174	0xbcfb3483	-0.030664688
175	0xbd3e8ac8	-0.04651907
176	0xbc193805	-0.009351735
177	0xbc82f003	-0.015983587
178	0xbc98acea	-0.01863714
179	0xbd8ff552	-0.07029213
180	0x3d7133a3	0.058887135
181	0x3da40504	0.08008769
182	0x3abde294	0.0014487081
183	0xbd8b73b9	-0.06809182
184	0xbd19476f	-0.03742164
185	0x3cf2b0ef	0.029625384
186	0x3cf66d5c	0.030081443
187	0x3c208264	0.009796713
188	0x3d7b2217	0.061311807
189	0xbcd180dc	-0.02557414
190	0x3d9dfe3f	0.07714509
191	0xba4a7029	-0.00077224016
192	0x3d20bd17	0.03924283
193	0xbcb74b5f	-0.022374807
194	0xbd497dc4	-0.049192205
195	0x3ce87e9e	0.028380688
196	0xbc60254b	-0.013680766
197	0x3aa39ce9	0.0012482676
198	0x3cd1efd3	0.025627052
199	0xbd8a5c81	-0.06755925
200	0xbbf66c4a	-0.0075202333
201	0xbd77a33d	-0.06045841
202	0xbd8d87c8	-0.06910664
203	0xbd8b6d7c	-0.06807992
204	0xbdae0cfd	-0.08498571
205	0x3d18c013	0.03729255
206	0x3d662fe8	0.05619803
207	0xb919244f	-0.00014604743
208	0x3cc14fc2	0.023597602
209	0xbd115096	-0.035477243
210	0x3dc05591	0.093913205
211	0xbb6bfba1	-0.0036008137
212	0x3d81e1fc	0.06341931
213	0x3d9186d2	0.07105793
214	0xbd8be071	-0.06829918
215	0xbd8d293e	-0.06892632
216	0xbdb4ef7f	-0.08834743
217	0xbd376011	-0.04476935
218	0xbd39daf0	-0.04537481
219	0x3d8c5eac	0.06853995
220	0xbd23908c	-0.039932773
221	0xbcbc5038	-0.02298747
222	0xbcbe20aa	-0.023208935
223	0x3d968f1d	0.073515154
224	0x3c02dc0f	0.007987036
225	0xbd5b7aca	-0.053583898
226	0x3ceffa91	0.029294284
227	0xbd18da73	-0.037317704
228	0x3ce3a949	0.027790682
229	0xbcba4d9c	-0.022742085
230	0x3c9ccfc6	0.019142043
231	0x3d6d27d8	0.057899326
232	0x3c8a19c8	0.016857997
233	0xbd1cf3cc	-0.03831844
234	0xbcc850b0	-0.024452537
235	0xbd97bece	-0.0740944
236	0x3d4eee8d	0.05052047
237	0xba16108f	-0.00057245133
238	0xbcde0e11	-0.027106317
239	0xbcce8633	-0.025210476
240	0x3cd3fc6a	0.025877196
241	0xbcd3fa95	-0.025876323
242	0xbd04c7e7	-0.032417204
243	0x3d392b0a	0.04520706
244	0x3d58e298	0.05295047
245	0xbc575515	-0.013142844
246	0x3d8037a9	0.06260616
247	0x3d98ba2b	0.07457384
248	0x3d7527eb	0.059852522
249	0xbd84c46e	-0.064827785
250	0x3d865422	0.06559016
251	0x3d56b446	0.052418016
252	0xbd9ab8e0	-0.07554793
253	0x3d96202a	0.073303536
254	0x3d9806fb	0.074232064
255	0x3b713f4f	0.0036811417

block2.bnorm_2.weight f4 [75]
0	0x3f7e19ce	0.99258125
1	0x3f811253	1.0083717
2	0x3f82e3f6	1.0225818
3	0x3f8198e1	1.012478
4	0x3f816b84	1.0110936
5	0x3f812cce	1.0091798
6	0x3f7e1163	0.9924528
7	0x3f7e19cc	0.9925811
8	0x3f829b4d	1.0203644
9	0x3f7ef381	0.9959031
10	0x3f80a4cb	1.0050291
11	0x3f7eb008	0.9948735
12	0x3f7e46ee	0.9932698
13	0x3f7f96f5	0.9983972
14	0x3f7eadaf	0.9948377
15	0x3f7e34c0	0.9929924
16	0x3f7fbaa6	0.9989418
17	0x3f805eb6	1.0028903
18	0x3f7d9873	0.99060744
19	0x3f7d685c	0.98987365
20	0x3f7f44d2	0.99714386
21	0x3f822f03	1.0170597
22	0x3f7f7077	0.9978098
23	0x3f7d3957	0.9891562
24	0x3f7d57f8	0.98962355
25	0x3f82949c	1.0201602
26	0x3f8212e6	1.0162017
27	0x3f841517	1.0318936
28	0x3f80528d	1.0025192
29	0x3f7eaee1	0.99485594
30	0x3f807d5d	1.0038258
31	0x3f80b405	1.0054938
32	0x3f8014ba	1.0006325
33	0x3f7f23d8	0.9966407
34	0x3f81123c	1.008369
35	0x3f800270	1.0000744
36	0x3f7ef3db	0.99590844
37	0x3f801b86	1.00084
38	0x3f80e433	1.0069641
39	0x3f7dc69b	0.9913117
40	0x3f7dec5a	0.9918877
41	0x3f803eb8	1.001914
42	0x3f801e3b	1.0009226
43	0x3f7fc7c1	0.99914175
44	0x3f80216e	1.0010202
45	0x3f7f6b28	0.9977288
46	0x3f7d5592	0.98958695
47	0x3f7fe35a	0.99956286
48	0x3f7f5140	0.9973335
49	0x3f7e447e	0.9932326
50	0x3f81d16a	1.0142033
51	0x3f800675	1.000197
52	0x3f7d70a7	0.9900002
53	0x3f8096df	1.0046042
54	0x3f80ff01	1.0077821
55	0x3f7e183f	0.99255747
56	0x3f7d3b55	0.9891866
57	0x3f8151ea	1.0103123
58	0x3f815414	1.0103784
59	0x3f80f7d5	1.0075632
60	0x3f81f61f	1.0153235
61	0x3f7f4b59	0.99724346
62	0x3f7db400	0.99102783
63	0x3f815be4	1.0106168
64	0x3f7fcae3	0.99918956
65	0x3f7dd5b5	0.99154216
66	0x3f7dfd99	0.99215084
67	0x3f80b148	1.0054102
68	0x3f7f3166	0.9968475
69	0x3f7f2eab	0.99680585
70	0x3f7e0f72	0.9924232
71	0x3f7e76ac	0.9939983
72	0x3f7fd120	0.99928474
73	0x3f7fba82	0.99893963
74	0x3f80d39c	1.0064578

block2.bnorm_2.bias f4 [75]
0	0xbc59a339	-0.013283544
1	0xbabccab2	-0.001440367
2	0x3cbae8c1	0.022816064
3	0x3c5d5816	0.013509771
4	0x3b8174d5	0.003950695
5	0x3cd6e12f	0.026230423
6	0xbb87c7bd	-0.0041436837
7	0x3c91e1b3	0.017807817
8	0x3c931ae2	0.017957155
9	0x3b39a0d3	0.0028324618
10	0x3d08a1d6	0.033357464
11	0x3b086635	0.0020812873
12	0x3c15c87a	0.009142036
13	0x3c61d4a9	0.013783612
14	0xba266169	-0.00063469127
15	0x3c94e814	0.01817707
16	0x3c0fef16	0.00878503
17	0x3ba98a9f	0.0051739956
18	0x3b3d30cd	0.00288682
19	0xbbc5e38f	-0.00603909
20	0xbbbc8789	-0.0057534617
21	0xbbc9475a	-0.006142539
22	0xbb693cad	-0.0035589144
23	0xbab3fbe6	-0.0013731688
24	0xbb3cb64a	-0.0028795176
25	0x3cd3aeb3	0.025840139
26	0x3c4770f4	0.012172926
27	0x3b1d4621	0.00239981
28	0x3bb8e90d	0.005643016
29	0xbb5d4e9c	-0.0033768779
30	0x3c66dbd2	0.014090495
31	0x3c834217	0.016022725
32	0x3c8c736e	0.017144885
33	0x3b30c0db	0.002697042
34	0x3ccea986	0.02522732
35	0xbc0301e0	-0.0079960525
36	0x3ad51bb4	0.0016258867
37	0xbbb1c7e5	-0.0054254406
38	0x3cc184a7	0.023622824
39	0xbba53aad	-0.005042395
40	0x3b665af3	0.0035149425
41	0x3b992c36	0.00467446
42	0x3bd68d7d	0.0065476284
43	0xbb334a1f	-0.0027357412
44	0x3ca11a62	0.0196659
45	0xbac96ce2	-0.0015367533
46	0xbc23734b	-0.009976218
47	0xbbdf0e66	-0.0068071363
48	0xbb6f4d58	-0.0036514606
49	0xbb648e01	-0.003487468
50	0x3c213671	0.00983964
51	0xbc10404c	-0.008804392
52	0xba1a66f5	-0.00058899756
53	0xbc072b9b	-0.008250142
54	0x3c126703	0.008935693
55	0xbc149bac	-0.009070318
56	0xbbbab10e	-0.005697376
57	0x3958aeeb	0.00020664527
58	0x3be15e5e	0.0068777045
59	0x3a0dd79c	0.00054108514
60	0x3bb88a4b	0.00563172
61	0x3bf6923f	0.007524758
62	0xbc527513	-0.0128452955
63	0x3a963341	0.0011459367
64	0xb98819fe	-0.00025959307
65	0xbb2f6b2a	-0.0026766756
66	0xbbdc1aa5	-0.0067170435
67	0x3bc33d88	0.005958263
68	0xbb84795e	-0.0040427884
69	0x3a5a9c09	0.0008339291
70	0xbc2c8ddc	-0.010531869
71	0x3a94af23	0.0011343699
72	0x3b118fbc	0.0022210917
73	0xbb6e2d6f	-0.0036342999
74	0xbaf90bcf	-0.0019000712

block2.bnorm_2.running_mean f4 [75]
0	0xbdd89077	-0.105744295
1	0x3a5b6eac	0.00083706784
2	0xbe3ed043	-0.18634133
3	0xbe10e625	-0.14150293
4	0xbd36246d	-0.044468332
5	0x3ced9397	0.02900104
6	0xbde4805a	-0.111572936
7	0x3d4bd03a	0.049759127
8	0xbdb04798	-0.086074054
9	0xbdf06e06	-0.11739735
10	0x3d72982c	0.059227154
11	0xbe0bc5b7	-0.13649641
12	0x3d2d249d	0.042271245
13	0xbdd396b4	-0.10331479
14	0xbe13c295	-0.14429696
15	0xbd0b7da9	-0.034055386
16	0x3e163a0f	0.14670585
17	0xbe3777e5	-0.1791683
18	0x3e86c33a	0.2632082
19	0x3e514376	0.2043589
20	0xbd92a7d1	-0.07160915
21	0x3d76bdce	0.060239606
22	0xbdc043db	-0.093879424
23	0xbd3c7f59	-0.046019886
24	0x3e2d3b34	0.16917115
25	0xbdb29378	-0.08719534
26	0xbd6f8f0c	-0.05848603
27	0xbdd30159	-0.103029914
28	0xbdd8e4b4	-0.10590497
29	0x3ea11288	0.3145945
30	0xbe6e1c73	-0.2325304
31	0xbdba92a7	-0.09110003
32	0xbdf8af0a	-0.12142761
33	0x3d9d8861	0.07692028
34	0xbd9aa153	-0.075503014
35	0x3d648abe	0.055796377
36	0xbdee964e	-0.11649762
37	0x3e24bf1a	0.16088524
38	0xbe4bc353	-0.19898729
39	0x3dc11090	0.09426987
40	0x3dadb354	0.0848147
41	0x3e401d7a	0.18761244
42	0xbe474554	-0.1946004
43	0xbd66449c	-0.056217775
44	0xbdf78571	-0.12085999
45	0xbdf22546	-0.118235156
46	0x3db955c8	0.090495646
47	0x3d0aec6c	0.033916876
48	0xbe92e45c	-0.2868985
49	0xbef7f91d	-0.48432246
50	0x3da928d8	0.082597435
51	0x3e79c283	0.24390607
52	0x3ea0e41e	0.3142404
53	0x3dbae922	0.09126498
54	0xbe7582a3	-0.23975615
55	0x3ec6c163	0.38819417
56	0xbe0d43da	-0.13795415
57	0xbe7afe06	-0.24510965
58	0x3c243d36	0.010024359
59	0xbe8e6299	-0.278096
60	0x3d0ee4f8	0.03488633
61	0x3bf54739	0.007485297
62	0xbe2a08c4	-0.16604906
63	0xbe71402b	-0.23559634
64	0x3d7bc9f7	0.061471906
65	0xbe9a79c1	-0.30171016
66	0xbe9ff625	-0.3124248
67	0x3db660ae	0.08905159
68	0xbe1bb304	-0.15205008
69	0xbdd4bdfd	-0.103878
70	0xbf04218b	-0.5161368
71	0xbd570572	-0.052495427
72	0x3d00ace1	0.03141487
73	0xbdd84d8d	-0.10561667
74	0x3d3f1001	0.046646122

block2.bnorm_2.running_var f4 [75]
0	0x3e2f3986	0.17111787
1	0x3e247b77	0.16062723
2	0x3de48ccc	0.111596674
3	0x3dfc35c8	0.123149455
4	0x3d8f7c1c	0.07006094
5	0x3e8f5b56	0.2799937
6	0x3dcdec20	0.10054803
7	0x3e185c7e	0.14879033
8	0x3e0d8601	0.1382065
9	0x3e440b2e	0.1914489
10	0x3e020ce8	0.12700236
11	0x3f36d6fd	0.71421796
12	0x3f079c89	0.5297323
13	0x3ddbc802	0.10731508
14	0x3e3f99da	0.18711033
15	0x3db936a9	0.09043629
16	0x3e6f4448	0.23365891
17	0x3e04a2fc	0.12952799
18	0x3edad4b9	0.4274042
19	0x3ec53540	0.3851719
20	0x3d6b1c49	0.05740002
21	0x3d9f2fb4	0.077727705
22	0x3eb1443a	0.34622365
23	0x3e3249fa	0.17411032
24	0x3e108e41	0.14116766
25	0x3db61661	0.08890987
26	0x3df06531	0.11738051
27	0x3dac3712	0.08408941
28	0x3dbe5c10	0.09294903
29	0x3ead8071	0.33887056
30	0x3e426c8e	0.18986723
31	0x3cffa3de	0.031206068
32	0x3df36094	0.11883655
33	0x3e0ee0c1	0.13952924
34	0x3d187cbb	0.037228327
35	0x3e4989aa	0.19681421
36	0x3f20d60c	0.6282661
37	0x3e087f1f	0.13329743
38	0x3e026f21	0.12737705
39	0x3f0723c7	0.52788967
40	0x3ddb936d	0.107214786
41	0x3e04489a	0.1291832
42	0x3f4b4672	0.79404366
43	0x3e24ca12	0.16092709
44	0x3dc38961	0.09547687
45	0x3d923c0d	0.0714036
46	0x3da410da	0.08011027
47	0x3ced5182	0.02896953
48	0x3f6c4671	0.92294985
49	0x3ef9c22e	0.4878096
50	0x3d2e4614	0.0425473
51	0x3d7c2a41	0.061563734
52	0x3d820ef9	0.06350512
53	0x3c477e80	0.012176156
54	0x3d0d2ffe	0.034469597
55	0x3f43d547	0.7649731
56	0x3f0157bf	0.50524515
57	0x3ce9839e	0.028505143
58	0x3c5cf276	0.013485542
59	0x3d4de66e	0.050268583
60	0x3d08b8b2	0.033379264
61	0x3f149e5f	0.58054155
62	0x3d7fba03	0.062433254
63	0x3c8f53a1	0.017495932
64	0x3e438f6a	0.19097677
65	0x3efbdc24	0.4919139
66	0x3ec8f2c6	0.3924772
67	0x3cf93228	0.030419424
68	0x3d9c5a2e	0.07634388
69	0x3e4833e9	0.19551052
70	0x3d472aba	0.04862473
71	0x3c95da44	0.018292554
72	0x3e7cd898	0.24691999
73	0x3e2033b9	0.1564473
74	0x3c758f64	0.0149878

block3.conv_3.weight f4 [150, 15, 10]
0	0x3c4ba150	0.012428597
1	0x3d476a52	0.04868538
2	0xbccfa23e	-0.025345918
3	0x3d3b93f9	0.045795415
4	0xbd5e199a	-0.054223634
5	0x3ca1d70b	0.01975586
6	0xbb906a63	-0.0044072135
7	0xbd3cd8a2	-0.046105035
8	0xbcb5e9cc	-0.02220621
9	0xbd0797a6	-0.033103608
10	0xbc1386df	-0.009004324
11	0x3cb331ae	0.021874275
12	0x3d227b14	0.039668158
13	0x3c77998b	0.015112291
14	0xbd015244	-0.031572595
15	0x3c036f1e	0.008022098
16	0xbd4f04f5	-0.050541837
17	0x3cfb2231	0.030655952
18	0x3d008c25	0.031383652
19	0x3d3c740f	0.04600912
20	0xbc9ba8e8	-0.01900144
21	0xbb80f324	-0.0039352346
22	0x3cb9dde8	0.022688821
23	0x3d259d44	0.040433183
24	0xbc324ea5	-0.010883008
25	0x3d44ba0b	0.048028987
26	0xbd22b258	-0.039720863
27	0xbcc53e69	-0.024077611
28	0xbc5510e9	-0.01300452
29	0xbd829706	-0.06376462
30	0xbd9b69e5	-0.07588557
31	0xbc0b77ea	-0.008512476
32	0xbc188360	-0.009308666
33	0x3d80fead	0.062985756
34	0xbd489c5a	-0.048977233
35	0x3c7d3438	0.015454344
36	0xbb89f235	-0.0042097815
37	0xbd5ef68c	-0.054434344
38	0xbd77c441	-0.060489897
39	0x3d009ae1	0.031397704
40	0xbc82e89b	-0.015980056
41	0x3d3a8112	0.045533247
42	0xbc9cffe3	-0.019164985
43	0x3bfb7755	0.0076741376
44	0x3d075125	0.03303637
45	0x3cee9f48	0.029128686
46	0xbc886183	-0.01664806
47	0xbcb05b12	-0.0215278
48	0xbcc03ac9	-0.023465531
49	0x3d0bf456	0.034168564
50	0x3d116c5e	0.035503738
51	0x3be96cef	0.0071235816
52	0xbd045a32	-0.03231258
53	0xbd376735	-0.04477616
54	0xbda3843f	-0.07984208
55	0x3c067f06	0.008208996
56	0xbc69a984	-0.014261607
57	0xbd700bfe	-0.058605187
58	0x3d2b42ca	0.041811742
59	0xbd2ebff3	-0.042663526
60	0x3c6965e9	0.014245489
61	0xbd080644	-0.0332091
62	0x3c7bf1df	0.015377491
63	0x3d10546a	0.035236754
64	0xbd7a8144	-0.061158434
65	0x3b84333d	0.0040344284
66	0xbd806e90	-0.06271088
67	0x3c921271	0.01783106
68	0xbd744915	-0.05964001
69	0x3c3ab68c	0.011396062
70	0xbd08b520	-0.03337586
71	0x3baebc31	0.0053324928
72	0xbd1689cf	-0.03675252
73	0x3bcad923	0.0061904355
74	0x3c9d80fb	0.019226542
75	0x3c16d806	0.009206777
76	0xbd71969c	-0.058981523
77	0x3c6805e0	0.014161557
78	0x3d1ea26b	0.038729113
79	0xbcb1db75	-0.02171109
80	0xbcd91480	-0.026499033
81	0xbd93521b	-0.07193395
82	0x3d8f1afd	0.069875695
83	0x3d3939c3	0.0452211
84	0x3c602cd3	0.013682562
85	0x3c1287b7	0.00894349
86	0xbd342298	-0.043978304
87	0x3cd6f176	0.026238184
88	0xbd428125	-0.047486443
89	0x3d8aa41a	0.06769581
90	0x3ae413bd	0.0017400902
91	0xbcba160a	-0.022715587
92	0x3c30343b	0.01075464
93	0xbd3725fd	-0.044713963
94	0xbb2e8a4b	-0.0026632722
95	0x3cff018b	0.031128665
96	0x3c8c17be	0.017101165
97	0x3ca2d69f	0.01987773
98	0xbcd29813	-0.02570728
99	0xbd4c0ac4	-0.049814954
100	0x3d6231c1	0.05522323
101	0xbd3463e8	-0.04404059
102	0xbd2fa101	-0.042878155
103	0x3cd2a4d5	0.025713364
104	0x3b6a1219	0.0035716353
105	0xbcb00a73	-0.021489358
106	0x3d316194	0.04330595
107	0xba66bee8	-0.0008802251
108	0x3d0bc31e	0.034121625
109	0x3a09b89a	0.0005253643
110	0xbbb1ad9f	-0.0054223086
111	0xbbcb3521	-0.006201402
112	0xbc1b0ea3	-0.009463939
113	0x3d25d7ff	0.040489193
114	0xbc567846	-0.013090199
115	0xbc0f5c86	-0.008750087
116	0x3ae47060	0.001742851
117	0x3cc6313e	0.024193402
118	0x3d5e5393	0.05427892
119	0xbd0e0344	-0.034671083
120	0x3da0056d	0.07813535
121	0x3d9b6d26	0.07589178
122	0xbcb88f3e	-0.02252924
123	0x3d81f7b0	0.06346071
124	0x3c0ebfa3	0.008712682
125	0x3cfbee4b	0.030753275
126	0x3ccb5000	0.02481842
127	0x3ac777fb	0.0015218252
128	0x3a93b92a	0.0011270393
129	0x3d2844dc	0.041081294
130	0xbb764dbc	-0.0037582954
131	0xbd2a239d	-0.04153787
132	0x3c95a426	0.018266749
133	0x3ce2a495	0.02766637
134	0xbd4f06af	-0.050543483
135	0x3c1ca72e	0.009561343
136	0x3d847720	0.06468034
137	0xbd10b64b	-0.035330098
138	0xbb8e5015	-0.0043430426
139	0x3ac0af1b	0.0014700623
140	0xbc32d937	-0.010916046
141	0x3d8d0fa4	0.06887749
142	0xbc409d04	-0.011756185
143	0x3b4779e9	0.0030437654
144	0x3c2d42af	0.010574981
145	0x3998cb9c	0.000291434
146	0x3d205823	0.039146554
147	0xbc15a4bb	-0.009133513
148	0xbc928b49	-0.017888682
149	0xbaf5a3c0	-0.0018740818
150	0x3a552517	0.0008130832
151	0xbd029265	-0.031877894
152	0xbd512249	-0.051058087
153	0xbc828d4e	-0.01593652
154	0xbd1317ef	-0.035911497
155	0xbc98279a	-0.018573571
156	0x3d6e3eac	0.058165237
157	0xbc6583bf	-0.0140084615
158	0xbd08e4c2	-0.033421285
159	0xbd3c1c39	-0.045925353
160	0x3d01e71c	0.031714544
161	0xbd7048b2	-0.058663078
162	0x3d7d21ee	0.061799936
163	0xbd563b52	-0.052302666
164	0x3d88e486	0.066842124
165	0x3d5edae0	0.054407954
166	0xbd668b07	-0.05628493
167	0xbd8339f0	-0.06407535
168	0x3d145250	0.03621131
169	0xbd835d59	-0.06414289
170	0xbcae8751	-0.021304758
171	0x3bc6f91f	0.006072178
172	0x3d4c9e67	0.04995575
173	0x3cd7c766	0.026340198
174	0x3d0e990d	0.03481393
175	0xba2586d1	-0.00063143397
176	0xbc9699c5	-0.01838387
177	0x3d0c9f28	0.03433147
178	0x3d4a2a2d	0.04935663
179	0xbb34c2b4	-0.0027581872
180	0x3c843d27	0.016142441
181	0xbca171a3	-0.019707507
182	0x3c08ce11	0.008349911
183	0xbd4c37da	-0.04985795
184	0xbb7572c3	-0.0037452437
185	0x3d275dbf	0.040860888
186	0x3cfbacc0	0.030722022
187	0xbcb49e88	-0.02204825
188	0xbd700176	-0.058595143
189	0x3c8cb80f	0.01717761
190	0x3cf206ce	0.02954426
191	0xbcd4006d	-0.02587911
192	0x3c3c026b	0.011475186
193	0xbd7afd4a	-0.06127671
194	0x3d3629ff	0.044473644
195	0x3c72d8f6	0.014822235
196	0xbbe3ebbe	-0.006955593
197	0x3d82983f	0.06376695
198	0xbca02f6a	-0.019553859
199	0xbccb364d	-0.024806166
200	0xbcd3b15d	-0.02584141
201	0x3d47db05	0.048792858
202	0xbc860ece	-0.016364481
203	0xbd10161b	-0.03517733
204	0x3d92166f	0.07133185
205	0x3c265796	0.010152718
206	0xbad0e737	-0.0015938048
207	0xbd096b04	-0.033549324
208	0xbc6a0997	-0.014284513
209	0xbd6d2d30	-0.057904422
210	0xbd81e595	-0.063426174
211	0x3d563abc	0.052302107
212	0xbd230b58	-0.03980574
213	0xbc1d12bc	-0.009586986
214	0x3d4699d2	0.04848654
215	0xbc781492	-0.015141623
216	0x3b7ef52f	0.0038903465
217	0x3bc750fd	0.0060826526
218	0x3b8ade45	0.0042379224
219	0xbd313aaa	-0.043268837
220	0xbd47dc1b	-0.048793893
221	0xbbe7a864	-0.0070696343
222	0xbd6ef8e1	-0.05834282
223	0x3d53bbb2	0.051692672
224	0x3ca017c0	0.019542575
225	0xbbcca71f	-0.0062455083
226	0xbd374b4c	-0.044749543
227	0x3d2250fa	0.039628007
228	0xbc851716	-0.01624636
229	0x3d685669	0.056723032
230	0xbd65bc74	-0.056087926
231	0xbc7b4b80	-0.015337825
232	0x3b7b484e	0.0038342657
233	0xbd1f22bb	-0.03885148
234	0xbd2d7cfb	-0.04235552
235	0x3c5cee41	0.0134845385
236	0x3d01558e	0.031575732
237	0xbd0307f0	-0.03198999
238	0x3c6aa692	0.01432194
239	0xbd743234	-0.05961819
240	0x3d7c2b7a	0.0615649
241	0x3cd169af	0.02556309
242	0xbd727e9d	-0.05920278
243	0xbd375980	-0.04476309
244	0x3c7bde91	0.015372888
245	0x3d3b7cb8	0.045773238
246	0xbd1402b9	-0.03613541
247	0xbd8217b8	-0.0635218
248	0x3d2f7b49	0.042842183
249	0x3d62b7c9	0.055351052
250	0xbcbb6d60	-0.022879303
251	0x3bc915d9	0.0061366376
252	0xbd11c119	-0.035584543
253	0x3d0d2690	0.034460604
254	0xbd298f05	-0.04139616
255	0xbd67c1d4	-0.056581333

block3.bnorm_3.weight f4 [150]
0	0x3f7aa4d3	0.9790775
1	0x3f81ccde	1.0140646
2	0x3f7f9443	0.99835604
3	0x3f7f2286	0.99662054
4	0x3f7d998a	0.99062407
5	0x3f808da1	1.0043222
6	0x3f8027b9	1.0012122
7	0x3f81347a	1.009414
8	0x3f806656	1.003123
9	0x3f7b9fa9	0.982905
10	0x3f7e618b	0.9936759
11	0x3f80b7b4	1.0056062
12	0x3f81cc77	1.0140523
13	0x3f7ecb16	0.99528635
14	0x3f7d3362	0.9890653
15	0x3f812cd6	1.0091808
16	0x3f822131	1.0166379
17	0x3f80d7c2	1.0065844
18	0x3f7f9c23	0.9984762
19	0x3f80c9cf	1.0061587
20	0x3f7dfe77	0.9921641
21	0x3f81e25e	1.0147207
22	0x3f80ae71	1.0053235
23	0x3f7c68bf	0.9859733
24	0x3f7ddf27	0.9916863
25	0x3f7feeb7	0.99973625
26	0x3f818113	1.0117515
27	0x3f761e7e	0.9614028
28	0x3f7c40a0	0.9853611
29	0x3f83518e	1.0259264
30	0x3f7fea29	0.99966675
31	0x3f7e16df	0.9925365
32	0x3f83ef03	1.0307316
33	0x3f81ef83	1.0151218
34	0x3f7fb64e	0.9988755
35	0x3f7cb4e0	0.98713493
36	0x3f81642e	1.0108697
37	0x3f7f0908	0.99623156
38	0x3f8032a1	1.0015451
39	0x3f82d165	1.0220152
40	0x3f85596e	1.0417917
41	0x3f7f431c	0.99711776
42	0x3f7feee9	0.9997392
43	0x3f7e2674	0.99277425
44	0x3f82daf9	1.0223075
45	0x3f7e826d	0.99417764
46	0x3f7e85a6	0.9942268
47	0x3f8052b3	1.0025238
48	0x3f7f131d	0.9963854
49	0x3f7f83ad	0.99810296
50	0x3f8111c0	1.0083542
51	0x3f7d197e	0.98867023
52	0x3f86dccf	1.0536135
53	0x3f802333	1.0010742
54	0x3f7e80e8	0.99415445
55	0x3f82c3b0	1.0215969
56	0x3f820826	1.0158737
57	0x3f8049b3	1.0022491
58	0x3f80b713	1.005587
59	0x3f802276	1.0010517
60	0x3f7fabd8	0.9987159
61	0x3f80240f	1.0011004
62	0x3f811b73	1.0086502
63	0x3f7f83b5	0.99810344
64	0x3f7eb221	0.99490553
65	0x3f800ef1	1.000456
66	0x3f807853	1.003672
67	0x3f8169a9	1.011037
68	0x3f7ff159	0.9997764
69	0x3f7fbfe0	0.99902153
70	0x3f7fe875	0.99964076
71	0x3f805689	1.0026408
72	0x3f812385	1.0088965
73	0x3f7f47e2	0.9971906
74	0x3f820b12	1.0159628
75	0x3f80cf8d	1.006334
76	0x3f7f4088	0.9970784
77	0x3f7e32da	0.99296343
78	0x3f7ed01c	0.995363
79	0x3f7e9779	0.9944988
80	0x3f7ed6c9	0.99546486
81	0x3f802ffc	1.0014644
82	0x3f804a67	1.0022706
83	0x3f7d57e7	0.98962253
84	0x3f7f3b45	0.99699813
85	0x3f8171ac	1.0112815
86	0x3f8016b1	1.0006925
87	0x3f80906a	1.0044072
88	0x3f801408	1.0006113
89	0x3f80a597	1.0050534
90	0x3f7e742a	0.99396
91	0x3f843948	1.0329981
92	0x3f800670	1.0001965
93	0x3f7f7897	0.9979338
94	0x3f7f4326	0.99711835
95	0x3f7d5892	0.9896327
96	0x3f80bc8d	1.0057541
97	0x3f7ddd50	0.9916582
98	0x3f80f675	1.0075213
99	0x3f802473	1.0011123
100	0x3f7f594a	0.9974562
101	0x3f817ebe	1.0116804
102	0x3f7e7c43	0.9940836
103	0x3f7cee3a	0.98801005
104	0x3f81c886	1.013932
105	0x3f7e2c7a	0.99286616
106	0x3f7dfb3c	0.9921148
107	0x3f81ce7d	1.014114
108	0x3f80d438	1.0064764
109	0x3f7ff600	0.9998474
110	0x3f7e46ef	0.99326986
111	0x3f80c46b	1.0059942
112	0x3f8205db	1.0158037
113	0x3f80cbb8	1.006217
114	0x3f80894c	1.00419
115	0x3f7f9d58	0.9984946
116	0x3f801ce1	1.0008813
117	0x3f7f2ddb	0.99679345
118	0x3f7e28e3	0.9928114
119	0x3f7c5151	0.9856158
120	0x3f822070	1.0166149
121	0x3f7d3acc	0.9891784
122	0x3f7f5cc3	0.9975092
123	0x3f7c13d7	0.98467773
124	0x3f8004ae	1.0001428
125	0x3f7e1e4e	0.9926499
126	0x3f7df2f7	0.9919886
127	0x3f7f6dcc	0.9977691
128	0x3f81114f	1.0083407
129	0x3f80df52	1.0068152
130	0x3f8028e2	1.0012476
131	0x3f7f0aa8	0.99625635
132	0x3f7fe15e	0.9995326
133	0x3f7fb56f	0.9988622
134	0x3f802580	1.0011444
135	0x3f80953d	1.0045544
136	0x3f80f079	1.0073386
137	0x3f7ef85d	0.9959772
138	0x3f7d9ed1	0.9907046
139	0x3f814982	1.0100558
140	0x3f814c9e	1.0101507
141	0x3f808afa	1.0042412
142	0x3f7fa831	0.99866015
143	0x3f81ff9e	1.0156133
144	0x3f805ab5	1.0027682
145	0x3f806483	1.0030674
146	0x3f7e06df	0.99229234
147	0x3f7f0f99	0.99633175
148	0x3f80f9ff	1.0076293
149	0x3f7e9c72	0.99457467

block3.bnorm_3.bias f4 [150]
0	0xbb8991e3	-0.0041982993
1	0xba3cafa1	-0.00071978016
2	0x3be6ae77	0.007039841
3	0x3a260598	0.0006333231
4	0x3bb1635a	0.005413455
5	0x3c50a59a	0.012734795
6	0x3c381ebc	0.011237796
7	0x3c070cef	0.00824283
8	0xbc84df49	-0.016219752
9	0xbc62e29d	-0.013847974
10	0xbc4d054d	-0.012513471
11	0xbc26f764	-0.010190818
12	0xba0dfec3	-0.00054166856
13	0x3bb2adde	0.0054528555
14	0x3c89ef7e	0.016837832
15	0x3b6f74fe	0.0036538239
16	0x3c15fea7	0.009154952
17	0xbcc29f7f	-0.023757694
18	0x3c7f2c58	0.015574537
19	0x3bafde4b	0.0053670756
20	0x3c2a4582	0.0103925485
21	0x3c46a164	0.012123439
22	0x3c52d3b6	0.012867859
23	0xbb496aec	-0.0030733896
24	0xbb3ec99a	-0.0029111863
25	0x3c45f90d	0.012083304
26	0xbc6aa120	-0.014320642
27	0x3c7ba25e	0.015358536
28	0x3bb2ed5b	0.005460424
29	0x3c09b128	0.008404054
30	0x39d7d679	0.0004116779
31	0xbbab6e2d	-0.00523164
32	0x3c7c9084	0.015415315
33	0x3c891539	0.016733753
34	0xbcaa40dd	-0.020782882
35	0x3c4b3f2b	0.012405197
36	0xbc03b1d6	-0.008038005
37	0xbb982432	-0.0046429867
38	0x3c5166d0	0.01278086
39	0x3c22e7fe	0.009943007
40	0x3cbad6b8	0.022807464
41	0x3ba0d852	0.0049086
42	0x3bb54c7e	0.0055328
43	0x39c27801	0.00037091973
44	0x3c3d42a3	0.011551532
45	0xbc1dcaa8	-0.009630837
46	0xbc80d69d	-0.015727336
47	0x3b18a2b8	0.0023290347
48	0x3b906d9f	0.004407599
49	0xbc5730d9	-0.013134205
50	0xbc65a3d2	-0.014016109
51	0xbb8977e4	-0.0041952003
52	0x3c955ee2	0.01823372
53	0xbc0c8a2c	-0.008577865
54	0x3c3ab61b	0.011395956
55	0xbc8a33d7	-0.016870422
56	0xbcb00b09	-0.021489637
57	0xb8af7bfa	-8.367743e-05
58	0xbc9411b5	-0.01807485
59	0xba8ed495	-0.0010897095
60	0x3b95d90a	0.004572992
61	0xb95417f5	-0.0002022682
62	0x3c44f8c4	0.012022201
63	0xbbd68925	-0.0065471106
64	0xbb82f4ed	-0.0039964826
65	0x3bc38b91	0.0059675653
66	0x3c04af7b	0.008098478
67	0x3c2e88ba	0.010652715
68	0xbb233dd5	-0.002490868
69	0xbc363943	-0.011122051
70	0xbb649922	-0.0034881313
71	0x3bc07ede	0.0058744987
72	0x3b9246ea	0.00446402
73	0x3c07ff2d	0.008300585
74	0x3c19f231	0.009396122
75	0x3c2afba7	0.010435975
76	0xbc49e392	-0.012322323
77	0xbb880bc2	-0.0041517923
78	0xbc1b5937	-0.00948172
79	0xbc97cbed	-0.018529857
80	0x39dc9e77	0.00042079735
81	0xba86a7e2	-0.0010273422
82	0x3b313633	0.0027040362
83	0xbc416249	-0.011803218
84	0x3ba4ad00	0.005025506
85	0x3b6fbdbd	0.0036581599
86	0x3b8b4c83	0.0042510643
87	0x3b8c6372	0.0042843157
88	0x3c1df9a5	0.009642039
89	0xbc1113e1	-0.008854837
90	0xbb752fce	-0.0037412527
91	0x3ccc3ee0	0.024932325
92	0x3b78d330	0.0037967674
93	0xbc4b146f	-0.0123950085
94	0xbb018630	-0.001976382
95	0xbc27b5cf	-0.010236218
96	0x3c39a0c6	0.011329835
97	0xbb1a8943	-0.002358035
98	0x3c45dee2	0.012077065
99	0x3b25d226	0.002530226
100	0xbba02be6	-0.0048880456
101	0x3c7a98f7	0.015295259
102	0xb9926f43	-0.00027930186
103	0xbc1885a6	-0.009309208
104	0x3c00349f	0.007825046
105	0xbbc2f4ce	-0.005949593
106	0xbbc5c3e3	-0.0060353144
107	0x3b0b1bdc	0.0021226322
108	0x3acc01b8	0.0015564477
109	0xbc23b2ca	-0.009991357
110	0xbbbd4e98	-0.0057771914
111	0xbc52e4eb	-0.012871961
112	0x3b3a5af5	0.0028435562
113	0x3c6e3dc4	0.014541093
114	0x3b05b7e4	0.0020403797
115	0xbc56e2bc	-0.013115581
116	0xbbb6a544	-0.0055739004
117	0xb9888cc4	-0.0002604482
118	0xbbae53b2	-0.005320036
119	0xbbf3c02b	-0.0074386797
120	0x3ad47888	0.0016210238
121	0x3a153b97	0.00056927785
122	0x3b63a572	0.0034736064
123	0xbc097b00	-0.008391142
124	0x3c5b853c	0.013398465
125	0xbc1ee509	-0.009698161
126	0xbbe4095d	-0.006959124
127	0x3a528454	0.00080305827
128	0xbb99d7ff	-0.004694938
129	0x3c6d8391	0.0144967
130	0xbbb3d465	-0.005487966
131	0xbbfd451b	-0.0077291853
132	0xbb5fb650	-0.0034135766
133	0x3a5ad02d	0.00083470606
134	0xbb13942d	-0.002251874
135	0xbb0a5bdb	-0.002111188
136	0x3c9cfbf5	0.019163111
137	0xbb3429e5	-0.0027490791
138	0xbbf082f3	-0.007339829
139	0xba08ef48	-0.0005223644
140	0xbb6ff83d	-0.0036616467
141	0xbbb38c20	-0.0054793507
142	0xbc0be9a0	-0.008539587
143	0x3a71b673	0.00092206075
144	0xbb308e27	-0.0026940198
145	0x393e29da	0.00018135403
146	0xbbb5dceb	-0.005550017
147	0xbae27b46	-0.001727917
148	0xbcaf8323	-0.021424836
149	0xbc0026ec	-0.00782178

block3.bnorm_3.running_mean f4 [150]
0	0xbd0131ce	-0.031541638
1	0xbe897f89	-0.26855114
2	0xbe0d5b8d	-0.13804455
3	0xbe69ad95	-0.22820123
4	0x3e2a7b4e	0.166486
5	0xbe9a7171	-0.30164674
6	0x3d018370	0.03161949
7	0xbe627ccb	-0.22117917
8	0x3cb5ee10	0.022208244
9	0xbd9ebf57	-0.07751339
10	0xbd6b7596	-0.057485186
11	0xbe61b440	-0.22041416
12	0xbe40b30b	-0.188183
13	0x3dee0b8a	0.11623295
14	0xbe4b9464	-0.19880825
15	0xbe1a1db0	-0.15050387
16	0xbe0ca7e7	-0.13735925
17	0x3bb46258	0.0055048876
18	0xbdae42c0	-0.08508825
19	0xbe1ab38f	-0.15107559
20	0xbe1acfd1	-0.15118338
21	0xbdd7a5e9	-0.10529692
22	0xbd0c495a	-0.03424964
23	0x3d4c3389	0.049853835
24	0x3e0fb90a	0.1403543
25	0xbdc17707	-0.09446531
26	0xbd03e854	-0.032203987
27	0x3e84d6e1	0.2594519
28	0xbe72a24e	-0.23694727
29	0xbe290eef	-0.16509603
30	0xbe4312b4	-0.19050103
31	0xbdd2ef5d	-0.10299561
32	0xbdf06943	-0.11738827
33	0xbefb40b1	-0.49072793
34	0xbe2e3a9b	-0.17014544
35	0x3dd0d4c7	0.10196834
36	0x3d8bf7c1	0.06834365
37	0x3e64b01c	0.22332805
38	0x3a450cab	0.0007516841
39	0xbba748f7	-0.0051051336
40	0xbe824ee7	-0.25450823
41	0xbe2ef7ba	-0.17086688
42	0x3dfde57c	0.12397286
43	0x3d255bc5	0.04037072
44	0x3c457405	0.012051587
45	0x3e5395a7	0.20662557
46	0x3e6a7e80	0.22899818
47	0x3d59983f	0.05312371
48	0xbe2c6e37	-0.16838919
49	0x3deb4d66	0.11489372
50	0xbe24480c	-0.16043109
51	0x3d093fbb	0.033508044
52	0xbde07c3d	-0.109611966
53	0x3ea9eb84	0.33187497
54	0x3deae06f	0.114685886
55	0x3d80edb6	0.0629534
56	0xbe5f3ce2	-0.21800569
57	0xbe94ac2a	-0.290376
58	0xbe6ee21e	-0.23328444
59	0xbeb5e66b	-0.35527357
60	0x3ddca206	0.10773091
61	0x3c50436d	0.012711388
62	0xbe10d75a	-0.1414465
63	0x3c116e70	0.008876428
64	0x3c848fb4	0.016181804
65	0xbe1b6805	-0.15176399
66	0x3d588cc6	0.052868627
67	0xbe1c7212	-0.1527789
68	0xbe670456	-0.22560248
69	0x3d6b3a3a	0.057428576
70	0x3e42befe	0.1901817
71	0x3dd4f032	0.10397376
72	0x3d87dceb	0.06633934
73	0xbdf4cc9e	-0.1195309
74	0xbdda1c8c	-0.10649976
75	0x3c9b7efa	0.018981446
76	0xbd259ea7	-0.040434506
77	0xbe00e402	-0.12586978
78	0x3d80203c	0.06256148
79	0x3c38a91e	0.011270789
80	0x3cae039b	0.021241954
81	0xbd250bb9	-0.040294383
82	0x3c216190	0.009849921
83	0x3e14274a	0.14468113
84	0x3c3b40dd	0.011429039
85	0xbd2de522	-0.042454846
86	0xbe4a3b5d	-0.19749208
87	0xbe088e00	-0.13335419
88	0xbc8c7473	-0.017145371
89	0xbdd1f6e8	-0.10252172
90	0x3dac47be	0.08412121
91	0xbe5123d0	-0.20423818
92	0x3e237c8a	0.15965477
93	0xbe51fe86	-0.20507249
94	0xbe055f44	-0.13024622
95	0x3e75e1a3	0.24011855
96	0x3bc91999	0.0061370847
97	0x3baedfde	0.0053367456
98	0xbd534ad4	-0.051585034
99	0xbdbf10b9	-0.093293615
100	0x3d2c13e8	0.04201117
101	0xbe7bd2a6	-0.24592075
102	0x3e1e2c5d	0.15446611
103	0x3e84c3ef	0.25930735
104	0xbd7ccd5d	-0.061719287
105	0xbdff633e	-0.12470101
106	0xbd8d46cc	-0.06898269
107	0xbe121b43	-0.14268212
108	0x39f26d87	0.0004623944
109	0xbe144b8b	-0.14481942
110	0x3e1fad92	0.15593556
111	0xbd07e351	-0.03317577
112	0xbe282c14	-0.16423064
113	0xbc81dc9a	-0.015852261
114	0x3ed8fb24	0.42379105
115	0xbd8e8953	-0.06959786
116	0xbe4e66da	-0.20156422
117	0xbe2c5de6	-0.16832694
118	0x3d404df8	0.046949357
119	0xbd2a50f5	-0.041581113
120	0x3d2502b8	0.040285796
121	0xbe15efb1	-0.14642216
122	0x3e4d92c5	0.2007552
123	0x3c8f4f56	0.017493885
124	0xbdb7d2de	-0.089757666
125	0x3dcf2547	0.10114532
126	0xbd7ae3a5	-0.061252255
127	0xbbc9957d	-0.0061518536
128	0x3bf167a6	0.007367092
129	0x3e3740c8	0.17895806
130	0xbda06cfe	-0.078332886
131	0x3ccb21b7	0.02479635
132	0x3d4eea0f	0.050516184
133	0x3c8eb478	0.017420039
134	0xbde32a34	-0.11092034
135	0x3d963e29	0.07336075
136	0xbe5ba171	-0.21448304
137	0x3ee2ce97	0.4429824
138	0xbe6283f3	-0.22120647
139	0xbd76f00e	-0.060287528
140	0xbe7a7f47	-0.24462615
141	0x3ce45500	0.027872562
142	0x3de6dbb3	0.11272373
143	0x3dd12c1e	0.10213493
144	0xbe1f565b	-0.15560286
145	0xbdb4a115	-0.088197865
146	0x3e0237d0	0.12716603
147	0xbceabff5	-0.028655985
148	0x3c003de8	0.00782726
149	0x3e2ac384	0.16676146
