submit_entry/checkpoints/cv_dgcn_all_12s_slice/1/best.pth (torch_old, 340809 bytes, 25 tensors)

conv_time.weight f4 [75, 1, 10]
0	0x3cc40887	0.023929847
1	0xbd93f5d4	-0.07224622
2	0x3d0ac315	0.03387745
3	0xbd73617f	-0.05941915
4	0xbcf9cd0d	-0.030493284
5	0xbd867213	-0.06564727
6	0x3cd17295	0.025567332
7	0x3da24be6	0.07924633
8	0xbd2f6df0	-0.042829454
9	0x3cc76367	0.02433939
10	0xbd89b334	-0.067236334
11	0x3dcb41f7	0.09924691
12	0x3cd41444	0.02588857
13	0x3dad4dd7	0.084621124
14	0x3d6e96d7	0.05824932
15	0xbd1f7e5f	-0.038938876
16	0xbc6e572f	-0.014547153
17	0xbd4f00d9	-0.050537918
18	0xbd694ee2	-0.056959994
19	0xbcd8b0b6	-0.02645145
20	0x3da196d5	0.07890097
21	0xbc371d83	-0.01117647
22	0xbd0684f3	-0.032841634
23	0xbc8148a3	-0.015781706
24	0x3a8daac3	0.0010808337
25	0x3d8b89e6	0.068134114
26	0xbb5f1f75	-0.003404585
27	0x3c6c7aa2	0.014433535
28	0xbd8d05c8	-0.06885868
29	0xbcc06f4b	-0.023490569
30	0xbd80ca07	-0.06288534
31	0xbda6a56f	-0.08137023
32	0xbdb83ac6	-0.08995585
33	0xbdbb1270	-0.09134376
34	0xbde67498	-0.11252707
35	0xbc8325a4	-0.01600916
36	0xbdcd112d	-0.10013042
37	0x3d7ffb65	0.062495608
38	0x3cc701d3	0.024292862
39	0xbcdcd29c	-0.026955895
40	0x3d2c19d6	0.042016827
41	0x3da9605c	0.08270332
42	0xbd5ed6d8	-0.05440411
43	0xbd1be869	-0.03806344
44	0x3d687626	0.0567533
45	0x3d87b18a	0.0662566
46	0x3d1352c8	0.03596762
47	0x3d77c970	0.06049484
48	0x3db8f7f7	0.090316705
49	0x3d0b4cf1	0.034008924
50	0xbcc76312	-0.024339233
51	0xbd53a8eb	-0.051674765
52	0xbd3aaad8	-0.045573086
53	0x3ca1c3d3	0.019746697
54	0x3d6b542b	0.057453316
55	0x3c8f545e	0.017496284
56	0x3df4d188	0.119540274
57	0x3df6b620	0.12046456
58	0x3cd2bf7d	0.025726074
59	0xbcc6b8cd	-0.024258042
60	0x3c0d9960	0.0086425245
61	0x3d359283	0.044329178
62	0xbc3da416	-0.011574766
63	0x3da34e75	0.07973949
64	0x3d9a007a	0.07519622
65	0x3d704737	0.058661666
66	0xbd80a281	-0.06280995
67	0xbb87d074	-0.0041447226
68	0xbc6adc41	-0.014334739
69	0xbb87e6f7	-0.004147406
70	0x3d9a7669	0.07542116
71	0x3c448d02	0.0119965095
72	0x3db4c2b8	0.08826202
73	0x3dc3385d	0.09532235
74	0xbd6b51d7	-0.057451095
75	0x3db637b9	0.08897347
76	0x3d97a50a	0.074045256
77	0x3ce7efe2	0.028312627
78	0xbd90df4f	-0.07073843
79	0x3d876c78	0.06612486
80	0xbd78c6aa	-0.060736336
81	0xbd6b175e	-0.05739533
82	0x3d978a27	0.07399397
83	0x3d0f4d40	0.03498578
84	0xbc4c5e29	-0.012473621
85	0x3ca1def6	0.019759636
86	0xbd713316	-0.05888661
87	0xbd283c10	-0.041072905
88	0x3db7c733	0.08973541
89	0xbc5b9e95	-0.013404508
90	0xbdb12fbf	-0.08651685
91	0xbd94cb74	-0.07265368
92	0xbd97429a	-0.0738575
93	0xbd1aab38	-0.037760943
94	0x3da04f60	0.078276396
95	0x3d069c5b	0.032863956
96	0x3d98c159	0.07458753
97	0x3d801373	0.0625371
98	0x3c828f8b	0.015937587
99	0x3c9dc397	0.019258304
100	0xbd6e48de	-0.05817496
101	0xbcc61285	-0.024178753
102	0xbd406f7d	-0.046981324
103	0x3c9275ab	0.017878374
104	0xbd9f2510	-0.07770741
105	0x3d7a5f50	0.061126053
106	0xbd0a4dc4	-0.03376557
107	0xbd57c797	-0.052680578
108	0x3d546ea6	0.051863335
109	0xbd8f1c5b	-0.0698783
110	0x3d89dccc	0.06731567
111	0x3b1bc19d	0.0023766526
112	0x3d632b0b	0.05546097
113	0xbd699cd2	-0.05703432
114	0x3d8a676a	0.06758006
115	0x3d79d1d5	0.060991127
116	0xba2fc921	-0.0006705691
117	0x3da0af09	0.07845885
118	0xbd7ee3bc	-0.062228903
119	0xbccb3ee6	-0.024810266
120	0xbd2ef394	-0.042712763
121	0xbd82fb70	-0.06395614
122	0xbdc40bbc	-0.09572551
123	0xbd0098f0	-0.031395853
124	0xbccd3efb	-0.025054445
125	0xbd0f1531	-0.03493232
126	0xbd9ac1cf	-0.07556497
127	0xbd4e2357	-0.05032667
128	0x3b75fb1a	0.0037533701
129	0x3d939379	0.072058626
130	0x3c05d6fb	0.008168931
131	0x3d5cf6ac	0.053946182
132	0xbd9ef567	-0.077616505
133	0xbca68701	-0.020328047
134	0xbd1512c3	-0.036394846
135	0x3d2ef6b1	0.042715732
136	0xbd32dd38	-0.043668002
137	0x3d91eace	0.071248636
138	0x3d0e71b6	0.034776412
139	0xbd92388c	-0.07139692
140	0xbc6fd9eb	-0.014639358
141	0xbd8bd85b	-0.06828376
142	0x3ce54180	0.027985334
143	0x3d7d1324	0.061785832
144	0x3cb836df	0.022487102
145	0xbda033a5	-0.078223504
146	0x3d10a9d6	0.03531822
147	0xbd035b92	-0.03206975
148	0x3cfae65b	0.03062742
149	0x3d1f9837	0.038963523
150	0x3c304a49	0.010759898
151	0x3d645fe2	0.055755503
152	0x3cb3b2cb	0.021935841
153	0x3d16837d	0.03674649
154	0x3d847d8c	0.06469259
155	0xbd432eba	-0.047651984
156	0x3c10f5f3	0.008847701
157	0xbd9adf2c	-0.07562098
158	0xbda33a2c	-0.0797008
159	0x3d2f4ccc	0.04279785
160	0xbd95e4fa	-0.073190644
161	0x3d770a80	0.060312748
162	0xbceaa842	-0.028644685
163	0xbb171746	-0.0023054644
164	0x3db67f69	0.0891102
165	0xbd60a96c	-0.054849073
166	0x3d7a2d76	0.06107851
167	0xbd60d132	-0.054887004
168	0x3cf23be6	0.029569577
169	0xbd818b73	-0.06325426
170	0x3ce283f8	0.027650818
171	0x3df9efea	0.12203963
172	0x3cb2b271	0.021813603
173	0x3deabb24	0.114614755
174	0x3cbfedf8	0.023428902
175	0x3d7cd526	0.06172671
176	0x3c64c4f1	0.01396297
177	0xbd35e835	-0.044410903
178	0x3d58e0c6	0.052948736
179	0x3cc3b67c	0.023890726
180	0x3d550ed3	0.05201609
181	0xbd9e51c4	-0.07730439
182	0xbb946e16	-0.004529725
183	0xbda42dab	-0.08016523
184	0xbc9e26ca	-0.019305605
185	0x3d99904a	0.07498224
186	0xbd376223	-0.044771325
187	0xbcab148b	-0.02088382
188	0xbbd8961d	-0.006609692
189	0x3d929298	0.07156867
190	0x3d533f35	0.05157395
191	0x3d7e4f2a	0.062087215
192	0x3d989bfc	0.07451627
193	0xbd0a5c4a	-0.03377942
194	0x3df373fa	0.11887355
195	0xbcd5a94d	-0.026081705
196	0xbd1338d7	-0.03594288
197	0xbcddd443	-0.027078753
198	0x3d6dbdf7	0.058042493
199	0xbb837bd1	-0.004012563
200	0x3bf9536e	0.0076088225
201	0xbd47cba0	-0.048778176
202	0x3d297b0c	0.041377112
203	0x3d549a32	0.051904865
204	0xbd93653c	-0.07197043
205	0xbd021856	-0.03176149
206	0xbd399fe6	-0.045318507
207	0x3d545d67	0.051846888
208	0x3db6c146	0.08923583
209	0xbb14b667	-0.0022691728
210	0xbacba3b2	-0.0015536456
211	0x3dd322d4	0.10309377
212	0x3d479a59	0.04873118
213	0x3da568ea	0.080766514
214	0x3d1aa0ed	0.037751127
215	0xbd870cc6	-0.06594233
216	0xbc83a105	-0.016067991
217	0xbd920bd3	-0.071311615
218	0xbd84c1fd	-0.06482313
219	0xbd260369	-0.040530596
220	0x3d522899	0.05130825
221	0xbdb61078	-0.0888986
222	0xbc8b03d0	-0.016969591
223	0x3cb62247	0.022233142
224	0x3df18d92	0.117945805
225	0x3e194030	0.14965892
226	0xbce5ce51	-0.02805248
227	0x3b7d91d1	0.003869165
228	0x3d54a366	0.05191364
229	0x3c199a3a	0.009375149
230	0xbd1b9703	-0.037985813
231	0x3d8f59c2	0.06999542
232	0x3d986d79	0.07442755
233	0x3d368add	0.044566024
234	0xbd900a1a	-0.07033177
235	0xbc8c450a	-0.017122764
236	0xbaed4251	-0.0018101429
237	0xbd59b016	-0.053146444
238	0x3d3259c5	0.043542642
239	0xbd525d17	-0.05135831
240	0x3d3b1ac0	0.045679808
241	0x3bef21d0	0.007297732
242	0x3d3e5d36	0.04647561
243	0xba46fc24	-0.00075906725
244	0x3d8d3fe5	0.068969525
245	0x3d53964d	0.05165701
246	0xbd1da7e8	-0.038490206
247	0xbcf96685	-0.030444393
248	0xbdaf5ac8	-0.08562237
249	0x3d0f1cbf	0.034939524
250	0x3c44ab3d	0.012003717
251	0x3d4581bf	0.04821944
252	0xba86c523	-0.001028214
253	0xbd97ec70	-0.07418144
254	0xbd8eeae3	-0.06978395
255	0xbc6fa820	-0.0146274865

conv_time.bias f4 [75]
0	0x3b6b8b11	0.0035941044
1	0x3c508acc	0.012728404
2	0xbb206d78	-0.002447931
3	0x3a82372a	0.0009934653
4	0x3b3b96a8	0.0028623734
5	0x3b6ebf10	0.00364298
6	0x3b632e01	0.0034664872
7	0x3b316dff	0.002707362
8	0x3b7e020b	0.0038758542
9	0xbb5ea1b9	-0.0033970906
10	0xb92101bf	-0.00015354807
11	0x3b67a2fe	0.0035344954
12	0x3b82feda	0.003997666
13	0xba1a12e8	-0.0005877451
14	0x3c0e2ba5	0.008677398
15	0x3c1246c9	0.008928009
16	0x3c291b44	0.010321442
17	0xba74dd62	-0.000934085
18	0xbc4edab0	-0.012625381
19	0xbb23bf97	-0.0024986023
20	0x3bd3ee9b	0.006467653
21	0xbb55dcec	-0.00326329
22	0xba9182c3	-0.0011101592
23	0xba99f1d4	-0.0011745044
24	0x3b84c109	0.004051332
25	0x3bebcf8a	0.0071963714
26	0x3b773965	0.0037723419
27	0xbb8475dd	-0.0040423707
28	0xbc390c33	-0.011294412
29	0xbbe4b6f6	-0.0069798185
30	0x3c1eca6f	0.009691819
31	0xbb201cac	-0.0024431152
32	0xba41318d	-0.00073697494
33	0xb996a158	-0.0002873044
34	0x3b92921e	0.004472985
35	0x3c2e5eca	0.010642717
36	0x3ae55270	0.0017495882
37	0x3bc77f9f	0.0060882117
38	0x3ba89d9a	0.0051457407
39	0xbb280257	-0.002563616
40	0x3b5e2384	0.003389568
41	0x3b258c85	0.0025260758
42	0xbb10a514	-0.002207105
43	0xbc2c9f92	-0.010536091
44	0xbbcd0ae6	-0.0062574027
45	0xbbc32646	-0.0059554903
46	0xbb161dcb	-0.0022905942
47	0x3af62c39	0.001878149
48	0x3b8051d5	0.003916005
49	0xbb9b3e67	-0.0047376635
50	0xbb1b55b6	-0.002370221
51	0x3b1e7f4e	0.0024184766
52	0xbbd2adad	-0.006429395
53	0xba1cb7ed	-0.0005978335
54	0xba362169	-0.00069477275
55	0xbac7112c	-0.0015187613
56	0x3888bacf	6.519781e-05
57	0x3b8346f1	0.0040062596
58	0xbb1a5f13	-0.0023555204
59	0xbb8148a1	-0.0039454256
60	0xbaacd32e	-0.0013185495
61	0xb712cb2f	-8.7495855e-06
62	0xb8705c26	-5.730628e-05
63	0x39052a40	0.00012699608
64	0xb957e347	-0.00020588665
65	0xbb88f242	-0.00417927
66	0xb9a7286b	-0.00031882836
67	0x3a899bee	0.0010498741
68	0x38deb8e2	0.00010620222
69	0x39ba4ef1	0.000355355
70	0x3940b90c	0.00018379482
71	0x3b1fe8d8	0.002440026
72	0x39bd88c1	0.0003615078
73	0x39c3f89b	0.00037378524
74	0x38ec0416	0.00011254118

bnorm.weight f4 [75]
0	0x3f7f4ea1	0.99729353
1	0x3f805e5a	1.0028794
2	0x3f8326ad	1.0246178
3	0x3f7bdd02	0.98384106
4	0x3f79cee6	0.97581327
5	0x3f81aa83	1.0130161
6	0x3f7d6272	0.9897834
7	0x3f7c8976	0.9864725
8	0x3f80fac9	1.0076534
9	0x3f84864c	1.0353484
10	0x3f77a1ec	0.9673145
11	0x3f7eb5ab	0.99495953
12	0x3f7a82b2	0.97855675
13	0x3f7f75f6	0.9978937
14	0x3f7abce1	0.97944456
15	0x3f85555c	1.0416675
16	0x3f7de795	0.9918149
17	0x3f7dfe7e	0.9921645
18	0x3f7e6ff7	0.99389595
19	0x3f7d9249	0.9905134
20	0x3f775ebf	0.96628946
21	0x3f806b70	1.0032787
22	0x3f7df0b4	0.9919541
23	0x3f7d33a9	0.9890695
24	0x3f7fb7ad	0.9988964
25	0x3f7cc942	0.98744595
26	0x3f7f336d	0.99687845
27	0x3f7e4233	0.9931976
28	0x3f7eda44	0.99551797
29	0x3f8911f1	1.07086
30	0x3f7c419d	0.9853762
31	0x3f7d45eb	0.9893481
32	0x3f7c3cf8	0.9853053
33	0x3f7fd681	0.9993668
34	0x3f7d7ea7	0.9902138
35	0x3f827013	1.0190452
36	0x3f7c356a	0.98519003
37	0x3f7c4dc2	0.9855615
38	0x3f80d653	1.0065407
39	0x3f7dff83	0.99218005
40	0x3f841c79	1.0321189
41	0x3f7e66f9	0.99375874
42	0x3f82e032	1.0224669
43	0x3f79411c	0.97364974
44	0x3f7e2afb	0.99284333
45	0x3f808070	1.0039196
46	0x3f7bc99b	0.983545
47	0x3f7f0476	0.9961618
48	0x3f84d91a	1.0378754
49	0x3f7e193d	0.9925726
50	0x3f7cd65d	0.9876459
51	0x3f78a0ca	0.97120345
52	0x3f85f250	1.0464573
53	0x3f7a3134	0.9773133
54	0x3f7d0c1a	0.9884659
55	0x3f79b23c	0.9753759
56	0x3f7aed8e	0.9801873
57	0x3f80f459	1.0074569
58	0x3f7d336a	0.98906577
59	0x3f81c8e7	1.0139436
60	0x3f7f60e4	0.9975722
61	0x3f7d3a48	0.98917055
62	0x3f7f207f	0.9965896
63	0x3f785f13	0.9702007
64	0x3f7c226f	0.9849004
65	0x3f81f7cc	1.0153747
66	0x3f7d8b9e	0.99041164
67	0x3f8b2bda	1.0872757
68	0x3f773b52	0.9657489
69	0x3f7cc604	0.9873965
70	0x3f7b051f	0.9805469
71	0x3f7b0454	0.9805348
72	0x3f7f623d	0.99759275
73	0x3f7cced5	0.987531
74	0x3f7cbb5b	0.9872338

bnorm.bias f4 [75]
0	0x3d360112	0.044434614
1	0xbd1f4a1a	-0.038889028
2	0x3d8596ed	0.065229274
3	0x3cc363df	0.023851333
4	0x3bae830c	0.0053256806
5	0x3c80bb53	0.015714323
6	0x3cba60b5	0.022751192
7	0xb9aa99a6	-0.00032539404
8	0xbc08ea90	-0.008356705
9	0x3e3b1abd	0.18271919
10	0x3ba167a5	0.0049256855
11	0xbc51bbd4	-0.012801129
12	0xbc0f484b	-0.008745263
13	0xbc8f44de	-0.017488893
14	0x3da52902	0.08064462
15	0x3d8ab420	0.06772637
16	0x3a1201d9	0.00055697333
17	0x3ca608c6	0.020267855
18	0x3c3db9f5	0.01157998
19	0x3c7ec501	0.015549899
20	0xbceb6af2	-0.028737519
21	0xbcae3f94	-0.02127055
22	0xbc862725	-0.016376087
23	0xbb6a8ec9	-0.0035790673
24	0x3d8436ce	0.06455766
25	0x3d3a67cf	0.045509156
26	0x3d9438c4	0.0723739
27	0xbd1f7371	-0.038928453
28	0xbd3d8b3e	-0.04627537
29	0x3d998a9d	0.074971415
30	0x3d3022a7	0.043001797
31	0xbc36493e	-0.011125861
32	0x3c6e3804	0.014539722
33	0x3d0eca3b	0.03486083
34	0x3c5ecf12	0.013599174
35	0xbb82ab1c	-0.003987683
36	0x3d2077b4	0.039176658
37	0xba5395f7	-0.0008071358
38	0xbd2cb59c	-0.042165384
39	0xbc0226c4	-0.007943813
40	0xbb795f3b	-0.0038051147
41	0x3c9934a4	0.018701859
42	0x3b773fdd	0.0037727274
43	0xbc8c0e32	-0.017096613
44	0x3cc6e0fb	0.0242772
45	0xbd261e55	-0.04055627
46	0xbcf0fa06	-0.029416095
47	0x3bf47a05	0.007460835
48	0x3da1f48d	0.079079725
49	0xbd36f940	-0.044671297
50	0xbcb53c6d	-0.02212354
51	0xbd3b1f73	-0.04568429
52	0x3d1569fb	0.036478024
53	0xba8e7f1d	-0.0010871623
54	0xbd44fa3d	-0.04809021
55	0xbd0de561	-0.03464258
56	0xbd489e48	-0.048979074
57	0x3cca174c	0.024669312
58	0xbd39e278	-0.045381993
59	0x3c4e9953	0.0126097975
60	0xbca8d0cd	-0.020607376
61	0x3c37ed81	0.011226059
62	0xbca3f1ed	-0.02001282
63	0xbc81fb78	-0.01586698
64	0x3ba1b35d	0.004934712
65	0x3d2670c9	0.040634904
66	0x3cb6cbce	0.022313979
67	0x3c17e306	0.009270435
68	0xbd0c13c4	-0.034198537
69	0xbca9fc81	-0.020750286
70	0xbbd7d63a	-0.006586817
71	0x3c876bbb	0.016530862
72	0x3c45448b	0.012040268
73	0xbd0d1985	-0.034448165
74	0x3c59dbb1	0.013297007

bnorm.running_mean f4 [75]
0	0xbb6e8445	-0.0036394757
1	0x3c62ef52	0.013851004
2	0xbad82e55	-0.00164933
3	0xbd35c7d4	-0.044380024
4	0x3d1963f4	0.03744884
5	0x3cc0e1f7	0.023545248
6	0x3c9a91b2	0.018868301
7	0x3d223fa7	0.039611485
8	0x3ac687ad	0.0015146636
9	0xbb0abf50	-0.002117116
10	0xbcb0a596	-0.021563333
11	0x3cac82fa	0.021058548
12	0xbce1a431	-0.027544113
13	0xbb931f46	-0.004489812
14	0x3c2ff83f	0.010740339
15	0x3c8304a0	0.015993416
16	0x3b67501e	0.0035295556
17	0x3d975213	0.07388701
18	0xbcba90e4	-0.022774167
19	0x3d2377cc	0.03990917
20	0x3c63aed2	0.013896661
21	0xbab8b662	-0.001409244
22	0x3d43a29b	0.047762495
23	0xba91c21f	-0.0011120475
24	0x3cb68e7c	0.022284739
25	0x3c0abf38	0.008468442
26	0x3c54b53b	0.012982662
27	0xbd9aa782	-0.07551481
28	0x3d353c68	0.04424706
29	0xbb5ac3bc	-0.0033380827
30	0x3c1aab4c	0.009440254
31	0xbb885f74	-0.0041617695
32	0xbaf5b7c2	-0.0018746781
33	0xbad0d4a0	-0.0015932508
34	0x3b0d6493	0.002157484
35	0x3c2c1344	0.01050264
36	0x3aa74ce7	0.0012764008
37	0x3bc9aad4	0.0061543975
38	0x3bbc9620	0.005755201
39	0xbb585dc1	-0.0033014866
40	0x3bd6aca9	0.0065513444
41	0x3a7c7631	0.0009630649
42	0xba3406ea	-0.00068674854
43	0xbc2a518c	-0.010395419
44	0xbc0419fb	-0.008062835
45	0x3c22f19a	0.009945298
46	0x3e46a467	0.19398652
47	0xbe1892c9	-0.14899744
48	0xbc08910c	-0.008335363
49	0x3e57531e	0.210278
50	0x3e2c3d0c	0.16820163
51	0xbc1fc655	-0.009751876
52	0xbc30d866	-0.010793781
53	0x3dd75006	0.1051331
54	0x3e84b500	0.25919342
55	0x3e497653	0.19674043
56	0x3e82dd31	0.2555938
57	0xbd743dff	-0.059629437
58	0x3e2f5e24	0.17125756
59	0xbd62dc36	-0.05538579
60	0xbf88f951	-1.0701085
61	0x4111fb77	9.123893
62	0xc0d0fc69	-6.530812
63	0xc0fc67db	-7.8876777
64	0xbfb38738	-1.402564
65	0x3e8d6d8f	0.2762265
66	0x4020b5b6	2.5110908
67	0x3e4aa52d	0.19789572
68	0xc0e3fffc	-7.124998
69	0xc036f2d5	-2.8585713
70	0xbf68f691	-0.9100123
71	0xbf7bcb96	-0.9835752
72	0x40a29ae4	5.0814075
73	0xbf56c6d0	-0.83897114
74	0x414ea66e	12.915632

bnorm.running_var f4 [75]
0	0x3c456204	0.0120472945
1	0x3ba226f6	0.004948492
2	0x3aada809	0.0013248931
3	0x3ecb29ff	0.39680478
4	0x3e6855b3	0.22688942
5	0x3da85b75	0.08220569
6	0x3d43b751	0.047782246
7	0x3e83cabe	0.25740618
8	0x3aef3deb	0.0018252706
9	0x3c20c675	0.009812941
10	0x3db06c3f	0.08614396
11	0x3d7031ef	0.05864137
12	0x3e464f47	0.1936618
13	0x3b47e0e4	0.0030499035
14	0x3ad35bde	0.0016125401
15	0x3badbb67	0.005301881
16	0x3b3c2ab9	0.0028711988
17	0x3e9eeada	0.31038553
18	0x3be7e949	0.0070773703
19	0x3dcefda6	0.10106973
20	0x3b82def5	0.0039938637
21	0x3c02af6a	0.007976392
22	0x3e09d2b3	0.13459282
23	0x3ad98c78	0.0016597649
24	0x3ca6b290	0.020348817
25	0x3a8e7be7	0.0010870666
26	0x3bc6e4c7	0.006069753
27	0x3e9187c0	0.28423882
28	0x3e2dd711	0.16976573
29	0x3b7617d9	0.0037550835
30	0x3a6955b9	0.00089010183
31	0x3cf247e6	0.0295753
32	0x3c32aae9	0.010905006
33	0x3c69187b	0.014227028
34	0x3d53f829	0.051750336
35	0x39edf730	0.00045388332
36	0x3accc7fe	0.0015623567
37	0x39828f6d	0.00024902393
38	0x3b14ebcc	0.0022723554
39	0x3bb99635	0.005663658
40	0x3dcc789a	0.099839404
41	0x3cc470aa	0.023979504
42	0x3cb7b744	0.022426255
43	0x39b70fb9	0.00034916194
44	0x3cff696e	0.031178202
45	0x3aab034e	0.001304725
46	0x3d9dd2cf	0.07706224
47	0x3d3af0a9	0.045639668
48	0x3a90f95d	0.0011060644
49	0x3dbddae2	0.09270264
50	0x3d6f142a	0.05836884
51	0x3a053c9c	0.0005082579
52	0x39ab903c	0.00032723125
53	0x3cb7b85c	0.022426777
54	0x3e0a3ae2	0.13499025
55	0x3da0ae9b	0.07845803
56	0x3e05623f	0.13025759
57	0x3c061672	0.008184062
58	0x3d778d7c	0.060437664
59	0x3bafff8c	0.0053710397
60	0x400770d7	2.1162622
61	0x43185fd3	152.37431
62	0x429cad48	78.33844
63	0x42e43771	114.108284
64	0x4074fe61	3.828026
65	0x3ed78121	0.42090705
66	0x4140e944	12.05695
67	0x3f1963d7	0.5991797
68	0x42ba6810	93.20325
69	0x41733075	15.19933
70	0x3fc8914f	1.5669345
71	0x3ff8167a	1.9381859
72	0x423e02aa	47.5026
73	0x3fb73e1f	1.4315833
74	0x43992ca2	306.3487

block2.conv_2.weight f4 [75, 15, 10]
0	0xbd4f8850	-0.050667107
1	0x3ce429fd	0.027852053
2	0x3d00b7f2	0.031425424
3	0xbd3aac78	-0.045574635
4	0xbdab909f	-0.08377194
5	0x3ce0cc58	0.027441189
6	0x3d971d7b	0.0737867
7	0x3be968ba	0.00712308
8	0xbcf0fb65	-0.02941675
9	0xbd19a2df	-0.03750884
10	0x3c270961	0.010195107
11	0x3a82ddeb	0.000998435
12	0xbd85556a	-0.06510432
13	0x3d3338b3	0.043755244
14	0xbcee08a5	-0.029056856
15	0x3be5ed3f	0.0070168073
16	0xbd203c4b	-0.03912
17	0xbd478bae	-0.048717193
18	0xbdce42ee	-0.100713596
19	0xbde79a20	-0.11308694
20	0x3bcfaf36	0.0063380254
21	0xbc86982a	-0.01642998
22	0x3cac53bd	0.021036023
23	0x3d6f480f	0.05841833
24	0x3d07e96e	0.0331816
25	0xbd1a2a36	-0.03763791
26	0xbd1904d8	-0.037358135
27	0x3a15dabe	0.0005716494
28	0xbd3d4bdb	-0.04621492
29	0xbd1841b2	-0.037172027
30	0x3b7a0db6	0.0038155145
31	0x3bb2d02b	0.0054569445
32	0xbd8352cb	-0.06412276
33	0x3d8ddf31	0.06927336
34	0xbd77e65b	-0.06052242
35	0x3d5a18f9	0.053246472
36	0xbd2276d1	-0.039664093
37	0x3d3ad315	0.04561146
38	0xbcbfcd50	-0.02341333
39	0x3d3c9462	0.046039946
40	0xbd259325	-0.04042353
41	0x3d40bcf2	0.047055192
42	0xbd47dab5	-0.04879256
43	0x3d50f41a	0.051014043
44	0xbb4fb607	-0.003169419
45	0x3d2bd17c	0.041947827
46	0x3d2b7b55	0.041865665
47	0x3c323d67	0.010878897
48	0x3ce8494f	0.028355269
49	0xbc9db7a5	-0.019252608
50	0xbb4134eb	-0.0029481004
51	0xbcc6d240	-0.024270177
52	0xbbd9edfd	-0.006650685
53	0xbcfe2e5d	-0.031027967
54	0xbd31e971	-0.043435518
55	0x3d0abfc4	0.03387429
56	0xbce391cd	-0.027779484
57	0x3d77b8e3	0.060479056
58	0xbd43be2a	-0.047788776
59	0xbdb8b554	-0.090189606
60	0xbd24634d	-0.040133763
61	0xbba91891	-0.0051603992
62	0xbd8ddeb9	-0.069272466
63	0x3d9518eb	0.07280143
64	0xbcabfcd1	-0.020994576
65	0xbda79cfc	-0.08184239
66	0xbdba897f	-0.091082565
67	0x3d8063e1	0.062690504
68	0x3cce337a	0.02517103
69	0xbd2d22bd	-0.042269457
70	0xbbb338bc	-0.0054694097
71	0xbd3aed84	-0.04563667
72	0xbd7aea52	-0.06125862
73	0x3d4b30cf	0.049607094
74	0xbd528752	-0.051398583
75	0xbd0f79c4	-0.035028234
76	0xbdc4a99d	-0.09602664
77	0x3ca9aded	0.020712817
78	0x3d0ecc8c	0.03486304
79	0x3d5a341b	0.053272348
80	0xbd76aed0	-0.060225308
81	0x3d8d1dda	0.06890459
82	0xbc913c57	-0.017728968
83	0x3d99faaa	0.075185135
84	0x3d5d3719	0.054007623
85	0xbd8d09e3	-0.06886651
86	0xbda042ed	-0.07825265
87	0x3d473da4	0.04864277
88	0xbd4b6a22	-0.049661763
89	0xbdaee2ca	-0.0853935
90	0x3d09fe5a	0.033689834
91	0x3d6e99cc	0.05825214
92	0xbd0aea7a	-0.03391502
93	0x3d2c5fa1	0.042083386
94	0xbd5053f8	-0.05086133
95	0xbdb5a95f	-0.088701956
96	0xbd82bbf7	-0.06383508
97	0x3d9a29c4	0.075274974
98	0xbc5c2ec8	-0.013438888
99	0xbd8d5e54	-0.06902757
100	0x3b333831	0.0027346725
101	0x3a5973eb	0.0008295166
102	0x3c817971	0.015804978
103	0x3d845e52	0.06463303
104	0x3d77f44d	0.060535718
105	0xbcce67c9	-0.025195973
106	0xbd8feed7	-0.07027977
107	0xbd493fb4	-0.049133018
108	0x3d38fc5e	0.04516255
109	0xbdc1c4e6	-0.094613835
110	0xbcd433ef	-0.02590367
111	0xbd05a11f	-0.03262436
112	0x3d91b058	0.07113713
113	0x3d709273	0.058733415
114	0xbd75cf8f	-0.060012396
115	0x3d593831	0.053032104
116	0xbb0f41e3	-0.002185934
117	0x3d4d7bf5	0.050167043
118	0xbdb039e0	-0.08604789
119	0x3c770840	0.015077651
120	0xbdb8a9f1	-0.09016789
121	0xbd2b6499	-0.041843984
122	0xbaccb01e	-0.0015616452
123	0x3d715fff	0.05892944
124	0x3b97c9da	0.004632217
125	0xbd5a925b	-0.05336223
126	0xbd416b48	-0.047221452
127	0x3d5919fc	0.053003296
128	0x3ba6c4e2	0.005089388
129	0x3d29ae6f	0.04142612
130	0x3ca23319	0.019799756
131	0xbd520145	-0.051270742
132	0xbb91355f	-0.004431411
133	0x3da71bf6	0.0815963
134	0xbd593503	-0.05302907
135	0xbb2d7dbb	-0.0026472646
136	0xbd4df2a4	-0.05028023
137	0xbd6e98f5	-0.05825134
138	0x3d28055c	0.041020736
139	0xbdac84dd	-0.08423779
140	0xbd8db9d5	-0.0692021
141	0x3d7ca65c	0.06168209
142	0xbd27f29f	-0.041002866
143	0x3d876d11	0.066126
144	0xbca9519a	-0.020668793
145	0x3c94a0ac	0.01814302
146	0xbcc99b7d	-0.024610275
147	0x3cda0d29	0.026617603
148	0x3d3be5dd	0.04587351
149	0x3c279595	0.010228534
150	0x3d6f1f09	0.058379207
151	0xbdd4c8fb	-0.103898965
152	0xbdac1c0e	-0.084037885
153	0xbd713217	-0.05888566
154	0xbd29c5f4	-0.04144855
155	0x3c90f98c	0.017697118
156	0x3d8ea665	0.06965331
157	0x3d836fd1	0.06417812
158	0x3d8d0722	0.06886126
159	0x3c4d5f94	0.012534995
160	0xbd072327	-0.03299251
161	0x3cb37a42	0.021908883
162	0x3c9a8ac8	0.018865004
163	0x3d5beeca	0.053694524
164	0x3c0f3ad6	0.008742055
165	0xbac1b9ff	-0.0014780163
166	0x3ccf6a99	0.025319384
167	0x3d9ba5a8	0.07599956
168	0xbda1ac18	-0.078941524
169	0x3c86dd27	0.016462876
170	0x3d3e8a1c	0.04651843
171	0xbdb3b7ef	-0.08775317
172	0xbd137aac	-0.03600566
173	0xbd1b9a6c	-0.037989065
174	0xbdd474e3	-0.10373857
175	0x3cb66c4c	0.022268437
176	0x3cb0d653	0.021586573
177	0xbd14da85	-0.03634121
178	0x3d19c987	0.037545707
179	0xbd60de33	-0.054899406
180	0x3d672fd2	0.05644209
181	0xbd4b0056	-0.049560867
182	0x3ceca5e5	0.028887698
183	0xbd6e1b61	-0.05813158
184	0xbd94c48c	-0.07264051
185	0x3ce2f9ad	0.027706945
186	0x3c3bea3c	0.01146942
187	0xbd0a0d37	-0.03370401
188	0xb89e21bb	-7.54031e-05
189	0xbb066229	-0.0020505285
190	0x3c558b61	0.013033719
191	0xbbf9d38d	-0.007624096
192	0xbd6f6eac	-0.058455154
193	0xbcea3d86	-0.02859379
194	0x3d470d77	0.048596825
195	0x3d47ee6e	0.04881137
196	0xbd4d17d6	-0.05007156
197	0x3dac2ebd	0.08407352
198	0xbcc00170	-0.023438185
199	0xbd96082f	-0.0732578
200	0x3bc5016e	0.0060121333
201	0x3ca3f2e4	0.02001328
202	0x3d17987f	0.037010666
203	0xbbe386c6	-0.0069435565
204	0xbd617457	-0.05504259
205	0x3cc51dab	0.024061998
206	0xbc9d3cf7	-0.01919411
207	0xbd38d5e1	-0.045125846
208	0x3d028f56	0.031874977
209	0xbd4f8ae8	-0.05066958
210	0xbdc45e7a	-0.095883325
211	0x3d44d153	0.04805119
212	0xbd936248	-0.0719648
213	0x3d4f0bf6	0.050548516
214	0x3da8b497	0.0823757
215	0x3c0b5db6	0.008506229
216	0x3d72b3cb	0.059253495
217	0x3d7001f7	0.058595624
218	0x3d298be5	0.04139318
219	0x3d041d01	0.032254223
220	0xbc3a096d	-0.011354786
221	0xbdb51b8b	-0.08843144
222	0xbda6defc	-0.08148
223	0xbd5e2270	-0.05423206
224	0xbd5aa9a6	-0.053384446
225	0xbd0de3d8	-0.034641117
226	0xbc612360	-0.013741344
227	0xbcfdb7fd	-0.030971522
228	0xbd2871a5	-0.041124005
229	0x3d009eaa	0.031401314
230	0xbd0017a5	-0.03127255
231	0xbc713098	-0.014721058
232	0xbd49aa29	-0.049234543
233	0x3cb49b28	0.02204664
234	0xbd7f50b1	-0.062332813
235	0xbd3a7858	-0.045524925
236	0x3ce14402	0.027498249
237	0x3d36a169	0.044587526
238	0xbc8c42d8	-0.017121717
239	0x3d86e4fb	0.06586643
240	0x3d9adc75	0.0756158
241	0x3d7f0f5f	0.06227052
242	0x3bb2ba26	0.0054543195
243	0xbd09f886	-0.033684276
244	0x3d5c4eb2	0.053785987
245	0x3cd2a1d2	0.025711928
246	0xbd4f7374	-0.050647214
247	0xbdbb28b1	-0.09138621
248	0xbd8bd878	-0.068283975
249	0x3bc1c291	0.0059130867
250	0xbd6bdc98	-0.05758342
251	0xbd5b003e	-0.053467028
252	0x3d5ee7ca	0.05442027
253	0x3d93339a	0.071875766
254	0x3d0c9983	0.034326088
255	0x3d713ccd	0.058895875

block2.bnorm_2.weight f4 [75]
0	0x3f8a1ac5	1.078942
1	0x3f7f8a60	0.9982052
2	0x3f80c76d	1.006086
3	0x3f70f7f8	0.9412837
4	0x3f7eb029	0.9948755
5	0x3f847637	1.0348576
6	0x3f7f561e	0.9974078
7	0x3f754fc6	0.9582485
8	0x3f8420f7	1.032256
9	0x3f80fc19	1.0076934
10	0x3f82012d	1.0156609
11	0x3f799431	0.9749175
12	0x3f80bd69	1.0057803
13	0x3f800129	1.0000354
14	0x3f80293e	1.0012586
15	0x3f857dc3	1.0429004
16	0x3f79d700	0.9759369
17	0x3f774691	0.9659205
18	0x3f7f7a22	0.99795735
19	0x3f85e752	1.0461218
20	0x3f82cb92	1.0218375
21	0x3f84f198	1.0386229
22	0x3f805963	1.0027279
23	0x3f8011e6	1.0005462
24	0x3f7ec361	0.99516875
25	0x3f7e8f4a	0.9943739
26	0x3f778f02	0.9670259
27	0x3f73cb39	0.9523197
28	0x3f81a7c1	1.012932
29	0x3f80a478	1.0050192
30	0x3f83f5ac	1.0309348
31	0x3f8088b2	1.0041716
32	0x3f7edc3d	0.99554807
33	0x3f7f9f0f	0.9985208
34	0x3f7dbf18	0.9911971
35	0x3f7ba2b2	0.9829513
36	0x3f7e70b8	0.99390745
37	0x3f7cb4fe	0.9871367
38	0x3f7f0240	0.9961281
39	0x3f83dead	1.030233
40	0x3f7fff16	0.99998605
41	0x3f7a8ddc	0.9787271
42	0x3f82a6ee	1.0207193
43	0x3f7ee370	0.9956579
44	0x3f80b23f	1.0054396
45	0x3f7bd05f	0.98364824
46	0x3f76733a	0.9626957
47	0x3f8063c2	1.0030444
48	0x3f801062	1.0005
49	0x3f84ab49	1.0364772
50	0x3f7ebf39	0.9951053
51	0x3f7ff24d	0.99979097
52	0x3f85f8ef	1.0466594
53	0x3f83d678	1.0299826
54	0x3f80944c	1.0045257
55	0x3f7ac112	0.9795085
56	0x3f7e76b5	0.9939988
57	0x3f71690b	0.9430091
58	0x3f7a4cef	0.9777364
59	0x3f84e117	1.0381192
60	0x3f81a453	1.0128273
61	0x3f74a912	0.9557048
62	0x3f80dd97	1.0067624
63	0x3f79e211	0.97610575
64	0x3f792468	0.97321177
65	0x3f8858a6	1.0652053
66	0x3f7a9602	0.97885144
67	0x3f7910e1	0.9729138
68	0x3f76c328	0.96391535
69	0x3f7ac72f	0.9796018
70	0x3f7d9957	0.99062103
71	0x3f825bf6	1.0184314
72	0x3f8476dc	1.0348773
73	0x3f7c579f	0.985712
74	0x3f8525dd	1.040218

block2.bnorm_2.bias f4 [75]
0	0x3d75ba70	0.059992254
1	0x3d467b2f	0.04845732
2	0xbbe090bc	-0.006853191
3	0xbceb8ad9	-0.028752731
4	0xbd059b04	-0.032618538
5	0x3c82cbd0	0.015966326
6	0xba3647d8	-0.00069534546
7	0x3cf83e20	0.030303061
8	0x3cf8f3a3	0.030389613
9	0xbd7520c3	-0.059845697
10	0x3c975bf2	0.01847646
11	0xbd5e8ccf	-0.054333504
12	0x3c9bda69	0.019025045
13	0x3d84372c	0.06455836
14	0x3b150376	0.0022737659
15	0xbc16abe9	-0.00919626
16	0xbd6257ad	-0.055259395
17	0xbd1c0a75	-0.03809591
18	0xbd259c37	-0.04043218
19	0x3d234e04	0.039869323
20	0xbb261a1e	-0.0025345157
21	0xbc829a28	-0.015942648
22	0xbc9b2571	-0.018938752
23	0xbd095e03	-0.033536922
24	0xbbbb542d	-0.0057168216
25	0xbc665fdf	-0.014060943
26	0xbd0d1ca6	-0.03445115
27	0xbd15387c	-0.03643082
28	0xbbaf6627	-0.0053527537
29	0x3d7867fe	0.06064605
30	0x3ccbfc55	0.024900595
31	0x3d292445	0.041294355
32	0xbcc2efce	-0.023795988
33	0xbc546177	-0.012962691
34	0xbc3ae439	-0.011406952
35	0x3c8c4bd2	0.017125998
36	0x3b1fc415	0.0024378349
37	0x3d3a1cfd	0.0454378
38	0x3d1e3983	0.038629066
39	0x3d075aa2	0.03304542
40	0x3cb204c2	0.021730784
41	0xbbf05319	-0.0073341248
42	0x3d1fa42d	0.03897493
43	0xbbec6e65	-0.0072153085
44	0xbab20b25	-0.0013583644
45	0xbc7cb848	-0.015424795
46	0xba1ce4ea	-0.00059850386
47	0xbc300120	-0.010742456
48	0xbce8744a	-0.028375763
49	0x3d5d4cca	0.05402831
50	0x3bded6fa	0.0068005295
51	0xbd95c335	-0.073126234
52	0xbc9496fc	-0.018138401
53	0x3d85fa70	0.06541908
54	0xbd3abc9c	-0.04559003
55	0xbd0d63ce	-0.03451901
56	0xbc75e441	-0.015008033
57	0xbd7fbc94	-0.0624357
58	0xbdb78873	-0.089615725
59	0x3d404e1d	0.046949495
60	0x393e5bc7	0.00018154002
61	0xbd24c837	-0.040230002
62	0xbd5eff96	-0.054442964
63	0xbd83890c	-0.06422624
64	0xbd04a129	-0.032380257
65	0xbc5f1a6d	-0.01361714
66	0xbc6c943b	-0.014439638
67	0xbcf60df4	-0.03003595
68	0xbd1236ac	-0.03569667
69	0xbd16035b	-0.036624294
70	0xbc673214	-0.014111061
71	0x3c02d611	0.007985608
72	0xbc8c9ce9	-0.017164664
73	0xbb614bbb	-0.0034377414
74	0xbc9e57dc	-0.019329004

block2.bnorm_2.running_mean f4 [75]
0	0xbe901632	-0.28141934
1	0xbe5d70c7	-0.21625052
2	0xbeb63072	-0.35583836
3	0xbd627557	-0.055287685
4	0xbdd1d86e	-0.10246359
5	0xbe54d601	-0.20784761
6	0x3e532d7d	0.20622821
7	0x3ecdd4f5	0.40201536
8	0xbe86b049	-0.2630637
9	0xbd692b49	-0.056926046
10	0xbf074e41	-0.5285378
11	0xbe937507	-0.28800222
12	0xbec3f04d	-0.38269272
13	0xbe315a77	-0.17319666
14	0xbe709930	-0.23495936
15	0xbe5fd9a7	-0.21860372
16	0xbe001066	-0.12506256
17	0xbcb8dd66	-0.022566509
18	0x3ebe48e0	0.37164974
19	0xbe7c216c	-0.24622124
20	0xbd9f643a	-0.077827886
21	0xbc20a86e	-0.009805782
22	0x3dcfe1b1	0.10150469
23	0xbe349206	-0.17633829
24	0xbd5c7324	-0.053820744
25	0xba66189e	-0.0008777472
26	0xb8e69b90	-0.000109962304
27	0x3d96e999	0.07368774
28	0xbc82b46d	-0.015955174
29	0xbe20c314	-0.15699416
30	0xbe9f4e8b	-0.3111461
31	0xbd3f2951	-0.04667026
32	0x3eade8c7	0.33966658
33	0xbdce0473	-0.10059442
34	0x3dfa2a35	0.122150816
35	0xbea151a1	-0.3150759
36	0x3e664476	0.22487053
37	0xbe90fb4e	-0.2831673
38	0x3de9e82f	0.11421239
39	0xbdcc21d8	-0.09967393
40	0x3dede507	0.11615949
41	0x3e611380	0.21980095
42	0xbeb1ee26	-0.34752005
43	0x3eb190c3	0.34680757
44	0x3d86f719	0.06590099
45	0xbd961816	-0.07328813
46	0x3e42683d	0.18985076
47	0x3ee55b30	0.44796133
48	0xbea80c59	-0.3282192
49	0xbdc83fc2	-0.09777786
50	0x3d1a21ab	0.037629765
51	0x3f0f819e	0.56057155
52	0xbea395d6	-0.31950253
53	0xbd13704a	-0.03599576
54	0x3def1b1b	0.11675092
55	0x3dfd2999	0.1236145
56	0x3e61c80b	0.22048967
57	0x3cf438a5	0.029812166
58	0x3f109ef3	0.5649254
59	0xbda85340	-0.08219004
60	0xbea325a2	-0.3186465
61	0xbea88216	-0.32911748
62	0x3e45a47f	0.19301032
63	0xbf14e4f8	-0.5816188
64	0xbe2c93ce	-0.16853258
65	0xbd97fea8	-0.07421619
66	0xbd9d315d	-0.07675431
67	0xbdb6bccf	-0.08922731
68	0xbebd8e89	-0.37022808
69	0x3f0790a5	0.52955085
70	0x3e5a1f67	0.21301042
71	0xbda18fc9	-0.07888753
72	0xbe89b8ae	-0.26898712
73	0xbebc00d3	-0.3671938
74	0xbdd6e672	-0.10493173

block2.bnorm_2.running_var f4 [75]
0	0x3e8b7f29	0.27245453
1	0x3e586f1b	0.21136133
2	0x3ed0ef59	0.40807608
3	0x3f03d9a3	0.5150396
4	0x3e94f6b7	0.29094478
5	0x3e5e0a57	0.21683632
6	0x3e77bfce	0.24194261
7	0x3ed8dd6d	0.42356434
8	0x3e85514d	0.2603859
9	0x3e340992	0.17581776
10	0x3f415cfa	0.75532496
11	0x3ecc0f9b	0.39855656
12	0x3efafdc4	0.49021733
13	0x3e9b0dca	0.30283958
14	0x3e9c9276	0.3058049
15	0x3e847d6b	0.25876936
16	0x3e8f7514	0.2801901
17	0x3e1a6774	0.15078527
18	0x3ed77500	0.4208145
19	0x3eaa9407	0.3331606
20	0x3dcfd137	0.101473264
21	0x3e33ad37	0.17546545
22	0x3e5b0dba	0.21391955
23	0x3e66b84a	0.22531238
24	0x3e1c27e2	0.15249589
25	0x3e4c5d77	0.19957529
26	0x3e669b4c	0.22520179
27	0x3e9f2031	0.31079248
28	0x3e8fda5b	0.2809628
29	0x3e0f33cf	0.13984607
30	0x3f2726dc	0.6529367
31	0x3ddb034b	0.106939875
32	0x3ed2a597	0.4114196
33	0x3e9a39ce	0.30122226
34	0x3e9b0d6a	0.30283672
35	0x3f93a2a0	1.1534004
36	0x3e5edd24	0.21764046
37	0x3ec34082	0.38135153
38	0x3e423fb0	0.18969607
39	0x3e93a127	0.28833887
40	0x3ea079f2	0.31343037
41	0x3f4d41ff	0.8017883
42	0x3f68aaba	0.9088551
43	0x3ee06f68	0.43834996
44	0x3e2c7cfc	0.16844553
45	0x3dd61d37	0.10454791
46	0x3e200e14	0.1563037
47	0x3e7043a3	0.23463301
48	0x3e284da0	0.16435862
49	0x3dd175bc	0.10227534
50	0x3ec06a95	0.37581316
51	0x3e834db8	0.25645232
52	0x3e0f9e97	0.14025341
53	0x3e1b5c10	0.15171838
54	0x3e39a182	0.18128017
55	0x3eacea8a	0.3377269
56	0x3e079259	0.13239421
57	0x3d86f9bc	0.06590602
58	0x3f0cf496	0.5506071
59	0x3cf2d558	0.029642746
60	0x3e1ca039	0.15295495
61	0x3f5b5c24	0.8568747
62	0x3e1b24ca	0.15150753
63	0x3d960abc	0.07326266
64	0x3d5defe3	0.054183852
65	0x3da8b5a0	0.08237767
66	0x3d31b374	0.04338403
67	0x3ebc4025	0.36767688
68	0x3ecc0ee4	0.3985511
69	0x3dea16a5	0.114301
70	0x3e414e6b	0.1887757
71	0x3df583a7	0.11988001
72	0x3d4581fc	0.048219666
73	0x3e86f386	0.2635767
74	0x3dc71bcb	0.09722098

block3.conv_3.weight f4 [150, 15, 10]
0	0x3d3d3f32	0.046202846
1	0xbc869074	-0.016426302
2	0xbd94882c	-0.07252535
3	0xbcc22759	-0.023700403
4	0xbd59fe28	-0.053220898
5	0x3c182aec	0.009287577
6	0x3b2ee958	0.0026689377
7	0xbc369a21	-0.011145146
8	0xbd38d4ae	-0.045124702
9	0x3c5d6cb9	0.013514691
10	0xbc1ccac1	-0.009569825
11	0xbc8337ec	-0.016017877
12	0xbd9c6975	-0.07637302
13	0x3d340821	0.043953065
14	0x3c53dc21	0.012930901
15	0xbd1dde42	-0.03854204
16	0xbd02579c	-0.031821832
17	0x3cfb2308	0.030656353
18	0x3d3ea6e2	0.04654587
19	0x3d9928f6	0.07478516
20	0x3d1f4b9b	0.038890462
21	0xbd38fcaf	-0.045162853
22	0xbd2a950a	-0.04164604
23	0xba6c12e9	-0.00090055034
24	0x3bc940a3	0.0061417385
25	0x3c3ed8eb	0.011648397
26	0xbb80c987	-0.003930274
27	0xbd5e10a4	-0.05421509
28	0xbd95fad7	-0.073232345
29	0x3d53133d	0.05153202
30	0xbca5d432	-0.020242784
31	0xbc129373	-0.008946287
32	0xbc876688	-0.016528383
33	0xbd477f25	-0.04870524
34	0xbd3529ce	-0.04422932
35	0x3cfea240	0.031083226
36	0x3bfaf069	0.0076580537
37	0xbd29e7aa	-0.041480698
38	0xbd6944ca	-0.056950368
39	0x3d61bc68	0.05511132
40	0x3b813405	0.003942969
41	0x3d1aabe7	0.037761595
42	0x3d108381	0.035281662
43	0xbcb5a66e	-0.022174086
44	0x3c4e2307	0.012581593
45	0xbaeebda5	-0.0018214477
46	0x3adf6743	0.0017044324
47	0xbd60129a	-0.05470524
48	0x3d0b1531	0.033955757
49	0xbd0df216	-0.0346547
50	0xbccb4749	-0.024814265
51	0x3d17e881	0.037086967
52	0x3c1a472a	0.009416381
53	0xbc366024	-0.01113132
54	0x3d1b70c5	0.037949342
55	0xbd633bc7	-0.05547693
56	0xbd0172b1	-0.03160352
57	0x3d24628d	0.040133048
58	0x3cadf687	0.021235717
59	0xbcb84904	-0.022495754
60	0xbd7834a6	-0.060597084
61	0xbcb5a1c9	-0.022171872
62	0xbd0a0cd9	-0.03370366
63	0xbbb614bc	-0.005556671
64	0x3ca1ec2b	0.019765934
65	0x3ca11c8d	0.019666934
66	0xbd9b6147	-0.075869136
67	0xbbb41a96	-0.0054963334
68	0xbcfea94f	-0.031086592
69	0xbd5a32c1	-0.05327106
70	0x3bcfa89b	0.006337238
71	0x3c67f57f	0.014157652
72	0xbcd03892	-0.0254176
73	0xbc01eb0c	-0.007929575
74	0x3d93fec3	0.07226326
75	0xbd50b916	-0.05095776
76	0x3d068bde	0.03284823
77	0xbd07ab37	-0.033122268
78	0xbd0cdc7f	-0.03438997
79	0xbc3a2cb7	-0.0113632
80	0x3d934298	0.07190436
81	0x3d182f84	0.03715469
82	0x3b325a99	0.0027214645
83	0xbc48f7bc	-0.012266096
84	0x3c6c8243	0.014435354
85	0xbcbf6654	-0.023364224
86	0x3c4eb61a	0.012616659
87	0xbd307f5b	-0.043090206
88	0xbd92d021	-0.07168604
89	0x3c55830c	0.013031732
90	0x3cddb23a	0.027062524
91	0xbd0e6d31	-0.0347721
92	0xbcf89a66	-0.03034706
93	0xbd0bb516	-0.034108244
94	0x3d76be29	0.060239945
95	0xbc3c08f0	-0.01147674
96	0x3d2f7696	0.0428377
97	0x3d02cda6	0.031934403
98	0xbc123392	-0.008923428
99	0xbda65de8	-0.0812338
100	0x3d6c371c	0.057669744
101	0x3d4e11b8	0.050309867
102	0x3d5e90ee	0.054337434
103	0xbd7d6856	-0.06186708
104	0x3c1242ec	0.008927088
105	0xbca83ff7	-0.020538313
106	0xbd6ca851	-0.057777707
107	0xbd85aea3	-0.0652745
108	0xbcfb4bac	-0.030675732
109	0xbd4671be	-0.048448317
110	0x3d848cf7	0.064721994
111	0xbc00f35d	-0.007870522
112	0xba75869c	-0.00093660667
113	0x3b845ed6	0.0040396256
114	0x3d2df09c	0.04246579
115	0x3b3db6db	0.0028948102
116	0xbc055896	-0.008138796
117	0xbce41d90	-0.027846128
118	0x3ce7d2e9	0.028298812
119	0x3d8e9564	0.06962088
120	0xbc3df52a	-0.011594096
121	0xbd747e9d	-0.05969106
122	0x3c8d7b26	0.017270636
123	0x3d3f687e	0.04673051
124	0xbcc6ffc2	-0.024291877
125	0x3d4bac49	0.04972485
126	0x3db09cf9	0.0862369
127	0x3d492746	0.04910972
128	0xbd9e6bea	-0.07735427
129	0x3bb2135b	0.0054344363
130	0x3b8317b2	0.0040006274
131	0x3c1aab4f	0.009440257
132	0xbd536064	-0.051605597
133	0xbc201832	-0.009771394
134	0xbc1ffbd3	-0.009764629
135	0xbcbd1c23	-0.023084706
136	0xbc050ad0	-0.008120254
137	0xbc03e56c	-0.008050304
138	0xbd5f7bb3	-0.05456133
139	0x3d9a4ae2	0.07533814
140	0x3cff663f	0.031176684
141	0xbc05f2f9	-0.008175605
142	0x3b8f2146	0.00436798
143	0xbc6e41bb	-0.014542039
144	0x3d053a56	0.032526337
145	0xbc6ae8ab	-0.014337699
146	0xbcfcec33	-0.030874347
147	0x3d4e72ba	0.05040238
148	0x3c5976b8	0.013272934
149	0xbddb1f1c	-0.10699293
150	0xbcfa870d	-0.030581975
151	0x3d890dd6	0.06692092
152	0x3cfad6ef	0.030620066
153	0xbd23a0cd	-0.039948273
154	0xbd2c69c2	-0.042093046
155	0xbb7757d4	-0.0037741559
156	0x3c04e7d0	0.008111909
157	0xbc4b597c	-0.012411471
158	0xbd85cdcd	-0.06533394
159	0xbd843326	-0.06455068
160	0xbd0199bb	-0.03164075
161	0x3b674494	0.0035288678
162	0x3cbca296	0.023026746
163	0xbd54e5ae	-0.051976852
164	0xbd376665	-0.044775385
165	0xbcdd9c0b	-0.027051946
166	0xbc9cdd19	-0.019148396
167	0x3d0a0f97	0.033706274
168	0x3d1f0f57	0.03883299
169	0x3d5af623	0.05345739
170	0xbd12e8a7	-0.035866406
171	0xbcd595ae	-0.02607235
172	0xbc64307d	-0.013927576
173	0xbc679aeb	-0.014136056
174	0x3c8f2302	0.017472748
175	0xbd575d5a	-0.05257926
176	0xbb5af5ac	-0.0033410592
177	0xbd657e45	-0.056028623
178	0xbd26f712	-0.04076297
179	0xbb356896	-0.0027680746
180	0xbc9b7e89	-0.018981235
181	0xbb6e2fa5	-0.0036344316
182	0xbd2253cb	-0.039630692
183	0x3ba16731	0.0049256315
184	0x3be2474a	0.006905471
185	0x3ba76b7a	0.0051092478
186	0xbcb68ec9	-0.022284882
187	0xbd2b19ae	-0.041772537
188	0x3d16a6f8	0.036780328
189	0xba87eef2	-0.0010370894
190	0xbd4c4dca	-0.049878873
191	0xbd488b18	-0.048960775
192	0xbc3e5e6f	-0.011619194
193	0xbc885516	-0.016642135
194	0x3cb0ac52	0.021566544
195	0x38ed06bf	0.00011302297
196	0x3ce36471	0.027757855
197	0xbc8a516d	-0.01688453
198	0xbc188559	-0.009309136
199	0xbd74606a	-0.05966226
200	0xbd8d22c1	-0.068913944
201	0xbd7f8436	-0.062381946
202	0xbc6766b4	-0.014123607
203	0xbd747908	-0.059685737
204	0x3d293996	0.041314684
205	0xbd2ad6e5	-0.041708846
206	0xbd00716d	-0.03135817
207	0x3cf2a08f	0.029617576
208	0x3d858953	0.06520333
209	0xbc4160a3	-0.011802825
210	0x3cc78e00	0.024359703
211	0xbd3fc853	-0.046821903
212	0xbd725cc5	-0.059170503
213	0xbc901ca1	-0.017591776
214	0x3b2049f1	0.0024458135
215	0x3ce746a7	0.028231932
216	0xbd761708	-0.060080558
217	0x3a966101	0.0011473001
218	0xbce5fb47	-0.02807392
219	0xbc4c95b1	-0.012486861
220	0xbcdadf27	-0.026717735
221	0xbb9da358	-0.004810732
222	0xbd6741e9	-0.05645934
223	0xbd58610a	-0.05282692
224	0xbd3786cf	-0.044806298
225	0xbd84e207	-0.06488424
226	0x3ae74dfa	0.001764714
227	0xbd3315ef	-0.04372209
228	0xbd600ca4	-0.054699555
229	0x3d540eb3	0.05177183
230	0x3a2be9c0	0.0006557964
231	0x3cd7f675	0.026362637
232	0xbc835fb2	-0.016036842
233	0x3cd0f356	0.025506657
234	0x3d197ed6	0.037474476
235	0x3c80ffe0	0.01574701
236	0xbd8690ba	-0.06570573
237	0x3d18959c	0.037252054
238	0x3c2a2d74	0.010386813
239	0x3c122188	0.008919127
240	0x3c9dd1be	0.019265052
241	0x3cc86c1b	0.024465611
242	0xbda0c2d1	-0.07849658
243	0xbd062c28	-0.032756954
244	0xbdc41ed3	-0.09576192
245	0xbd257200	-0.040391922
246	0x3d3fb179	0.04680011
247	0xbd138e31	-0.036024276
248	0x3d418322	0.0472442
249	0x3d5be077	0.053680863
250	0x3cf49cb6	0.029859882
251	0xbcfacfd8	-0.030616686
252	0xbd2140ab	-0.039368313
253	0x3d0e53aa	0.034747757
254	0xbccb3172	-0.02480385
255	0xbd61c41c	-0.055118665

block3.bnorm_3.weight f4 [150]
0	0x3f887686	1.066117
1	0x3f83b454	1.0289407
2	0x3f80953a	1.004554
3	0x3f8213e5	1.0162321
4	0x3f86b6f8	1.0524588
5	0x3f81d3c9	1.0142757
6	0x3f81f006	1.0151374
7	0x3f875233	1.057196
8	0x3f7514ff	0.9573516
9	0x3f831277	1.024001
10	0x3f70c3a1	0.94048506
11	0x3f82eae0	1.0227928
12	0x3f7bdf40	0.9838753
13	0x3f80efbc	1.0073161
14	0x3f8247d1	1.0178167
15	0x3f7f2979	0.9967266
16	0x3f76b14b	0.9636428
17	0x3f8744c7	1.0567864
18	0x3f7497e7	0.95544285
19	0x3f7fb0c6	0.9987911
20	0x3f839fdf	1.0283164
21	0x3f82d7d6	1.0222118
22	0x3f813aa3	1.009602
23	0x3f7eeb73	0.99578017
24	0x3f85700b	1.0424818
25	0x3f8536fe	1.0407407
26	0x3f854c07	1.0413827
27	0x3f7f9d8b	0.99849766
28	0x3f81f8f7	1.0154103
29	0x3f82a54f	1.0206698
30	0x3f7f22e8	0.9966264
31	0x3f7fb3db	0.9988381
32	0x3f7d678b	0.9898612
33	0x3f85363b	1.0407175
34	0x3f7f2dc2	0.99679196
35	0x3f7e5235	0.9934419
36	0x3f82b4b0	1.0211391
37	0x3f812226	1.0088546
38	0x3f8044fa	1.002105
39	0x3f7d1346	0.98857534
40	0x3f89dc49	1.0770351
41	0x3f82b0c0	1.021019
42	0x3f8dde2b	1.1083425
43	0x3f7883e6	0.9707626
44	0x3f81b6ef	1.0133952
45	0x3f818078	1.011733
46	0x3f81dcbf	1.0145491
47	0x3f74ec2c	0.9567287
48	0x3f83f9ae	1.0310571
49	0x3f884cd3	1.0648445
50	0x3f7d0238	0.9883151
51	0x3f7e9ccf	0.9945802
52	0x3f84b113	1.0366539
53	0x3f848fd8	1.0356398
54	0x3f876285	1.0576941
55	0x3f7dce6c	0.991431
56	0x3f86c588	1.0529032
57	0x3f7e1e69	0.9926515
58	0x3f7d6d32	0.98994744
59	0x3f8462f4	1.0342698
60	0x3f7cc311	0.9873515
61	0x3f7d46cf	0.9893617
62	0x3f7ba896	0.98304117
63	0x3f7fab95	0.9987119
64	0x3f7ef081	0.9958573
65	0x3f820763	1.0158504
66	0x3f8115ab	1.0084738
67	0x3f7ba099	0.9829193
68	0x3f7ce94f	0.987935
69	0x3f78e76c	0.9722812
70	0x3f80fafc	1.0076594
71	0x3f7f4e60	0.99728966
72	0x3f7be4dc	0.98396087
73	0x3f82b1c4	1.02105
74	0x3f803f30	1.0019283
75	0x3f7eaa86	0.9947895
76	0x3f809d24	1.0047956
77	0x3f837663	1.0270504
78	0x3f7c5c46	0.985783
79	0x3f7c912f	0.9865903
80	0x3f84628e	1.0342577
81	0x3f8224f5	1.0167528
82	0x3f7d6604	0.9898379
83	0x3f825a88	1.0183878
84	0x3f817cee	1.011625
85	0x3f7e52f1	0.9934531
86	0x3f80f92b	1.007604
87	0x3f81f705	1.0153509
88	0x3f826cd9	1.0189468
89	0x3f84809a	1.0351746
90	0x3f83f118	1.0307951
91	0x3f8172dd	1.0113178
92	0x3f8130e3	1.0093044
93	0x3f80be49	1.005807
94	0x3f83fc43	1.0311359
95	0x3f7e3ab8	0.9930835
96	0x3f7ca1b8	0.98684263
97	0x3f7f9287	0.9983296
98	0x3f81b71a	1.0134003
99	0x3f777a08	0.9667058
100	0x3f84a110	1.0361652
101	0x3f79469f	0.97373384
102	0x3f80439f	1.0020636
103	0x3f83670b	1.0265821
104	0x3f78ecb7	0.972362
105	0x3f810244	1.0078816
106	0x3f83de26	1.0302169
107	0x3f78e28d	0.9722069
108	0x3f773d4a	0.96577895
109	0x3f779af3	0.9672081
110	0x3f82d015	1.0219752
111	0x3f82ef85	1.0229346
112	0x3f79a048	0.97510195
113	0x3f7d661a	0.9898392
114	0x3f814683	1.0099643
115	0x3f80b37e	1.0054777
116	0x3f7babeb	0.983092
117	0x3f8074f4	1.0035691
118	0x3f830a23	1.0237468
119	0x3f80e71c	1.0070529
120	0x3f827266	1.0191162
121	0x3f7ea1d8	0.99465704
122	0x3f7a8e98	0.9787383
123	0x3f7f417a	0.99709284
124	0x3f80901b	1.0043977
125	0x3f82408a	1.0175946
126	0x3f80c232	1.0059264
127	0x3f7c6f49	0.9860731
128	0x3f7acd52	0.97969544
129	0x3f801bbe	1.0008466
130	0x3f828fea	1.0200169
131	0x3f8113d4	1.0084176
132	0x3f7fd455	0.9993337
133	0x3f84ddd8	1.0380201
134	0x3f828db2	1.0199492
135	0x3f81740d	1.0113541
136	0x3f7959f2	0.9740287
137	0x3f80950b	1.0045484
138	0x3f80c95f	1.0061454
139	0x3f838a74	1.0276628
140	0x3f802395	1.0010859
141	0x3f7e61a1	0.9936772
142	0x3f7c99e9	0.9867235
143	0x3f801338	1.0005865
144	0x3f775e6d	0.9662846
145	0x3f7b1c9d	0.98090535
146	0x3f87bf6c	1.0605292
147	0x3f7d1508	0.98860216
148	0x3f7b987a	0.98279536
149	0x3f847ca7	1.0350541

block3.bnorm_3.bias f4 [150]
0	0xbd075572	-0.03304047
1	0x3b1cda6f	0.0023933908
2	0xbd0fb083	-0.035080444
3	0xbd0d372f	-0.034476455
4	0x3c6b1782	0.014348866
5	0xbd4e66d2	-0.050391026
6	0xbd034e21	-0.03205693
7	0x3c4171ee	0.011806948
8	0xbd57d6d2	-0.052695103
9	0xbca64d19	-0.020300435
10	0xbd9a42f0	-0.075322986
11	0xbd372adc	-0.04471861
12	0xbd9a38fb	-0.075303994
13	0xbd0dab7a	-0.03458736
14	0xbd4ec8d6	-0.0504845
15	0xbcf2c73d	-0.02963602
16	0xbd11c54a	-0.03558854
17	0x3c9234e5	0.017847488
18	0xbd0a2210	-0.03372389
19	0xbcc74698	-0.024325654
20	0x39c15072	0.00036871765
21	0xbd4b9efb	-0.049712162
22	0xbc5745c3	-0.013139191
23	0xbc02a588	-0.007974036
24	0xbcf976b2	-0.030452106
25	0x3c8a9a85	0.016919384
26	0xbc818d81	-0.015814545
27	0xbd048bce	-0.03235989
28	0xbd4798e3	-0.04872979
29	0xbd3aed80	-0.045636654
30	0xbd0debb3	-0.03464861
31	0xbd1c43ab	-0.03815047
32	0xbc97c0f3	-0.018524623
33	0x3cfb9ddb	0.03071492
34	0x3cb84a66	0.022496413
35	0xbd397923	-0.04528154
36	0xbcd2c2e7	-0.025727702
37	0x3ba16325	0.004925149
38	0xbd50c8ab	-0.050972622
39	0xbd099be4	-0.033595935
40	0x3d4f0c35	0.05054875
41	0x3c05c38c	0.008164298
42	0x3d1a0c28	0.03760925
43	0x3c509768	0.012731411
44	0xbd1658d8	-0.03670582
45	0xbcf3093c	-0.02966749
46	0x3c466e65	0.012111281
47	0xbd98ac17	-0.074546985
48	0xbd2fbab6	-0.04290267
49	0x3d85113d	0.064974286
50	0xbd864593	-0.06556239
51	0xbd146137	-0.036225524
52	0xbc1c77f4	-0.009550083
53	0x3c2bb143	0.010479274
54	0xbc93cab2	-0.018040989
55	0xbcf7002e	-0.030151453
56	0xbc18676c	-0.009302001
57	0xbd118e17	-0.035535898
58	0xbca0d830	-0.019634336
59	0x3c987fbc	0.018615596
60	0xbc9d3e4f	-0.01919475
61	0x3c8ee982	0.01744533
62	0x3b92182f	0.0044584493
63	0xbd10ca05	-0.03534891
64	0xbc949082	-0.018135313
65	0x3ce9154d	0.02845254
66	0x3d2f6d50	0.042828858
67	0xbd27ac83	-0.040936004
68	0xbc53afe1	-0.012920351
69	0xbce9e036	-0.028549295
70	0x3c6c8299	0.014435434
71	0x3c52b5a1	0.0128606865
72	0xbcf1ac17	-0.029501004
73	0x3d0f2a2e	0.034952335
74	0x3c8345da	0.016024519
75	0x3cbb27f0	0.022846192
76	0xbc8ca4bb	-0.017168393
77	0x3d235628	0.039877087
78	0xbc3e699a	-0.011621857
79	0xbc5a95d4	-0.013341386
80	0x3d371351	0.044696156
81	0x3d40779d	0.046989072
82	0xbce0376b	-0.027370175
83	0x39523754	0.00020047772
84	0xbc944ab6	-0.018102031
85	0x3a657eac	0.00087545323
86	0x3d05622b	0.032564323
87	0x3d1cdd31	0.038296882
88	0x3cf6fb93	0.030149257
89	0x3cdca555	0.026934305
90	0x3d853c8c	0.06505689
91	0xbd7089a3	-0.05872501
92	0xbbed3883	-0.0072394027
93	0xbc6ba8e6	-0.01438353
94	0x3b40a23d	0.0029393577
95	0xbc71ea6b	-0.014765362
96	0xbc75d91a	-0.015005374
97	0xbca30356	-0.019899052
98	0x3bd47c41	0.006484539
99	0xbcfbf569	-0.03075667
100	0x3c1cc3e3	0.009568187
101	0xbd46a35d	-0.04849564
102	0x3cc855da	0.024455
103	0xba4c179f	-0.0007785502
104	0xbd16d3d6	-0.036823116
105	0xbc2a979a	-0.010412121
106	0x3ca0e820	0.019641936
107	0xbcb7b763	-0.022426313
108	0xbd3aa7fb	-0.045570355
109	0xbd0490f3	-0.032364797
110	0xbcbf4de3	-0.023352569
111	0x3b0a7764	0.0021128291
112	0xbd3a529f	-0.04548895
113	0xbcfc6838	-0.030811414
114	0xbc1a0502	-0.009400608
115	0x3d20cc6b	0.03925745
116	0xbcad3704	-0.021144398
117	0xb99e69fb	-0.0003021507
118	0xbc03aab3	-0.008036303
119	0x3bdfe504	0.0068327207
120	0xbd1ffdaf	-0.03906029
121	0xbc93f74f	-0.018062262
122	0xbd475840	-0.048668146
123	0xbcb643f9	-0.022249209
124	0xbc45eefe	-0.012080906
125	0x3c035e3d	0.008018074
126	0x3b685557	0.0035451257
127	0xbc946014	-0.01811222
128	0xbca084cb	-0.01959457
129	0xbd0a2fe4	-0.03373708
130	0xbb13867a	-0.0022510574
131	0xbbbd6ed2	-0.005781033
132	0xbd11bbe2	-0.03557957
133	0x3d2289ed	0.039682318
134	0x3c08e359	0.008354985
135	0xb9af48b4	-0.0003343277
136	0xbcd1dd4d	-0.02561822
137	0xbaf36604	-0.0018569832
138	0xbce06208	-0.027390495
139	0xbd2e497a	-0.04255054
140	0xbcf96b93	-0.030446803
141	0xbd3c73cb	-0.046008866
142	0xbd3c1a58	-0.04592356
143	0xbc5730f1	-0.013134227
144	0xbcf77bb2	-0.03021035
145	0xbcd5e78d	-0.026111389
146	0xbac8a6c4	-0.0015308489
147	0xbcc9c70c	-0.024631046
148	0xbd4dc629	-0.05023781
149	0x3c108232	0.0088201035

block3.bnorm_3.running_mean f4 [150]
0	0xbe5eedfe	-0.21770474
1	0xbecbdf9f	-0.39819047
2	0xbe0d5a2f	-0.13803934
3	0xbd097ab7	-0.033564296
4	0xbe2c5446	-0.16829023
5	0xbddd939e	-0.10819171
6	0xbdda4bba	-0.10658975
7	0xbe3464be	-0.17616555
8	0x3e68d30c	0.22736758
9	0xbeb50ec7	-0.35362837
10	0xbe32e0f6	-0.17468628
11	0xbe5eae93	-0.21746282
12	0xbd8ff8b2	-0.07029857
13	0xbe434dcb	-0.19072644
14	0xbe753047	-0.23944198
15	0xbe5e2311	-0.21693064
16	0xbe066572	-0.13124636
17	0xbde54e93	-0.111966275
18	0xbdbeb657	-0.09312122
19	0xbe06b7b9	-0.13156022
20	0xbe482b2a	-0.19547716
21	0xbe29bae8	-0.16575205
22	0xbe8bdfe9	-0.27319267
23	0xbdb69533	-0.08915176
24	0xbe9aba88	-0.30220437
25	0xbe85eae4	-0.2615577
26	0xbe64b0fd	-0.2233314
27	0xbe663832	-0.22482374
28	0xbe304c6b	-0.17216651
29	0xbe34fa55	-0.17673619
30	0xbe04bfb6	-0.12963757
31	0xbe7a3795	-0.24435265
32	0xbdbfcb39	-0.093649335
33	0xbe8f7b18	-0.280236
34	0x3eade533	0.33963928
35	0x3e9a94db	0.30191693
36	0xbf180fb4	-0.5939896
37	0xbea100a3	-0.31445798
38	0xbeeda79b	-0.46416935
39	0xbe880525	-0.26566425
40	0xbe4954c7	-0.19661246
41	0xbe915e86	-0.28392428
42	0xbe95970a	-0.29216796
43	0x3e9e5298	0.3092239
44	0xbe18e11b	-0.14929621
45	0xbeecb4ac	-0.46231592
46	0xbe144801	-0.14480592
47	0x3e0c35c7	0.1369239
48	0xbeab7288	-0.33485818
49	0xbe039d83	-0.12853055
50	0xbd95e8ef	-0.07319819
51	0xbef60201	-0.48048404
52	0xbef5c27a	-0.47999936
53	0xbf18d6e4	-0.597029
54	0xbe778db5	-0.2417515
55	0x3e6d135c	0.23151916
56	0xbe3cee6c	-0.18450326
57	0xbe98bb5b	-0.2983044
58	0x3e45ea6e	0.19327709
59	0xbe406b92	-0.18791035
60	0xbe3b9fca	-0.18322673
61	0x3dd6aef0	0.104825854
62	0xbe1b5dca	-0.15172496
63	0x3e38899d	0.18021245
64	0x3d0cbef2	0.034361787
65	0xbe7c8779	-0.24661054
66	0xbe8d9418	-0.2765205
67	0x3e7b4e62	0.2454162
68	0x3ddc29e7	0.1075018
69	0xbd38d40a	-0.04512409
70	0xbd52b882	-0.05144549
71	0x3e0523dc	0.1300196
72	0x3cca277f	0.024677036
73	0xbe81d8e9	-0.25360802
74	0xbca78313	-0.020448243
75	0xbdd9bf1c	-0.10632154
76	0x3d1f71de	0.03892695
77	0xbe0d1dfc	-0.1378097
78	0xbe45693e	-0.19278428
79	0x3dcc892b	0.099871
80	0xbd9630ab	-0.073335014
81	0xbebd039e	-0.36916822
82	0x3e8dbf3e	0.2768497
83	0x3c812ecb	0.015769383
84	0x3e2c8b41	0.16849996
85	0xbe24f625	-0.16109522
86	0xbdc4fff3	-0.09619131
87	0xbd817632	-0.06321372
88	0xbebd4c30	-0.3697219
89	0xbe20e22b	-0.15711276
90	0xbe179175	-0.14801581
91	0xbe1d5e01	-0.15367891
92	0xbe5f81aa	-0.21826807
93	0xbe8052d0	-0.2506318
94	0xbe7dca70	-0.24784255
95	0xbebf01e3	-0.37306127
96	0xbe28eabc	-0.16495794
97	0xbe0824a5	-0.13295229
98	0xbe898281	-0.2685738
99	0x3e6e1b59	0.2325262
100	0xbe82021a	-0.25392228
101	0xbe8c8074	-0.27441752
102	0xbda8dd01	-0.08245278
103	0xbea2fcf1	-0.31833604
104	0xbde1f429	-0.11032898
105	0x3d171f90	0.036895335
106	0xbe4af470	-0.19819808
107	0xbef3106a	-0.4747346
108	0xbdc34ce1	-0.09536148
109	0x3b886362	0.004162238
110	0xbe183717	-0.14864765
111	0x3d877516	0.06614129
112	0x3e21e39b	0.15809481
113	0xbe510f59	-0.20416011
114	0xbdc8103e	-0.09768723
115	0xbcb1b7e8	-0.021694139
116	0x3d46979c	0.04848443
117	0xbdf27ff3	-0.118408106
118	0xbe660550	-0.22462964
119	0xbe5a6d4c	-0.21330756
120	0xbd84db00	-0.064870834
121	0x3e2abc84	0.16673476
122	0xbd573c3f	-0.05254769
123	0xbddeff64	-0.10888556
124	0x3e4e87b7	0.20168959
125	0xbe701963	-0.23447184
126	0xbe3e93a0	-0.18611002
127	0xbe13368d	-0.14376278
128	0xbdc5ed10	-0.09664357
129	0x3cc3d986	0.023907434
130	0xbe913916	-0.28363866
131	0x3dd72fb0	0.105071425
132	0xbe5726d2	-0.21010903
133	0xbd7d1180	-0.061784267
134	0xbe2534d6	-0.16133437
135	0xbe959513	-0.29215297
136	0xbd6641b2	-0.056214996
137	0xbf184401	-0.59478766
138	0xbad9abed	-0.0016607024
139	0xbd50a7c0	-0.05094123
140	0xbe0f413a	-0.13989726
141	0x3ed4874d	0.41509476
142	0x3d501678	0.050802678
143	0xbeb4d516	-0.35318822
144	0xbde6fcbd	-0.11278675
145	0x3d818f83	0.06326201
146	0xbdc0782a	-0.093979195
147	0x3daafc8b	0.0834895
148	0xbc723a2a	-0.014784375
149	0xbe5bc601	-0.21462251
