submit_entry/checkpoints/Combined_edgcn_12s_slice_norm/II/4/best.pth (torch_old, 75847 bytes, 26 tensors)

conv_time.weight f4 [15, 1, 10]
0	0xb97836ff	-0.0002367161
1	0xbe11bf30	-0.14233088
2	0xbcb977f8	-0.022640213
3	0xbc8db175	-0.017296532
4	0xbc72478b	-0.014787565
5	0xbd1d6c7d	-0.03843354
6	0xbe3e3fc5	-0.18579014
7	0x3e304d73	0.17217045
8	0x3b053adb	0.002032927
9	0x3e41ac49	0.18913378
10	0x3e3e935b	0.18610899
11	0x3e04b6aa	0.12960306
12	0x3de7121a	0.112827495
13	0x3deb96d1	0.11503375
14	0xbe3aba33	-0.18235092
15	0xbdede655	-0.11616198
16	0x3e31566d	0.17318125
17	0xbd5c0b8f	-0.05372196
18	0xbe32dab8	-0.17466247
19	0xbe2b35a8	-0.16719687
20	0x3e2d0beb	0.16899078
21	0xbcc3ee21	-0.02391726
22	0x3d5115a6	0.051046036
23	0x3e02f028	0.12786925
24	0xbd90cbb4	-0.07070103
25	0xbe41e89e	-0.18936393
26	0x3d2cf732	0.04222793
27	0xbdfd4c15	-0.12368027
28	0xbd3a6236	-0.045503817
29	0x3dc4cada	0.09609003
30	0x3d921525	0.07132939
31	0x3d7ce6b4	0.061743453
32	0xbde2e65f	-0.11079096
33	0xbd84ae03	-0.064785026
34	0x3df89279	0.121373124
35	0xbd1aec64	-0.037823096
36	0x3d31ffbe	0.043456785
37	0xbc642d4a	-0.013926813
38	0xbccad9eb	-0.024762115
39	0xbd860c7c	-0.0654535
40	0x3e1cbfca	0.15307537
41	0xbd84c773	-0.064833544
42	0xbd27954a	-0.040913858
43	0xbd708b7d	-0.058726776
44	0xbddb1035	-0.106964506
45	0x3e32e373	0.17469577
46	0xbe3d85c8	-0.18508065
47	0xbe23cbf5	-0.15995772
48	0x3dce97a3	0.10087516
49	0x3e10d178	0.14142406
50	0x3e23a0bd	0.15979286
51	0xbdc2e9d7	-0.09517258
52	0x3cc12025	0.023574898
53	0x3e40bc66	0.18821868
54	0x3df033da	0.1172864
55	0xbe13a65e	-0.14418933
56	0xbe119cf0	-0.14220023
57	0x3e203e54	0.15648776
58	0x3cbfb032	0.023399446
59	0x3e1a568c	0.15072078
60	0xbe38fbc3	-0.1806479
61	0x3bd19489	0.0063958806
62	0x3df7afd0	0.120940804
63	0xbe31984f	-0.17343257
64	0x3bc6a0e5	0.0060616606
65	0xbe2cb73e	-0.16866776
66	0x3d5fae96	0.054609857
67	0xbd21ae71	-0.039473
68	0xbe0a4321	-0.1350217
69	0x3cd8b6cc	0.026454352
70	0x3d72b9db	0.059259277
71	0xbdd2d66b	-0.10294803
72	0xbb6bd022	-0.003598221
73	0x3e19ace2	0.15007356
74	0xbd3077d6	-0.043083034
75	0xbcb624d4	-0.022234358
76	0xbe4dc9b1	-0.2009647
77	0xbdfe0c98	-0.12404746
78	0xbdb30f17	-0.087431125
79	0xbe323173	-0.17401676
80	0x3e15fc59	0.14647044
81	0x3cacac6a	0.021078307
82	0x3d5712e2	0.052508242
83	0x3e10a384	0.14124876
84	0x3e2997cb	0.1656181
85	0x3d509896	0.050926767
86	0x3e0af0bf	0.135684
87	0x3d745663	0.059652697
88	0x3d1c2bf8	0.03812787
89	0x3dab418e	0.08362113
90	0x3debe1ef	0.11517703
91	0xbdb9fd30	-0.09081495
92	0x3e27ffff	0.16406249
93	0xbdaf1392	-0.085486546
94	0x3e2c3270	0.16816115
95	0xbc851994	-0.016247548
96	0x3e082dbd	0.13298698
97	0xbe1d66fd	-0.15371318
98	0xbd265cb5	-0.040615756
99	0xbe18909e	-0.14898917
100	0x3e0096e1	0.12557556
101	0x3ced533b	0.028970351
102	0x3e473d79	0.19457044
103	0x3d33afef	0.043868955
104	0xbe008b19	-0.12553062
105	0x3d84326c	0.0645493
106	0x3dbaf95a	0.09129591
107	0xbe0e8365	-0.1391731
108	0x3d898036	0.067139074
109	0x3d8c734f	0.06857931
110	0xbe350b96	-0.17680201
111	0x3e0e0de8	0.13872492
112	0xbc91f87a	-0.017818678
113	0xbde4ec30	-0.11177862
114	0x3c8f66d6	0.01750509
115	0x3dd769dc	0.10518238
116	0x3d3c283b	0.045936804
117	0xbdfb6d6b	-0.12276729
118	0xbd14cf3c	-0.036330447
119	0xbb56395a	-0.0032687993
120	0x3e067883	0.13131909
121	0xbdb64fa2	-0.089019075
122	0x3e433166	0.19061813
123	0x3a912678	0.0011074087
124	0x3df2d000	0.11856079
125	0xb97f57ef	-0.00024351453
126	0xbdd3ba3e	-0.10338257
127	0xbd04e4ba	-0.032444693
128	0x3db324d4	0.08747259
129	0x3ddebc04	0.10875705
130	0xbd78170a	-0.060568847
131	0x3aec68fd	0.001803666
132	0xbd83b9e8	-0.06431943
133	0xbd61ceb0	-0.055128753
134	0x3c23d6cc	0.009999942
135	0xbd461aa9	-0.04836527
136	0x3df3d8c7	0.11906581
137	0xbd351078	-0.04420516
138	0x3e37c606	0.17946634
139	0x3c8f8f2b	0.017524322
140	0xbe3ba431	-0.18324353
141	0x3d0cfbf9	0.034419987
142	0xbd5cc5e1	-0.05389965
143	0x3dffbf16	0.124876186
144	0xbd6a5948	-0.05721405
145	0xbe220ce0	-0.15825224
146	0x3e02d108	0.12775052
147	0x3c745ea2	0.01491514
148	0xbd9a6e49	-0.075405665
149	0x3dace33e	0.084417805

conv_time.bias f4 [15]
0	0x3b82cb78	0.0039915405
1	0xba96f8ad	-0.0011518203
2	0xba9a4617	-0.0011770156
3	0x3b1f4de0	0.0024307892
4	0xbba4226e	-0.005008987
5	0x3aef4a09	0.0018256317
6	0xbaf4f2f6	-0.0018688131
7	0xbb521a7e	-0.0032059248
8	0x3b0eaa09	0.002176883
9	0x3bd616cb	0.006533479
10	0x3b3a3295	0.0028411497
11	0xbaca0a47	-0.001541444
12	0xbb7d7a34	-0.0038677575
13	0xbc4a19d4	-0.0123352595
14	0xbb8a0fc2	-0.0042133043

bnorm.weight f4 [15]
0	0x3f7e22c4	0.992718
1	0x3f7ddfcd	0.9916962
2	0x3f7eedbd	0.9958151
3	0x3f805fa8	1.0029192
4	0x3f829e15	1.0204493
5	0x3f7ffeb5	0.9999803
6	0x3f7b9a40	0.9828224
7	0x3f808de9	1.0043308
8	0x3f812e23	1.0092205
9	0x3f812f3e	1.0092542
10	0x3f7ee2c1	0.9956475
11	0x3f7e02e1	0.9922314
12	0x3f7d70af	0.99000067
13	0x3f7e06eb	0.99229306
14	0x3f813398	1.009387

bnorm.bias f4 [15]
0	0x3c555e48	0.013022967
1	0xbc7400f4	-0.014892805
2	0xbac29bfd	-0.0014847514
3	0xbc039a97	-0.008032463
4	0x3b3334bb	0.0027344662
5	0xbc7049e6	-0.014666056
6	0xbbde6aa1	-0.0067876135
7	0xbbcb614f	-0.0062066684
8	0xbaabd9fc	-0.0013111229
9	0x3abf71f5	0.0014606105
10	0xbbc14000	-0.005897522
11	0x3baafe16	0.0052182777
12	0xbb400596	-0.0029300204
13	0xbc82bbcb	-0.015958687
14	0x3c913ee1	0.017730178

bnorm.running_mean f4 [15]
0	0xbc934028	-0.017974928
1	0x3c125084	0.008930329
2	0x3c464d0f	0.012103333
3	0xbbfe7e38	-0.0077665113
4	0xbccabefa	-0.024749268
5	0x3e33e67e	0.17568395
6	0xbe4599a5	-0.19296892
7	0xbe62f411	-0.22163416
8	0x3eb6eaca	0.35726005
9	0x3cc438e0	0.023952901
10	0x3e2dd38b	0.16975228
11	0xbd87e131	-0.06634749
12	0x3e22ce57	0.15899025
13	0x3c0ada49	0.008474895
14	0xbd6ee3fa	-0.058322884

bnorm.running_var f4 [15]
0	0x3a899e45	0.0010499439
1	0x3b2b4a1e	0.0026136707
2	0x3a29163e	0.0006450153
3	0x390eabed	0.00013606223
4	0x39f830db	0.00047338646
5	0x3bf1678b	0.0073670796
6	0x3c1575fb	0.009122367
7	0x3c531086	0.012882357
8	0x3d01a85a	0.031654693
9	0x3aa57f53	0.0012626447
10	0x3be7cec5	0.0070742094
11	0x3a89fda2	0.0010527859
12	0x3bd80c23	0.0065932437
13	0x3a3257b6	0.0006803231
14	0x3a819d00	0.0009888709

block2.conv_2.weight f4 [15, 15, 10]
0	0xbe047524	-0.1293531
1	0xbbb40837	-0.0054941433
2	0xbd18397c	-0.037164196
3	0x3dbeacc5	0.09310297
4	0x3df0462e	0.11732136
5	0xbd8d9749	-0.06913621
6	0xbc7e17e7	-0.015508628
7	0xbd6f425f	-0.058412906
8	0xbdae7676	-0.085186884
9	0x3db56beb	0.08858474
10	0x3d8f0b64	0.069845945
11	0xbc006d28	-0.007838525
12	0xbd786254	-0.060640648
13	0x3de4530f	0.11148655
14	0x3c2649f7	0.0101494705
15	0x3dcf91e3	0.101352476
16	0xbde57fef	-0.11206042
17	0x3b944efb	0.004526017
18	0x3df636a6	0.12022142
19	0xbdc3bf5f	-0.095579855
20	0x3dca9465	0.09891585
21	0x39b3ee4d	0.00034319088
22	0x3d208fdd	0.0391997
23	0xbde4a5ef	-0.11164462
24	0xbda116bc	-0.07865664
25	0xbdc5306c	-0.09628376
26	0xbdd4cfc9	-0.103911944
27	0x3dce9c1e	0.10088371
28	0xbcfb0883	-0.030643707
29	0x3d00d0be	0.031449072
30	0xbdd23e8b	-0.102658354
31	0x3dd8c485	0.10584358
32	0x3dc7cf72	0.09756364
33	0xbdeb56cb	-0.11491164
34	0xbdcf55f6	-0.101238176
35	0xbda837ac	-0.082137436
36	0xbe0e25df	-0.13881634
37	0x3caf405e	0.021392997
38	0x3d97b4e6	0.074075505
39	0x3d3175b0	0.043325126
40	0x3bcebbbd	0.0063090012
41	0xbd0a8f6d	-0.033828188
42	0xbcc476cc	-0.023982428
43	0x3c025453	0.007954675
44	0x3d0055a6	0.03133168
45	0x3c35cc03	0.011096003
46	0x3e155f2c	0.14587086
47	0x3d800988	0.06251818
48	0xbdfa8c3b	-0.12233778
49	0xbe2660c4	-0.1624785
50	0xbdd61885	-0.104538955
51	0x3dd399f2	0.10332097
52	0x3d64b1ad	0.055833507
53	0xbd942b2c	-0.07234797
54	0xbda15796	-0.07878034
55	0x3dbbb806	0.09165959
56	0x3cca879f	0.024722872
57	0xbdd5e496	-0.1044399
58	0xb98e66c6	-0.00027160923
59	0xbdac8c20	-0.08425164
60	0xbbe16227	-0.0068781557
61	0xbd5f5b60	-0.0545305
62	0xbdd9b959	-0.106310554
63	0xbd5b8639	-0.0535948
64	0xbce78831	-0.028263183
65	0x3cd882b0	0.026429504
66	0xbb3f50fd	-0.002919256
67	0x3d179e0e	0.037015967
68	0x3be4fecc	0.006988382
69	0xbc8c4fa3	-0.017127817
70	0x3d969573	0.07352724
71	0xbd357f96	-0.04431113
72	0x3e0ea646	0.13930616
73	0x3b81f624	0.00396611
74	0x3cbca69f	0.02302867
75	0x3c574da0	0.013141066
76	0xba84189b	-0.0010078134
77	0xbd771d44	-0.060330644
78	0xbda6cd1a	-0.08144589
79	0xbe1029a0	-0.14078379
80	0x3c255382	0.010090711
81	0xbd48e3ce	-0.049045376
82	0xbde698d2	-0.11259617
83	0xbe01b890	-0.12668061
84	0xbd9ef5eb	-0.07761749
85	0x3c050d30	0.00812082
86	0x3e0ef7e1	0.13961746
87	0xbce69128	-0.028145388
88	0x3e12f8e3	0.14352755
89	0xbcbb9ae4	-0.022901006
90	0x3e09182d	0.13388129
91	0x3dbee624	0.093212396
92	0xbdb67afe	-0.08910178
93	0xbbc134f6	-0.005896206
94	0xbd8b90f4	-0.06814757
95	0xbd93c70a	-0.07215698
96	0x3dcedc88	0.10100657
97	0x3ce8397a	0.02834772
98	0x3d5264c6	0.051365636
99	0xbd99d389	-0.0751105
100	0xbd77fa4d	-0.06054144
101	0x3c81f834	0.015865423
102	0xbde56a25	-0.11201886
103	0x3baf1a42	0.0053437063
104	0x3da3b7f2	0.07994069
105	0x3d26c2aa	0.04071299
106	0x3d82dbb9	0.06389565
107	0xbdd809ad	-0.105487205
108	0x3dd73389	0.105078764
109	0x3ca52df4	0.020163514
110	0x3d34805d	0.04406773
111	0xbe05b197	-0.13056026
112	0xbbe4f000	-0.006986618
113	0x3a519d72	0.00079961785
114	0xbc933ba4	-0.017972775
115	0x3e122a02	0.14273837
116	0x3dd3561e	0.1031916
117	0xbc8d909c	-0.01728087
118	0x3e08816d	0.13330622
119	0xbd51053c	-0.051030383
120	0xbd3cedbe	-0.046125166
121	0x3d202eeb	0.039107244
122	0x3d5d7fae	0.054076843
123	0xbc81fadc	-0.01586669
124	0x3e0059f3	0.12534313
125	0x3d925dbf	0.07146787
126	0xbca6d92e	-0.020367231
127	0xbc381d30	-0.011237428
128	0x3de4b8e4	0.111680776
129	0xbdab26b8	-0.083569944
130	0x3dfe41fd	0.1241493
131	0x3de1257f	0.1099348
132	0xbde4fbbc	-0.11180827
133	0xbdbef5d4	-0.09324232
134	0x399f5f0f	0.00030397667
135	0x3e0c8357	0.13721977
136	0xbd4349ba	-0.047677733
137	0xbdee17e8	-0.116256535
138	0x3e1097fc	0.14120477
139	0xbdebf30a	-0.115209654
140	0xbd70816b	-0.058717173
141	0xbc26b66e	-0.010175331
142	0xbda77aac	-0.08177695
143	0x3ddda06a	0.10821612
144	0x3ddef739	0.10886998
145	0x3cd960d8	0.026535437
146	0x3d74c544	0.05975844
147	0xbc546914	-0.012964506
148	0x39b4dc2c	0.00034496316
149	0x3d4dea8a	0.050272502
150	0xbc66c86a	-0.014085868
151	0xbd9305df	-0.07178854
152	0x3de22a9c	0.11043283
153	0x3d478a10	0.04871565
154	0xbdc9888d	-0.09840498
155	0xbd1b9170	-0.037980497
156	0x3dcb96c2	0.09940864
157	0xbda35098	-0.079743564
158	0xbe190659	-0.14943828
159	0x3d03c5b0	0.03217095
160	0x3d77da20	0.060510755
161	0x3d304ff0	0.043044984
162	0xbdeb70ed	-0.11496148
163	0x3dc35a78	0.0953874
164	0xbd202227	-0.03909507
165	0x3c0c7219	0.008572125
166	0xbdeb36c8	-0.11485058
167	0xbdff785f	-0.12474131
168	0xbe14c20f	-0.14527152
169	0x3de1ecc2	0.11031486
170	0x3e16cfff	0.14727782
171	0xbdf26a89	-0.11836726
172	0xb9466ee0	-0.00018924056
173	0xbdff13c3	-0.12454941
174	0xbc88d5a5	-0.016703436
175	0xbbfd3e31	-0.007728361
176	0xbde03cf3	-0.10949125
177	0x3d2f7bf0	0.042842805
178	0xbdb0cd74	-0.08632937
179	0xbda69837	-0.081345014
180	0x3de3bcd0	0.111199975
181	0x3dc42879	0.09578032
182	0x3d85ecb9	0.06539292
183	0xbda6a5a5	-0.08137063
184	0x3e06168a	0.13094535
185	0xbdc202dc	-0.09473202
186	0xbde59a68	-0.11211091
187	0x3c37bffd	0.011215207
188	0xbd90cab6	-0.07069914
189	0x3d2d223e	0.042268984
190	0x3bc25fb2	0.005931818
191	0x3c8bbd2d	0.01705798
192	0xbc38bf35	-0.011276056
193	0x3e02a7b4	0.12759286
194	0xbe0236e1	-0.12716247
195	0xbe025170	-0.12726378
196	0xbceb9fc4	-0.028762706
197	0x3df4279a	0.11921616
198	0xbe0900f3	-0.13379268
199	0xbc7e733f	-0.0155304065
200	0x3d89b14d	0.067232706
201	0x3d3030c3	0.043015253
202	0xbdd3ffec	-0.103515476
203	0x3e0ad6ab	0.13558452
204	0xbd9d8b2b	-0.0769256
205	0x3de228b7	0.11042922
206	0x3d02ca55	0.03193124
207	0x3c8d8ef4	0.01728008
208	0x3da4b79c	0.08042833
209	0x3a8823a6	0.0010386601
210	0xbc9de5ff	-0.01927471
211	0x3dd20f96	0.10256879
212	0xbd95448a	-0.072884634
213	0xbe02658d	-0.12734051
214	0x3dc33fbe	0.09533642
215	0xbdf8613b	-0.1212792
216	0x3d310b0b	0.043223422
217	0x3e0178d7	0.12643753
218	0xbb1d5d09	-0.0024011752
219	0xbd06f4a4	-0.03294815
220	0x3e1061fe	0.14099881
221	0x3cbc173c	0.022960298
222	0x3deb5949	0.11491639
223	0x3e08ae6d	0.13347788
224	0x3d0ef9b3	0.0349061
225	0xbdc457cc	-0.095870584
226	0x3d683e37	0.056699958
227	0x3e08c92c	0.13357991
228	0xbdd6e377	-0.10492604
229	0xbd6ca66c	-0.0577759
230	0x3c83be4a	0.016081948
231	0x3dc9a585	0.098460235
232	0xbda64858	-0.08119267
233	0x3db8e501	0.09028054
234	0x3dcf0052	0.10107483
235	0xbe11eefa	-0.14251319
236	0xbdaf98ee	-0.08574091
237	0x3df2cfdf	0.118560545
238	0xbd4dd71d	-0.050253976
239	0xbc4f4140	-0.012649834
240	0x3d87bdb3	0.06627979
241	0x3d9e1223	0.07718303
242	0x3dd716c9	0.10502393
243	0xbdebe50c	-0.115182966
244	0x3b3a7c54	0.0028455453
245	0xbddcf6fa	-0.107892945
246	0x3d581c55	0.052761395
247	0xbc2edb05	-0.0106723355
248	0xbd9db67b	-0.07700821
249	0xbdbd61b8	-0.09247154
250	0x3cfd41fe	0.030915257
251	0xbdac87e7	-0.08424359
252	0xbdf5da56	-0.12004535
253	0xbcc31b16	-0.023816627
254	0x3d1ccfcb	0.038284104
255	0xbdf5ea99	-0.120076366

block2.bnorm_2.weight f4 [15]
0	0x3f8170e6	1.0112579
1	0x3f81421d	1.0098301
2	0x3f7b96c5	0.9827693
3	0x3f805de6	1.0028656
4	0x3f7d490d	0.9893959
5	0x3f7f5ff3	0.9975578
6	0x3f7f48bd	0.99720365
7	0x3f817494	1.0113702
8	0x3f7aa6b6	0.9791063
9	0x3f81717a	1.0112755
10	0x3f80a32e	1.0049798
11	0x3f804d18	1.0023527
12	0x3f8072c3	1.0035022
13	0x3f7de8c9	0.99183327
14	0x3f8071d4	1.0034738

block2.bnorm_2.bias f4 [15]
0	0xbc223994	-0.009901423
1	0xbc33f8ea	-0.010984639
2	0xbc649496	-0.013951441
3	0x3ca59e8a	0.020217199
4	0xba9b6f66	-0.0011858761
5	0x3b9aed20	0.0047279745
6	0x3afcc915	0.0019286001
7	0xbb95cb70	-0.004571371
8	0x3b751f38	0.003740264
9	0xbcc4f9e3	-0.024044937
10	0x3bb02a95	0.00537617
11	0xbc1b0808	-0.009462364
12	0x3c934c62	0.017980758
13	0xbc6d8183	-0.01449621
14	0xbcbd9858	-0.023143932

block2.bnorm_2.running_mean f4 [15]
0	0xbd414190	-0.047181666
1	0x3d9eaa20	0.077472925
2	0xbf1ee440	-0.6206703
3	0xbd221212	-0.039568014
4	0x3c5393a2	0.012913616
5	0xbe56e88f	-0.20987152
6	0xbe7ffd5a	-0.2499899
7	0xbeb63168	-0.3558457
8	0x3f1a590f	0.6029214
9	0x3d93eaf2	0.07222547
10	0x3e96ad85	0.2942926
11	0x3e6aed47	0.22942077
12	0xbf1cb6a0	-0.61216164
13	0x3d4a8a38	0.049448222
14	0xbe902824	-0.28155625

block2.bnorm_2.running_var f4 [15]
0	0x3ecf1151	0.404429
1	0x3f122657	0.5708975
2	0x3f84ac9d	1.0365177
3	0x3e26a57e	0.16274068
4	0x3f219889	0.63123375
5	0x3ec7ed07	0.39048025
6	0x3f80d0b5	1.0063692
7	0x3f16a97a	0.5885235
8	0x3eff70aa	0.49890643
9	0x3f262560	0.6490078
10	0x3f2d6dff	0.67745966
11	0x3ebed398	0.37270808
12	0x3f0024fe	0.50056446
13	0x3f593ded	0.84860116
14	0x3ef9bd11	0.4877706

block3.conv_3.weight f4 [30, 15, 10]
0	0x3d985b62	0.07439305
1	0x3caa163d	0.020762557
2	0xbdaee42a	-0.085396126
3	0x3c9a4ba9	0.018834906
4	0xbdc5f341	-0.096655376
5	0xbc48b13d	-0.012249288
6	0x3c92504d	0.017860556
7	0xbda232fa	-0.07919879
8	0x3d8bdd97	0.06829374
9	0x3ce361dd	0.027756626
10	0x3d7b431e	0.061343305
11	0xbdaf276b	-0.0855244
12	0xbd47ecf6	-0.048809968
13	0x3d99928f	0.07498657
14	0xbcb4d31f	-0.022073327
15	0x3da92135	0.08258287
16	0x3c09e9c2	0.008417549
17	0xbd869fda	-0.06573458
18	0x3ccddab3	0.025128698
19	0xbd34297b	-0.04398487
20	0x3da4648b	0.080269895
21	0x3c6a5011	0.014301316
22	0x3dd19745	0.102339305
23	0xbcb441fc	-0.02200412
24	0x3d736eca	0.05943183
25	0x3d497b7a	0.049190022
26	0x3c839810	0.01606372
27	0xbdb7ddfc	-0.08977887
28	0xbcbea412	-0.023271594
29	0xbd8f1a5f	-0.06987452
30	0x3b5a17fe	0.003327846
31	0xbd9610c4	-0.073274165
32	0xbde2f045	-0.11080984
33	0x3c28912e	0.01028852
34	0xbcbf23a7	-0.02333243
35	0xbde2b6ed	-0.110700466
36	0x3d28872c	0.041144535
37	0x3d947ca0	0.07250333
38	0x3dd61bde	0.10454534
39	0x3d3b34d1	0.045704667
40	0xbd9abbd4	-0.075553566
41	0xbd469bff	-0.048488613
42	0xbde7b601	-0.11314011
43	0xbdbe0d00	-0.09279823
44	0xbd4b4f6b	-0.049636286
45	0x3d81e622	0.063427225
46	0x3d82be62	0.06383969
47	0x3d8aeece	0.0678383
48	0x3d8e0d4a	0.069361284
49	0x3d1a80be	0.037720434
50	0xbda777cc	-0.08177146
51	0x3daded51	0.0849253
52	0xbd822996	-0.06355588
53	0x3cc383bb	0.023866525
54	0x3bb2717e	0.005445658
55	0x3c621e77	0.013801209
56	0xbc02e3a6	-0.007988846
57	0xbd989d00	-0.074518204
58	0x3d1e0211	0.03857619
59	0xbd8ecfbf	-0.06973218
60	0xbdc45f56	-0.095884964
61	0x3d804951	0.06263984
62	0x3d67b658	0.05657038
63	0x3d1304d8	0.03589329
64	0xbd9d7210	-0.07687771
65	0x3d9a8814	0.07545486
66	0x3defcaf6	0.117086336
67	0x3c04d580	0.008107543
68	0xbd5a7a87	-0.053339507
69	0xbdb2a8d4	-0.08723608
70	0x3dc37579	0.095438905
71	0xbda1c337	-0.078985624
72	0xbd9f603d	-0.07782028
73	0x3ce6829a	0.028138448
74	0x3d9cc55f	0.07654833
75	0x3d8e0678	0.069348276
76	0x3cf6e498	0.030138299
77	0x3d6a1d9d	0.057157148
78	0xbcad35f7	-0.021143897
79	0xbd28af57	-0.041182842
80	0x3d8d4ae3	0.06899049
81	0xbb5df854	-0.003386994
82	0x3d14ccdb	0.036328178
83	0xbde68927	-0.112566285
84	0x3d8231b8	0.06357139
85	0x3d674fde	0.05647265
86	0x3d2cf130	0.0422222
87	0xbcfb404c	-0.030670308
88	0x3daa8a46	0.08327155
89	0x3d9ad0b5	0.07559339
90	0xbdea4481	-0.11438847
91	0xbda89b00	-0.08232689
92	0xbdd5f112	-0.10446371
93	0x3d88717a	0.06662269
94	0xbd86d92b	-0.0658439
95	0x3d2b7f5b	0.041869503
96	0xbddb5574	-0.10709658
97	0xbd684305	-0.05670454
98	0xbd9768bb	-0.073930226
99	0x3d27d75b	0.040976863
100	0xbdad672f	-0.08466946
101	0xbdc53465	-0.09629134
102	0xbd0a2011	-0.033721987
103	0x3bd4998d	0.0064880312
104	0xbdabf9f1	-0.08397282
105	0xbd195a54	-0.03743966
106	0x3acd1d09	0.0015648912
107	0xbd92c8cd	-0.07167206
108	0x3d91992f	0.071092956
109	0xbdb1fc34	-0.08690682
110	0xbdaa3cd1	-0.08312381
111	0xbaef717e	-0.0018268076
112	0x3dae3b61	0.085074194
113	0x3d94c2ed	0.07263742
114	0xbc26701f	-0.010158568
115	0xbba37a5c	-0.0049889516
116	0x3cb228fc	0.021748058
117	0xbd74e707	-0.059790637
118	0xbc0c8b0d	-0.008578074
119	0x3cdec5a0	0.027193844
120	0xbde4e4a4	-0.11176422
121	0x3dbe7395	0.09299389
122	0x3d69bd7f	0.057065483
123	0x3d0eb091	0.034836356
124	0xbe017142	-0.1264086
125	0xbdecbb21	-0.115591295
126	0xbd194424	-0.0374185
127	0xbd4be909	-0.049782787
128	0xbd604594	-0.054753855
129	0x3de8419e	0.113406405
130	0x3d8a037b	0.06738945
131	0x3db99e8d	0.09063444
132	0xbd883afb	-0.06651875
133	0x3db7daec	0.08977303
134	0x3db7cbc4	0.08974412
135	0x3db367f0	0.08760059
136	0xbcbfde9e	-0.023421582
137	0xbc8d4c6a	-0.017248351
138	0x3cfe794a	0.031063695
139	0x3dca2749	0.09870774
140	0xbc271314	-0.01019742
141	0x3dab745f	0.083718054
142	0xbd8bbbab	-0.06822904
143	0xbd9bd4ae	-0.07608925
144	0x3d35cb6f	0.044383463
145	0xbd5c5dcb	-0.053800385
146	0xbdbf09f8	-0.09328073
147	0x3df0ee6a	0.11764224
148	0xbd01967b	-0.03163765
149	0xbbf1b574	-0.007376367
150	0x3d477add	0.048701156
151	0x3b8ab0f5	0.0042325207
152	0xbcecdb6d	-0.028913224
153	0x3d5bd669	0.053671274
154	0xbd68500a	-0.056716956
155	0x3d878691	0.066174634
156	0x3ce0fd0a	0.027464408
157	0xbd81a5f0	-0.06330478
158	0xbde05dbd	-0.10955379
159	0xbd5961e4	-0.05307187
160	0x3dbbb4f0	0.091653705
161	0xbdace9fb	-0.08443066
162	0xbdd19930	-0.10234296
163	0xbdac719c	-0.08420107
164	0xbdad7a67	-0.08470612
165	0x3c1c6f6b	0.0095480485
166	0x3d560551	0.052251164
167	0xbd92cab6	-0.0716757
168	0xbd92baea	-0.07164557
169	0xbd0c5102	-0.034256943
170	0xbb481452	-0.003052969
171	0x3dc1ed37	0.09469073
172	0xbcddc2f6	-0.027070504
173	0x3db49589	0.08817584
174	0x3d91a32e	0.07111202
175	0xbd89f30d	-0.067358114
176	0xbd6f6812	-0.05844886
177	0x3ccb34dc	0.024805479
178	0xbd8c23f7	-0.06842797
179	0x3d30cb78	0.043162793
180	0xbdff3ec6	-0.12463145
181	0x3d9b12aa	0.07571919
182	0xbd8ed857	-0.06974857
183	0x3dc21278	0.09476179
184	0x3d309612	0.04311187
185	0x3d97db46	0.0741487
186	0xbdbe4c49	-0.09291894
187	0xbcd3a6b3	-0.025836324
188	0xbd8829c3	-0.066485904
189	0xbc9e467e	-0.019320723
190	0xbddebb66	-0.10875587
191	0xbcdb77f8	-0.026790604
192	0xbd3eb359	-0.046557758
193	0x3d645e04	0.055753723
194	0x3c99aebc	0.018760078
195	0xbd11bb2d	-0.035578895
196	0xbdad05d2	-0.08448376
197	0x3d9e5371	0.07730759
198	0xbdec820a	-0.115482405
199	0xbc135673	-0.008992779
200	0x3d855fa0	0.0651238
201	0x3c2e4266	0.010635948
202	0x3d9aa3ed	0.075507976
203	0x3c97e54c	0.018541954
204	0xbda1c139	-0.078981824
205	0x3d912f12	0.07089056
206	0xbd8be4a3	-0.06830718
207	0x3d9a4b24	0.07533863
208	0xbdb839ad	-0.08995376
209	0x3d2728a6	0.04081025
210	0xbc9bccb7	-0.019018514
211	0x3d2756b8	0.040854186
212	0x3db643d7	0.08899658
213	0xbd5e48b1	-0.054268543
214	0x3d27abf4	0.04093547
215	0xbc347846	-0.011015004
216	0xbd83ce8f	-0.06435882
217	0xbd0ae63b	-0.03391097
218	0xbded9f27	-0.116026215
219	0x3dbfbbe4	0.09362009
220	0xbe0961e6	-0.13416252
221	0x3d038238	0.03210661
222	0xbbfa4e59	-0.0076387343
223	0x3e05fea5	0.1308542
224	0xbd84188a	-0.06449993
225	0xbd29640e	-0.041355185
226	0x3cb7eb8e	0.022451188
227	0xbdd7fc00	-0.10546112
228	0x3dab2e71	0.08358467
229	0x3dd9fcec	0.10643944
230	0xbda8bc84	-0.082390815
231	0x3da4da39	0.08049435
232	0x3d8a35bf	0.067485325
233	0xbdb0d4ad	-0.08634315
234	0x3dac2825	0.084060945
235	0xbc9062af	-0.017625181
236	0x3db9ca50	0.09071791
237	0x3db0df14	0.08636299
238	0xbdd1fdc4	-0.1025348
239	0x3da40911	0.08009542
240	0x3d970b50	0.073752046
241	0xbb848f87	-0.00404543
242	0x3be7618c	0.007061189
243	0x3d16cdb7	0.03681728
244	0xbda382ec	-0.07983956
245	0xbb89dd93	-0.004207322
246	0x3de44af7	0.11147111
247	0xbbc1dba3	-0.0059160753
248	0xbdcdf3d3	-0.100562714
249	0xbe009afd	-0.12559123
250	0xbdf945b4	-0.12171498
251	0xbdd319d7	-0.10307663
252	0x3d3b9632	0.045797534
253	0x3cfec75d	0.031100923
254	0xbda9db25	-0.082937516
255	0xbd9501a4	-0.072757035

block3.bnorm_3.weight f4 [30]
0	0x3f7ffa89	0.9999166
1	0x3f7a94d1	0.97883326
2	0x3f8015ba	1.000663
3	0x3f820e10	1.0160542
4	0x3f815528	1.0104113
5	0x3f80f610	1.0075092
6	0x3f7e2904	0.99281335
7	0x3f8079ad	1.0037133
8	0x3f839e58	1.0282698
9	0x3f8116c2	1.008507
10	0x3f7dce32	0.99142754
11	0x3f7cf5d9	0.98812634
12	0x3f821d0f	1.0165118
13	0x3f8086f6	1.0041187
14	0x3f7b69fd	0.982086
15	0x3f7effbc	0.9960897
16	0x3f7eef8a	0.9958426
17	0x3f806cb6	1.0033176
18	0x3f80d708	1.0065622
19	0x3f7ab594	0.97933316
20	0x3f7b5863	0.9818174
21	0x3f7e49bc	0.9933126
22	0x3f7d7f33	0.99022216
23	0x3f7f7186	0.997826
24	0x3f802f5d	1.0014454
25	0x3f81760a	1.0114148
26	0x3f7b25d3	0.9810459
27	0x3f7d765c	0.9900873
28	0x3f8083f4	1.0040269
29	0x3f80048a	1.0001385

block3.bnorm_3.bias f4 [30]
0	0xb9fa5d4f	-0.00047753236
1	0xbc11ed80	-0.008906722
2	0xbc09a531	-0.008401201
3	0x3bca70a0	0.0061779767
4	0xbbd305de	-0.0064399084
5	0x3ccb8523	0.024843758
6	0x3c8cf93f	0.017208694
7	0xbcb86886	-0.022510778
8	0x3ca02232	0.019547556
9	0x3c74377a	0.014905805
10	0xbc7a675f	-0.015283435
11	0xbc8062ad	-0.015672052
12	0xbc1e35d5	-0.009656389
13	0xbc5e4e94	-0.013568539
14	0xbcd74ce0	-0.026281774
15	0xbc6f4848	-0.014604636
16	0xbc2077d6	-0.009794196
17	0xba9857a6	-0.0011622801
18	0xbc9924c8	-0.018694296
19	0xbc9e4eda	-0.019324709
20	0xbbef39f8	-0.0073006116
21	0xbcb1ef57	-0.021720571
22	0xbc0e7a54	-0.0086961575
23	0xbbb0ecc4	-0.0053993184
24	0xbc8e392a	-0.017361242
25	0x3d054fe9	0.03254691
26	0xbb8412f7	-0.004030581
27	0xbc7d9fb5	-0.015479972
28	0x3c36ad10	0.01114966
29	0x3c9d0ad8	0.01917021

block3.bnorm_3.running_mean f4 [30]
0	0xbe500927	-0.20315991
1	0xbe375f8f	-0.17907546
2	0x3d8a1b18	0.06743449
3	0xbd32d727	-0.043662217
4	0x3e8eff44	0.27929127
5	0x3e6f3bdf	0.23362683
6	0x3ca798a4	0.020458527
7	0x3f2198ee	0.6312398
8	0xbeae8f9a	-0.34093934
9	0xbf31a836	-0.69397295
10	0x3ea83ecd	0.32860413
11	0x3e8448d2	0.25836807
12	0x3e048131	0.12939908
13	0xbed00c76	-0.40634507
14	0xbf2108f8	-0.6290431
15	0x3dbb892d	0.091570236
16	0xbe2b372b	-0.16720264
17	0xbf24cb78	-0.6437297
18	0x3d3eeeb7	0.046614375
19	0xbe5d8ae6	-0.21635017
20	0x3ecb4aaa	0.39705402
21	0x3cafcf76	0.02146123
22	0x3ef0f70f	0.4706349
23	0xbec0a49a	-0.3762558
24	0x3f12e5a0	0.5738163
25	0xbebe0872	-0.37115818
26	0x3de1845c	0.11011574
27	0x3e404709	0.18777098
28	0xbeaa0d52	-0.33213288
29	0x3ea4cc0a	0.3218692

block3.bnorm_3.running_var f4 [30]
0	0x3f018115	0.5058759
1	0x3ee0b64b	0.43889078
2	0x3edd03f1	0.4316707
3	0x3f03543b	0.513004
4	0x3e83335d	0.25625125
5	0x3e8d58fb	0.2760695
6	0x3ee21cb4	0.44162524
7	0x3f122739	0.570911
8	0x3e96808e	0.29394954
9	0x3eaad1fa	0.33363324
10	0x3e9c33cc	0.30508268
11	0x3f43c25d	0.7646845
12	0x3eac98c7	0.3371031
13	0x3ef7bc9a	0.4838608
14	0x3f01890d	0.5059975
15	0x3f074b18	0.5284896
16	0x3e887d9b	0.2665833
17	0x3ed6d540	0.41959572
18	0x3e65a2cc	0.22425383
19	0x3ed3c554	0.41361487
20	0x3ea5ea86	0.3240549
21	0x3ee5363b	0.44767937
22	0x3f763645	0.9617656
23	0x3efa3202	0.48866278
24	0x3ee77070	0.4520297
25	0x3e875548	0.26432252
26	0x3e4d7bb2	0.20066717
27	0x3e99856a	0.299846
28	0x3e7ff9e1	0.24997665
29	0x3f1b4849	0.60657173

block4.conv_4.weight f4 [30, 30, 10]
0	0x3c914b92	0.01773623
1	0xbbd4f27c	-0.006498633
2	0x3db75255	0.089512505
3	0xbc97da5e	-0.018536743
4	0x3db81f70	0.08990371
5	0x3c984b2d	0.018590534
6	0x3d8d06c5	0.06886057
7	0x3d793f9e	0.060851686
8	0x3de08d18	0.109644115
9	0xbd7368cb	-0.05942611
10	0xbd13d104	-0.036088005
11	0xbda42763	-0.08015325
12	0x3d3ac38f	0.045596655
13	0xbcc9f53f	-0.024653075
14	0x3d2245c0	0.0396173
15	0xbd6c9781	-0.057761673
16	0xbcaee3da	-0.021348882
17	0xbd801602	-0.06254198
18	0xbd623274	-0.055223897
19	0xbc9aa68c	-0.018878244
20	0x3da04366	0.07825355
21	0x3d909aac	0.07060751
22	0xbcf16470	-0.029466838
23	0xbd8f2c4a	-0.06990869
24	0x3cee64d2	0.02910081
25	0xbd888fb0	-0.06668031
26	0xbdbf417d	-0.09338663
27	0xbdc41b8d	-0.095755674
28	0xbce7b743	-0.028285628
29	0x3b1fa23a	0.002435817
30	0xbd29fd94	-0.041501597
31	0xbd4dd868	-0.05025521
32	0xbd43e58c	-0.047826335
33	0x3d756743	0.05991293
34	0xbd8ffa27	-0.07030135
35	0xbdc41da6	-0.095759675
36	0x3db07d15	0.086176075
37	0x3bdfc5d9	0.006829005
38	0xbd5b2beb	-0.05350868
39	0x3d37db50	0.044886887
40	0xbd0d1ac4	-0.034449354
41	0x3da285a1	0.07935644
42	0xbd5823c0	-0.05276847
43	0x3d6ea15c	0.058259353
44	0x3d1caa6e	0.038248472
45	0x3db30029	0.08740265
46	0x3d7a0a24	0.061044827
47	0x3c26f8f9	0.010191196
48	0xbd99b370	-0.07504928
49	0xbd75db56	-0.06002363
50	0xbbb5e09a	-0.0055504562
51	0x3d10a9d7	0.035318222
52	0x3d33b901	0.043877605
53	0x3cfb2cf5	0.030661086
54	0xbdb45af8	-0.088064134
55	0xbbabaa42	-0.005238802
56	0xbc11bba9	-0.008894839
57	0xbc3dd687	-0.011586792
58	0x3d2bbd1d	0.0419284
59	0xbbd63e7b	-0.00653821
60	0x3bf23cc7	0.007392499
61	0xbd146050	-0.036224663
62	0x3daa520d	0.08316431
63	0x3d7cc9b6	0.061715804
64	0xbd9dc39f	-0.077033274
65	0x3d9edd08	0.07757002
66	0xbd33cbf0	-0.04389566
67	0x3b85b517	0.0040804255
68	0x3cb32191	0.021866592
69	0xbd3dbc07	-0.046321895
70	0xbbc3aa93	-0.0059712618
71	0x3d03117d	0.0319991
72	0xbd496b43	-0.04917456
73	0x3c5f754f	0.013638808
74	0x3d483fb0	0.048888862
75	0x3db81d84	0.08990005
76	0xbca43d9b	-0.020048907
77	0x3bc755c1	0.0060832207
78	0x3bbf4f67	0.005838323
79	0xbcd260d4	-0.025680937
80	0xbd34982b	-0.04409043
81	0xbde2c24e	-0.11072217
82	0x3d134226	0.035951756
83	0xbd5ac714	-0.053412512
84	0xbd7a0901	-0.061043743
85	0x3d7f0f91	0.062270705
86	0x3cf466d2	0.029834185
87	0x3d30fb63	0.04320849
88	0xbd4b44f2	-0.0496263
89	0x3d3a6467	0.045505907
90	0x3cd8aa22	0.026448313
91	0x3da78d67	0.08181267
92	0x3dac9ac2	0.08427955
93	0xbd91fe10	-0.07128537
94	0x3d3c174d	0.04592066
95	0xbce55f4b	-0.02799954
96	0x3d5f0733	0.054450225
97	0xbd512519	-0.05106077
98	0xbd97a08a	-0.07403667
99	0x3cf3077d	0.029666657
100	0xbd33d2d6	-0.04390224
101	0xbdb0cef3	-0.086332224
102	0xbc8cdf00	-0.017196178
103	0xbdba436e	-0.090948924
104	0xbd703a46	-0.058649324
105	0x3cec7da5	0.028868506
106	0x3d9d75fd	0.0768852
107	0x3d9a09a3	0.07521369
108	0xbd02a4fb	-0.03189562
109	0xbd73c0b4	-0.059509948
110	0xbc3ebeb3	-0.011642146
111	0xbdabef2b	-0.08395227
112	0xbda3496b	-0.07972988
113	0xbccaaeae	-0.024741497
114	0x3ca23dad	0.0198048
115	0xbcca2061	-0.024673643
116	0x3d4660fd	0.04843234
117	0x3d93ccec	0.0721682
118	0xbd82bc61	-0.06383587
119	0x3c12962f	0.008946939
120	0x3d364ada	0.044504978
121	0xbdad96f7	-0.0847606
122	0xbc6d51a8	-0.0144848
123	0xbdd70609	-0.10499198
124	0x3cd1f329	0.025628643
125	0x3d2b910c	0.041886374
126	0x3d03bff2	0.032165475
127	0xbdbff469	-0.093727894
128	0x3b9dcd75	0.004815752
129	0x3cbd2f79	0.023093926
130	0xbd9ec905	-0.07753185
131	0xbd97891c	-0.073991984
132	0xbda76158	-0.08172864
133	0xbda4a3ef	-0.0803908
134	0xbd9147d4	-0.07093778
135	0x3b97bab4	0.004630411
136	0x3d1755ce	0.036947064
137	0xbd91ccff	-0.07119178
138	0x3cc3925e	0.023873504
139	0x3d74cc00	0.059764862
140	0xbd751963	-0.059838664
141	0xbc3f7960	-0.011686653
142	0xbd3c4fb2	-0.04597444
143	0xbd666f8c	-0.056258723
144	0xbce42d24	-0.027853556
145	0x3d9fd645	0.078045405
146	0xbb54c71f	-0.0032467318
147	0x3cfa0114	0.030518092
148	0x3d8cc3f3	0.06873312
149	0xbcb8f036	-0.022575479
150	0x3d97f334	0.07419434
151	0x3b912fa6	0.004430729
152	0x3d645f9f	0.055755254
153	0x3bd6d7bf	0.0065564807
154	0x3dc632c5	0.09677652
155	0x3cf6374a	0.03005566
156	0x375b9f03	1.309044e-05
157	0xbd5a0b89	-0.053233657
158	0xbc3958f3	-0.011312711
159	0xbda0725c	-0.07834312
160	0x3c6ecaa1	0.014574678
161	0x3cf0ab63	0.029378599
162	0x3dcdbb0e	0.100454435
163	0xbda23a15	-0.079212345
164	0xbdbd0d6f	-0.09231078
165	0x3d67758f	0.056508597
166	0x3d481e0a	0.048856772
167	0x3cd8c03b	0.02645885
168	0x3d22102a	0.039566197
169	0xbd5b9f23	-0.05361856
170	0xbde22f77	-0.110442095
171	0xbda6365b	-0.08115836
172	0xbd25a86b	-0.04044382
173	0xbd3c66bf	-0.045996424
174	0x3cf079cc	0.029354952
175	0x3da24cd3	0.07924809
176	0x3da6a3fe	0.08136748
177	0xbdb80b3c	-0.08986518
178	0x3db16b66	0.08663063
179	0x3d42c62c	0.047552273
180	0x3d744040	0.059631586
181	0xbd3cba95	-0.046076376
182	0xbd675693	-0.056479048
183	0x3dcb2d32	0.0992073
184	0x3c0132e0	0.007885665
185	0x3d3daa3f	0.046304937
186	0xbdac73ab	-0.084204994
187	0xbd1d84d6	-0.03845676
188	0x3ccacb43	0.024755126
189	0xbd716017	-0.05892953
190	0xbc452007	-0.012031562
191	0x3db00cdf	0.08596205
192	0x3bb034fa	0.005377409
193	0xbca641d3	-0.02029506
194	0xbd5592d9	-0.052141998
195	0x3b452c52	0.0030086231
196	0xbd7e69eb	-0.06211273
197	0x3a25e48e	0.0006328308
198	0xbd9abe1e	-0.07555793
199	0xbd4d0255	-0.050051052
200	0xbd6ed654	-0.058309868
201	0xbd0dd4a5	-0.03462662
202	0x3cefb10d	0.02925923
203	0xbd92299a	-0.07136841
204	0xbca18243	-0.019715434
205	0xbdc3926f	-0.09549414
206	0xbd441587	-0.047872093
207	0x3da8b584	0.08237746
208	0xbc88717a	-0.016655672
209	0x3ce8278f	0.028339176
210	0xbde552dc	-0.11197445
211	0xbd558096	-0.052124582
212	0x3d73a3eb	0.059482496
213	0x3d4e887a	0.050423123
214	0x3d70924c	0.05873327
215	0xbd18f946	-0.0373471
216	0xbd5ac08b	-0.05340628
217	0xbd9d5674	-0.07682505
218	0xbd1ce947	-0.038308408
219	0xbdff72e5	-0.12473086
220	0x3d38e4ab	0.04513995
221	0xbcf78924	-0.030216761
222	0xbd0c1619	-0.03420076
223	0x3c97fcc2	0.018553142
224	0xbd241567	-0.040059473
225	0xbd9b0cbf	-0.075707905
226	0x3db8843b	0.09009596
227	0x3db11382	0.08646299
228	0x3d886820	0.06660485
229	0xbd17e309	-0.037081752
230	0x3d7505dd	0.059820045
231	0xbdcbf209	-0.09958274
232	0x3d95c69d	0.07313273
233	0x3cfccae4	0.030858465
234	0x3d9ff2cc	0.07809982
235	0xbd547a47	-0.051874425
236	0x3d18a5b7	0.037267413
237	0xbd8f95ff	-0.07011031
238	0x3db14cf0	0.08657253
239	0x3dc375c9	0.0954395
240	0xbda8e08b	-0.08245953
241	0x3dc97005	0.09835819
242	0x3d8d008e	0.068848714
243	0x3d0f1b7f	0.03493833
244	0xbda14fc8	-0.07876545
245	0x3dbc329d	0.09189341
246	0x3af568af	0.0018723215
247	0x3d3b5175	0.04573198
248	0x3c9c30a1	0.019066157
249	0x3ddba9b1	0.107257254
250	0x39d57db4	0.00040720182
251	0x3cfa5b46	0.0305611
252	0x3d30c08e	0.043152384
253	0xbd6bac82	-0.057537563
254	0x3cc5e336	0.024156194
255	0xbc03ef8c	-0.008052718

block4.bnorm_4.weight f4 [30]
0	0x3f7f82bc	0.9980886
1	0x3f83506c	1.0258918
2	0x3f7d6a83	0.9899065
3	0x3f81994f	1.0124911
4	0x3f80d697	1.0065488
5	0x3f852a4b	1.0403532
6	0x3f83e7d0	1.0305119
7	0x3f81cbd1	1.0140325
8	0x3f84b934	1.036902
9	0x3f7f3133	0.9968445
10	0x3f816de3	1.011166
11	0x3f7fb224	0.99881196
12	0x3f7eee37	0.99582237
13	0x3f80d253	1.0064186
14	0x3f840966	1.0315368
15	0x3f83bc5b	1.0291857
16	0x3f81c776	1.0138996
17	0x3f7de928	0.99183893
18	0x3f80ad53	1.0052894
19	0x3f83a196	1.0283687
20	0x3f834728	1.025609
21	0x3f837edb	1.0273088
22	0x3f83296c	1.0247016
23	0x3f801879	1.0007468
24	0x3f7e158e	0.9925164
25	0x3f812eeb	1.0092443
26	0x3f8249ce	1.0178773
27	0x3f837e3e	1.0272901
28	0x3f83f81f	1.0310096
29	0x3f7e5ca4	0.9936011

block4.bnorm_4.bias f4 [30]
0	0xbc46d11f	-0.012134819
1	0x3ca033eb	0.019556006
2	0xbc86574d	-0.01639905
3	0xbc2aec74	-0.010432351
4	0xbc8950d3	-0.016762173
5	0x3c9b127f	0.018929718
6	0x3cb6f6ad	0.022334421
7	0xbc4d48dd	-0.012529579
8	0x3ca2fd7a	0.019896258
9	0xbc78c9db	-0.015184845
10	0xbc52d93b	-0.012869175
11	0xbc52e53b	-0.012872036
12	0xbc874420	-0.016511977
13	0xbc884fd2	-0.016639624
14	0x3cb27dfe	0.021788593
15	0x3cabcce6	0.020971727
16	0xbc695a7a	-0.014242763
17	0xbc88fd00	-0.016722202
18	0xbc824eec	-0.015906774
19	0x3ca5411f	0.020172654
20	0x3caf518e	0.021401193
21	0x3ca4fa5d	0.020138914
22	0xbc3e69e5	-0.011621927
23	0xbc44b51e	-0.012006072
24	0xbc6615f9	-0.014043325
25	0xbc826d13	-0.015921151
26	0xbc0f436f	-0.008744105
27	0x3cc18575	0.023623208
28	0x3c9d874e	0.019229557
29	0xbc81f840	-0.015865445

block4.bnorm_4.running_mean f4 [30]
0	0xbe8d6f02	-0.27623755
1	0xbf327365	-0.6970733
2	0xbf588ffa	-0.8459469
3	0x3dfd8b1d	0.123800494
4	0x3e87d2d6	0.26528043
5	0x3ed9c0ba	0.4252985
6	0xbf5761e2	-0.8413373
7	0x3ddd1004	0.1079407
8	0xbe52fbe2	-0.20603898
9	0xbf43257e	-0.76229084
10	0x3e09daf7	0.13462435
11	0xbeb4f385	-0.3534204
12	0xbdf2ac7b	-0.11849304
13	0xbe760e14	-0.24028808
14	0x3effc164	0.49952233
15	0xbea5c0e1	-0.32373717
16	0x3ec221ba	0.37916356
17	0xbf0785a6	-0.52938306
18	0xbcf4ecd7	-0.02989809
19	0xbe775d4d	-0.24156685
20	0x3f28ecc8	0.659863
21	0xbd80ba4b	-0.062855326
22	0xbdf006b0	-0.117200255
23	0xbe973ab2	-0.29536968
24	0xbdc8f7ca	-0.09812887
25	0xbe92d8cf	-0.28681037
26	0x3e6e7d8f	0.23290084
27	0xbecfd4c6	-0.4059202
28	0x3e8a87be	0.27056688
29	0xbd814b46	-0.063131854

block4.bnorm_4.running_var f4 [30]
0	0x3eb8d7b3	0.36102065
1	0x3f0fb90b	0.5614173
2	0x3f80e9ca	1.0071347
3	0x3ea80757	0.328181
4	0x3f31db8e	0.6947564
5	0x3f13dab8	0.57755613
6	0x3f3b02b6	0.7305101
7	0x3f1d6896	0.6148771
8	0x3f274e99	0.65354306
9	0x3f3bcefc	0.7336271
10	0x3f0ddbd2	0.55413544
11	0x3f32dd44	0.69868875
12	0x3f54d64b	0.83139485
13	0x3eb5bd81	0.35496143
14	0x3f1aa31d	0.6040514
15	0x3f644307	0.89164776
16	0x3f8a64ed	1.081205
17	0x3f3edc13	0.74554557
18	0x3f162edf	0.5866527
19	0x3ef6ed83	0.48228082
20	0x3f9a9104	1.2075505
21	0x3f345f1b	0.7045762
22	0x3f08266d	0.53183633
23	0x3f3ffbf6	0.74993837
24	0x3ed54b4d	0.41659012
25	0x3f4b1b81	0.7933884
26	0x3f1c3373	0.61016005
27	0x3f27d0bb	0.6555287
28	0x3f427e58	0.75974035
29	0x3f2bd64d	0.6712387

conv_channel_res.weight f4 [1, 30, 3]
0	0x3ce30968	0.027714446
1	0xbd1b7869	-0.03795663
2	0xbd053dc5	-0.03252961
3	0xbd0e5a35	-0.034753997
4	0x3d5713e3	0.0525092
5	0x3d348c9e	0.044079416
6	0x3a588020	0.0008258838
7	0xbdc403eb	-0.0957106
8	0x3a8a09dd	0.0010531504
9	0xbde1e46a	-0.11029895
10	0xbde7e8d1	-0.11323703
11	0xbdc32587	-0.09528642
12	0xbdb95183	-0.0904875
13	0xbdc69068	-0.09695512
14	0xbdc4f0fd	-0.09616277
15	0xbd8f039e	-0.06983112
16	0x3df7f126	0.12106542
17	0x3e07d67b	0.13265412
18	0x3db34325	0.08753041
19	0xbd5b8a4a	-0.05359868
20	0x3d61caae	0.05512493
21	0xbcbaaa21	-0.022786202
22	0xbd8971c8	-0.06711155
23	0xbdb4f9ac	-0.08836684
24	0x3c004852	0.0078297425
25	0x3d3d2194	0.0461746
26	0x3d55b289	0.052172218
27	0xbd9d6413	-0.07685103
28	0xbd1da493	-0.03848703
29	0xbdbe93ac	-0.0930551
30	0x3d981f6b	0.074278675
31	0xbdb7c899	-0.08973808
32	0x3c734e31	0.014850185
33	0xbd00895e	-0.031381004
34	0xbdb0800a	-0.086181715
35	0xbd120966	-0.035653494
36	0x3cac9622	0.021067683
37	0xbc19991c	-0.009374883
38	0xbd9ad446	-0.07560019
39	0xbdc3c535	-0.09559099
40	0xbd997307	-0.07492643
41	0xbdbb2d4b	-0.09139498
42	0xbd5e9e36	-0.0543501
43	0x3dbacd3f	0.09121179
44	0x3dec4c50	0.11537993
45	0xbcd1caf8	-0.025609478
46	0x3d4cca8d	0.049997855
47	0x3dba801c	0.09106466
48	0x3cfafbcf	0.03063765
49	0xbd98a9ee	-0.074542865
50	0xbdabcd02	-0.083887115
51	0xbcb4ccbd	-0.022070283
52	0xbbf40247	-0.0074465605
53	0xbd84c463	-0.0648277
54	0xbdb80931	-0.08986128
55	0x3d96c5e0	0.073619604
56	0xbcf0c37c	-0.02939009
57	0xbc704d18	-0.014666818
58	0x3de78e7c	0.113064736
59	0x3dd6d2e8	0.10489446
60	0x3d7291e8	0.05922118
61	0x3dc8040a	0.097663954
62	0x3cb255f6	0.021769505
63	0x3d8220a7	0.06353884
64	0xbb83b1b0	-0.0040189847
65	0x3dd622ca	0.10455854
66	0x3de12ae8	0.10994512
67	0xbda21a96	-0.07915227
68	0xbd49855d	-0.04919945
69	0xbc9a45f6	-0.018832188
70	0xbdaac5eb	-0.08338531
71	0x3d97cfbb	0.07412668
72	0x3c8a3cad	0.016874636
73	0xbdbd88e1	-0.09254623
74	0xbbacfc5f	-0.0052791084
75	0xbd43331f	-0.047656175
76	0xbd804f9b	-0.062651835
77	0xbdeb6631	-0.11494101
78	0x3d7fde81	0.062468056
79	0x3c442897	0.011972568
80	0xbd99063a	-0.07471891
81	0xbd9d2853	-0.07673707
82	0x3d7cbacb	0.061701577
83	0x3ccd6d9b	0.025076678
84	0x3dbf40cd	0.09338532
85	0x3d7d7663	0.06188048
86	0x3d1685fa	0.036748864
87	0xbd6f8906	-0.058480285
88	0x3cceb858	0.025234386
89	0xbd1d49f1	-0.038400594

classifier_conv.weight f4 [32, 1, 35]
0	0xbc1f2e12	-0.009715574
1	0xbd521faf	-0.051299747
2	0x3c4948de	0.012285439
3	0xbc90648b	-0.017626068
4	0x3d04bca0	0.03240645
5	0xbd8cd4d6	-0.06876533
6	0xbd9a32f0	-0.07529247
7	0xbca68c1e	-0.020330485
8	0x3d2a6509	0.04160026
9	0x3cfc64ab	0.030809721
10	0xbd7cf3ad	-0.061755825
11	0x3cdc3139	0.02687894
12	0xbca905fb	-0.020632735
13	0x3c3ef964	0.011656139
14	0xbd7ecb24	-0.06220545
15	0xbda0db78	-0.0785436
16	0xbc2ac926	-0.010423934
17	0xbd0c7b21	-0.034297112
18	0xbd09f1d2	-0.033677883
19	0xbc3ec605	-0.011643891
20	0xbcd2b81d	-0.025722558
21	0x3ba731c1	0.0051023667
22	0xbd2e1d8c	-0.042508647
23	0xbdcc61f7	-0.09979623
24	0x3c2fb2df	0.010723799
25	0xbcda8e92	-0.026679311
26	0x3b548894	0.003243004
27	0xbde1817e	-0.11011027
28	0xbd7af0f8	-0.061264962
29	0xbda73edb	-0.081662856
30	0x3d1f984f	0.038963612
31	0xbe096a18	-0.13419378
32	0x3dade798	0.084914386
33	0xbc768de6	-0.01504848
34	0x3d7afaac	0.061274216
35	0x3ad33747	0.0016114496
36	0x3d47f993	0.048821997
37	0xbbacd0d8	-0.0052739196
38	0x3d894544	0.067026645
39	0x3d518851	0.051155392
40	0xbd1b639b	-0.037936788
41	0xbbf9b811	-0.0076208194
42	0x3c9d505f	0.019203363
43	0xbd464e07	-0.048414256
44	0x3d60a271	0.054842416
45	0xbd01f5d5	-0.031728584
46	0x3d9d03f5	0.0766677
47	0x3c5cfc8d	0.013487947
48	0x3db0ba3f	0.086292736
49	0x3db25758	0.08708066
50	0x3d64f291	0.05589539
51	0xbb5775e2	-0.003287666
52	0x3d44256d	0.047887255
53	0x3d86dab9	0.06584687
54	0x3dcb2a88	0.099202216
55	0xbce365fc	-0.02775859
56	0x3c114cb5	0.008868386
57	0x3d48daa1	0.049036626
58	0x3d2a5f53	0.041594815
59	0x3d7c318c	0.06157069
60	0x3d98f02b	0.074676834
61	0x3d8eb4bc	0.06968066
62	0x3df272b7	0.11838286
63	0xbb070cad	-0.002060692
64	0x3e03e99b	0.12882082
65	0xbd122360	-0.035678267
66	0x3e0e07ba	0.13870135
67	0xbdf57b6a	-0.1198643
68	0x3df5625f	0.119816534
69	0xbdce6102	-0.100770965
70	0x3d0d993b	0.03456996
71	0x3cfeb640	0.031092763
72	0xbd5c5ca4	-0.053799286
73	0xbcf8c3f5	-0.030366877
74	0xbd9e8ae6	-0.077413365
75	0xbcfff102	-0.031242851
76	0xbd014714	-0.031561926
77	0x3d0a0829	0.03369919
78	0xbbb8ee9e	-0.0056436798
79	0xbc800bb2	-0.015630577
80	0xbd8fe665	-0.07026366
81	0xbda81e38	-0.08208889
82	0xbd15278e	-0.036414675
83	0x3cf718f4	0.030163266
84	0xbc626244	-0.013817374
85	0xbc8204b7	-0.015871389
86	0xbc24c137	-0.010055832
87	0xbdaff050	-0.08590758
88	0xbcc0fcee	-0.023558106
89	0x3d01d21e	0.031694524
90	0xbcd2ae22	-0.025717799
91	0xbcb8d3d1	-0.02256194
92	0xbd1e39c5	-0.038629312
93	0xbdb1f74d	-0.08689747
94	0xbd2fe66e	-0.042944364
95	0xbb7e4a73	-0.00388017
96	0xbcaa4467	-0.02078457
97	0xbde74199	-0.11291809
98	0x3c5285eb	0.012849311
99	0xbdde64aa	-0.10859044
100	0x3d451bf2	0.048122354
101	0xbdfaaab5	-0.12239591
102	0x3dbafb26	0.09129934
103	0x3a913048	0.0011077011
104	0x3db83c1a	0.089958385
105	0xbb40c224	-0.0029412592
106	0xbd107924	-0.03527178
107	0x3d061c1a	0.032741643
108	0xbd8840a9	-0.06652958
109	0x3d510143	0.051026594
110	0xbdb2162d	-0.08695636
111	0xbd41db6d	-0.0473284
112	0xbd9478b2	-0.07249583
113	0xbd94ec19	-0.072715946
114	0xbd922d10	-0.07137501
115	0xbce81136	-0.02832852
116	0x3cee04cc	0.029055022
117	0xbd4b75a3	-0.049672734
118	0xbc548d7f	-0.012973188
119	0xbccc6a45	-0.024953017
120	0xbdbcc79b	-0.09217759
121	0x3c64cfb5	0.013965537
122	0x3c1efa03	0.009703162
123	0xbcad1938	-0.02113019
124	0xbd544bb7	-0.05183002
125	0xbda731b7	-0.08163779
126	0xbcd91200	-0.02649784
127	0x3cabd373	0.02097485
128	0xbbba0827	-0.0056772414
129	0xbd35677a	-0.044288136
130	0xbdfe1dcb	-0.12408026
131	0xbdaf8dcc	-0.085719675
132	0xbd095fc5	-0.0335386
133	0xbaee2537	-0.001816905
134	0xbcfdfc53	-0.031004107
135	0xbc62cfa1	-0.013843448
136	0xbdb906f2	-0.09034528
137	0x3d6f0aa8	0.058359772
138	0xbd826670	-0.06367195
139	0xbc7f09d0	-0.015566304
140	0xbda8c670	-0.08240974
141	0xbc5f53bc	-0.013630804
142	0x3bc54fe0	0.0060214847
143	0x3bf2b118	0.007406365
144	0xbd675b91	-0.05648381
145	0xbcc73a95	-0.024319926
146	0x3c3f50c3	0.01167697
147	0xbd93bcae	-0.07213722
148	0xbcaab511	-0.020838292
149	0x3c94cf56	0.018165272
150	0xbd777a6a	-0.060419478
151	0xbd03972a	-0.032126583
152	0xbd1f0cdf	-0.038830634
153	0xbd42cb49	-0.04755715
154	0xbd8c9994	-0.0686523
155	0xbc724507	-0.014786965
156	0xbcf78f01	-0.030219557
157	0xbdb0d9b5	-0.08635274
158	0xbc0e0d08	-0.008670099
159	0xbd110f68	-0.035415083
160	0x3d24a2ec	0.040194437
161	0xbc606b4f	-0.013697459
162	0xbde1b262	-0.11020352
163	0xbc272668	-0.010202028
164	0xbdad5bf8	-0.08464807
165	0xbcbaf120	-0.022820055
166	0xbc506e53	-0.012721616
167	0xbe00f64c	-0.12593955
168	0xbdcd1f47	-0.10015731
169	0xbdbe9e4d	-0.09307537
170	0x3d60bf5f	0.054870006
171	0xbe113ee5	-0.14184149
172	0x3db2c779	0.08729453
173	0xbdc3a588	-0.09553057
174	0xbd2052d2	-0.039141484
175	0x3dc13317	0.09433573
176	0x3d5b1698	0.053488344
177	0x3d3d46f4	0.046210244
178	0xbc7a0acd	-0.015261364
179	0xbca0a493	-0.019609725
180	0xbd4c4810	-0.04987341
181	0x3d84df15	0.06487862
182	0x3cd225d8	0.02565281
183	0x3cf239ba	0.029568542
184	0x3d0283af	0.031863865
185	0x3d812631	0.063061126
186	0x3d86f94b	0.065905176
187	0x3cf30496	0.029665273
188	0x3d7b2993	0.061318945
189	0x3d99370a	0.07481201
190	0xbc85a841	-0.016315581
191	0xbc121aeb	-0.008917551
192	0xbd1d9a76	-0.038477384
193	0xbd412c81	-0.047161583
194	0x3d505f7a	0.050872304
195	0x3c4d5d29	0.012534418
196	0x3db6bd95	0.08922879
197	0x3db0f36f	0.08640181
198	0xbca71bb3	-0.02039895
199	0x3c5c7403	0.013455394
200	0x3d74164b	0.059591573
201	0x3dd7d477	0.10538571
202	0x3d951977	0.07280248
203	0xbc313288	-0.01081527
204	0x3d919400	0.07108307
205	0xbd1af1bc	-0.037828192
206	0x3d0f7782	0.03502608
207	0xbcc3aa14	-0.02388481
208	0x3d81c52a	0.06336434
209	0x3d260a25	0.04053702
210	0xbd7cee13	-0.061750483
211	0xbd883e2c	-0.06652483
212	0xbd2db80f	-0.04241186
213	0xbcb190a7	-0.02167542
214	0xbc14f9c0	-0.009092748
215	0x3c4d640f	0.012536063
216	0xbd65f951	-0.05614597
217	0xbd77a263	-0.0604576
218	0x3cf6fff4	0.030151345
219	0x3c573e3f	0.013137399
220	0x3c85a94d	0.01631608
221	0xbd93baa7	-0.072133355
222	0xbd62d2f1	-0.05537695
223	0x3d4370c0	0.04771495
224	0xbc3626ec	-0.011117678
225	0x3d33ebd2	0.043926068
226	0xbd7460e1	-0.059662703
227	0x3cffb3f5	0.03121374
228	0xbd728a12	-0.059213705
229	0xbd0cf363	-0.0344118
230	0xbdaae3ef	-0.08344256
231	0xbd974be0	-0.07387519
232	0xba9a59cb	-0.0011776028
233	0xbba6f769	-0.0050954116
234	0x3cbf8cff	0.023382662
235	0xbd60c56b	-0.054875772
236	0xbd17d1da	-0.037065364
237	0x3cb3e23c	0.021958463
238	0xbbe55881	-0.006999076
239	0xbdfc9104	-0.12332347
240	0x3d3e764f	0.046499547
241	0xbd070835	-0.03296681
242	0x3dd61a95	0.10454289
243	0xbcdf3540	-0.027247071
244	0xbbde100b	-0.006776815
245	0xbd61ac2c	-0.055095837
246	0xbdb9b577	-0.09067815
247	0x3d0939f8	0.03350255
248	0xbdc50e44	-0.096218616
249	0x3c111e0d	0.008857262
250	0xbcc9075c	-0.024539642
251	0xbd434cdb	-0.047680717
252	0xbdb6f21f	-0.089329
253	0x3d25f870	0.04052013
254	0xbc4ecbf9	-0.012621873
255	0xbd0d7cdd	-0.034542907

classifier_conv.bias f4 [32]
0	0x3a6bf4db	0.0009001025
1	0xbb3443ec	-0.0027506305
2	0x3b692b86	0.003557892
3	0x3b82e25a	0.0039942684
4	0x3ae11feb	0.001717565
5	0xbb83c2a9	-0.004021008
6	0x3b6f8cb1	0.0036552364
7	0x3b9e2339	0.004825976
8	0x3ac14003	0.0014743808
9	0x3b9679e7	0.0045921686
10	0x3b3cb4c6	0.0028794273
11	0xbb946737	-0.0045289057
12	0xbb575223	-0.0032855354
13	0xbb1cab69	-0.002390588
14	0xbb118795	-0.0022206057
15	0xbbd0c0b2	-0.0063706273
16	0x3b2aa0c9	0.0026035777
17	0x3b163a37	0.0022922882
18	0x3b53ad5a	0.003229937
19	0x3b42e6f4	0.002973971
20	0xba81b7a0	-0.0009896643
21	0xbb9784fa	-0.0046240063
22	0xbb1ded26	-0.002409765
23	0xbb8bd283	-0.0042670383
24	0x3b5bbb3b	0.0033528346
25	0x3b77f101	0.0037832859
26	0x3b9a0580	0.0047003627
27	0x3a3e2329	0.0007253164
28	0xbb8216be	-0.0039699962
29	0x3bb2f9db	0.005461914
30	0x3b1d0ac6	0.002396272
31	0xbb5b2cb3	-0.003344339

fc.weight f4 [2, 32]
0	0x3db1d6a9	0.08683521
1	0xbcb164b8	-0.021654472
2	0x3d30d067	0.043167498
3	0xbd0cb65d	-0.034353603
4	0x3dc468e2	0.09590317
5	0xbdc2d8b0	-0.09513986
6	0x3da7c46d	0.08191762
7	0x3d9e81e1	0.07739616
8	0x3d9dc897	0.07704275
9	0x3dda753c	0.10666892
10	0x3d3cbb14	0.04607685
11	0xbdcb6010	-0.09930432
12	0xbd163a12	-0.036676474
13	0xbde5066a	-0.11182864
14	0xbda753f4	-0.0817031
15	0xbe01c110	-0.12671304
16	0x3e00fb7c	0.12595934
17	0x3e00a6d3	0.12563638
18	0x3d37d1b4	0.044877723
19	0x3e0e9440	0.1392374
20	0xbbd458f1	-0.006480329
21	0xbd8430dd	-0.064546324
22	0xbd386b58	-0.045024246
23	0xbd929238	-0.07156795
24	0x3d9b7bc9	0.075919695
25	0x3dcf8900	0.101335526
26	0x3d91ca1e	0.07118629
27	0x3dd87c62	0.10570599
28	0xbe062e16	-0.13103518
29	0x3d9d28c6	0.076737925
30	0x3d11d6d8	0.03560528
31	0xbe14c543	-0.14528374
32	0xbe1ffedd	-0.15624566
33	0x3dee1ff0	0.11627185
34	0xbe232eaf	-0.15935777
35	0xbdf34b52	-0.118796006
36	0xbd394fd0	-0.04524213
37	0x3cf1efe6	0.029533338
38	0xbe047ad8	-0.12937486
39	0xbd803624	-0.062603265
40	0xbe1b2fcc	-0.15154952
41	0xbd8ff459	-0.070290275
42	0xbd84382a	-0.06456025
43	0x3d3cdc82	0.04610873
44	0x3dab47b3	0.08363285
45	0xbc8c304c	-0.017112873
46	0x3cfa36c2	0.030543689
47	0x3cff7174	0.031182028
48	0xbdcffa14	-0.101551205
49	0xbd3effc0	-0.04663062
50	0xbe0f9bf6	-0.14024338
51	0xbce2fb92	-0.027707849
52	0x3dffc8b2	0.124894515
53	0x3d645a9f	0.055750486
54	0x3db22ce1	0.08699966
55	0x3e01eee5	0.12688787
56	0xbdcc20b7	-0.09967177
57	0xbc98c3d4	-0.018648066
58	0xbda04c51	-0.07827056
59	0xbd693671	-0.056936685
60	0xbd203f16	-0.039122663
61	0xbcdb44ea	-0.02676626
62	0xbdbb6c98	-0.09151572
63	0xbb8c8edc	-0.004289491

fc.bias f4 [2]
0	0x3bb6f717	0.0055836546
1	0xbbb6f6fc	-0.005583642
