submit_entry/checkpoints/cv_dgcn_all_12s_slice_norm_nosing/5/best.pth (torch_old, 340809 bytes, 25 tensors)

conv_time.weight f4 [75, 1, 10]
0	0xbcef00da	-0.02917521
1	0xbdb67690	-0.08909333
2	0xbcf1a1d8	-0.029496118
3	0xbd9a4cb3	-0.075341605
4	0xbd4bf922	-0.04979814
5	0xbd71f440	-0.059070826
6	0xbd5574dd	-0.052113403
7	0xbbb326d8	-0.005467277
8	0xbd998269	-0.07495577
9	0xbcad8c9f	-0.021185217
10	0xbd3668bb	-0.044533473
11	0x3da2c8ed	0.0794848
12	0x3cfb2258	0.030656025
13	0x3d904d37	0.070459776
14	0x3d156734	0.036475375
15	0xbd2eb7b8	-0.042655677
16	0xbd449741	-0.04799581
17	0xbd9810a0	-0.07425046
18	0xbdb5d592	-0.08878626
19	0xbd763369	-0.060107622
20	0x3db28c1e	0.087181315
21	0x3d53eae0	0.051737666
22	0x3cddf8b9	0.02709614
23	0x3cd9080d	0.026493097
24	0x3d2aeb6f	0.041728433
25	0x3d8a12dc	0.067418784
26	0x3ce9ec11	0.028554948
27	0x3c850fcf	0.01624289
28	0xbd0c134a	-0.034198083
29	0xbb6be062	-0.0035991897
30	0xbd8d65f4	-0.06904212
31	0xbdbfeb48	-0.09371048
32	0xbde41284	-0.11136344
33	0xbdef0fcd	-0.11672936
34	0xbdeb120f	-0.11478054
35	0xbd8bea76	-0.06831829
36	0xbd546ca2	-0.051861413
37	0xb99412ff	-0.00028242913
38	0xbb9dbbe0	-0.004813656
39	0xbbb49ad7	-0.0055116224
40	0x3d934c58	0.07192296
41	0x3da3a08c	0.07989606
42	0xbc1e5a3d	-0.009665069
43	0x3bfde940	0.007748753
44	0x3d7dbf64	0.061950102
45	0x3da2d55a	0.0795085
46	0x3d91748d	0.071023084
47	0x3d95edf5	0.07320777
48	0x3d90af1d	0.0706465
49	0x3d3a3bf2	0.045467325
50	0xbc92b633	-0.017909145
51	0xbd0f73dd	-0.035022605
52	0xbc406557	-0.011742911
53	0x3d41be37	0.047300544
54	0x3da68dc4	0.081325084
55	0x3dc8ef62	0.09811284
56	0x3dde2361	0.10846592
57	0x3dac2662	0.084057584
58	0x3d092395	0.0334812
59	0xbc88e328	-0.016709879
60	0x3c213173	0.00983845
61	0x3cf4c05f	0.029876886
62	0xbbda8845	-0.0066690766
63	0x3d6a4184	0.057191387
64	0x3d91a099	0.0711071
65	0x3dd7bfa4	0.105345994
66	0x3d191b9d	0.03737985
67	0x3d30716d	0.04307692
68	0x3c3f5ac6	0.011679357
69	0xbbbb9547	-0.0057245824
70	0x3d77bbdd	0.060481895
71	0x3c482b02	0.012217285
72	0x3d824a75	0.06361858
73	0x3dd69776	0.10478108
74	0x3cc51c80	0.024061441
75	0x3df00f95	0.11721722
76	0x3de3f8b9	0.111314245
77	0x3db6b31d	0.08920882
78	0x3c490bf1	0.012270913
79	0x3d685478	0.05672118
80	0xbdc061a8	-0.093936265
81	0xbd95e99e	-0.073199496
82	0x3d13a8ac	0.03604953
83	0x3cfe6d75	0.031058053
84	0xbc97b56e	-0.01851913
85	0xbc8eda0a	-0.017437954
86	0xbd996630	-0.07490194
87	0xbd08db97	-0.033412542
88	0x3da3f2f9	0.08005328
89	0xbb13c815	-0.0022549678
90	0xbd8ba661	-0.06818844
91	0xbd900353	-0.07031884
92	0xbd8562cc	-0.06512985
93	0xbd108981	-0.035287384
94	0x3d17607b	0.036957245
95	0x3d86ee9f	0.06588482
96	0x3db3e5d9	0.08784074
97	0x3dab4aa5	0.08363847
98	0x3d3c82a2	0.04602302
99	0x3d130cc6	0.035900854
100	0xbdd7e0ba	-0.1054091
101	0xbdc9fcd2	-0.09862675
102	0xbde7f28f	-0.11325561
103	0xbd3bf9f6	-0.04589268
104	0xbd508304	-0.050906196
105	0x3cdf851d	0.027285153
106	0x3b0e63d6	0.0021726987
107	0xbc2dd260	-0.010609239
108	0x3d137679	0.036001656
109	0xbd4c711c	-0.049912557
110	0x3d8da083	0.06915381
111	0x3cea227e	0.0285809
112	0x3dccc7e4	0.099990636
113	0xbc6f9a9d	-0.014624265
114	0x3da167e3	0.07881143
115	0x3d36f567	0.044667628
116	0x3a8f5e2a	0.0010938097
117	0x3dc13bf7	0.094352655
118	0xbcd4b484	-0.025964983
119	0x3c993803	0.018703466
120	0xbd222e3c	-0.039594874
121	0xbd9d2142	-0.07672359
122	0xbdb2b460	-0.0872581
123	0xbd093a03	-0.03350259
124	0x3c190955	0.009340604
125	0xbbf47d77	-0.0074612456
126	0xbd5be3e4	-0.05368413
127	0xbd719299	-0.058977697
128	0x3c1762ed	0.009239894
129	0x3da05b4d	0.07829914
130	0xbd4330d3	-0.047653984
131	0xbbaa4750	-0.0051964894
132	0xbd6f7046	-0.05845668
133	0xbd513b97	-0.05108222
134	0xbd9057c8	-0.07047993
135	0xbd02fdc9	-0.03198031
136	0xbd5fa106	-0.054596923
137	0x3c20684c	0.009790491
138	0xbcb1d460	-0.021707714
139	0xbdcc50e2	-0.09976365
140	0xbcfad764	-0.030620284
141	0xbd690f05	-0.05689909
142	0x3d0016e2	0.031271823
143	0x3d9d659a	0.076853946
144	0x3d9a67e4	0.07539347
145	0xbc936d16	-0.017996352
146	0x3c0d8483	0.00863755
147	0x3c618112	0.013763683
148	0x3d760de2	0.060071833
149	0x3d1e3e18	0.038633436
150	0x3cd22d4f	0.02565637
151	0x3d4df020	0.05027783
152	0x3cc1d0d9	0.023659157
153	0x3cabeab1	0.020985933
154	0x3cdefc8e	0.027220037
155	0xbd2c371d	-0.042044748
156	0xbd0cfcc6	-0.03442075
157	0xbdcdf889	-0.1005717
158	0xbdbba669	-0.091625996
159	0xbc89c332	-0.01681671
160	0xbd8a6804	-0.06758121
161	0x3d5b5622	0.05354894
162	0xbd23311f	-0.039841767
163	0xbcdadb7f	-0.026715992
164	0x3d8b05b2	0.06788196
165	0xbda295b2	-0.07938708
166	0x3cf3cbc6	0.029760253
167	0xbd8fb9bd	-0.07017849
168	0xbb56522b	-0.0032702785
169	0xbdb44c15	-0.08803574
170	0x3c690376	0.014222017
171	0x3d4c4a92	0.049875803
172	0x3d910adf	0.070821516
173	0x3dc0c24e	0.09412061
174	0x3db30457	0.08741062
175	0x3dabd201	0.083896644
176	0x3d72ad0d	0.059247065
177	0x3cf9f2a8	0.030511215
178	0x3cc4b222	0.024010722
179	0x3c59484c	0.013261866
180	0x3c95f4ed	0.018305266
181	0xbda38990	-0.07985222
182	0x3c93d04e	0.018043663
183	0xbd8d7cd8	-0.06908578
184	0xbdabe42e	-0.08393131
185	0x3c9ed86d	0.01939031
186	0xbddd566a	-0.10807498
187	0xbd25458a	-0.04034952
188	0xbd538090	-0.05163628
189	0x3cb4fcff	0.022093294
190	0x3db58a6e	0.08864294
191	0x3dd77854	0.10520998
192	0x3db29e78	0.08721632
193	0xbcfdacde	-0.030966219
194	0x3daea006	0.08526616
195	0xbd015152	-0.031571694
196	0xbce329fa	-0.027729977
197	0xbd2a37e0	-0.041557193
198	0x3cce7ef0	0.025207013
199	0xbcbc3972	-0.02297661
200	0x3d2fba73	0.04290242
201	0x3d1a4731	0.03766555
202	0x3dbe7ffd	0.093017556
203	0x3d8ccb79	0.06874747
204	0xbc5b5232	-0.013386296
205	0xbc8ef280	-0.017449617
206	0xbb8fd5c2	-0.0043894956
207	0x3d7eaa43	0.062174093
208	0x3daa19f9	0.08305735
209	0x3c823f3c	0.015899293
210	0x3c98c4f5	0.018648604
211	0x3da85df2	0.08221044
212	0x3d531455	0.051533062
213	0x3d58051a	0.05273924
214	0x3c0e5eaf	0.0086895665
215	0xbd7319d6	-0.05935081
216	0xbd470115	-0.048585016
217	0xbdb58288	-0.088627875
218	0xbdae6f4c	-0.08517322
219	0xbd952bf5	-0.07283775
220	0x3d84fc7a	0.064934686
221	0xbd4af13c	-0.049546465
222	0x3c85588f	0.01627758
223	0x3d377400	0.04478836
224	0x3db9792e	0.09056316
225	0x3d9c3521	0.07627321
226	0xbd9afb62	-0.07567479
227	0xbc8c83c2	-0.01715267
228	0x3dc6805e	0.09692453
229	0x3db238cb	0.08702239
230	0xbd4fec45	-0.050762434
231	0x3d5427d7	0.051795807
232	0x3d9a6553	0.07538857
233	0x3cb2167b	0.021739235
234	0xbdad8520	-0.08472657
235	0xbd7a7f2b	-0.061156433
236	0x3a2032d6	0.0006111091
237	0xbb1ac84d	-0.0023617924
238	0x3c214386	0.009842759
239	0xbd802bea	-0.06258376
240	0x3d227ec7	0.039671686
241	0x3d834f50	0.06411612
242	0x3db980e4	0.09057787
243	0x3dacd4be	0.08439015
244	0x3d914d37	0.07094806
245	0x3d444597	0.04791793
246	0xbacaed6e	-0.0015482137
247	0xbc9d7e7e	-0.019225355
248	0xbd39d782	-0.04537154
249	0xbc074137	-0.0082552945
250	0x3d760505	0.06006338
251	0x3dbb1132	0.09134139
252	0x3cff17d9	0.031139301
253	0xbd3b6bce	-0.045757107
254	0xbd44b5a1	-0.048024777
255	0xbc9633be	-0.01833522

conv_time.bias f4 [75]
0	0xbc453924	-0.012037549
1	0xbc5b3cd5	-0.013381203
2	0x3b1afd3d	0.0023649477
3	0xbba54be8	-0.005044449
4	0xbacaceb6	-0.0015472982
5	0xbc9e948f	-0.019357948
6	0x3b255e33	0.002523315
7	0xbae8901c	-0.0017743143
8	0xbc00b9b0	-0.007856771
9	0xbc1b4fe7	-0.009479499
10	0xbc62589f	-0.013815074
11	0x3c315c14	0.010825176
12	0xbaa0bc86	-0.0012263216
13	0x3c003a86	0.007826453
14	0xbb8e2256	-0.0043375893
15	0xbb796979	-0.0038057251
16	0xbc176cf3	-0.009242284
17	0x3b2e252f	0.0026572456
18	0xbb608b8e	-0.0034262869
19	0xbadf96bb	-0.0017058471
20	0xbc0137e7	-0.007886863
21	0xbc094df6	-0.008380404
22	0xbc3129bc	-0.010813173
23	0xbb57045b	-0.0032808993
24	0xbb6fdfa3	-0.0036601804
25	0xbb9bc73c	-0.004753975
26	0xbbe95f69	-0.0071219695
27	0x3c40f8ed	0.0117780985
28	0x3bcb7112	0.0062085474
29	0xbbbb4c17	-0.0057158577
30	0x3adf0df3	0.0017017707
31	0xb972c778	-0.00023153226
32	0x3bf23138	0.0073911212
33	0x3b650758	0.0034947004
34	0x3c0f6d1b	0.00875404
35	0xbc15681a	-0.009119058
36	0xbbc8a0b3	-0.0061226725
37	0xbb5b0a06	-0.0033422722
38	0xbb8f4949	-0.00437275
39	0xbc1701ed	-0.009216768
40	0xbc0a11ea	-0.008427123
41	0x3c724c1d	0.014788655
42	0x3c45e11c	0.012077596
43	0xbb861019	-0.0040912745
44	0xbbb45eed	-0.00550448
45	0x3b57d090	0.003293071
46	0xbbdda101	-0.006763578
47	0x3a9b82d7	0.0011864555
48	0x3b82f7a9	0.0039968085
49	0x3c67cccc	0.0141479485
50	0x3b871fb4	0.0041236524
51	0xbc15d974	-0.009146083
52	0xbc3e7a08	-0.011625774
53	0x3b95c188	0.00457019
54	0x3be26a7b	0.006909666
55	0x3af039a1	0.0018327722
56	0x3c0e5964	0.008688305
57	0x3afb9536	0.0019194249
58	0x3b6c4557	0.0036052072
59	0xbba27e15	-0.004958878
60	0x3c0233da	0.007946933
61	0x3b55943b	0.0032589573
62	0x3b99f551	0.0046984334
63	0xbbdc7d7e	-0.006728827
64	0x3b37fcc4	0.0028074244
65	0x3c204d48	0.00978405
66	0xbc074c16	-0.008257886
67	0xbb068b48	-0.0020529795
68	0x3bae15f1	0.005312674
69	0xbb80c239	-0.003929403
70	0x39928af5	0.0002795082
71	0xb8f5e5f3	-0.00011725342
72	0x3b1820df	0.0023212952
73	0xbb1e8acd	-0.0024191618
74	0x3bc74f7e	0.0060824743

bnorm.weight f4 [75]
0	0x3f81c49e	1.0138128
1	0x3f7ff881	0.9998856
2	0x3f7a6ffa	0.9782711
3	0x3f8256da	1.0182755
4	0x3f7ffb81	0.9999314
5	0x3f802b44	1.0013204
6	0x3f7e25a4	0.99276185
7	0x3f8398ce	1.0281007
8	0x3f7b70f0	0.98219204
9	0x3f823c14	1.0174584
10	0x3f801ccc	1.0008788
11	0x3f7e7fdb	0.9941384
12	0x3f817b70	1.0115795
13	0x3f78e4cf	0.97224134
14	0x3f7ba054	0.98291516
15	0x3f821ab8	1.0164404
16	0x3f78373a	0.9695927
17	0x3f83677d	1.0265957
18	0x3f8087d7	1.0041455
19	0x3f762a4c	0.9615829
20	0x3f7cace2	0.987013
21	0x3f851509	1.0397044
22	0x3f7b6243	0.9819681
23	0x3f71d3cf	0.9446382
24	0x3f834447	1.0255212
25	0x3f7ca822	0.9869405
26	0x3f7901e9	0.9726854
27	0x3f7c239e	0.9849185
28	0x3f7cd2ad	0.98758966
29	0x3f82c153	1.0215248
30	0x3f7cbe5b	0.9872796
31	0x3f7911b7	0.97292656
32	0x3f7c8cd5	0.9865239
33	0x3f80f818	1.0075712
34	0x3f7f7e32	0.99801934
35	0x3f7bef34	0.9841187
36	0x3f7e7ed3	0.9941227
37	0x3f7eb9c0	0.9950218
38	0x3f7ebf6b	0.9951083
39	0x3f7f2269	0.9966188
40	0x3f853c82	1.040909
41	0x3f807afc	1.0037532
42	0x3f83c08e	1.0293138
43	0x3f7cdc7c	0.9877393
44	0x3f7cb391	0.98711497
45	0x3f83045f	1.0235709
46	0x3f790520	0.97273445
47	0x3f80eab4	1.0071626
48	0x3f800bc7	1.0003594
49	0x3f7cde3a	0.9877659
50	0x3f82f1f6	1.0230091
51	0x3f81cc11	1.0140401
52	0x3f7d5bb1	0.98968035
53	0x3f80606a	1.0029423
54	0x3f81bdd0	1.0136051
55	0x3f7efe99	0.99607235
56	0x3f7f84a1	0.9981175
57	0x3f7cb096	0.9870695
58	0x3f8193dc	1.0123248
59	0x3f80a302	1.0049746
60	0x3f822006	1.0166023
61	0x3f7ed730	0.995471
62	0x3f80de5f	1.0067862
63	0x3f810dee	1.0082376
64	0x3f7bd522	0.9837209
65	0x3f7d0b2f	0.9884519
66	0x3f7e8473	0.9942085
67	0x3f82f00b	1.0229505
68	0x3f7c71c1	0.98611075
69	0x3f7aaac7	0.97916836
70	0x3f80ba2c	1.0056815
71	0x3f76ccc7	0.96406215
72	0x3f83e949	1.0305568
73	0x3f802387	1.0010842
74	0x3f801452	1.0006201

bnorm.bias f4 [75]
0	0xbc00c8ca	-0.007860372
1	0xbcab0b87	-0.02087952
2	0xbd94b58d	-0.072611906
3	0xbad04bcb	-0.0015891729
4	0xbcbd2c96	-0.02309255
5	0xbd7b0374	-0.06128259
6	0xbd18c884	-0.0373006
7	0xbd0474b8	-0.032337874
8	0x3cb7a26a	0.022416312
9	0xbd128da4	-0.03577961
10	0x3a834dd0	0.0010017697
11	0xbc382388	-0.01123894
12	0x3bf3fd85	0.0074459934
13	0xbc67e47d	-0.014153597
14	0xbcdff7de	-0.027339872
15	0xbd2c3a4f	-0.042047795
16	0x3b74325c	0.0037261462
17	0xbb36bdf8	-0.0027884226
18	0x3d0735e1	0.033010367
19	0x3c55b4bc	0.013043579
20	0xbd5927cc	-0.05301647
21	0xbd3f5fd2	-0.04672224
22	0xbd2ccca1	-0.042187337
23	0xbcd34e98	-0.025794312
24	0xbc92ceea	-0.01792093
25	0xbd32922a	-0.043596424
26	0x3c99d273	0.018777108
27	0xbd6a73dd	-0.057239402
28	0xbd0c2272	-0.034212537
29	0x3ba4962e	0.0050227856
30	0x3cb8dc12	0.022565875
31	0x3c634218	0.013870738
32	0x3be93f3a	0.007118133
33	0x3c496f79	0.012294644
34	0x3ba651bc	0.0050756615
35	0xbc44119f	-0.011967092
36	0xbbdecac3	-0.0067990734
37	0xbd64fb33	-0.055903625
38	0xbd1bb1d5	-0.03801139
39	0x3d00c256	0.031435333
40	0xbcb773bc	-0.022394054
41	0x3d2f51eb	0.042802732
42	0xbd0ad345	-0.03389289
43	0xbd5ad69d	-0.053427327
44	0xbcd0fb66	-0.025510501
45	0x3d43360a	0.047658958
46	0xbd10afc2	-0.035323866
47	0xbd497c83	-0.04919101
48	0x3d553039	0.05204794
49	0x3bc3a729	0.005970855
50	0x3d687c9b	0.056759458
51	0xbd64755e	-0.055775993
52	0x3d20e973	0.039285135
53	0x3d3e6831	0.046486083
54	0x3d1323b9	0.03592274
55	0x3cfc78a8	0.030819252
56	0x3c180167	0.009277678
57	0xbb9b9ecc	-0.0047491547
58	0x3c6066d7	0.013696394
59	0xbc143caf	-0.009047671
60	0x3d9c7652	0.07639755
61	0xbcb125d7	-0.021624489
62	0x3cfbb7b2	0.030727241
63	0x3db257d4	0.08708158
64	0x3c34bf17	0.0110318875
65	0x3cf4d1e8	0.029885247
66	0xbdb7a566	-0.08967094
67	0xbcdacd87	-0.026709331
68	0x3d1629ff	0.036661144
69	0x3c7958d2	0.01521893
70	0x3d9a402e	0.075317726
71	0x3d55fdda	0.052244045
72	0xbb9e7b5e	-0.004836484
73	0x3d4f0aa9	0.050547276
74	0xbbe0db09	-0.0068620485

bnorm.running_mean f4 [75]
0	0xbe478f6a	-0.19488302
1	0xbd88683d	-0.06660507
2	0x3df2faf9	0.118642755
3	0xbe7aba3a	-0.24485102
4	0x3e53346c	0.20625466
5	0x3df6b600	0.120464325
6	0x3e0ac9b5	0.13553508
7	0x3e79c0b7	0.24389921
8	0xbd90b66f	-0.070660464
9	0x3d0cac03	0.03434373
10	0xbe2bb0b3	-0.16766624
11	0x3e2353fa	0.15950003
12	0xbdcb11f7	-0.09915536
13	0xbe1e49e3	-0.15457873
14	0x3d909e4e	0.07061444
15	0xbd910a0f	-0.07081997
16	0xbdf0c6f6	-0.11756699
17	0x3e84331c	0.25820243
18	0xbe33c24c	-0.17554587
19	0x3de79e72	0.11309518
20	0x3e2eb766	0.17062148
21	0xbd9cb984	-0.07652572
22	0x3e1b2e99	0.15154494
23	0xbd583b33	-0.05279083
24	0x3e1c9179	0.15289868
25	0x3d7e85a1	0.062139157
26	0xbe1d26bf	-0.15346812
27	0xbe3133fa	-0.17304984
28	0x3df555b8	0.1197924
29	0x3dc1fa2e	0.09471546
30	0xbd1bea37	-0.03806516
31	0xbcc449c8	-0.023960963
32	0xbc24168e	-0.010015143
33	0xbcbd1de3	-0.02308554
34	0xbd8200e7	-0.06347828
35	0xbc98f05a	-0.018669296
36	0xbd7e765f	-0.062124606
37	0x3d2de94f	0.04245883
38	0x3d3baadc	0.04581724
39	0xbd06d932	-0.032921977
40	0x3d499ae5	0.049219985
41	0xbc47d4b2	-0.012196707
42	0x3d07ce0b	0.033155482
43	0x3d104ab9	0.03522751
44	0xbd67da52	-0.05660469
45	0x3d5804a5	0.052738804
46	0x3dc3fb10	0.09569371
47	0xbdfc26a8	-0.123120606
48	0xbab749fc	-0.0013983841
49	0x3d69fba2	0.05712474
50	0x3dd01e42	0.10162021
51	0xbe20a221	-0.15686847
52	0xbd7e9d62	-0.06216181
53	0x3dff8451	0.12476409
54	0x3e16819b	0.14697878
55	0x3d323ed1	0.043516938
56	0x3e15aaea	0.1461598
57	0xbdbdda18	-0.09270114
58	0x3e257776	0.16158852
59	0xbdd336a7	-0.103131585
60	0xbc670910	-0.014101282
61	0x3da78f0b	0.0818158
62	0xbd2fe604	-0.04294397
63	0xbd531166	-0.051530264
64	0xbc655aeb	-0.013998727
65	0xbc02ba36	-0.007978966
66	0x3d39196d	0.045190264
67	0x3d83f07f	0.06442355
68	0xbc9515c3	-0.018198853
69	0xbd43463b	-0.0476744
70	0xbd4f5a04	-0.050622955
71	0xbcd8e377	-0.026475651
72	0x3d69384a	0.056938447
73	0xbd1cfdc6	-0.038327955
74	0x3d954af3	0.07289686

bnorm.running_var f4 [75]
0	0x3c2e5645	0.010640685
1	0x3add9872	0.0016906394
2	0x3b939b4a	0.004504596
3	0x3c9aa12d	0.018875683
4	0x3c5f371d	0.01362398
5	0x3be322f7	0.0069316584
6	0x3bc0a70e	0.0058792895
7	0x3c9e4f2c	0.019324861
8	0x3ac85095	0.0015282804
9	0x3aea36f7	0.0017869164
10	0x3c02a112	0.0079729725
11	0x3bea9c4a	0.0071597444
12	0x3b64cba2	0.0034911414
13	0x3c084943	0.008318248
14	0x3b06f2b9	0.0020591451
15	0x3b04f38c	0.0020286767
16	0x3b83c215	0.004020939
17	0x3cb18f61	0.021674814
18	0x3c23a2d1	0.009987549
19	0x3b9f1b24	0.0048555303
20	0x3c2ba76c	0.010476928
21	0x3b2075ae	0.0024484205
22	0x3c109603	0.008824828
23	0x3a8821ed	0.0010386087
24	0x3c0c20ce	0.008552743
25	0x3ad6486d	0.0016348489
26	0x3bf52997	0.0074817645
27	0x3c3cc1b1	0.011520789
28	0x3b919400	0.004442692
29	0x3b7685a0	0.0037616268
30	0x3bc560e2	0.006023512
31	0x3b10d78d	0.0022101135
32	0x3a9f0d2c	0.0012134663
33	0x3b30aadd	0.0026957311
34	0x3ca10f6f	0.01966068
35	0x39e3eb33	0.0004347205
36	0x3c422c50	0.011851385
37	0x3c01b02b	0.007915537
38	0x3c1bcd6e	0.0095094275
39	0x3b0fc683	0.002193839
40	0x3c4d609c	0.0125352405
41	0x3b36d817	0.0027899796
42	0x3add4beb	0.0016883587
43	0x3bc0ea8b	0.0058873347
44	0x3c220c5f	0.009890645
45	0x3aba94c3	0.0014235008
46	0x3bb110b9	0.005403605
47	0x3bebcfa7	0.007196385
48	0x39df7f95	0.0004262893
49	0x3aac3310	0.0013137776
50	0x3b96a6a3	0.0045975014
51	0x3c2f66bb	0.010705645
52	0x3ac60ca6	0.0015109971
53	0x3be0c938	0.0068599246
54	0x3c1725ad	0.009225291
55	0x3a78a91a	0.00094856473
56	0x3c107757	0.008817515
57	0x3b93a5a6	0.004505831
58	0x3c3f0af2	0.011660324
59	0x3b9ade40	0.0047262013
60	0x3aac0d4e	0.0013126524
61	0x3c8002b2	0.015626285
62	0x3bbfb0e8	0.0058499463
63	0x3bab5415	0.005228529
64	0x3a6d6b52	0.00090568245
65	0x3a7e370e	0.0009697535
66	0x3bf1191c	0.0073577296
67	0x3c398970	0.011324272
68	0x3ac8007d	0.0015258935
69	0x3ba11bc8	0.004916642
70	0x3bdc6d68	0.0067269094
71	0x3af2f019	0.001853469
72	0x3bf97741	0.007613093
73	0x3b5fb206	0.003413321
74	0x3c3c9e56	0.01151236

block2.conv_2.weight f4 [75, 15, 10]
0	0xbd5782e9	-0.05261508
1	0x3ce8cac0	0.028416991
2	0x3c81186c	0.015758716
3	0xbd8544e1	-0.06507278
4	0xbdc104fd	-0.094247796
5	0x3ad0a7fc	0.0015919204
6	0x3d193d1a	0.037411787
7	0xbc1eaffc	-0.009685513
8	0xbcab3d3e	-0.020903226
9	0xbba89dc6	-0.005145761
10	0x3d0162bb	0.031588297
11	0xbc2a506c	-0.010395151
12	0xbce134e3	-0.027491039
13	0x3dfd800f	0.12377941
14	0x3c9ceb82	0.019155268
15	0x3c8c17af	0.017101137
16	0x3cd7e0be	0.026352283
17	0x3ca68e38	0.020331487
18	0xbdcdb6f2	-0.1004466
19	0xbe05abe1	-0.13053848
20	0xbcacfc44	-0.021116383
21	0xbd309aec	-0.043116495
22	0x3c46e871	0.012140379
23	0x3d530775	0.051520783
24	0x3d10c093	0.035339903
25	0xbd4b6fcf	-0.049667176
26	0xbc1e7fdc	-0.009674039
27	0x3cc8ccc5	0.024511704
28	0xbd1a68a5	-0.037697453
29	0xbd7175e4	-0.05895032
30	0x3b6b51cc	0.003590691
31	0x3c558147	0.01303131
32	0xbd9a80f3	-0.07544126
33	0x3d435867	0.04769173
34	0xbd9b9736	-0.075972006
35	0x3d0565f0	0.03256792
36	0xbda2013b	-0.07910391
37	0x3cc3fdd5	0.023924747
38	0xbb78f940	-0.0037990361
39	0x3da2ae65	0.07943419
40	0xbd3931a5	-0.04521336
41	0x3d2825af	0.041051563
42	0xbd58332a	-0.05278317
43	0x3d43aab3	0.047770213
44	0x3bc161ae	0.005901537
45	0x3d7650bb	0.060135584
46	0x3d775307	0.060381915
47	0x3cd3e02a	0.025863726
48	0x3d490083	0.049072754
49	0x3c3b2cd3	0.011424261
50	0xbab8b915	-0.0014093245
51	0xbcceb559	-0.025232958
52	0xbb361391	-0.0027782659
53	0xbd134968	-0.035958678
54	0xbd26d3fe	-0.040729515
55	0x3d67b250	0.056566536
56	0x3ba36033	0.004985833
57	0x3d832012	0.06402601
58	0xbd1b3aba	-0.037897803
59	0xbd7f66f3	-0.06235404
60	0xbd36b275	-0.044603784
61	0xbc054702	-0.008134605
62	0xbd83acfa	-0.06429477
63	0x3d9a9d89	0.07549579
64	0xbd0374aa	-0.03209368
65	0xbda595ef	-0.08085238
66	0xbd7de2f8	-0.061984032
67	0x3da5d95a	0.08098097
68	0x3d0f488f	0.034981307
69	0xbcb2a6d7	-0.021808071
70	0xbc15b452	-0.00913723
71	0xbd497f27	-0.049193528
72	0xbd83c638	-0.064342916
73	0x3d379fbd	0.044830073
74	0xbd6b1097	-0.05738887
75	0xbcfdbdbc	-0.030974261
76	0xbd965922	-0.073412195
77	0x3d1ffc38	0.039058894
78	0x3d5d5754	0.05403836
79	0x3d9ea38c	0.07746038
80	0xbd7b277b	-0.06131695
81	0x3d77da66	0.060511015
82	0xbb190489	-0.002334865
83	0x3dc276af	0.09495293
84	0x3d92ea8b	0.07173642
85	0xbcdd8667	-0.027041627
86	0xbd9626ba	-0.07331605
87	0x3c335cb3	0.010947394
88	0xbda53cb7	-0.08068221
89	0xbdb58a74	-0.088642985
90	0x3cf26342	0.029588345
91	0x3d9264f2	0.0714816
92	0xbc4b59f1	-0.01241158
93	0x3d275d6a	0.04086057
94	0xbc245d94	-0.010032076
95	0xbca17db9	-0.01971327
96	0xbd50741c	-0.05089198
97	0x3d22c36e	0.039737158
98	0xbcdada10	-0.026715308
99	0xbca8152d	-0.02051791
100	0x3a36c397	0.0006971894
101	0x3c383e87	0.011245376
102	0x3c4605f2	0.012086378
103	0x3d44284c	0.047889993
104	0x3d3c2da4	0.045941964
105	0xbcd17f66	-0.025573444
106	0xbda6d7fb	-0.08146664
107	0xbd88b358	-0.06674832
108	0x3d6dfba1	0.0581013
109	0xbd8ec8b3	-0.06971874
110	0xbce2a38f	-0.027665881
111	0xbd036a89	-0.03208402
112	0x3d8060a8	0.06268436
113	0x3d477373	0.048694085
114	0xbd8aab36	-0.06770937
115	0x3d4ebc6a	0.050472654
116	0x3c851fe8	0.016250566
117	0x3d86640a	0.0656205
118	0xbd823afe	-0.06358908
119	0x3d0690fb	0.032853108
120	0xbda6944f	-0.08133756
121	0xbc35faa8	-0.011107124
122	0x3c0d9ee5	0.00864384
123	0x3d81b64a	0.06333597
124	0x3ba43108	0.005010728
125	0xbd851acb	-0.06499251
126	0xbdc6742c	-0.09690127
127	0xbbe388ed	-0.006943813
128	0xbc2c1653	-0.010503369
129	0x3d26794f	0.040643033
130	0xba908a79	-0.0011027596
131	0xbd77a0a9	-0.06045595
132	0xbd20187a	-0.039085843
133	0x3d5107b3	0.051032733
134	0xbd9dc37d	-0.07703302
135	0xbd0df2c4	-0.034655347
136	0xbd9e522c	-0.07730517
137	0xbd58d173	-0.05293412
138	0x3d83cf11	0.06435979
139	0xbd77268e	-0.060339503
140	0xbd96f26f	-0.07370459
141	0x3d24cabe	0.040232413
142	0xbd870b1c	-0.06593916
143	0x3d81f5ce	0.06345712
144	0xbc448376	-0.011994233
145	0x3d0d2c90	0.034466326
146	0xbc3470f8	-0.011013262
147	0x3ccdec23	0.025137013
148	0x3d1b0bec	0.037853166
149	0x3cc06aea	0.02348848
150	0x3d3e22c6	0.04641988
151	0xbdccc526	-0.099985406
152	0xbd92f9d0	-0.07176554
153	0xbd37000e	-0.044677787
154	0xbcdcba81	-0.0269444
155	0x3cb12567	0.02162428
156	0x3da4c827	0.080459885
157	0x3db7f166	0.0898159
158	0x3dacd4c6	0.08439021
159	0x3d06fd9b	0.0329567
160	0xbb11f6b6	-0.0022272295
161	0x3cd418b8	0.025890693
162	0x3d296507	0.041356113
163	0x3d2f0b48	0.042735368
164	0xbc958cda	-0.01825564
165	0x3c967378	0.018365607
166	0x3caee48e	0.021349218
167	0x3d8ad5ca	0.06779058
168	0xbcc0ca57	-0.023533983
169	0x3d8c2ebe	0.06844853
170	0x3d61d480	0.055134296
171	0xbd8e70ed	-0.06955133
172	0xbd102013	-0.03518684
173	0xbd15a52a	-0.036534466
174	0xbdae0fca	-0.08499105
175	0x3c89dd55	0.016829172
176	0x3c03e176	0.00804936
177	0xbd3384f8	-0.04382798
178	0x3d46ef02	0.04856778
179	0xbcc02898	-0.023456857
180	0x3cf6d101	0.030128958
181	0xbd81164c	-0.06303081
182	0x3c9554b8	0.018228874
183	0xbd7cec62	-0.06174887
184	0xbd905b84	-0.07048705
185	0x3cb20d26	0.021734785
186	0x3c7b12f0	0.015324339
187	0xbcc717ac	-0.02430328
188	0x3bda8796	0.006668995
189	0x3c27d48d	0.010243547
190	0x3ca1e349	0.019761698
191	0xbbc3746a	-0.0059648054
192	0xbd7bc06f	-0.061462816
193	0xbd0d6278	-0.034517735
194	0x3d2430a1	0.04008544
195	0x3d06d486	0.032917522
196	0xbd8472e5	-0.06467227
197	0x3db0cd7d	0.08632944
198	0xbca306bf	-0.019900678
199	0xbd9b4dab	-0.07583173
200	0xbc14fd3c	-0.009093579
201	0x3c5a1e19	0.01331284
202	0x3d028d5c	0.031873092
203	0xbced2cb4	-0.02895198
204	0xbdb59fad	-0.08868346
205	0xbcbdcc8c	-0.023168825
206	0xbd70f277	-0.058824982
207	0xbd1846dd	-0.037176955
208	0x3d11007e	0.03540086
209	0xbd9b832d	-0.07593379
210	0xbdb9d52e	-0.09073864
211	0x3d45ca33	0.048288535
212	0xbd8851fd	-0.06656263
213	0x3d32a2b2	0.04361219
214	0x3d843f04	0.06457332
215	0xbc4d32a9	-0.012524285
216	0x3cfd1650	0.030894428
217	0x3d1f0b04	0.038828865
218	0x3d20deeb	0.03927509
219	0x3ce8a195	0.02839736
220	0x3b0b23fb	0.0021231163
221	0xbdaa4fbe	-0.08315991
222	0xbd96d9ce	-0.07365762
223	0xbd6055ea	-0.054769434
224	0xbd5fd9b2	-0.05465097
225	0xbd39ddc5	-0.04537751
226	0xbd01a297	-0.0316492
227	0xbd103d74	-0.035214856
228	0xbd20c63a	-0.039251544
229	0x3d121c5c	0.035671577
230	0xbd06ef83	-0.03294326
231	0xbcab98a3	-0.020946806
232	0xbd260fd6	-0.040542446
233	0x3d0f8f9e	0.035049073
234	0xbcf34f56	-0.029700916
235	0xbbd5ffe8	-0.0065307505
236	0x3d561fd9	0.052276466
237	0x3d92e7a1	0.07173086
238	0x3d0d10dc	0.034439906
239	0x3db8118c	0.08987722
240	0x3d4030ce	0.046921544
241	0x3d4f7992	0.050653048
242	0xbc704cda	-0.01466676
243	0xbd9dee30	-0.07711446
244	0x3be8f729	0.007109542
245	0xbd12358f	-0.03569561
246	0xbdb5c4de	-0.0887544
247	0xbd8a0ba0	-0.067404985
248	0xbda387a3	-0.07984855
249	0xbd5f91da	-0.054582454
250	0xbd9b9089	-0.07595927
251	0xbd91057d	-0.07081125
252	0x3d43ab82	0.047770984
253	0x3d88e0d1	0.06683505
254	0x3d3c6f45	0.046004552
255	0x3d834ed4	0.0641152

block2.bnorm_2.weight f4 [75]
0	0x3f78dcc6	0.97211874
1	0x3f7ee7ab	0.9957225
2	0x3f7d9217	0.9905104
3	0x3f770779	0.9649578
4	0x3f87c78e	1.0607774
5	0x3f805178	1.0024862
6	0x3f7d52b2	0.9895431
7	0x3f810852	1.0080664
8	0x3f86dae3	1.0535549
9	0x3f825c62	1.0184443
10	0x3f7bde52	0.9838611
11	0x3f798bfa	0.9747921
12	0x3f7585c5	0.9590724
13	0x3f82ecca	1.0228512
14	0x3f7f0779	0.9962078
15	0x3f86786c	1.05055
16	0x3f84b24e	1.0366914
17	0x3f78ff61	0.9726468
18	0x3f788379	0.9707561
19	0x3f7a9630	0.9788542
20	0x3f7c9645	0.98666793
21	0x3f80c8e4	1.0061307
22	0x3f7c65e2	0.9859296
23	0x3f7e0ea3	0.99241084
24	0x3f829a7a	1.0203393
25	0x3f6eea8f	0.9332666
26	0x3f82a821	1.0207559
27	0x3f7c310b	0.98512334
28	0x3f812b60	1.0091362
29	0x3f82dc5e	1.0223501
30	0x3f856f2b	1.0424551
31	0x3f7c502b	0.98559827
32	0x3f81d1d7	1.0142163
33	0x3f8464ce	1.0343263
34	0x3f779e2f	0.96725744
35	0x3f7caffe	0.9870604
36	0x3f829eca	1.0204709
37	0x3f7e7ff7	0.9941401
38	0x3f7f4e64	0.9972899
39	0x3f7f791a	0.9979416
40	0x3f7b0fd7	0.98071045
41	0x3f7d317e	0.98903644
42	0x3f77fd94	0.96871305
43	0x3f7d5833	0.98962706
44	0x3f7e25c3	0.9927637
45	0x3f786a44	0.9703715
46	0x3f818a78	1.0120382
47	0x3f7d5b4d	0.9896744
48	0x3f77cc32	0.9679595
49	0x3f7ac462	0.97955906
50	0x3f7eef2e	0.9958371
51	0x3f823238	1.0171576
52	0x3f873b11	1.0564901
53	0x3f84c2fd	1.0372006
54	0x3f7b4c45	0.98163253
55	0x3f7f42b1	0.9971114
56	0x3f7ba341	0.9829598
57	0x3f8340c8	1.0254145
58	0x3f81ab20	1.0130348
59	0x3f7b392f	0.9813413
60	0x3f803c92	1.0018485
61	0x3f809532	1.0045531
62	0x3f79d67c	0.975929
63	0x3f7f91b4	0.998317
64	0x3f84641e	1.0343053
65	0x3f7b85d9	0.9825111
66	0x3f814413	1.00989
67	0x3f81a591	1.0128652
68	0x3f7c8524	0.98640656
69	0x3f7f1449	0.9964033
70	0x3f8037ca	1.0017025
71	0x3f80aee1	1.0053369
72	0x3f85831d	1.0430638
73	0x3f7e46be	0.99326694
74	0x3f75dd45	0.96040756

block2.bnorm_2.bias f4 [75]
0	0xbcea198e	-0.028576639
1	0xbb999bf6	-0.0046877814
2	0xbd22b4d5	-0.039723236
3	0xbc6a3098	-0.014293812
4	0xbd84bdde	-0.06481527
5	0xbd8f6381	-0.07001401
6	0xbd65ecd2	-0.056134053
7	0xbcbd21b5	-0.023087362
8	0xbc8e0fcc	-0.017341517
9	0xbda1ed61	-0.079066046
10	0xbc29233c	-0.010323342
11	0xbcf938e3	-0.030422634
12	0xbce70acb	-0.028203389
13	0xbc8304c7	-0.015993489
14	0xbd8e7411	-0.06955732
15	0xba13472f	-0.0005618212
16	0xbca5ce0a	-0.020239849
17	0xbd84f8f1	-0.06492794
18	0xbd2c6d4a	-0.042096414
19	0xbcb76c06	-0.022390377
20	0xbcca61c9	-0.02470483
21	0x3c9cc9ec	0.019139253
22	0x3c8f78a0	0.017513573
23	0x3bf6e1b3	0.0075342297
24	0xbd21b087	-0.03947499
25	0xbd23f02b	-0.040023964
26	0xbd8413a4	-0.06449059
27	0xbd18f29a	-0.037340738
28	0xbd6bfdc0	-0.05761504
29	0xbd9d0b6a	-0.07668193
30	0xbc383fb0	-0.011245653
31	0x3c13d3d7	0.0090226745
32	0xbbeeef4d	-0.0072917105
33	0xbca475e7	-0.020075751
34	0xbd21b8c1	-0.039482836
35	0xbc58b76d	-0.013227326
36	0xbc8cf5d3	-0.017207062
37	0xba8271ab	-0.0009952089
38	0xbd219dea	-0.03945724
39	0x3c6b5a42	0.014364781
40	0xbcba43be	-0.02273738
41	0x3c4ede42	0.012626233
42	0x3b2aaa7b	0.0026041556
43	0xbd14a71e	-0.036292188
44	0x3b919776	0.0044431044
45	0xbd41bc06	-0.047298454
46	0x3d3a0cab	0.045422237
47	0xbd903722	-0.07041766
48	0xbc5475c3	-0.01296753
49	0xbcaf927c	-0.021432154
50	0x3b5f04c4	0.003402994
51	0x3bc35984	0.005961599
52	0x3d3a0fea	0.045425333
53	0x3d375441	0.044758085
54	0xba95e396	-0.0011435624
55	0xbca90ab0	-0.020634979
56	0xbbbc22f5	-0.005741472
57	0x3d01926a	0.031633772
58	0xbc2c0af0	-0.010500655
59	0xbcc5fb6e	-0.024167743
60	0xbced5d52	-0.028975163
61	0x3b94a0bb	0.004535762
62	0xbc524f7b	-0.012836332
63	0xbbaa2788	-0.005192701
64	0x3da5eb15	0.08101479
65	0xbcabc8a0	-0.020969689
66	0xbc6325a2	-0.013863953
67	0x3d105a03	0.035242092
68	0xbbc180f8	-0.005905267
69	0xbd3266cd	-0.04355507
70	0xbb1a8490	-0.0023577549
71	0x3c4b5f24	0.01241282
72	0xb945f72b	-0.00018879461
73	0xbc3198df	-0.01083967
74	0xbd467dae	-0.0484597

block2.bnorm_2.running_mean f4 [75]
0	0xbea2fe8b	-0.31834826
1	0xbe9e639b	-0.30935368
2	0xbf2d9daf	-0.6781873
3	0xbf289eee	-0.6586751
4	0x3ebd1c7b	0.3693579
5	0xbd9e4001	-0.077270515
6	0x3ca07220	0.019585669
7	0x3e9799ec	0.2960962
8	0x3d6483de	0.05578982
9	0xbe9a7762	-0.30169207
10	0xbf453634	-0.7703583
11	0xbea7ba2c	-0.32759225
12	0xbf12c09d	-0.57325155
13	0x3efe3f8e	0.49657863
14	0xbe2c24d9	-0.16810931
15	0xbe5e69d4	-0.21720058
16	0xbd153fff	-0.036437985
17	0x3e321d4b	0.17393987
18	0x3eb63355	0.35586038
19	0xbf229599	-0.6350952
20	0xbe4fa581	-0.20277978
21	0xbe41fb7f	-0.18943594
22	0xbee59801	-0.44842532
23	0xbf022689	-0.5084005
24	0x3d62a9b7	0.055337634
25	0xbe76bd43	-0.24095635
26	0x3f2e8ba5	0.6818183
27	0x3f29d028	0.66333246
28	0xbe4f8d33	-0.20268707
29	0x3e231a5e	0.15928027
30	0xbd579600	-0.052633286
31	0xbd73ebc4	-0.059551015
32	0x3f34f816	0.7069105
33	0xbed81a2c	-0.42207468
34	0x3e96bbbd	0.29440108
35	0x3f34284c	0.7037399
36	0x3e443583	0.19161038
37	0x3d325ece	0.043547444
38	0x3f09cf1b	0.5383164
39	0xbec8c7da	-0.39214975
40	0x3d16bd20	0.036801457
41	0x3e2f5f53	0.17126207
42	0xbf0f3128	-0.5593438
43	0xbef18c37	-0.47177288
44	0xbe6d7f17	-0.23193012
45	0x3e6ee282	0.23328593
46	0xbefa545e	-0.48892492
47	0x3f214332	0.62993157
48	0xbf074914	-0.52845883
49	0x3e856973	0.26057014
50	0x3e2e83a5	0.17042406
51	0x3e9aed55	0.30259195
52	0xbf2db115	-0.6784833
53	0xbebd8942	-0.37018782
54	0x3c810ba4	0.015752621
55	0xbdb72f37	-0.089445524
56	0xbe0bd316	-0.13654742
57	0xbd6d63b7	-0.057956424
58	0x3f1fb435	0.6238435
59	0x3dab0a99	0.08351631
60	0x3da2e26e	0.07953344
61	0xbf1f93c9	-0.6233488
62	0x3e14add5	0.14519437
63	0xbeadef51	-0.33971646
64	0xbe7fcf50	-0.24981427
65	0x3cf0bebd	0.029387826
66	0x3e3815d3	0.17977075
67	0xbee1191f	-0.43964478
68	0xbf2774b0	-0.65412426
69	0x3f61a151	0.88136774
70	0x3ece7266	0.40321654
71	0x3e78759a	0.24263611
72	0xbea7ad8c	-0.32749593
73	0xbf576695	-0.841409
74	0xbe4b7498	-0.19868696

block2.bnorm_2.running_var f4 [75]
0	0x3e9bba24	0.30415452
1	0x3eedb7b5	0.4642922
2	0x3e64c991	0.22342516
3	0x3f22f8ec	0.63661075
4	0x3ecf3fc7	0.40478346
5	0x3e392bd4	0.18083125
6	0x3db5f005	0.08883671
7	0x3ea47bab	0.321256
8	0x3ecc7511	0.39933065
9	0x3db03f12	0.0860578
10	0x3f26993e	0.6507758
11	0x3ec010d8	0.3751285
12	0x3f2b3060	0.6687069
13	0x3e1dbc4f	0.15403865
14	0x3e9192da	0.2843235
15	0x3e491bdd	0.19639535
16	0x3e29c118	0.16577566
17	0x3dbb21ab	0.09137281
18	0x3edba096	0.42895955
19	0x3e306cb2	0.17228964
20	0x3e2531dd	0.16132303
21	0x3e0e3a5e	0.13889453
22	0x3e9b3486	0.3031351
23	0x3e3cb0df	0.18426846
24	0x3dc1600d	0.09442148
25	0x3e38daa7	0.18052159
26	0x3e39d6d2	0.18148354
27	0x3e90d4d6	0.2828738
28	0x3df197ef	0.11796557
29	0x3ddea127	0.10870581
30	0x3d129b65	0.035792727
31	0x3e2d0667	0.16896974
32	0x3da47d37	0.08031695
33	0x3cdd781b	0.02703481
34	0x3f20ad32	0.62764275
35	0x3ef082b2	0.46974713
36	0x3de14353	0.10999169
37	0x3e601899	0.21884383
38	0x3e882f21	0.26598457
39	0x3eb1e83d	0.34747496
40	0x3d793185	0.06083824
41	0x3fd44110	1.6582355
42	0x3d468444	0.048465982
43	0x3f3baa76	0.7330698
44	0x3d8d892f	0.06910931
45	0x3fb0b71f	1.3805884
46	0x3e968872	0.29400975
47	0x3efecde9	0.49766472
48	0x3e856aca	0.26058036
49	0x3f34b6bc	0.7059133
50	0x3f36b19e	0.7136477
51	0x3eb9915f	0.36243722
52	0x3ebe87d8	0.37213016
53	0x3ea322a6	0.31862372
54	0x3f270435	0.65240794
55	0x3e99a5fd	0.30009452
56	0x3f36565f	0.7122554
57	0x3e9bacaf	0.30405185
58	0x3f009e91	0.50241953
59	0x3f1e9863	0.61951274
60	0x3db34a9f	0.08754467
61	0x3de80ff2	0.11331166
62	0x3e9d08ef	0.30670878
63	0x3e181bee	0.14854404
64	0x3ecc219d	0.39869395
65	0x3f08d03c	0.5344274
66	0x3ec431c5	0.3831922
67	0x3e115380	0.14192009
68	0x3fc5a37f	1.544052
69	0x3e1e9cb9	0.15489472
70	0x3ebf04b1	0.37308267
71	0x3e4227dc	0.18960518
72	0x3e465016	0.19366488
73	0x3e519161	0.20465614
74	0x3ecd8ba1	0.4014559

block3.conv_3.weight f4 [150, 15, 10]
0	0x3d3036c9	0.043020997
1	0xbc12fe50	-0.008971766
2	0xbd859d27	-0.06524115
3	0xb9e048b1	-0.0004277877
4	0xbd20be2a	-0.039243855
5	0x3d05fb67	0.03271046
6	0xbc3699d6	-0.011145076
7	0xbd40621d	-0.046968568
8	0xbd424ff1	-0.04743952
9	0x3ca473f2	0.020074818
10	0xbcf4c315	-0.029878179
11	0x3b834a8f	0.004006691
12	0xbd6d3e79	-0.057920907
13	0x3d4380ba	0.047730185
14	0x3c893054	0.016746677
15	0xbd71bfa7	-0.059020665
16	0xbc571e9b	-0.0131298555
17	0x3d0bd57d	0.034139145
18	0xbbc6dd16	-0.006068836
19	0x3cf6fd5d	0.03015011
20	0x3d3b6bad	0.045756985
21	0xbd6b6bea	-0.05747596
22	0xbd76bd29	-0.06023899
23	0xbc891d7c	-0.016737692
24	0x3ce36107	0.027756227
25	0xbc988aaf	-0.018620817
26	0xbca8d792	-0.020610604
27	0xbd9a8953	-0.07545724
28	0xbd71a4e9	-0.05899516
29	0x3cdd7013	0.02703098
30	0xbd60fd4c	-0.054929063
31	0xbc50d36f	-0.012745722
32	0xbcfd1382	-0.030893091
33	0xbd8523d4	-0.06500974
34	0xbd41bd42	-0.04729963
35	0x3c8347d7	0.016025467
36	0x3c188237	0.009308389
37	0xbcb8cdac	-0.02255901
38	0xbd4fc962	-0.050729163
39	0x3ceec347	0.02914585
40	0xbd366025	-0.044525284
41	0x3c978c8a	0.018499631
42	0x3cb5d3eb	0.022195777
43	0xbd145f62	-0.036223777
44	0xbcaf153b	-0.021372428
45	0x3c9c3f51	0.01907316
46	0x3d10df35	0.035369117
47	0xbd226c35	-0.039653976
48	0x3cdf3cf8	0.027250752
49	0xbd6e8289	-0.058229957
50	0xbd2ce778	-0.042212933
51	0x3d6a683e	0.05722832
52	0x3d5f30ed	0.05449002
53	0x3b8b6b0c	0.0042547043
54	0x3d7de199	0.061982725
55	0xbd043040	-0.032272577
56	0xbd1ca913	-0.03824718
57	0x3d48e612	0.049047537
58	0x3d4c7ddb	0.049924713
59	0xbd328ced	-0.04359143
60	0xbd02eddd	-0.031965125
61	0xbd0770a7	-0.033066418
62	0xbd7293f6	-0.059223138
63	0xbcc053e9	-0.023477511
64	0x3cae5ce5	0.02128453
65	0x3d4d2a9e	0.05008947
66	0xbd2f82bd	-0.04284929
67	0xbb7ee855	-0.0038895805
68	0x3c43596d	0.011923176
69	0xbd496f0d	-0.049178172
70	0xbc863e21	-0.016387047
71	0xbb9b7284	-0.004743876
72	0xbd879bdf	-0.06621527
73	0xbcdacf32	-0.026710127
74	0x3d7d2ddd	0.061811317
75	0xbcc9a938	-0.024616823
76	0x3cc982c7	0.024598492
77	0xbd520d54	-0.051282242
78	0xbcbdb824	-0.023159094
79	0xbd2785e3	-0.04089917
80	0x3d5c88f4	0.053841546
81	0xbc975cb6	-0.018476825
82	0xbd832ac5	-0.06404642
83	0xbd55c429	-0.052189026
84	0x3cee13c6	0.029062163
85	0xba693c01	-0.0008897186
86	0x38a74e28	7.977738e-05
87	0xbd35ae70	-0.04435581
88	0xbd5c45d1	-0.05377752
89	0x3cd6066c	0.026126109
90	0x3cfe7796	0.031062882
91	0xbd9b0000	-0.075683594
92	0xbcc8840c	-0.024477027
93	0xbce8b50f	-0.028406648
94	0x3d204431	0.039127532
95	0xbc6ec0b8	-0.014572315
96	0xbb39878c	-0.0028309552
97	0x3d4c7b24	0.049922124
98	0x3cfd6ab6	0.030934673
99	0xbd8f5b0e	-0.06999789
100	0x3d04bcc1	0.032406572
101	0x3c338153	0.010956126
102	0x3d0ae0d2	0.03390581
103	0xbd61c115	-0.055115778
104	0x3d0524db	0.03250585
105	0xbcc2dc7f	-0.023786781
106	0xbd7a4769	-0.06110326
107	0xbd471dae	-0.04861229
108	0xbc29113b	-0.0103190495
109	0xbd38c28a	-0.045107402
110	0x3d839b63	0.06426122
111	0xbc54fc8f	-0.012999668
112	0xbc4c716a	-0.012478212
113	0x3c8bc3d3	0.01706115
114	0x3d4fd971	0.050744478
115	0x3cfc2ee2	0.030784074
116	0x3c852bd9	0.01625626
117	0xbcf578a6	-0.029964756
118	0x3cb928bb	0.02260243
119	0x3d3d112d	0.04615896
120	0x3b81be6f	0.003959469
121	0xbd29ad08	-0.04142478
122	0x3c5dc99d	0.013536838
123	0x3cfcc343	0.030854827
124	0xbd3960a5	-0.045258183
125	0x3d131ab3	0.035914134
126	0x3d32aa03	0.043619167
127	0x3caa8c65	0.020818898
128	0xbd82c591	-0.06385339
129	0xbb3eebac	-0.002913217
130	0x3c559143	0.013035121
131	0x3c96d4da	0.018412042
132	0xbd43f94d	-0.047845174
133	0xbc1feea2	-0.009761484
134	0x3bf3a354	0.0074352417
135	0x3b957739	0.0045613316
136	0xbcf4fbfa	-0.029905308
137	0xbc401ce0	-0.011725634
138	0xbddc832e	-0.10767208
139	0x3c473437	0.012158445
140	0x3cc279a0	0.023739636
141	0x3c1285e9	0.0089430595
142	0x3c8300fb	0.015991678
143	0xbcf9e05a	-0.030502487
144	0x3c1c2b23	0.009531769
145	0xbcecc89f	-0.028904257
146	0xbcd0e6b7	-0.025500638
147	0x3d38cd64	0.04511775
148	0x3bcb5244	0.006204875
149	0xbdca99f5	-0.09892646
150	0xbb5e694b	-0.0033937271
151	0x3d5f3571	0.054494325
152	0x3ca193ed	0.019723857
153	0xbc6ea7cf	-0.014566376
154	0xbd7f21a7	-0.062287953
155	0xbc74e75e	-0.01494774
156	0x3c4f0909	0.0126364315
157	0x3c64c0d3	0.0139619885
158	0xbd619d1e	-0.05508148
159	0xbd95ff6b	-0.07324108
160	0xbd61aab8	-0.05509445
161	0xbb83ba79	-0.004020032
162	0x3d03312b	0.032029312
163	0xbd446c93	-0.047955107
164	0xbca6ff91	-0.020385535
165	0xbcca9bab	-0.024732431
166	0xbcbbe51c	-0.022936396
167	0x3cc2c6b9	0.023776399
168	0x3d2179ce	0.039422803
169	0x3d856d9a	0.065150455
170	0xbcf00691	-0.029300006
171	0xbcc24118	-0.02371268
172	0xbb455488	-0.00301102
173	0xbc984d10	-0.018591434
174	0x3cc54830	0.024082273
175	0xbd1938c7	-0.037407663
176	0x3be08662	0.006851957
177	0xbd46f6f2	-0.04857535
178	0xbcef5984	-0.029217489
179	0xbd061509	-0.032734904
180	0xbc123aa3	-0.008925113
181	0xbcb2332c	-0.021752916
182	0xbca0b055	-0.019615332
183	0x3c485f1a	0.012229705
184	0x3b99d979	0.004695114
185	0x3b56c743	0.0032772578
186	0xbca754e7	-0.020426227
187	0xbd13c497	-0.036076155
188	0x3d7c9199	0.06166229
189	0xbb2824c6	-0.0025656684
190	0xbcefbc29	-0.029264526
191	0xbc3662e9	-0.01113198
192	0x3bbedfdd	0.0058250264
193	0xbc10bce6	-0.008834099
194	0xbcc41413	-0.023935353
195	0xbd0eeff3	-0.034896802
196	0x3d036440	0.032078028
197	0xbc9cb5b9	-0.01912962
198	0x3b01386f	0.0019717475
199	0xbcaa810a	-0.020813484
200	0xbd21963d	-0.03944992
201	0xbd62dd55	-0.05538686
202	0xbc5c41d6	-0.013443431
203	0xbd81636b	-0.063177906
204	0x3c5b515c	0.013386097
205	0xbd8317ca	-0.06401022
206	0xbd32ee17	-0.04368409
207	0x3d0cb039	0.034347747
208	0x3d872359	0.06598539
209	0xbc7a63bc	-0.015282568
210	0x3d8a5572	0.06754579
211	0xbd3e2e51	-0.04643089
212	0xbd5d1219	-0.053972337
213	0xbd24464a	-0.040106095
214	0xbb01395a	-0.0019718022
215	0x3d7b6a64	0.06138076
216	0xbd29fa21	-0.041498307
217	0xbcddf619	-0.027094888
218	0xbc7f172d	-0.01556949
219	0xbc8ee466	-0.017442893
220	0xbca1ef9c	-0.019767575
221	0x3c279906	0.010229355
222	0xbd6c4572	-0.057683416
223	0xbd901cc4	-0.070367366
224	0xbd182464	-0.03714408
225	0xbd5e3157	-0.054246273
226	0xbc86bb52	-0.016446743
227	0xbd31d7c0	-0.043418646
228	0xbd349eff	-0.044096943
229	0x3d83b9af	0.06431901
230	0xbc2304a4	-0.009949837
231	0xba2e1b5b	-0.00066416495
232	0xbd41bef9	-0.047301266
233	0xbb854e84	-0.0040681977
234	0x3d64ed25	0.05589022
235	0x3d3e1555	0.046407063
236	0xbd186f0b	-0.037215274
237	0x3cc33bc3	0.023832208
238	0xbbac9478	-0.0052667223
239	0x3bfc888b	0.007706707
240	0x3cd7cee8	0.026343778
241	0xbc85082a	-0.016239244
242	0xbd9b9a95	-0.075978436
243	0x3c92a486	0.017900717
244	0xbd8016a5	-0.06254319
245	0xbc0e2a63	-0.008677098
246	0x3cd9c520	0.026583254
247	0xbcce686d	-0.025196278
248	0x3da8f54a	0.0824991
249	0x3d818339	0.06323857
250	0x3b90b231	0.0044157733
251	0xbd36d2a4	-0.044634476
252	0xbd77b177	-0.060471978
253	0x3cb0333c	0.021508805
254	0xbca1e5af	-0.019762842
255	0xbd3e0451	-0.046390835

block3.bnorm_3.weight f4 [150]
0	0x3f8261de	1.0186117
1	0x3f823c78	1.0174704
2	0x3f7b7f2f	0.9824094
3	0x3f7f0727	0.9962029
4	0x3f884999	1.064746
5	0x3f7a1f8f	0.97704405
6	0x3f851aca	1.03988
7	0x3f7cd95a	0.9876915
8	0x3f7f9fea	0.99853384
9	0x3f876b77	1.0579671
10	0x3f83f635	1.0309511
11	0x3f85b410	1.0445576
12	0x3f7d69d2	0.98989594
13	0x3f7e5d5b	0.993612
14	0x3f7c06f9	0.9844814
15	0x3f757d92	0.9589473
16	0x3f79f44e	0.97638404
17	0x3f7b2747	0.9810681
18	0x3f802a1e	1.0012853
19	0x3f7ddf9d	0.9916933
20	0x3f86b711	1.0524617
21	0x3f7d6012	0.98974717
22	0x3f79a08f	0.9751062
23	0x3f7b7234	0.98221135
24	0x3f80e8cb	1.0071043
25	0x3f829d1d	1.0204197
26	0x3f7e7d98	0.9941039
27	0x3f837095	1.0268732
28	0x3f7d04ce	0.98835456
29	0x3f7c48cd	0.98548585
30	0x3f837f5d	1.0273243
31	0x3f81421b	1.0098299
32	0x3f7b9d7a	0.98287165
33	0x3f834f6a	1.025861
34	0x3f7bf549	0.9842115
35	0x3f80632f	1.0030268
36	0x3f7efc30	0.9960356
37	0x3f80f652	1.0075171
38	0x3f8072c3	1.0035022
39	0x3f8838c0	1.0642319
40	0x3f823989	1.0173808
41	0x3f856621	1.0421792
42	0x3f874ee9	1.0570956
43	0x3f787f32	0.97069085
44	0x3f8303f0	1.0235577
45	0x3f800fab	1.0004781
46	0x3f865a05	1.0496222
47	0x3f7ac9aa	0.97963965
48	0x3f809b9c	1.0047488
49	0x3f8036a1	1.0016671
50	0x3f738de5	0.9513839
51	0x3f7d6b5b	0.98991936
52	0x3f8082a7	1.0039872
53	0x3f7cc94e	0.98744667
54	0x3f79c309	0.97563225
55	0x3f7b6c64	0.98212266
56	0x3f7bfe29	0.9843469
57	0x3f80155e	1.0006521
58	0x3f76b359	0.9636741
59	0x3f8129b8	1.0090857
60	0x3f80bbe8	1.0057344
61	0x3f7d253b	0.98884934
62	0x3f78e2f4	0.97221303
63	0x3f81d783	1.0143894
64	0x3f7caab1	0.98697954
65	0x3f840805	1.0314947
66	0x3f7b9a23	0.9828207
67	0x3f7f28ef	0.99671835
68	0x3f80bd45	1.005776
69	0x3f806e58	1.0033674
70	0x3f79ceb1	0.9758101
71	0x3f814965	1.0100523
72	0x3f7b6905	0.9820712
73	0x3f7c7354	0.98613477
74	0x3f84f639	1.0387641
75	0x3f7cbe9d	0.9872835
76	0x3f7e5310	0.99345493
77	0x3f8377f9	1.0270988
78	0x3f803599	1.0016357
79	0x3f823890	1.0173512
80	0x3f79d5f6	0.97592103
81	0x3f75189c	0.95740676
82	0x3f81ab36	1.0130374
83	0x3f7b4e53	0.9816639
84	0x3f800a9f	1.0003241
85	0x3f7ea809	0.9947515
86	0x3f81bce3	1.0135769
87	0x3f80b4ae	1.0055139
88	0x3f7c9380	0.9866257
89	0x3f8395cb	1.0280088
90	0x3f835f3a	1.0263436
91	0x3f7f6481	0.9976273
92	0x3f809580	1.0045624
93	0x3f83c259	1.0293685
94	0x3f7f66e9	0.99766403
95	0x3f765b62	0.9623319
96	0x3f7f9da9	0.99849945
97	0x3f7dca25	0.99136573
98	0x3f840618	1.031436
99	0x3f7eec9c	0.9957979
100	0x3f7d5d8b	0.9897086
101	0x3f7cb6d2	0.9871646
102	0x3f802cc6	1.0013664
103	0x3f7dc7b6	0.9913286
104	0x3f78aeeb	0.97141904
105	0x3f809d17	1.004794
106	0x3f7ff1eb	0.9997851
107	0x3f81ab69	1.0130435
108	0x3f782288	0.9692769
109	0x3f80a70f	1.0050982
110	0x3f821620	1.0163002
111	0x3f7fdcd0	0.9994631
112	0x3f7d6c87	0.98993725
113	0x3f853cb2	1.0409148
114	0x3f7988f8	0.9747462
115	0x3f783cac	0.9696758
116	0x3f7ae729	0.9800897
117	0x3f807d2d	1.0038201
118	0x3f825b31	1.018408
119	0x3f7d25f2	0.98886025
120	0x3f81093d	1.0080944
121	0x3f7f2eac	0.9968059
122	0x3f81067a	1.0080101
123	0x3f809b6b	1.004743
124	0x3f805ca2	1.0028269
125	0x3f879847	1.0593346
126	0x3f77f9b4	0.9686539
127	0x3f80cacb	1.0061888
128	0x3f8142ee	1.009855
129	0x3f7ea1f9	0.994659
130	0x3f7c199b	0.9847657
131	0x3f80f158	1.0073652
132	0x3f7bb502	0.9832307
133	0x3f8148aa	1.01003
134	0x3f7e32fa	0.99296534
135	0x3f84b1c9	1.0366756
136	0x3f7c366a	0.9852053
137	0x3f7a46ce	0.9776429
138	0x3f80d651	1.0065404
139	0x3f7de4db	0.9917733
140	0x3f83a0f1	1.028349
141	0x3f7c4eb1	0.98557574
142	0x3f79248e	0.97321403
143	0x3f835d24	1.0262799
144	0x3f80413c	1.0019908
145	0x3f759f3a	0.95946085
146	0x3f864802	1.0490725
147	0x3f8388a4	1.0276074
148	0x3f7c6302	0.98588574
149	0x3f808ecf	1.0043582

block3.bnorm_3.bias f4 [150]
0	0xbc8b14e0	-0.016977727
1	0xbd2637d0	-0.04058057
2	0xbd677ae5	-0.056513686
3	0xbdea7e25	-0.114498414
4	0xbd045c11	-0.032314364
5	0xbd93fae5	-0.07225589
6	0xbca62f79	-0.020286309
7	0xbcdb17f4	-0.02674482
8	0xbd530a13	-0.05152328
9	0xbd836890	-0.06416428
10	0xbcc64ece	-0.024207499
11	0xbdb858d8	-0.090013206
12	0xbde82a9a	-0.113362506
13	0xbd1fed7a	-0.039044835
14	0xbd1054c3	-0.035237085
15	0xbd30b5eb	-0.04314224
16	0xbd03fe59	-0.032224987
17	0xbcd69320	-0.026193202
18	0xbd65dfcc	-0.056121632
19	0xbd6ee4fe	-0.058323853
20	0xbd4cf227	-0.050035622
21	0xbcecc9f7	-0.028904898
22	0xbd1bd5fe	-0.038045876
23	0xbd60ab8e	-0.054851107
24	0xbd724400	-0.05914688
25	0xbd4eebe3	-0.050517928
26	0xbd381d3e	-0.044949763
27	0xbc9140ea	-0.017731149
28	0xbccfbe90	-0.025359422
29	0xbcd653d2	-0.026163016
30	0xbbacf21d	-0.0052778856
31	0xbd675517	-0.056477632
32	0xbd73cdae	-0.059522323
33	0x3d8625c8	0.06550175
34	0xbd2ea0b2	-0.04263372
35	0x3b9fa48a	0.0048719095
36	0x3d03473d	0.03205036
37	0x3cf295c3	0.029612428
38	0xbd484b9c	-0.04890023
39	0x3a739c80	0.00092930347
40	0xbc2c86ed	-0.010530216
41	0x3c5eea4d	0.013605666
42	0xbcbde595	-0.023180762
43	0xbd799f0b	-0.06094269
44	0xbc160867	-0.009157277
45	0xbd610c7b	-0.054943543
46	0xbd8b7ee4	-0.06811312
47	0xbc79ab46	-0.015238589
48	0x3cf40c31	0.02979097
49	0xbbbdad42	-0.005788476
50	0xbd948a50	-0.072529435
51	0xbd9ce434	-0.07660714
52	0xbd84a2db	-0.06476375
53	0xbcaab787	-0.020839466
54	0xbda1ea56	-0.07906024
55	0xbcb4eca7	-0.0220855
56	0xbd915463	-0.070961736
57	0x3cd333ce	0.025781538
58	0xbd2366fe	-0.039893143
59	0x3cfab307	0.030602945
60	0xbc6daac5	-0.014506047
61	0xbd3c5b18	-0.04598531
62	0xbd1ab5da	-0.037771083
63	0xbc5a09ee	-0.0133080315
64	0xbcc279f5	-0.023739794
65	0xbcc0cef0	-0.023536175
66	0xbcb2a565	-0.021807382
67	0xbd14550f	-0.03621393
68	0xbcd605fc	-0.0261259
69	0xbbd484bb	-0.0064855493
70	0xbc9c3c53	-0.019071734
71	0xbab52b7d	-0.0013822165
72	0xbcc1ba61	-0.023648443
73	0xbcf7685e	-0.030201133
74	0xbcdcf5bf	-0.02697265
75	0xbb891948	-0.004183922
76	0xbcd5eba8	-0.026113346
77	0xbc7d108e	-0.0154458415
78	0xbd6516cd	-0.055929948
79	0xbc98c21d	-0.018647248
80	0xbd1239e2	-0.035699733
81	0xbd0c78bc	-0.03429483
82	0xbccce758	-0.025012657
83	0xbcf0f764	-0.02941484
84	0xbc800924	-0.015629359
85	0xbd241b02	-0.04006482
86	0x3c2cc772	0.010545598
87	0x3b9b26df	0.0047348584
88	0xbcdeaca9	-0.02718194
89	0xbd7c37f1	-0.061576787
90	0xbcc1ec8d	-0.023672367
91	0xbc8a01af	-0.016846506
92	0x3b8e33b6	0.0043396605
93	0xbd322b57	-0.043498363
94	0xbd3b62f1	-0.045748655
95	0xbd6b7d82	-0.05749274
96	0xbbf8631c	-0.007580174
97	0xbc3bae99	-0.011455202
98	0xbc9446e2	-0.018100206
99	0xbc69682a	-0.014246026
100	0xbcd9cf42	-0.026588086
101	0x3a46d020	0.00075841136
102	0xbd0b3c0a	-0.033992805
103	0xbd3a373e	-0.04546284
104	0xbc34efcf	-0.011043503
105	0xbb5d5f41	-0.00337787
106	0xbd37a923	-0.044839036
107	0xbd0b160b	-0.03395657
108	0xbce566d2	-0.02800313
109	0xbcb209df	-0.021733223
110	0xbcf32821	-0.02968222
111	0xbc7c2dbe	-0.015391765
112	0xbd961162	-0.07327534
113	0xbd059e3f	-0.03262162
114	0xbd1ad89c	-0.03780423
115	0xbce2c0fb	-0.02767991
116	0xbd07c0d0	-0.033142865
117	0xbd4259aa	-0.04744879
118	0xbc85f175	-0.016350487
119	0x3a9af8c7	0.0011823409
120	0x3b9b8084	0.004745545
121	0xbd07d233	-0.033159446
122	0xbbe58648	-0.007004533
123	0xbbb29ac4	-0.0054505784
124	0xbc04d667	-0.008107758
125	0xba341859	-0.0006870083
126	0xbd1ef79f	-0.03881037
127	0xbd750bf1	-0.05982584
128	0x3c4cd835	0.01250272
129	0xbc9e3474	-0.019312121
130	0xbc811365	-0.015756318
131	0xbcbc5a89	-0.02299239
132	0xbd1370e3	-0.03599633
133	0x3d314bd3	0.043285202
134	0xbc2df849	-0.010618278
135	0x3d19c992	0.037545748
136	0xbca6205b	-0.0202791
137	0xbb1809c8	-0.002319919
138	0xbc39b4a4	-0.011334572
139	0xbb4a9d20	-0.0030916408
140	0x3d3a8623	0.04553808
141	0xbcf8aee1	-0.030356826
142	0xbccfdc3d	-0.025373572
143	0x3cbda2c4	0.023148902
144	0xbb017b86	-0.0019757464
145	0xbc99cbee	-0.018773999
146	0x3d3bec47	0.04587963
147	0x3c724fbe	0.01478952
148	0xbd397b15	-0.045283396
149	0xbcd61742	-0.026134137

block3.bnorm_3.running_mean f4 [150]
0	0xbf14b622	-0.5809041
1	0xbeea291f	-0.45734498
2	0xbec1d2cf	-0.37856147
3	0xbd7e85d0	-0.062139332
4	0xbecc0a11	-0.3985143
5	0x3e2819e9	0.16416134
6	0xbe800365	-0.2500259
7	0xbf074056	-0.52832544
8	0x3de12079	0.10992522
9	0xbed4306e	-0.414432
10	0x3e57e687	0.21084033
11	0xbeb4fec3	-0.35350618
12	0xbe05de69	-0.13073124
13	0xbe73cd2c	-0.23808736
14	0xbee96bd1	-0.4559007
15	0xbf1daf8a	-0.61595976
16	0x3cdbd754	0.026836075
17	0xbeb129cc	-0.346022
18	0xbc04821b	-0.00808766
19	0xbe7650cc	-0.24054259
20	0xbeacfa9d	-0.33784953
21	0xbe389c8a	-0.18028465
22	0xbee72e93	-0.4515272
23	0xbeadeb5f	-0.33968636
24	0xbef1e58f	-0.47245452
25	0xbe78bbf8	-0.24290454
26	0xbdb50d0b	-0.088403784
27	0xbdf4a49b	-0.119454585
28	0xbedc6901	-0.43048862
29	0xbe981010	-0.29699755
30	0xbec6d8db	-0.38837323
31	0xbf042daa	-0.5163218
32	0x3e707527	0.2348219
33	0xbf48bfb8	-0.7841754
34	0x3dd831be	0.105563626
35	0xbd28d63b	-0.04121993
36	0xbf1eb14e	-0.61989295
37	0xbf222115	-0.6333173
38	0xbebf35ab	-0.37345633
39	0x3e6b8a37	0.23001944
40	0xbde7bcb1	-0.11315287
41	0xbe30f6c7	-0.17281638
42	0xbee7e23d	-0.45289794
43	0x3ea79c64	0.32736504
44	0xbd054607	-0.032537486
45	0xbf0c4264	-0.54788804
46	0x3e52dfa7	0.20593129
47	0xbe233e92	-0.15941837
48	0xbef3d15f	-0.47620675
49	0xbea8a429	-0.32937744
50	0x3e8ebb14	0.27877104
51	0xbe84e89b	-0.25958714
52	0xbea75d70	-0.32688475
53	0xbf0edfc8	-0.55810213
54	0xbd4836d1	-0.048880402
55	0x3e59c777	0.21267496
56	0xbded735f	-0.11594271
57	0xbececfb1	-0.4039283
58	0xbe689f45	-0.22717007
59	0x3dcec9c7	0.1009708
60	0xbcec3f11	-0.028838666
61	0x3ecd35b9	0.4008005
62	0x3d8f3fe8	0.06994611
63	0x3d29fdc6	0.041501783
64	0x3ea2a87d	0.3176917
65	0xbd4de560	-0.050267577
66	0xbe98021b	-0.29689106
67	0x3f045481	0.5169144
68	0x3d55469d	0.052069295
69	0x3ce89963	0.028393453
70	0x3c8f27bb	0.017475
71	0x3f02926c	0.5100467
72	0x3e18076d	0.14846583
73	0x3d5b6b7a	0.053569295
74	0x3c8e3701	0.017360212
75	0xbdc128f2	-0.09431638
76	0x3cf3d16b	0.029762944
77	0x3e05caa4	0.13065583
78	0xbe809cfd	-0.25119773
79	0xbe82f3aa	-0.25576526
80	0xbe0e62d3	-0.13904886
81	0xbd8ecd26	-0.06972723
82	0xbb7ed469	-0.003888393
83	0x3e565ece	0.20934603
84	0x3e284597	0.16432796
85	0xbdf94820	-0.1217196
86	0xbc44e490	-0.012017384
87	0x3d959d10	0.07305348
88	0xbe84ba89	-0.25923565
89	0x3dc47881	0.09593297
90	0x3e6b6cda	0.22990742
91	0xbf0ad420	-0.5422993
92	0xbee8c0df	-0.4545965
93	0xbde49ee7	-0.11163121
94	0xbf0593fe	-0.52178943
95	0xbed6e206	-0.41969317
96	0x3e30c09f	0.17260979
97	0xbe9c84c4	-0.30570042
98	0xbeedabcc	-0.46420133
99	0x3e1dde73	0.15416889
100	0xbed52a6b	-0.41633925
101	0xbf18b24d	-0.59647065
102	0x3da67e81	0.081295975
103	0xbf1a4590	-0.60262394
104	0xbdb29aca	-0.0872093
105	0x3f16cc9e	0.5890597
106	0x3dee49e5	0.11635188
107	0xbe934e1d	-0.28770533
108	0x3e531a06	0.20615396
109	0x3d5bdef0	0.053679407
110	0xbe51f2b4	-0.2050274
111	0x3e52c267	0.20581971
112	0xbb3b42b5	-0.0028573696
113	0xbebbd47b	-0.36685547
114	0xbe038861	-0.12844993
115	0xbdb56e18	-0.08858889
116	0x3d8f4a8b	0.0699664
117	0x3e2cbbd4	0.16868526
118	0xbe20c5f6	-0.15700516
119	0xbd6dce39	-0.058057997
120	0xbd0571d9	-0.032579277
121	0x3e58a0d2	0.21155098
122	0xbe4d5f50	-0.2005589
123	0x3e353c3e	0.17698762
124	0x3dd1119f	0.10208439
125	0xbe909180	-0.28236008
126	0xbe98109c	-0.29700172
127	0x3e970a9e	0.29500288
128	0x3d597c18	0.05309686
129	0x3d98f6ed	0.07468972
130	0xbed2e231	-0.41188195
131	0x3e59fd1b	0.21287958
132	0xbe97cf01	-0.2965012
133	0xbe32b47d	-0.17451663
134	0xbe28c74a	-0.16482273
135	0xbf1feb82	-0.6246873
136	0x3cf0082a	0.029300768
137	0xbf4d393d	-0.80165464
138	0xbecc3e32	-0.398912
139	0xbdae8703	-0.08521845
140	0xbe2107a1	-0.15725566
141	0xbbf071f7	-0.0073378044
142	0x3ccf4e14	0.025305785
143	0xbeaa1567	-0.33219454
144	0xbee11168	-0.43958592
145	0x3d8b5092	0.06802477
146	0xbe05068c	-0.12990779
147	0xbe185f51	-0.1488011
148	0x3c8b0629	0.01697071
149	0xbd80f503	-0.06296732
