submit_entry/checkpoints/Combined_edgcn_12s_slice/PRA/4/best.pth (torch_old, 216618 bytes, 27 tensors)

conv_time.weight f4 [45, 1, 10]
000000 3c f4 8a 3d 29 e5 20 3b b0 03 02 3b f0 8e 03 bc
       0.06784865 0.0024550653 0.0019838624 -0.008029684
000010 4a 20 97 3c 77 86 8d 3d d5 30 1f bd 01 7b 88 bd
       0.018448014 0.06910413 -0.03886493 -0.06664086
000020 40 aa 83 bd 5b 80 80 bc ca 68 5c 3d 3f 20 e2 3c
       -0.06428957 -0.015686205 0.053810872 0.027603267
000030 fd c2 a1 3d 0a 31 65 3c d3 67 06 bc 8b 73 1b bc
       0.07898519 0.013988743 -0.008203465 -0.009487997
000040 08 81 67 bc 77 66 63 3d dd f0 db 3c 2e c3 c6 b9
       -0.014129885 0.05551764 0.026848251 -0.00037910923
000050 19 1e 84 3c 3d 48 b9 3d 03 61 a8 bc 1d a5 0a bd
       0.016127633 0.090469815 -0.020554071 -0.03384887
000060 57 d4 33 bd 11 93 91 3d 3b 3f 35 3d 33 d0 bb bd
       -0.043903675 0.07108129 0.044249754 -0.0917057
000070 0a 9b 9f bd 71 ce 4a bd 22 23 90 bd 36 80 e9 3d
       -0.07793243 -0.049513284 -0.07037951 0.114014074
000080 4d 47 ec bb 37 6e bd 3b 3c 93 17 bd 07 fd 33 bb
       -0.007210648 0.005780961 -0.037005648 -0.0027464048
000090 69 ce 86 bc 5f 5b dd 3d 3e 82 ee 3d 35 3e 4c 3d
       -0.016455846 0.10808443 0.116459355 0.049864013
0000a0 73 0e a6 3d e2 eb e1 3d 6f 02 52 3d 70 af 9c 3d
       0.08108225 0.11031319 0.051271852 0.076506495
0000b0 63 c3 b7 bd b4 21 a3 bd c7 f1 c9 3a 44 e2 74 bd
       -0.08972814 -0.07965413 0.0015407138 -0.059786096
0000c0 c8 bc 6d 37 64 99 92 bd 21 9e 28 3d 71 45 cd bd
       1.4170255e-05 -0.07158163 0.04116643 -0.100230105
0000d0 65 b6 fa bd 2b ac b1 bd dd b3 59 3d dd 9c f0 3d
       -0.1224182 -0.086754166 0.053150047 0.11748669
0000e0 49 e4 23 3d e0 ec 28 bd 97 1c 41 3d 22 6e 02 bd
       0.04001263 -0.041241527 0.047146406 -0.031843312
0000f0 ee 22 a2 3d 22 3a 83 3c 4a 6f 90 3d d3 28 b5 3d
       0.079168186 0.01601893 0.07052477 0.08845677
000100 42 e8 26 bd fe 56 e6 3c c5 28 c6 3d 3a 6c 92 3d
       -0.040748842 0.028117653 0.09675745 0.07149549
000110 83 59 67 3d 86 16 d7 bc 28 48 d9 3c 49 38 44 bd
       0.05648185 -0.026255857 0.026523665 -0.04790524
000120 fc 39 8b 3d c4 07 14 bd 11 0f 6c bd 49 6c 8b bb
       0.06798169 -0.03614022 -0.057631556 -0.004254852
000130 d3 c1 5d bd 78 68 b8 3d c6 3a a0 bd 7f 67 83 3d
       -0.054139923 0.09004301 -0.0782371 0.06416225
000140 b0 49 d4 3d 22 da 38 3d 62 2e 5f bd 78 70 ad 3d
       0.10365617 0.045129903 -0.054487593 0.08468717
000150 dd be b2 bc 21 80 c5 3c f0 0b 9f 3d 29 da 1e bb
       -0.021819526 0.024108948 0.07765949 -0.002423892
000160 67 81 ba bb 37 30 ee bd af 59 d5 bd 5d 5d 0a bd
       -0.0056916955 -0.1163029 -0.104174964 -0.033780444
000170 42 5c 58 bc 63 02 20 bd 20 f8 da bd 4b 39 8f bd
       -0.01320559 -0.039064776 -0.10691857 -0.0699335
000180 2c 51 91 bd fa 20 0e 3e f0 ac 14 3d 88 5c a0 bc
       -0.070955604 0.13879767 0.03629774 -0.019575372
000190 21 25 e9 3d fe 04 04 3e bd c0 05 bb 56 6d 84 3d
       0.11384035 0.1289253 -0.002040907 0.06466167
0001a0 44 c9 34 bd 7f 69 79 3d d2 d9 b9 bd 1a 7a c1 3d
       -0.044137254 0.060891625 -0.09074749 0.09447117
0001b0 cb 98 bd 3c 11 67 11 bd 5b d8 fa 3c df 54 13 bd
       0.023144146 -0.035498682 0.030620744 -0.03596961
0001c0 84 f6 69 3d bb 1d 97 bb b1 7e 3d bd 8c d0 fd bd
       0.05711986 -0.0046116984 -0.0462634 -0.12393293
0001d0 d0 13 b2 3c 14 51 a0 bd 2c ed 4f 3d f1 98 3a bd
       0.021737963 -0.078279644 0.050763294 -0.045556013
0001e0 ec 02 c3 bc 12 d0 a0 bd d8 f4 8f 3d 6b 49 03 3d
       -0.023805104 -0.07852186 0.07029122 0.03205244
0001f0 64 8c d9 3d 72 14 c2 3c 38 a7 39 bd 48 b7 00 3d
       0.106224805 0.02369139 -0.045325488 0.03142479
000200 b4 d5 5d 3d 52 b9 06 3d e1 25 19 3d 4b 65 b7 bb
       0.05415888 0.03289158 0.03738964 -0.005596792
000210 51 62 0f be f2 5c 6d 3c e6 30 b8 3d 3d 1b 73 3a
       -0.14002348 0.014487492 0.08993702 0.0009273773
000220 1e b7 c9 3c df 55 c5 bd 02 2f 63 3d 12 84 eb 3d
       0.02462345 -0.09635519 0.055464752 0.114998
000230 6f d6 bc bc ba da 1c 3e a0 b4 11 3d 41 7c dd 3d
       -0.023051469 0.15317813 0.035572648 0.10814715
000240 10 fc 93 bd c2 49 84 bd 0d 20 6a 3d 37 c5 1a bd
       -0.072258115 -0.06459381 0.057159472 -0.037785735
000250 e6 6c b2 ba 11 c9 c9 3c 67 c6 c8 3d 33 bf 50 bd
       -0.0013612777 0.024632009 0.09803467 -0.05096359
000260 7e 38 4b bc 5d 52 94 3d 43 bc 05 bc 28 7c 58 3c
       -0.0124036055 0.07242272 -0.008162561 0.013213195
000270 47 17 a2 bd fb b6 4e bd 4b fc 74 bd db 81 1f 3d
       -0.07914596 -0.050467473 -0.059810918 0.0389422
000280 66 d7 94 bc 92 91 14 3e 4e 6e b3 3d ba 83 37 bd
       -0.018169116 0.14508656 0.08761273 -0.04480336
000290 ac 9b 1c 3e 7c 14 08 3d 8f 41 b7 3d 5f a3 90 bd
       0.15293759 0.03322266 0.08948051 -0.070624106
0002a0 22 d8 83 3d 5f 49 29 3d 1b 59 f5 3c ef 2a ba bd
       0.064377084 0.041329738 0.029949715 -0.0909022
0002b0 60 a9 9b 3c d1 cd 60 3d a0 c3 08 bd a5 98 93 3d
       0.019001663 0.05488378 -0.033389688 0.07206849
0002c0 53 c8 d4 bd 12 b3 b6 bd cb 19 8e 3d ec 5e bd 3d
       -0.10389771 -0.08920874 0.06938513 0.092466205
0002d0 77 81 87 3d c3 a1 91 bd 81 c1 a9 3d 4a 88 98 bb
       0.0661649 -0.07110932 0.08288861 -0.004654919
0002e0 d1 27 5d bd 0b 88 e9 bd c1 95 2f 3d ed b4 29 3c
       -0.05399305 -0.11402901 0.042867426 0.0103580775
0002f0 80 c2 ba bd 52 f1 e7 3d 99 ff 98 bd 08 0f d9 bb
       -0.09119129 0.11325325 -0.074706264 -0.0066241063
000300 44 df 22 bd 26 9d 1b 3d 56 23 e0 3d 97 44 ba bd
       -0.039763704 0.037991665 0.1094424 -0.09095114
000310 2d ce f3 bc 2a a3 b7 bd b5 6f 02 3e 9d 22 ba 3c
       -0.029761398 -0.08966668 0.12737925 0.022721583
000320 98 69 aa bd be 44 2c 3d ba c7 44 3b 77 35 f8 3c
       -0.08320922 0.042057745 0.0030026273 0.030298932
000330 1b d3 42 bd 73 9c a2 3d 39 ed c8 bc 33 e8 2c bd
       -0.047564607 0.079399966 -0.02452718 -0.04221363
000340 4b e0 b1 3d f5 11 5b 3d 87 dc 73 3d f0 0d 1d 3d
       0.086853586 0.053483922 0.059536483 0.03834337
000350 19 7d b7 39 31 22 5b 3d 31 d6 8a bd 30 40 22 3d
       0.00034997685 0.053499404 -0.06779135 0.039611995
000360 33 29 20 bd d7 eb 92 bd f4 3d e1 bd a2 2c 54 3d
       -0.03910179 -0.07173889 -0.10998145 0.051800378
000370 e2 9a 02 3d be bd de bd 1a 0e de 3d b2 14 08 bc
       0.03188599 -0.10876034 0.108425334 -0.008305715
000380 b5 83 f8 bb f0 e5 fe bd 2f 10 b8 3d 9d dc 47 bd
       -0.00758406 -0.12446201 0.08987462 -0.048794378
000390 48 c8 2d bc cf 59 cc bc 71 50 9c bd 3c 3c 9b 3d
       -0.010606833 -0.024945168 -0.076325305 0.07579848
0003a0 ee 71 c7 bd 83 dd d7 3d bc ad 63 3c b3 25 ec bc
       -0.09738527 0.10540297 0.013896402 -0.02882657
0003b0 9c 4c 15 3d 62 04 9a bd 03 64 65 3d 3e 84 68 bd
       0.036450014 -0.07520367 0.05600358 -0.05676674
0003c0 c3 68 c8 3d cb 7b b0 3d 77 34 b7 3d 10 94 6f bc
       0.09785607 0.08617362 0.08945554 -0.014622703
0003d0 64 28 7c 3d 8b 50 bf bd 8f 66 f6 bc ba 32 f6 bd
       0.061561957 -0.09341534 -0.0300782 -0.12021394
0003e0 49 15 40 3d 23 be ea bd ec 93 14 bd 4a a6 2e bd
       0.0468953 -0.11462047 -0.03627388 -0.042639054
0003f0 5e 32 c4 bd 50 a2 a6 bd a0 a9 e1 bc 33 22 da 3c
       -0.09579919 -0.081364274 -0.027546704 0.026627636

conv_time.bias f4 [45]
000000 52 d3 4d 3a 74 01 2c bc 56 ef de ba f9 34 38 3b
       0.00078516186 -0.010498393 -0.0017008584 0.0028107746
000010 f9 ac 85 3c a5 27 e9 3a 22 ea 87 bb 2e 41 eb bb
       0.016317831 0.0017788304 -0.004147784 -0.007179401
000020 34 5f 2e 3a ee a6 c3 bb 42 83 e7 3b cd 1e 14 3c
       0.00066517596 -0.0059708273 0.0070652077 0.009040547
000030 4f b4 89 3a 77 a8 b7 bb 12 e0 aa bb 23 a4 01 bc
       0.0010506007 -0.0056047994 -0.0052146995 -0.007912668
000040 49 73 b4 3c eb 58 ba 3a 66 67 4c b9 ce fe 56 bb
       0.022027628 0.0014217173 -0.00019493475 -0.0032805684
000050 d5 a1 bc ba 7f db 29 bc 17 ce 06 bc 64 2c a5 3b
       -0.0014391491 -0.010367273 -0.008227847 0.005040692
000060 6c 51 85 3a 2b 32 bf 3a 2b 85 58 bc b4 74 4c 3b
       0.001017136 0.0014587095 -0.0132153435 0.003119749
000070 79 26 2a bc 92 0d 15 bc 91 c0 cf 38 e1 8e b9 37
       -0.010385149 -0.009097474 9.9063975e-05 2.2120252e-05
000080 2c 53 b2 38 69 9f 41 b9 d4 7e 51 3b 59 b3 a1 b9
       8.5031934e-05 -0.00018465299 0.0031966465 -0.00030841937
000090 75 a4 63 ba 13 75 4b 39 92 86 c8 ba 37 09 4d ba
       -0.0008683869 0.00019403202 -0.0015298894 -0.00078215025
0000a0 a3 5f da b9 9a f3 3e 3a a0 27 1d 39 be 84 87 3a
       -0.00041651455 0.0007284224 0.00014987448 0.0010339243
0000b0 b8 ae 29 3a
       0.00064728735

bnorm.weight f4 [45]
000000 6f 51 80 3f eb 35 7c 3f da 17 82 3f 57 56 7e 3f
       1.0024852 0.9851977 1.0163529 0.99350494
000010 ae db 85 3f 01 13 81 3f 6a 23 7c 3f 04 fc 7a 3f
       1.0457666 1.0083925 0.9849154 0.98040795
000020 f0 1e 7d 3f 6c a1 81 3f 19 f6 7f 3f 3c 6c 7f 3f
       0.9887533 1.0127387 0.9998489 0.9977453
000030 84 ca 7d 3f c3 65 7e 3f ef 0e 7c 3f a2 de 7e 3f
       0.9913714 0.99374026 0.98460287 0.9955846
000040 71 35 81 3f 47 ac 81 3f e9 c3 79 3f 98 e9 7d 3f
       1.0094434 1.01307 0.9756456 0.9918456
000050 5b 00 82 3f 25 bd 7c 3f 63 b4 7d 3f 84 a5 7d 3f
       1.0156358 0.9872611 0.99103373 0.9908068
000060 b0 84 82 3f 89 15 7c 3f 3e 28 81 3f 3e 9f 81 3f
       1.0196743 0.9847036 1.0090406 1.0126722
000070 dc 6e 7d 3f 3e 4d 81 3f 4d de 80 3f 48 66 7d 3f
       0.98997283 1.0101697 1.0067841 0.98984194
000080 d5 0f 7d 3f 12 e0 80 3f c0 15 83 3f 66 67 7c 3f
       0.9885228 1.0068381 1.0241013 0.98595273
000090 90 69 80 3f 1d 10 80 3f 52 b9 7d 3f 18 f2 7a 3f
       1.0032215 1.0004917 0.991109 0.98025656
0000a0 57 96 7e 3f e0 e6 7f 3f ce 30 7f 3f b6 e0 7d 3f
       0.9944815 0.9996166 0.99683845 0.99171007
0000b0 ee 87 7e 3f
       0.9942616

bnorm.bias f4 [45]
000000 74 8b 15 bc 2a a1 77 bc f2 f5 0d bc 00 09 6a bb
       -0.0091274865 -0.015114108 -0.008664595 -0.003571093
000010 49 ed 2f 3d ca 6f 32 bb dd 49 a0 bc 73 cf bd bc
       0.042950902 -0.0027227276 -0.01956647 -0.023170209
000020 8d db e6 bc 42 07 13 3c a4 f7 ef bb 84 7a ce bb
       -0.028180862 0.008973898 -0.0073232222 -0.006301226
000030 92 ff 09 bc 28 82 4f 3b 01 6f 97 bc 52 82 d7 3c
       -0.008422749 0.0031663273 -0.018485548 0.026307259
000040 75 29 2c bc 10 29 3c bc 16 e2 8f 3c 38 ce b7 3c
       -0.010507931 -0.011484399 0.01756386 0.0224372
000050 5d 61 42 3c b3 1b 9a bb a4 af dd 3b 1f 46 1f 3d
       0.0118640335 -0.004703009 0.0067653228 0.038885232
000060 0f 99 0f 3b 61 60 e2 3c 51 39 a3 3c 1e 10 a7 bc
       0.0021911298 0.027633848 0.019924792 -0.020393427
000070 48 68 c9 bb 98 7a 4c bd 34 05 97 3b de 24 ad bb
       -0.0061464645 -0.049921602 0.0046087746 -0.005283936
000080 fe 1c ae b9 8a 67 a5 bb 78 11 99 3c 41 ef d2 bb
       -0.00033209467 -0.005047743 0.018685088 -0.0064372127
000090 b6 36 81 3c cb e3 4c bc 9b 02 e2 bc bf 4c e3 bc
       0.015773159 -0.012505482 -0.027589133 -0.027746556
0000a0 67 d5 d8 bc 6b 9f 52 3b 45 c9 ce 3b aa d6 94 bc
       -0.026468946 0.0032138478 0.0063106143 -0.018168766
0000b0 ca d4 52 3b
       0.003217029

bnorm.running_mean f4 [45]
000000 71 3e dd bc c4 df 3b 3e b0 35 b5 bd 2e 7f 67 3e
       -0.027007313 0.18347079 -0.08848131 0.22607109
000010 0f fd 08 3d 9c 9e 91 bd d0 db c0 3e 46 39 0b bd
       0.03344446 -0.071103305 0.37667704 -0.033990167
000020 05 ae e6 3d 49 1d 80 be c6 2b 8f 3e 27 24 12 be
       0.1126366 -0.25022343 0.27963084 -0.14271604
000030 c1 7c 34 3e 5e 91 a0 3d b2 36 19 3e de 9a 1c bc
       0.17625715 0.078402266 0.14962271 -0.009558408
000040 46 5a 28 3d a1 ae 06 3b f2 b2 9b ba a0 e2 98 bb
       0.041101716 0.0020550864 -0.0011878891 -0.0046656877
000050 bc 6e 2e 3b cb 42 49 bc 6a bb 49 bc 2c 1d 57 3b
       0.0026616296 -0.012283991 -0.012312749 0.0032823784
000060 82 d9 a5 3a 86 30 00 bc 64 8e 4e bc 74 91 0f 3c
       0.0012653323 -0.007824069 -0.012607191 0.008762706
000070 57 9c 4f bc 40 77 97 3b ea f0 e7 3f a4 db 08 c1
       -0.012671552 0.00462237 1.8120396 -8.553623
000080 47 23 d3 c0 8c f9 f1 40 60 45 48 3f ad 78 18 c1
       -6.5980563 7.5617123 0.7823086 -9.529462
000090 f1 80 c4 3f f1 dc 78 41 6f 03 35 c0 de c1 3f c0
       1.535185 15.553941 -2.8283346 -2.9962077
0000a0 c2 6e f3 3f 91 44 3e 40 9b a2 83 41 b3 56 3b c0
       1.9018176 2.972935 16.454397 -2.9271667
0000b0 ce 35 c1 c0
       -6.037818

bnorm.running_var f4 [45]
000000 16 ea f2 3a 8c 60 96 3d 46 9e 74 3c 04 fc c7 3d
       0.0018532898 0.073426336 0.014930313 0.09764865
000010 aa cc ed 3a 71 18 2e 3c 37 08 91 3e 74 3e bd 3a
       0.001814266 0.0106259445 0.2832658 0.0014438168
000020 08 cf cd 3c 7c eb ef 3d 9f dd 14 3e 2c b8 39 3d
       0.025123134 0.11714837 0.14537667 0.045341656
000030 ac d7 76 3d a2 74 63 3c 36 28 40 3d e9 e5 7b 39
       0.060264274 0.013882788 0.04691335 0.00024022874
000040 06 cf 05 3d 7b 66 d9 38 30 89 23 38 7a c4 46 39
       0.032668136 0.00010366455 3.8989994e-05 0.00018955945
000050 d4 2a 9d 3a 8a 23 a1 39 72 58 be 3a 56 ff 9b 39
       0.0011990913 0.00030734792 0.0014522208 0.00029754144
000060 58 d5 b6 38 43 00 f7 3b 4a 84 89 37 69 66 0d 3b
       8.718175e-05 0.007537873 1.6393275e-05 0.0021575934
000070 c2 1b 0f 3a 53 11 8a 3c 88 23 ce 40 5b 50 05 43
       0.00054591533 0.016853964 6.4418373 133.31389
000080 80 d2 9e 42 9f f4 d0 42 7c 3c ba 3f 37 c2 25 43
       79.41113 104.477776 1.4549708 165.75865
000090 a0 37 ac 40 ca ea dc 43 ab d0 67 41 b3 c8 85 41
       5.38179 441.8343 14.488444 16.722998
0000a0 27 f3 da 40 66 f9 86 41 d0 23 f7 43 55 82 79 41
       6.8421817 16.871777 494.2798 15.594319
0000b0 c1 55 85 42
       66.66749

block2.conv_2.weight f4 [45, 15, 10]
000000 9f d4 df 3d ea d6 e9 3c c0 b7 c6 3d b3 bb a9 3d
       0.10929226 0.028544862 0.09703016 0.08287754
000010 4e d5 64 bc d6 c8 89 3d 75 b8 c2 3d 41 c6 44 bd
       -0.013966871 0.067277595 0.09507839 -0.048040632
000020 d1 b8 73 3d 0b 96 c6 3d 36 aa 9c bd 94 e2 d1 ba
       0.059502427 0.09696587 -0.07649653 -0.001601296
000030 e9 cc 94 3d 9a 02 d5 3d 26 53 3c bc 10 a0 6f bd
       0.07265646 0.10400887 -0.0114944335 -0.058502257
000040 2e 82 81 bc 19 11 4a bd 7d 67 07 3d 35 03 78 bd
       -0.015809145 -0.04933271 0.03305768 -0.060549933
000050 70 54 35 3d 15 a2 a3 3d 39 6d c5 3d 30 bf dc 3d
       0.04426998 0.07989899 0.09639973 0.107786536
000060 58 61 1b 3d 1b c2 06 3d fb 10 96 3d 78 83 3f bd
       0.03793463 0.032899957 0.073274575 -0.046756238
000070 67 2c aa 3d 2d 24 59 3d 6c 72 49 3d 58 ed a6 bd
       0.0830925 0.053013016 0.049181387 -0.081507385
000080 6e 38 4e 3d 96 b2 45 3d 44 a5 8c 3d 21 b8 94 3c
       0.050346784 0.048266016 0.068674594 0.018154206
000090 da 8a 20 bd dd f1 62 3c 2e 96 8a 3d bb bc d4 3d
       -0.03919492 0.01385161 0.06766926 0.1038756
0000a0 84 90 8c bb 4c 31 44 bd 0c 8d 76 bc a4 9c 22 3d
       -0.0042896885 -0.047898576 -0.015048277 0.039700165
0000b0 0d ee 95 bd b7 fd c6 3d 22 9d c9 bc 65 aa a7 bd
       -0.07320795 0.09716361 -0.02461106 -0.08186797
0000c0 97 96 cc 3c 83 f6 99 bd e2 90 4f 3d 41 45 07 bd
       0.02497415 -0.075177215 0.05067528 -0.03302503
0000d0 97 b8 4b 3d bf ed 8a 3d 52 d7 97 bd d5 34 93 bd
       0.049736585 0.06783628 -0.07414116 -0.07187811
0000e0 23 28 9e 3c 4c ad ee 3d c3 8e 1b bd d7 b0 7b 3d
       0.019306248 0.116541475 -0.037977945 0.061447944
0000f0 8c 43 a5 39 a4 bc 2e bd 0a 0a 50 bd 04 27 10 3c
       0.0003152158 -0.04266037 -0.050790824 0.008798365
000100 50 82 94 bd b2 0e 88 bd a7 2e de 3d 3e 7d 14 bd
       -0.07251418 -0.06643428 0.10848742 -0.036252253
000110 01 0c 75 3d 0f c6 09 bd be 9b ee bc 26 e1 2a 3d
       0.0598259 -0.03363615 -0.029126998 0.041718625
000120 69 9c c9 3d fc a5 b3 3d f3 4d a1 bd 71 d6 2e 3d
       0.09844286 0.087718934 -0.07876196 0.042684976
000130 f4 12 29 3d 33 25 1f 3d d3 19 06 3d 19 8a da 3d
       0.04127784 0.038853835 0.03273947 0.10670871
000140 00 05 de 3d e2 82 66 bd 76 45 39 bc 70 d2 69 3d
       0.108407974 -0.056277163 -0.011308065 0.057085454
000150 07 8f a2 bd 5a c3 11 3d 91 c2 a7 bd b5 f5 09 3d
       -0.079374366 0.035586692 -0.081914075 0.03368159
000160 34 fa ae bc dd 58 49 bd c6 82 03 bd 7c a5 ae 3c
       -0.02135954 -0.049157012 -0.032107137 0.021319143
000170 0b ba a6 3d f7 85 1a 3c 63 8d 4b 3d e5 61 1c bd
       0.08140954 0.009431354 0.049695384 -0.038179297
000180 4e f6 76 bd be 1f 0d 3a e0 5a 67 3d f4 d3 c6 bc
       -0.06029349 0.0005383453 0.05648315 -0.024270989
000190 84 52 bc 3d 03 fa fc 3c cb ac 6b 3d ab f0 06 bd
       0.09195426 0.030880934 0.057537835 -0.032944363
0001a0 8a 64 b2 bc cc 5e 94 3d cb 9e a9 3d fc d4 82 bd
       -0.021776456 0.072446436 0.082822405 -0.0638828
0001b0 ac 7b e1 bb cc e0 5a bd ee 74 b3 bd cb 7f 8c bd
       -0.006881198 -0.05343704 -0.08762537 -0.06860312
0001c0 7a 75 a9 bd 5c e9 11 bc 06 f4 8c 3d cc 66 90 bd
       -0.0827436 -0.008905735 0.06882481 -0.07050857
0001d0 79 a3 ba 3d 3d cf 0a bd ab 0c 3d bd 87 8b c6 bb
       0.09113211 -0.033889044 -0.04615466 -0.0060591134
0001e0 82 c8 cd 3d 80 73 96 3c fb 5c ff bc 13 62 a4 3d
       0.100480095 0.018365622 -0.031172266 0.08026519
0001f0 cd 1c 1b 3d 8a 08 d9 bc 1b 74 2a bd b4 1a b2 3d
       0.037869263 -0.02649333 -0.041614633 0.086964995
000200 12 e8 b7 3d 8a b4 15 bd 3c f7 e1 3d f2 7a 83 bd
       0.08979811 -0.03654913 0.11033484 -0.06419934
000210 0f 7e c5 3d 96 8c da bc 4f e8 7f 3d fe 05 6a bd
       0.096431844 -0.026678365 0.062477406 -0.05713462
000220 13 34 88 bd c3 79 fa bc 92 25 c8 3d 71 c0 3a 3b
       -0.06650557 -0.030575639 0.09772791 0.0028496052
000230 ec 8a 72 bd 2f 12 6c bd 08 dc af bc 59 08 e4 3d
       -0.059214517 -0.05763453 -0.021467224 0.11134405
000240 48 74 cb 3c ef 8e 75 b9 ee 08 6d 3d f5 21 8f bd
       0.02483572 -0.00023418268 0.057869844 -0.06988899
000250 c3 12 0d bd ad 86 bb 3a cd 6f c0 bc b2 ad f8 3d
       -0.03444172 0.0014307104 -0.02349081 0.12142505
000260 e0 1c eb 3c e8 b5 b2 bb f3 1e 1b bd ac b2 42 3d
       0.028700292 -0.005453814 -0.037871312 0.047533676
000270 6e c1 a1 bd 0e a0 45 3d 0e a6 27 3d 5d c6 22 bc
       -0.07898222 0.048248343 0.040929846 -0.009934989
000280 87 03 69 3d 1a 5d b8 bd be 9c 2f bd 4a de b0 3c
       0.05688813 -0.09002133 -0.04287409 0.02159037
000290 48 b8 db bc 27 86 4e bc 75 12 ee 3b a6 8e 6c 3d
       -0.02682127 -0.012605227 0.007265384 0.057753228
0002a0 91 7d ad 3d 2e a4 59 bd c8 bf 7b bd d5 cc 3d 3d
       0.084712155 -0.05313509 -0.061462194 0.04633792
0002b0 70 98 7e 3d 2a 94 c0 ba 0e c7 c6 3b e6 ca c3 3c
       0.062157094 -0.0014692594 0.0060662096 0.02390046
0002c0 d0 66 30 bd 7b e1 94 bd cd ff 27 3c 1e b0 24 3c
       -0.0430668 -0.072695695 0.010253859 0.010051755
0002d0 1f 0f c4 bd 86 86 39 3d 65 a0 7a bd 51 a8 cb bd
       -0.095731966 0.045294307 -0.06118812 -0.09944213
0002e0 5e 6f 07 3d 1d c3 a9 3d 9e 98 93 3d 28 b3 e9 3c
       0.033065192 0.08289168 0.07206844 0.028527811
0002f0 7b 5c 87 3a 57 06 7d bc c6 09 be bb 88 5c 68 bd
       0.0010327244 -0.015443406 -0.005799505 -0.05672887
000300 87 c7 12 3d a9 b8 52 3d 44 b0 e9 3b 75 56 88 3b
       0.035834815 0.051445637 0.007131608 0.004160697
000310 6d 65 56 3c 7e f0 b1 bd d2 1c b6 3c fc c0 a3 3d
       0.013085705 -0.08688448 0.02223054 0.07995793
000320 5b df 7c bd 9d b2 96 3b 42 3b 8a 3d 7a 34 da 3d
       -0.061736446 0.004598929 0.06749584 0.1065454
000330 da bf c0 3d 40 62 7a 3d 14 80 81 3d c9 2d bd 3d
       0.09411593 0.061128855 0.06323257 0.092372485
000340 56 b5 d6 bd ba fa 32 bd 2c da 81 3d 84 07 71 bd
       -0.10483806 -0.043696143 0.06340441 -0.058845058
000350 22 be c4 bd cc 14 14 3d 08 87 36 bd 1d 4e 9a 3c
       -0.096065775 0.036152646 -0.04456237 0.018836075
000360 30 be f1 3c 9b 41 87 3d 09 c2 f3 3c ab 4f 61 bc
       0.029509634 0.0660431 0.02975561 -0.0137519045
000370 b2 fd 43 3d 7e 1b 78 bd ec 9b 1c ba c2 41 48 bb
       0.047849365 -0.060573094 -0.0005974162 -0.0030556773
000380 b7 bb a7 3d 6a 3c 04 3d 16 36 b5 3d 5c 87 2d bd
       0.08190101 0.032284178 0.08848207 -0.042365417
000390 8a aa 92 bd a3 95 46 3c a1 6f ac bb 54 7a 87 bd
       -0.07161434 0.012120637 -0.0052623306 -0.06615129
0003a0 69 7e c3 bd 32 3a 82 3d c9 7b 8c bd fd 6e 6d 3d
       -0.09545595 0.06358756 -0.06859548 0.057967175
0003b0 45 81 9d bd 9d 75 f7 bb a1 cf 10 bc 11 69 e9 bc
       -0.07690672 -0.0075518624 -0.008838565 -0.028492482
0003c0 6d 53 cb 3d 8d b1 5b bc a2 81 9c 3d a6 ee 09 3d
       0.099280216 -0.013409031 0.07641913 0.03367486
0003d0 01 64 ce 3d 4d f8 af bd cb 16 1d 3d 11 40 ca bd
       0.10077668 -0.085922815 0.038351815 -0.09875501
0003e0 2f a7 33 bd d7 f9 23 bd de 06 b6 bd d7 d8 a4 bd
       -0.04386061 -0.040033188 -0.088880286 -0.080491714
0003f0 98 be e4 bb a7 1b 91 bd ed c4 c3 3d f4 13 35 bd
       -0.0069807284 -0.070853524 0.09559045 -0.044208482

block2.bnorm_2.weight f4 [45]
000000 01 94 81 3f 5c df 81 3f 61 97 85 3f dd 32 7c 3f
       1.0123292 1.0146289 1.0436822 0.9851511
000010 d2 fb 7d 3f 30 56 83 3f a8 e4 78 3f e1 52 83 3f
       0.9921237 1.0260677 0.972239 1.0259668
000020 98 e2 7d 3f ad df 77 3f f1 67 78 3f 1e 1d 7d 3f
       0.9917388 0.9682568 0.970336 0.98872554
000030 74 96 85 3f e5 90 77 3f ac 05 7c 3f d5 32 7f 3f
       1.043654 0.96705467 0.98446155 0.9968694
000040 c8 e6 7d 3f 12 45 82 3f 65 d2 80 3f e5 90 78 3f
       0.9918027 1.0177329 1.0064207 0.9709609
000050 28 5e 80 3f c7 0a 82 3f bb 32 7e 3f ba 18 7e 3f
       1.0028734 1.0159539 0.9929616 0.9925648
000060 f0 4b 82 3f 53 cd 7d 3f 2f a8 81 3f cb f7 7e 3f
       1.0179424 0.99141425 1.012945 0.9959685
000070 ec e7 7e 3f e1 40 80 3f 1f b6 7a 3f 88 81 82 3f
       0.99572635 1.00198 0.97934145 1.019578
000080 2e 38 7a 3f 48 d9 74 3f 55 14 7d 3f b0 75 85 3f
       0.97741973 0.95644045 0.9885915 1.042654
000090 8e d4 74 3f 98 97 8a 3f 2a 44 84 3f f1 f2 7a 3f
       0.9563683 1.0827513 1.0333302 0.9802695
0000a0 c3 65 7c 3f 8f 1b 80 3f 3a c0 80 3f 52 1e 7c 3f
       0.98592776 1.000841 1.0058663 0.98483765
0000b0 e4 43 7d 3f
       0.9893172

block2.bnorm_2.bias f4 [45]
000000 13 ad be bc 72 55 24 bd 46 58 79 3d b4 4e c8 bc
       -0.023275888 -0.04012055 0.0608752 -0.024451591
000010 b0 1d 11 bc 8d f6 c2 bc 59 d1 02 bd 2a 98 3f 3c
       -0.008857176 -0.023799205 -0.03193793 0.011693994
000020 e0 40 6a bc b5 ee d6 bc d6 31 5a bd 3c 74 96 bc
       -0.014297694 -0.026236871 -0.053270184 -0.018365972
000030 e0 a0 6d bc 93 a5 dc bc a6 70 4b bc 9b 7c 57 bd
       -0.014503688 -0.02693442 -0.012416994 -0.052609067
000040 00 3e ef ba 5e 92 0f bc 09 6d e0 3b 2a 24 f2 bc
       -0.001825273 -0.008762924 0.0068489355 -0.02955826
000050 4a de cf 3c e0 ef 59 3d 33 db 1a bd d4 60 0b 3d
       0.02537455 0.05320728 -0.0378067 0.03402789
000060 ef 79 c7 3c 51 ba 46 bd e2 74 65 3c 0a 30 29 3c
       0.024350135 -0.04851753 0.014004918 0.010326395
000070 23 a9 64 bb 73 a7 47 3d 93 0a 4f bd 40 39 81 3c
       -0.0034890852 0.048743676 -0.050547194 0.01577437
000080 5c 71 42 bc fd 38 15 bd 6c 91 25 bc fb 0a c8 bc
       -0.011867847 -0.0364313 -0.010105472 -0.024419298
000090 7d 1b 17 bd 12 23 5a 3d 96 f7 92 3c 56 d9 6c bb
       -0.03689145 0.053256102 0.017940324 -0.0036140285
0000a0 29 5e 75 bc 15 e6 1c bc 1e 2f e8 b9 3c 1d ca bc
       -0.014976063 -0.00957634 -0.00044285593 -0.024672143
0000b0 e6 26 bf bc
       -0.023333978

block2.bnorm_2.running_mean f4 [45]
000000 50 bb 19 3f 8b b2 67 3e 7b 28 88 be 72 9b 0c 3e
       0.6005144 0.22626702 -0.26593384 0.13731173
000010 65 ce 90 bd 61 b0 16 bf 87 39 3c be 37 29 01 bf
       -0.07070617 -0.5886288 -0.1838132 -0.50453514
000020 2b 9b 8c 3d e3 64 b7 bd 31 c7 fa 3e 77 53 dd 3e
       0.068655334 -0.089547895 0.48980096 0.4322774
000030 ce 3c 5c be 75 33 6b bf e9 42 c0 be 32 14 b9 3e
       -0.2150757 -0.9187539 -0.37551048 0.3614822
000040 f1 87 1e 3d bb 0d 2b bd bf b7 12 3e 0e cb 93 bd
       0.038703863 -0.04176114 0.14327906 -0.07216464
000050 a2 27 aa be 6b 59 80 be ff 2c a2 3e 68 c3 06 bc
       -0.33233362 -0.2506822 0.31674954 -0.008225299
000060 ab ba b4 bd 4e 15 99 3e 94 02 8f be 05 0b c4 3e
       -0.088246666 0.29899067 -0.27931654 0.38289657
000070 1c 76 6c 3e c2 11 b7 be f3 89 33 bf 55 eb 0d be
       0.2309193 -0.35755736 -0.7013237 -0.13859303
000080 57 ac a7 3e aa 41 90 3e 0e ca 32 3f 4d 70 aa 3d
       0.32748672 0.28175098 0.6983956 0.08322201
000090 ba af a3 be 71 01 9a be 4f 60 cd 3c b0 d9 e6 3d
       -0.31970006 -0.30079225 0.025070338 0.11271989
0000a0 f3 24 bf bc 3c 04 0a 3e ce df 7e bd 86 27 ef be
       -0.023333048 0.13478178 -0.062225156 -0.4670984
0000b0 3b 88 c9 3e
       0.39361748

block2.bnorm_2.running_var f4 [45]
000000 b1 28 8d 3e 6e dc 8f 3d 77 0e c9 3d 3e 49 a5 3f
       0.27570108 0.070244655 0.09817212 1.2912977
000010 79 05 1d 3e 1e 23 19 3e c0 d1 3c 3e c3 da 3c 3e
       0.15334119 0.14954802 0.18439388 0.18442826
000020 ef ad fe 3d b9 32 fa 3e 6d 37 96 3e 6d c0 5c 3e
       0.12435519 0.48866823 0.29339162 0.2155778
000030 be 1f 4a 3d 4b 92 70 40 82 c8 c4 3e e4 d2 59 3f
       0.049346678 3.758929 0.38434225 0.8508742
000040 7d eb 8a 3d d0 5e a3 3c d5 c7 ec 3e 74 70 2c 3f
       0.06783197 0.019942671 0.4624621 0.6735909
000050 9f 89 87 3f de 8d 77 3e 42 6f 2a 3f 72 c4 5f 3f
       1.0588874 0.24175212 0.66576016 0.87409127
000060 3e c0 12 3d ec 81 1c 3f 62 4c a8 3e b2 0d 9f 3f
       0.035827868 0.61135745 0.32870775 1.2426054
000070 91 cf b1 3f e4 f9 47 3f b9 37 01 3e f1 64 0a 3e
       1.3891469 0.7811568 0.12618913 0.13515069
000080 ec b0 52 3f 47 2c c5 3f 30 7a 12 40 df c4 4e 3d
       0.8230121 1.5404137 2.2887077 0.05048072
000090 58 34 8b 3e 3e bd df 3d e1 d2 d0 3d 20 f4 53 3e
       0.27188373 0.10924767 0.10196472 0.20698595
0000a0 b6 f7 58 3d ff 2d e5 3d 83 db 58 3e 89 0e 97 3f
       0.05297061 0.11190414 0.21177487 1.1801311
0000b0 88 0c 35 3e
       0.17680562

block3.conv_3.weight f4 [90, 15, 10]
000000 0d fe 30 bd d0 5b 06 3d ef 11 97 3c 0a 7e 8f bd
       -0.04321103 0.032802403 0.018441169 -0.07006462
000010 eb 88 51 3b e1 75 8d 3d 03 3b f1 3c ab 6c 28 3d
       0.0031972479 0.06907249 0.029447084 0.04111926
000020 74 b5 81 3c 1f d9 71 bd 55 4e 6a 3c 89 a9 83 bd
       0.015833594 -0.059044953 0.014300902 -0.06428821
000030 3d 1e 22 3b ed be 72 bd e1 8e 2b bd c9 c8 0b 3d
       0.0024737262 -0.059264112 -0.041884307 0.03412703
000040 05 4d 83 3c fa c2 6e 3c 25 4e 1b bc 27 bb 70 3d
       0.016027937 0.014572853 -0.00947908 0.058772232
000050 a5 d0 e7 bc 0f f3 91 bd c4 dd 8a bd 1f 6a a5 3d
       -0.028297732 -0.07126438 -0.0678058 0.080768816
000060 88 72 39 3d 2e 61 95 3d 60 89 6b bb 96 1f 33 bb
       0.04527524 0.07293926 -0.0035940036 -0.002733206
000070 4a 91 1c bd 46 c2 98 3d 86 3c 9d 3c 96 71 ec 3c
       -0.038224496 0.0745893 0.019193899 0.028862756
000080 07 a7 16 3d b7 4c 4a 3d 8f 14 0a bd 18 65 be bc
       0.036780383 0.049389567 -0.033711012 -0.023241565
000090 eb 4f b8 bc 91 54 31 bd 0d 53 71 bd 39 57 13 3c
       -0.022499045 -0.04329354 -0.058917094 0.0089929635
0000a0 88 d9 8a bc f7 da d1 3c 1e 7c 4b 3a c5 b3 46 bb
       -0.01694943 0.025617106 0.00077623304 -0.0030319553
0000b0 e9 46 35 3d 75 93 74 bd 42 11 d5 3c 34 56 55 bd
       0.04425708 -0.05971094 0.026009206 -0.052084163
0000c0 c7 60 5f 3c df 15 03 3d b8 0c 2e 3d 16 67 a6 bd
       0.013633913 0.03200328 0.0424926 -0.08125131
0000d0 eb 5b 39 3d a6 3b 25 bd 6e 14 b3 3d 41 5c 11 3d
       0.045253675 -0.04034009 0.08744131 0.03548837
0000e0 63 12 c5 3c db 8c 96 3c 82 e0 fc 3b f0 fc 20 3c
       0.024056619 0.018377712 0.007717193 0.00982593
0000f0 89 2b 0b 3d d4 40 38 bd cd 47 b0 bc 6f ad 93 bc
       0.033977065 -0.0449837 -0.021518612 -0.018027036
000100 51 3a 15 bd f0 ad 93 bd 48 55 37 3d 22 cc 11 bd
       -0.036432568 -0.0721091 0.044759065 -0.035595067
000110 81 01 19 3d a1 a4 0a 3d 2d 67 49 3c 94 57 f1 bc
       0.03735495 0.03384841 0.012292665 -0.029460706
000120 f5 ef bf 3c 49 e9 11 3d 57 a0 87 3d 55 f3 de bc
       0.02342985 0.03562287 0.06622379 -0.02721564
000130 99 e0 78 3b b6 27 d9 bd d3 e6 3d bd 27 c4 5e bd
       0.0037975668 -0.106032774 -0.04636271 -0.054386284
000140 a0 44 66 bc bb 78 36 bd de 20 42 bd 33 a0 77 bc
       -0.014054447 -0.04454873 -0.047394626 -0.015113878
000150 d2 5c 33 3d b0 1d 14 3d b4 12 86 3d 09 65 85 3c
       0.043789692 0.036161125 0.06546536 0.016283529
000160 90 fc 99 bd ff c6 89 3d a4 0a ff 3c ac bc b4 3b
       -0.075188756 0.067274086 0.031133004 0.0055156555
000170 e1 19 87 3d cd f6 06 3b 7c da ab bb a5 4e 04 3c
       0.06596733 0.0020593882 -0.005244551 0.008075391
000180 d8 13 7e bd 9d ad 96 3c 0c 21 9d bb dc b3 67 bd
       -0.062030643 0.018393332 -0.0047951993 -0.05656801
000190 74 54 d2 3c fb 6a 7d 3d b4 5b dc bc fb 99 42 3a
       0.025675036 0.061869603 -0.026899196 0.00074234576
0001a0 d2 37 2f bd f4 10 77 bc 94 60 54 bc 34 b1 4c bc
       -0.042777844 -0.0150797255 -0.012962479 -0.01249342
0001b0 cb fa 6d bd 6f a9 8a bd 2b b4 19 3d 37 a2 e0 3c
       -0.058100503 -0.06770598 0.037525337 0.0274211
0001c0 cb c3 91 bc 6e b2 d6 bc d3 76 40 bd 6a 27 31 3d
       -0.017793557 -0.026208129 -0.04698832 0.04325048
0001d0 12 89 42 bd 84 7f 83 bd 73 14 70 3d 5a 85 b0 bc
       -0.047494 -0.06420806 0.058613252 -0.021547962
0001e0 11 f8 87 3d 4e d4 51 bd 9e 70 90 bd 04 6d 9b bd
       0.06639112 -0.05122786 -0.0705273 -0.075891525
0001f0 1d 89 30 bd e0 e0 65 bd ba 41 57 3c b3 c8 5c 3d
       -0.04309951 -0.05612266 0.013138229 0.05390234
000200 6a 99 8c bd 40 8a d9 b9 2d e8 69 3d 30 14 00 3d
       -0.06865199 -0.0004149247 0.057106186 0.031269252
000210 32 d0 70 3b 1a 61 dd bb 1e 66 8c bd 7d 75 70 bd
       0.0036745188 -0.00675596 -0.06855415 -0.058705796
000220 ff 96 95 bd 83 39 6d 3d 86 9c 08 3b 49 06 02 3b
       -0.07304191 0.057916176 0.0020845248 0.0019840172
000230 e4 5f 06 3d bc 91 18 bc af 2a 31 bc c7 24 04 3d
       0.032806292 -0.0093120895 -0.010813399 0.032261636
000240 23 7a 7a bc f2 49 64 3d da cf 94 bc 15 b6 89 3c
       -0.015287909 0.055734582 -0.018165518 0.016810456
000250 bb 09 b5 3c b5 15 92 bc c8 23 a7 3d 5d ec 90 bd
       0.022099366 -0.017832616 0.081611216 -0.07076333
000260 97 70 cf bc cf 94 92 bc ac a0 43 bc 63 c2 95 bd
       -0.025322242 -0.017893223 -0.011940163 -0.07312467
000270 e7 8a 3b bd 5f 37 88 3d 77 32 3d 3c c1 cf c9 3c
       -0.045786764 0.06651186 0.011547676 0.024635198
000280 36 da e3 3c 22 0f 86 3c a7 59 66 3d df d0 78 bd
       0.027814012 0.016364638 0.056237843 -0.06074607
000290 cd ad a6 bd 18 d6 50 3d dd 08 3a 3d 9d 42 71 bd
       -0.081386186 0.050985426 0.04541861 -0.058901418
0002a0 c2 1e d6 3c 60 2d 71 bc be 91 61 3b b0 99 25 bd
       0.026137713 -0.014720291 0.0034419145 -0.04042977
0002b0 05 75 a0 3c a7 f3 8f 3d 18 1d 86 3d e3 25 84 3d
       0.01958705 0.07028895 0.06548518 0.06452539
0002c0 21 7d 44 bd 18 65 0d bd 21 58 39 3b a6 bd bb bd
       -0.047970895 -0.03452024 0.0028281289 -0.09167032
0002d0 b2 1f 14 3d df 34 3e bd 15 ab 03 bd 52 cc 20 3d
       0.03616304 -0.04643714 -0.03214558 0.039257355
0002e0 b3 cd 65 bd b2 ed e0 3c 16 77 6a bd 14 34 08 bd
       -0.056104373 0.027457092 -0.057242475 -0.03325279
0002f0 ea 71 8d bd ed 50 35 bd d7 0c 52 3d 36 8c 95 3d
       -0.06906493 -0.04426663 0.051281776 0.07302134
000300 1b 9a 28 bb 14 f0 93 bd c7 c8 14 bd dd b5 32 bc
       -0.002572662 -0.07223526 -0.03632429 -0.010907617
000310 a3 e9 11 3c 93 2f f9 bc eb ba d7 bc 66 78 cb 3c
       0.008905801 -0.030418193 -0.026334247 0.024837684
000320 23 a1 a3 3d ed d8 95 bc b3 9b 15 3d 91 f2 ae 3b
       0.07989719 -0.018291915 0.03652544 0.0053389748
000330 f6 19 5d bd dc ef 8f bd 48 3a 7e bd 72 22 60 bd
       -0.053979836 -0.070281714 -0.0620673 -0.05472035
000340 77 40 6f bd 70 13 e2 bc d6 05 bc bb f5 17 08 3c
       -0.058411088 -0.02759716 -0.0057380004 0.008306493
000350 93 03 40 bd cf d2 ae bb 3b da b7 bc 0e 92 80 bd
       -0.04687841 -0.005335189 -0.022442928 -0.06277858
000360 15 70 7d bd 25 38 32 3d 30 22 68 bd 9a 42 be 3b
       -0.061874468 0.043510575 -0.05667323 0.0058062794
000370 17 fc d7 3b cc 9a 8c bd c2 70 53 3d 40 ff e6 3c
       0.0065913307 -0.06865463 0.051621206 0.028197885
000380 a7 9e 79 bc b7 29 90 bd 25 85 65 3d c1 2d 3f bd
       -0.01523558 -0.070392065 0.05603518 -0.046674494
000390 b9 63 1a 3c 78 c6 97 bd 30 63 3e 3d 4e ab 2e bd
       0.00942319 -0.07410902 0.04648131 -0.042643838
0003a0 a6 53 44 3d f7 3e 36 bc 01 32 75 3d 79 82 99 3c
       0.047931336 -0.01112341 0.05986214 0.018738972
0003b0 43 f5 eb 3c 75 12 8a bc 33 22 95 3c e6 a9 34 3c
       0.028803473 -0.016854504 0.018204784 0.011026835
0003c0 5e 81 16 3d 9e 0b 2d 3c 35 f6 d6 3c 30 1b e8 3c
       0.036744468 0.010561852 0.026240448 0.028333277
0003d0 16 4e 6d 3d 53 c5 b5 bd 8e 7e e2 3c 57 8a 30 3d
       0.057935797 -0.08875527 0.027648237 0.04310068
0003e0 9b 93 1b bc be 98 23 3d 45 c3 15 3d a8 94 b3 3c
       -0.009495641 0.03994059 0.036563177 0.02192147
0003f0 1f f8 2a bd a1 54 f3 3c 70 1c bb bc 9c bb c1 bb
       -0.041740533 0.02970344 -0.022840708 -0.0059122574

block3.bnorm_3.weight f4 [90]
000000 44 48 82 3f 89 1e 84 3f 06 b8 7e 3f f7 a7 7e 3f
       1.0178304 1.0321819 0.9949955 0.99475044
000010 20 41 85 3f bd 59 7a 3f 0e c5 7c 3f e2 36 81 3f
       1.04105 0.9779318 0.9873818 1.0094874
000020 ac 47 7c 3f 6d 63 78 3f 62 77 83 3f d0 02 83 3f
       0.9854686 0.9702671 1.0270808 1.0235233
000030 f8 06 81 3f 08 db 7b 3f 91 9a 7c 3f 66 fc 84 3f
       1.0080252 0.9838109 0.9867335 1.0389526
000040 68 f9 83 3f 7e 13 87 3f 00 f4 80 3f 67 44 86 3f
       1.0310488 1.0552824 1.0074463 1.0489625
000050 d9 4c 82 3f b2 dc 7a 3f 09 32 7c 3f cf fa 79 3f
       1.0179702 0.97993004 0.9851385 0.9764833
000060 86 c4 80 3f 61 b3 81 3f 86 c3 80 3f 69 93 7e 3f
       1.0059974 1.0132867 1.0059669 0.9944368
000070 8d 7a 7f 3f 51 1a 7d 3f 6e ac 7f 3f 76 d9 81 3f
       0.9979637 0.9886828 0.9987248 1.0144489
000080 ca 09 80 3f 63 4c 79 3f 5c 99 7f 3f 0c 4e 80 3f
       1.0002987 0.9738218 0.9984338 1.0023818
000090 75 76 84 3f 15 2e 7a 3f 83 a6 79 3f 9c 91 7d 3f
       1.034865 0.97726566 0.975197 0.9905031
0000a0 d3 62 7f 3f 77 54 83 3f 5a ea 7b 3f 06 3f 7d 3f
       0.9976017 1.0260152 0.9840447 0.9892429
0000b0 09 ab 80 3f a4 9f 81 3f 81 6e 81 3f d5 38 80 3f
       1.0052196 1.0126843 1.0111848 1.0017344
0000c0 78 f7 81 3f 72 0f 81 3f 9e 6a 80 3f 50 fa 7e 3f
       1.0153646 1.0082839 1.0032537 0.99600697
0000d0 c0 8e 82 3f d5 4e 7e 3f 3f c8 7a 3f e4 fa 7e 3f
       1.0199814 0.9933904 0.979618 0.9960158
0000e0 fc fd 80 3f 61 fe 82 3f 96 96 83 3f 59 1e 84 3f
       1.007751 1.023388 1.028033 1.0321761
0000f0 4f 74 80 3f 31 08 7b 3f 31 a7 83 3f 8b 24 82 3f
       1.0035495 0.98059374 1.0285398 1.0167402
000100 14 e2 77 3f bd 2a 7d 3f f8 94 7e 3f e7 15 7e 3f
       0.9682934 0.9889334 0.9944606 0.9925217
000110 1c 66 80 3f 2a 6a 80 3f b8 e9 7f 3f 7b 92 7b 3f
       1.0031161 1.0032399 0.99966 0.98270386
000120 0b 1d 79 3f f0 51 82 3f ea 60 82 3f bc 31 86 3f
       0.9730994 1.0181255 1.0185826 1.0483928
000130 a7 08 87 3f ef 80 82 3f ae 90 76 3f 3b 65 7c 3f
       1.0549515 1.0195597 0.96314514 0.98591965
000140 2c 95 7c 3f 82 93 80 3f 36 d1 7d 3f 9f 3f 7f 3f
       0.9866512 1.0045016 0.99147356 0.99706453
000150 5a 33 80 3f cc 78 82 3f 3b aa 7e 3f 34 a6 81 3f
       1.0015671 1.0193114 0.994785 1.0128846
000160 02 75 84 3f 18 53 7d 3f
       1.0348208 0.98954916

block3.bnorm_3.bias f4 [90]
000000 4b 6d ba 3c 88 53 b9 3c 70 41 a5 ba e3 df 9f bc
       0.022757193 0.022622839 -0.0012608003 -0.019515937
000010 2e cb 16 3d 24 3a 1f bd 86 fa 8f bc 34 05 02 bc
       0.03681486 -0.038873807 -0.017575514 -0.007935811
000020 f3 67 72 bc 96 b1 d2 bc 28 97 16 bd 05 18 93 bb
       -0.014795291 -0.025719445 -0.036765248 -0.0044889473
000030 a9 20 55 3c 63 af 5e bc 8b 53 a9 bc 63 2c 2f 3d
       0.013008275 -0.01359162 -0.02066972 0.04276694
000040 84 21 ad 3a 74 c5 89 3c d2 c6 d9 3a 69 88 36 3b
       0.0013208841 0.016817786 0.0016615039 0.0027852303
000050 63 ab 27 bc b8 73 e7 bc a0 80 23 bd 9f 38 b7 bc
       -0.010233733 -0.028253421 -0.03991759 -0.022365866
000060 45 87 11 bd f7 70 f6 bb 2e 39 60 bc 6f 88 06 bb
       -0.035529394 -0.0075207907 -0.013685508 -0.0020528098
000070 aa 3f 98 bc 04 f4 53 bd af f6 2d bd 11 25 3d 3d
       -0.018585045 -0.051746383 -0.042471584 0.046177927
000080 d6 45 99 bc 9f 66 c7 bc 7f 97 70 bc 78 af b9 3c
       -0.018710058 -0.024340926 -0.014684557 0.022666678
000090 6d ab d0 3c b9 52 22 bd 63 19 7c bb be 38 c0 bb
       0.025472367 -0.03962967 -0.003846728 -0.005866139
0000a0 8c 61 8a bc a1 25 db 3a d7 38 b7 bc cf 9d f5 bc
       -0.016892217 0.0016719588 -0.02236597 -0.029982476
0000b0 7d 13 dd 3b dd 34 63 3c 22 b4 b2 3c a7 c2 a8 3c
       0.006746708 0.013867584 0.02181441 0.02060063
0000c0 f4 82 ce 3b e4 50 02 3d 73 c3 91 3c ad 84 29 bc
       0.006302232 0.031815425 0.017793393 -0.010346574
0000d0 67 64 71 3d 40 62 a2 bc 25 ca 53 3c 87 69 fc bb
       0.05893364 -0.01982224 0.012926613 -0.0077030095
0000e0 f2 af 23 3c 49 46 0f 3d 07 86 2f 3d bc 6a 5e 3c
       0.009990679 0.03497914 0.042852428 0.013575252
0000f0 2e ef 32 ba 94 21 5b bd 89 bd d6 bc 36 de dc bb
       -0.00068258017 -0.05349882 -0.026213424 -0.006740357
000100 4f 64 d7 bc 47 bf 44 bc 35 a1 58 bc 19 53 34 bd
       -0.026292948 -0.012008495 -0.0132220285 -0.04402456
000110 99 f7 a4 bc 15 c3 07 3c 1b 4e 38 bb 45 d4 33 bc
       -0.020137595 0.008286257 -0.0028122726 -0.010975902
000120 7b f8 bb bc d4 f5 7c 3c 75 67 c4 3b 88 14 86 3c
       -0.022945633 0.015439469 0.0059937784 0.016367212
000130 c4 8c 71 3c 61 28 03 bd 30 4a 08 bd 4d 4d b3 bc
       0.014743034 -0.03202093 -0.033273876 -0.021887446
000140 0d f1 af bc 31 46 ac bc 70 15 75 3b c4 62 eb 3a
       -0.021477247 -0.021029564 0.003739681 0.0017958512
000150 e3 9d 05 bd b4 e0 c4 3c 6b 5e 35 bd 66 c1 1e bd
       -0.032621276 0.024032928 -0.044279497 -0.038758658
000160 22 25 1c bc 59 52 99 bc
       -0.0095303375 -0.018716024

block3.bnorm_3.running_mean f4 [90]
000000 c5 a7 eb bd 3e a9 d8 be 5a a1 08 bd c2 1d 06 be
       -0.11506609 -0.42316622 -0.033357 -0.13097289
000010 52 d3 61 be c5 df 94 bd c5 71 a9 be b7 49 62 be
       -0.22053269 -0.07269243 -0.33094612 -0.22098432
000020 58 c5 07 3d a2 cd 6e bc 48 f2 68 bc 6b 05 0e be
       0.033147186 -0.014575394 -0.014217921 -0.13869254
000030 09 b4 84 be 66 f2 7b 3d 28 6f cd be d4 b7 cd bd
       -0.25918606 0.061510466 -0.40123868 -0.10044828
000040 e1 ef 3e 3c f5 4f f9 3d 4a 45 37 3d e2 c5 0a 3e
       0.011653871 0.12173454 0.044743814 0.13552049
000050 bb a6 8a be 34 77 51 3e 1e 1a 60 3e 03 11 6c 3e
       -0.2708033 0.20455629 0.21884963 0.23053364
000060 1c 29 2a be b1 76 2c bc 7d a7 51 bb 47 e6 a2 3d
       -0.16617244 -0.010526345 -0.00319907 0.07954078
000070 8c cf ad 3d c3 4d 25 be 19 46 8c 3e 65 55 db bd
       0.08486852 -0.16142945 0.2739723 -0.10709647
000080 cc de 05 3b 0e 5f d2 3e d2 64 b1 3d a9 55 57 be
       0.0020426987 0.41088146 0.08661808 -0.2102877
000090 10 10 95 bd 39 20 1d 3e ab 50 d6 3d 0d 52 84 be
       -0.07278454 0.15344323 0.10464605 -0.2584385
0000a0 aa eb 98 bc 1b cf 71 3d 3e 3c 6b 3e 07 9d f2 3d
       -0.01866706 0.0590354 0.229722 0.11846357
0000b0 c9 a4 6b bd bc ff 48 bd 6f 91 e8 3c a1 d1 df bd
       -0.0575302 -0.049072012 0.02838966 -0.109286554
0000c0 2d 53 1f 3d b6 19 97 be c8 60 06 be 28 11 83 3e
       0.038897682 -0.29511803 -0.13122857 0.25599027
0000d0 9c ce bc bc 05 f1 e0 bd 8b 2c 44 3e 11 7b 19 be
       -0.023047738 -0.10983471 0.19157617 -0.14988352
0000e0 43 6e 90 be eb b8 2d bd 51 dc db 38 de 6e 6a be
       -0.28209123 -0.04241268 0.00010483771 -0.22893855
0000f0 26 14 bc bd f3 46 1c 3e 61 e0 1d 3d 2c 77 8e be
       -0.091835305 0.1526144 0.038544063 -0.27825296
000100 17 e9 04 3e 9e f5 13 bd ca 90 0b be 24 e0 ef 3e
       0.12979542 -0.03612291 -0.13629451 0.46850693
000110 c9 90 9b bc 78 ba 1a bf 21 d2 e4 3d 73 7f b5 bd
       -0.018989937 -0.6044078 0.111728914 -0.088622
000120 49 2a 90 be 0f c8 6b be 3f 74 62 3d d0 08 ac be
       -0.2815726 -0.23025535 0.055286642 -0.33600473
000130 ec 23 8f be b2 e0 4d 3e fd 15 ed bd 5a 25 e7 3d
       -0.27957094 0.20105246 -0.115764596 0.11286421
000140 dc 67 10 3e 3b aa bf be f0 80 97 bd 9b 7c c8 3d
       0.14102119 -0.37434563 -0.0739764 0.097893916
000150 31 fc 00 be 1c cc 4f bd 99 19 0d 3d 8f 1c 98 bc
       -0.12596203 -0.050731763 0.03444824 -0.018568305
000160 c7 fb 9f 3d 1c 58 8f bd
       0.078116946 -0.069992274

block3.bnorm_3.running_var f4 [90]
000000 98 f4 c6 3d f9 c9 ae 3d 7f e7 2b 3e 4f 86 cc 3d
       0.09714621 0.08534617 0.16787528 0.09986555
000010 f0 cb 5b 3e 8c ac 06 3e f7 3b d9 3d 4f 62 63 3e
       0.21464515 0.13151759 0.106071405 0.2220547
000020 b0 93 68 3e cd 81 20 3e b3 b0 0a 3e 36 18 2a 3e
       0.22712588 0.15674515 0.13543968 0.16610798
000030 23 00 0a 3e 62 e5 81 3e 38 8a ed 3e 78 b3 26 3e
       0.13476615 0.25370318 0.46394515 0.162794
000040 ea 20 e5 3d 0d 4f 14 3d 8a dd 5d 3e 7b 52 bb 3d
       0.111879185 0.0362082 0.21666542 0.09146591
000050 77 4a e2 3d c5 44 41 3e ee 69 5c 3e 98 fa df 3e
       0.11049359 0.1887389 0.21524784 0.43745875
000060 48 9f 8e 3e 82 97 ae 3d ee 7d 4a 3e 9e 8e 5d 3e
       0.27855897 0.085249916 0.19774601 0.21636435
000070 94 77 8a 3e d0 2f 77 3d 60 a7 bb 3e ce bb 58 3e
       0.27044356 0.060348332 0.36651134 0.21165392
000080 f1 7a c4 3d 5f a3 79 3f 62 21 95 3e cd f1 f1 3e
       0.09593762 0.9751491 0.29127032 0.47254792
000090 c3 fc c1 3d 25 64 e7 3e 99 67 48 3e 6d 6b 29 3e
       0.094720386 0.45193592 0.1957077 0.16544886
0000a0 18 29 d9 3e 31 99 4c 3e 3d be 11 3e ed 46 61 3e
       0.42414165 0.19980313 0.14232726 0.21999712
0000b0 96 be 20 3e 60 ef 19 3d 85 43 cc 3e 57 93 a7 3e
       0.15697703 0.0375818 0.39895263 0.327296
0000c0 95 07 f2 3d 55 03 d2 3e 2b 83 c9 3e c1 5b 63 3e
       0.118178524 0.41018167 0.39357886 0.2220297
0000d0 fd fa 51 3e 19 3d 2c 3f 6c 48 09 3f b1 e2 cd 3e
       0.205059 0.6728073 0.5362613 0.40212014
0000e0 cb 14 c3 3d 0d 31 54 3e 08 e9 64 3d 30 fe 6b 3e
       0.0952545 0.20721836 0.0558863 0.23046184
0000f0 45 55 50 3e 89 1a 5d 3e a4 55 ab 3d 46 3f 76 3e
       0.20345028 0.21592154 0.08365944 0.24047574
000100 8c d5 12 3e 43 75 d6 3d d6 20 1e 3e eb c4 61 3e
       0.14339274 0.10471585 0.15442213 0.22047774
000110 4d 2f 21 3e 9d 5d a9 3d 0a 65 35 3e aa dd 41 3e
       0.157407 0.082698084 0.17714325 0.18932214
000120 a2 f5 2d 3e fe a5 19 3e f1 57 8f 3e 07 21 5c 3e
       0.16988233 0.15004727 0.2799678 0.21496974
000130 41 d2 77 3d de 7d e9 3d 30 3b bf 3d 48 8c e0 3d
       0.060503248 0.114009604 0.09337461 0.109642565
000140 ce c2 17 3f 00 13 aa 3d 50 b5 b0 3e 56 0a 3a 3e
       0.59281623 0.08304405 0.3451333 0.18168005
000150 b4 78 38 3e 97 92 e9 3d e3 9f d3 3d 8b 3f 88 3e
       0.18014795 0.11404913 0.1033323 0.2661098
000160 88 6b f4 3d c7 2f 1c 3e
       0.119345725 0.152526

block4.conv_4.weight f4 [90, 30, 10]
000000 9d 91 74 bc de 2b 38 bd 52 f5 58 bb 53 52 48 3d
       -0.014927295 -0.04496371 -0.0033105207 0.048906635
000010 7c 0c e4 3c 15 e0 70 bd d9 61 d9 3c bc 30 45 3d
       0.027837984 -0.05880745 0.026535915 0.04814218
000020 b1 6c a7 bd f2 af 86 3d 36 17 8b 3b cb 3f db 3b
       -0.08175028 0.06576528 0.0042447103 0.0066909543
000030 f0 a8 ba 3c ca b2 3e 3d d9 0b 74 bd 2c 25 2d 3d
       0.022785634 0.046557225 -0.05958161 0.042271778
000040 c7 ca 58 3c 38 79 20 3d 3f 76 80 bd df da d5 bb
       0.01323194 0.039178103 -0.06272554 -0.0065263356
000050 d1 d1 c4 bb 29 8c 87 bd 9e c2 9a 3d 8a 84 ed bc
       -0.0060064574 -0.0661853 0.075566515 -0.028993864
000060 a0 e2 73 3d 34 ee 6a 3d c7 c8 65 bd 1d 09 1e 3d
       0.0595423 0.057356074 -0.05609968 0.03858291
000070 7b 22 1f bd 4d 96 5a 3d 1e 0c bb bc e0 0f 36 3d
       -0.038851243 0.053365994 -0.022832926 0.044448733
000080 6c d7 9c bd 34 df 68 3d fe cc 6b 3d 20 e5 f5 bc
       -0.07658276 0.056853488 0.057568543 -0.030016482
000090 b1 e2 8b 3c 6c 8b 8a bd 0a 69 94 bc 1e 22 55 bd
       0.017075868 -0.06764874 -0.018116493 -0.05203449
0000a0 b1 fc b3 3b bf b1 49 bd d9 12 7a ba 67 41 fe bc
       0.0054927696 -0.049241778 -0.00095395517 -0.031037046
0000b0 e2 c3 48 bd 7d ac 8a 3c 73 d3 59 3d 66 aa a4 3d
       -0.049014933 0.016927952 0.05318017 0.080403134
0000c0 6c 4b 0e bd 12 b2 39 bd c4 f1 38 bd c0 ae 2e bd
       -0.034739897 -0.045335837 -0.04515244 -0.042647123
0000d0 c8 db 93 3d 82 15 8f 3d 90 5a 5b 3d 4e 92 85 bd
       0.07219654 0.06986524 0.053553164 -0.06522046
0000e0 fe 4c a0 bb 44 7b 81 3d cb 14 a6 3c e4 97 9d bc
       -0.0048919907 0.06322339 0.020273587 -0.019237466
0000f0 62 9e 5a 3d be b3 21 bd e7 d0 45 3d e8 13 63 3c
       0.053373702 -0.039478056 0.048294928 0.0138597265
000100 51 fa 20 bc 0c db 86 3c f4 ce 1e bd 56 4c 3b bd
       -0.009825305 0.016461872 -0.038771585 -0.045727096
000110 8f e2 85 3d 0f bb 14 bd 07 60 f8 3c 0f f7 95 3d
       0.06537353 -0.036311205 0.030319227 0.07322513
000120 8e ca 46 3c 5f 05 26 3c 3e 2c 1a 3d 64 50 1f bd
       0.012133254 0.0101331165 0.03763985 -0.038895026
000130 5e a7 30 3d 14 7a 6f bd 96 15 eb bc 36 9f 8c bd
       0.043128364 -0.058466032 -0.028696816 -0.068663046
000140 b8 09 3d bd af c4 63 bc 3b d6 a0 3d e9 95 8d 3d
       -0.046151847 -0.0139018735 0.07853361 0.06913359
000150 61 4c e6 3a 70 89 81 3d 17 65 6f bd f9 43 8a 3c
       0.001757037 0.06325042 -0.058446016 0.016878115
000160 f8 f6 19 3d d6 a1 00 3c 9f 8b 9f bd 7e ad 84 bd
       0.037589043 0.007851085 -0.077903025 -0.064784035
000170 78 3d 48 3d 6b 7a a6 3d 78 8c 79 3c 48 9f 35 3d
       0.048886746 0.08128818 0.015231244 0.044341356
000180 03 2e df 3c d1 f7 17 bc 45 bc 09 bd 76 55 ee bb
       0.02724362 -0.009275393 -0.033626813 -0.0072733713
000190 c2 60 f0 3c 30 0b 14 bc 77 40 13 bc ed 5a a4 3c
       0.029343013 -0.00903587 -0.008987538 0.020062888
0001a0 bb bf 77 3c d8 35 db 3c d2 d9 88 3c 1e 4f bc bb
       0.015121396 0.026759073 0.016705427 -0.005746736
0001b0 94 9b d9 bb 17 21 09 bc b7 ca 43 bd 03 6b cb 3c
       -0.006640861 -0.008369706 -0.047800746 0.0248313
0001c0 2e 2a b0 bc 34 6b 8c 3d b7 e8 69 3c bd 0a 95 3d
       -0.021504488 0.06856385 0.014276675 0.07277439
0001d0 d1 80 e7 3b 4a 61 5f bd 17 56 9c bd 00 24 02 bc
       0.0070649167 -0.05453614 -0.07633608 -0.007943153
0001e0 a4 c4 3d bd bc 80 25 3d a4 77 49 ba f2 98 7b bb
       -0.04633011 0.040405974 -0.00076853693 -0.0038390723
0001f0 d3 86 5d bb a9 8f 20 bd 92 f2 22 3d 90 63 54 3c
       -0.0033802285 -0.039199505 0.039782114 0.012963191
000200 fb ff 4a bc ce ce bf 3b db c6 35 bd a8 5d 36 3d
       -0.012390132 0.0058535105 -0.044379096 0.04452291
000210 72 68 9d 3b 62 00 68 bd 92 c4 f3 3c 5a a3 20 bd
       0.0048037106 -0.05664099 0.029756818 -0.039218284
000220 db e8 cb bc b1 00 11 bb 5f ed 07 bc 30 a2 9a 3b
       -0.024891308 -0.0022125656 -0.00829634 0.0047190413
000230 78 cc 95 bd a2 c1 3e bd 3d 1e 04 bd 2c 4b 4e 3d
       -0.0731439 -0.04657138 -0.0322554 0.05036466
000240 9f 1c 9b bd 6f 75 0b 3d 7c 2c 9b 3a 75 c9 12 3c
       -0.075738184 0.03404754 0.0011838819 0.008959164
000250 08 59 de bc eb 2e 10 3d f0 07 1b bb 6b 85 7c bd
       -0.027142063 0.035200994 -0.0023655854 -0.061650675
000260 a9 bc 75 bc f5 52 57 3d 9e e6 d2 3c 22 75 b6 3c
       -0.014998593 0.05256935 0.025744732 0.02227265
000270 8a 27 ad 3d 38 81 1e bc d3 d4 a4 bc 4a b7 5b bd
       0.08454807 -0.009674363 -0.020121014 -0.053641595
000280 51 3e 56 bc 87 61 3a bd 2a 67 6d bb bd 90 b4 3c
       -0.013076381 -0.045503166 -0.003622482 0.022041673
000290 b4 b7 e7 3c 6f f5 8d 3d 16 a8 f6 3b 99 aa c2 3c
       0.028285839 0.06931578 0.0075273616 0.023762988
0002a0 08 f8 3e bd 80 b1 c8 3c ad 2f 5e bd 3a 21 86 3d
       -0.04662326 0.024498701 -0.054244686 0.06549306
0002b0 13 0b b3 bb 52 e4 5d 3d d4 e5 84 bd 6f dd 3d bd
       -0.0054639666 0.05417282 -0.06489149 -0.046353754
0002c0 37 6e 7c bd 29 5a d7 bc 88 3c 64 bd 8f 8f 58 3d
       -0.061628547 -0.026288109 -0.05572179 0.052871283
0002d0 3c b7 56 bd 4c ed e3 bc f7 f4 97 bc 07 33 9c 3b
       -0.05242084 -0.027823113 -0.018549426 0.004766825
0002e0 a7 bb 8a bc 81 4a 84 bd 6d c8 36 bc ec 00 66 bd
       -0.016935183 -0.06459523 -0.011156184 -0.056153223
0002f0 ce ff ba 3b 3a 09 09 3b 70 86 83 bd 52 89 14 bd
       0.005706764 0.002091004 -0.06422126 -0.03626377
000300 3d 9f ab 3b db 30 82 bd 5a 97 f2 ba 7f 72 73 bd
       0.0052374885 -0.06356975 -0.0018508241 -0.059435364
000310 d1 c9 c6 bc 34 de e2 3c 8e 44 41 3d 15 e8 82 bd
       -0.024266155 0.027693845 0.04718452 -0.063919224
000320 78 1b 9c bd cf 8f 0d 3d 2d 0a 4d 3d 54 d8 9f 3c
       -0.07622427 0.034560975 0.050058533 0.019512333
000330 3c c0 3f bd c4 d9 a1 39 9f 9b 25 3b 16 8f 70 3a
       -0.04681419 0.0003087056 0.002526976 0.0009176595
000340 4e fd 58 bc e0 8e da 3c 71 b0 8d 3d 44 b9 5a 3d
       -0.013243986 0.026679456 0.06918419 0.05339934
000350 16 8b d7 3b e0 2b 9d 3d 30 42 13 bc 76 51 f2 ba
       0.0065778596 0.07674384 -0.008987948 -0.0018487412
000360 52 f1 4c bd 13 a1 8d bd c1 8d 4b bd 36 ef 40 bd
       -0.05003483 -0.06915488 -0.049695734 -0.04710313
000370 2e ca 39 3b 87 18 59 bd 56 39 62 3d 15 8f 9c 3d
       0.0028349268 -0.053001907 0.05523046 0.07644478
000380 df b2 20 bd 93 c5 65 bd b4 2f e8 bc 12 d7 ee bc
       -0.039233085 -0.056096625 -0.02834306 -0.029155288
000390 9e 6e 89 3d e3 98 14 bd 8f 44 01 bd e5 9f 66 bd
       0.06710552 -0.036278617 -0.031559523 -0.05630483
0003a0 68 05 2e bd 25 9d ab bc a8 f3 2c bd 51 cf d3 3a
       -0.042485625 -0.020948956 -0.042224556 0.0016159808
0003b0 f6 3b 7e bd 80 7b 77 3d 05 45 be 3c fe 4b 30 bc
       -0.062068902 0.060420513 0.02322627 -0.010760305
0003c0 b9 6c 14 3d b9 55 a0 3d af 5b 19 bd b7 c4 49 3d
       0.0362365 0.0782885 -0.037440952 0.049259868
0003d0 f3 4c 93 bc 5a 8a 74 3d 5e 40 c2 3c 3a 1d 44 3d
       -0.017981028 0.059702255 0.023712333 0.047879435
0003e0 3e 72 10 3b 89 fe e6 bc 24 af 86 bb be 94 a0 3b
       0.002204075 -0.028197544 -0.004110234 0.004900544
0003f0 5a 4d 02 bc 63 e5 15 3d d4 8c 61 bd ad eb 16 bd
       -0.007953012 0.036595713 -0.055065945 -0.03684585
