submit_entry/checkpoints/cv_edgcn_all_12s_slice_norm/5/best.pth (torch_old, 360439 bytes, 27 tensors)

conv_time.weight f4 [75, 1, 10]
0	0x3d01f529	0.031727944
1	0x3cb38eab	0.021918615
2	0x3d815c62	0.06316449
3	0xbd96dd50	-0.07366431
4	0xbdae1408	-0.084999144
5	0xbd1af02b	-0.0378267
6	0xbd961224	-0.07327679
7	0xbb376231	-0.002798211
8	0xbc0393ec	-0.008030873
9	0x3d87448d	0.06604872
10	0xbc5ba8f4	-0.013406981
11	0xbdaded63	-0.084925435
12	0xbc6fa5c3	-0.014626923
13	0x3d359cc5	0.04433896
14	0xbcfa695a	-0.030567814
15	0xbbbdff53	-0.0057982593
16	0xbd86dae0	-0.06584716
17	0x3cbac58f	0.022799281
18	0x3d76fc14	0.060298994
19	0xbc9b13ff	-0.018930433
20	0x3b7aa22b	0.0038243632
21	0xbc5aa5f3	-0.013345229
22	0x3d27f4cb	0.041004937
23	0xbc33fb31	-0.010985182
24	0x3d82d0c6	0.063874766
25	0x3d9b59c6	0.07585482
26	0x3d9de0b2	0.07708873
27	0xbd9e22a2	-0.077214494
28	0xbd83e5e4	-0.064403325
29	0xbd952524	-0.07282475
30	0xbdaada31	-0.08342398
31	0x3b1dd58c	0.0024083583
32	0x3c25d396	0.010121247
33	0xbd57a9ac	-0.052652046
34	0x3c81c069	0.015838819
35	0x3db9220f	0.09039699
36	0x3cb44fd3	0.02201072
37	0xbd78d1fa	-0.060747124
38	0x3d27d8f9	0.040978406
39	0x3c3c4812	0.011491792
40	0xbd72565d	-0.059164394
41	0x3db73a67	0.08946686
42	0x3ddf1ddf	0.10894369
43	0xbc8f6fa9	-0.017509298
44	0xbc24e367	-0.010063983
45	0xbdcb7de4	-0.09936121
46	0x3d67e636	0.05661603
47	0xbc420233	-0.011841345
48	0xb9d6dcf7	-0.00040981892
49	0x3c9109ee	0.01770493
50	0xbd7d71ba	-0.061876036
51	0x3dc0055a	0.09376021
52	0xbd8a5fb5	-0.06756536
53	0xbdd60128	-0.10449439
54	0xbcefef9e	-0.029289063
55	0x3d5226a4	0.05130638
56	0x3c64a104	0.013954405
57	0x3cd7d213	0.026345288
58	0xbcba3ff2	-0.02273557
59	0x3b2782f0	0.0025560223
60	0xbd73e52c	-0.059544727
61	0x3da73966	0.08165245
62	0xbd935d67	-0.071955495
63	0x3ab2121b	0.0013585718
64	0x3da75d53	0.08172097
65	0x3d8f3337	0.0699219
66	0x3c8b19e1	0.016980113
67	0xbd1b7830	-0.037956417
68	0xbd2cd8e8	-0.042199045
69	0xbce31c95	-0.02772359
70	0x3d70b07a	0.05876205
71	0xbd83631f	-0.0641539
72	0x3d86ec4e	0.0658804
73	0x3cb9824f	0.022645144
74	0x3cc1eba4	0.023671933
75	0x3c3b6e46	0.011439865
76	0x3d771b1b	0.060328584
77	0xbd993b6e	-0.074820384
78	0x3d3680a1	0.044556264
79	0xbd80c5df	-0.06287741
80	0x3d011e4d	0.031523038
81	0xbd403a7a	-0.046930768
82	0x3d617f38	0.055052966
83	0x3daa0835	0.083023466
84	0x3cee63e0	0.029100358
85	0xbd1677c4	-0.03673531
86	0x3db7f0c3	0.089814685
87	0x3ddc98a1	0.10771299
88	0x3d94b129	0.07260353
89	0x3cca6e5a	0.024710823
90	0xbd369734	-0.044577792
91	0x3cb1a9d9	0.021687435
92	0xbdbbbe1d	-0.091671206
93	0x3d81f381	0.06345273
94	0xbd4e5755	-0.050376255
95	0xbd7e053f	-0.06201672
96	0x3dca5e44	0.09881261
97	0xbd5e5397	-0.054278936
98	0x3db43940	0.08799982
99	0x3ce9ca42	0.028538827
100	0x3e05b390	0.13056779
101	0x3cbac973	0.022801137
102	0x3daba6ef	0.083814494
103	0xbd467931	-0.04845542
104	0xbd90cac6	-0.07069926
105	0x3a09d7fa	0.0005258318
106	0x3d3d2a46	0.046182893
107	0x3a12346a	0.00055772683
108	0x3cc21fed	0.023696864
109	0xbd7d0dfc	-0.061780915
110	0x3ca88de7	0.020575477
111	0xbcad9915	-0.02119116
112	0xbd73d45e	-0.0595287
113	0xbcc9587a	-0.024578322
114	0x3d95dd6e	0.07317625
115	0x3d0589e8	0.03260222
116	0xbd983e49	-0.07433755
117	0xbd28c31f	-0.041201707
118	0x3c8f1588	0.017466322
119	0x3d15206c	0.036407873
120	0x3cf225b5	0.029558996
121	0x3c915e53	0.017745173
122	0xbc9bcdb2	-0.019018982
123	0xbda7a212	-0.08185209
124	0xbda265a7	-0.07929545
125	0xbb89e843	-0.004208596
126	0xbd3d9e88	-0.046293765
127	0x3dbc2ad8	0.09187859
128	0x3d06dc81	0.032925133
129	0x3d7bb5e3	0.061452758
130	0x3c3d074a	0.011537382
131	0xbddc1c53	-0.1074759
132	0x3bec29fc	0.0072071534
133	0xbd8d3519	-0.06894893
134	0xbd8671d2	-0.06564678
135	0x3cc677cd	0.024227047
136	0x3db48edb	0.0881631
137	0x3c696b71	0.014246807
138	0x3d868684	0.065686256
139	0x3d33ae0c	0.043867156
140	0x3d43968a	0.047750987
141	0x3d32e5f3	0.043676328
142	0x3d58e57a	0.05295322
143	0xbc408947	-0.0117514795
144	0xbd94aede	-0.07259916
145	0xbc64ec81	-0.013972403
146	0xbd831113	-0.06399741
147	0x3cd404f3	0.025881266
148	0xbd3dcdf1	-0.04633898
149	0x3d8731ce	0.06601296
150	0x3ce9d880	0.028545618
151	0xbd9638c1	-0.07335044
152	0x3d84fcdd	0.06493542
153	0xbdb64e3a	-0.08901639
154	0x3cc003ab	0.023439249
155	0x3dc09759	0.09403867
156	0xbcfc3023	-0.030784672
157	0xbcefc011	-0.02926639
158	0xbd9cf0cb	-0.07663115
159	0x3dbf6cfc	0.09346959
160	0xbda52569	-0.08063776
161	0x3d7bb4ba	0.06145165
162	0x3d285b99	0.04110298
163	0xbd070633	-0.032964896
164	0x3c6a6c51	0.014308051
165	0x3d012673	0.03153081
166	0xbd76a3ad	-0.060214687
167	0xbd85c254	-0.06531206
168	0x3d797099	0.060898397
169	0x3ca33879	0.01992439
170	0x3d95e3b3	0.07318821
171	0x3c13f5bf	0.009030758
172	0xbc170acc	-0.009218883
173	0x3db103e8	0.08643323
174	0x3d69cf30	0.057082355
175	0xbd996c75	-0.0749139
176	0xbd815380	-0.063147545
177	0xbc7ecdc2	-0.015551986
178	0xbdbd814f	-0.09253179
179	0x3cc1ef8f	0.0236738
180	0x3d9605f2	0.07325353
181	0xbcb14d50	-0.02164331
182	0x3d8f20e2	0.06988694
183	0x3cb7328e	0.022362974
184	0x3caf0cf0	0.021368474
185	0xbc60f3a0	-0.01372996
186	0xbda397a0	-0.079879045
187	0x3d1c6236	0.0381796
188	0xbdbfa885	-0.093583144
189	0xbcc11998	-0.023571774
190	0x3a701b55	0.0009159346
191	0x3cf734bf	0.030176518
192	0x3bcc8b77	0.0062422114
193	0xbbedc4ee	-0.007256142
194	0xbc4191a6	-0.01181451
195	0xbd18bfef	-0.037292417
196	0xbc9b1c9b	-0.018934539
197	0x3d3b4e89	0.045729194
198	0x3d855241	0.06509829
199	0xbd82f84b	-0.063950144
200	0x3dc1c899	0.09462089
201	0x3d7cda7f	0.06173181
202	0xbc103218	-0.008801006
203	0xbd0bddd1	-0.034147087
204	0xbda0f40d	-0.07859049
205	0xbd18578e	-0.037192874
206	0xbd00762e	-0.031362705
207	0xbd71bc54	-0.059017494
208	0x3b9290cf	0.004472829
209	0x3da4f149	0.08053834
210	0x3cc1a782	0.023639444
211	0xbc35ce95	-0.011096616
212	0x3c833324	0.016015597
213	0x3d9f8ccf	0.07790529
214	0xbd2f1c76	-0.04275175
215	0xbd057980	-0.032586575
216	0x3b9965b6	0.0046813143
217	0x3d941f59	0.072325416
218	0xbd609307	-0.054827716
219	0xbbdddaf0	-0.006770484
220	0xbca3de01	-0.02000332
221	0xbd891b60	-0.066946745
222	0xbd89f42e	-0.06736027
223	0xbc485c4a	-0.012229035
224	0xbdbadd97	-0.09124296
225	0xbd2f2d47	-0.04276779
226	0x3ce0659c	0.027392201
227	0xbc359a5b	-0.0110841645
228	0x3d063881	0.03276873
229	0x3d2b3c93	0.041805815
230	0xbc98bdb4	-0.018645145
231	0xbcdd7bbf	-0.027036546
232	0x3d44947c	0.04799317
233	0x3d8e229a	0.069401935
234	0x3dc48f80	0.09597683
235	0x3e022ac0	0.1271162
236	0x3e1eb301	0.15497972
237	0x3c0282a4	0.007965717
238	0x3d373325	0.04472651
239	0x3c7634ee	0.015027268
240	0xbd88542a	-0.06656678
241	0xbd74f0a6	-0.059799813
242	0x3d18336c	0.037158415
243	0x3c40eb85	0.011774902
244	0xbcb4f901	-0.02209139
245	0xbd9e843a	-0.07740064
246	0x3d316781	0.0433116
247	0x3c18df87	0.009330637
248	0x3dc59289	0.0964709
249	0x3d203245	0.03911044
250	0x3d10f09b	0.03538571
251	0xbb93b65d	-0.0045078234
252	0x3d0ecadb	0.034861427
253	0x3ca3ea0d	0.020009065
254	0x3bbae28d	0.0057032765
255	0x3d27d20a	0.040971793

conv_time.bias f4 [75]
0	0x3b1db00f	0.0024061238
1	0xbb764c15	-0.003758197
2	0x3c5fa81d	0.013650921
3	0x3c3a4131	0.011368082
4	0xbc772a6b	-0.015085797
5	0xbafafb58	-0.0019148393
6	0xbcd58950	-0.026066452
7	0xbba10619	-0.004914057
8	0x3c4a9149	0.01236374
9	0x3cb35104	0.021889217
10	0xbb8e4f68	-0.004342962
11	0xbca41ba0	-0.020032704
12	0x3a8a6f65	0.0010561763
13	0xbb71506c	-0.0036821617
14	0x3c979d81	0.01850772
15	0x3b59abd3	0.0033213987
16	0xbcfd4716	-0.030917685
17	0xbc024813	-0.007951754
18	0xbc3d5d9d	-0.011557964
19	0x3c6b781d	0.014371899
20	0x3a8cf88a	0.0010755223
21	0xbcacb794	-0.02108363
22	0xbcfacc9e	-0.030615147
23	0x3c1ad3ca	0.0094499085
24	0x3c78e785	0.015191917
25	0xbb84169d	-0.004031016
26	0xbc051ba2	-0.008124264
27	0x3cb4819f	0.022034464
28	0x3ca5516b	0.020180425
29	0x3b074057	0.0020637715
30	0xba167028	-0.00057387585
31	0x3c1a5861	0.009420485
32	0xb832bd48	-4.261479e-05
33	0xbba05df5	-0.004894013
34	0xbcb06fc4	-0.021537669
35	0xbc4e24ae	-0.012581987
36	0xbb1f5b18	-0.002431577
37	0xbc3f30a8	-0.011669315
38	0xbbd76201	-0.0065729623
39	0xbb579d58	-0.003290018
40	0x3bc262ec	0.0059322026
41	0xbc47c1a7	-0.012192166
42	0x3a921ea9	0.0011148053
43	0x3c5963a1	0.013268382
44	0x3aef6d8c	0.00182669
45	0xba66e410	-0.00088077877
46	0xbbf83b03	-0.007575394
47	0x3a854053	0.0010166265
48	0x3b275349	0.002553182
49	0xbb96fa15	-0.004607449
50	0x3c2c5dae	0.010520382
51	0xbc391c4a	-0.011298249
52	0xba1f28b2	-0.0006071433
53	0xba4a7009	-0.0007722383
54	0xbbb2c550	-0.0054556504
55	0x3bff00f7	0.0077820974
56	0xba89984a	-0.0010497656
57	0x3b619cb3	0.0034425675
58	0xb9d61628	-0.00040833768
59	0x3b63e068	0.0034771208
60	0x3b75fe1c	0.0037535494
61	0x3c9bf98f	0.019039897
62	0x3b152b28	0.0022761319
63	0xbb25e40a	-0.0025312924
64	0x3bdaf450	0.0066819564
65	0xbc1d9106	-0.009617096
66	0xbb1c8dab	-0.0023888152
67	0x3c337589	0.0109533155
68	0xbb89c3db	-0.004204256
69	0xbc17a23f	-0.009254991
70	0xbb96a7d4	-0.0045976434
71	0xbc264a34	-0.010149527
72	0x3b9fbc02	0.004874707
73	0xbc7f17bb	-0.015569623
74	0x3c1dec85	0.00963891

bnorm.weight f4 [75]
0	0x3f7adde4	0.9799483
1	0x3f7bf08e	0.9841393
2	0x3f83f46f	1.030897
3	0x3f83b3c6	1.0289237
4	0x3f72fb68	0.94914865
5	0x3f7a1e09	0.9770208
6	0x3f83249d	1.0245548
7	0x3f75f77a	0.96080744
8	0x3f759a54	0.9593861
9	0x3f87d413	1.0611595
10	0x3f67010e	0.90235984
11	0x3f7a68bc	0.9781606
12	0x3f8aabc5	1.083367
13	0x3f7d81bd	0.9902609
14	0x3f717943	0.94325656
15	0x3f81fa9f	1.0154608
16	0x3f684cc7	0.9074215
17	0x3f861676	1.0475605
18	0x3f87adf1	1.0599958
19	0x3f7f012c	0.99611163
20	0x3f879444	1.0592122
21	0x3f6d3970	0.9266577
22	0x3f67f122	0.90602314
23	0x3f6f0fae	0.933833
24	0x3f9589ea	1.1682713
25	0x3f73b5ae	0.95199096
26	0x3f631e9a	0.8871857
27	0x3f70353e	0.9383124
28	0x3f8c858e	1.0978258
29	0x3f81285c	1.0090442
30	0x3f648418	0.8926406
31	0x3f7812ff	0.96903986
32	0x3f6fa6cb	0.9361388
33	0x3f8b8f4f	1.0903109
34	0x3f7f3087	0.9968342
35	0x3f700196	0.9375242
36	0x3f7c171a	0.9847275
37	0x3f897db4	1.0741487
38	0x3f713be2	0.94232
39	0x3f8c1e92	1.0946829
40	0x3f709c17	0.93988174
41	0x3f6cefa0	0.9255314
42	0x3f852734	1.0402589
43	0x3f677288	0.90409136
44	0x3f7dc350	0.9912615
45	0x3f6f8d18	0.93574667
46	0x3f81e987	1.0149392
47	0x3f7a6b99	0.9782043
48	0x3f7692b1	0.96317583
49	0x3f769de8	0.96334696
50	0x3f81974f	1.0124301
51	0x3f77f818	0.96862936
52	0x3f748f28	0.9553094
53	0x3f77fe48	0.9687238
54	0x3f78d171	0.9719458
55	0x3f89faf9	1.0779716
56	0x3f7855e6	0.9700607
57	0x3f79675d	0.97423345
58	0x3f826da7	1.0189713
59	0x3f8147bd	1.0100018
60	0x3f86c465	1.0528685
61	0x3f7cb107	0.9870762
62	0x3f7d787a	0.9901196
63	0x3f7e0a6b	0.99234647
64	0x3f7b9449	0.9827314
65	0x3f7d466a	0.9893557
66	0x3f80b29e	1.005451
67	0x3f83db72	1.0301344
68	0x3f792419	0.97320706
69	0x3f85604f	1.0420016
70	0x3f7108cd	0.94154054
71	0x3f7b4b0d	0.98161393
72	0x3f78a906	0.9713291
73	0x3f805f03	1.0028995
74	0x3f81ed98	1.0150633

bnorm.bias f4 [75]
0	0xbdb51cb3	-0.088433646
1	0xbddcee10	-0.10787594
2	0xbca1acbe	-0.01973569
3	0x3dc2074a	0.094740465
4	0xbe8ebfc4	-0.2788068
5	0xbd9ea304	-0.077459365
6	0xbd1e92fa	-0.038714387
7	0xbe30e378	-0.17274272
8	0xbe1c6e4a	-0.15276447
9	0x3dc4a906	0.09602551
10	0xbe563a3f	-0.20920657
11	0xbdfe2e83	-0.12411215
12	0xbc9a5d60	-0.018843353
13	0xbb3fd3c8	-0.0029270519
14	0xbe19fbe7	-0.150375
15	0xbda9acb5	-0.082848944
16	0xbd739e86	-0.05947735
17	0xbd246253	-0.04013283
18	0xbda86d07	-0.0822392
19	0xbe2a98f7	-0.16659914
20	0xbcdb40cf	-0.026764302
21	0xbded903b	-0.115997754
22	0xbdd9d6ac	-0.106366485
23	0xbe0e2aaf	-0.1388347
24	0x3cbf9314	0.023385562
25	0xbe35c7ac	-0.1775195
26	0xbd941223	-0.07230022
27	0xbdfa483d	-0.122208096
28	0x3ddb58c5	0.10710291
29	0x3d426068	0.04745522
30	0xbe191419	-0.14949073
31	0xbd9d0550	-0.07667029
32	0xbda9d5b9	-0.082927175
33	0xbd9bf2ce	-0.07614671
34	0xbd8adcb2	-0.067803755
35	0xbd7e4548	-0.06207779
36	0xbd49ba23	-0.04924978
37	0xbd6ce8ea	-0.05783931
38	0xbd5b04fa	-0.053471543
39	0xbc767f33	-0.015044975
40	0xbd8f47d5	-0.06996123
41	0xbda474aa	-0.080300644
42	0xbd5f96b5	-0.054587085
43	0xbe19588b	-0.14975183
44	0xbd74d5a9	-0.059774075
45	0xbd8a4baf	-0.06752717
46	0x3d541a72	0.051783033
47	0xbb7d34ef	-0.0038636287
48	0xbdbb7258	-0.09152669
49	0xbd784eb0	-0.060621917
50	0x3c44368f	0.011975898
51	0xbd7ae64c	-0.061254784
52	0xbdbdb54f	-0.092630975
53	0xbdbe44e6	-0.09290485
54	0x3be2b4e3	0.006918536
55	0xbbb763db	-0.0055966205
56	0xbd9a25ae	-0.07526718
57	0xbd8bde77	-0.06829541
58	0xbd12b91b	-0.03582106
59	0xbd60bb75	-0.054866273
60	0x3d80f50a	0.062967375
61	0x3dac83e2	0.08423592
62	0xbd6a890d	-0.057259608
63	0x3dd005bd	0.101573445
64	0x3d0b3b26	0.033991955
65	0x3d8f5635	0.069988646
66	0x3d249b62	0.040187247
67	0xbbb84082	-0.0056229243
68	0xbda49ba5	-0.08037499
69	0xbdcd6c21	-0.100303896
70	0xbcfde49e	-0.030992802
71	0x3d03ffe2	0.03222645
72	0xbd486f1a	-0.04893408
73	0x3b64eb22	0.003493019
74	0x3d7bf065	0.061508555

bnorm.running_mean f4 [75]
0	0xbd0b8006	-0.03405764
1	0xbd306aa6	-0.043070458
2	0x3cbbb6be	0.022914287
3	0x3c1ffd03	0.009764913
4	0x3c52be65	0.012862776
5	0xbd1cd67e	-0.038290493
6	0xbcae0bfd	-0.02124595
7	0x3cded809	0.027202623
8	0x3e28718a	0.16449562
9	0x3caf9545	0.021433482
10	0x3d313588	0.043263942
11	0xbd1019c3	-0.03518082
12	0x3b1b409b	0.002368963
13	0x3a463dc9	0.00075623073
14	0x3cec4cc3	0.028845197
15	0x3bbf69f0	0.005841486
16	0xbd153942	-0.03643156
17	0xbc3b51a6	-0.011433041
18	0xbc808702	-0.015689377
19	0x3c999728	0.018748835
20	0xbac33a4d	-0.0014894694
21	0x3a22723b	0.0006196831
22	0xbe09b304	-0.13447195
23	0x3e889864	0.26678765
24	0x3cab146e	0.020883765
25	0x3d47ac98	0.048748583
26	0xbd1ed28b	-0.03877501
27	0x3e1bd995	0.1521972
28	0x3cbcaf18	0.02303271
29	0x3bbf65b9	0.0058409837
30	0x3d6cdda3	0.057828557
31	0x3c25e2d1	0.010124878
32	0xbd33b3f3	-0.043872785
33	0xbb92539d	-0.004465534
34	0xbcbc6147	-0.022995604
35	0xbc8d7e0c	-0.017272018
36	0xbaefdf6b	-0.0018300837
37	0xbc387294	-0.011257786
38	0xbd72e0f5	-0.059296567
39	0xbb3c246e	-0.0028708237
40	0xbac97232	-0.0015369116
41	0xbc2ef49a	-0.010678435
42	0x3a69dccb	0.00089211453
43	0x3cd45e7c	0.02592396
44	0x3b607baf	0.0034253409
45	0x3d99775b	0.074934684
46	0xbc378950	-0.011202171
47	0xbd8888e0	-0.06666732
48	0x3d89bcee	0.067254886
49	0xbdaef9fe	-0.08543776
50	0x3c33c0fd	0.010971305
51	0xbe0e1822	-0.13876393
52	0xbe16720c	-0.14691943
53	0x3e139d66	0.14415511
54	0xbe0d2201	-0.13782503
55	0x3c27cf32	0.01024227
56	0x3d386fae	0.04502838
57	0x3c7078c7	0.014677233
58	0xbbbbdfef	-0.005733482
59	0x3b052155	0.0020314057
60	0xbb4ae4ae	-0.0030959058
61	0x3be853b8	0.007090058
62	0x3c4b5d53	0.012412387
63	0xbd4672cf	-0.048449334
64	0x3bf98fc4	0.007616015
65	0xbd10f99b	-0.035394292
66	0xbc799570	-0.015233383
67	0x3c38d6ca	0.011281678
68	0x3d140e79	0.036146615
69	0xbc09103a	-0.008365685
70	0x3cdc71dd	0.026909763
71	0xbcab5290	-0.020913392
72	0x3c92b312	0.017907653
73	0xbcbc6202	-0.022995953
74	0xbb4e4613	-0.0031474873

bnorm.running_var f4 [75]
0	0x3a2d2c37	0.0006606015
1	0x3a14902a	0.0005667234
2	0x39a6599f	0.0003172876
3	0x38e224a5	0.00010783345
4	0x39a28f38	0.00031005754
5	0x3a04c05c	0.0005064064
6	0x38def5ec	0.000106315914
7	0x39e7f1f8	0.00044240034
8	0x3bfb6b12	0.007672676
9	0x392ef4f4	0.00016685185
10	0x3a763669	0.0009392263
11	0x38d6a76f	0.00010235502
12	0x39854757	0.0002542089
13	0x39effb4e	0.0004577287
14	0x392ac479	0.00016285655
15	0x379ba6b8	1.8555074e-05
16	0x37b7fa5b	2.193188e-05
17	0x399194f9	0.00027767548
18	0x398a7f58	0.0002641629
19	0x377748be	1.4739284e-05
20	0x3957c086	0.00020575718
21	0x3926a078	0.00015890773
22	0x3b5afb5a	0.0033413977
23	0x3c9e3c45	0.019315848
24	0x3989ae4d	0.0002626054
25	0x3a5bda8b	0.00083867525
26	0x399c5998	0.0002982139
27	0x3ba6095f	0.005067035
28	0x390ab990	0.00013229833
29	0x39059e57	0.00012742855
30	0x3c11b422	0.008893045
31	0x36bcf946	5.631856e-06
32	0x3ba494e2	0.005022631
33	0x366d1179	3.5325922e-06
34	0x379078d3	1.72224e-05
35	0x387aa8a6	5.976171e-05
36	0x37c6389a	2.3629796e-05
37	0x3737c848	1.0954282e-05
38	0x3bed75c3	0.0072467043
39	0x37a368ea	1.9479969e-05
40	0x392504c3	0.000157374
41	0x375f7f3a	1.3321458e-05
42	0x36a11ee4	4.80177e-06
43	0x39e3389d	0.00043338994
44	0x370a579d	8.24584e-06
45	0x3b44f3d9	0.003005257
46	0x386710c4	5.5090306e-05
47	0x3b21d622	0.0024694283
48	0x3b105446	0.0022022887
49	0x3b6203b2	0.0034487066
50	0x37ede450	2.8358918e-05
51	0x3c0c4fc0	0.008563936
52	0x3c37e89e	0.011224894
53	0x3c34decc	0.011039447
54	0x3c1c7c39	0.009551101
55	0x38434b9b	4.6562036e-05
56	0x3a9ad717	0.0011813369
57	0x391aca0b	0.00014761851
58	0x38ccdb42	9.768318e-05
59	0x38944798	7.070525e-05
60	0x391efa91	0.00015161397
61	0x3a18ca85	0.00058285176
62	0x39989ec5	0.00029109992
63	0x3bbe6409	0.005810265
64	0x386d1a20	5.6529534e-05
65	0x3af5c658	0.0018751128
66	0x3a0e5bdb	0.00054305576
67	0x38640f69	5.4373788e-05
68	0x3b915079	0.004434642
69	0x382b40b9	4.0829855e-05
70	0x3b3398cd	0.0027404309
71	0x39d20288	0.00040056207
72	0x39f4d397	0.00046696953
73	0x39683c18	0.00022147631
74	0x3a0e31ff	0.000542432

block2.conv_2.weight f4 [75, 15, 10]
0	0x3d1b93a7	0.03798261
1	0x3d5b77f4	0.053581193
2	0x3c364d3e	0.011126814
3	0xbd92a05c	-0.071594924
4	0xbd58404f	-0.052795704
5	0x3c2a4d8b	0.010394464
6	0x3cc765bf	0.024340509
7	0xbc7d8ef0	-0.0154759735
8	0xbd02d09e	-0.031937234
9	0xbd7e567c	-0.062094197
10	0xbbb4221f	-0.0054972316
11	0x3d9159f2	0.07097234
12	0x3c05afe2	0.0081596095
13	0x3d6c4430	0.057682216
14	0xbd8b0d9a	-0.06789704
15	0x3cd90178	0.026489958
16	0xbd440f7a	-0.047866322
17	0xbd4a6b3d	-0.049418677
18	0xbd91a31e	-0.0711119
19	0xbd841fea	-0.064513996
20	0x3d4117de	0.047141902
21	0xbd14805f	-0.036255237
22	0x3d806431	0.0626911
23	0xbcb2829c	-0.021790795
24	0x3c65f928	0.014036454
25	0x3d0d4c14	0.034496382
26	0x3ad80317	0.0016480413
27	0x3bf7089f	0.0075388695
28	0xbd081916	-0.03322705
29	0x3d42ea2d	0.04758661
30	0x3d6950a7	0.05696168
31	0x3d0d4113	0.034485888
32	0x3c546b9a	0.012965107
33	0x3d5a1fc7	0.05325296
34	0x3c9f0504	0.019411571
35	0xbd6ab0de	-0.05729758
36	0xbcd05a55	-0.025433699
37	0xbd0d2555	-0.03445943
38	0x3d928289	0.07153804
39	0x3c810bf8	0.015752777
40	0x3d53ec57	0.051739063
41	0x3d27c19a	0.040956117
42	0x3db248a1	0.08705259
43	0x3ba83b26	0.005134004
44	0x3d5b2200	0.05349922
45	0xbcd6ea3d	-0.02623474
46	0xbc27b946	-0.010237044
47	0xbd4ebd2f	-0.05047339
48	0xbce05ff8	-0.027389511
49	0xbd8bd209	-0.068271704
50	0x3d3ab51f	0.045582887
51	0x3d60698d	0.05478816
52	0xbc3219b3	-0.010870385
53	0x3d01a5b9	0.031652186
54	0xbd459ee6	-0.04824724
55	0x3d1968f0	0.03745359
56	0xbd295212	-0.041338034
57	0xbcc11787	-0.023570789
58	0xbcfdcc4c	-0.030981205
59	0xbd7142d3	-0.05890162
60	0xbc82a09c	-0.015945725
61	0xbd13da25	-0.03609671
62	0x3c68af04	0.014201883
63	0x3d4bcaa8	0.049753815
64	0x3beda8c4	0.0072527844
65	0xbcd611ba	-0.0261315
66	0xbd4578d2	-0.048210926
67	0xbdb612f6	-0.08890335
68	0xbd12496e	-0.03571456
69	0x3d4bc998	0.0497528
70	0x3d372327	0.04471126
71	0x3d812b10	0.06307042
72	0xbd0cff98	-0.03442344
73	0x3d964e6e	0.07339178
74	0x3d78ba08	0.06072429
75	0x3d81251b	0.063059054
76	0xbc38fb45	-0.011290376
77	0xbc7034d9	-0.014661037
78	0xbd6de130	-0.058076084
79	0xbca90e52	-0.020636711
80	0x3cc4b762	0.024013225
81	0x3d4870e8	0.0489358
82	0x3db883cd	0.09009514
83	0xbc74ddbf	-0.0149454465
84	0xbcba01eb	-0.022705993
85	0x39ef1f69	0.00045609035
86	0xbd82007b	-0.06347748
87	0xbda511bf	-0.080600254
88	0x3ce5a2b3	0.028031683
89	0xbd2ba841	-0.041908506
90	0x3d821338	0.06351322
91	0x3bc7973f	0.006091028
92	0x3bba66ad	0.0056885094
93	0xbc7cfe8d	-0.015441549
94	0xbd902689	-0.070386
95	0xbd2ecdd4	-0.04267676
96	0xbd7244d4	-0.05914767
97	0x3c77ccf6	0.01512455
98	0x3d875db7	0.066096716
99	0xbd0900fc	-0.033448204
100	0x3d189955	0.037255604
101	0x3db0e01f	0.08636498
102	0x3d9acc05	0.07558445
103	0x3d47efbc	0.048812613
104	0xbd6f3882	-0.0584035
105	0x3cf1184d	0.029430533
106	0xbd8d3898	-0.0689556
107	0xbb95d1d5	-0.004572133
108	0xbd8ea2ce	-0.06964646
109	0xbdc68992	-0.09694208
110	0x3d88c6b4	0.066785246
111	0xbca4384e	-0.02004638
112	0x3d1bbbf4	0.038021043
113	0x3cf91bf2	0.030408833
114	0xbd984581	-0.07435132
115	0x3c1deb4e	0.009638621
116	0xbcb7b3cb	-0.0224246
117	0xbd2da617	-0.042394724
118	0xbd19f5cf	-0.037587937
119	0xbcca3d0e	-0.024687316
120	0x3d237a28	0.03991142
121	0x3c6fd26b	0.01463757
122	0x3cf3d83f	0.0297662
123	0xbd89f624	-0.06736401
124	0xbdcced93	-0.10006251
125	0xbda4b235	-0.08041803
126	0xbd48c82c	-0.049019024
127	0x3db27d03	0.0871525
128	0x3d5baa8c	0.053629443
129	0x3d8b85b7	0.068126135
130	0x3aeb62af	0.0017958487
131	0xbd388474	-0.045048192
132	0x3c21cdf9	0.009875768
133	0xbdb6006c	-0.08886799
134	0xbd9642b1	-0.07336939
135	0xbe05d220	-0.13068438
136	0xbde251a2	-0.110507265
137	0xbcc6bcd9	-0.024259971
138	0xbc070552	-0.008241015
139	0x3d9936e7	0.07481175
140	0x3cd75ae3	0.026288455
141	0x3c0ce1d5	0.008598764
142	0x3d24fdcc	0.040281102
143	0xbc5f5118	-0.013630174
144	0xbc8cb14b	-0.017174384
145	0xbd008354	-0.031375244
146	0xbc5c2736	-0.013437083
147	0x3b8373ee	0.0040116226
148	0xbd84ed98	-0.0649063
149	0xbd3d7747	-0.04625633
150	0xbc966567	-0.0183589
151	0x3c81ef32	0.015861128
152	0xba77d44d	-0.00094539375
153	0x3d87dd5f	0.0663402
154	0xbc85504e	-0.016273644
155	0x3d941f7e	0.07232569
156	0xbcbe1470	-0.023203105
157	0xbc83d661	-0.016093435
158	0x3d950e2d	0.072780944
159	0x3ce78c87	0.02826525
160	0xbdac939b	-0.08426591
161	0xbd271e72	-0.04080052
162	0xbd995719	-0.07487316
163	0x3d252c81	0.040325645
164	0x3c043c4d	0.008071017
165	0x3d222826	0.03958907
166	0x3ccf93fa	0.025339115
167	0x3d7146da	0.05890546
168	0xbd35af90	-0.044356883
169	0x3d5bfcbe	0.05370783
170	0x3d0be976	0.034158193
171	0xbbf75759	-0.0075482544
172	0x3ddf5541	0.10904933
173	0x3c97f44c	0.018549107
174	0x3c85e66f	0.01634523
175	0xbd01a713	-0.031653475
176	0xbcdc38d3	-0.026882565
177	0xbd17dccb	-0.0370758
178	0xbd1b8cbd	-0.037976015
179	0xbdac63a9	-0.08417446
180	0x3d9291a4	0.07156685
181	0x3cf151ba	0.029457916
182	0xbd932d11	-0.0718633
183	0xbe196dc2	-0.14983276
184	0xbdd5e644	-0.1044431
185	0x3957fa71	0.00020597294
186	0x3d01d0ce	0.031693272
187	0x3ca73e73	0.02041552
188	0x3d7c88ea	0.06165401
189	0xbca32a7f	-0.019917725
190	0x3d94b169	0.07260401
191	0x3caa399d	0.020779425
192	0x3d704b3d	0.058665503
193	0x3c347f57	0.011016688
194	0xbc952bf9	-0.018209444
195	0x3cbc51aa	0.02298816
196	0xbccb5305	-0.02481986
197	0xbbc382c2	-0.0059665153
198	0x3caa5636	0.020793062
199	0xbd6bcf1a	-0.057570554
200	0xbd153f03	-0.036437046
201	0xbdacae23	-0.084316514
202	0xbdb70fed	-0.089385845
203	0xbd862aab	-0.06551107
204	0xbd8deec8	-0.069303095
205	0x3d382cd9	0.044964645
206	0x3d88ac0e	0.06673442
207	0x3cb3f342	0.02196658
208	0x3cc72511	0.024309667
209	0xbcac61e3	-0.02104277
210	0x3e03897f	0.1284542
211	0x3c80ab0d	0.015706563
212	0x3da8d6c7	0.082440905
213	0x3de249e1	0.110492475
214	0xbd8fdf6b	-0.070250355
215	0xbdaa708f	-0.0832225
216	0xbd996d40	-0.07491541
217	0xbca89d42	-0.020582799
218	0xbd54480a	-0.051826514
219	0xbc9bdd79	-0.019026505
220	0xbc0550f0	-0.008136973
221	0x3c730850	0.014833525
222	0x3baec59a	0.0053336145
223	0x3dbb3ec0	0.09142828
224	0x3c98d86c	0.018657885
225	0xbd5ab18a	-0.05339197
226	0x3c1cda40	0.009573519
227	0xbd2cf0dc	-0.04222189
228	0x3c0ea93d	0.008707342
229	0xbd5de240	-0.054170847
230	0x3d3dc28d	0.046328116
231	0x3d9b80c3	0.07592919
232	0x3d137535	0.03600045
233	0xbcba6958	-0.02275531
234	0xbcdf13a6	-0.027231049
235	0xbd89bb8f	-0.06725227
236	0x3ce4e604	0.027941711
237	0xbc9421a1	-0.018082442
238	0xbd14082c	-0.036140606
239	0xbd10fd4a	-0.035397805
240	0x3d456840	0.048195124
241	0xbd0e1c4f	-0.034694966
242	0xbdbea90f	-0.09309589
243	0xbda90bcb	-0.082542025
244	0xbd0195f5	-0.03163715
245	0xbc846f12	-0.016166244
246	0x3d65974a	0.056052484
247	0x3d2bf81a	0.041984655
248	0x3d2416b7	0.040060725
249	0xbc2d7fa5	-0.010589515
250	0x3d9cb547	0.076517634
251	0x3d986012	0.07440199
252	0xbd11df25	-0.035613198
253	0x3d99f32f	0.07517087
254	0x3d9f0b30	0.07765806
255	0xbb36bddb	-0.0027884159

block2.bnorm_2.weight f4 [75]
0	0x3f87525f	1.0572013
1	0x3f8284e5	1.0196806
2	0x3f86ab45	1.0521017
3	0x3f77fa70	0.9686651
4	0x3f806432	1.0030577
5	0x3f78ab0a	0.97135985
6	0x3f80c9ee	1.0061624
7	0x3f6e774a	0.9315077
8	0x3f81111a	1.0083344
9	0x3f7d5863	0.9896299
10	0x3f800f27	1.0004624
11	0x3f79819a	0.9746338
12	0x3f78de14	0.97213864
13	0x3f860f65	1.0473448
14	0x3f7497ed	0.9554432
15	0x3f84c063	1.0371212
16	0x3f82b807	1.0212411
17	0x3f7a6753	0.9781391
18	0x3f80c848	1.0061121
19	0x3f747a79	0.9549938
20	0x3f84e834	1.0383363
21	0x3f7a793c	0.9784124
22	0x3f84e3dd	1.0382038
23	0x3f7ee378	0.9956584
24	0x3f7dce93	0.9914333
25	0x3f840459	1.0313827
26	0x3f7ab74a	0.97935927
27	0x3f816468	1.0108767
28	0x3f84fc9b	1.0389589
29	0x3f768419	0.96295315
30	0x3f8392bc	1.0279155
31	0x3f813e2f	1.0097102
32	0x3f7f315d	0.996847
33	0x3f8207c4	1.015862
34	0x3f7f99cf	0.9984407
35	0x3f7cb243	0.98709506
36	0x3f8504bd	1.0392071
37	0x3f7e0a83	0.9923479
38	0x3f82725e	1.0191152
39	0x3f79136d	0.97295266
40	0x3f700c19	0.9376846
41	0x3f7ec69e	0.99521816
42	0x3f7c7a79	0.9862438
43	0x3f8215af	1.0162867
44	0x3f800def	1.0004252
45	0x3f8734bf	1.0562972
46	0x3f76d68f	0.9642114
47	0x3f7fae09	0.9987493
48	0x3f8a0931	1.0784055
49	0x3f857850	1.0427341
50	0x3f805144	1.00248
51	0x3f7f3008	0.99682665
52	0x3f7f1127	0.9963555
53	0x3f72aa6f	0.9479131
54	0x3f7f8389	0.9981008
55	0x3f7d7cb7	0.99018425
56	0x3f78cba4	0.9718573
57	0x3f7db427	0.99103016
58	0x3f815d80	1.0106659
59	0x3f7b7cf3	0.9823753
60	0x3f7c15d9	0.98470837
61	0x3f8435a7	1.0328873
62	0x3f8369bb	1.0266641
63	0x3f7bd40c	0.9837043
64	0x3f84e8eb	1.0383581
65	0x3f78b379	0.97148854
66	0x3f7766ac	0.9664104
67	0x3f7dc4dd	0.99128515
68	0x3f85343f	1.0406569
69	0x3f829ab1	1.0203458
70	0x3f7c950a	0.98664916
71	0x3f798886	0.97473943
72	0x3f86cf8d	1.053209
73	0x3f7dee8a	0.99192107
74	0x3f78c9ab	0.9718272

block2.bnorm_2.bias f4 [75]
0	0xbe146ed0	-0.14495397
1	0xbe12d7dd	-0.14340158
2	0xbda05f75	-0.07830707
3	0xbe06f284	-0.1317845
4	0xbce8779d	-0.028377349
5	0xbdb795b0	-0.089640975
6	0xbe2673bb	-0.16255085
7	0xbdcade4c	-0.09905681
8	0xbdb569a0	-0.08858037
9	0xbdfc78c4	-0.12327722
10	0xbdbeb2d0	-0.093114495
11	0xbe5118e2	-0.20419648
12	0xbd150c4a	-0.036388673
13	0xbdd9bb6e	-0.106314525
14	0xbde8727f	-0.113499634
15	0xbd9f607a	-0.07782073
16	0xbd804c0c	-0.06264505
17	0xbb61a96b	-0.0034433256
18	0xbddd794a	-0.1081415
19	0xbdbfd8c9	-0.0936752
20	0xbddeafa6	-0.10873346
21	0xbd9f114f	-0.07766973
22	0xbdbae812	-0.09126295
23	0xbde69d33	-0.11260452
24	0xbda69529	-0.08133919
25	0xbdca4f05	-0.09878353
26	0xbd200598	-0.039067835
27	0xbd7b382c	-0.061332867
28	0xbdad8b5b	-0.084738456
29	0xbda7a720	-0.081861734
30	0xbd66891e	-0.05628311
31	0xbd6728c4	-0.05643536
32	0xbdb3f7cb	-0.08787497
33	0xbcef7342	-0.029229764
34	0xbdf2a526	-0.11847906
35	0xbd7aa0e3	-0.06118859
36	0x3ccab8f6	0.0247464
37	0xbd36ed3a	-0.04465983
38	0xbddac1eb	-0.10681518
39	0xbd6a8633	-0.05725689
40	0xbd6d172f	-0.057883438
41	0xbda965fa	-0.082714036
42	0xbca6ae7a	-0.020346869
43	0xbd89ead7	-0.06734245
44	0xbd821d2f	-0.063532226
45	0xbd2829fe	-0.041055672
46	0xbdfe5b48	-0.12419754
47	0x3c3ea14a	0.011635134
48	0xbc76ae50	-0.015056208
49	0x3cfd344e	0.03090873
50	0xbd597913	-0.05309398
51	0xbdbcfb45	-0.09227613
52	0xbc09987c	-0.0083981715
53	0xbdeac033	-0.1146244
54	0xbd9cbd02	-0.07653238
55	0xbd939fa3	-0.07208183
56	0xbdac5806	-0.08415227
57	0xbe0310b0	-0.12799335
58	0x3b2b4081	0.0026130977
59	0xbd3ed235	-0.046587188
60	0xbd9810e1	-0.074250944
61	0xbc2bbfe5	-0.010482763
62	0xbc7d9ea7	-0.01547972
63	0xbd23b680	-0.039968967
64	0xbd00b662	-0.031423934
65	0xbd990c59	-0.07473058
66	0xbd86c2ba	-0.0658011
67	0x3b9258cc	0.004466152
68	0xbd9cbdf3	-0.076534174
69	0xbda3aea7	-0.07992297
70	0xbd493175	-0.04911943
71	0xbd815615	-0.06315247
72	0xbd8834bf	-0.066506855
73	0xbd94d617	-0.07267397
74	0xbc80851b	-0.01568847

block2.bnorm_2.running_mean f4 [75]
0	0xbe361118	-0.17779958
1	0xbde420fc	-0.11139104
2	0xbf0fcd04	-0.56172204
3	0xbf0eb366	-0.5574249
4	0xbb177260	-0.0023108944
5	0x3d9b3e2d	0.075802185
6	0xbe2d9a3c	-0.16953367
7	0xbe9d3274	-0.30702555
8	0xbf0500fd	-0.51954633
9	0xbec4d76c	-0.38445604
10	0x3e2b76cc	0.16744536
11	0xbeefc066	-0.46826476
12	0x3f15c095	0.5849698
13	0xbf1a6488	-0.6030965
14	0xbd90ecb5	-0.07076398
15	0x3d724357	0.05914625
16	0x3d5ea192	0.054353304
17	0xbf40e5d4	-0.7535069
18	0x3d2567cc	0.04038219
19	0x3e9150b6	0.2838189
20	0xbf08a13e	-0.53371036
21	0xbe877de2	-0.26463228
22	0xbf12d0d0	-0.5734987
23	0xbe123bcf	-0.14280628
24	0x3d20472b	0.03913037
25	0xbebff492	-0.3749128
26	0xbeb34204	-0.35011303
27	0xbee8d6a2	-0.45476252
28	0xbeff28be	-0.4983577
29	0x3e946a10	0.2898717
30	0xbe472c38	-0.19450462
31	0x3ce8604c	0.02836623
32	0xbe8bd527	-0.2731106
33	0xbb8ee981	-0.004361332
34	0x3e6475f5	0.22310622
35	0xbe4b416d	-0.19849177
36	0xbd7dbd00	-0.061947823
37	0x3b3a505d	0.0028429248
38	0xbd8f100d	-0.06985483
39	0x3d3ba7a9	0.04581419
40	0xbd6495ab	-0.055806797
41	0x3e85e958	0.2615459
42	0xbe2ff2a1	-0.171824
43	0xbdb6cc8d	-0.08925734
44	0xbe78ec0e	-0.24308798
45	0xbbdcc579	-0.0067374078
46	0xbf41dced	-0.7572773
47	0xbf3bde72	-0.733863
48	0xbe177f0e	-0.14794561
49	0xbf5974d3	-0.84943885
50	0xbe01ad8c	-0.12663859
51	0x3ea1177c	0.3146323
52	0x3ddf32af	0.10898339
53	0xbf370e77	-0.71506447
54	0xbf91f126	-1.1401718
55	0x3f5fb7a5	0.87389594
56	0xbd1031d0	-0.035203755
57	0xbe386361	-0.1800666
58	0xbe1fa1ae	-0.1558902
59	0xbf1abd8b	-0.6044547
60	0x3f230817	0.6368422
61	0x3e47337d	0.19453235
62	0xbed87a43	-0.42280778
63	0xbea251ef	-0.31703135
64	0x3e16c6e9	0.14724316
65	0x3e9bf825	0.30462757
66	0x3db10af3	0.086446665
67	0x3ee9dfa5	0.4567844
68	0xbf04c4f8	-0.5186305
69	0x3e346ebb	0.17620365
70	0xbfafc77f	-1.3732756
71	0x3ec1fa5a	0.37886316
72	0x3dbedd11	0.09319509
73	0xbfb73031	-1.4311582
74	0x3bd867ed	0.006604186

block2.bnorm_2.running_var f4 [75]
0	0x3f86c8a0	1.0529976
1	0x3fb691e4	1.4263272
2	0x3f6cf265	0.92557365
3	0x3f996bdb	1.198604
4	0x3f733cc0	0.9501457
5	0x3f85debe	1.04586
6	0x3faf6d80	1.3705292
7	0x3f5b9998	0.8578124
8	0x3f90a749	1.1301051
9	0x3fae33c5	1.3609549
10	0x3f2c95b8	0.6741595
11	0x3f1e59ae	0.6185559
12	0x3f4589db	0.77163476
13	0x3f8c0117	1.0937833
14	0x3f470e17	0.77755874
15	0x3fba072a	1.4533436
16	0x3fcd5855	1.6042582
17	0x3f954b88	1.1663675
18	0x3fb065fb	1.3781122
19	0x3f0fc855	0.5616506
20	0x3f4537a5	0.7703803
21	0x3f44050d	0.76570207
22	0x3f8e756f	1.1129588
23	0x3f900944	1.1252828
24	0x3fa2fba4	1.2733045
25	0x3f5f6c83	0.8727495
26	0x3fd8a8d7	1.6926526
27	0x3f1bfd87	0.6093373
28	0x3f5c7e64	0.86130357
29	0x3f65d3d1	0.8977633
30	0x3e9bf95b	0.3046368
31	0x3e753522	0.2394605
32	0x3e935350	0.287745
33	0x3e8ae41c	0.2712716
34	0x3efac794	0.4898039
35	0x3e83c674	0.25737345
36	0x3eb8f170	0.36121702
37	0x3ea0fa2c	0.31440866
38	0x3e733f68	0.23754656
39	0x3f847bbb	1.035026
40	0x3e3cb0c9	0.18426813
41	0x3ee3bf45	0.44481865
42	0x3f0424a6	0.5161842
43	0x3e995142	0.29944807
44	0x3e8cf1b4	0.27528155
45	0x3f4726ae	0.77793396
46	0x3f55d400	0.8352661
47	0x3f829ab5	1.0203463
48	0x3f9d806f	1.230482
49	0x3f8ef364	1.1168027
50	0x3f5ea091	0.86963755
51	0x3fb160c8	1.385766
52	0x3f237062	0.6384336
53	0x3ece3fb1	0.40282968
54	0x3f118458	0.56842566
55	0x3f2ac2de	0.66703594
56	0x3f93de69	1.1552249
57	0x3ee275b2	0.4423042
58	0x3f2f4fc7	0.68481106
59	0x3f93ee0b	1.155702
60	0x3edc0e6b	0.4297975
61	0x3f070367	0.52739567
62	0x3fed150e	1.852205
63	0x3f1c0c61	0.6095639
64	0x3f132ee1	0.57493407
65	0x3f8722fe	1.0557554
66	0x3edd09db	0.43171582
67	0x3ef0bcb5	0.47018972
68	0x3f1e9a08	0.61953783
69	0x3f5704e1	0.8399182
70	0x3fd3f11a	1.6557953
71	0x3ef598a7	0.47968027
72	0x3f15538b	0.583306
73	0x3fb57a2d	1.417791
74	0x3ffa5927	1.9558457

block3.conv_3.weight f4 [150, 15, 10]
0	0xbd3f1b9e	-0.046657197
1	0x3d20a628	0.03922096
2	0xbb90d599	-0.004419994
3	0x3da7dd8d	0.08196554
4	0xbd9399af	-0.07207047
5	0x3cfe8f3e	0.031074163
6	0x3cbc33b1	0.022973867
7	0x3ba7783b	0.005110768
8	0xbd932ac3	-0.071858905
9	0xbdf7802c	-0.12084994
10	0xbd672b7e	-0.05643796
11	0x3d7ff60c	0.062490508
12	0x3d5bbff0	0.053649843
13	0xbc373af1	-0.011183486
14	0xbd5b1811	-0.05348975
15	0x3cec915b	0.028877905
16	0xbc86f895	-0.016475955
17	0x3cd6bebd	0.026213998
18	0xbc424e34	-0.011859465
19	0xbd5edd05	-0.05441
20	0xbd5ab1f3	-0.05339236
21	0xbd4af63d	-0.049551237
22	0x3d14ea46	0.036356233
23	0x3d545a81	0.051844124
24	0xbc60e0bf	-0.013725459
25	0xbd8d76d1	-0.06907428
26	0xbca5b8be	-0.020229694
27	0x3cfbfe25	0.030760834
28	0x3bc95904	0.0061446447
29	0xbd425c6a	-0.047451414
30	0xbd37d865	-0.044884104
31	0x3c8103cb	0.015748879
32	0xba873a60	-0.001031708
33	0x3d8f3723	0.06992938
34	0xbc6052bf	-0.013691603
35	0x3d0fb174	0.035081342
36	0x3c355cd2	0.011069493
37	0xbcc923c8	-0.024553195
38	0xbd4c896b	-0.04993574
39	0xbc87d4b6	-0.01658092
40	0xbc82841d	-0.015932137
41	0x3c6e8e6e	0.014560325
42	0xbd141f8d	-0.0361629
43	0xbc419aec	-0.011816721
44	0x3d25c7d8	0.04047379
45	0x3cd7cac6	0.026341807
46	0xbbe2c49d	-0.006920411
47	0xbda5af9b	-0.08090135
48	0xbd79741b	-0.060901742
49	0x3b8a2565	0.0042158836
50	0x3cdbf6c6	0.02685107
51	0xbcba66e4	-0.02275414
52	0xbd9b054b	-0.07569369
53	0xbd64ae32	-0.055830188
54	0xbc9f23cc	-0.019426249
55	0x3d18f713	0.037345003
56	0xbb0ac501	-0.0021174552
57	0xbdaca3ab	-0.08429655
58	0xbb54489f	-0.0032391918
59	0xbd6018c4	-0.05471112
60	0x3d65c894	0.05609949
61	0x3c15cbe4	0.00914285
62	0xbbffbd0f	-0.00780452
63	0xbbbf27f8	-0.005833622
64	0xbd0641c8	-0.032777578
65	0x3d4f09f0	0.050546587
66	0xbd23fe22	-0.04003728
67	0x3b940687	0.0045173797
68	0xbe07ac04	-0.13249213
69	0xbd94b42f	-0.0726093
70	0xbcb7c81c	-0.022434287
71	0x3a97f68d	0.0011593864
72	0xbd354311	-0.044253413
73	0x3cdec47d	0.027193302
74	0x3d2c3589	0.042043243
75	0x3d5e4b0f	0.0542708
76	0xbcbcf855	-0.023067633
77	0x3b1f310f	0.0024290716
78	0x3c0f665e	0.008752434
79	0xbd342b47	-0.043986585
80	0xbd13cd8c	-0.036084697
81	0xbb0b9d01	-0.0021303298
82	0x3d70a9a3	0.05875553
83	0x3bdc976d	0.0067319185
84	0xbd2b165d	-0.041769374
85	0x3d07c6de	0.03314864
86	0x3cb6818d	0.022278572
87	0x3d1e5a7b	0.038660508
88	0xbdb0579d	-0.08610461
89	0xbc84b51c	-0.01619964
90	0xbd2916d7	-0.041281547
91	0xbbdea148	-0.0067941286
92	0x3c590b67	0.013247347
93	0x3c391fbc	0.01129907
94	0x3d05b45b	0.032642704
95	0x3d4212fb	0.047381382
96	0x3d340d88	0.043958217
97	0x3cbf7f9a	0.023376275
98	0xbd003a44	-0.031305566
99	0xbdb2a68a	-0.08723171
100	0x3c8c4fd3	0.017127907
101	0xbd008e35	-0.03138562
102	0xbcd90ee3	-0.026496356
103	0x3bfcadf0	0.0077111647
104	0xba06c25d	-0.0005140657
105	0xbd12061a	-0.03565035
106	0x3c3d6c60	0.011561483
107	0xbd0a8928	-0.03382221
108	0xba6bed9c	-0.0008999945
109	0xbc87759c	-0.016535573
110	0xbd07d0fb	-0.033158284
111	0xbcc4e23f	-0.024033664
112	0xbd25145e	-0.040302627
113	0x3bf5838c	0.0074924883
114	0x3cc80e08	0.024420753
115	0xbd669a1c	-0.056299314
116	0xbc9656ca	-0.018351931
117	0x3b823503	0.0039736046
118	0x3b654957	0.003498634
119	0xbd3be25b	-0.045870166
120	0x3d816c4a	0.063194826
121	0x3d3cf5a8	0.046132714
122	0xbdaa3d86	-0.08312516
123	0xbb822263	-0.0039713844
124	0xbc9f4624	-0.019442625
125	0x3d1bb557	0.038014736
126	0xbc0e4847	-0.008684224
127	0xbc925060	-0.017860591
128	0xbd5a7795	-0.0533367
129	0xbc119468	-0.00888548
130	0x3b1ebf68	0.0024222974
131	0xbd3fe9f9	-0.046853993
132	0x3c659ded	0.014014703
133	0x3d162b49	0.036662374
134	0xbd2a07a1	-0.04151118
135	0xbccd9909	-0.025097387
136	0x3c82cae2	0.015965883
137	0xbcce4410	-0.02517894
138	0xbcefc58f	-0.029269008
139	0xbc409bd2	-0.0117559
140	0xbcb817af	-0.02247223
141	0x3ca2a8d6	0.019855898
142	0xbc7f4973	-0.0155814765
143	0x3d694ba2	0.056956895
144	0x3b596295	0.0033170332
145	0x3b32937f	0.002724856
146	0x3ca6b963	0.020352071
147	0xbd125daf	-0.035733875
148	0xbd517a53	-0.051142048
149	0xbacdbcff	-0.0015696584
150	0xbd39b393	-0.04533727
151	0xbd55bb33	-0.05218048
152	0xbd0abb10	-0.033869803
153	0x3ba15545	0.004923495
154	0xbd1781e3	-0.036989104
155	0x3bd88554	0.006607691
156	0x3d4ba43c	0.049717173
157	0xbcb479b6	-0.022030693
158	0xbd50b4c4	-0.05095364
159	0xbd8d9016	-0.06912248
160	0xbb21bc9f	-0.0024679077
161	0xbdd58461	-0.1042564
162	0xbd386533	-0.045018386
163	0xbd940580	-0.072276115
164	0x3da10067	0.07861405
165	0x3d6e7d9a	0.05822525
166	0xbc908c09	-0.017644899
167	0xbc88ef26	-0.016715597
168	0x3c5bd22a	0.013416806
169	0xbdab0209	-0.083499976
170	0xbcffa114	-0.031204738
171	0xbd39d72a	-0.045371212
172	0x3c87f48c	0.016596101
173	0xbca14a8b	-0.019688865
174	0x3db3e783	0.08784392
175	0x3b4c24c4	0.0031149844
176	0x3d22e5ca	0.039769925
177	0xbb453bef	-0.0030095538
178	0x3c05773e	0.008146105
179	0xbcb53ea8	-0.022124603
180	0xbcc8af5e	-0.024497684
181	0xbd9e154c	-0.07718906
182	0xbd0042a4	-0.031313553
183	0xbd4450b4	-0.047928527
184	0x3c5ab2f6	0.013348332
185	0x3d2f7d0a	0.042843856
186	0x3d48eda7	0.049054768
187	0xbc3fc363	-0.011704299
188	0xbd17ff5a	-0.037108757
189	0xbbffebaa	-0.007810076
190	0x3cf63f41	0.030059459
191	0xbd95b6a6	-0.07310228
192	0xbc2d8343	-0.010590377
193	0xbcc12bd5	-0.023580471
194	0x3d0a7098	0.033798784
195	0x3b34b30f	0.0027572548
196	0xbd05185b	-0.03249393
197	0x3d3dd9fe	0.04635047
198	0x3ca544b0	0.020174354
199	0xbd767627	-0.060171273
200	0xbcd6a22f	-0.026200382
201	0xbcb2461c	-0.021761946
202	0xbd3e922d	-0.046526123
203	0xbcdc23b4	-0.026872493
204	0x3d24c8d2	0.04023058
205	0xbbb4401f	-0.005500808
206	0x3cc5f5e0	0.024165094
207	0x3b968bf0	0.0045943186
208	0xbd1aa5cc	-0.037755772
209	0xbdc1c76d	-0.094618656
210	0xbdf3a85f	-0.118973486
211	0xbcc65f0f	-0.02421525
212	0xbd83d96a	-0.06437953
213	0x3ceeea45	0.029164443
214	0x3d8857bd	0.0665736
215	0x3b5d3282	0.0033752029
216	0x3c9f1f91	0.019424232
217	0x3bf0b9c0	0.007346362
218	0xbd0bb1b8	-0.034105033
219	0xbd73c2ab	-0.05951182
220	0xbd64a92f	-0.05582541
221	0xbc7470f5	-0.014919509
222	0xbd45b771	-0.048270646
223	0x3d358034	0.044311717
224	0x3d030dc7	0.03199556
225	0x3c8a3451	0.01687065
226	0xbcbfb45b	-0.02340143
227	0x3c827e2f	0.01592931
228	0xbd21c3d1	-0.039493386
229	0x3bd1b371	0.006399565
230	0xbd97993c	-0.07402274
231	0xbd3509fb	-0.04419897
232	0xbbb298fc	-0.005450366
233	0x3c09667d	0.0083862515
234	0xbcd3aa69	-0.025838094
235	0x3cabac2f	0.020956127
236	0x3cf81bdf	0.030286727
237	0xbc89129f	-0.016732512
238	0x3d0b1613	0.0339566
239	0xbd5a3b57	-0.053279247
240	0x3c1f0a60	0.009707063
241	0xbd2da0be	-0.042389624
242	0xbde80def	-0.113307826
243	0xbd47c64b	-0.04877309
244	0xbc982846	-0.018573891
245	0x3d451c05	0.048122425
246	0xbd655a8a	-0.055994548
247	0xbd87df57	-0.066343956
248	0x3c9c2009	0.019058244
249	0xb9c3734e	-0.00037279207
250	0xba0ecb4e	-0.0005447165
251	0xb77a4cbb	-1.4919026e-05
252	0xbd243cc2	-0.040097006
253	0x3b89d1e8	0.004205931
254	0xbd85840d	-0.06519327
255	0xbdc567f0	-0.09638965

block3.bnorm_3.weight f4 [150]
0	0x3f803f08	1.0019236
1	0x3f7a8912	0.978654
2	0x3f8052af	1.0025233
3	0x3f7d818e	0.9902581
4	0x3f7eb1ff	0.9949035
5	0x3f7a27b7	0.9771685
6	0x3f814e5c	1.0102038
7	0x3f863111	1.0483724
8	0x3f81c2f7	1.0137624
9	0x3f7c6641	0.9859353
10	0x3f7c5911	0.98573405
11	0x3f800f03	1.0004581
12	0x3f8028e7	1.0012482
13	0x3f85e7c0	1.046135
14	0x3f805751	1.0026647
15	0x3f812d37	1.0091923
16	0x3f84f265	1.0386473
17	0x3f78fdd5	0.97262317
18	0x3f7b2faa	0.98119605
19	0x3f8060f6	1.002959
20	0x3f7c0dac	0.9845836
21	0x3f826548	1.0187159
22	0x3f897335	1.0738283
23	0x3f75f72d	0.96080285
24	0x3f7b212f	0.9809751
25	0x3f7d5a00	0.98965454
26	0x3f6e0292	0.9297267
27	0x3f687e08	0.9081731
28	0x3f792724	0.9732535
29	0x3f828ae8	1.0198641
30	0x3f81ba70	1.0135021
31	0x3f7efd12	0.99604905
32	0x3f8672b5	1.0503756
33	0x3f7fdc8a	0.9994589
34	0x3f806fb5	1.003409
35	0x3f86101f	1.047367
36	0x3f77cec5	0.9679988
37	0x3f7ab32d	0.9792965
38	0x3f82b0ee	1.0210245
39	0x3f7a413b	0.97755784
40	0x3f7c2cdb	0.98505944
41	0x3f7f8596	0.9981321
42	0x3f81e814	1.014895
43	0x3f7c7711	0.9861918
44	0x3f79657f	0.97420496
45	0x3f82e3c7	1.0225762
46	0x3f73656e	0.95076644
47	0x3f76e0f1	0.96436983
48	0x3f80c685	1.0060583
49	0x3f7c97c8	0.986691
50	0x3f819078	1.0122213
51	0x3f7f193b	0.99647874
52	0x3f7e367d	0.9930189
53	0x3f7bd3a2	0.983698
54	0x3f78ff79	0.9726482
55	0x3f7bf657	0.9842276
56	0x3f8064ca	1.0030758
57	0x3f7f4c93	0.9972622
58	0x3f806544	1.0030904
59	0x3f7b7d99	0.9823852
60	0x3f7adf1f	0.97996706
61	0x3f80435a	1.0020554
62	0x3f82fbfc	1.023315
63	0x3f83acf3	1.0287155
64	0x3f7d69e2	0.9898969
65	0x3f7cff0c	0.9882667
66	0x3f859b33	1.0437988
67	0x3f7e03cc	0.99224544
68	0x3f83b9a3	1.0291027
69	0x3f7e9f6c	0.9946201
70	0x3f735bd9	0.95062023
71	0x3f7e48bb	0.9932973
72	0x3f7abe15	0.9794629
73	0x3f865c55	1.0496927
74	0x3f7b8b7f	0.9825973
75	0x3f804778	1.002181
76	0x3f78acf1	0.9713889
77	0x3f80bdc7	1.0057915
78	0x3f7d91fa	0.9905087
79	0x3f81153e	1.0084608
80	0x3f785e13	0.97018546
81	0x3f7b43e4	0.9815047
82	0x3f7ae95d	0.98012334
83	0x3f804449	1.0020839
84	0x3f7a2034	0.9770539
85	0x3f832f0e	1.0248735
86	0x3f8453a9	1.0338031
87	0x3f785dc8	0.970181
88	0x3f84658f	1.0343493
89	0x3f81f463	1.0152706
90	0x3f78f6a5	0.9725135
91	0x3f73d82a	0.95251715
92	0x3f7259a6	0.9466804
93	0x3f77db59	0.9681907
94	0x3f7dac18	0.9909072
95	0x3f79e300	0.97612
96	0x3f788d3a	0.97090495
97	0x3f83d534	1.029944
98	0x3f823297	1.0171689
99	0x3f8625d1	1.0480291
100	0x3f849d67	1.0360535
101	0x3f7176a5	0.9432166
102	0x3f8194a8	1.0123491
103	0x3f7a4cd0	0.97773457
104	0x3f87ae23	1.0600017
105	0x3f6e57c0	0.93102646
106	0x3f8657ff	1.0495604
107	0x3f81b6c6	1.0133903
108	0x3f7881cd	0.9707306
109	0x3f838844	1.027596
110	0x3f848e7c	1.0355983
111	0x3f7f8990	0.9981928
112	0x3f814dcb	1.0101866
113	0x3f7ba848	0.9830365
114	0x3f760536	0.961017
115	0x3f7d1164	0.9885466
116	0x3f80ab03	1.0052189
117	0x3f7c75c8	0.9861722
118	0x3f84e6cd	1.0382935
119	0x3f802db6	1.001395
120	0x3f81ef0b	1.0151075
121	0x3f7ad8b8	0.97986937
122	0x3f80badd	1.0057026
123	0x3f80c538	1.0060186
124	0x3f726978	0.9469218
125	0x3f7d6a38	0.989902
126	0x3f853055	1.0405375
127	0x3f835b4a	1.0262234
128	0x3f81a3b0	1.0128078
129	0x3f7239a6	0.94619215
130	0x3f7f3102	0.99684155
131	0x3f82af27	1.0209702
132	0x3f787d8e	0.9706658
133	0x3f78929d	0.97098714
134	0x3f84f2dd	1.0386616
135	0x3f7ff650	0.9998522
136	0x3f80fe7a	1.007766
137	0x3f85e4fe	1.0460508
138	0x3f7da341	0.9907723
139	0x3f804221	1.0020181
140	0x3f7bfac6	0.98429525
141	0x3f8556f9	1.0417167
142	0x3f724b9b	0.94646615
143	0x3f7a52a5	0.97782356
144	0x3f833bc8	1.0252619
145	0x3f846a41	1.0344926
146	0x3f831096	1.0239437
147	0x3f7c492b	0.98549145
148	0x3f765cc6	0.9623531
149	0x3f828f7f	1.0200042

block3.bnorm_3.bias f4 [150]
0	0xbe27745d	-0.16352983
1	0xbe21c7ea	-0.15798917
2	0xbe3adf62	-0.18249276
3	0xbe66dac0	-0.22544384
4	0xbe236816	-0.15957674
5	0xbe63f911	-0.2226298
6	0xbe0c2a1d	-0.1368794
7	0xbdf96409	-0.12177283
8	0xbe4cd1c4	-0.20001894
9	0xbe782b3d	-0.24235244
10	0xbdfd28df	-0.12361311
11	0xbe623c89	-0.22093405
12	0xbe064924	-0.13113838
13	0xbe3225ea	-0.17397276
14	0xbe54c8f7	-0.20779787
15	0xbe07f213	-0.13275938
16	0xbe164ec6	-0.14678487
17	0xbe27aede	-0.163753
18	0xbe456433	-0.19276504
19	0xbe13cb0a	-0.14432922
20	0xbe09a5ee	-0.13442203
21	0xbdc8b1c1	-0.09799529
22	0xbe039bac	-0.12852353
23	0xbe40e690	-0.18837953
24	0xbe631bc0	-0.22178555
25	0xbe14fd0a	-0.14549652
26	0xbe33f0ab	-0.17572276
27	0xbe1d1763	-0.15340953
28	0xbdf45088	-0.119294226
29	0xbe355a69	-0.1771027
30	0xbe120736	-0.14260563
31	0xbe054b08	-0.13016903
32	0xbe2c8c45	-0.16850384
33	0xbe8703ca	-0.26370078
34	0xbe450d48	-0.19243348
35	0xbde81dc4	-0.11333802
36	0xbe3debc4	-0.18546969
37	0xbe38a6d3	-0.18032388
38	0xbe111597	-0.14168392
39	0xbe244ff0	-0.16046119
40	0xbdd71fd2	-0.10504116
41	0xbe2d9b95	-0.16953881
42	0xbdff27fb	-0.124587975
43	0xbdb693fa	-0.08914943
44	0xbdc4962b	-0.09598955
45	0xbdfa7c58	-0.12230748
46	0xbe28d543	-0.16487603
47	0xbe013ae4	-0.12620121
48	0xbe382bf9	-0.17985524
49	0xbd83523d	-0.0641217
50	0xbe36fde2	-0.17870286
51	0xbdff1bff	-0.12456512
52	0xbe27ea38	-0.16397941
53	0xbe519cad	-0.20469923
54	0xbdf84b17	-0.12123697
55	0xbda1450b	-0.07874497
56	0xbe3c585d	-0.18393083
57	0xbdecd1bb	-0.115634404
58	0xbe3a0da2	-0.18169263
59	0xbe207003	-0.15667729
60	0xbd469059	-0.048477504
61	0xbdb55398	-0.08853835
62	0xbd8a3070	-0.0674752
63	0xbd4f2023	-0.050567757
64	0xbc9152b3	-0.01773963
65	0xbd6b7aed	-0.057490278
66	0xbd5cd30e	-0.053912215
67	0xbc9ebd01	-0.019377233
68	0xbcb934e7	-0.022608234
69	0xbd53e9b1	-0.051736537
70	0xbdc58d63	-0.09646108
71	0xbdcbb766	-0.0994709
72	0xbcf2072d	-0.029544437
73	0x3cd9846a	0.026552398
74	0xbd49beb3	-0.04925413
75	0xbd8ad0c0	-0.06778097
76	0xbd4c248f	-0.049839552
77	0xbd5264a2	-0.051365502
78	0xbda74541	-0.08167506
79	0xbc2d137c	-0.0105637275
80	0xbd9924d4	-0.074777275
81	0xbde66cd1	-0.11251224
82	0xbc7ba7d6	-0.015359839
83	0xbba01ec9	-0.0048864824
84	0xbda20b4c	-0.07912311
85	0xbdb6072b	-0.08888086
86	0xbdd411bb	-0.10354944
87	0xbd3f467c	-0.04669808
88	0xbd6e826f	-0.05822986
89	0xbd0ab93f	-0.03386807
90	0xbdf344b1	-0.11878336
91	0xbd9d24f6	-0.07673065
92	0xbdb167de	-0.08662389
93	0xbdd46554	-0.10370889
94	0xbe21345c	-0.1574263
95	0xbdba25c3	-0.09089234
96	0xbda6420b	-0.081180654
97	0xbdd609b2	-0.10451068
98	0xbd663b5d	-0.056208957
99	0xbdd18e6d	-0.10232244
100	0xbd9b2845	-0.0757604
101	0xbda49f38	-0.08038181
102	0xbe0eb985	-0.13937958
103	0xbe1bd589	-0.15218176
104	0xbd69c3d7	-0.057071533
105	0xbe24177b	-0.16024582
106	0xbe0f7e19	-0.14012946
107	0xbd6e287a	-0.05814407
108	0xbdea336d	-0.1143559
109	0xbd23fa8c	-0.040033862
110	0xbdf12701	-0.117750175
111	0xbe163aa7	-0.14670812
112	0xbdfd84aa	-0.12378819
113	0xbd8b2dc5	-0.06795839
114	0xbdaeeb4c	-0.08540973
115	0xbdc16bf5	-0.09444419
116	0xbdd823c5	-0.105536975
117	0xbd350956	-0.044198357
118	0xbde95249	-0.11392648
119	0xbe1d733b	-0.15375988
120	0xbdce276e	-0.10066114
121	0xbd830b4b	-0.06398638
122	0xbdcae1cf	-0.09906351
123	0xbd996480	-0.07489872
124	0xbdf47a0e	-0.119373426
125	0xbd710c2f	-0.05884951
126	0xbd9a1b00	-0.07524681
127	0xbd992f87	-0.07479768
128	0xbd7998f6	-0.06093689
129	0xbd6b8ce3	-0.057507407
130	0xbdaff6a8	-0.08591968
131	0xbd7ae7a5	-0.06125607
132	0xbd99ac8f	-0.07503616
133	0xbd7d7a63	-0.061884295
134	0xbe27dde1	-0.16393234
135	0xbd45a47d	-0.04825257
136	0xbd067092	-0.0328222
137	0xbcc2c41b	-0.023775151
138	0xbdfe3568	-0.1241253
139	0xbe06601c	-0.131226
140	0xbdf53d01	-0.11974526
141	0xbd91be7f	-0.07116412
142	0xbccb219d	-0.024796301
143	0xbd6d6a9c	-0.057963
144	0xbd7b7429	-0.061390076
145	0xbdbc1abe	-0.09184788
146	0xbd7e9627	-0.062154915
147	0xbd95fcb0	-0.07323587
148	0xbdb80f83	-0.089873336
149	0xbdeca926	-0.115557

block3.bnorm_3.running_mean f4 [150]
0	0xbf07acd0	-0.52998066
1	0xbf899aa5	-1.0750319
2	0xbe66dfdc	-0.22546333
3	0xbeb38729	-0.35064057
4	0xbf4685b5	-0.7754777
5	0xbf2f10b1	-0.68384844
6	0xbf29a9e7	-0.66274875
7	0xbe91adc1	-0.28452876
8	0xbef9a7e7	-0.48760912
9	0xbf3242c7	-0.69633144
10	0x3e5bd345	0.21467312
11	0xbf524fda	-0.82153094
12	0xbed0f8b3	-0.40814742
13	0xbd9629d8	-0.073322
14	0xbf05fd73	-0.5233986
15	0xbf42ebdd	-0.7614115
16	0xbe3e9600	-0.18611908
17	0x3e63088a	0.22171226
18	0xbeac9825	-0.33709827
19	0xbeb163ff	-0.34646603
20	0xbe0b0bc3	-0.13578705
21	0xbf2555ef	-0.6458425
22	0xbf02fd8c	-0.5116813
23	0xbd983d46	-0.07433562
24	0xbe61ef41	-0.22063924
25	0xbf3b4847	-0.7315716
26	0x3ed0c3fe	0.4077453
27	0x3e89448b	0.26810107
28	0x3da2c7ca	0.07948263
29	0xbf310a81	-0.6915665
30	0x3f01e146	0.50734365
31	0xbf02b37c	-0.5105512
32	0xbf578afa	-0.84196436
33	0xbf833c7e	-1.0252836
34	0xbf376d25	-0.71650916
35	0xbee90cac	-0.4551748
36	0xbf746e27	-0.9548058
37	0xbf59ba0a	-0.850495
38	0xbf2d0d55	-0.6759847
39	0xbf3b1d6e	-0.7309178
40	0x3e36bc99	0.17845382
41	0xbf558029	-0.8339868
42	0xbf33ed4f	-0.7028398
43	0x3e378008	0.17919934
44	0xbd00ee63	-0.031477343
45	0xbe9e4fa1	-0.30920127
46	0x3da1e3c2	0.079047695
47	0x3f3d4186	0.73928106
48	0xbf4d6980	-0.80239105
49	0x3eb7680d	0.35821572
50	0xbf285978	-0.6576152
51	0x3d93525a	0.07193442
52	0xbf82fa06	-1.0232551
53	0xbd1f6aee	-0.038920335
54	0xba8ebabf	-0.0010889395
55	0xbf03ca27	-0.51480335
56	0xbfa2fecb	-1.2734007
57	0xbf086e8a	-0.5329367
58	0xbf041d84	-0.5160754
59	0xbf034023	-0.5126974
60	0xbe620646	-0.22072706
61	0xbe939f75	-0.28832594
62	0xbe75f7f0	-0.24020362
63	0xbec5db69	-0.3864396
64	0xbe62dc8c	-0.22154444
65	0xbf2ab87e	-0.6668776
66	0xbcdd7667	-0.027033998
67	0xbea04393	-0.31301555
68	0xbe6d5a0c	-0.23178881
69	0xbdbcc48f	-0.09217178
70	0x3e46b9ad	0.19406767
71	0x3e7514f2	0.23933771
72	0xbe096e01	-0.1342087
73	0xbf09e8ec	-0.53871036
74	0xbdd36d39	-0.10323567
75	0x3d772781	0.06034041
76	0xbe172123	-0.14758734
77	0xbf314610	-0.6924753
78	0xbe53127c	-0.2061252
79	0xbcb9775d	-0.022639925
80	0xbe191d29	-0.1495253
81	0xbc83f0c6	-0.01610602
82	0x3d9a658d	0.075389005
83	0xbcc20e2e	-0.023688402
84	0x3ed12e3f	0.40855595
85	0xbf199caa	-0.60004675
86	0xbf011683	-0.50424975
87	0xbc8d9227	-0.017281605
88	0xbecd5d67	-0.40110323
89	0xbe48d5eb	-0.19612853
90	0x3e5f8484	0.21827894
91	0xbe032e8e	-0.12810728
92	0xbf20c629	-0.6280237
93	0xbf4a33a3	-0.7898504
94	0xbebe0e41	-0.3712025
95	0x3eb78058	0.35840106
96	0x3dae742f	0.08518254
97	0xbec0ba84	-0.376423
98	0xbdf22cae	-0.11824928
99	0xbf6dea24	-0.92935395
100	0x3ef1c97a	0.47224027
101	0xbf560d9d	-0.8361452
102	0xbd98f8b8	-0.07469314
103	0xbe73b09b	-0.23797838
104	0x3e0bec4a	0.13664356
105	0xbee2e7dc	-0.4431752
106	0xbf5b3aa5	-0.8563636
107	0xbefca9c7	-0.4934828
108	0x3d625035	0.055252273
109	0x3e064eca	0.13115993
110	0xbf404f24	-0.7512076
111	0xbebd2b89	-0.36947277
112	0xbf008036	-0.50195634
113	0x3cd653fd	0.026163096
114	0x3e395a2e	0.18100807
115	0xbed85ec3	-0.42259797
116	0xbe421228	-0.18952239
117	0xbf11305a	-0.56714404
118	0xbe433e14	-0.1906665
119	0xbf095a1e	-0.5365313
120	0xbec62a38	-0.38704085
121	0xbf4c79bc	-0.7987325
122	0xbe34216a	-0.17590871
123	0x3d89654e	0.067087755
124	0x3ee5e3e0	0.44900417
125	0xbe1b8968	-0.15189135
126	0xbde3c43d	-0.11121414
127	0xbe7e2a42	-0.24820808
128	0xbdbe4064	-0.09289625
129	0x3f35e6ff	0.710556
130	0xbd8a4a4c	-0.06752452
131	0xbe934351	-0.28762296
132	0x3e584e37	0.21123587
133	0xbf791c93	-0.97309226
134	0xbf61556a	-0.88020957
135	0xbe0df97a	-0.13864699
136	0xbd2f6b9b	-0.04282723
137	0x3c9d361d	0.019190842
138	0xbef8786f	-0.48529384
139	0xbe929678	-0.28630424
140	0xbe342ecd	-0.17595978
141	0x3e1051cb	0.14093702
142	0x3f29f17b	0.66384095
143	0xbeb4b620	-0.352952
144	0x3e080edc	0.13286918
145	0xbf2b3fa3	-0.66893977
146	0xbeac9dcb	-0.33714136
147	0x3d337ae8	0.043818384
148	0xbd50fcdb	-0.05102239
149	0xbc6ec53f	-0.014573394
