submit_entry/checkpoints/Combined_edgcn_12s_slice_norm/II/3/best.pth (torch_old, 75847 bytes, 26 tensors)

conv_time.weight f4 [15, 1, 10]
0.0035786314 -0.14151312 -0.027533429 -0.024606843 -0.022409778 -0.044094093 -0.19123381 0.16789538
-0.0015787352 0.18885511 0.183513 0.13355768 0.11812808 0.12492847 -0.17919001 -0.11255506
0.17110573 -0.05423947 -0.17714474 -0.16492765 0.18575718 -0.009211606 0.06299565 0.14268818
-0.06266554 -0.1818184 0.04927229 -0.11479201 -0.046750527 0.09093936 0.05177404 0.04526915
-0.11873204 -0.06839051 0.13420525 -0.022005787 0.05985936 -0.018328933 -0.036970258 -0.07058233
0.14855377 -0.062433798 -0.032439746 -0.048084296 -0.10737869 0.16658394 -0.19950956 -0.16661194
0.099667214 0.14177899 0.11328974 -0.106157176 0.026348228 0.20538127 0.11167194 -0.16657576
-0.18370344 0.12499034 0.005830694 0.14276384 -0.20830987 0.012751534 0.122187085 -0.15257278
0.010190285 -0.18550467 0.046590585 -0.014453428 -0.09432808 0.05146158 0.043079786 -0.10965995
-0.0006828464 0.15880543 -0.035199054 -0.01850619 -0.20849591 -0.10674342 -0.04450143 -0.17555852
0.119149975 -0.023521898 0.0043513356 0.11161683 0.18076058 0.089728564 0.17096119 0.061782412
0.041146982 0.10236573 0.11583131 -0.09091341 0.16370218 -0.08892855 0.1599506 -0.024778338
0.123367466 -0.16153343 -0.04859585 -0.15562059 0.16500406 0.049434945 0.18716477 0.044144418
-0.13337828 0.045369178 0.07986649 -0.14043976 0.06488549 0.05936594 -0.17502788 0.14170073
-0.017378943 -0.10190383 0.026962338 0.116666056 0.04403743 -0.12300146 -0.025649635 0.027465211
0.1879459 0.015199639 0.28428203 0.006476568 0.10699483 -0.00704821 -0.10774473 -0.055773824
0.047086895 0.06057529 -0.06728274 -0.0075788125 -0.06653656 -0.050997104 0.02287878 -0.03520143
0.12823264 -0.048280347 0.17594033 0.020126715 -0.16841726 0.03953969 -0.06553458 0.1405477
-0.061255492 -0.13017295 0.14120336 0.028839076 -0.10435594 0.0516111
00000000: 7987 6a3b d1e8 10be c98d e1bc 4a94 c9bc
00000010: b694 b7bc 029c 34bd ccd2 43be c4ec 2b3e
00000020: 90ed ceba 3c63 413e d5ea 3b3e 58c3 083e
00000030: 23ed f13d 7fda ff3d 967d 37be 4483 e6bd
00000040: 5736 2f3e 352a 5ebd 6e65 35be cbe2 28be
00000050: 2137 3e3e 47ec 16bc dd03 813d da1c 123e
00000060: ca56 80bd 9a2e 3abe bed1 493d 1318 ebbd
00000070: 7b7d 3fbd 6a3e ba3d 0411 543d 256c 393d
00000080: c929 f3bd 5310 8cbd 1a6d 093e 7b45 b4bc
00000090: 172f 753d 8f26 96bc 206e 17bd 788d 90bd
000000a0: 7b1e 183e 95ba 7fbd 8adf 04bd 0af4 44bd
000000b0: 5ce9 dbbd fb94 2a3e 3c4c 4cbe 529c 2abe
000000c0: 531e cc3d 832e 113e 7404 e83d ef68 d9bd
000000d0: 3dd8 d73c 784f 523e 42b4 e43d d692 2abe
000000e0: c11c 3cbe effa ff3d 680f bf3b af30 123e
000000f0: 2f4f 55be cfeb 503c 393d fa3d 0a3c 1cbe
00000100: 27f5 263c f0f4 3dbe c5d5 3e3d 12ce 6cbc
00000110: 152f c1bd 61c9 523d 6e74 303d 6595 e0bd
00000120: 0c01 33ba e49d 223e e22c 10bd 4b9a 97bc
00000130: f47f 55be 4b9c dabd 2247 36bd 9dc5 33be
00000140: e704 f43d ffb0 c0bc a695 8e3b 5d97 e43d
00000150: 4d19 393e 9cc3 b73d 7310 2f3e 8e0f 7d3d
00000160: bd89 283d 20a5 d13d f738 ed3d cf30 babd
00000170: 8ba1 273e 2c20 b6bd 17ca 233e f1fb cabc
00000180: 15a8 fc3d 0569 25be 710c 47bd 015b 1fbe
00000190: d3f6 283e 4c7c 4a3d 1fa8 3f3e c7d0 343d
000001a0: 5194 08be 08d5 393d 0b91 a33d 71cf 0fbe
000001b0: afe2 843d b329 733d 823a 33be ff19 113e
000001c0: 495e 8ebc f5b2 d0bd 1fe0 dc3c 9dee ee3d
000001d0: 9860 343d 31e8 fbbd 2f1f d2bc b9fe e03c
000001e0: e474 403e e807 793c 6a8d 913e 6439 d43b
000001f0: 1b20 db3d acf4 e6bb 45a9 dcbd 1873 64bd
00000200: 30de 403d cc1d 783d 88cb 89bd b057 f8bb
00000210: 5244 88bd 57e2 50bd 476c bb3c 602f 10bd
00000220: 6b4f 033e 9dc1 45bd b429 343e c8e0 a43c
00000230: 9375 2cbe 5ff4 213d fe36 86bd bceb 0f3e
00000240: 0ae7 7abd 0f4c 05be 9d97 103e ed3f ec3c
00000250: 91b8 d5bd 2966 533d

conv_time.bias f4 [15]
0.0057053543 0.0013403902 0.0066440753 -0.0063240887 0.016466822 -0.0118885 0.005860156 -0.010520309
0.004854966 -6.110944e-05 0.0065883156 -0.020680176 -0.010632614 -0.010556759 0.023210475
00000000: fbf3 ba3b 08b0 af3a 8bb6 d93b 4d3a cfbb
00000010: 6ee5 863c fcc7 42bc 8d06 c03b 605d 2cbc
00000020: 6816 9f3b e127 80b8 cce2 d73b 7969 a9bc
00000030: 6a34 2ebc 42f6 2cbc e523 be3c

bnorm.weight f4 [15]
1.0261176 1.0068022 0.99222285 1.0064871 1.0129895 0.98773474 0.975987 0.9919608
0.99251264 0.99938095 0.99587893 0.99950665 0.9980431 1.0254941 1.0050912
00000000: d257 833f e5de 803f 5102 7e3f 92d4 803f
00000010: a4a9 813f 2fdc 7c3f 49da 793f 25f1 7d3f
00000020: 4f15 7e3f 6ed7 7f3f ecf1 7e3f abdf 7f3f
00000030: c17f 7f3f 6443 833f d4a6 803f

bnorm.bias f4 [15]
-0.014103981 0.025478488 -0.010321349 -0.025353745 -0.017140398 -0.043542404 -0.008818675 -0.0057883593
-0.010173 0.047299325 -0.04712953 0.021095715 -0.016100902 -0.033329718 0.015213221
00000000: 6214 67bc 43b8 d03c e01a 29bc a8b2 cfbc
00000010: 056a 8cbc 8559 32bd 347c 10bc 47ac bdbb
00000020: a8ac 26bc f0bc 413d e50a 41bd ecd0 ac3c
00000030: 0ae6 83bc be84 08bd e040 793c

bnorm.running_mean f4 [15]
-0.030096835 0.017836416 0.05193429 -0.024221838 -0.0070230584 0.09609655 -0.1558651 -0.2060742
0.3425832 -0.0022771028 0.17200437 -0.054618537 0.20097049 0.016825113 -0.027721869
00000000: a38d f6bc ad1d 923c 0db9 543d e06c c6bc
00000010: af21 e6bb 45ce c43d 1a9b 1fbe 1d05 53be
00000020: 1167 af3e 723b 15bb ea21 303e b0b7 5fbd
00000030: 35cb 4d3e d2d4 893c f918 e3bc

bnorm.running_var f4 [15]
0.001293707 0.0028232215 0.0011913159 0.00016604773 0.0005606965 0.0032209118 0.00722926 0.011187118
0.03149263 0.0009185738 0.007703694 0.00036957182 0.012874239 0.0008186674 0.00081961724
00000000: 9b91 a93a cc05 393b ee25 9c3a 191d 2e39
00000010: b5fb 123a ef15 533b 6ee3 ec3b 2c4a 373c
00000020: 6afe 003d 72cc 703a 456f fc3b 17c3 c139
00000030: 79ee 523c d79b 563a 95db 563a

block2.conv_2.weight f4 [15, 15, 10]
-0.14607061 -0.020685827 -0.042168405 0.073114 0.08648864 -0.0924255 -0.03436689 -0.082341515
-0.10525036 0.07811403 0.038535494 -0.030459829 -0.088222764 0.07313485 -0.019404802 0.10138644
-0.11978832 -0.0037715968 0.11424875 -0.123111665 0.081171244 -0.018592581 0.027483925 -0.14247273
-0.07810361 -0.08473934 -0.1275794 0.07652687 -0.0384286 0.026876792 -0.11587129 0.085677825
0.08481193 -0.11824526 -0.101749174 -0.0695207 -0.1300991 0.053392716 0.087693706 0.05009345
-0.021348175 -0.07032642 -0.035551593 -0.009190493 0.015238251 0.025516758 0.13846822 0.059725642
-0.123926766 -0.15931459 -0.12534313 0.089444295 0.05568884 -0.08361607 -0.08968234 0.08891569
0.0125092305 -0.123257466 -0.018120596 -0.09937309 -0.009446838 -0.056486383 -0.106828384 -0.05727295
-0.031058291 0.025532585 0.0022876214 0.043541197 0.01759929 -0.004331109 0.06988951 -0.04962524
0.13711119 0.0008324818 0.01988687 0.012090734 -0.0004239496 -0.05216278 -0.06792188 -0.12886864
-0.0017507614 -0.056153063 -0.11805868 -0.12874946 -0.09052811 -0.013514261 0.11608428 -0.04975712
0.111554556 -0.04540302 0.117938 0.08011127 -0.10043169 -0.0057575195 -0.07820852 -0.07798967
0.087535806 0.02676089 0.05212225 -0.12217275 -0.07905833 0.004219613 -0.11881745 -0.006634987
0.08273482 0.044045195 0.04464473 -0.12873209 0.08437655 -0.0062037134 0.021635877 -0.13476971
-0.008139404 -0.0019769135 -0.020088952 0.1640227 0.10927496 -0.003834141 0.15848035 -0.04612345
-0.06700973 0.023052068 0.054367453 -0.02845773 0.13366087 0.079402596 -0.04053326 -0.032262113
0.092427015 -0.107504874 0.120295644 0.10182214 -0.10363513 -0.093096554 -0.013574945 0.11771126
-0.054695725 -0.14696251 0.10366246 -0.14110121 -0.06997756 -0.016769897 -0.08331842 0.09471934
0.102213115 0.024581848 0.06541985 -0.010277034 0.0045171008 0.059432127 -0.05323087 -0.090739906
0.11482051 0.06269958 -0.07881439 -0.03160143 0.08357236 -0.10570063 -0.18414208 0.016235864
0.044011164 0.02660798 -0.104210794 0.07956428 -0.053664546 0.0053105336 -0.10259681 -0.12772049
-0.16996954 0.12134634 0.10972279 -0.16135626 -0.015870608 -0.12752332 -0.0105449585 0.0018190568
-0.107862 0.043253954 -0.09146061 -0.08154051 0.105993904 0.08461097 0.060129788 -0.080654435
0.09073149 -0.10618607 -0.12129542 0.014607515 -0.079450734 0.043279495 -0.01179691 0.007339097
0.012523581 0.15323126 -0.120481566 -0.13233702 -0.05463076 0.099421136 -0.15075558 -0.03460318
0.047509167 0.040156767 -0.1073281 0.134892 -0.072565086 0.11625238 0.03182917 0.013466951
0.07304835 -0.009161448 -0.04439265 0.09389512 -0.07688495 -0.12630123 0.09554526 -0.12418996
0.03934274 0.11755791 -0.013411692 -0.045808084 0.13294291 0.032774925 0.116641946 0.13858579
0.03239768 -0.1065979 0.045274198 0.1245731 -0.11865893 -0.0734113 -0.003686947 0.09221264
-0.08321111 0.092655234 0.10364774 -0.14138325 -0.08851269 0.11044676 -0.06041762 -0.022931034
0.041103892 0.08296034 0.1093797 -0.09706029 -0.00161849 -0.09245488 0.07803513 0.02599221
-0.09645179 -0.07680429 -0.0035077608 -0.10646984 -0.1262189 -0.025625592 0.039470993 -0.11550931
00000000: 8993 15be 5375 a9bc c7b8 2cbd cbbc 953d
00000010: f520 b13d 9549 bdbd 4cc4 0cbd aba2 a8bd
00000020: 808d d7bd 40fa 9f3d 65d7 1d3d e486 f9bc
00000030: 23ae b4bd b9c7 953d d2f6 9ebc b2a3 cf3d
00000040: 9453 f5bd e52c 77bb 40fb e93d f821 fcbd
00000050: 1c3d a63d 784f 98bc f825 e13c 5fe4 11be
00000060: c9f4 9fbd d28b adbd 2da4 02be 1fba 9c3d
00000070: 4f67 1dbd b82c dc3c ed4d edbd db77 af3d
00000080: e1b1 ad3d 922a f2bd df61 d0bd de60 8ebd
00000090: b338 05be 52b2 5a3d c298 b33d ca2e 4d3d
000000a0: 5ee2 aebc 4c07 90bd 8c9e 11bd b993 16bc
000000b0: dba9 793c 8508 d13c 9dca 0d3e e0a2 743d
000000c0: 51cd fdbd 5d23 23be f359 00be 922e b73d
000000d0: fb19 643d e73e abbd 60ab b7bd 6e19 b63d
000000e0: 84f3 4c3c 696e fcbd a571 94bc 1e84 cbbd
000000f0: e9c6 1abc 445e 67bd d7c8 dabd 0a97 6abd
00000100: f56d febc b629 d13c ebeb 153b 4158 323d
00000110: 632c 903c faeb 8dbb 3b22 8f3d d643 4bbd
00000120: e066 0c3e e83a 5a3a cae9 a23c 3718 463c
00000130: 8d45 deb9 a4a8 55bd a01a 8bbd 24f6 03be
00000140: ce79 e5ba c100 66bd c0c8 f1bd e6d6 03be
00000150: cd66 b9bd eb6a 5dbc 98bd ed3d 1fce 4bbd
00000160: b776 e43d 84f8 39bd 7a89 f13d 6111 a43d
00000170: 21af cdbd 93a9 bcbb ca2b a0bd 0cb9 9fbd
00000180: f945 b33d a739 db3c 247e 553d b535 fabd
00000190: 55e9 a1bd ae44 8a3b 9056 f3bd 4e6a d9bb
000001a0: e070 a93d bc68 343d 64dd 363d 58d2 03be
000001b0: 9dcd ac3d 8548 cbbb b93d b13c 1201 0abe
000001c0: 225b 05bc 1b8f 01bb 9691 a4bc 91f5 273e
000001d0: 8dcb df3d 3646 7bbb ac48 223e f1eb 3cbd
000001e0: 663c 89bd b1d7 bc3c 68b0 5e3d 2f20 e9bc
000001f0: 65de 083e d49d a23d 3406 26bd 4725 04bd
00000200: 604a bd3d 842b dcbd 905d f63d 2088 d03d
00000210: a83e d4bd 68a9 bebd 7269 5ebc 9a12 f13d
00000220: a008 60bd 577d 16be fc4c d43d d67c 10be
00000230: 6550 8fbd 0661 89bc d9a2 aabd 37fc c13d
00000240: 1c55 d13d df5f c93c d8fa 853d 0161 28bc
00000250: 3004 943b 1a6f 733d 9d08 5abd d8d5 b9bd
00000260: 0427 eb3d a368 803d 7069 a1bd 8070 01bd
00000270: fc27 ab3d 9279 d8bd be8f 3cbe 1301 853c
00000280: 0d45 343d faf8 d93c 786c d5bd 99f2 a23d
00000290: 5bcf 5bbd fc03 ae3b 471e d2bd 29c9 02be
000002a0: 7f0c 2ebe 6e84 f83d 58b6 e03d 933a 25be
000002b0: 1403 82bc 7995 02be c3c4 2cbc 6b6d ee3a
000002c0: c1e6 dcbd 0f2b 313d b34f bbbd b6fe a6bd
000002d0: 5513 d93d 8448 ad3d a74a 763d 272e a5bd
000002e0: 6ed1 b93d 1578 d9bd bc69 f8bd 5c54 6f3c
000002f0: 11b7 a2bd d745 313d d447 41bc cf7c f03b
00000300: b52f 4d3c a8e8 1c3e 0abf f6bd 5b83 07be
00000310: 81c4 5fbd 4f9d cb3d ac5f 1abe 10bc 0dbd
00000320: f998 423d 6c7b 243d d6ce dbbd 2121 0a3e
00000330: 019d 94bd ba15 ee3d 4e5f 023d 7da4 5c3c
00000340: 609a 953d e619 16bc 11d5 35bd 164c c03d
00000350: db75 9dbd 1c55 01be 3cad c33d 4e57 febd
00000360: da25 213d 34c2 f03d b7bc 5bbc 42a1 3bbd
00000370: 3022 083e 003f 063d f9e1 ee3d 6fe9 0d3e
00000380: 6eb3 043d 0050 dabd 7071 393d 2e20 ff3d
00000390: 7403 f3bd aa58 96bd b5a0 71bb fbd9 bc3d
000003a0: 966a aabd 07c2 bd3d 4445 d43d c5c6 10be
000003b0: 2446 b5bd e931 e23d 7778 77bd ddd9 bbbc
000003c0: 8e5c 283d 1ce7 a93d 7702 e03d 8cc7 c6bd
000003d0: 8323 d4ba fc58 bdbd e2d0 9f3d 9ded d43c
000003e0: 8488 c5bd 914b 9dbd 76e2 65bb dc0c dabd
000003f0: 873f 01be c3ec d1bc 56ac 213d 2590 ecbd

block2.bnorm_2.weight f4 [15]
1.0026784 1.0523198 1.0311494 0.9909009 0.9844433 1.004922 0.98821306 1.0291749
0.9844099 0.9844688 1.0115485 0.99686587 0.9802569 0.9882465 1.0274199
00000000: c457 803f 6ab2 863f b4fc 833f aeab 7d3f
00000010: 7a04 7c3f 49a1 803f 88fb 7c3f 01bc 833f
00000020: 4a02 7c3f 2606 7c3f 6c7a 813f 9a32 7f3f
00000030: 1ef2 7a3f b9fd 7c3f 7f82 833f

block2.bnorm_2.bias f4 [15]
0.033750013 0.091299415 -0.008588811 -0.03863007 -0.033373505 0.032850303 -0.0463256 -0.026230818
-0.061813 -0.10447749 0.021823935 -0.029819362 -0.004204783 -0.031092605 0.034152623
00000000: 743d 0a3d 30fb ba3d 16b8 0cbc 903a 1ebd
00000010: a8b2 08bd 0a8e 063d eabf 3dbd 03e2 d6bc
00000020: a12f 7dbd 4bf8 d5bd 1cc8 b23c bc47 f4bc
00000030: 47c8 89bb ebb5 febc 9fe3 0b3d

block2.bnorm_2.running_mean f4 [15]
-0.4985873 -0.28109604 -0.5165213 0.061585817 0.030141428 -0.337762 0.3854101 -0.3510302
0.6040968 0.43357292 -0.044042114 -0.05792451 -0.7041491 0.08004539 -0.2769617
00000000: d646 ffbe d2eb 8fbe bd3a 04bf 6941 7c3d
00000010: 28eb f63c 24ef acbe 7954 c53e 3bba b3be
00000020: 16a6 1a3f 45fd dd3e 8165 34bd 4042 6dbd
00000030: 1e43 34bf d6ee a33d edcd 8dbe

block2.bnorm_2.running_var f4 [15]
0.4375619 0.41668528 0.6866509 0.35606873 0.70465916 0.34441727 0.5825656 0.57491374
0.6368148 0.34820476 0.29175922 0.29193816 0.76106876 0.7003822 0.47933102
00000000: 1d08 e03e c657 d53e 5ac8 2f3f a44e b63e
00000010: 8b64 343f 7657 b03e 0523 153f 8c2d 133f
00000020: 4b06 233f e547 b23e 7761 953e eb78 953e
00000030: 67d5 423f 3f4c 333f e06a f53e

block3.conv_3.weight f4 [30, 15, 10]
0.0447401 0.017296076 -0.1240272 0.014250289 -0.106350295 -0.008220669 0.0114009585 -0.088825345
0.07343636 0.03183247 0.07252168 -0.09536557 -0.11858226 0.044692803 -0.00725651 0.08723732
-0.012671665 -0.07875345 0.0062688068 -0.062758684 0.10423126 0.046231017 0.11826344 0.015331493
0.07197924 0.041885182 0.026520472 -0.04579417 -0.017646965 -0.07751159 0.0010712184 -0.0702051
-0.11177526 0.032856707 -0.011490774 -0.09883983 0.041000202 0.092163295 0.092773855 0.036699053
-0.081120454 -0.069963 -0.12655926 -0.10081182 -0.050443362 0.0485772 0.051625133 0.07773758
0.0781482 0.06659318 -0.0898425 0.07702799 -0.041405562 0.05347048 0.01594004 -0.005067298
0.0017744788 -0.0797128 0.05299612 -0.06294774 -0.07732787 0.04817172 0.049394008 0.035703503
-0.07019853 0.06881543 0.100949265 -0.0128314 -0.07940251 -0.070953354 0.12691094 -0.04769359
-0.09047539 0.03591838 0.10891099 0.09213059 0.026286006 0.03458568 -0.025007099 -0.04453597
0.081604004 0.011164394 0.041807685 -0.119933546 0.054320835 0.06512168 0.05187189 0.0067697894
0.12506083 0.08499636 -0.10354244 -0.08539827 -0.12197819 0.07831642 -0.045231093 0.030061007
-0.09639064 -0.027027475 -0.05795923 0.042612206 -0.09179872 -0.05366267 -0.030491197 -0.007964414
-0.09209505 -0.024821613 -0.0031116006 -0.05991876 0.07352158 -0.09261305 -0.06772579 -0.00070078636
0.091623046 0.05980286 -0.031542327 -0.0254193 0.022840256 -0.04667424 -0.020605078 0.02229521
-0.08641144 0.08141921 0.06783395 0.038825795 -0.113872804 -0.109638005 -0.024059623 -0.028135657
-0.045066062 0.14271784 0.03783752 0.08753136 -0.04892374 0.07916349 0.07003555 0.105047636
-0.017872008 -0.015292019 0.05048231 0.102727294 0.022145003 0.08141981 -0.097119026 -0.06712776
0.06241527 -0.024790049 -0.09974407 0.10434273 -0.035469517 -0.031439535 0.055960264 -0.00064302963
-0.043101147 0.031342603 -0.07574996 0.044645663 0.026248654 -0.05264141 -0.08186188 -0.026930228
0.09931936 -0.081490554 -0.095433876 -0.05246081 -0.10578756 -0.03016222 0.044865545 -0.057913136
-0.0563891 -0.038470298 -0.031177077 0.09507529 -0.01810559 0.08469026 0.08430857 -0.07976977
-0.04002686 0.049325254 -0.091553815 0.01722261 -0.11577116 0.07572704 -0.10430829 0.07141254
-0.009923032 0.07143877 -0.088716514 -0.024034875 -0.038627755 0.004322132 -0.13116494 -0.035034478
-0.055488218 0.048711523 -0.029096212 -0.044177625 -0.061146203 0.10084426 -0.08927728 0.009528784
0.06495197 -0.0008720786 0.07522514 -0.010517875 -0.0989412 0.064868696 -0.050653577 0.019938746
-0.08351404 0.045369975 -0.019621648 0.029724315 0.13884927 -0.045202382 0.030699898 -0.020519294
-0.07194938 -0.06502325 -0.116455875 0.09136072 -0.118017845 0.0073635783 -0.012722048 0.13982725
-0.044795197 -0.019670613 0.029762423 -0.089381255 0.13135312 0.1187702 -0.08920003 0.074425906
0.035132784 -0.08281175 0.07997783 -0.024520135 0.09508756 0.09539177 -0.08278187 0.09437158
0.05347359 -0.013720644 0.024385566 0.05716591 -0.09044089 -0.0053399126 0.10592313 -0.03254326
-0.1197263 -0.12048548 -0.13276714 -0.1348297 0.02341821 0.02313381 -0.10857516 -0.06298578
00000000: 6541 373d 80b0 8d3c f901 febd 0b7a 693c
00000010: 2fce d9bd fcaf 06bc 16cb 3a3c 10ea b5bd
00000020: cd65 963d c462 023d 3f86 943d 064f c3bd
00000030: 42db f2bd cd0f 373d 05c8 edbb 7ba9 b23d
00000040: d19c 4fbc 7d49 a1bd 906a cd3b a087 80bd
00000050: 3377 d53d bc5c 3d3d 1a34 f23d f130 7b3c
00000060: da69 933d cc8f 2b3d 7641 d93c ab92 3bbd
00000070: 5e90 90bc 66be 9ebd 2068 8c3a b1c7 8fbd
00000080: 6dea e4bd c194 063d cd43 3cbc 896c cabd
00000090: d4ef 273d 1cc0 bc3d 3800 be3d bf51 163d
000000a0: 7b22 a6bd c348 8fbd c098 01be 6d76 cebd
000000b0: b39d 4ebd e3f8 463d e074 533d e134 9f3d
000000c0: 2a0c a03d 0162 883d 58ff b7bd dac0 9d3d
000000d0: e198 29bd dd03 5b3d b094 823c 940b a6bb
000000e0: a195 e83a 7740 a3bd 7612 593d bfea 80bd
000000f0: 135e 9ebd b64f 453d 5f51 4a3d d63d 123d
00000100: 3fc4 8fbd 1bef 8c3d 7dbe ce3d cb3a 52bc
00000110: c89d a2bd fe4f 91bd f1f4 013e 5b5a 43bd
00000120: 294b b9bd 271f 133d ba0c df3d f6ae bc3d
00000130: c055 d73c b7a9 0d3d b0db ccbc 596b 36bd
00000140: 0020 a73d ddea 363c 893e 2b3d b89f f5bd
00000150: 867f 5e3d 845e 853d 9e77 543d 1cd5 dd3b
00000160: f20f 003e 9212 ae3d 0f0e d4bd 4ae5 aebd
00000170: b4cf f9bd 5c64 a03d 3d44 39bd 8042 f63c
00000180: 7568 c5bd b968 ddbc a866 6dbd 238a 2e3d
00000190: f800 bcbd 63cd 5bbd adc8 f9bc 2c7d 02bc
000001a0: 549c bcbd b256 cbbc ffeb 4bbb 606d 75bd
000001b0: 7b92 963d e9ab bdbd d2b3 8abd fab4 37ba
000001c0: dda4 bb3d d8f3 743d 8732 01bd 233c d0bc
000001d0: 7d1b bb3c 7d2d 3fbd fbcb a8bc 72a4 b63c
000001e0: 7bf8 b0bd 1dbf a63d 87ec 8a3d cc07 1f3d
000001f0: 2536 e9bd e489 e0bd b018 c5bc c07c e6bc
00000200: 3197 38bd a024 123e 84fb 1a3d a443 b33d
00000210: 4264 48bd 7820 a23d cc6e 8f3d 3723 d73d
00000220: 5168 92bc 608b 7abc 8ac6 4e3d b062 d23d
00000230: 7069 b53c 6ebf a63d 57e6 c6bd 477a 89bd
00000240: 27a7 7f3d 8014 cbbc 9e46 ccbd a4b1 d53d
00000250: 7c48 11bd bec6 00bd 9736 653d fd90 28ba
00000260: d48a 30bd 1a61 003d cc22 9bbd 5fde 363d
00000270: 6b07 d73c 859e 57bd 34a7 a7bd c89c dcbc
00000280: f367 cb3d 85e4 a6bd d672 c3bd 25e1 56bd
00000290: 26a7 d8bd c316 f7bc efc4 373d 5336 6dbd
000002a0: 42f8 66bd 0893 1dbd 1267 ffbc d5b6 c23d
000002b0: 2d52 94bc 1672 ad3d f9a9 ac3d 555e a3bd
000002c0: 34f3 23bd 4709 4a3d 9180 bbbd 6e16 8d3c
000002d0: 6e19 edbd c716 9b3d 969f d5bd bd40 923d
000002e0: 3694 22bc 7d4e 923d 01b1 b5bd c9e4 c4bc
000002f0: 2338 1ebd aca0 8d3b 1a50 06be 5080 0fbd
00000300: 9d47 63bd bc85 473d 2e5b eebc 99f3 34bd
00000310: 7174 7abd 6f87 ce3d 02d7 b6bd 9e1e 1c3c
00000320: 8a05 853d 349c 64ba a30f 9a3d 2a53 2cbc
00000330: afa1 cabd e1d9 843d 207a 4fbd 9556 a33c
00000340: 6909 abbd ded5 393d 94bd a0bc 6880 f33c
00000350: 812e 0e3e 2226 39bd 5a7e fb3c 1418 a8bc
00000360: 325a 93bd e92a 85bd 6b80 eebd 541b bb3d
00000370: 57b3 f1bd 2c4a f13b 2370 50bc e02e 0f3e
00000380: 2b7b 37bd 4424 a1bc 53d0 f33c 850d b7bd
00000390: 6f81 063e ca3d f33d 81ae b6bd 9c6c 983d
000003a0: 65e7 0f3d 3599 a9bd 6bcb a33d 73de c8bc
000003b0: 44bd c23d c35c c33d 8b89 a9bd e345 c13d
000003c0: 2007 5b3d 8dcc 60bc 3dc4 c73c cd26 6a3d
000003d0: 1339 b9bd 6ffa aebb 3aee d83d 154c 05bd
000003e0: 1033 f5bd 17c1 f6bd 1cf4 07be cc10 0abe
000003f0: 8cd7 bf3c 1e83 bd3c a75c debd b0fe 80bd

block3.bnorm_3.weight f4 [30]
1.003601 0.97878367 1.0091971 0.99098915 1.0092436 1.0029215 0.98419225 0.991182
1.0272768 1.0682286 0.9911805 0.94856787 1.0086402 1.049115 1.0428619 1.0137666
1.0055528 1.0233023 1.0228937 0.99552935 0.9633708 0.96973515 0.9771286 1.0265039
1.0029507 1.03541 0.96738285 0.98811686 0.9950669 1.0402639
00000000: ff75 803f 9191 7a3f 5f2d 813f 77b1 7d3f
00000010: e52e 813f bb5f 803f 06f4 7b3f 1bbe 7d3f
00000020: ce7d 833f b7bb 883f 01be 7d3f 58d5 723f
00000030: 1f1b 813f 6649 863f 807c 853f 1bc3 813f
00000040: f4b5 803f 92fb 823f 2eee 823f 03db 7e3f
00000050: 789f 763f 9040 783f 1a25 7a3f 7b64 833f
00000060: b060 803f 5188 843f 67a6 773f 3af5 7c3f
00000070: b4bc 7e3f 5e27 853f

block3.bnorm_3.bias f4 [30]
-0.02772619 -0.048855424 -0.026142346 0.053067848 -0.013164084 -0.013844447 -0.08304799 -0.027482372
-0.012487999 -0.011646202 -0.022790374 -0.084665105 -0.011549758 -0.023675028 -0.0067036278 0.0018509002
-0.025410026 0.030814568 -0.0039190194 -0.013835011 0.011901108 -0.08166983 -0.034647077 -0.038235452
-0.03163207 0.008509237 -0.09969103 -0.028231977 -0.019460045 0.020384591
00000000: 0922 e3bc a01c 48bd 7928 d6bc ac5d 593d
00000010: 2cae 57bc d2d3 62bc 1115 aabd b622 e1bc
00000020: 779a 4cbc b6cf 3ebc e1b2 babc e664 adbd
00000030: 323b 3dbc 22f2 c1bc 1baa dbbb e899 f23a
00000040: b028 d0bc d56e fc3c 1e6b 80bb 3eac 62bc
00000050: ddfc 423c 8342 a7bd 18ea 0dbd c79c 1cbd
00000060: a190 01bd 546a 0b3c d02a ccbd bf46 e7bc
00000070: ac6a 9fbc 96fd a63c

block3.bnorm_3.running_mean f4 [30]
-0.04851401 -0.34491003 0.12100985 -0.5789514 0.21359096 -0.102215745 -0.14295357 0.37943277
-0.52075016 -0.6744894 -0.03780717 0.22741823 -0.056532722 -0.346334 -0.877272 -0.4487318
-0.25641435 -0.8227442 -0.060698617 -0.44527277 0.06426838 0.06257981 0.19699317 -0.7723363
0.301721 -0.1365082 -0.06869854 0.21908076 -0.43766165 -0.24151012
00000000: a0b6 46bd 0c98 b0be 03d4 f73d 2936 14bf
00000010: 97b7 5a3e 7d56 d1bd 6c62 12be 0345 c23e
00000020: e24f 05bf 56ab 2cbf b1db 1abd 53e0 683e
00000030: db8e 67bd b152 b1be e694 60bf 2dc0 e5be
00000040: be48 83be 5d9f 52bf 1d9f 78bd cbfa e3be
00000050: 249f 833d d829 803d 94b8 493e d5b7 45bf
00000060: 2d7b 9a3e cec8 0bbe d2b1 8cbd b556 603e
00000070: 3015 e0be 6e4e 77be

block3.bnorm_3.running_var f4 [30]
0.43336356 0.25590217 0.44496894 0.59141904 0.3342093 0.45457026 0.43601266 0.4290556
0.3981005 0.22583038 0.47826275 0.56082755 0.45376518 0.3099166 0.51834697 0.50288206
0.48399317 0.42093843 0.28033063 0.36875963 0.2527894 0.41830742 0.5028707 0.53517133
0.40810916 0.31399634 0.27235663 0.3399355 0.31248802 0.5230467
00000000: d4e1 dd3e 9c05 833e f8d2 e33e 3d67 173f
00000010: 7b1d ab3e 6fbd e83e 0d3d df3e 2dad db3e
00000020: d4d3 cb3e 1440 673e dbde f43e 6592 0f3f
00000030: e953 e83e 63ad 9e3e 63b2 043f e1bc 003f
00000040: f4cd f73e 3e85 d73e 7f87 8f3e 10ce bc3e
00000050: 9d6d 813e 642c d63e 22bc 003f fd00 093f
00000060: aff3 d03e 21c4 a03e 5472 8b3e 070c ae3e
00000070: 6efe 9f3e 63e6 053f

block4.conv_4.weight f4 [30, 30, 10]
0.0026612894 -0.026810015 0.072398506 -0.020120772 0.1139555 0.020332558 0.07476073 0.07393678
0.09399675 -0.053186618 -0.036606718 -0.09984578 0.024687279 -0.018362023 0.05175333 -0.057418052
-0.034519672 -0.061637077 -0.0341873 -0.0013953085 0.0818744 0.08757991 -0.046123434 -0.072271384
0.037779205 -0.051971305 -0.08227517 -0.10411885 -0.03136559 -0.005418734 -0.026757339 -0.021759296
-0.058279585 0.033033483 -0.05105149 -0.059126277 0.0865489 -0.018552186 -0.061373014 0.05536933
-0.033338785 0.09223693 -0.06122693 0.075327426 0.04407221 0.08920853 0.063334964 0.0017413534
-0.081069924 -0.034477163 0.027844349 0.047342584 0.06441397 0.016579991 -0.092406005 -0.008608405
-0.014265322 0.0094408365 0.019765303 -0.014427187 -0.023848392 -0.046851225 0.09772739 0.08286975
-0.065765545 0.06275538 -0.041716415 -0.010833857 -0.018072972 -0.050040603 -0.018150916 0.024756111
-0.055042498 0.0015335712 0.038290247 0.09192792 -0.027884953 0.03308139 0.029643407 -0.014544179
-0.033301566 -0.14203086 0.02649444 -0.07207078 -0.06309907 0.08409492 -0.018206868 0.028984662
-0.043743942 0.003156501 0.02835128 0.071643196 0.121321894 -0.06848463 0.016048005 -0.019058434
0.069480956 -0.049002502 -0.08301418 0.024371386 -0.072087646 -0.06079374 -0.010901012 -0.111847535
-0.04257939 -0.003934403 0.0884256 0.081195764 -0.054298364 -0.065177515 -0.019238753 -0.080248274
-0.07709182 -0.0654936 0.031430505 -0.020828374 0.03975521 0.073551185 -0.06807205 0.030613342
0.040211417 -0.07315064 -0.002899802 -0.063111685 0.02600217 0.001877694 0.021912763 -0.08385148
-0.019040909 0.0108491015 -0.069226086 -0.0837936 -0.09981363 -0.119220175 -0.0769665 -0.0005629917
0.011622024 -0.05444449 0.0040482813 -0.008005863 -0.03366253 -0.027408483 -0.028442498 -0.055226084
-0.055378888 0.08534829 -0.025398338 0.041107208 0.084822334 0.010562952 0.08808699 0.0066037322
0.055158585 -0.009792136 0.11688151 0.012623426 0.0045539076 -0.11007749 -0.04156706 -0.11640873
-0.0045492705 0.017615091 0.09527737 -0.102214605 -0.07431476 0.053168327 0.031683527 -0.002023997
0.02134881 -0.0537268 -0.13040785 -0.099719 -0.05374462 0.0060919975 0.058731362 0.06616099
0.093490675 -0.07632783 0.022261107 0.03314824 0.05530195 -0.018155444 -0.05331085 0.097000934
0.00021618711 0.047737714 -0.083403505 -0.06984343 0.0017683668 -0.040446453 0.015181625 0.119529374
0.0708678 -0.0045120292 -0.03539677 0.0061114472 -0.047602188 -0.01247968 -0.08258551 -0.04845655
-0.045034975 -0.028033905 0.023250839 -0.075428165 -0.009954607 -0.100048795 -0.06061986 0.07580379
-0.035592824 0.037280966 -0.10120766 -0.052880898 0.061791822 0.054123804 0.07917611 -0.008945078
-0.03480499 -0.076948956 -0.043518435 -0.12902343 0.04015073 -0.022523288 -0.025908401 0.019461747
-0.054609984 -0.066924386 0.09796178 0.075052716 0.06485623 -0.018419513 0.076648034 -0.1012731
0.053462416 -0.0020772999 0.06969999 -0.04047102 0.038880017 -0.07846486 0.0929519 0.136063
-0.09822956 0.0704848 0.07093118 0.05416912 -0.070893615 0.078720726 0.017741084 0.057448067
0.007992381 0.08340426 -0.004551209 0.05292892 0.078159906 -0.054493237 0.031085547 0.026055718
00000000: 0769 2e3b ada0 dbbc ab45 943d 51d4 a4bc
00000010: 8061 e93d 7790 a63c 271c 993d 2b6c 973d
00000020: 5e81 c03d 36da 59bd edf0 15bd f27b ccbd
00000030: fa3c ca3c f46b 96bc 4dfb 533d 312f 6bbd
00000040: 8064 0dbd 2977 7cbd fb07 0cbd c9e2 b6ba
00000050: c4ad a73d 195d b33d edeb 3cbd 0503 94bd
00000060: 5ebe 1a3d dddf 54bd e27f a8bd 433c d5bd
00000070: 3479 00bd a38f b1bb 3532 dbbc 8d40 b2bc
00000080: 93b6 6ebd 1e4e 073d 5e1b 51bd 652e 72bd
00000090: 8d40 b13d c1fa 97bc 4562 7bbd f3ca 623d
000000a0: 408e 08bd b7e6 bc3d 17c9 7abd 4445 9a3d
000000b0: 1085 343d f6b2 b63d c3b5 813d 203e e43a
000000c0: fd07 a6bd ed37 0dbd d519 e43c 4cea 413d
000000d0: 79eb 833d c3d2 873c 5c3f bdbd 440a 0dbc
000000e0: 19b9 69bc bdad 1a3c d8ea a13c 0260 6cbc
000000f0: b45d c3bc 12e7 3fbd 4c25 c83d 9eb7 a93d
00000100: 16b0 86bd e585 803d d5de 2abd 7d80 31bc
00000110: c50d 94bc 60f7 4cbd 3bb1 94bc 54cd ca3c
00000120: 3e74 61bd 1c02 c93a 3cd6 1c3d b544 bc3d
00000130: fc6e e4bc 5a80 073d bbd6 f23c b54a 6ebc
00000140: 3967 08bd 8a70 11be de0a d93c d899 93bd
00000150: 163a 81bd f539 ac3d 9226 95bc 3e71 ed3c
00000160: d92c 33bd 4ddd 4e3b f240 e83c abb9 923d
00000170: 9d77 f83d ab41 8cbd 1b77 833c 6f20 9cbc
00000180: 084c 8e3d d9b6 48bd 5703 aabd 80a6 c73c
00000190: b0a2 93bd db02 79bd 299a 32bc 5210 e5bd
000001a0: ba67 2ebd 2aec 80bb 7b18 b53d f749 a63d
000001b0: f667 5ebd ca7b 85bd 979a 9dbc 3559 a4bd
000001c0: 51e2 9dbd 8221 86bd 46bd 003d 44a0 aabc
000001d0: 5cd6 223d 01a2 963d 5c69 8bbd d5c8 fa3c
000001e0: bab4 243d 01d0 95bd 9b0a 3ebb b340 81bd
000001f0: 8102 d53c f51c f63a 6582 b33c 53ba abbd
00000200: aefb 9bbc 6ec0 313c 68c6 8dbd fb9b abbd
00000210: 176b ccbd b529 f4bd 9da0 9dbd bc95 13ba
00000220: 4d6a 3e3c 2f01 5fbd 72a7 843b 062b 03bc
00000230: b9e1 09bd c187 e0bc 3e00 e9bc bf34 62bd
00000240: f9d4 62bd 16cb ae3d 2d10 d0bc 0860 283d
00000250: 55b7 ad3d 3b10 2d3c f466 b43d 1f64 d83b
00000260: f8ed 613d 326f 20bc 935f ef3d 7cd2 4e3c
00000270: f238 953b 4f70 e1bd 3942 2abd b367 eebd
00000280: 0c12 95bb 864d 903c c820 c33d e455 d1bd
00000290: 5632 98bd 08c7 593d 96c6 013d 09a5 04bb
000002a0: b3e3 ae3c a210 5cbd a389 05be 7a39 ccbd
000002b0: 5223 5cbd 619f c73b 4c90 703d 6a7f 873d
000002c0: 0a78 bf3d c451 9cbd ed5c b63c 73c6 073d
000002d0: 4c84 623d baba 94bc 7a5c 5abd 6da8 c63d
000002e0: 49b0 6239 9f88 433d 75cf aabd 120a 8fbd
000002f0: 8bc8 e73a 2eab 25bd 5abc 783c d1cb f43d
00000300: 2323 913d a5d9 93bb 34fc 10bd 8942 c83b
00000310: 83fa 42bd 9277 4cbc 9822 a9bd 607a 46bd
00000320: 9876 38bd 5ca7 e5bc 8b78 be3c 157a 9abd
00000330: a618 23bc 62e6 ccbd 884c 78bd 043f 9b3d
00000340: c8c9 11bd edb3 183d f645 cfbd a499 58bd
00000350: 6c19 7d3d ecb0 5d3d 1627 a23d 608e 12bc
00000360: ad8f 0ebd 6a97 9dbd 6340 32bd b81e 04be
00000370: 1875 243d c282 b8bc db3d d4bc 3e6e 9f3c
00000380: b8ae 5fbd a70f 89bd 30a0 c83d 3db5 993d
00000390: 58d3 843d 85e4 96bc a5f9 9c3d 4568 cfbd
000003a0: 68fb 5a3d 4f23 08bb debe 8e3d f1c4 25bd
000003b0: a740 1f3d 2fb2 a0bd 915d be3d 1954 0b3e
000003c0: 942c c9bd 565a 903d 5e44 913d 70e0 5d3d
000003d0: ac30 91bd 5538 a13d c055 913c aa4e 6b3d
000003e0: 7af2 023c dacf aa3d 4f22 95bb ffcb 583d
000003f0: 4d12 a03d 4d34 5fbd 1ea7 fe3c cd72 d53c

block4.bnorm_4.weight f4 [30]
1.0166495 1.0595975 0.99878556 1.036202 1.0209162 1.0653546 1.0519881 1.0265698
1.0573844 1.0337905 1.1098238 1.0116754 1.0087135 1.0164096 1.0463592 1.0663522
1.0179404 0.99857837 1.0171776 1.0571427 1.0506842 1.0639324 1.1199015 0.99977815
1.0140787 1.0044898 1.1621339 1.1172228 1.0615592 1.0151778
00000000: 9221 823f e4a0 873f 69b0 7f3f 44a2 843f
00000010: 62ad 823f 8a5d 883f 8ca7 863f a466 833f
00000020: 5f58 873f 3f53 843f b50e 8e3f 947e 813f
00000030: 861d 813f b619 823f 19ef 853f 3b7e 883f
00000040: df4b 823f d5a2 7f3f e032 823f 7450 873f
00000050: d27c 863f f02e 883f ef58 8f3f 76f1 7f3f
00000060: 55cd 813f 1f93 803f cec0 943f 2801 8f3f
00000070: 2ce1 873f 59f1 813f

block4.bnorm_4.bias f4 [30]
-0.027160443 0.017423049 -0.027195722 -0.027094416 -0.024903819 0.016860269 0.023715833 -0.027726727
0.023757774 -0.02242691 -0.023636904 -0.021326957 -0.02266214 -0.024155866 0.019517163 0.027149796
-0.029806545 -0.025921319 -0.03333755 0.021310687 0.027182525 0.024952993 -0.028008081 -0.038420532
-0.025141766 -0.024327591 0.022873435 0.0281594 0.024794802 -0.035631157
00000000: 947f debc c8ba 8e3c 90c9 debc 1cf5 ddbc
00000010: 1803 ccbc 8c1e 8a3c b547 c23c 2923 e3bc
00000020: aa9f c23c a4b8 b7bc 2ea2 c1bc dfb5 aebc
00000030: f4a5 b9bc 86e2 c5bc 75e2 9f3c 4069 de3c
00000040: db2c f4bc f258 d4bc f48c 08bd c093 ae3c
00000050: e3ad de3c 386a cc3c 3471 e5bc d95e 1dbd
00000060: 1bf6 cdbc a84a c7bc 1261 bb3c 8bae e63c
00000070: 781e cb3c faf1 11bd

block4.bnorm_4.running_mean f4 [30]
-0.49373 -0.3260923 -0.5276691 0.48106286 0.45705137 1.1665694 -0.6358681 0.6011241
0.36875227 0.39040893 -0.25110528 0.008959764 0.042778164 -0.095105745 0.9310257 0.44767314
1.062197 -0.2583275 0.52330166 0.25700244 0.2750511 -0.25678805 -0.005211805 0.4804492
0.320927 -0.43727666 0.5685111 -0.7788477 0.3976663 -0.1687045
00000000: 2eca fcbe 92f5 a6be 5215 07bf df4d f63e
00000010: a302 ea3e 2552 953f 40c8 22bf 45e3 193f
00000020: 19cd bc3e aee3 c73e df90 80be f9cb 123c
00000030: 2838 2f3d cdc6 c2bd b357 6e3f 6a35 e53e
00000040: 12f6 873f 8143 84be 19f7 053f d395 833e
00000050: 7fd3 8c3e b979 83be cac7 aabb 70fd f53e
00000060: 8b50 a43e bae2 dfbe f289 113f 9062 47bf
00000070: eb9a cb3e dfc0 2cbe

block4.bnorm_4.running_var f4 [30]
0.51173943 0.66108686 0.53899294 0.37059012 0.3763881 0.44001684 0.5210094 0.3752434
0.6033204 0.34405884 0.30479613 0.32884428 0.74959916 0.38176095 0.8844937 0.6989755
0.78784037 0.4698419 0.4530937 0.48714954 0.7291713 0.41064554 0.32427692 0.57808894
0.33744672 0.8541258 0.26786265 0.4112741 0.5016665 0.4030713
00000000: 5b01 033f fd3c 293f 71fb 093f fdbd bd3e
00000010: f1b5 c03e e349 e13e df60 053f e71f c03e
00000020: 3573 1a3f 7b28 b03e 3d0e 9c3e 475e a83e
00000030: bbe5 3f3f 2c76 c33e 2e6e 623f 0ff0 323f
00000040: e8af 493f 1e8f f03e e6fb e73e aa6b f93e
00000050: f8aa 3a3f 2240 d23e a007 a63e a3fd 133f
00000060: d1c5 ac3e fda7 5a3f 4b25 893e 8592 d23e
00000070: 376d 003f 5d5f ce3e

conv_channel_res.weight f4 [1, 30, 3]
0.029721236 -0.049525224 -0.051127993 -0.014268196 0.08059699 0.071955904 -0.009570392 -0.10664908
-0.020164154 -0.13454174 -0.13974412 -0.11799151 -0.106250145 -0.10994387 -0.11341776 -0.051778797
0.14290158 0.1580847 0.10916766 -0.03893425 0.076518424 -0.032921385 -0.08488857 -0.101640664
0.021247977 0.057148594 0.08058093 -0.117060415 -0.075250186 -0.12999175 0.10450662 -0.08824294
0.03251575 -0.038707025 -0.10336143 -0.049884625 0.034070503 -0.0038619358 -0.08180876 -0.108551964
-0.08125414 -0.10537895 -0.037539307 0.107310325 0.13110015 -0.008490676 0.077457726 0.12681098
0.023174843 -0.08309058 -0.0894381 -0.03619412 -0.013008111 -0.07270916 -0.108456805 0.060592268
-0.039934237 0.013015546 0.13601795 0.13907757 0.08259441 0.12022385 0.05764679 0.096876405
0.03418638 0.14150566 0.12308006 -0.08717091 -0.06149878 -0.019046916 -0.084385574 0.07503664
0.0035555116 -0.11729527 -0.022476725 -0.032223202 -0.060899492 -0.114606924 0.08003784 0.022227576
-0.08984608 -0.09223394 0.07214554 0.035863962 0.12379212 0.08916825 0.06944405 -0.0838565
-0.0003526753 -0.06210785
00000000: f379 f33c f6da 4abd 966b 51bd 27c5 69bc
00000010: 0910 a53d 9e5d 933d 22cd 1cbc d56a dabd
00000020: 4c2f a5bc 4fc5 09be 1519 0fbe 88a5 f1bd
00000030: ad99 d9bd 402a e1bd 9247 e8bd 0116 54bd
00000040: cb54 123e f5e0 213e 4b93 df3d 8579 1fbd
00000050: b1b5 9c3d 93d8 06bd 0fda adbd fb28 d0bd
00000060: 3d10 ae3c a514 6a3d 9d07 a53d 5fbd efbd
00000070: c51c 9abd 8f1c 05be 9107 d63d b7b8 b4bd
00000080: 3c2f 053d 428b 1ebd 28af d3bd d253 4cbd
00000090: 838d 0b3d 8818 7dbb 5a8b a7bd 7e50 debd
000000a0: 9268 a6bd ebd0 d7bd d1c2 19bd 84c5 db3d
000000b0: 1e3f 063e 7a1c 0bbc 28a2 9e3d bdda 013e
000000c0: 2bd9 bd3c 652b aabd 532b b7bd 4940 14bd
000000d0: f91f 55bc 8ae8 94bd 9a1e debd 992f 783d
000000e0: 1592 23bd 283f 553c 4a48 0b3e 5a6a 0e3e
000000f0: 4227 a93d ec37 f63d 0a1f 6c3d 2367 c63d
00000100: 0507 0c3d dce6 103e 6611 fc3d a986 b2bd
00000110: 25e6 7bbd 4708 9cbc 58d2 acbd cfac 993d
00000120: 9603 693b 8138 f0bd 1c21 b8bc 7afc 03bd
00000130: bf71 79bd 09b7 eabd e1ea a33d 9b16 b63c
00000140: 3901 b8bd 26e5 bcbd 0ac1 933d 17e6 123d
00000150: b986 fd3d d89d b63d af38 8e3d f5bc abbd
00000160: 47e7 b8b9 cd64 7ebd

classifier_conv.weight f4 [32, 1, 35]
-0.07089875 -0.10435071 -0.03761432 -0.105539456 -0.087098226 -0.16054201 -0.17079423 -0.08908655
-0.047988612 -0.06299184 -0.12031919 -0.025301255 -0.11028139 -0.047401514 -0.124993615 -0.15432696
-0.0598632 -0.081458636 -0.09230284 -0.08379266 -0.07979924 -0.11657057 -0.1830027 -0.20773113
-0.086003356 -0.1703839 -0.14480153 -0.19092606 -0.16898693 -0.24846895 0.15504307 -0.3502665
0.17395699 -0.10987844 0.0943731 0.07867953 0.10767542 0.057132926 0.17163076 0.19147688
0.08174779 0.11542245 0.10694041 0.05599483 0.16684325 0.042622995 0.13341443 0.1166622
0.13855186 0.15649872 0.14679484 0.050530244 0.113121144 0.1480835 0.19093513 0.039556216
0.15584107 0.22393368 0.17912626 0.18642944 0.24397725 0.24677534 0.2170602 0.1333481
0.3326682 -0.177086 0.42058828 -0.23275061 0.23135294 -0.13143341 -0.028837021 -0.02746795
-0.10116656 -0.114376344 -0.20172012 -0.12599364 -0.13728485 -0.042155292 -0.09545274 -0.11138126
-0.12676798 -0.13115129 -0.13014452 -0.026060872 -0.08521121 -0.0945928 -0.053978648 -0.13640623
-0.08762736 -0.053576417 -0.08847088 -0.15288787 -0.19157696 -0.20473868 -0.15006654 -0.15493314
-0.17484239 -0.20884283 -0.10946576 -0.2931519 0.17526664 -0.36789566 0.18944094 -0.09857857
0.11907247 -0.080053695 -0.10767629 -0.03238552 -0.1779876 -0.11638903 -0.21036883 -0.18206204
-0.15726188 -0.17263715 -0.18836424 -0.10578716 -0.04908596 -0.17075618 -0.07901392 -0.1081476
-0.18205722 -0.04053455 -0.054825757 -0.09623217 -0.1638629 -0.14627844 -0.19452293 -0.1645683
-0.15884468 -0.18698312 -0.30542105 -0.27672288 -0.15540616 -0.15440048 -0.26979682 0.13994046
-0.40978965 0.19413792 -0.18492723 0.024172062 -0.15283698 -0.079638734 -0.056230567 -0.09322707
-0.20144816 -0.13614495 -0.10844949 -0.15361884 -0.11757403 -0.09153462 -0.13075344 -0.08995673
-0.14071865 -0.10636927 -0.13876055 -0.099423796 -0.088217035 -0.14994633 -0.09159521 -0.1348783
-0.027170261 -0.15599912 -0.27874234 -0.14421424 -0.20511548 -0.18921554 -0.18526164 -0.22812371
-0.2341113 -0.28997844 0.19223537 -0.41368055 0.1988138 -0.20218866 -0.005256921 0.16247459
0.105741985 0.103724174 0.07845569 0.12159577 0.057404593 0.17833798 0.09838869 0.1175499
0.1329075 0.13696612 0.12866381 0.12894537 0.12387248 0.1536797 0.074426256 0.043255586
0.028606068 0.030351702 0.14213519 0.07089916 0.23138644 0.25423416 0.11722925 0.14106032
0.22893056 0.28321162 0.17969273 0.12385997 0.28100303 -0.18272191 0.3174345 -0.13336018
0.17239848 0.0024349624 -0.12129837 -0.12035571 -0.097811066 -0.105607755 -0.13669007 -0.08271144
-0.15971331 -0.13302943 -0.0515983 -0.073853135 -0.040382233 -0.12449744 -0.15192284 -0.011712026
-0.07876978 -0.034046825 -0.1009467 -0.022444215 -0.1272745 -0.116390854 -0.1329804 -0.187453
-0.14141046 -0.12496021 -0.085536405 -0.20255488 -0.18494911 -0.06504131 -0.12261665 -0.29584855
0.16806714 -0.25779688 0.20100147 -0.12400021 0.026498541 -0.121045806 -0.15048367 -0.022705987
-0.19101466 -0.13686429 -0.13097166 -0.16618052 -0.16249113 -0.060231604 -0.12497665 -0.102709204
00000000: 5d33 91bd d3b5 d5bd 7911 1abd 1225 d8bd
00000010: 8e60 b2bd 2065 24be afe4 2ebe 0273 b6bd
00000020: b58f 44bd de01 81bd e869 f6bd 9444 cfbc
00000030: 36db e1bd 1728 42bd a7fc ffbd e307 1ebe
00000040: 1d33 75bd c9d3 a6bd 4509 bdbd 7c9b abbd
00000050: c96d a3bd 8dbc eebd 0f65 3bbe 78b7 54be
00000060: 8722 b0bd 1e79 2ebe da46 14be 1f82 43be
00000070: e90a 2dbe a56e 7ebe 9cc3 1e3e 2156 b3be
00000080: c821 323e f307 e1bd af46 c13d bc22 a13d
00000090: ee84 dc3d 3704 6a3d f9bf 2f3e 8412 443e
000000a0: 636b a73d 9b62 ec3d 9303 db3d d65a 653d
000000b0: f5d8 2a3e 7395 2e3d cb9d 083e 97ec ee3d
000000c0: 8ae0 0d3e 3341 203e 6351 163e cdf8 4e3d
000000d0: 0fac e73d 33a3 173e 8084 433e b305 223d
000000e0: cd94 1f3e df4e 653e e06c 373e 5ce7 3e3e
000000f0: 2cd5 793e adb2 7c3e 0745 5e3e 688c 083e
00000100: 7c53 aa3e 0856 35be 5957 d73e 2d56 6ebe
00000110: c9e7 6c3e 7b96 06be 9e3b ecbc 7704 e1bc
00000120: 6a30 cfbd 253e eabd b88f 4ebe 7a04 01be
00000130: 6694 0cbe 07ab 2cbd ba7c c3bd dc1b e4bd
00000140: 77cf 01be 864c 06be 9b44 05be 9c7d d5bc
00000150: 3783 aebd dfb9 c1bd b718 5dbd 13ae 0bbe
00000160: f975 b3bd f272 5bbd 3930 b5bd a38e 1cbe
00000170: c02c 44be 04a7 51be 0bab 19be cba6 1ebe
00000180: e209 33be e5da 55be 962f e0bd 0118 96be
00000190: 1979 333e d25c bcbe cefc 413e 90e3 c9bd
000001a0: 44dc f33d 31f3 a3bd 6385 dcbd aea6 04bd
000001b0: 6242 36be 5f5d eebd ed6a 57be 796e 3abe
000001c0: 4209 21be cbc7 30be 8ee2 40be f0a6 d8bd
000001d0: 5c0e 49bd b5da 2ebe 0dd2 a1bd 7d7c ddbd
000001e0: 356d 3abe 8e07 26bd f990 60bd 5f15 c5bd
000001f0: adcb 27be 04ca 15be 0531 47be 9884 28be
00000200: 2ea8 22be 8178 3fbe 2660 9cbe 9fae 8dbe
00000210: cb22 1fbe 291b 1ebe cf22 8abe 8d4c 0f3e
00000220: f3cf d1be 17cc 463e 905d 3dbe 7d04 c63c
00000230: 4c81 1cbe a219 a3bd 0652 66bd d6ed bebd
00000240: 6d48 4ebe 9569 0bbe c41a debd 424e 1dbe
00000250: a7ca f0bd 8176 bbbd 3be4 05be 3c3b b8bd
00000260: 8d18 10be 22d8 d9bd 3f17 0ebe b49e cbbd
00000270: 22ab b4bd 888b 19be 4596 bbbd 891d 0abe
00000280: 2b94 debc 3cbe 1fbe 51b7 8ebe e6ac 13be
00000290: cb09 52be b8c1 41be 3ab5 3dbe 4399 69be
000002a0: dfba 6fbe 0e78 94be 59d9 443e f0cd d3be
000002b0: d895 4b3e 8b0a 4fbe 4042 acbb bd5f 263e
000002c0: 418f d83d 576d d43d 60ad a03d 3407 f93d
000002d0: 1421 6b3d 3b9e 363e 0280 c93d 01be f03d
000002e0: e718 083e d940 0c3e 72c0 033e 410a 043e
000002f0: dbb0 fd3d 365e 1d3e cb6c 983d c52c 313d
00000300: 4657 ea3c 22a4 f83c e38b 113e 9433 913d
00000310: 91f0 6c3e fb2a 823e e415 f03d 1e72 103e
00000320: c66c 6a3e 1d01 913e 5f01 383e 4caa fd3d
00000330: a1df 8f3e 741b 3bbe c686 a23e 928f 08be
00000340: 3a89 303e e493 1f3b 486b f8bd 0e7d f6bd
00000350: 2b51 c8bd e148 d8bd 7bf8 0bbe 9e64 a9bd
00000360: e38b 23be de38 08be bd58 53bd 5040 97bd
00000370: d767 25bd 84f8 febd a991 1bbe cce3 3fbc
00000380: 0d52 a1bd af74 0bbd 25bd cebd eedc b7bc
00000390: 3f54 02be 545e eebd 042c 08be aef3 3fbe
000003a0: e7cd 10be 23eb ffbd b62d afbd 8c6a 4fbe
000003b0: 4d63 3dbe 6134 85bd 701e fbbd 7679 97be
000003c0: cb19 2c3e f4fd 83be 54d3 4d3e d2f3 fdbd
000003d0: 7813 d93c dde6 f7bd 6418 1abe e801 babc
000003e0: 5999 43be 2726 0cbe 6f1d 06be 3a2b 2abe
000003f0: 1364 26be 6ab5 76bd c2f3 ffbd 3459 d2bd

classifier_conv.bias f4 [32]
0.00016096797 -0.0060871416 0.0026251494 0.007832543 0.0048406995 -0.0057000387 0.0027281155 0.0002663061
0.0031527341 0.008153347 -0.0007023915 -0.0061692866 -0.0026985689 -0.0061589144 -0.00055279594 -0.009984462
0.004818498 0.0020819649 2.166329e-05 0.0019422654 0.000693624 -0.01007739 -0.0005160916 -0.0058658896
0.0038048157 0.0064240233 0.009308609 0.0012791018 -0.0012109085 -0.0017448051 0.0010171961 -0.006999293
00000000: 83c9 2839 a576 c7bb b30a 2c3b 1154 003c
00000010: bb9e 9e3b 64c7 babb 2fca 323b 009f 8b39
00000020: 1a9e 4e3b 9e95 053c b220 38ba ba27 cabb
00000030: 79da 30bb b8d0 c9bb 82e9 10ba de95 23bc
00000040: 7ee4 9d3b 9371 083b 90b9 b537 9d93 fe3a
00000050: 52d4 353a a31b 25bc 524a 07ba a636 c0bb
00000060: 375a 793b 9d80 d23b 2383 183c 89a7 a73a
00000070: 59b7 9eba f2b1 e4ba 7053 853a 535a e5bb

fc.weight f4 [2, 32]
0.09246307 -0.08843673 0.08925921 0.08593514 0.09218688 -0.08975103 0.089258425 0.09036694
0.08706109 0.08773879 0.08638248 -0.084895946 -0.08650114 -0.0867837 -0.08675175 -0.09283707
0.092549644 0.09233012 0.08529467 0.08985369 -0.083108254 -0.08828295 -0.08518846 -0.08879221
0.0887065 0.087483495 0.09040271 0.08569762 -0.08712146 0.085239485 0.08934088 -0.09125312
-0.09304146 0.08918808 -0.090181254 -0.08711375 -0.09185745 0.08930704 -0.08966945 -0.09031088
-0.08767862 -0.087516055 -0.08656054 0.08453795 0.08689318 0.08586658 0.086420104 0.09218642
-0.092434675 -0.09179664 -0.0860564 -0.08908368 0.084024504 0.088260405 0.08554028 0.08926311
-0.08893222 -0.08691928 -0.09050652 -0.08538182 0.08589781 -0.08491007 -0.0898031 0.090194866
00000000: 475d bd3d 511e b5bd 88cd b63d c3fe af3d
00000010: 7acc bc3d 63cf b7bd 1fcd b63d 4d12 b93d
00000020: 164d b23d 65b0 b33d 4ce9 b03d eddd adbd
00000030: 8227 b1bd a7bb b1bd e7aa b1bd 5d21 bebd
00000040: ab8a bd3d 9317 bd3d f9ae ae3d 3605 b83d
00000050: a934 aabd b1cd b4bd 4a77 aebd b1d8 b5bd
00000060: c1ab b53d 8c2a b33d 0e25 b93d 3c82 af3d
00000070: bc6c b2bd 0a92 ae3d 5af8 b63d eae2 babd
00000080: 858c bebd 3da8 b63d f3b0 b8bd b268 b2bd
00000090: c21f bcbd 9ce6 b63d 9ea4 b7bd e9f4 b8bd
000000a0: d990 b3bd 9e3b b3bd a746 b1bd 3c22 ad3d
000000b0: 0df5 b13d d1da af3d 06fd b03d 3ccc bc3d
000000c0: 644e bdbd e0ff bbbd 563e b0bd 8171 b6bd
000000d0: 0a15 ac3d dfc1 b43d be2f af3d 94cf b63d
000000e0: 1922 b6bd bc02 b2bd 7b5b b9bd aadc aebd
000000f0: 31eb af3d 55e5 adbd b0ea b7bd 16b8 b83d

fc.bias f4 [2]
0.011623519 -0.011623458
00000000: 9270 3e3c 5170 3ebc
