submit_entry/checkpoints/Combined_edgcn_15s/ECG/4/best.pth (torch_old, 76995 bytes, 26 tensors)

conv_time.weight f4 [15, 1, 10]
0	0x3dfe67c4	0.124221355
1	0xbe10a501	-0.14125444
2	0xbd6c7bd7	-0.05773529
3	0xbca6a3c5	-0.020341763
4	0x3ddf3cad	0.10900245
5	0x3daf3526	0.08555059
6	0x3dad69ec	0.084674686
7	0xbe434408	-0.1906892
8	0x3dabe7cc	0.08393821
9	0xbd234a2b	-0.039865654
10	0xbdc55d6f	-0.09636962
11	0xbde36a0e	-0.11104213
12	0x3d730197	0.059327688
13	0x3e4afaae	0.19822189
14	0x3d8b1a39	0.06792111
15	0x3e011f83	0.12609677
16	0xbe2f5a3f	-0.1712427
17	0xbd28f419	-0.041248415
18	0xbd1d8e84	-0.03846599
19	0xbdb762e2	-0.08954407
20	0xbe03f0e0	-0.12884855
21	0x3e4f7989	0.20261206
22	0x3cf918d6	0.03040735
23	0x3e4de982	0.20108607
24	0xbd5418f9	-0.05178163
25	0x3cc8b4a9	0.024500208
26	0xbe4afb7e	-0.19822499
27	0xbdd0ccb2	-0.101952925
28	0xbdff760b	-0.12473687
29	0xbe1b1650	-0.1514523
30	0x3e3b27f6	0.18276963
31	0xbdb6dd21	-0.08928896
32	0x3de65f3d	0.11248634
33	0xbdc65341	-0.09683848
34	0x3dd5faaa	0.10448201
35	0xbe1eb5f9	-0.15499105
36	0xbe0ca5c3	-0.13735108
37	0xbdad3152	-0.08456673
38	0xbcf95cdf	-0.030439792
39	0x3bbfd02d	0.005853674
40	0x3e028888	0.12747395
41	0xbde820c2	-0.11334373
42	0x3e419b08	0.18906796
43	0xbde295df	-0.11063742
44	0x3e0fa325	0.14027078
45	0x3d6d3ff6	0.057922326
46	0xbd654444	-0.055973306
47	0xbe184ec8	-0.14873803
48	0xbe0796be	-0.13241097
49	0x3d955850	0.07292235
50	0xbd93fc78	-0.07225889
51	0xbdfe632b	-0.124212585
52	0xbd81f847	-0.06346183
53	0x3e11d7f6	0.14242539
54	0xbd25c214	-0.04046829
55	0xbc176884	-0.009241227
56	0x3cd4300a	0.025901813
57	0x3e4293f1	0.19001748
58	0x3df4dd0e	0.11956225
59	0xbe15ca3b	-0.14627926
60	0xbdb7cf6f	-0.08975112
61	0x3d38d804	0.045127884
62	0x3da1d8a8	0.07902652
63	0xbde6e7d8	-0.112746894
64	0x3e29504d	0.16534539
65	0x3d2bce24	0.041944638
66	0x3d484b10	0.04889971
67	0x3dd7097b	0.10499855
68	0xbd5330e5	-0.0515603
69	0x3e5b3198	0.21405637
70	0x3c0144cf	0.00788994
71	0xbe2567e9	-0.1615292
72	0x3e2c53bc	0.16828817
73	0xbe16bb9c	-0.14720005
74	0x3e2748ee	0.16336414
75	0xbe228b4e	-0.15873453
76	0x3d9e7f25	0.07739095
77	0xbdfc96bb	-0.12333437
78	0xbe373319	-0.17890586
79	0x3e247fbc	0.16064352
80	0xbe214a5a	-0.15751019
81	0x3d9dc030	0.077026725
82	0x3d74ae46	0.059736513
83	0xbd8936cd	-0.066999055
84	0x3e0a3404	0.13496405
85	0x3e3d3fbf	0.18481348
86	0xbd389bad	-0.04507034
87	0xbdc26321	-0.094915636
88	0xbd5f5e77	-0.054533448
89	0x3cbbf68c	0.022944711
90	0x3ddec9bb	0.10878321
91	0xbe4602b0	-0.19336963
92	0xbe40bf82	-0.18823054
93	0x3e1dcfea	0.15411344
94	0xbce3847f	-0.02777314
95	0xbe439280	-0.19098854
96	0xbdf3fa50	-0.11912978
97	0x3dfa4bb4	0.122214705
98	0x3df789db	0.12086841
99	0x3e28bb72	0.16477755
100	0xbc677af5	-0.014128436
101	0xbde85e7e	-0.11346148
102	0x3e331dc4	0.17491823
103	0x3df00dcb	0.11721381
104	0xbcdb7548	-0.026789322
105	0x3de60f74	0.11233416
106	0x3e11e77e	0.14248464
107	0xbd3235d4	-0.043508366
108	0xbe224c72	-0.15849474
109	0xbd72928f	-0.0592218
110	0x3e278c95	0.16362222
111	0x3e0d84f9	0.13820256
112	0x3c2cd8ce	0.010549737
113	0xbe4510d6	-0.19244704
114	0xbe325996	-0.17416987
115	0xbda9a715	-0.082838215
116	0xbe280f1c	-0.16412014
117	0x3d506fa6	0.050887726
118	0xbe422851	-0.18960692
119	0x3e12c3f2	0.1433256
120	0xbc8eb888	-0.017421976
121	0xbe46ae45	-0.19402416
122	0x3d9fb1e7	0.07797604
123	0x3e209087	0.15680133
124	0xbdf01aca	-0.117238596
125	0x3e16709c	0.14691395
126	0x3df8dffd	0.121520974
127	0x3d31cccd	0.043408204
128	0xbe366640	-0.17812443
129	0x3e33af21	0.17547275
130	0xbd9e50cd	-0.07730255
131	0x3e3b6757	0.1830114
132	0xbde19304	-0.11014369
133	0x3d210e77	0.039320435
134	0x3e038c3c	0.12846464
135	0xbdfda3a5	-0.12384728
136	0x3bc070c7	0.005872819
137	0x3d9e9970	0.0774411
138	0xbdf30fe1	-0.11868263
139	0x3cc9438b	0.02456834
140	0xbe339ade	-0.17539546
141	0x3e0d21ff	0.137825
142	0x3de99033	0.11404457
143	0xbe18f4bd	-0.1493711
144	0xbe416106	-0.18884668
145	0x3dcd83b3	0.10034885
146	0xbe41822e	-0.18897316
147	0xbe34d0d7	-0.17657791
148	0x3d75324c	0.05986242
149	0x3df901e6	0.12158565

conv_time.bias f4 [15]
0	0xbb59fecb	-0.003326344
1	0x3c45dd69	0.012076714
2	0xbbc7f4a2	-0.0061021606
3	0x3ba2c647	0.004967484
4	0x3b8bad69	0.0042626155
5	0x3c5a9a22	0.013342412
6	0xba143793	-0.0005654033
7	0xbabba138	-0.0014315015
8	0xbb943f8c	-0.004524177
9	0x3bcf59d9	0.0063278493
10	0x3b278447	0.0025561021
11	0x3c23106d	0.009952647
12	0x3a68fb6e	0.00088875636
13	0xbca87793	-0.02056483
14	0x3a55d015	0.0008156312

bnorm.weight f4 [15]
0	0x3f805694	1.0026422
1	0x3f7ff76b	0.99986905
2	0x3f82d8bb	1.0222391
3	0x3f7dcdd4	0.99142194
4	0x3f84cb1e	1.0374486
5	0x3f819715	1.0124232
6	0x3f7b6d6f	0.9821386
7	0x3f7df5ba	0.99203074
8	0x3f802380	1.0010834
9	0x3f7b9f06	0.98289526
10	0x3f7d977f	0.9905929
11	0x3f7a48c8	0.97767305
12	0x3f8087f4	1.004149
13	0x3f7db8b4	0.9910996
14	0x3f7ea1a8	0.9946542

bnorm.bias f4 [15]
0	0x3ca00a01	0.01953602
1	0x3d9850db	0.07437297
2	0x3cc9e69a	0.024646092
3	0x3c654e59	0.01399573
4	0x3d16964e	0.036764435
5	0x3d7f6381	0.062350754
6	0xbd0bf5be	-0.034169905
7	0xbb8290bb	-0.0039845384
8	0x3cbae5ae	0.022814598
9	0x3d26917a	0.04066608
10	0x3bc77c69	0.006087829
11	0xbd75c4c1	-0.060002092
12	0x3c13e99b	0.009027864
13	0x3d28daf3	0.04122443
14	0x3d0385c3	0.032109987

bnorm.running_mean f4 [15]
0	0x3bd0cf5f	0.006372377
1	0xbc42862d	-0.01187281
2	0xbda717e2	-0.08158852
3	0xbd2c5475	-0.042072732
4	0x3c36caf8	0.01115679
5	0x3c98f7eb	0.018672904
6	0x3de34f1b	0.110990725
7	0xbd4ba0ce	-0.049713902
8	0x3c2d6b9a	0.010584736
9	0xbbb64c04	-0.005563261
10	0x3d115444	0.035480753
11	0xbd8562ef	-0.06513011
12	0x3d60cd1f	0.05488312
13	0xbc5ab1ae	-0.013348026
14	0xbdb03353	-0.08603539

bnorm.running_var f4 [15]
0	0x3b79e954	0.003813346
1	0x3c7fe0c7	0.015617556
2	0x3dc3107b	0.09524628
3	0x3d252d52	0.040326424
4	0x3c2a716d	0.010403019
5	0x3c3a5acf	0.0113741895
6	0x3e18e62b	0.14931552
7	0x3ceb5f4b	0.028731963
8	0x3c053112	0.008129375
9	0x3cc71eb1	0.024306627
10	0x3ccb7d93	0.024840152
11	0x3dc0633c	0.093939275
12	0x3d28891f	0.041146394
13	0x3ae21b81	0.0017250628
14	0x3dc33ec2	0.095334545

block2.conv_2.weight f4 [15, 15, 10]
0	0x3c5b6f54	0.013393242
1	0x3d94eeef	0.072721355
2	0x3d89f1e2	0.067355886
3	0xbcac2ab8	-0.021016464
4	0xbdb3b00c	-0.08773813
5	0x3d844ba8	0.06459743
6	0xbdc39662	-0.095501676
7	0x3dd2f9fa	0.103015855
8	0xbd4c3017	-0.04985055
9	0x3c29913c	0.010349568
10	0xbdc9e201	-0.0985756
11	0xbe1ecbea	-0.15507475
12	0x3de0f49b	0.10984155
13	0x3d23f6ad	0.04003017
14	0xbccd1bd7	-0.02503769
15	0x3dac0147	0.08398681
16	0x3e149216	0.14508852
17	0x3e21070b	0.15725343
18	0xbdaf223a	-0.0855145
19	0xbde9ceb3	-0.11416378
20	0x3e08ff32	0.133786
21	0x3d993e02	0.0748253
22	0x3c798a35	0.015230705
23	0xbcbbd7df	-0.022930084
24	0x3c624948	0.013811417
25	0x3d3cbffa	0.04608152
26	0xbd9fb791	-0.077986844
27	0xbdfafa0e	-0.122547254
28	0x3db953a8	0.09049159
29	0xbde42307	-0.111394934
30	0x3ce0d7b4	0.027446605
31	0x3e123126	0.14276561
32	0x3d660dec	0.05616562
33	0x3cf7c993	0.030247485
34	0xbde69b01	-0.112600334
35	0xbdd5b00c	-0.10433969
36	0x3dcc55df	0.09977316
37	0xbd897207	-0.06711202
38	0xbcf5b040	-0.02999127
39	0xbbedeafc	-0.0072606783
40	0x3dc54273	0.09631815
41	0xbe14cbb8	-0.14530838
42	0xbe01a7ae	-0.12661621
43	0x3da5f8d8	0.08104104
44	0xbbaccdc3	-0.005273552
45	0x3d50a0d3	0.050934624
46	0x3c8ffe20	0.01757723
47	0x3b80cdac	0.003930768
48	0x3ddcc8d8	0.107804954
49	0xbe227dd2	-0.15868309
50	0xbe133078	-0.14373958
51	0x3d0d4ffc	0.034500107
52	0xbe129d1d	-0.14317746
53	0x3e00cce6	0.12578163
54	0xbd3f0c74	-0.046642736
55	0x3da74923	0.081682466
56	0xbd652de5	-0.05595197
57	0x3dbe43a1	0.09290243
58	0xbc9897e0	-0.018627107
59	0x3db70f05	0.089384116
60	0xbd8d7758	-0.06907529
61	0x3dc2197c	0.09477517
62	0xbc6029be	-0.013681827
63	0xbdd0cdaa	-0.10195477
64	0x3dafb431	0.08579291
65	0xbd94f3d6	-0.072730705
66	0xbde35854	-0.11100832
67	0x3d8be501	0.068307884
68	0xbd995bfd	-0.074882485
69	0x3da7d3c6	0.081946895
70	0xbdec95a0	-0.11551976
71	0x3e0b2b2c	0.13590688
72	0xbdcebe90	-0.10094941
73	0x3e02cc5f	0.12773274
74	0x3d53f9f3	0.051752042
75	0x3dbb5a25	0.09148053
76	0x3db880fe	0.09008978
77	0x3d50c214	0.050966337
78	0xbb2cc584	-0.0026362846
79	0xbceb22b6	-0.028703075
80	0x3d186131	0.037202064
81	0x3d31e5c9	0.04343203
82	0xbddfdc07	-0.10930639
83	0x3d813985	0.06309799
84	0xbe174793	-0.14773397
85	0xbdd2f267	-0.10300141
86	0x3dbceace	0.09224473
87	0xbdb8ddef	-0.090267055
88	0x3d42275e	0.047400825
89	0xbd2fc6fe	-0.042914383
90	0xbc483546	-0.012219733
91	0xbd4c34b8	-0.049854964
92	0xbda823dc	-0.08209965
93	0x3d81149f	0.06302761
94	0xbda6b319	-0.08139629
95	0x3da4c349	0.0804506
96	0xbbb13436	-0.0054078354
97	0xbdecbdf3	-0.115596674
98	0x3d699657	0.05702814
99	0x3b98f19a	0.004667473
100	0xbdea45b5	-0.11439077
101	0x3d19d187	0.037553336
102	0xbdf1b9d5	-0.11803023
103	0x3dbfb245	0.09360174
104	0x3dae2d3b	0.08504721
105	0xbd784f96	-0.060622774
106	0xbceb6a97	-0.02873735
107	0x3d998ff7	0.07498162
108	0x3d4ff06c	0.050766394
109	0x3e2f06f5	0.17092498
110	0x3deab831	0.11460913
111	0xbdde4c89	-0.10854442
112	0xbe1ae864	-0.15127712
113	0x3ddfe699	0.10932655
114	0x3a9fc5e4	0.0012189713
115	0xbdab823b	-0.08374449
116	0xbddb42fd	-0.107061364
117	0xbd4e572e	-0.05037611
118	0x3e079c9e	0.13243338
119	0xbb86034e	-0.0040897494
120	0xbc9d52dd	-0.019204551
121	0x3dacc5ff	0.08436202
122	0xbe0f7b93	-0.14011984
123	0xbe0c80b9	-0.13720979
124	0xbcd2757e	-0.02569079
125	0x3dcad680	0.09904194
126	0xbd76dbb5	-0.060268123
127	0xbdba1bbc	-0.09087321
128	0xbdd0bb30	-0.10191953
129	0xbd007e74	-0.031370595
130	0x3e0cfb39	0.13767709
131	0xbd99bf74	-0.0750722
132	0xbd4100ce	-0.047119908
133	0xbdb38ce0	-0.08767104
134	0x3d976ff8	0.07394403
135	0xbd3055fa	-0.043050744
136	0x3c96c53a	0.018404592
137	0xbdab4f14	-0.08364692
138	0x3dd5a07a	0.10430999
139	0x3db501d6	0.08838241
140	0xbdee3c2e	-0.11632572
141	0x3e0b045d	0.13575883
142	0xbd63166b	-0.0554413
143	0xbd5df790	-0.054191172
144	0x3dd954ea	0.10611899
145	0xbceb648b	-0.028734466
146	0xbdb3a50e	-0.08771716
147	0xbbddf289	-0.006773297
148	0x3c9fe247	0.019517077
149	0xbd3d3300	-0.046191216
150	0xbdfbd7cc	-0.12297019
151	0xbdad012d	-0.0844749
152	0x3cd12001	0.025527956
153	0xbc66ac24	-0.014079127
154	0x3db4b354	0.088232666
155	0x3d874702	0.066053405
156	0xbdad2e45	-0.08456091
157	0x3d6e719a	0.058213808
158	0xbdbcec72	-0.09224786
159	0xbd4ceffd	-0.05003356
160	0x3de841d9	0.113406844
161	0xbda2f550	-0.07956946
162	0xbd8fbaf3	-0.070180796
163	0xbcea4689	-0.028598087
164	0xbd8e9702	-0.06962396
165	0xbbb7122b	-0.0055868826
166	0xbd87f1db	-0.06637927
167	0x3d7fda8f	0.062464293
168	0x3e0d993d	0.13827987
169	0x3debd471	0.11515129
170	0x3c1dea90	0.009638444
171	0xbde71173	-0.11282625
172	0x3db3b606	0.087749526
173	0x3d98c229	0.07458908
174	0x3d86e241	0.06586123
175	0xbdd79b74	-0.10527697
176	0x3d3f2de4	0.046674624
177	0xbdda691d	-0.1066458
178	0x3c919005	0.01776887
179	0x3dda4fd0	0.10659754
180	0xbdfda53c	-0.123850316
181	0x39f857f0	0.00047367765
182	0x3e08f083	0.13372998
183	0xbe0008e5	-0.12503393
184	0xbc19c6c5	-0.009385769
185	0xbd81d16c	-0.06338772
186	0xbc1ce436	-0.009575894
187	0x3da63628	0.08115798
188	0xbceeb957	-0.029141111
189	0x3cc70ddb	0.024298599
190	0xbdf605e7	-0.120128445
191	0xbcd1079d	-0.025516326
192	0x39e5426a	0.00043727766
193	0xbe18dcb0	-0.14927936
194	0xbd41e195	-0.047334272
195	0x3da36a7f	0.07979297
196	0x3ca5248e	0.020159032
197	0xbd089783	-0.033347618
198	0x3da4999e	0.08037113
199	0x3d2e3d31	0.042538825
200	0x3ddc66e4	0.10761812
201	0x3da0b6b7	0.0784735
202	0xbd07a324	-0.033114567
203	0x3badcaab	0.005303701
204	0x3dac7ca3	0.0842221
205	0x3d30be2f	0.043150123
206	0x3e0277a9	0.12740959
207	0x3d4e2c10	0.05033499
208	0x3d6695fa	0.056295373
209	0xbdd94ac7	-0.10609966
210	0x3df8c64e	0.121471986
211	0x3dd36cc3	0.10323479
212	0x3c7ba03c	0.015358027
213	0xbd08eae5	-0.033427138
214	0x3c496a12	0.012293356
215	0x3db5f326	0.088842675
216	0xbd09c0ab	-0.033631008
217	0x3df94af2	0.12172498
218	0xbe0501c0	-0.12988949
219	0x3db3cd15	0.08779351
220	0xbdbb740b	-0.09152993
221	0x3dffc502	0.12488748
222	0x3c88b5e1	0.01668829
223	0xbdc45d90	-0.09588158
224	0xbd06e407	-0.032932308
225	0xbd3896b0	-0.04506558
226	0xbce609cf	-0.028080849
227	0xbdee2da9	-0.11629803
228	0x3b903284	0.004400553
229	0x3db4d8d3	0.088304184
230	0xbd1b6bb0	-0.037944496
231	0xbaccc8f1	-0.001562385
232	0x3d22c93c	0.039742693
233	0xbdfe29b8	-0.12410301
234	0xbd69226c	-0.056917593
235	0xbd984f54	-0.07437006
236	0x3d750a72	0.059824415
237	0x3d6332ff	0.055468556
238	0xbc041c29	-0.0080633545
239	0x3c0f414e	0.008743597
240	0xbdf7ab33	-0.120932005
241	0x3d73aa64	0.05948867
242	0x3dc3cd69	0.09560663
243	0xbc62797a	-0.013822908
244	0xbdb4f174	-0.08835116
245	0x3e07b494	0.13252479
246	0x3cb2fc0e	0.021848705
247	0x3de67df1	0.1125449
248	0x3c75870e	0.014985813
249	0xbca4e80d	-0.020130182
250	0xbd89d7bc	-0.06730601
251	0x3dd476db	0.103742324
252	0x3dc55f96	0.09637372
253	0xbd5aae94	-0.053389147
254	0x3d7f79ca	0.062372006
255	0xbc6b373f	-0.014356433

block2.bnorm_2.weight f4 [15]
0	0x3f7d95d3	0.9905674
1	0x3f801fcb	1.0009702
2	0x3f83ab74	1.0286698
3	0x3f7d4f0b	0.98948735
4	0x3f8141c0	1.009819
5	0x3f7ee4a0	0.99567604
6	0x3f7d3102	0.98902905
7	0x3f82421d	1.0176426
8	0x3f83e0ab	1.0302938
9	0x3f887c0a	1.0662854
10	0x3f7dc4c8	0.9912839
11	0x3f7e4799	0.99328
12	0x3f810903	1.0080875
13	0x3f780f4e	0.96898353
14	0x3f73550c	0.95051646

block2.bnorm_2.bias f4 [15]
0	0x3aa9987e	0.0012939123
1	0x3a60ab3f	0.00085704395
2	0xbc0f6022	-0.008750947
3	0xbc552ddd	-0.013011423
4	0xbb2779e1	-0.0025554823
5	0x3bd34050	0.0064468756
6	0x3cad794e	0.021176007
7	0x3bdfad25	0.0068260604
8	0x3c9aef77	0.018913014
9	0x3d9bdaf0	0.076101184
10	0xbc54e770	-0.012994632
11	0x3c4eacd5	0.012614449
12	0xbc2037f7	-0.009778968
13	0xbd02fa7a	-0.031977154
14	0x3cb5eda4	0.022208042

block2.bnorm_2.running_mean f4 [15]
0	0xbdd47bc1	-0.10375167
1	0x3dc1120e	0.09427272
2	0xbf1eb5ed	-0.61996347
3	0xbf033f16	-0.51268137
4	0xbdaeecf8	-0.08541292
5	0x3ebbf09b	0.36707005
6	0x3e2c95e5	0.16854055
7	0x3d08b1b0	0.03337258
8	0xbe3f7fed	-0.18701144
9	0xbecd2b45	-0.40072075
10	0xbd01614b	-0.031586926
11	0xbb5457d7	-0.003240099
12	0xbec6342d	-0.38711682
13	0x3c2b13eb	0.0104417605
14	0x3d19d399	0.03755531

block2.bnorm_2.running_var f4 [15]
0	0x3ec59bbe	0.38595384
1	0x3f082a04	0.5318911
2	0x3f887181	1.0659639
3	0x3fac55b0	1.346365
4	0x3f06432b	0.5244624
5	0x3f16b026	0.5886253
6	0x3f49a56f	0.78768057
7	0x3f44c4c5	0.76862746
8	0x3eed1d74	0.46311533
9	0x3ee6f35e	0.4510755
10	0x3e677be6	0.22605857
11	0x3eda0899	0.42584684
12	0x3fa4630e	1.2842729
13	0x3f52c8db	0.8233773
14	0x3f89ff21	1.0780984

block3.conv_3.weight f4 [30, 15, 10]
0	0xbddd1412	-0.10794844
1	0xbd52c83e	-0.051460497
2	0x3c761db7	0.015021733
3	0x3b8304c1	0.0039983694
4	0x3c17f6ea	0.0092751775
5	0xbd9e6899	-0.07734794
6	0x3c738633	0.014863539
7	0x3d14a928	0.036294132
8	0xbc1e6b3a	-0.0096691195
9	0x3dd4058d	0.10352621
10	0xbdbdaeb1	-0.09261835
11	0x3ce85d72	0.02836487
12	0x3db7f9b0	0.08983171
13	0xbb04c0b3	-0.002025646
14	0x3c2abcd8	0.010421
15	0x3d8e9a04	0.0696297
16	0x3de1b9c2	0.110217586
17	0x3daf2ec9	0.085538454
18	0xbdc34b3c	-0.09535834
19	0xbe141d71	-0.14464356
20	0x3c89b9ca	0.016812224
21	0xbdf80c14	-0.12111679
22	0xbd77baa8	-0.060480744
23	0x3de22efb	0.11044117
24	0x3db4a091	0.08819688
25	0x3da87108	0.08224684
26	0xbdbf3ad4	-0.093373924
27	0x3d920c02	0.071311966
28	0x3da662eb	0.08124336
29	0xbc511328	-0.012760915
30	0xbc0bdca0	-0.008536488
31	0x3d3ceec0	0.046126127
32	0x3c8d4ef2	0.017249558
33	0x3c2f3907	0.010694749
34	0xbd1c8bfe	-0.038219444
35	0xbda09daa	-0.07842572
36	0xbd758137	-0.059937682
37	0xbd101e44	-0.035185114
38	0x3b1c1ec4	0.0023822049
39	0xbda74ab6	-0.08168547
40	0x3dcba86e	0.09944235
41	0xbdd1a189	-0.102358885
42	0x3da88a80	0.08229542
43	0x3d8da289	0.06915767
44	0xbd741551	-0.05959064
45	0x3d947024	0.072479516
46	0x3cc93d18	0.024565265
47	0xbd15a7c9	-0.036536966
48	0xbab0b5f2	-0.0013481958
49	0xbc871573	-0.01648972
50	0xbcd6f568	-0.026240066
51	0x3db052ad	0.08609519
52	0xbdb9ba5c	-0.09068748
53	0x3dcfe335	0.10150758
54	0xbdb6963c	-0.08915374
55	0xbd4c8c43	-0.04993845
56	0x3deb450c	0.11487779
57	0x3d234f09	0.039870296
58	0xbd9fb8d1	-0.07798923
59	0x3ddac530	0.10682142
60	0x3da41182	0.08011152
61	0xbdef4d08	-0.116846144
62	0xbdee28fd	-0.11628912
63	0x3d5c7750	0.053824723
64	0x3b3af517	0.0028527433
65	0x3c160446	0.009156292
66	0x3dc47358	0.095923126
67	0xbdbc5539	-0.091959424
68	0xbb1f5fc7	-0.0024318562
69	0xbdc071ac	-0.09396681
70	0x3db5bf61	0.08874393
71	0x3d98fb94	0.0746986
72	0xbc2e07c6	-0.0106219705
73	0xbd21aceb	-0.039471548
74	0xbdc110ab	-0.09427007
75	0xbd92384e	-0.071396455
76	0x3d97be87	0.07409387
77	0xbdc15089	-0.09439189
78	0x3dd42b1f	0.10359787
79	0x3cdddab0	0.027081817
80	0xbdae66a3	-0.0851567
81	0x3da8dc64	0.08245161
82	0xbd54c0bf	-0.05194163
83	0xbccfbf2a	-0.025359709
84	0x3db1b153	0.086764
85	0x3d9a9c8e	0.07549392
86	0x3dc82746	0.09773116
87	0xbced6a1c	-0.028981261
88	0x3d4315af	0.0476281
89	0xbceba091	-0.028763087
90	0xbd869901	-0.06572152
91	0xbdb2d21f	-0.08731484
92	0x3c82232f	0.015885917
93	0x3d0c1900	0.03420353
94	0xbb52d3dc	-0.0032169735
95	0xbdb0e571	-0.086375125
96	0xbd866f34	-0.06564179
97	0xbd9f54d9	-0.07779855
98	0xbda9ecb3	-0.082971
99	0xbd8d6d02	-0.06905557
100	0xbdd2898e	-0.10280143
101	0x3d31a3f9	0.043369267
102	0x3c33e15d	0.010979024
103	0x3d151b87	0.036403205
104	0x3bc69076	0.0060597016
105	0x3dbc759d	0.092021205
106	0xbd9bb8fd	-0.07603643
107	0xbdb39422	-0.087684885
108	0x3db78bde	0.089622244
109	0xbd9fc25a	-0.078007415
110	0xbd0af21f	-0.03392231
111	0xbda293ea	-0.079383686
112	0xbdb848a3	-0.08998229
113	0xbd051708	-0.032492667
114	0xbc811600	-0.01575756
115	0x3dcc680c	0.09980783
116	0x3d1f2230	0.038850963
117	0x3d9884e4	0.07447222
118	0x3ddcd0bc	0.107820004
119	0xbdaa0e51	-0.08303512
120	0xbd018b75	-0.031627137
121	0xbd0aa1e0	-0.033845782
122	0xbda19798	-0.07890242
123	0xbcea040a	-0.02856638
124	0xbd60dc60	-0.054897666
125	0xbd19a268	-0.0375084
126	0xbde33859	-0.11094732
127	0xbd0a6ffb	-0.0337982
128	0xbd162393	-0.03665502
129	0xbc9030f5	-0.01760147
130	0x3daff0a4	0.085908204
131	0x3dbf369d	0.093365885
132	0xbdb2abaa	-0.087241486
133	0xbd68ddb4	-0.056852058
134	0xbdb7acd9	-0.08968515
135	0xbd44c2be	-0.048037283
136	0x3d429a2e	0.04751032
137	0xbcf5dd6c	-0.030012809
138	0x3d2fdd76	0.04293581
139	0x3da46a52	0.080280915
140	0x3d76facf	0.060297783
141	0x3daa910c	0.08328447
142	0xbcb1047c	-0.021608584
143	0xbcef4139	-0.029205905
144	0x3d237538	0.03990671
145	0x3aedd897	0.0018146214
146	0x3dce01ba	0.10058923
147	0xbd8fd56a	-0.070231274
148	0xbdbbba6a	-0.09166415
149	0x3d30359c	0.043019876
150	0x3dcbcacc	0.0995079
151	0xbd10d4b1	-0.03535909
152	0x3dc280a7	0.09497195
153	0xbc2d8935	-0.010591795
154	0xbd011991	-0.031518523
155	0xbd0a9bbc	-0.033839926
156	0x3d03e452	0.032200165
157	0xbd98b896	-0.07457082
158	0xbd46a179	-0.048493836
159	0xbe0c9c40	-0.1373148
160	0xbd544993	-0.05182798
161	0x3c935c25	0.017988274
162	0xbd89ce80	-0.0672884
163	0x3d303759	0.043021534
164	0xbdc7bb6c	-0.09752545
165	0xbb7a81bf	-0.0038224307
166	0x3dd333db	0.10312625
167	0xbd937886	-0.072007224
168	0xbd9634c1	-0.07334281
169	0xbcf70e30	-0.030158132
170	0x3dce7ca2	0.100823656
171	0xbd477287	-0.048693206
172	0x3d349a1b	0.04409228
173	0xbd862930	-0.06550825
174	0xbb033998	-0.0020023342
175	0xbdd747d3	-0.10511746
176	0x3ce339db	0.027737549
177	0xbdc4beb7	-0.096066885
178	0x3ddcdcac	0.10784277
179	0xbd9073dd	-0.07053349
180	0xbda048d5	-0.078263916
181	0xbd096184	-0.033540264
182	0x3d13e4b7	0.03610679
183	0x3b311d16	0.0027025393
184	0x3d38eb2f	0.045146164
185	0xbd832c80	-0.06404972
186	0x3dd85202	0.10562517
187	0xbde622fc	-0.112371415
188	0xbded97da	-0.11601229
189	0x3d91a634	0.07111779
190	0xbd01e91d	-0.031716455
191	0x3c350d77	0.011050574
192	0xbc950656	-0.018191498
193	0x3dc10795	0.09425274
194	0xbdd001c6	-0.10156588
195	0x3c220446	0.009888714
196	0x3d513522	0.051076062
197	0x3c02c208	0.007980831
198	0xbcc45ad9	-0.0239691
199	0xbce66d1b	-0.028128197
200	0x3c1f4772	0.009721624
201	0xbdc0d680	-0.09415913
202	0x3dc0ea51	0.09419692
203	0x3d2b13c1	0.041766886
204	0x3d56b8e6	0.052422427
205	0xbdaf2c2c	-0.08553347
206	0x3df19eb5	0.11797849
207	0xbd4efe07	-0.050535228
208	0x3ddb8ad8	0.10719842
209	0x3d34539d	0.044025052
210	0xbbe957be	-0.0071210554
211	0xbd8738b3	-0.066026114
212	0xbde6d31d	-0.112707354
213	0xbb909d0a	-0.0044132518
214	0x3cf44f84	0.029823072
215	0xbcfe725a	-0.031060386
216	0x3dd5f0e5	0.104463376
217	0xbd112734	-0.035437778
218	0x3c9c5266	0.01908226
219	0x3da8b130	0.08236921
220	0xbdc75561	-0.097330816
221	0x3c227b25	0.009917055
222	0xbd97dc83	-0.07415106
223	0xbd003cc0	-0.031307936
224	0x3d9c18ce	0.076219186
225	0xbdb1a4e1	-0.08674026
226	0xbda4ad6a	-0.080408886
227	0x3d238cb7	0.039929118
228	0xbdd47546	-0.10373931
229	0x3d6d43c1	0.057925943
230	0x3c4b8f50	0.012424305
231	0x3dddcb28	0.108297646
232	0x3c8e45d6	0.017367285
233	0xbd4fc9b5	-0.050729472
234	0xbb0c6ea3	-0.002142825
235	0xbba23c1a	-0.0049510123
236	0xbae9f54f	-0.0017849597
237	0xbd1a6682	-0.037695415
238	0xbdeeb410	-0.11655438
239	0xbc80e56a	-0.015734393
240	0x3d246381	0.040133957
241	0x3da228b0	0.07917917
242	0xbca8c7c9	-0.020603077
243	0xbda3c49e	-0.07996486
244	0x3d88d30c	0.06680879
245	0x3d3f7a3b	0.046747427
246	0x3bc86a90	0.006116219
247	0x3d7b9580	0.06142187
248	0xbd970a99	-0.07375068
249	0xbcad1506	-0.021128189
250	0xbdad4ef3	-0.08462324
251	0xbcf25952	-0.029583607
252	0xbb1195f3	-0.002221462
253	0xbdac32fe	-0.084081635
254	0xbdcef672	-0.101055995
255	0x3d082bcf	0.033244904

block3.bnorm_3.weight f4 [30]
0	0x3f7c5ef7	0.98582405
1	0x3f82c2bc	1.0215678
2	0x3f882063	1.0634884
3	0x3f8954eb	1.072904
4	0x3f863b8e	1.0486925
5	0x3f87861b	1.0587801
6	0x3f7ebe29	0.9950891
7	0x3f80f06f	1.0073375
8	0x3f7b0888	0.9805989
9	0x3f7df7ef	0.9920644
10	0x3f7df72e	0.9920529
11	0x3f8c9c88	1.098527
12	0x3f7ebcab	0.99506634
13	0x3f7bd534	0.983722
14	0x3f838753	1.0275673
15	0x3f7b658a	0.9820181
16	0x3f7dfd58	0.99214697
17	0x3f809047	1.004403
18	0x3f7f49a0	0.9972172
19	0x3f8342a4	1.0254712
20	0x3f8402ae	1.0313318
21	0x3f83a618	1.0285063
22	0x3f80f16f	1.007368
23	0x3f817eef	1.0116862
24	0x3f7a6bca	0.97820723
25	0x3f7b00ea	0.9804827
26	0x3f7cd6e5	0.98765403
27	0x3f80ce19	1.0062896
28	0x3f7acf7e	0.9797286
29	0x3f7c32b1	0.9851485

block3.bnorm_3.bias f4 [30]
0	0xbc27ffe9	-0.010253885
1	0xbc745b88	-0.014914401
2	0x3d0f493b	0.034981947
3	0x3cdb2cc4	0.026754744
4	0xbc9f5da7	-0.019453837
5	0x3d44f6a9	0.048086796
6	0x3c9f72e4	0.019463964
7	0x3be6f032	0.0070476765
8	0x3c8a0cbc	0.016851775
9	0x3c9a198a	0.018811006
10	0xb820f2e7	-3.8373193e-05
11	0x3cb1f8c3	0.021725064
12	0xbcbb7d2f	-0.02288684
13	0x3ce001f5	0.027344683
14	0x3ac11b64	0.0014732894
15	0x3b79a9de	0.0038095633
16	0xbcff812a	-0.03118952
17	0x3c14288e	0.009042872
18	0xbb0eab71	-0.0021769668
19	0x3c61f61d	0.013791588
20	0xbb21a214	-0.0024663256
21	0xbc3ef411	-0.01165487
22	0xbcbd9a3c	-0.023144834
23	0x3c8e124a	0.017342705
24	0xbda4b76d	-0.08042798
25	0xbc031264	-0.00799999
26	0xbd63e075	-0.05563398
27	0xbc5d28d1	-0.013498501
28	0x3d0eb026	0.034835957
29	0xbc0f6322	-0.008751662

block3.bnorm_3.running_mean f4 [30]
0	0xbe60640c	-0.21913165
1	0xbeb19b01	-0.3468857
2	0xbeb75688	-0.35808206
3	0xbf23cc96	-0.6398405
4	0xbea17e4c	-0.3154167
5	0xbe8d38bf	-0.27582356
6	0x3d813f3f	0.06310891
7	0xbd99881b	-0.07496663
8	0x3f024199	0.50881344
9	0x3ec1e50d	0.37870064
10	0xbcbb67e7	-0.022876693
11	0xbe198eb5	-0.14995845
12	0x3d100ae6	0.035166644
13	0x3f2a7583	0.6658556
14	0xbf035259	-0.5129753
15	0xbd7e7a16	-0.06212815
16	0xbdec16d9	-0.11527795
17	0xbdc8099c	-0.09767458
18	0xbe651b71	-0.2237375
19	0xbec9fe63	-0.39451894
20	0xbe1dc79d	-0.15408178
21	0xbea6a900	-0.32550812
22	0xbe35bd43	-0.17747979
23	0xbe76733c	-0.24067396
24	0xbd920726	-0.0713027
25	0x3ed8f799	0.42376402
26	0x3d4adc7a	0.04952667
27	0xbdab5b78	-0.08367056
28	0x3ebbf000	0.36706543
29	0x3e4b5cd6	0.19859633

block3.bnorm_3.running_var f4 [30]
0	0x3e9eabe2	0.3099051
1	0x3eb35a8c	0.3503002
2	0x3eb938ae	0.36176056
3	0x3f6c9dc9	0.9242826
4	0x3ed31012	0.41223198
5	0x3eb1b344	0.3470708
6	0x3f180648	0.59384584
7	0x3ee11e61	0.4396849
8	0x3f44a02a	0.7680689
9	0x3e9b2b17	0.30306312
10	0x3e560da7	0.20903645
11	0x3f0cf87a	0.55066645
12	0x3eccaaa1	0.3997393
13	0x3f6842fe	0.9072722
14	0x3f06dd79	0.5268169
15	0x3e8f5ee4	0.28002083
16	0x3eba3ac0	0.36372948
17	0x3e9d22f1	0.3069072
18	0x3ea30e35	0.31846777
19	0x3f11eb74	0.569999
20	0x3ea3a9b9	0.31965426
21	0x3eba9e93	0.36449108
22	0x3ec6b3f7	0.38809177
23	0x3ebcdc4f	0.36886832
24	0x3f12e818	0.57385397
25	0x3f8c086e	1.0940073
26	0x3f276c2b	0.65399426
27	0x3f00465f	0.5010738
28	0x3f09cb30	0.53825665
29	0x3ec7590a	0.3893512

block4.conv_4.weight f4 [30, 30, 10]
0	0x3d4dd21f	0.050249215
1	0x3cec0272	0.02880976
2	0x3d5cf0d1	0.053940598
3	0xbd751841	-0.059837583
4	0x3d13b2c6	0.036059164
5	0xbd7c90f1	-0.061661664
6	0xbd73aa71	-0.059488717
7	0x3d94e812	0.072708264
8	0x3d28ef14	0.041243628
9	0xbd6029b1	-0.05472726
10	0xbd12b3de	-0.035816066
11	0x3dde4919	0.10853786
12	0xbca50b89	-0.020147102
13	0x3cb27306	0.021783363
14	0x3d25e678	0.040502995
15	0x3c29553b	0.010335262
16	0xbc4b466e	-0.012406928
17	0xbd7091f1	-0.05873293
18	0xbd40b5b4	-0.047048286
19	0x3d35412f	0.044251617
20	0x3e18b1be	0.14911553
21	0xbdc72b01	-0.09724999
22	0xbcb91142	-0.022591237
23	0xbd46edfb	-0.0485668
24	0xbd945e80	-0.07244587
25	0x3ddda070	0.10821617
26	0xbcbd9ab2	-0.023145054
27	0x3c9d7103	0.019218927
28	0x3dab0a22	0.08351542
29	0x3c1ea3e1	0.009682626
30	0x3cd93b35	0.02651749
31	0x3d9a50d0	0.07534945
32	0xbd511de6	-0.051053904
33	0x3dc42128	0.095766366
34	0x3deabea2	0.114621416
35	0x3d2f0460	0.04272878
36	0x3d6e0d7c	0.05811833
37	0x3d5ed42b	0.054401558
38	0xbd9482a6	-0.07251482
39	0xbd02f4ef	-0.031971868
40	0xbd08e8d5	-0.03342517
41	0xbd8a2f53	-0.06747308
42	0x3d0492b5	0.032366473
43	0x3da5adb8	0.08089775
44	0xbc50e99e	-0.012751011
45	0xbd535500	-0.051594734
46	0xbd3d5afc	-0.046229348
47	0x3daf10a4	0.08548096
48	0x3d15ffcd	0.036620904
49	0xbe04247c	-0.12904543
50	0xbda1bdd9	-0.07897539
51	0xbdbc5827	-0.09196501
52	0xbccd88e1	-0.025089683
53	0xbdae476b	-0.08509716
54	0x3d024409	0.031803165
55	0xbc98e98b	-0.01866605
56	0xbda8e9fb	-0.08247753
57	0x3d834dde	0.06411336
58	0xbd6fe256	-0.05856546
59	0xbb078692	-0.0020679575
60	0xbc7908db	-0.015199865
61	0x3d6eda8e	0.0583139
62	0x3d304eb2	0.0430438
63	0xbd1a8efd	-0.03773402
64	0xbdc09ef5	-0.09405319
65	0x3d1ca732	0.038245387
66	0xbd121177	-0.035661187
67	0xbca0e62f	-0.01964101
68	0x3dc24dd2	0.09487499
69	0x3da35b18	0.07976359
70	0x3b0879d7	0.0020824575
71	0x3d8154de	0.06315015
72	0xbda8bc45	-0.082390346
73	0xbdc49899	-0.09599418
74	0x3d8ec37d	0.0697088
75	0x3cf1be11	0.029509576
76	0x3d9b23a4	0.07575157
77	0xbbf72018	-0.0075416677
78	0x3d1b7ef4	0.03796287
79	0xbda0a37a	-0.07843681
80	0xbd2175cf	-0.03941899
81	0xbb2dc465	-0.0026514765
82	0x3da58f17	0.08083933
83	0x3d9de967	0.077105336
84	0xbcc8be39	-0.024504768
85	0xbbe10609	-0.0068671745
86	0xbc27e3ad	-0.010247153
87	0xbd475e33	-0.04867382
88	0x3cdd4b8a	0.027013559
89	0x3caac00f	0.020843534
90	0xbd87a2f6	-0.06622879
91	0x3b16ac9b	0.0022991064
92	0xbcf6742c	-0.030084692
93	0xbd9b8779	-0.07594199
94	0x3cc1dd96	0.02366523
95	0xbd7cede1	-0.061750297
96	0x3cee5486	0.029093038
97	0xbd25e980	-0.040505886
98	0xbc8e4477	-0.017366631
99	0x3c8921d5	0.016739765
100	0xbcdb35f2	-0.026759122
101	0x3d94d8f9	0.07267947
102	0x3cb79a4f	0.022412447
103	0x3d976b1a	0.07393475
104	0xbd4c294c	-0.04984407
105	0xbce326d8	-0.027728483
106	0xba2675eb	-0.00063499686
107	0xbd4ff24a	-0.050768174
108	0xbdacc2e7	-0.08435612
109	0xbb753b36	-0.0037419326
110	0x3e1c1fae	0.1524646
111	0x3c69dc59	0.014273726
112	0x3dc96dfe	0.098354325
113	0xbdd5ca96	-0.10439031
114	0x3c89885a	0.01678865
115	0x3db161ea	0.08661254
116	0x3d8a3284	0.06747916
117	0x3c09e628	0.00841669
118	0x3d800bb6	0.06252234
119	0xbce83030	-0.02834329
120	0xbd74e0a3	-0.059784543
121	0xbd80376e	-0.062605724
122	0x3d3714bc	0.04469751
123	0xbc9566f2	-0.018237565
124	0x3cda04c7	0.026613606
125	0x3c409df9	0.011756414
126	0x3d0f7d41	0.03503156
127	0x3d2193a6	0.03944745
128	0xbd0099fd	-0.031396855
129	0xbd75bea9	-0.05999628
130	0x3dbd83ae	0.092536315
131	0xbd606f8a	-0.054793872
132	0x3cbdc203	0.023163801
133	0xbd1ff2cb	-0.039049905
134	0xba336bc6	-0.00068443676
135	0xbd14be8f	-0.036314543
136	0xbd8c5c2e	-0.068535194
137	0x3bc08940	0.0058757365
138	0x3cf7b516	0.030237716
139	0xbd3b9212	-0.0457936
140	0xbc8505b6	-0.016238075
141	0x3cb131c6	0.02163018
142	0xbcddda20	-0.02708155
143	0x3d049cc5	0.03237607
144	0xbd0f8462	-0.03503836
145	0x3df85f9c	0.12127611
146	0x3dd7c52e	0.10535656
147	0xbd63db66	-0.055629157
148	0xbc42fbef	-0.011900886
149	0x3db82b9f	0.08992695
150	0xbd4d3002	-0.050094612
151	0xbd69618b	-0.05697779
152	0xbdb3c7fe	-0.0877838
153	0x3d29fe60	0.041502357
154	0xbce13c33	-0.027494526
155	0xbdaadc7f	-0.083428375
156	0xbda613bd	-0.081092335
157	0x3ce2ec6c	0.027700625
158	0xbdd8adaa	-0.10579999
159	0xbd35c623	-0.04437841
160	0xbcf93cd3	-0.030424511
161	0xbd1a798f	-0.037713584
162	0xbd62c489	-0.05536321
163	0x3babc3eb	0.005241861
164	0xbbc08b52	-0.0058759833
165	0x3da79d67	0.08184319
166	0xbd05772a	-0.032584347
167	0xbcb01796	-0.021495622
168	0xbc228637	-0.009919695
169	0xbda26ad5	-0.07930533
170	0x3d141507	0.036152866
171	0x3b9dcb5b	0.0048155016
172	0x3c93879a	0.018008996
173	0xbde08707	-0.109632544
174	0xbbf4e1dc	-0.0074732136
175	0x3dd827c9	0.105544634
176	0xbd9d771b	-0.07688733
177	0x3d8114f3	0.06302824
178	0x3d90e773	0.070753954
179	0xbde44f9e	-0.11147998
180	0x3c9d3917	0.019192262
181	0xbd9a00b8	-0.07519668
182	0x3d823326	0.06357412
183	0x3d72b929	0.059258614
184	0x3d4a13e1	0.049335364
185	0x3d73ab6b	0.05948965
186	0x3d8f1ad8	0.06987542
187	0x3d348310	0.044070303
188	0x3d3c495c	0.0459684
189	0x3b236d46	0.0024936958
190	0x3dcfb5e8	0.10142118
191	0x3c975403	0.018472677
192	0x3c658cae	0.014010591
193	0x3d865b63	0.065603994
194	0x3d1a8bd7	0.037731018
195	0x3c5fb47c	0.013653871
196	0x3d06e658	0.032934517
197	0x3d740d71	0.05958313
198	0x3c64260f	0.0139250895
199	0x3de09c8f	0.10967361
200	0xbc130590	-0.008973494
201	0xbc8d8327	-0.017274452
202	0x3d87378d	0.06602392
203	0xbc2defbb	-0.010616238
204	0x3d4e9d0c	0.05044274
205	0x3c50a01f	0.012733488
206	0x3dcb9ddb	0.09942218
207	0x3d8c0bd4	0.068381935
208	0xbdc96c20	-0.09835076
209	0xbaa4d327	-0.0012575135
210	0xbd54b110	-0.051926672
211	0x3c9548e4	0.018223234
212	0xbd46f6ee	-0.048575334
213	0xbd92b81e	-0.07164024
214	0xbd1c1bb2	-0.03811235
215	0xbbe8658e	-0.0070921844
216	0xbd9b689d	-0.07588313
217	0xbc89d2a9	-0.016824083
218	0xbd8e5dda	-0.069514945
219	0x3d5907e5	0.052986044
220	0xbd428f2b	-0.047499817
221	0x3c8c5094	0.017128266
222	0x3da77a7b	0.08177658
223	0x3ba54833	0.005044007
224	0xbd0344b1	-0.03204793
225	0xbd8ecd33	-0.069727324
226	0x3d5b2cb6	0.053509437
227	0xbd3c83c9	-0.046024118
228	0x3cb033e3	0.021509117
229	0x3d1be3bb	0.038058978
230	0x3d8d42a4	0.06897476
231	0xbdc1b520	-0.09458375
232	0x3c0bb9bb	0.008528168
233	0x3be14ee7	0.006875861
234	0xbd8e9438	-0.06961864
235	0xbe04d281	-0.12970926
236	0x3ccc49b4	0.024937488
237	0x3d84a6b1	0.06477106
238	0xbd18ed43	-0.037335645
239	0xbd4fd714	-0.050742224
240	0x3c9b4d59	0.01895778
241	0x3da77fde	0.081786856
242	0x3cc48d56	0.023993175
243	0xbd87820d	-0.06616602
244	0xbc753e6c	-0.014968496
245	0x39fb864b	0.00047974507
246	0x3c88f9ba	0.016720641
247	0xbbb82d6e	-0.00562065
248	0xbd04eeef	-0.032454427
249	0x39a1a396	0.00030830194
250	0xbd1cdc53	-0.038296055
251	0x3d07ce54	0.033155754
252	0x3d637bef	0.055538114
253	0x3d89a501	0.06720925
254	0xbd56cbc0	-0.052440405
255	0x3cabb516	0.020960372

block4.bnorm_4.weight f4 [30]
0	0x3f85329b	1.0406069
1	0x3f8b2855	1.0871683
2	0x3f85b0a2	1.0444529
3	0x3f8512f5	1.039641
4	0x3f8304e9	1.0235873
5	0x3f87f074	1.0620255
6	0x3f898202	1.07428
7	0x3f8672a1	1.0503732
8	0x3f8486ca	1.0353634
9	0x3f84f4be	1.0387189
10	0x3f880400	1.0626221
11	0x3f83ad35	1.0287234
12	0x3f87cbf7	1.060912
13	0x3f874d1e	1.0570409
14	0x3f85e60b	1.0460829
15	0x3f85fce6	1.0467803
16	0x3f85dc03	1.0457767
17	0x3f838073	1.0273575
18	0x3f864f2b	1.049291
19	0x3f83d9be	1.0300825
20	0x3f86b93e	1.0525281
21	0x3f851ff4	1.0400376
22	0x3f86a4f9	1.0519096
23	0x3f85422a	1.0410817
24	0x3f81ed51	1.0150548
25	0x3f92516f	1.1431102
26	0x3f87f051	1.0620214
27	0x3f831866	1.0241821
28	0x3f855463	1.0416378
29	0x3fa216d5	1.2663218

block4.bnorm_4.bias f4 [30]
0	0x3a8d3d0d	0.0010775641
1	0x3c154ece	0.009113027
2	0xbb03f472	-0.0020134714
3	0x3bbcdbad	0.005763492
4	0x37a83e25	2.0056099e-05
5	0x3c1fbef2	0.009750115
6	0x3b5d8759	0.0033802597
7	0x3c2ce089	0.01055158
8	0xba7dc637	-0.00096807204
9	0xbafc476b	-0.0019247358
10	0xbb1b857f	-0.0023730693
11	0x3c1945a5	0.009354983
12	0x3be6a7d7	0.007039051
13	0xbbc27a91	-0.005935021
14	0xbca50f66	-0.020148944
15	0x3970cc3f	0.00022964271
16	0x3abcc640	0.0014402345
17	0x3b602aed	0.0034205273
18	0xbb6d1df8	-0.0036181193
19	0x3a504c73	0.0007945962
20	0xbbf32519	-0.007420194
21	0x3b43447c	0.0029795459
22	0xbb87ce39	-0.0041444567
23	0x3b189d27	0.002328703
24	0x3b915b23	0.004435913
25	0x3b1caa7b	0.0023905325
26	0xbbaa55fb	-0.005198238
27	0x3c6bb85a	0.014387215
28	0x3bff8ec6	0.0077990023
29	0x3d1648c0	0.036690474

block4.bnorm_4.running_mean f4 [30]
0	0x3e33029e	0.17481467
1	0x3b89640e	0.0041928357
2	0x3e57c911	0.21072794
3	0x3e6da20d	0.23206349
4	0xbefc2762	-0.49248797
5	0x3d52149c	0.051289186
6	0xbdcaf013	-0.09909072
7	0xbe1d5fff	-0.15368651
8	0x3da978e3	0.082750104
9	0xbc35c88e	-0.011095179
10	0xbcf01fff	-0.029312132
11	0x3e605da0	0.21910715
12	0x3e89f922	0.26947886
13	0x3cfd68d8	0.030933782
14	0x3ef4db7f	0.47823712
15	0x3e9ba45e	0.3039884
16	0x3d2ad190	0.04170376
17	0xbda95508	-0.082681715
18	0x3eb36201	0.3503571
19	0xbf14c87d	-0.5811842
20	0xbe03061f	-0.12795304
21	0x3d4f390b	0.05059151
22	0x3dd24fa1	0.10269094
23	0x3cdc727b	0.026910057
24	0xbef80044	-0.48437703
25	0x3ea1abfb	0.31576523
26	0x3e4737b8	0.19454849
27	0x3ec499c5	0.38398567
28	0x3e6c3d10	0.23070168
29	0x3e0dbd60	0.13841772

block4.bnorm_4.running_var f4 [30]
0	0x3eba1c24	0.36349595
1	0x3e6580bb	0.22412388
2	0x3e8f7eaf	0.2802634
3	0x3e6d2b21	0.23160984
4	0x3ed52869	0.41632393
5	0x3e77436f	0.24146818
6	0x3ecc182e	0.39862198
7	0x3eae872b	0.340875
8	0x3e5e6abf	0.21720408
9	0x3efef3ab	0.4979528
10	0x3e9a0e38	0.30088973
11	0x3ebd6250	0.3698907
12	0x3e30f3d6	0.17280516
13	0x3ebae8de	0.3650579
14	0x3ed3e187	0.41383
15	0x3e8ccc06	0.27499408
16	0x3e886fff	0.26647946
17	0x3e9e5e9a	0.3093155
18	0x3e5d4a41	0.21610357
19	0x3eec77a6	0.46185035
20	0x3eab1273	0.33412513
21	0x3ecae5fc	0.3962859
22	0x3e87330d	0.26406136
23	0x3e874bf2	0.2642513
24	0x3ea04aea	0.31307155
25	0x3e6db3a7	0.23213063
26	0x3e8302f5	0.25588194
27	0x3e94a338	0.29030776
28	0x3ea20d0c	0.3165058
29	0x3e472c72	0.19450548

conv_channel_res.weight f4 [1, 30, 3]
0	0x3c7b5f0d	0.015342486
1	0xbd9f27c1	-0.07771254
2	0xbd999ec5	-0.07500986
3	0xbd884c3e	-0.06655167
4	0x3d8c9c87	0.06865793
5	0xbd90494b	-0.070452295
6	0xbe196fd1	-0.14984061
7	0xbd72dfc1	-0.05929542
8	0xbd620204	-0.055177703
9	0xbd8fdcce	-0.07024537
10	0x3dc18d76	0.0945081
11	0x3d7691f1	0.060197774
12	0x3db821e2	0.08990838
13	0x3d280bcb	0.04102687
14	0x3df18fc1	0.11794997
15	0xbdbfb135	-0.093599714
16	0x3d9c9a75	0.07646648
17	0x3d721065	0.059097666
18	0xbe19c9af	-0.15018342
19	0xbd807b8e	-0.06273566
20	0x3c5c06eb	0.013429384
21	0xbda15a63	-0.07878568
22	0x3d0aa4f6	0.033848725
23	0x3e03f001	0.12884523
24	0x3dc264a5	0.09491853
25	0x3dd645f8	0.10462564
26	0xbd9bbf8a	-0.076048926
27	0x3d89c3b2	0.06726779
28	0xbe0b636d	-0.13612147
29	0xbdb4c13b	-0.08825918
30	0xbe2416cc	-0.16024321
31	0xbd0320ae	-0.032013588
32	0xbd49b1fd	-0.04924201
33	0x3dda13be	0.10648297
34	0xbc7c46d4	-0.015397746
35	0x391056ad	0.000137652
36	0x3e12be99	0.1433052
37	0x3e17bd48	0.14818299
38	0x3e274e09	0.16338362
39	0x3c3fd385	0.011708145
40	0xbe0d3465	-0.13789518
41	0xbd82b20a	-0.063816145
42	0xbdabd605	-0.0839043
43	0xbdd40539	-0.10352559
44	0xbd7d0dbb	-0.061780673
45	0x3defd4cd	0.117105104
46	0x3d9ca176	0.07647984
47	0xbd86c12b	-0.065798126
48	0x3dbf951f	0.093546145
49	0x3d84cf70	0.06484878
50	0x3db38796	0.08766095
51	0x3d95ed08	0.07320601
52	0x3e01566a	0.1263062
53	0xbcc12dc6	-0.023581397
54	0xbd893b27	-0.067007355
55	0x3dfdf833	0.12400856
56	0x3e0c87e4	0.13723713
57	0x3df4f61a	0.11961003
58	0x3dcef8b1	0.10106028
59	0xbc834e9a	-0.016028691
60	0xbd0ae328	-0.03390804
61	0xbdf4c212	-0.119510785
62	0xbe224d35	-0.15849765
63	0x3da90375	0.082526125
64	0xbd92fafa	-0.07176776
65	0x3e0ba6c7	0.1363784
66	0xbd85993c	-0.06523368
67	0xbdb6e35c	-0.08930084
68	0xbd9aad05	-0.07552532
69	0x3cb714ca	0.02234878
70	0xbbcc47f2	-0.0062341625
71	0x3dd9d7a5	0.10636834
72	0x3ca66b66	0.020314883
73	0x3dcf5f53	0.101256035
74	0xbcb78416	-0.02240185
75	0x3d2bb0e4	0.041916743
76	0x3c1ef621	0.009702236
77	0xbe098752	-0.13430527
78	0xbdf54130	-0.11975324
79	0xbe298d07	-0.16557704
80	0xbcc2450d	-0.023714567
81	0xbd3e63b7	-0.046481814
82	0x3d7b5224	0.061357632
83	0x3db0d13e	0.0863366
84	0x3e011ee9	0.12609448
85	0x3daa8ed8	0.083280265
86	0x3d7b9244	0.061418787
87	0x3d44e25f	0.048067447
88	0x3d8b55c3	0.06803467
89	0xbe15ac10	-0.14616418

classifier_conv.weight f4 [32, 1, 44]
0	0xbbc1925f	-0.0059073414
1	0x3e076c55	0.13224919
2	0x3d85b13e	0.06527947
3	0x3e05cf73	0.13067417
4	0x3d07a641	0.033117536
5	0xbd4f7119	-0.050644968
6	0xbc9dc80c	-0.019260429
7	0xbd11952b	-0.03554265
8	0x3d3ba6de	0.045813434
9	0x3d211059	0.03932223
10	0x3db0c827	0.08631926
11	0x3e3c67a8	0.18398917
12	0x3d078dd3	0.03309424
13	0x3d83ab3c	0.06429145
14	0xbdcbac38	-0.099449575
15	0xbdbe8ad3	-0.09303822
16	0x3de2b374	0.11069384
17	0x3d8e3c04	0.06945041
18	0xbd66687e	-0.056251995
19	0x3e42e753	0.19033556
20	0x3e2d1e1b	0.16906016
21	0x3ccec693	0.025241172
22	0x3c9db0b2	0.019249294
23	0x3e214446	0.157487
24	0xbd0af1d6	-0.03392204
25	0x3d95b7b1	0.07310427
26	0x3e70c9b5	0.23514445
27	0x3de25c57	0.11052769
28	0x3e06f5ac	0.13179654
29	0x3e91dcef	0.2848887
30	0x3e2ff4c5	0.17183216
31	0x3e09feb8	0.13476074
32	0x3e895292	0.2682081
33	0x3e854ce1	0.26035216
34	0x3dfef14d	0.12448368
35	0x3e8853cf	0.2662644
36	0x3e476e9c	0.19475788
37	0x3e4298a5	0.19003542
38	0x3dbd8d18	0.09255427
39	0xbcb0e4f9	-0.021593558
40	0xbe1a0a5b	-0.15043013
41	0x3e4f8dce	0.20268938
42	0x3ca0b8dd	0.0196194
43	0xbcb64e97	-0.022254271
44	0xbc3a84ea	-0.011384228
45	0x3e307e23	0.17235617
46	0x3dce0ce2	0.10061051
47	0x3d837cda	0.06420298
48	0xbcdbb6dd	-0.026820594
49	0xbe0a9fb4	-0.13537484
50	0x3c832ef4	0.0160136
51	0x3d0c92f0	0.034319818
52	0xbcb586c8	-0.022158995
53	0x3d704312	0.058657713
54	0x3d9d88e8	0.076921284
55	0x3e128d8c	0.14311808
56	0x3d4324ee	0.04764264
57	0x3de21727	0.11039572
58	0xbd91d904	-0.071214706
59	0xbd362d12	-0.044476576
60	0x3e38ca76	0.18045983
61	0x3c83bdee	0.016081776
62	0xbd9622f8	-0.073308885
63	0x3de19e81	0.1101656
64	0x3e1f13dc	0.1553492
65	0xbc37aee5	-0.011211132
66	0x3d898fa0	0.067168474
67	0x3e234d8f	0.15947555
68	0xbcbed8a8	-0.02329667
69	0x3e166192	0.14685658
70	0x3e90fcaa	0.28317767
71	0x3e342759	0.17593135
72	0x3e060e98	0.13091505
73	0x3ea1a343	0.3156987
74	0x3e260e42	0.16216376
75	0x3e510b41	0.2041445
76	0x3e6114fe	0.21980664
77	0x3e9142ed	0.28371373
78	0x3e0efcbf	0.13963602
79	0x3e6290fe	0.22125623
80	0x3e19ab3f	0.15006731
81	0x3e2f57cc	0.17123336
82	0x3e673029	0.22576965
83	0x3d900032	0.07031287
84	0xbe2e9e2b	-0.17052524
85	0x3e44e471	0.19227768
86	0xbc5289a7	-0.012850202
87	0x3d8a5f2f	0.06756436
88	0x3c228fdb	0.009921993
89	0x3e22dd0f	0.1590464
90	0x3d8ce1a8	0.06878978
91	0x3d866a22	0.06563212
92	0xbc9e3a50	-0.019314915
93	0xbda08ddc	-0.078395575
94	0xbc77faf6	-0.015135517
95	0x3c4ca5a5	0.012490665
96	0x3bb8a6e3	0.005635129
97	0x3b6cfbf7	0.0036160925
98	0x3e0a6747	0.1351596
99	0x3da96e98	0.08273047
100	0x3d847f92	0.064696446
101	0x3e2fb622	0.17159322
102	0xbdebd5de	-0.11515401
103	0xbc5e9731	-0.0135858515
104	0x3dd79e43	0.10528233
105	0x3cba4710	0.022738963
106	0x3b56be2c	0.003276716
107	0x3e48025d	0.19532152
108	0x3e5b4c3e	0.21415803
109	0xbb5daca2	-0.003382482
110	0x3d9141d2	0.07092632
111	0x3e62c0fd	0.22143932
112	0xbd72646a	-0.059177794
113	0x3d8a68c7	0.06758266
114	0x3e95e211	0.29274037
115	0x3e4b0b0e	0.19828436
116	0x3dff9f9d	0.12481616
117	0x3eab0ec5	0.33409706
118	0x3e56f9db	0.2099375
119	0x3e583e92	0.21117619
120	0x3e9dd0b9	0.30823305
121	0x3e8d3939	0.2758272
122	0x3e729356	0.23689017
123	0x3e8af07a	0.27136594
124	0x3e6c8855	0.23098882
125	0x3e0c7fdf	0.13720654
126	0x3e125f4a	0.14294162
127	0x3d5752d1	0.052569214
128	0xbe83612b	-0.2566007
129	0x3e4d718f	0.2006285
130	0x3c011486	0.007878428
131	0x3daa906e	0.08328329
132	0x3ce81d4e	0.028334286
133	0x3d9ec148	0.07751709
134	0x3db40c67	0.08791428
135	0x3e06a34d	0.13148232
136	0x3cdd3b34	0.02700577
137	0xbde4dd24	-0.11174992
138	0x3d982a6e	0.07429968
139	0x3d3ffa4e	0.04686957
140	0x385a0b61	5.1985848e-05
141	0x3d7b0ec4	0.06129338
142	0x3dae24eb	0.08503135
143	0x3e03cd95	0.12871392
144	0x3cbad13a	0.022804845
145	0x3dafcf3c	0.08584449
146	0xbd8a8b5d	-0.06764863
147	0xbd1af309	-0.037829433
148	0x3dfec374	0.124396235
149	0x3d2464bf	0.04013514
150	0xbd4cad27	-0.04996982
151	0x3e282f15	0.1642421
152	0x3e53a746	0.20669279
153	0x3d6f3fce	0.05841046
154	0x3ca089ae	0.0195969
155	0x3de7bb2a	0.113149956
156	0xbd32b7e9	-0.04363242
157	0x3dbd202d	0.09234653
158	0x3e3e7be2	0.18601945
159	0x3e1cfef1	0.15331627
160	0x3e11cbf7	0.14237963
161	0x3e4ef0ca	0.20209041
162	0x3df82523	0.12116458
163	0x3e7b787a	0.24557677
164	0x3e8d5b8b	0.27608904
165	0x3e4e3c3c	0.20140165
166	0x3e372e84	0.17888838
167	0x3e963299	0.29335478
168	0x3e0eee7d	0.13958164
169	0x3e321c83	0.17393689
170	0x3e1f63a2	0.1556535
171	0x3c828784	0.01593376
172	0xbe16197b	-0.14658158
173	0x3e37b048	0.1793834
174	0x39ac484c	0.00032860262
175	0x3cb8af4d	0.022544527
176	0xbce96fdc	-0.028495722
177	0xbe1cfff2	-0.1533201
178	0xbdb20b34	-0.08693543
179	0xbdb8b5c2	-0.090190426
180	0xbbfcfa0a	-0.0077202367
181	0x3cec1507	0.02881862
182	0xbc10fac1	-0.008848847
183	0xbc354361	-0.011063428
184	0xbd9c0fbd	-0.07620189
185	0xbd58d7f7	-0.052940335
186	0xbdc45203	-0.09585955
187	0xbe37a52f	-0.17934106
188	0xbd91881d	-0.0710604
189	0xbdab676e	-0.08369337
190	0x3dd3f636	0.103496954
191	0x3d9828a7	0.07429629
192	0xbe1838d7	-0.14865433
193	0xbd2f9482	-0.042866237
194	0x3d6ddad5	0.058070023
195	0xbe288e58	-0.1646055
196	0xbe2e5782	-0.17025569
197	0xbd5b42f7	-0.05353066
198	0xbc89e068	-0.016830638
199	0xbe1bb433	-0.1520546
200	0xbd4ba657	-0.04971918
201	0xbd975236	-0.07388727
202	0xbe3f298d	-0.18668194
203	0xbe3088f7	-0.17239748
204	0xbde03bb2	-0.10948886
205	0xbe7c05f8	-0.24611652
206	0xbdaa5ae5	-0.08318118
207	0xbe4769a8	-0.19473898
208	0xbe3e729a	-0.18598405
209	0xbe8ed29f	-0.27895066
210	0xbde60570	-0.11231506
211	0xbe92f088	-0.28699136
212	0xbdfe3928	-0.124132454
213	0xbe11f8d4	-0.14255077
214	0xbdf33ced	-0.11876855
215	0xbc7def77	-0.015498987
216	0x3e043aae	0.1291301
217	0xbe1f0656	-0.1552976
218	0x3da1a75e	0.07893251
219	0xbd45a944	-0.048257127
220	0x3dac9394	0.08426586
221	0x3df88847	0.12135368
222	0x3de4319d	0.111422755
223	0x3ce1d4e4	0.027567334
224	0x3d4ababf	0.0494945
225	0xbd9bca04	-0.07606891
226	0x3d503ae9	0.05083743
227	0xbd259bf6	-0.04043194
228	0x3c95cde6	0.018286657
229	0x3dbd3701	0.09239007
230	0x3c9d0504	0.01916743
231	0x3e1ea0a3	0.15490966
232	0x3d62f170	0.055406034
233	0x3d301214	0.04298599
234	0xbd6af6e9	-0.057364378
235	0xbd8b2d03	-0.06795695
236	0x3dbf8480	0.09351444
237	0x3d908bff	0.07057952
238	0x3cdeec44	0.02721227
239	0x3e46a008	0.19396985
240	0x3e25a817	0.16177402
241	0xbd0a184e	-0.033714585
242	0x3d3fa81c	0.04679118
243	0x3e2cebd5	0.16886838
244	0xbcfa4a90	-0.030553132
245	0x3db2f36f	0.087378375
246	0x3e2a5ac0	0.16636181
247	0x3e5c2af8	0.21500766
248	0x3e00f74c	0.12594336
249	0x3e8c2602	0.27372748
250	0x3dfd0c1a	0.12355824
251	0x3e006e6a	0.1254212
252	0x3e2ea5b9	0.17055406
253	0x3e8730ec	0.26404512
254	0x3e339dfc	0.17540735
255	0x3e9ac288	0.3022654

classifier_conv.bias f4 [32]
0	0xbcb2087b	-0.02173256
1	0xbce93f2f	-0.028472511
2	0xbce6af6f	-0.028159825
3	0xbcc973c1	-0.024591329
4	0x3cacf52f	0.021113006
5	0xbcd75212	-0.026284251
6	0xbce387b5	-0.027774671
7	0x3cd676da	0.02617972
8	0xbceba397	-0.02876453
9	0xbcd3adcd	-0.02583971
10	0xbcfa9b1b	-0.030591538
11	0xbce22cb3	-0.027609205
12	0x3cb4024a	0.021973748
13	0x3cbe092d	0.023197735
14	0x3d074a7e	0.033030026
15	0xbcbb6114	-0.022873439
16	0xbcfd2cfe	-0.030905243
17	0x3cdbb860	0.026821315
18	0xbcc73318	-0.024316356
19	0xbce6439d	-0.028108412
20	0xbce315ac	-0.027720295
21	0x3cedc941	0.02902663
22	0x3ccd62f8	0.025071606
23	0xbce32bdc	-0.027730875
24	0x3cca21bb	0.024674287
25	0x3cb8b508	0.02254726
26	0x3ceda98a	0.029011507
27	0x3cccbcbc	0.02499234
28	0x3cc4c269	0.024018483
29	0x3cdaa510	0.026690036
30	0xbcab6124	-0.020920344
31	0x3cbeabb3	0.023275232

fc.weight f4 [2, 32]
0	0x3dbb357b	0.0914106
1	0x3dbcdb19	0.09221477
2	0x3dbb5926	0.09147863
3	0x3db75d7f	0.0895338
4	0xbdadc8e9	-0.08485586
5	0x3db14f6e	0.08657728
6	0x3db3f2da	0.08786555
7	0xbdafd585	-0.085856475
8	0x3db11a10	0.08647549
9	0x3dbd8fb5	0.092559256
10	0x3db7d6d5	0.08976523
11	0x3dadc176	0.08484165
12	0xbdaf4a2c	-0.08559069
13	0xbdb09a32	-0.086231604
14	0xbdb4ffc6	-0.088378474
15	0x3db8c1eb	0.09021362
16	0x3daeff2c	0.08544764
17	0xbdb03be1	-0.08605171
18	0x3dad1a9a	0.084523395
19	0x3daa67bb	0.08320566
20	0x3dc6bcdd	0.097039916
21	0xbdb433a6	-0.08798914
22	0xbdb2ea02	-0.0873604
23	0x3daf42e6	0.08557682
24	0xbdb1fcbb	-0.08690783
25	0xbdba76ab	-0.09104665
26	0xbdb44cbd	-0.08803699
27	0xbdb4ea2c	-0.08833727
28	0xbdbf8272	-0.09351052
29	0xbdb250a1	-0.08706785
30	0x3dbbb213	0.09164824
31	0xbdb69344	-0.089148074
32	0xbdbaa4b6	-0.09113447
33	0xbdbe7f4a	-0.09301622
34	0xbdb8d25a	-0.090244964
35	0xbdb6f6e8	-0.089338124
36	0x3dade7aa	0.08491452
37	0xbdb25080	-0.087067604
38	0xbdafc8b8	-0.08583206
39	0x3db32fc8	0.08749348
40	0xbdb01182	-0.08597089
41	0xbdc0a539	-0.09406514
42	0xbdb45505	-0.08805279
43	0xbdb06910	-0.08613789
44	0x3dac9c7b	0.08428284
45	0x3db0902b	0.08621248
46	0x3db309e0	0.08742118
47	0xbdb90739	-0.09034581
48	0xbdb1fb52	-0.08690514
49	0x3db20210	0.086918
50	0xbdaea87a	-0.08528228
51	0xbdadb1b3	-0.08481159
52	0xbdc71d6d	-0.097224094
53	0x3db11199	0.086459346
54	0x3db2b184	0.08725265
55	0xbdadf931	-0.08494795
56	0x3db2f57d	0.087382294
57	0x3dbb99e5	0.091602124
58	0x3dafaf82	0.08578397
59	0x3db7ced5	0.08974997
60	0x3dc04d6d	0.09389768
61	0x3db3fc2f	0.087883346
62	0xbdb9c42b	-0.09070619
63	0x3db501f8	0.08838266

fc.bias f4 [2]
0	0xbcc203b4	-0.023683406
1	0x3cc203b4	0.023683406
