submit_entry/checkpoints/cv_dgcn_all_12s_slice_norm/1/best.pth (torch_old, 340809 bytes, 25 tensors)

conv_time.weight f4 [75, 1, 10]
0	0x3bcb6960	0.00620763
1	0xbd8f71de	-0.0700414
2	0x3ceb111a	0.028694678
3	0xbd6cf196	-0.05784758
4	0xbcf57d77	-0.029967053
5	0xbd91978c	-0.071089834
6	0xbaa4101a	-0.0012517006
7	0x3d434f2d	0.04768293
8	0xbda75889	-0.081711836
9	0xbc154cac	-0.009112518
10	0xbda9cb03	-0.082906745
11	0x3db04e8a	0.0860873
12	0x3c8375bc	0.016047351
13	0x3d96d666	0.07365112
14	0x3d53506e	0.051590376
15	0xbd3e1c19	-0.046413515
16	0xbca1d32d	-0.019754017
17	0xbd71bc43	-0.05901743
18	0xbd7ba339	-0.061434958
19	0xbd07a32f	-0.03311461
20	0x3dab7d09	0.08373458
21	0xbc004091	-0.007827894
22	0xbcfe7b3c	-0.031064622
23	0xbc9fdb2f	-0.019513695
24	0xbb9023f1	-0.004398816
25	0x3d886528	0.06659919
26	0x3acdecd6	0.0015710841
27	0x3cbeb969	0.02328177
28	0xbd726292	-0.059176035
29	0xbc8346ff	-0.016025065
30	0xbd7a5b1f	-0.061122056
31	0xbd8acd5f	-0.06777453
32	0xbd9f298c	-0.07771596
33	0xbded4b1e	-0.11586593
34	0xbdd4a8dc	-0.1038377
35	0x3b7affbb	0.00382994
36	0xbdb22a6e	-0.08699499
37	0x3d766db6	0.060163222
38	0x3c244dac	0.010028284
39	0xbd6d4981	-0.057931427
40	0x3d145f08	0.03622344
41	0x3d9b68d0	0.07588351
42	0xbd88f2fe	-0.06686972
43	0xbd681562	-0.056661017
44	0x3d53f518	0.05174741
45	0x3d7284c9	0.059208665
46	0x3d234174	0.039857343
47	0x3d41937d	0.047259796
48	0x3dad52d4	0.08463064
49	0x3d13e89c	0.036110505
50	0xbb907feb	-0.0044097803
51	0xbd342f50	-0.043990433
52	0xbd0e26d4	-0.034704998
53	0x3d44e29f	0.048067685
54	0x3dc09bde	0.09404729
55	0x3cd5a87d	0.026081318
56	0x3dc221bd	0.09479091
57	0x3dc67113	0.09689536
58	0x3cc1bd70	0.023649901
59	0xbcce1d2b	-0.025160393
60	0x3cbe7010	0.023246795
61	0x3d6909ff	0.0568943
62	0xbc5b26d0	-0.013375953
63	0x3d9e17c1	0.077193744
64	0x3d84d930	0.06486738
65	0x3d6c4300	0.057681084
66	0xbd4e69b5	-0.05039378
67	0x3c07294c	0.008249592
68	0xbc728f4d	-0.014804673
69	0xbbd7cfc6	-0.006586048
70	0x3d9b9492	0.07596697
71	0x3c960fd5	0.018318096
72	0x3dcf0e0a	0.101100996
73	0x3dba082c	0.0908359
74	0xbd94691a	-0.07246609
75	0x3d9a8b90	0.07546151
76	0x3d9bc254	0.076054245
77	0x3cc35a7f	0.023846863
78	0xbda8ec02	-0.0824814
79	0x3d40b0e3	0.047043692
80	0xbd868d2d	-0.06569896
81	0xbd8306f1	-0.06397808
82	0x3d7ab073	0.06120343
83	0x3cbafc2c	0.022825323
84	0xbcb6bebb	-0.022307744
85	0x3c97ee4e	0.01854625
86	0xbd74694b	-0.059670728
87	0xbd2880ac	-0.041138336
88	0x3dae9759	0.08524961
89	0xbca8450d	-0.020540738
90	0xbda560b6	-0.08075087
91	0xbd8b4b1c	-0.06801435
92	0xbd93e9c4	-0.07222322
93	0xbd1a355d	-0.037648547
94	0x3d9be302	0.07611658
95	0x3d004cc8	0.031323224
96	0x3d9a57fb	0.07536312
97	0x3d8cff68	0.068846524
98	0x3ca9627d	0.020676846
99	0x3ce715cd	0.028208638
100	0xbdbcedd8	-0.092250526
101	0xbd3e1816	-0.04640969
102	0xbd3838e8	-0.044976145
103	0x3c8815cb	0.016611954
104	0xbd8a92cc	-0.067662805
105	0x3d83c6bf	0.06434392
106	0xbcc73741	-0.02431834
107	0xbd2c1b60	-0.042018294
108	0x3d8acd7a	0.06777473
109	0xbd4db14e	-0.05021792
110	0x3db87443	0.0900655
111	0xbba38323	-0.004989998
112	0x3d1181ab	0.03552405
113	0xbd9f8303	-0.077886604
114	0x3d3301eb	0.043703
115	0x3d24819f	0.04016268
116	0xbc06fc88	-0.008238919
117	0x3d9252e3	0.07144716
118	0xbd823a5f	-0.0635879
119	0xbcb88238	-0.02252303
120	0xbc18ef57	-0.009334407
121	0xbd0d69fa	-0.034524895
122	0xbdad2791	-0.08454812
123	0xbcaaafe8	-0.020835832
124	0x3c119fa0	0.008888155
125	0xbb37593e	-0.0027976776
126	0xbd8a258a	-0.06745441
127	0xbd55b27a	-0.05217216
128	0x3c6d6f62	0.014491888
129	0x3dbec40e	0.09314738
130	0xbc184ea4	-0.009296093
131	0x3d2a5e1a	0.04159365
132	0xbd9b14fd	-0.075723626
133	0xbce40c39	-0.02783786
134	0xbd21a0da	-0.03946004
135	0x3d141b6f	0.036158975
136	0xbd3fc08b	-0.046814483
137	0x3d76c8f8	0.060250252
138	0x3ca4915b	0.020088842
139	0xbdb0dffd	-0.086364724
140	0xbc548531	-0.012971208
141	0xbd87c1fa	-0.06628795
142	0x3d0c5cbb	0.034268122
143	0x3d9514a9	0.07279331
144	0x3cf6724e	0.030083802
145	0xbd8f4d1b	-0.069971286
146	0x3d13ddb7	0.036100116
147	0xbd20bbda	-0.03924165
148	0x3c8c6c25	0.017141411
149	0x3cb84ebd	0.022498483
150	0x3bafc1f5	0.0053636977
151	0x3d5698e9	0.05239192
152	0x3c84eba5	0.016225645
153	0x3ce2ea63	0.027699655
154	0x3d6a7ba4	0.05724682
155	0xbd5de201	-0.054170612
156	0x3bf6d56e	0.007532767
157	0xbd987dd6	-0.07445876
158	0xbd9d804d	-0.07690487
159	0x3d51e8f7	0.051247563
160	0xbd8cb077	-0.068695955
161	0x3d66d208	0.056352645
162	0xbd2bcc45	-0.041942853
163	0xbc94e691	-0.018176349
164	0x3d96ea11	0.073688634
165	0xbd88c674	-0.06678477
166	0x3d4f6f4d	0.050643254
167	0xbd8442b3	-0.06458034
168	0x3c9a1662	0.018809501
169	0xbd845587	-0.064616255
170	0xbb4a6673	-0.0030883818
171	0x3dba919c	0.09109804
172	0xbc37bfcc	-0.0112151615
173	0x3dca0758	0.09864682
174	0x3ccb13f7	0.024789793
175	0x3d938cfe	0.072046265
176	0x3d64ea67	0.055887606
177	0x3b262802	0.0025353436
178	0x3daa8c61	0.083275564
179	0x3d1431c4	0.036180273
180	0x3d1fc76c	0.039008543
181	0xbda79cdf	-0.08184218
182	0x3c41db4e	0.0118320715
183	0xbd76b446	-0.060230516
184	0xbc85aa78	-0.016316637
185	0x3d87d687	0.06632715
186	0xbd889ac1	-0.06670142
187	0xbd7c0ad9	-0.061533783
188	0xbd878799	-0.0661766
189	0x3b999103	0.004686476
190	0x3d3ccf03	0.04609586
191	0x3dad5040	0.08462572
192	0x3d8f1daf	0.069880836
193	0xbd8f55d2	-0.06998791
194	0x3dadcc71	0.0848626
195	0xbd3520c0	-0.044220686
196	0xbd307512	-0.043080397
197	0xbcfd1758	-0.03089492
198	0x3d551dfb	0.052030545
199	0xbc26c031	-0.010177658
200	0x3d32fb13	0.043696474
201	0xbce45203	-0.027871137
202	0x3d508c72	0.05091519
203	0x3d73f01f	0.05955517
204	0xbd8b16e6	-0.06791477
205	0xbd05fca0	-0.032711625
206	0xbd65543d	-0.05598854
207	0x3d060a6a	0.032724775
208	0x3d8d3a0c	0.06895837
209	0xbccb115c	-0.024788551
210	0xbbbfc87f	-0.0058527584
211	0x3dcc3602	0.09971239
212	0x3d389f4b	0.04507379
213	0x3d9f888b	0.077897154
214	0x3d0dd1e6	0.034624003
215	0xbd8d1ee6	-0.06890659
216	0xbc9ece77	-0.01938556
217	0xbd9737cf	-0.073836915
218	0xbd83ed9a	-0.06441803
219	0xbd2addf8	-0.041715592
220	0x3d807f14	0.06274238
221	0xbda9b1e5	-0.08285884
222	0xbc82fdc8	-0.015990153
223	0x3c9d38f3	0.019192195
224	0x3daf23e1	0.08551765
225	0x3d8d1e10	0.068904996
226	0xbdc60609	-0.0966912
227	0xbceb86ac	-0.02875074
228	0x3d9cf115	0.0766317
229	0x3d6515ef	0.05592912
230	0xbd52d9cb	-0.051477235
231	0x3d650fb1	0.055923168
232	0x3d81c673	0.06336679
233	0x3d13125f	0.035906192
234	0xbd9ff511	-0.078104146
235	0xbca80101	-0.020508291
236	0xbb003c2e	-0.001956712
237	0xbd5ab745	-0.053397436
238	0x3d3cc4c0	0.046086073
239	0xbd4779f2	-0.04870028
240	0x3d64d792	0.055869646
241	0x3c315fcb	0.0108260615
242	0x3d79aaf9	0.060954068
243	0x3c76c85d	0.015062419
244	0x3da15557	0.078776054
245	0x3d6c982a	0.057762302
246	0xbcf43efc	-0.02981519
247	0xbc69ed8f	-0.01427783
248	0xbd916c70	-0.07100761
249	0x3d2ea8ec	0.042641565
250	0x3c2c3479	0.010510557
251	0x3d7c8128	0.06164661
252	0x3c97c203	0.01852513
253	0xbd66a75f	-0.05631196
254	0xbd457fd3	-0.048217606
255	0x3c0f54eb	0.008748273

conv_time.bias f4 [75]
0	0x3abc1f0b	0.0014352513
1	0xbb8fdfa7	-0.004390675
2	0xba33628c	-0.0006842993
3	0x3adebdb7	0.0016993795
4	0x3a47a32e	0.0007615563
5	0xba7846c2	-0.0009470993
6	0x3a840ef8	0.0010075262
7	0x38579cae	5.1405914e-05
8	0xbb89754b	-0.0041948906
9	0xbc258858	-0.010103308
10	0x3b12f252	0.0022422266
11	0x3b6287b9	0.003456576
12	0xbc1832e1	-0.009289474
13	0xbb47a7dd	-0.0030465045
14	0x3b194b6a	0.0023390898
15	0xbb07c6cb	-0.0020717855
16	0x3b146e0b	0.0022648599
17	0x391a7c8e	0.00014732985
18	0x3bc80fbb	0.006105391
19	0x3ba28061	0.0049591516
20	0xbb5ca5f0	-0.0033668242
21	0xbc070576	-0.008241048
22	0xba5f0f60	-0.0008509066
23	0xbbc0825a	-0.005874914
24	0x3b61eafe	0.0034472342
25	0x3c115cfb	0.008872266
26	0x3bc0d6e5	0.0058849924
27	0xbb0d66ae	-0.0021576094
28	0xba211fde	-0.0006146411
29	0x3be58999	0.0070049283
30	0x3b05f58c	0.0020440547
31	0x3b4b4140	0.0031014234
32	0xbba3e171	-0.00500124
33	0x3bde7412	0.006788739
34	0x3b200782	0.0024418538
35	0x3b1834db	0.0023224864
36	0x3a52ae1e	0.000803681
37	0x3b3b1d97	0.0028551572
38	0xbb5bcad1	-0.0033537636
39	0xba9d4774	-0.0011999444
40	0xbae10eaa	-0.0017170508
41	0x3a87c3c5	0.0010358026
42	0x3a7d1c9a	0.0009655446
43	0x3ae0a0f9	0.0017137817
44	0x3ad5098b	0.0016253454
45	0xb8c74c6b	-9.5032934e-05
46	0xbb0f9542	-0.0021909033
47	0x3bb6e03f	0.0055809314
48	0x3be94c48	0.007119689
49	0xbb30d55f	-0.0026982648
50	0xbb23f932	-0.0025020358
51	0x38ae3964	8.3076564e-05
52	0xba8da0b6	-0.0010805342
53	0x3a803327	0.000978087
54	0x3a7f703b	0.00097442017
55	0xbb0379a2	-0.0020061512
56	0x3badf556	0.0053087873
57	0xbc0120a9	-0.007881322
58	0x399fc2cb	0.00030471975
59	0x3b3f0e67	0.0029152872
60	0x3ace7fbd	0.0015754622
61	0x3a47c071	0.00076199236
62	0x39a367b3	0.00031167045
63	0xbb44795e	-0.0029979567
64	0xb9db1d56	-0.00041792792
65	0xbb2620ac	-0.0025349064
66	0xbb90c8c8	-0.0044184662
67	0xbbc291e3	-0.005937801
68	0x3b980dd6	0.0046403212
69	0xb8c07ba3	-9.1783026e-05
70	0xba2618fa	-0.0006336119
71	0xba8a157f	-0.0010534971
72	0x3b5968e6	0.0033174097
73	0xba4bd6bf	-0.0007775835
74	0xbb365d1b	-0.0027826491

bnorm.weight f4 [75]
0	0x3f80051c	1.0001559
1	0x3f7f8964	0.99819016
2	0x3f7ee608	0.9956975
3	0x3f7eb1fc	0.9949033
4	0x3f7ce604	0.98788476
5	0x3f7fd211	0.9992991
6	0x3f7f0525	0.99617225
7	0x3f805256	1.0025127
8	0x3f805bdc	1.0028033
9	0x3f81d47f	1.0142974
10	0x3f80b7cf	1.0056094
11	0x3f7fe275	0.9995492
12	0x3f802053	1.0009865
13	0x3f7f384e	0.9969529
14	0x3f806c81	1.0033113
15	0x3f835771	1.026106
16	0x3f7edf2c	0.99559283
17	0x3f806bb7	1.0032872
18	0x3f7c4cba	0.98554575
19	0x3f7dddea	0.9916674
20	0x3f7dc1db	0.99123925
21	0x3f8192ab	1.0122885
22	0x3f7e715c	0.9939172
23	0x3f7e2d52	0.99287903
24	0x3f7f4083	0.9970781
25	0x3f7ac01c	0.97949386
26	0x3f7dbcbb	0.99116105
27	0x3f7e256b	0.99275845
28	0x3f8017f4	1.000731
29	0x3f829e86	1.0204628
30	0x3f7e8abf	0.9943046
31	0x3f7ee010	0.9956064
32	0x3f7f509c	0.99732375
33	0x3f7ec056	0.9951223
34	0x3f7ecdf1	0.9953299
35	0x3f82b33c	1.0210948
36	0x3f7e975e	0.9944972
37	0x3f809236	1.004462
38	0x3f7e59c9	0.9935575
39	0x3f7f5061	0.99732023
40	0x3f7fe786	0.9996265
41	0x3f7e0074	0.9921944
42	0x3f807410	1.003542
43	0x3f8014d0	1.0006351
44	0x3f7fa58c	0.9986198
45	0x3f83bcdb	1.0292009
46	0x3f7c591f	0.9857349
47	0x3f801bfb	1.0008539
48	0x3f7fb0d7	0.9987921
49	0x3f7f9bbb	0.99847
50	0x3f80485a	1.002208
51	0x3f814394	1.0098748
52	0x3f805f24	1.0029035
53	0x3f7f10fd	0.996353
54	0x3f80778a	1.003648
55	0x3f7dd51e	0.99153316
56	0x3f7db1d0	0.99099445
57	0x3f80901a	1.0043976
58	0x3f7d5756	0.9896139
59	0x3f7f0517	0.9961714
60	0x3f7fccf2	0.99922097
61	0x3f800ea2	1.0004466
62	0x3f7da25f	0.99075884
63	0x3f7f7ca0	0.9979954
64	0x3f7dfd7c	0.9921491
65	0x3f816ad9	1.0110732
66	0x3f8072bd	1.0035015
67	0x3f805cd5	1.002833
68	0x3f7ead41	0.99483114
69	0x3f7f4759	0.9971824
70	0x3f80a830	1.0051327
71	0x3f80d344	1.0064473
72	0x3f7d7e93	0.9902126
73	0x3f7f0dd4	0.99630475
74	0x3f8075e1	1.0035974

bnorm.bias f4 [75]
0	0x3b8bd786	0.0042676358
1	0xbbc995c0	-0.006151885
2	0xbc8d5390	-0.01725176
3	0xbbd969dd	-0.0066349343
4	0x3adf0dee	0.0017017701
5	0xbb37b96d	-0.0028034106
6	0xbb54dd48	-0.0032480527
7	0xbcc54267	-0.024079515
8	0x3b3c7948	0.0028758813
9	0x3c1b59ae	0.0094818305
10	0xbb2e632f	-0.002660941
11	0xbb33c728	-0.0027431939
12	0xba3fb9b8	-0.0007313746
13	0x3af55c7c	0.0018719579
14	0x3b9cd27f	0.0047858353
15	0x3cc341cf	0.02383509
16	0xbbce9282	-0.006304086
17	0xbbfbdf1c	-0.007686509
18	0xbc8ba08e	-0.017044332
19	0xbba7ee24	-0.005124824
20	0xbb87b5bd	-0.004141538
21	0x3c451afd	0.01203036
22	0xbc6a0ec9	-0.014285752
23	0xbae8f9de	-0.0017774662
24	0xbc137a17	-0.009001276
25	0xbd030fa3	-0.031997334
26	0xbb04119e	-0.0020152102
27	0xbc0d6978	-0.008631103
28	0xbb426fb4	-0.002966863
29	0x3cbd9985	0.023144493
30	0xbb9a1f98	-0.0047034733
31	0x3a4c2e7f	0.0007788911
32	0x3bce024a	0.006286894
33	0xbb51a955	-0.00319918
34	0xbc17ac37	-0.009257368
35	0xbc4ff8dd	-0.012693611
36	0xbbfd2a88	-0.0077260174
37	0xbb98ab31	-0.0046590795
38	0xbb18e1dc	-0.0023327982
39	0x3bdc1554	0.0067164097
40	0xbbfda565	-0.007740664
41	0xbc1f5415	-0.009724637
42	0xbb972719	-0.004612815
43	0xbbe8598c	-0.007090753
44	0x3b7ea9c7	0.003885852
45	0x3d30eba9	0.043193493
46	0xbc22bd33	-0.009932804
47	0xbc454cd8	-0.012042247
48	0xbb97ad87	-0.0046288404
49	0x3bd642e2	0.006538735
50	0xbc1d12e3	-0.0095870225
51	0xbb85cef3	-0.004083508
52	0x3aecf7e4	0.0018079248
53	0x3bd85cee	0.006602875
54	0xbc08bbf5	-0.008345594
55	0xbc5255cf	-0.012837841
56	0xbc4021ad	-0.011726779
57	0xbc86ce43	-0.016455775
58	0xbbd2a957	-0.0064288783
59	0xbbc2db77	-0.0059465724
60	0x3b08a1c4	0.0020848373
61	0xbc09e595	-0.008416553
62	0xbcb7d7e5	-0.022441814
63	0x3c89639b	0.016771128
64	0x3b644a82	0.003483445
65	0x3ca4f118	0.020134494
66	0xbbf17361	-0.0073684906
67	0xbcabe3af	-0.020982591
68	0x3c3cd6fd	0.011525867
69	0x3c7bbe40	0.015365183
70	0x3ccc7e35	0.024962524
71	0x3cdf16c0	0.027232528
72	0x3b9594e7	0.0045648697
73	0x3a9c04a9	0.0011903244
74	0xbb9cba9a	-0.004782987

bnorm.running_mean f4 [75]
0	0xbdb27f26	-0.08715658
1	0xbd01be1f	-0.031675454
2	0x3c57adfc	0.01316404
3	0xbe3b5a76	-0.18296227
4	0x3deb423a	0.11487241
5	0x3dcf8419	0.101326175
6	0x3d9d1a97	0.07671087
7	0x3e06761e	0.13130996
8	0xbd1355f6	-0.03597065
9	0x3bab69e0	0.005231127
10	0xbda24721	-0.07923723
11	0x3d2defa6	0.042464875
12	0xbd88af9b	-0.06674119
13	0xbd4f0898	-0.050545305
14	0x3c33b145	0.010967557
15	0x3b99f99d	0.0046989457
16	0xbd6d9be0	-0.058009982
17	0x3e5ce8b5	0.21573146
18	0xbdd65096	-0.10464589
19	0x3d9552ab	0.07291158
20	0x3c9c4665	0.019076535
21	0xbc71a726	-0.014749324
22	0x3d8c32ce	0.06845628
23	0xbcf65436	-0.030069452
24	0x3dd03381	0.101660736
25	0x3d559283	0.052141678
26	0xbd30a297	-0.043123808
27	0xbe3914ba	-0.18074313
28	0x3db08266	0.086186215
29	0x3c433000	0.0119133
30	0xbd4b5e65	-0.04965057
31	0xbb718a4b	-0.003685611
32	0xbc3d0e07	-0.011538989
33	0xbc2541a7	-0.0100864535
34	0xbd30243b	-0.043003302
35	0x3a8f6e40	0.0010942891
36	0xbd11c69e	-0.035589807
37	0xbb49c49b	-0.0030787352
38	0xbae76dc5	-0.0017656615
39	0xbccb488e	-0.02481487
40	0x3d281004	0.0410309
41	0xbc1f8e25	-0.00973848
42	0x38bce891	9.0078574e-05
43	0x3b55bd26	0.0032613962
44	0xbcef0913	-0.029179132
45	0x3bf4be72	0.007468992
46	0x3d9cf2f2	0.07663526
47	0xbd3edaec	-0.0465955
48	0x3b9635e6	0.004584062
49	0x3cc6755b	0.024225881
50	0x3d626125	0.055268425
51	0xbd9a6aa1	-0.07539869
52	0xbc342da8	-0.010997213
53	0x3d62f8ff	0.055413242
54	0x3db6045c	0.0888755
55	0x3ca05f87	0.019576801
56	0x3da4d626	0.08048658
57	0xbd2df9e5	-0.042474646
58	0x3debfa4e	0.11522351
59	0xbbf5886c	-0.0074930694
60	0xbcb0bb33	-0.021573639
61	0x3d400bc8	0.046886235
62	0xbd44cf50	-0.04804927
63	0xbd389d72	-0.045072027
64	0xbc32d284	-0.010914449
65	0xbc377af9	-0.011198753
66	0x3c222246	0.009895867
67	0x3c5202ac	0.01281802
68	0xbc46a13e	-0.012123404
69	0xbcf97ef5	-0.030456046
70	0xbc25d5a3	-0.010121736
71	0xbc21c28d	-0.009873045
72	0x3d0eaf7e	0.03483533
73	0xbcabade9	-0.02095695
74	0x3d4069f5	0.04697605

bnorm.running_var f4 [75]
0	0x3b2e5b00	0.0026604533
1	0x3a012071	0.00049257936
2	0x38f07ac8	0.000114669616
3	0x3c40574b	0.011739562
4	0x3b90da3d	0.0044205473
5	0x3b802097	0.003910135
6	0x3b08b83d	0.0020861768
7	0x3bc29efd	0.005939363
8	0x39c0efed	0.00036799852
9	0x3a500f37	0.00079368375
10	0x3b15d591	0.0022862891
11	0x3a187d23	0.00058169867
12	0x3aad5415	0.0013223911
13	0x3a47ad97	0.00076171145
14	0x384048c6	4.5844143e-05
15	0x390f489c	0.00013664592
16	0x3a9400ce	0.0011291744
17	0x3c71f502	0.014767887
18	0x3b7fbaec	0.0039021326
19	0x3acae37a	0.001547917
20	0x393c92bf	0.00017983744
21	0x39ffdf0b	0.0004880357
22	0x3ac8bf9b	0.0015315892
23	0x3974e349	0.00023354324
24	0x3b508101	0.0031815174
25	0x3a1d1077	0.0005991528
26	0x3a597d86	0.00082965975
27	0x3c257245	0.010098045
28	0x3b1cce6c	0.0023926748
29	0x3921ee3f	0.0001544291
30	0x3c1a6c9d	0.0094253095
31	0x3931caaa	0.00016955534
32	0x392e65e7	0.00016631895
33	0x3a7fdf89	0.00097607874
34	0x3bee3073	0.007268959
35	0x37ae33a5	2.0766465e-05
36	0x3b980dfe	0.00464034
37	0x39069e16	0.00012838127
38	0x37869569	1.604362e-05
39	0x3b021457	0.001984855
40	0x3bd39db7	0.00645801
41	0x39d351c9	0.0004030599
42	0x375d3152	1.318411e-05
43	0x378371dd	1.5669439e-05
44	0x3b5a7d73	0.0033338934
45	0x390d4f00	0.00013476238
46	0x3b6c2d74	0.0036037834
47	0x3ab67150	0.0013919268
48	0x38fa58a2	0.00011937438
49	0x3a271da5	0.0006374962
50	0x3ae30888	0.0017321268
51	0x3b42dc73	0.0029733449
52	0x38f0b54e	0.000114778624
53	0x3acb3118	0.0015502302
54	0x3b85290e	0.004063732
55	0x398bd4f5	0.0002667081
56	0x3b3ab7b1	0.0028490836
57	0x3a2e8a7b	0.00066582084
58	0x3bddd59d	0.0067698495
59	0x38745e21	5.8261798e-05
60	0x3a8bb563	0.0010658916
61	0x3b8b8a4b	0.004258429
62	0x3b9920f9	0.00467312
63	0x3b6c620f	0.003606919
64	0x398a2e4d	0.00026355908
65	0x39420524	0.00018503197
66	0x39e62f91	0.00043904458
67	0x3a42e5f7	0.000743478
68	0x3a26edf7	0.0006367857
69	0x3aefd354	0.0018297234
70	0x39562cab	0.0002042527
71	0x3935ce36	0.00017338325
72	0x3b030cc5	0.0019996625
73	0x3a5c311f	0.00083996536
74	0x3ba5bbf9	0.0050578085

block2.conv_2.weight f4 [75, 15, 10]
0	0xbd249343	-0.040179502
1	0x3d3f8c09	0.046764407
2	0x3d2f50ec	0.042801782
3	0xbd0bdf11	-0.03414828
4	0xbd951d05	-0.07280926
5	0x3cf93238	0.030419454
6	0x3d8508fb	0.064958535
7	0xbb2a5d15	-0.0025995423
8	0xbd07fd0f	-0.03320032
9	0xbc907e35	-0.017638305
10	0x3d061c21	0.03274167
11	0x3cc37fee	0.023864713
12	0xbd26df1c	-0.040740117
13	0x3d184faf	0.037185367
14	0xbd182741	-0.03714681
15	0x3cf1b1d8	0.029503748
16	0x3cc1e5ab	0.023669085
17	0xbb029a02	-0.0019928222
18	0xbdac2fac	-0.0840753
19	0xbdbaec14	-0.091270596
20	0xbc10de94	-0.008842129
21	0xbd225299	-0.039629553
22	0x3c4da528	0.012551583
23	0x3d487f8b	0.04894976
24	0x3d11b6e8	0.035574824
25	0xbd1d9756	-0.038474403
26	0xbb059ea2	-0.0020388742
27	0x3d0b5c4b	0.034023564
28	0xbcc2af6d	-0.02376529
29	0xbd49dc31	-0.049282257
30	0x3c89e404	0.01683236
31	0x3cc49e18	0.024001166
32	0xbd378843	-0.044807684
33	0x3dafb76d	0.085799076
34	0xbd48c44d	-0.049015332
35	0x3d59e632	0.053198047
36	0xbd4f07eb	-0.05054466
37	0x3d18c693	0.03729875
38	0xbca87607	-0.020564092
39	0x3d64a9ab	0.05582587
40	0xbd0c82e1	-0.034304503
41	0x3d37ab87	0.044841316
42	0xbd5579f4	-0.052118257
43	0x3d4d43e7	0.050113585
44	0x3bca121f	0.006166711
45	0x3d537181	0.051621918
46	0x3d57c410	0.052677214
47	0x3ca06b9e	0.019582566
48	0x3d0cbd33	0.034360122
49	0xbc63ed5c	-0.013911571
50	0x3bd0211e	0.006351604
51	0xbc9da67b	-0.019244423
52	0xbc1a4cdf	-0.009417742
53	0xbd26b1de	-0.04069697
54	0xbcf5c26a	-0.02999993
55	0x3d640302	0.05566693
56	0xbc882d42	-0.016623143
57	0x3d83d994	0.06437984
58	0xbd39ae70	-0.045332372
59	0xbdae1d39	-0.085016675
60	0xbd123623	-0.03569616
61	0xbb8caf5f	-0.004293367
62	0xbd8356f3	-0.064130686
63	0x3d915537	0.070963316
64	0xbccc5621	-0.024943413
65	0xbd95d50e	-0.073160276
66	0xbd95bf81	-0.07311917
67	0x3d975072	0.073883906
68	0x3cfed63e	0.031108018
69	0xbd1740de	-0.036927097
70	0xbb2c2a56	-0.0026270351
71	0xbd3bd47d	-0.04585694
72	0xbd7ad467	-0.06123772
73	0x3d4a43c3	0.04938103
74	0xbd46c0cc	-0.04852371
75	0xbce93dd3	-0.028471863
76	0xbda7ef9e	-0.082
77	0x3d03ad50	0.032147706
78	0x3d2738de	0.040825717
79	0x3d677d91	0.056516234
80	0xbd6b3c29	-0.05743042
81	0x3d6b6250	0.057466805
82	0xbc9586eb	-0.01825281
83	0x3db1a00b	0.08673104
84	0x3d960f4f	0.07327139
85	0xbd4a868d	-0.049444724
86	0xbd7ef7c9	-0.062248025
87	0x3d52919e	0.051408403
88	0xbd43187d	-0.047630776
89	0xbd92e657	-0.0717284
90	0x3d14ca42	0.0363257
91	0x3d804017	0.06262224
92	0xbd11d0ad	-0.0355994
93	0x3d20b869	0.039238367
94	0xbc613427	-0.013745344
95	0xbd6fc695	-0.058538992
96	0xbd9379f3	-0.07200994
97	0x3d703bdf	0.058650848
98	0xbc9a248b	-0.018816253
99	0xbd6c6fd8	-0.05772385
100	0x3ca53f5c	0.020171814
101	0x3c40671d	0.011743334
102	0x3ce050b7	0.027382238
103	0x3da72fe1	0.08163429
104	0x3d961c3b	0.07329603
105	0xbcb082af	-0.02154669
106	0xbd977162	-0.07394673
107	0xbd5f4e91	-0.054518286
108	0x3d510712	0.051032133
109	0xbdae3d12	-0.08507742
110	0xbcbf2036	-0.023330789
111	0xbcdd7374	-0.027032591
112	0x3d87cb9f	0.066306345
113	0x3d520b40	0.05128026
114	0xbd7fb886	-0.062431835
115	0x3d74956b	0.05971281
116	0x3c836c5d	0.016042883
117	0x3d7f91e2	0.062394984
118	0xbd977649	-0.07395608
119	0x3ca2f517	0.019892259
120	0xbda40931	-0.080095656
121	0xbcbf8c4a	-0.023382325
122	0x3c86d7f1	0.01646039
123	0x3d9bde0a	0.0761071
124	0x3c984320	0.018586695
125	0xbd5db02e	-0.054123096
126	0xbd66bc93	-0.056332182
127	0x3d32347e	0.04350709
128	0x3c4f0f84	0.012637977
129	0x3d709686	0.0587373
130	0x3c6d93e1	0.014500589
131	0xbd3a7180	-0.0455184
132	0xbc40bea8	-0.011764206
133	0x3da2f413	0.0795671
134	0xbd675bd4	-0.05648406
135	0xbc18defe	-0.009330509
136	0xbd6f725b	-0.058458667
137	0xbd357d10	-0.044308722
138	0x3d787bd8	0.06066498
139	0xbd8a2884	-0.06746009
140	0xbd7619b4	-0.060083106
141	0x3d394b8c	0.045238063
142	0xbda83408	-0.08213049
143	0x3d890081	0.06689549
144	0xbc4dee67	-0.012569047
145	0x3cdd2844	0.02699674
146	0xbc44bdcc	-0.012008142
147	0x3cee4035	0.02908335
148	0x3d51376c	0.051078245
149	0x3cb6734c	0.022271775
150	0x3da07315	0.0783445
151	0xbd9e04e4	-0.077157766
152	0xbd5d4e10	-0.054029524
153	0xbcfe7f03	-0.031066423
154	0xbc9233cc	-0.017846964
155	0x3cf2c96e	0.029637065
156	0x3d9a5165	0.07535056
157	0x3da659a5	0.08122567
158	0x3d96e6ea	0.07368262
159	0x3cca3cf3	0.024687266
160	0x3bb998ff	0.0056639905
161	0x3d160b7b	0.036632042
162	0x3d0a6ba0	0.033794045
163	0x3d87d310	0.06632054
164	0x3a8b3b2d	0.0010622494
165	0x3b448d6a	0.0029991516
166	0x3c032055	0.008003314
167	0x3d874853	0.066055916
168	0xbccc08a2	-0.02490646
169	0x3d552b26	0.052043103
170	0x3d66c13a	0.05633662
171	0xbd993657	-0.07481068
172	0xbce7200b	-0.028213521
173	0xbd102b5c	-0.0351976
174	0xbd9e0de9	-0.07717497
175	0x3cea3f52	0.028594647
176	0x3ccd15f9	0.025034891
177	0xbc98f9a3	-0.018673724
178	0x3d28afb2	0.04118318
179	0xbcacd5e4	-0.021098085
180	0x3d89eb1c	0.06734297
181	0xbd03f3e4	-0.032215014
182	0x3d3a5aee	0.045496874
183	0xbd1ef984	-0.038812175
184	0xbd5328d5	-0.051552612
185	0x3d30dfcf	0.04318219
186	0x3cb0c8b6	0.021580081
187	0xbcd292ff	-0.025704859
188	0x3bd51fb4	0.0065040234
189	0x3c4c0968	0.0124534145
190	0x3cc1e744	0.023669846
191	0x398662d7	0.00025632113
192	0xbd5b96c1	-0.053610567
193	0xbcbe66c2	-0.023242358
194	0x3d4e11d9	0.05030999
195	0x3d4c7ae9	0.049921904
196	0xbd4a4216	-0.04937943
197	0x3da6e78c	0.08149633
198	0xbd3ac3f9	-0.04559705
199	0xbdf01c33	-0.117241286
200	0x3c5c09ac	0.01343004
201	0x3cedec2a	0.029043276
202	0x3d1f6953	0.038918804
203	0xbb7be15b	-0.0038433883
204	0xbd6fc6c4	-0.058539167
205	0x3c08673f	0.008325397
206	0xbd04916b	-0.032365244
207	0xbcdc73ce	-0.026910689
208	0x3ca12a38	0.019673452
209	0xbdca80ce	-0.09887849
210	0xbdb135a9	-0.08652813
211	0x3d6655ed	0.05623429
212	0xbd81151e	-0.06302856
213	0x3d5eb044	0.05436732
214	0x3db45e97	0.08807104
215	0x3c43cd48	0.011950798
216	0x3d57b072	0.052658506
217	0x3d5763dd	0.05258547
218	0x3d30e82a	0.04319016
219	0x3c92d544	0.017923959
220	0xbaafd404	-0.0013414626
221	0xbd9f3f50	-0.07775748
222	0xbd94c98a	-0.07265003
223	0xbd4d2d65	-0.05009212
224	0xbd363e60	-0.04449308
225	0xbd079f24	-0.033110753
226	0xbc70c0fb	-0.014694448
227	0xbd07df36	-0.033171855
228	0xbd3444ac	-0.044010803
229	0x3c99a3a2	0.018754784
230	0xbce0154f	-0.02735391
231	0xbbc0a823	-0.0058794185
232	0xbd1848a2	-0.037178643
233	0x3d1b0508	0.037846595
234	0xbced9255	-0.02900044
235	0xbc89174a	-0.016734738
236	0x3d64c5e9	0.055852804
237	0x3d466c4f	0.048443135
238	0xbc038307	-0.008026845
239	0x3d3d0dd8	0.04615578
240	0x3da1a8ef	0.0789355
241	0x3d81b46d	0.063332416
242	0x3bb05d7a	0.005382237
243	0xbcdeb1ad	-0.027184332
244	0x3d4e6383	0.05038787
245	0x3c3dd0aa	0.011585394
246	0xbd0ba073	-0.034088563
247	0xbd739081	-0.05946398
248	0xbdb64fa0	-0.08901906
249	0xbd3f5276	-0.0467095
250	0xbd3c3655	-0.045950253
251	0xbd2ffdc8	-0.042966634
252	0x3d89281d	0.06697104
253	0x3da7ae42	0.08187534
254	0x3d5d6fe2	0.054061778
255	0x3da2a14a	0.0794092

block2.bnorm_2.weight f4 [75]
0	0x3f8110cb	1.008325
1	0x3f7aafa3	0.9792425
2	0x3f7fcc78	0.9992137
3	0x3f7d7818	0.99011374
4	0x3f8161ce	1.0107973
5	0x3f8088df	1.004177
6	0x3f8168fa	1.0110161
7	0x3f7f434d	0.9971207
8	0x3f83341e	1.025028
9	0x3f80610a	1.0029614
10	0x3f7db7f8	0.9910884
11	0x3f7b9ddd	0.98287755
12	0x3f7d4f93	0.98949546
13	0x3f80ec29	1.007207
14	0x3f7dc2fc	0.9912565
15	0x3f7da56e	0.9908055
16	0x3f7e39b7	0.99306816
17	0x3f81cdeb	1.0140966
18	0x3f7fc21c	0.9990556
19	0x3f7af3e2	0.98028386
20	0x3f80d78f	1.0065783
21	0x3f82bcd7	1.0213879
22	0x3f809d33	1.0047973
23	0x3f7ea52d	0.9947079
24	0x3f808941	1.0041887
25	0x3f7d4ad3	0.989423
26	0x3f7e03f3	0.99224776
27	0x3f7d0a8e	0.9884423
28	0x3f7f4020	0.9970722
29	0x3f804d48	1.0023584
30	0x3f804bb4	1.0023103
31	0x3f803cc9	1.001855
32	0x3f80dc97	1.0067319
33	0x3f811899	1.0085632
34	0x3f7e4557	0.99324554
35	0x3f7f5288	0.9973531
36	0x3f813988	1.0095682
37	0x3f806be7	1.0032929
38	0x3f7d3dc0	0.9892235
39	0x3f80b748	1.0055933
40	0x3f7e2608	0.9927678
41	0x3f7ac5d1	0.97958094
42	0x3f807fa9	1.0038959
43	0x3f7f303e	0.99682987
44	0x3f7a5d31	0.9779845
45	0x3f7f4101	0.99708563
46	0x3f7e4b2a	0.9933344
47	0x3f7e4ed9	0.9933906
48	0x3f80c758	1.0060835
49	0x3f80fcfa	1.0077202
50	0x3f7fe8ea	0.99964774
51	0x3f804c98	1.0023375
52	0x3f817e1e	1.0116613
53	0x3f81ecee	1.015043
54	0x3f7e42eb	0.9932086
55	0x3f7e72ea	0.99394095
56	0x3f806e90	1.0033741
57	0x3f8133b2	1.0093901
58	0x3f7f3277	0.9968638
59	0x3f7dc517	0.9912886
60	0x3f7e667c	0.9937513
61	0x3f82a680	1.0207062
62	0x3f7da9d1	0.99087244
63	0x3f7df00b	0.991944
64	0x3f80e29f	1.0069159
65	0x3f7e96e1	0.9944897
66	0x3f7e4ddf	0.9933757
67	0x3f826322	1.0186503
68	0x3f7e4169	0.9931856
69	0x3f7f6adb	0.99772424
70	0x3f7d4de9	0.98947006
71	0x3f7f28f4	0.99671865
72	0x3f847f2b	1.0351309
73	0x3f801edd	1.0009419
74	0x3f7e4844	0.9932902

block2.bnorm_2.bias f4 [75]
0	0x3bb71519	0.005587232
1	0xbc3495ae	-0.011022015
2	0xbc871e54	-0.016493954
3	0xbb89992f	-0.004199169
4	0x3ca26495	0.019823352
5	0xbc84b114	-0.016197719
6	0x3b1af842	0.0023646508
7	0xbc55c71f	-0.013047962
8	0x3be2bbfa	0.006919381
9	0xbcd2d8bf	-0.025738118
10	0xbc0abc22	-0.008467706
11	0xbc91b0e5	-0.017784545
12	0xbc341190	-0.010990515
13	0x3c7122a7	0.014717734
14	0xbcebad52	-0.028769169
15	0xbcb4f719	-0.022090482
16	0xbab02aa0	-0.0013440438
17	0xbc2583f8	-0.010102265
18	0xbb0f2855	-0.0021844108
19	0xbc9cdcb4	-0.019148208
20	0xbc1aed29	-0.009455957
21	0x3be41081	0.006959975
22	0x3c4e42ab	0.012589137
23	0x3b5cb9e4	0.0033680135
24	0xbb6c85e3	-0.0036090545
25	0xbccb6ee4	-0.02483315
26	0x3ad5e2b6	0.0016318175
27	0xbb40471a	-0.0029339255
28	0x3c56bb96	0.013106247
29	0x3c542343	0.01294786
30	0xbcb57ab9	-0.022153245
31	0xbae5189d	-0.0017478649
32	0xbb1a39d4	-0.0023533003
33	0xbc934fe3	-0.017982429
34	0xbc3c54a0	-0.011494786
35	0xbbb0845c	-0.005386872
36	0xbc4669e5	-0.012110208
37	0x39bb8a50	0.0003577047
38	0xbbd0c249	-0.006370817
39	0x3c069709	0.0082147205
40	0x3a4e3098	0.00078655174
41	0xbc45ba2c	-0.012068313
42	0xbc74e40b	-0.014946948
43	0xb9cd80d1	-0.00039196623
44	0xbcaca986	-0.021076929
45	0x3bfc361e	0.007696881
46	0xba58b12d	-0.00082661473
47	0x3b1a4572	0.0023539928
48	0xbb386346	-0.0028135343
49	0x3c673621	0.014112026
50	0xbb842476	-0.004032667
51	0x3c5b8223	0.013397726
52	0x3c4e859d	0.012605098
53	0x3ba57e9c	0.0050504934
54	0xbc1a15cb	-0.00940461
55	0xbb0f3fdc	-0.0021858132
56	0x3b4156b1	0.0029501135
57	0x3c60c476	0.013718715
58	0xbad62fbd	-0.0016341131
59	0xbc75a340	-0.014992535
60	0xbc4746c2	-0.012162866
61	0xbc3e441f	-0.011612921
62	0xbbf86484	-0.007580342
63	0x3c354099	0.011062765
64	0x3c72d320	0.014820844
65	0xbc53d03d	-0.012928066
66	0xbb829623	-0.003985183
67	0x3c4c13af	0.012455865
68	0x3be8dcb2	0.007106387
69	0xbaf50d4d	-0.001869598
70	0x3ae32902	0.0017330947
71	0xbc6ab76d	-0.014325959
72	0x3c9b7a57	0.018979235
73	0x3c75b098	0.0149957165
74	0x3bbd8551	0.005783715

block2.bnorm_2.running_mean f4 [75]
0	0xbdb98342	-0.090582386
1	0x3cafb7ce	0.02144995
2	0xbee8ec59	-0.4549282
3	0xbe6378de	-0.22214076
4	0x3e0c88f8	0.13724124
5	0x3e85c670	0.26127958
6	0x3c03d93d	0.008047399
7	0x3f07cca2	0.5304662
8	0x3d80368d	0.06260405
9	0xbe05c1fa	-0.13062277
10	0xbf24ff80	-0.6445236
11	0xbd8df287	-0.06931024
12	0xbe834903	-0.2564164
13	0x3dadc6ff	0.08485221
14	0x3e5dd973	0.21664982
15	0xbdae6588	-0.08515459
16	0x3d30eca2	0.04319442
17	0x3e6b8961	0.23001625
18	0x3e45ce71	0.19317032
19	0xbeb1ee99	-0.34752348
20	0x3bf35383	0.007425727
21	0xbdda8976	-0.1067075
22	0x3c73c7f3	0.014879215
23	0xbe55dcb5	-0.20884974
24	0x3d55761a	0.052114584
25	0x3eb2c588	0.3491633
26	0x3cf33c61	0.029691877
27	0x3d4e46bd	0.05036043
28	0xbc2590f0	-0.010105357
29	0x3e086eea	0.1332356
30	0x3cd0144a	0.0254003
31	0xbbc77d3e	-0.006087928
32	0x3ece632a	0.4031003
33	0xbda0ed69	-0.078577824
34	0x3da89713	0.0823194
35	0xbd53b589	-0.051686797
36	0x3e28ba94	0.16477424
37	0xbccc4866	-0.024936866
38	0x3d94a7de	0.072585806
39	0xbe751e1b	-0.23937266
40	0x3e2f0d4f	0.1709492
41	0xbd91c261	-0.07117153
42	0xbe844a49	-0.25837925
43	0xbc1cdd0e	-0.009574188
44	0xbddbc39b	-0.10730668
45	0x3e85d744	0.26140797
46	0xbe23378b	-0.15939157
47	0x3e05613e	0.13025376
48	0xbea1e8af	-0.31622836
49	0x3d95ae94	0.07308689
50	0x3ea9367a	0.33049375
51	0x3e107e1f	0.14110611
52	0xbed55357	-0.41665146
53	0xbed82c75	-0.42221418
54	0xbe2309e5	-0.15921743
55	0xbd9a7d98	-0.07543486
56	0xbdd74581	-0.10511304
57	0x3c6e9eb0	0.014564201
58	0x3cbada7b	0.022809258
59	0xbcd79b7d	-0.02631926
60	0xbe56a775	-0.20962317
61	0xbef25d78	-0.47336936
62	0x3e81a0b8	0.2531793
63	0xbe6e2046	-0.23254499
64	0x3d86bacb	0.06578597
65	0x3eb0c563	0.34525594
66	0x3d37d93b	0.0448849
67	0xbe32c735	-0.17458804
68	0xbea396c2	-0.31950957
69	0x3eb5c735	0.35503545
70	0xbaea9ef3	-0.0017900154
71	0x3d974a9a	0.07387276
72	0xbd9bac70	-0.07601249
73	0xbe919658	-0.28435016
74	0xbc97a556	-0.018511456

block2.bnorm_2.running_var f4 [75]
0	0x3d0ad00b	0.03388981
1	0x3eb196ea	0.3468545
2	0x3e03c040	0.12866306
3	0x3e24067e	0.16018102
4	0x3e2ffb8c	0.17185801
5	0x3e0380c1	0.12842084
6	0x3d3aee4b	0.04563741
7	0x3e4a95e5	0.19783743
8	0x3e3f9c2a	0.18711916
9	0x3dad0708	0.08448607
10	0x3ebafa11	0.3651891
11	0x3e1290c1	0.14313032
12	0x3e91b248	0.2845633
13	0x3e3225d9	0.1739725
14	0x3e1422fa	0.14466467
15	0x3e5c793b	0.21530621
16	0x3dd1e845	0.1024938
17	0x3d87b6fb	0.06626698
18	0x3da3af11	0.07992376
19	0x3e202dad	0.15642424
20	0x3d2927ca	0.04129771
21	0x3d86f516	0.06589715
22	0x3d924df5	0.071437754
23	0x3e312368	0.17298663
24	0x3e43864c	0.19094199
25	0x3e3088cc	0.17239684
26	0x3e1b8824	0.15188652
27	0x3e6650f8	0.22491825
28	0x3e02bdb0	0.12767673
29	0x3dbc7a1c	0.09202978
30	0x3cf31d8f	0.02967718
31	0x3c15681b	0.009119059
32	0x3dd82efe	0.10555838
33	0x3cc773d7	0.024347229
34	0x3c5395e1	0.012914152
35	0x3e20949c	0.1568169
36	0x3c6ff704	0.014646295
37	0x3d6771ea	0.05650512
38	0x3cc794fc	0.024363033
39	0x3d38d6d3	0.045126747
40	0x3ca2f6e5	0.01989312
41	0x3eda0ac5	0.42586342
42	0x3ca96671	0.02067873
43	0x3e0f8f70	0.14019561
44	0x3dcb6a7d	0.099324204
45	0x3d245ba6	0.040126465
46	0x3e23cd51	0.1599629
47	0x3eef9a91	0.46797612
48	0x3d841c00	0.06450653
49	0x3d59f4b7	0.053211894
50	0x3e1fc395	0.15601952
51	0x3de51d19	0.111871906
52	0x3d801a47	0.06255012
53	0x3dedaffc	0.11605832
54	0x3db45eb5	0.088071264
55	0x3e31597a	0.17319289
56	0x3e491e10	0.19640374
57	0x3db1110b	0.08645829
58	0x3e841037	0.2579362
59	0x3ed1c77f	0.40972516
60	0x3e180c9c	0.1484856
61	0x3d18d125	0.03730883
62	0x3e435cfe	0.19078442
63	0x3e23e990	0.16007066
64	0x3d8ba2ca	0.06818159
65	0x3d9a1f9b	0.075255595
66	0x3eea6287	0.45778295
67	0x3cebb994	0.028775014
68	0x3dc96ebf	0.09835576
69	0x3e4326e1	0.190578
70	0x3e1b9b3c	0.15195936
71	0x3e1b0596	0.1513885
72	0x3d23567a	0.039877392
73	0x3d5f7401	0.05455399
74	0x3dedec99	0.11617393

block3.conv_3.weight f4 [150, 15, 10]
0	0x3d74a9b9	0.059732173
1	0x3c986296	0.018601697
2	0xbd67d644	-0.056600824
3	0xbb9d5ce0	-0.0048023313
4	0xbcf090a2	-0.029365841
5	0x3d3cc36c	0.046084806
6	0xbbefde5c	-0.0073202085
7	0xbd2253a1	-0.039630536
8	0xbd5075c8	-0.050893575
9	0x3c7331a4	0.014843378
10	0xbd2f3ca5	-0.042782445
11	0x3ba843ad	0.0051350207
12	0xbd4a5acb	-0.049402993
13	0x3d3d7be1	0.04626072
14	0x3c8218da	0.01588099
15	0xbd4d359a	-0.050099947
16	0xbb147091	-0.0022650103
17	0x3d45882e	0.048225574
18	0x3bed3e50	0.0072400942
19	0x3cec868c	0.02887275
20	0x3cb2ddf0	0.021834344
21	0xbd797888	-0.060905963
22	0xbd4efca7	-0.050533917
23	0xbbdf396d	-0.0068122656
24	0x3d311c49	0.043239865
25	0xbc2ecda3	-0.010669145
26	0xbc4af42c	-0.012387317
27	0xbcf61566	-0.0300395
28	0xbd5ad545	-0.053426046
29	0x3d57ee25	0.052717347
30	0xbcf0080e	-0.029300716
31	0xbb5aabf0	-0.0033366643
32	0xbcf84a58	-0.030308887
33	0xbd819e31	-0.06329001
34	0xbd41afef	-0.047286924
35	0x3cd62058	0.02613847
36	0xbb4747e6	-0.0030407845
37	0xbce4b771	-0.027919503
38	0xbd515b6a	-0.05111257
39	0x3d14a5cc	0.03629093
40	0x3ccc27a9	0.024921255
41	0x3d77be07	0.06048396
42	0x3d405aaf	0.046961483
43	0xbbba6f61	-0.005689547
44	0x3a9f2f30	0.00121448
45	0x3cb3eec7	0.021964444
46	0x3d082328	0.033236653
47	0xbd411882	-0.047142513
48	0x3ce04063	0.027374452
49	0xbd91b0ba	-0.07113786
50	0xbd45c7d6	-0.04828628
51	0x3cdcc4f5	0.026949385
52	0x3d1ae38d	0.037814666
53	0xbb05a962	-0.002039515
54	0x3d5d07a2	0.053962357
55	0xbd1b94a4	-0.03798355
56	0xbcdd00e6	-0.026977967
57	0x3d522e17	0.051313486
58	0x3d059f1e	0.03262245
59	0xbd7e854d	-0.062138844
60	0xbd2eecf1	-0.042706434
61	0xbc6a0654	-0.014283735
62	0xbd6fe98e	-0.058572344
63	0xbcd79808	-0.026317611
64	0x3b256517	0.0025237256
65	0x3d1935de	0.037404887
66	0xbd851b42	-0.0649934
67	0x3bdd0a5f	0.006745621
68	0x3c74fc1d	0.014952687
69	0xbd8926ad	-0.0669683
70	0xbbbcf257	-0.005766194
71	0xbb2eeccd	-0.0026691437
72	0xbd66b640	-0.05632615
73	0xbca88ddc	-0.020575456
74	0x3d8f1a15	0.06987397
75	0xbca6eb28	-0.020375803
76	0x3d21de85	0.03951885
77	0xbd51d0f5	-0.051224668
78	0xbcd0ef03	-0.025504595
79	0xbcf4d7e4	-0.0298881
80	0x3d306950	0.043069184
81	0x3c30a498	0.01078143
82	0xbcf858e7	-0.03031583
83	0xbd4f819e	-0.050660722
84	0x3cbc89c4	0.02301491
85	0x3c28307f	0.010265469
86	0x3cdaabf6	0.026693325
87	0xbc843e14	-0.016142882
88	0xbd4c07b7	-0.049812045
89	0x3ced9d8a	0.029005785
90	0x3d25983d	0.04042839
91	0xbd3779af	-0.04479378
92	0xbc98a5f6	-0.018633824
93	0xbce5e2fc	-0.028062336
94	0x3d7336d2	0.059378453
95	0xbab20eba	-0.0013584711
96	0x3c658b8f	0.014010324
97	0x3d52f5ec	0.05150406
98	0x3d192c49	0.03739575
99	0xbd386c40	-0.04502511
100	0x3cb8389b	0.02248793
101	0x3c7aa52f	0.015298172
102	0x3cc9365a	0.02456205
103	0xbd84a86b	-0.06477436
104	0x3d35bdb6	0.044370376
105	0xbc1e2a63	-0.0096536605
106	0xbd4cee46	-0.050031923
107	0xbd45659d	-0.04819261
108	0xbbb32a64	-0.0054677
109	0xbd4e73c5	-0.050403375
110	0x3d5302f1	0.051516477
111	0xbcac3f1b	-0.021026185
112	0xbaab5c4e	-0.0013073774
113	0x3cb0c6a0	0.021579087
114	0x3d5f667c	0.054541096
115	0x3cc864cc	0.024462126
116	0x3bd804cd	0.006592369
117	0xbd15f521	-0.036610726
118	0x3c6a4e1e	0.014300851
119	0x3d268e8b	0.040663283
120	0x3c408b1f	0.011751919
121	0xbd3d1bd6	-0.046169125
122	0x3c812227	0.015763355
123	0x3d130439	0.0358927
124	0xbd159d5b	-0.03652702
125	0x3d36e266	0.044649504
126	0x3d53893d	0.051644552
127	0x3ce9a005	0.028518686
128	0xbd41e81f	-0.04734051
129	0x3a2e6a9c	0.0006653459
130	0x3cf95040	0.030433774
131	0x3a3bc7b7	0.0007163244
132	0xbd60de0a	-0.054899253
133	0xbc009e5b	-0.007850255
134	0x3c228b29	0.009920874
135	0x3c4644be	0.01210135
136	0xbc3eb664	-0.011640165
137	0x3c3fba4a	0.01170213
138	0xbd6cd5e8	-0.057821184
139	0x3d4ce4f5	0.050023038
140	0x3d05486c	0.03253977
141	0x3c3cbb4a	0.011519263
142	0x3c99058c	0.018679403
143	0xbd0b0b6a	-0.033946432
144	0x3cefb08f	0.029258994
145	0xbbb842e7	-0.0056232098
146	0xbd0a6d93	-0.033795904
147	0x3d2e1e9f	0.04250967
148	0x3ba1fde0	0.0049435943
149	0xbd7a3515	-0.06108578
150	0xbbbf407b	-0.005836544
151	0x3d606f58	0.054793686
152	0x3b484e3d	0.0030564212
153	0xbd225132	-0.039628215
154	0xbd893ec2	-0.06701423
155	0xbb29d542	-0.0025914465
156	0x3cc66c10	0.02422145
157	0x3c0dce70	0.008655176
158	0xbd379bd0	-0.04482633
159	0xbd383e7d	-0.04498147
160	0xbd15398e	-0.03643184
161	0x3be6ba77	0.0070412713
162	0x3d4e7e22	0.05041326
163	0xbd09fd5f	-0.0336889
164	0xbbe4bb58	-0.006980341
165	0xbc61e201	-0.013786794
166	0xbc84d229	-0.016213493
167	0x3ccd741d	0.025079781
168	0x3d0154b0	0.031574905
169	0x3d736d24	0.059430256
170	0xbd83f9fa	-0.064441636
171	0xbd28750f	-0.04112726
172	0xbc3e9d00	-0.011634111
173	0xbcc7c0a5	-0.024383852
174	0x3cd84ee9	0.026404815
175	0xbd941334	-0.07230225
176	0xbc513cad	-0.012770814
177	0xbd2dcc5c	-0.04243122
178	0xbd11f87c	-0.035637364
179	0xbce0a1f6	-0.027420979
180	0xbbcf8a09	-0.0063335937
181	0xbc26d93e	-0.0101836305
182	0xbd0c71a3	-0.03428806
183	0x3c1ae386	0.00945366
184	0x3b95699c	0.0045597088
185	0x39cf0b05	0.00039490327
186	0xbcd57a19	-0.026059197
187	0xbd4c8fad	-0.049941707
188	0x3d26b9f8	0.040704697
189	0x3c5639d5	0.013075312
190	0xbcae7b32	-0.021298978
191	0xbc3689e7	-0.011141277
192	0x3c3e7191	0.011623756
193	0xbad4bf78	-0.0016231379
194	0x3b92baae	0.0044778204
195	0xbbcd2794	-0.0062608216
196	0x3d52265c	0.051306114
197	0x3c166e07	0.009181506
198	0x3cc322fd	0.023820395
199	0xbc4dfdbc	-0.012572702
200	0xbd4abc21	-0.04949582
201	0xbd69c13b	-0.057069045
202	0xba57f57b	-0.00082381786
203	0xbd10811e	-0.035279386
204	0x3d80a415	0.06281296
205	0xbd012172	-0.031526037
206	0xbd1b3f23	-0.03790201
207	0x3d27209d	0.040802587
208	0x3d81c75a	0.063368514
209	0xbc218596	-0.0098585095
210	0x3d7b9c5f	0.061428424
211	0xbcef8d5a	-0.029242206
212	0xbd3bdf35	-0.045867164
213	0xbc233c87	-0.009963161
214	0x3c60afd4	0.013713796
215	0x3d92ebb2	0.071738616
216	0xbc7cbb93	-0.015425581
217	0x3c9dd4d0	0.019266516
218	0x39c549a7	0.00037629643
219	0x3bb3502b	0.0054722033
220	0xbc368658	-0.0111404285
221	0x3c056f29	0.008144178
222	0xbd4d2b19	-0.05008993
223	0xbd49f4d7	-0.049305763
224	0xbcc8b2af	-0.024499265
225	0xbcf1cd18	-0.029516742
226	0x3c95e7a9	0.01829894
227	0xbd0c3eb7	-0.034239497
228	0xbd10436a	-0.03522054
229	0x3d5d01f3	0.053956937
230	0xbb53a2a5	-0.0032292989
231	0x3c4f550e	0.012654556
232	0xbcef67d3	-0.029224312
233	0x3c91ab81	0.017781975
234	0x3d4ac12d	0.049500633
235	0x3d3ade6e	0.04562228
236	0xbd1b3fb1	-0.037902538
237	0x3d264839	0.04059622
238	0x3c497ed2	0.012298303
239	0x3b0f7b4d	0.0021893561
240	0x3cac2cc1	0.021017434
241	0x3cb65205	0.022255907
242	0xbd990dcc	-0.07473335
243	0xbb383aaa	-0.0028111138
244	0xbd5d03a0	-0.053958535
245	0x3b98b99d	0.0046607987
246	0x3d1f9ff6	0.03897091
247	0xbd378a48	-0.04480961
248	0x3d1242ec	0.035708353
249	0x3d381064	0.044937506
250	0x3c01a45b	0.007912721
251	0xbd2ea261	-0.042635325
252	0xbd7d2c90	-0.061810076
253	0x3cb82bd5	0.022481838
254	0xbceee587	-0.029162182
255	0xbd654f91	-0.055984084

block3.bnorm_3.weight f4 [150]
0	0x3f812819	1.0090362
1	0x3f810470	1.0079479
2	0x3f809cb7	1.0047826
3	0x3f7c6b87	0.98601574
4	0x3f7ce555	0.9878743
5	0x3f808ba9	1.0042621
6	0x3f81bd2c	1.0135856
7	0x3f7e7174	0.99391866
8	0x3f7e1de5	0.99264365
9	0x3f81ba62	1.0135005
10	0x3f80f83c	1.0075755
11	0x3f815fe7	1.0107392
12	0x3f81263a	1.0089791
13	0x3f820b83	1.0159763
14	0x3f7db5a9	0.99105316
15	0x3f7aaad5	0.9791692
16	0x3f79b894	0.9754727
17	0x3f8122e6	1.0088775
18	0x3f813cef	1.009672
19	0x3f7dd736	0.9915651
20	0x3f8040af	1.001974
21	0x3f81c2d4	1.0137582
22	0x3f79847e	0.9746779
23	0x3f7f365d	0.99692327
24	0x3f7fa9d1	0.99868494
25	0x3f81a98d	1.0129868
26	0x3f7d32ed	0.9890583
27	0x3f7c69a6	0.98598707
28	0x3f80274c	1.0011992
29	0x3f7ff38d	0.99981004
30	0x3f7f8f83	0.99828357
31	0x3f7d2f00	0.9889984
32	0x3f7a9720	0.9788685
33	0x3f840386	1.0313575
34	0x3f812e6d	1.0092293
35	0x3f7dbb2c	0.99113727
36	0x3f831178	1.0239706
37	0x3f80625c	1.0030017
38	0x3f824de7	1.0180024
39	0x3f7bed37	0.98408836
40	0x3f81f4b8	1.0152807
41	0x3f8000a6	1.0000198
42	0x3f7f794b	0.99794453
43	0x3f7f96ae	0.99839294
44	0x3f7db21e	0.9909991
45	0x3f811864	1.0085568
46	0x3f80a7d9	1.0051223
47	0x3f7f10dc	0.996351
48	0x3f80cf05	1.0063177
49	0x3f80159d	1.0006596
50	0x3f7bc7bb	0.9835164
51	0x3f8092a2	1.0044749
52	0x3f815425	1.0103804
53	0x3f7d0689	0.98838097
54	0x3f7e0958	0.9923301
55	0x3f7e5ec1	0.99363333
56	0x3f7e811b	0.9941575
57	0x3f7dabb3	0.9909012
58	0x3f7f808e	0.99805534
59	0x3f7f1633	0.9964325
60	0x3f817acc	1.01156
61	0x3f7f4fc9	0.9973112
62	0x3f816903	1.0110172
63	0x3f816087	1.0107583
64	0x3f7fa713	0.9986431
65	0x3f7fc338	0.99907255
66	0x3f7b4084	0.9814532
67	0x3f7cf601	0.9881287
68	0x3f7fc702	0.99913037
69	0x3f7cb53e	0.98714054
70	0x3f8193d6	1.0123241
71	0x3f80540e	1.0025651
72	0x3f7da2c2	0.99076474
73	0x3f7f73ea	0.99786246
74	0x3f816581	1.0109102
75	0x3f7f4163	0.9970915
76	0x3f7ffc73	0.9999458
77	0x3f7fd705	0.9993747
78	0x3f8162f8	1.0108328
79	0x3f823814	1.0173364
80	0x3f7df67e	0.9920424
81	0x3f7d994a	0.99062026
82	0x3f80c0d0	1.0058842
83	0x3f7f8e90	0.9982691
84	0x3f7cff91	0.98827463
85	0x3f7c4dee	0.9855641
86	0x3f81fdbd	1.015556
87	0x3f803dab	1.001882
88	0x3f7e7e43	0.9941141
89	0x3f7e5390	0.99346256
90	0x3f7fd9a7	0.99941486
91	0x3f8113ee	1.0084207
92	0x3f8124d6	1.0089366
93	0x3f822a2c	1.016912
94	0x3f7f1b9f	0.9965152
95	0x3f7b53a6	0.9817451
96	0x3f7f5c26	0.9974998
97	0x3f804027	1.0019578
98	0x3f82716b	1.0190862
99	0x3f7ecb03	0.9952852
100	0x3f7e269f	0.9927768
101	0x3f7dfcbf	0.99213785
102	0x3f809620	1.0045815
103	0x3f7ddf07	0.9916844
104	0x3f7f613a	0.9975773
105	0x3f7fa2a1	0.99857527
106	0x3f80750b	1.0035719
107	0x3f7f7434	0.99786687
108	0x3f7c6b55	0.98601276
109	0x3f8035c9	1.0016414
110	0x3f80ebb4	1.0071931
111	0x3f80b647	1.0055627
112	0x3f81b9c7	1.013482
113	0x3f7fbe98	0.999002
114	0x3f7f0b06	0.99626195
115	0x3f7ff2eb	0.9998004
116	0x3f7d4777	0.9893717
117	0x3f7f8363	0.99809855
118	0x3f81177c	1.0085292
119	0x3f80380a	1.0017102
120	0x3f7fce82	0.9992448
121	0x3f80e50d	1.0069901
122	0x3f7ff286	0.99979436
123	0x3f8210ec	1.0161414
124	0x3f7fc38e	0.9990777
125	0x3f820564	1.0157895
126	0x3f80ab38	1.0052252
127	0x3f7c06c3	0.9844782
128	0x3f7ddd6a	0.99165976
129	0x3f80be68	1.0058107
130	0x3f7ce23b	0.987827
131	0x3f7feca5	0.99970466
132	0x3f7fbfcf	0.9990205
133	0x3f819acd	1.0125366
134	0x3f80e97e	1.0071256
135	0x3f80ae4f	1.0053195
136	0x3f7da996	0.9908689
137	0x3f7f2e6b	0.99680203
138	0x3f82a06d	1.0205208
139	0x3f808dcb	1.0043272
140	0x3f80b233	1.0054382
141	0x3f7f4c8f	0.99726194
142	0x3f7c52a9	0.9856363
143	0x3f801ab7	1.0008153
144	0x3f81784b	1.0114836
145	0x3f7e600c	0.99365306
146	0x3f81be84	1.0136266
147	0x3f7e048c	0.9922569
148	0x3f7bd317	0.9836897
149	0x3f7bd302	0.9836885

block3.bnorm_3.bias f4 [150]
0	0xbc9e3885	-0.01931406
1	0xbcb6d4ac	-0.022318207
2	0xbacf253c	-0.0015803943
3	0xbd164820	-0.036689878
4	0xbd00adad	-0.03141563
5	0xbbf69b15	-0.0075258114
6	0xbb660827	-0.0035100074
7	0xbc17f065	-0.009273623
8	0xbd356c20	-0.04429257
9	0x3b30f5d2	0.002700199
10	0xbb31c047	-0.0027122663
11	0xbc04fb8c	-0.008116614
12	0xbd11867a	-0.035528637
13	0xbcbf43e7	-0.023347808
14	0xbd02ad5e	-0.031903617
15	0xbc3aa10c	-0.011390936
16	0xbcd5ea0d	-0.02611258
17	0xbc4f4f18	-0.012653135
18	0xbca38df7	-0.019965155
19	0xbcc0decb	-0.023543736
20	0xbd05f449	-0.03270367
21	0xbd16ccc4	-0.036816373
22	0xbc6f3e99	-0.014602327
23	0xbca481c8	-0.020081416
24	0xbcfa3a75	-0.030545453
25	0xbc8e0b62	-0.017339412
26	0xbce1dd86	-0.02757145
27	0xbcc1a4fb	-0.02363824
28	0xbca88d17	-0.02057509
29	0xbb2eac9a	-0.0026653172
30	0xbab58efe	-0.0013851819
31	0xbc286f96	-0.01028051
32	0xbcb384ea	-0.021913964
33	0x3b2d4e0b	0.0026444222
34	0xbca3abc6	-0.019979369
35	0xbc442c9c	-0.011973526
36	0x3c6fce9c	0.014636662
37	0xbc8f6621	-0.017504754
38	0xbc9a7e62	-0.018859092
39	0xbcb002f4	-0.021485783
40	0x3c8287bc	0.015933864
41	0xbbfbb73a	-0.0076817544
42	0xbc995469	-0.018717008
43	0xbcaaa9aa	-0.020832855
44	0xbc877474	-0.016535021
45	0xbbbb78a3	-0.005721168
46	0xbbe2552f	-0.0069071273
47	0xbc676646	-0.014123505
48	0xbbb56d94	-0.0055367444
49	0xb86b3dc2	-5.6085883e-05
50	0xbcae9b81	-0.021314384
51	0xbcdd700d	-0.027030969
52	0xbc68c72c	-0.0142076425
53	0xbcaa7a6e	-0.020810332
54	0xbbba518b	-0.00568599
55	0xbca53b73	-0.02016995
56	0xbcf6e2b3	-0.030137395
57	0xbcd323bc	-0.025773875
58	0xbb95b52b	-0.004568716
59	0x3b98ed0c	0.00466693
60	0xbc8323fd	-0.016008371
61	0xbb73c218	-0.0037194546
62	0xbc6cb040	-0.014446318
63	0x3b5d2492	0.0033743721
64	0x3b18dff1	0.002332684
65	0xbc1d3695	-0.009595533
66	0xbc27e675	-0.010247816
67	0xbc0e82ef	-0.008698209
68	0x3b43be0a	0.002986791
69	0xbc4f1777	-0.012639872
70	0x3c1b8d4d	0.009494138
71	0xbc303fdd	-0.010757414
72	0xbc5332d5	-0.012890537
73	0xbc03cdc6	-0.008044666
74	0xbcdbd4b9	-0.026834833
75	0xbbdf19e0	-0.0068085045
76	0xbc2a6109	-0.010399112
77	0xbb1fec65	-0.0024402377
78	0x3bb5b049	0.0055446965
79	0xbb5b0e53	-0.0033425286
80	0xbbdcc724	-0.0067376066
81	0xbc3c6632	-0.011498975
82	0xbc4b605b	-0.01241311
83	0xbc26fdd5	-0.010192354
84	0xbc3be171	-0.011467324
85	0xbc20c3b6	-0.009812286
86	0xbb27fc98	-0.0025632735
87	0xbb954ca0	-0.0045562536
88	0xbafb7fa8	-0.0019187825
89	0xbc4fec79	-0.012690657
90	0xbcc46edb	-0.023978641
91	0x3bac0f1a	0.0052508237
92	0x3c598aeb	0.0132777495
93	0xbc56468e	-0.013078345
94	0x3a630e31	0.00086614775
95	0xbb282c6b	-0.002566124
96	0xbc0d65ce	-0.008630229
97	0x3ab57f90	0.0013847221
98	0xbbf94f9e	-0.007608368
99	0x3c85ab24	0.016316958
100	0xbc018997	-0.007906339
101	0xbc6cab3c	-0.014445122
102	0xbbefcaf9	-0.0073178974
103	0xbc68eed5	-0.014217098
104	0xbbb2e928	-0.0054599233
105	0xbc42498c	-0.011858355
106	0xbba7e37b	-0.0051235533
107	0xbacb04b9	-0.0015489078
108	0xbc46a449	-0.01212413
109	0xbb410ce0	-0.0029457137
110	0x3b3fda3f	0.0029274372
111	0x3bd31528	0.006441731
112	0xbc2be0ff	-0.010490655
113	0xbc88da8e	-0.016705777
114	0xbc7e4219	-0.015518689
115	0xbb9698e2	-0.004595862
116	0x3a823f28	0.0009937035
117	0xbb7e850b	-0.0038836624
118	0xbd6eb748	-0.05828026
119	0xbbc6ac0d	-0.0060629905
120	0xba82b131	-0.000997102
121	0x3c069029	0.008213081
122	0x3b9fd2c4	0.00487742
123	0x3b67e0da	0.0035381825
124	0x3c43f156	0.011959394
125	0x3c82c069	0.015960889
126	0x3b4b36a8	0.003100792
127	0xbbf75bf0	-0.0075488016
128	0xbb4af9e5	-0.0030971703
129	0xba0397aa	-0.0005019853
130	0xbc173610	-0.009229198
131	0xbb8c2892	-0.0042772973
132	0xbc534755	-0.012895425
133	0xbc56b236	-0.013104012
134	0x3ba62015	0.0050697424
135	0xba244c14	-0.000626744
136	0xbc4a8f19	-0.012363219
137	0x3af266ba	0.001849375
138	0x3c89092f	0.016728012
139	0x3c14a0b5	0.009071519
140	0x3a21ae8d	0.00061676727
141	0xbc3f1d75	-0.011664738
142	0xbbc0e93a	-0.005887178
143	0xbc95bab3	-0.018277502
144	0xbc7a09e0	-0.015261143
145	0x3c09e9c4	0.0084175505
146	0xbba8ec3c	-0.0051551145
147	0x3b486008	0.0030574817
148	0xbba0df9b	-0.0049094683
149	0xbc56bd35	-0.013106634

block3.bnorm_3.running_mean f4 [150]
0	0xbe4d7b83	-0.20066647
1	0xbe074c75	-0.1321276
2	0xbe95f8e1	-0.29291442
3	0x3eadf3c2	0.33975035
4	0x3dca4e37	0.098781995
5	0x3eaa4cb5	0.33261648
6	0xbccd92f9	-0.025094496
7	0xbe94ad7a	-0.29038602
8	0x3ed15a2f	0.40889117
9	0xbec0ceb6	-0.37657708
10	0x3eca4df7	0.39512607
11	0xbe717b89	-0.23582281
12	0xbdef6dcd	-0.11690865
13	0xbe1f7f63	-0.15575938
14	0x3ab8e693	0.0014106802
15	0xbe8c8135	-0.27442327
16	0x3e9737d8	0.29534793
17	0xbe72f431	-0.23725964
18	0x3e780788	0.24221623
19	0x3e394997	0.18094479
20	0xbe5d9fab	-0.2164294
21	0x3e24922b	0.16071384
22	0xbe840e0a	-0.2579196
23	0xbd8d0de6	-0.068874165
24	0xbe784702	-0.24245837
25	0xbe1e50d7	-0.15460525
26	0xbe90de59	-0.28294638
27	0xbe39c8ff	-0.1814308
28	0xbdfeaadd	-0.12434933
29	0xbe2265fd	-0.15859218
30	0xbe305154	-0.17218524
31	0xbf0b03c4	-0.5430262
32	0xbe5ad4f1	-0.21370293
33	0xbe81adac	-0.25327814
34	0x3e34d7f2	0.17660502
35	0x3db86f85	0.09005646
36	0xbec69812	-0.38787895
37	0xbee663ed	-0.44998112
38	0xbebb6cda	-0.36606485
39	0x3b360fc7	0.00277804
40	0xbe4b0481	-0.19825937
41	0xbd9fcbfa	-0.07802577
42	0xbf0c3070	-0.5476141
43	0x3ec22d31	0.37925103
44	0xbbc775c2	-0.006087036
45	0xbefd2c2f	-0.49447772
46	0x3ebd74c9	0.37003163
47	0xbce7096f	-0.02820274
48	0xbec8f29d	-0.392476
49	0xbeb9f5bb	-0.3632029
50	0x3e6bf6e6	0.23043403
51	0x3d7a2727	0.061072495
52	0xbebfbcac	-0.37448633
53	0xbf43f7ad	-0.765498
54	0xbdae7bce	-0.085197076
55	0x3e4b2c27	0.19841062
56	0xbdebeff6	-0.11520378
57	0xbceb6625	-0.02873523
58	0x3c03b0a1	0.008037717
59	0x3d516459	0.05112109
60	0xbd69c742	-0.057074793
61	0x3e5057b8	0.20345962
62	0x3d92c3ac	0.07166228
63	0xbc610bec	-0.013735753
64	0x3bbbce68	0.0057313927
65	0xbc3ad1a9	-0.011402526
66	0xbec82dab	-0.39097342
67	0x3e5cb408	0.21553051
68	0xbdd4500a	-0.10366829
69	0x3da49562	0.08036305
70	0xbd94a4db	-0.07258006
71	0x3e202c53	0.15641908
72	0xbe8863ff	-0.2663879
73	0xbe30f740	-0.17281818
74	0x3c3331d0	0.010937169
75	0x3cd08bc9	0.02545728
76	0x3e50071e	0.20315215
77	0xbe6118ac	-0.21982068
78	0xbe098622	-0.13430074
79	0xbdb4e64e	-0.0883299
80	0x3c6d7fa4	0.014495764
81	0xbecbb0fd	-0.3978347
82	0xbcdea152	-0.027176533
83	0x3cc0c26d	0.02353021
84	0x3c92888d	0.017887378
85	0xbe417fb9	-0.18896379
86	0xbd946273	-0.0724534
87	0xbe24c169	-0.16089405
88	0xbe20fffd	-0.15722652
89	0xbdb1211f	-0.086488955
90	0x3e846248	0.25856233
91	0xbea683af	-0.32522342
92	0xbe6a7efd	-0.22900005
93	0xbe0e938d	-0.13923474
94	0xbda828d2	-0.08210911
95	0xbe91894c	-0.28425062
96	0x3e9892ae	0.29799408
97	0x3d0f6621	0.035009507
98	0xbe6e4db8	-0.23271835
99	0x3e77d1b9	0.24201097
100	0xbe92c262	-0.28663927
101	0xbdfa2cc9	-0.12215573
102	0x3d78670b	0.060645144
103	0xbe46074c	-0.19338721
104	0xbe77d6e7	-0.24203072
105	0x3ed2d4d9	0.41178015
106	0xbd7f26e9	-0.062292967
107	0xbe3839fe	-0.17990872
108	0x3e68deaa	0.2274119
109	0xbe0efdb8	-0.13963974
110	0xbe2b3017	-0.16717564
111	0x3e4a03c1	0.19727995
112	0x3ccca875	0.02498267
113	0xbe1285f9	-0.14308919
114	0xbdfb7b60	-0.12279391
115	0x3de9519d	0.113925196
116	0xbe1fc2e5	-0.1560169
117	0xbe2be38f	-0.16786025
118	0xbe2817c8	-0.16415322
119	0xbd2b77ed	-0.041862417
120	0xbe002f15	-0.1251796
121	0x3e3e43d8	0.18580568
122	0xbcc6b8d6	-0.024258059
123	0x3d594a21	0.05304921
124	0x3e79681e	0.24356124
125	0xbe1c644d	-0.15272637
126	0xbe02111e	-0.12701842
127	0x3bf20819	0.007386219
128	0x3bbc5300	0.005747199
129	0x3e7589b0	0.23978305
130	0xbe8519b9	-0.25996187
131	0x3e78213d	0.2423143
132	0x3cdff915	0.027340451
133	0x3e3f8be2	0.18705705
134	0xbdf98a41	-0.12184573
135	0xbe968177	-0.2939565
136	0x3d83901e	0.064239725
137	0xbeae236c	-0.340114
138	0xbd9b00e0	-0.07568526
139	0x3ccdd946	0.025128018
140	0x3e6a008e	0.22851774
141	0xbd170c40	-0.036876917
142	0x3e41c61e	0.18923232
143	0xbe169fbb	-0.1470937
144	0xbd47387c	-0.048637852
145	0x3e480c98	0.19536054
146	0x3d2e8666	0.04260864
147	0x3da1d444	0.079018146
148	0x3eaeda70	0.3415103
149	0x3de47558	0.11155194
