submit_entry/checkpoints/cv_dgcn_all_12s_slice_norm_nosing/1/best.pth (torch_old, 340809 bytes, 25 tensors)

conv_time.weight f4 [75, 1, 10]
0	0xbb42e9d1	-0.0029741416
1	0xbd7ec382	-0.06219817
2	0x3c2d5968	0.010580398
3	0xbd804770	-0.062636256
4	0xbd358132	-0.044312663
5	0xbd80e419	-0.06293506
6	0xbcc70ee9	-0.024299102
7	0x3d093317	0.03349599
8	0xbde2eeef	-0.11080729
9	0xbd005a75	-0.031336267
10	0xbd9765f8	-0.07392496
11	0x3da096c7	0.078412585
12	0x3c6c14a3	0.014409217
13	0x3d8c86d9	0.06861658
14	0x3d13bad7	0.036066856
15	0xbd43820e	-0.04773145
16	0xbd3dc12f	-0.046326812
17	0xbd84c87d	-0.064835526
18	0xbda99cc5	-0.082818545
19	0xbd454696	-0.04816302
20	0x3da3327c	0.079686135
21	0x3c856f12	0.016288314
22	0x3bbbba1b	0.0057289726
23	0x3c943e7f	0.018096207
24	0x3cd50c11	0.02600673
25	0x3da402dc	0.08008358
26	0x3cc9a9b8	0.024617061
27	0x3cf72e24	0.030173369
28	0xbd2fc058	-0.042908043
29	0xbbe964ec	-0.0071226265
30	0xbd9c094a	-0.07618959
31	0xbdace96d	-0.0844296
32	0xbdcef27f	-0.10104846
33	0xbdcb8231	-0.099369414
34	0xbdeab4d7	-0.11460274
35	0xbd26ab08	-0.04069045
36	0xbd86ce6e	-0.06582342
37	0x3bd90d1d	0.0066238777
38	0xbcdc17f0	-0.026866883
39	0xbd165679	-0.03670356
40	0x3d084b49	0.033274923
41	0x3d8493e9	0.06473524
42	0xbd5001bf	-0.050782915
43	0xbc8f74ae	-0.017511692
44	0x3d887ce9	0.0666445
45	0x3d98ad14	0.07454887
46	0x3d973075	0.07382289
47	0x3da8da04	0.08244708
48	0x3dad8d6a	0.08474238
49	0x3d30e122	0.043183453
50	0xbc1fd977	-0.0097564375
51	0xbce16d64	-0.027517982
52	0xbc890178	-0.016724333
53	0x3d5b2a7d	0.053507317
54	0x3db5804f	0.088623635
55	0x3da4c144	0.08044675
56	0x3dccde15	0.10003296
57	0x3db4952c	0.08817515
58	0x3c942f44	0.018088944
59	0xbc9fd07d	-0.019508595
60	0x3c82ed2b	0.015982231
61	0x3d2dc027	0.04241958
62	0xbc8809d7	-0.016606255
63	0x3d9f8eac	0.077908844
64	0x3da26227	0.07928877
65	0x3dbd7d6e	0.092524394
66	0xbb3c3f4b	-0.002872425
67	0x3cefd55f	0.029276548
68	0xbb0893f4	-0.002084014
69	0x39f4c3e7	0.00046685265
70	0x3d6c3725	0.057669777
71	0x3a6d3f1d	0.0009050237
72	0x3d9f8412	0.07788862
73	0x3dbbf03a	0.09176679
74	0xbcb69ee7	-0.022292567
75	0x3dd5382f	0.10411107
76	0x3df71601	0.12064744
77	0x3d8e290f	0.06941425
78	0xbcc1a600	-0.023638725
79	0x3d82ba47	0.06383186
80	0xbdb24baf	-0.08705842
81	0xbd9de7fd	-0.07710264
82	0x3d11e3f0	0.03561777
83	0x3b37dd02	0.0028055315
84	0xbd1e95b5	-0.03871699
85	0xbc523e3a	-0.012832219
86	0xbd8477d5	-0.06468169
87	0xbd08894c	-0.03333406
88	0x3daadc99	0.08342857
89	0xbc284742	-0.010270895
90	0xbda1e42a	-0.07904847
91	0xbd8aa6ce	-0.06770097
92	0xbd8fefbf	-0.0702815
93	0xbd043762	-0.03227938
94	0x3d23ee51	0.040022198
95	0x3d5aad35	0.05338784
96	0x3d8f42cd	0.06995163
97	0x3dae0daa	0.084987
98	0x3d2aaa44	0.041666284
99	0x3d46bf12	0.048522063
100	0xbdc48948	-0.09596497
101	0xbdadc848	-0.08485466
102	0xbda42921	-0.08015657
103	0xbcb6da3c	-0.02232086
104	0xbd8cec95	-0.06881062
105	0x3d09eb0f	0.033671435
106	0xbcf7a6d6	-0.03023092
107	0xbcfb8fdd	-0.030708248
108	0x3d328a9e	0.043589227
109	0xbd56ca87	-0.05243924
110	0x3dadde02	0.0848961
111	0x3ca34d71	0.019934388
112	0x3d8b6a3e	0.068073735
113	0xbd202225	-0.039095063
114	0x3d76efca	0.060287274
115	0x3d4c1457	0.049824085
116	0xbc1356a9	-0.008992829
117	0x3dac70c9	0.084199496
118	0xbd579cc9	-0.052639756
119	0xbbe2b1d7	-0.006918173
120	0xbcf2d921	-0.02964455
121	0xbd5843d8	-0.052799076
122	0xbd7d7c6c	-0.061886236
123	0xbd181240	-0.03712678
124	0xbb85b16b	-0.0040799878
125	0xbce80730	-0.02832374
126	0xbdb0d953	-0.08635201
127	0xbda8f5e8	-0.08250028
128	0xbc76e9a2	-0.015070351
129	0x3d85a663	0.065258764
130	0xbd047750	-0.032340348
131	0x3ac71657	0.0015189153
132	0xbda9cca7	-0.082909875
133	0xbd699bf6	-0.0570335
134	0xbd8d0d57	-0.0688731
135	0x3bba9aba	0.0056947144
136	0xbd439392	-0.047748156
137	0x3d0d15a7	0.034444477
138	0xbc5d7403	-0.013516429
139	0xbdc445fc	-0.09583661
140	0xbcbfde70	-0.023421496
141	0xbd718d4e	-0.05897265
142	0x3cda7881	0.026668789
143	0x3d7b852a	0.061406292
144	0x3d22c722	0.03974069
145	0xbd28f752	-0.041251488
146	0x3d135d6d	0.03597777
147	0xbbeb6895	-0.007184098
148	0x3d81027e	0.062993035
149	0x3d7827df	0.0605849
150	0x3c11cdec	0.008899193
151	0x3d3e6dc1	0.04649139
152	0x3cb1a005	0.021682749
153	0x3cbb5e57	0.022872133
154	0x3d1b6a1b	0.037942987
155	0xbd4927cb	-0.049110215
156	0xbc9c4be4	-0.019079156
157	0xbdc256f8	-0.09489244
158	0xbdbe04da	-0.09278269
159	0x3cabd34f	0.020974783
160	0xbd7dd9e2	-0.061975367
161	0x3d806aa2	0.062703386
162	0xbd176b8b	-0.036967795
163	0xbc693e46	-0.014236039
164	0x3d9f697d	0.07783792
165	0xbd89243b	-0.066963635
166	0x3d370889	0.044685874
167	0xbd928c8e	-0.07155715
168	0x3c759d73	0.014991152
169	0xbd8cf916	-0.06883447
170	0x3c206e18	0.009791873
171	0x3d956b61	0.072958715
172	0x3d189090	0.03724724
173	0x3dd63729	0.1045974
174	0x3da1d8c8	0.07902676
175	0x3dbead0a	0.09310348
176	0x3d8e2359	0.06940336
177	0x3c8d494e	0.017246868
178	0x3ce0f903	0.027462488
179	0x3c0d2916	0.008615753
180	0x3cd5088e	0.026005056
181	0xbdbf19fd	-0.09331129
182	0x3b23121a	0.0024882616
183	0xbdb1ac75	-0.08675472
184	0xbd375bf1	-0.044765417
185	0x3d59be0c	0.05315976
186	0xbd7e7c43	-0.062130224
187	0xbd220579	-0.039556
188	0xbd4441e0	-0.047914386
189	0x3cd9bfbd	0.026580686
190	0x3d7d5879	0.061851952
191	0x3db9d0f6	0.09073059
192	0x3dceafff	0.10092162
193	0xbc70381b	-0.014661814
194	0x3dd7338e	0.1050788
195	0xbc16fa6f	-0.009214981
196	0xbba2627a	-0.004955587
197	0xbc82ba32	-0.015957925
198	0x3d56bef9	0.05242822
199	0xbc01b45b	-0.007916535
200	0x3ce549eb	0.027989348
201	0x39b992e3	0.0003539539
202	0x3da35899	0.07975883
203	0x3d81bb1b	0.06334516
204	0xbd7e2ad0	-0.062052548
205	0xbd2c5527	-0.042073395
206	0xbd388f48	-0.04505852
207	0x3d2d5795	0.042319853
208	0x3d887365	0.06662635
209	0xbc0b9278	-0.008518808
210	0x3c14801d	0.009063748
211	0x3db8c030	0.09021032
212	0x3d46a62f	0.04849833
213	0x3d884bb5	0.06655065
214	0x3cb7b444	0.022424825
215	0xbd85f05b	-0.06539985
216	0xbd17fd92	-0.037107058
217	0xbda5f105	-0.081026115
218	0xbd99c688	-0.0750857
219	0xbd7231c2	-0.059129484
220	0x3d86c7db	0.06581088
221	0xbd8af6ee	-0.06785379
222	0xba340656	-0.0006867399
223	0x3d310dd4	0.04322608
224	0x3dda56df	0.106611006
225	0x3d806621	0.062694795
226	0xbda2e6d8	-0.07954186
227	0xbcc79b88	-0.024366155
228	0x3daabaf6	0.08336441
229	0x3d7d633a	0.061862208
230	0xbd58665b	-0.05283199
231	0x3d484245	0.048891325
232	0x3d877736	0.066145346
233	0x3cd9de6c	0.026595317
234	0xbdb17b8e	-0.08666144
235	0xbd59eaaa	-0.05320231
236	0xbbf06552	-0.007336297
237	0xbcf9a66b	-0.030474862
238	0x3cd00e0f	0.025397329
239	0xbd7b14ee	-0.061299257
240	0x3d82c3ab	0.06384977
241	0x3d278922	0.040902264
242	0x3dba9fa8	0.09112483
243	0x3d5f19c7	0.054467943
244	0x3dad7721	0.08469988
245	0x3d730ffb	0.059341412
246	0x39a17640	0.00030796416
247	0x3a683486	0.0008857924
248	0xbd5045a7	-0.050847676
249	0x3c51db50	0.012808636
250	0x3d1e4c99	0.038647268
251	0x3d870d60	0.06594348
252	0x3cca4c7d	0.024694676
253	0xbd4f5c55	-0.050625164
254	0xbd69685a	-0.056984283
255	0xbc595cc0	-0.013266742

conv_time.bias f4 [75]
0	0xbb0f7f89	-0.0021896085
1	0x3b2eed25	0.0026691642
2	0x3b51750d	0.0031960637
3	0xbbb2c73f	-0.005455881
4	0x3954904e	0.00020271653
5	0x3b7dd90e	0.003873411
6	0x3a958a85	0.001140908
7	0x3a1359e9	0.00056210026
8	0x39dbfa06	0.00041957217
9	0x3c161a6a	0.009161571
10	0x3ae8dfea	0.0017766927
11	0x3b3af789	0.002852889
12	0xbb25e621	-0.002531417
13	0x3af106d8	0.001838888
14	0xbbf6ccdc	-0.0075317454
15	0xbb74ae2e	-0.0037335264
16	0x3bb0b4dc	0.005392654
17	0x3ba468c2	0.005017371
18	0x3b7de606	0.003874184
19	0x3b562004	0.0032672891
20	0x3bccd1e1	0.0062506055
21	0xb8337735	-4.2787946e-05
22	0xbb167d82	-0.0022962992
23	0xbb327c7d	-0.0027234845
24	0x3ba213fc	0.00494623
25	0xbc01822c	-0.007904571
26	0xbb5231fc	-0.003207325
27	0x3b6545b5	0.0034984176
28	0x3b130c4c	0.002243775
29	0x3bc3ac68	0.00597148
30	0xbafd796b	-0.0019338554
31	0x3bc2f308	0.0059493817
32	0xbb3e2cb4	-0.0029018344
33	0xbbb7f7dd	-0.0056142644
34	0xbb51fe59	-0.0032042472
35	0x3c062953	0.008188563
36	0x399d8ffc	0.0003005265
37	0x3b37f36f	0.0028068682
38	0x3bcbf758	0.006224554
39	0x3b325fb6	0.0027217693
40	0xbbe14084	-0.006874146
41	0x3abf9597	0.0014616725
42	0xbc17cb46	-0.009264773
43	0x382bc9b5	4.095743e-05
44	0xbae28988	-0.0017283419
45	0xbc0c9dd3	-0.00858255
46	0x3b106110	0.002203051
47	0x3bc10d32	0.0058914656
48	0x3bf1e798	0.0073823445
49	0xbb646772	-0.0034851697
50	0xb83e43c8	-4.5362656e-05
51	0x3ac1975d	0.0014769841
52	0xbad92980	-0.0016568154
53	0xbb93ae10	-0.004506834
54	0x3bb70987	0.0055858525
55	0x3a48ffcf	0.0007667513
56	0xb9bf884d	-0.0003653191
57	0x39fcb89f	0.0004820274
58	0xbb377644	-0.0027994076
59	0xbaa0c794	-0.001226651
60	0x3bc6d471	0.0060678055
61	0xbbab22fb	-0.005222676
62	0x3af73982	0.0018861743
63	0xbbf6021f	-0.007507577
64	0x3b7ce440	0.0038588196
65	0xbae55f42	-0.0017499703
66	0xbb8c37da	-0.004279119
67	0x3b626c90	0.0034549572
68	0x3beaa043	0.007160218
69	0x3ad0a242	0.0015917497
70	0xbb4f921a	-0.0031672777
71	0x3c033a47	0.0080095
72	0x3b1b8681	0.0023731294
73	0x3bb31f34	0.005466366
74	0xbb6838fd	-0.0035434358

bnorm.weight f4 [75]
0	0x3f816fbc	1.0112224
1	0x3f7c9899	0.98670346
2	0x3f7bc486	0.98346746
3	0x3f8099b8	1.0046911
4	0x3f7f1730	0.99644756
5	0x3f82d67c	1.0221705
6	0x3f7f0a2f	0.99624914
7	0x3f8206e1	1.0158349
8	0x3f7f196d	0.9964817
9	0x3f835f14	1.026339
10	0x3f7fc845	0.9991496
11	0x3f7ef2b7	0.99589103
12	0x3f7f741c	0.99786544
13	0x3f7dd3c4	0.99151254
14	0x3f76f9c5	0.9647487
15	0x3f8175a8	1.0114031
16	0x3f793ccc	0.97358394
17	0x3f828f00	1.019989
18	0x3f7f034e	0.9961442
19	0x3f7fac5d	0.9987238
20	0x3f7cfeb3	0.9882614
21	0x3f83330f	1.0249957
22	0x3f808574	1.0040727
23	0x3f7a9abf	0.97892374
24	0x3f803aff	1.0018004
25	0x3f7d3baf	0.98919195
26	0x3f7b2382	0.98101056
27	0x3f80823b	1.0039743
28	0x3f7f5f2b	0.9975459
29	0x3f81711a	1.0112641
30	0x3f7f4a6a	0.9972292
31	0x3f7de81e	0.9918231
32	0x3f7e0dbd	0.9923971
33	0x3f7fb02a	0.9987818
34	0x3f800fd7	1.0004834
35	0x3f80bdad	1.0057884
36	0x3f7da45d	0.99078923
37	0x3f802060	1.000988
38	0x3f7b869e	0.98252285
39	0x3f7fd885	0.9993976
40	0x3f82f777	1.023177
41	0x3f80fde9	1.0077487
42	0x3f81f57a	1.0153039
43	0x3f7d95ed	0.99056894
44	0x3f7bd45f	0.9837093
45	0x3f817211	1.0112935
46	0x3f7b0602	0.9805604
47	0x3f807c70	1.0037975
48	0x3f812db0	1.0092068
49	0x3f7baee8	0.9831376
50	0x3f810dd9	1.0082351
51	0x3f7ff99a	0.99990237
52	0x3f811689	1.0085002
53	0x3f7f7235	0.9978364
54	0x3f815d8d	1.0106674
55	0x3f7c9cc5	0.9867671
56	0x3f803e83	1.0019077
57	0x3f7eb8e2	0.9950086
58	0x3f8127e8	1.0090303
59	0x3f7f1f1d	0.9965685
60	0x3f7e07ed	0.99230844
61	0x3f831b45	1.0242697
62	0x3f7fdc79	0.9994579
63	0x3f81c220	1.0137367
64	0x3f7869ca	0.9703642
65	0x3f7fad08	0.998734
66	0x3f7ff594	0.999841
67	0x3f7eefaf	0.9958448
68	0x3f81670c	1.0109572
69	0x3f801f23	1.0009502
70	0x3f80e82a	1.0070851
71	0x3f79c15b	0.9756066
72	0x3f8281d0	1.0195866
73	0x3f7c6c9c	0.98603225
74	0x3f81f2a9	1.0152179

bnorm.bias f4 [75]
0	0x3bf39ed7	0.0074347067
1	0xbbd077e9	-0.0063619507
2	0xbd157729	-0.036490593
3	0xba34ffae	-0.00069045543
4	0xbb22993b	-0.002481057
5	0xbccb2332	-0.024797056
6	0xbbc23731	-0.0059269895
7	0xbcb136e7	-0.021632625
8	0xbbae2aa6	-0.0053151427
9	0xbc963883	-0.018337494
10	0xbad77e74	-0.0016440884
11	0xbc1637ce	-0.009168578
12	0xb9fc4f32	-0.0004812419
13	0x3a5662c7	0.0008178171
14	0xbc85f5e2	-0.016352598
15	0xbc2deaad	-0.010615033
16	0x3bf9b21c	0.0076201092
17	0x3c799bdf	0.0152349165
18	0x3c68c2e9	0.014206626
19	0x3c0a7858	0.008451544
20	0xbd00a00a	-0.031402625
21	0xbd1c835d	-0.038211215
22	0xbccc3040	-0.024925351
23	0x3b01f2ad	0.0019828484
24	0xbc385049	-0.01124961
25	0xbd0a4dd3	-0.033765625
26	0x3c289028	0.010288276
27	0xbcb11a1d	-0.021618897
28	0xbcd34e49	-0.025794165
29	0x3bfa2bc2	0.007634611
30	0x3cee4cc0	0.029089332
31	0x3cefa956	0.02925555
32	0x3c341c88	0.0109931305
33	0x3c78baa7	0.01518122
34	0xbbbfa66c	-0.0058486965
35	0xbc0519b4	-0.008123804
36	0xbb0d9d2d	-0.0021608577
37	0xbc741bca	-0.014899204
38	0xbd131531	-0.03590888
39	0x3d09eebe	0.033674948
40	0xbc2e9f7e	-0.010658143
41	0x3cf407c4	0.02978886
42	0xbbd79573	-0.006579095
43	0xbc29aea0	-0.010356575
44	0x3c2f7ca7	0.010710872
45	0x3cbd9b5b	0.023145368
46	0xbbe0a932	-0.006856107
47	0xbd1d04df	-0.038334724
48	0x3cec3add	0.028836662
49	0x3c53974c	0.01291449
50	0x3c9d3377	0.01918958
51	0x3b83b3f0	0.004019253
52	0x3c282f3d	0.010265169
53	0x3ca55271	0.020180913
54	0x3cbd10c1	0.023079278
55	0xb81c0984	-3.720216e-05
56	0xbb83ae30	-0.0040185675
57	0xbca1fbc8	-0.019773379
58	0xb8712d38	-5.750099e-05
59	0xbc365794	-0.011129279
60	0x3c5993e0	0.013279885
61	0xbc6f184e	-0.014593197
62	0x3c7bf693	0.015378612
63	0x3d211592	0.03932721
64	0xbbb56a09	-0.005536322
65	0x3cd9b952	0.026577625
66	0x3cc0ac9a	0.023519803
67	0xbc9b7dea	-0.018980939
68	0x3d3b5609	0.045736346
69	0x3d266fb3	0.04063387
70	0x3d31e74d	0.043433476
71	0xbbf531a6	-0.007482725
72	0x3c2b23f6	0.0104455855
73	0x3b52060f	0.0032047068
74	0x3af48935	0.0018656614

bnorm.running_mean f4 [75]
0	0xbe0d390c	-0.13791293
1	0xbd7672dc	-0.060168132
2	0x3dba1db1	0.090876944
3	0xbe7e4d79	-0.24834241
4	0x3e313b00	0.17307663
5	0x3e0e6bd5	0.13908322
6	0x3df8a321	0.12140489
7	0x3e52c9e7	0.20584832
8	0xbd9e2ad0	-0.077230096
9	0x3d316c1a	0.043315984
10	0xbe154df1	-0.14580514
11	0x3dd0c6b4	0.101941496
12	0xbe0420a2	-0.12903073
13	0xbe08a600	-0.13344574
14	0x3d56bd35	0.052426536
15	0xbd4ea5fc	-0.050451264
16	0xbd5960a3	-0.053070676
17	0x3e829563	0.25504598
18	0xbdfd25e0	-0.1236074
19	0x3e342c81	0.17595102
20	0x3d8804b9	0.06641526
21	0xbd1ead61	-0.038739566
22	0x3df3521f	0.11880898
23	0xbd7c7edd	-0.061644424
24	0x3e3561db	0.1771311
25	0x3d76ba24	0.06023611
26	0xbdd173ab	-0.1022714
27	0xbe31792d	-0.17331381
28	0x3ddbec45	0.10738424
29	0x3d56a40d	0.052402545
30	0xbd47bf98	-0.048766702
31	0xbc7b9435	-0.0153551595
32	0xbca92610	-0.020648032
33	0xbce291c3	-0.027657395
34	0xbda21ccb	-0.07915648
35	0x3b2d328a	0.0026427829
36	0xbd657df0	-0.056028306
37	0x3d182991	0.037149016
38	0x3d2c45ca	0.042058744
39	0xbcde7a0c	-0.027157806
40	0x3d4e2a49	0.050333295
41	0xbcddcd27	-0.027075363
42	0x3c270d7f	0.010196089
43	0x3cae94d4	0.021311201
44	0xbd44e667	-0.04807129
45	0x3c94efb6	0.01818071
46	0x3d683e4a	0.05670003
47	0xbd972c14	-0.07381454
48	0xbc215d31	-0.009848879
49	0x3c75ecc5	0.015010064
50	0x3d908188	0.07055956
51	0xbda482fb	-0.08032795
52	0xbd107b77	-0.035273995
53	0x3d8bfb83	0.068350814
54	0x3ddbab4f	0.10726034
55	0x3d3d51d4	0.046220616
56	0x3dd58f02	0.10427667
57	0xbd93770e	-0.07200442
58	0x3e041ab4	0.12900811
59	0xbd5a78e3	-0.053337943
60	0xbbad79a0	-0.00529404
61	0x3d5003f0	0.050785005
62	0xbd30b2cb	-0.04313926
63	0xbd4f13cc	-0.05055599
64	0xbca0c77d	-0.019626373
65	0xbcaa4135	-0.020783046
66	0x3ccedc83	0.025251633
67	0x3d364ce2	0.044506915
68	0xbc17c254	-0.00926264
69	0xbd042977	-0.032266106
70	0xbd254b5b	-0.040355068
71	0xbae9f57c	-0.0017849649
72	0x3d2df0d0	0.042465985
73	0xbc8427d0	-0.016132265
74	0x3d1f35ce	0.03886967

bnorm.running_var f4 [75]
0	0x3bc5f1e7	0.0060408
1	0x3aef0697	0.0018236217
2	0x3b2e09c5	0.0026556116
3	0x3c9e221e	0.019303378
4	0x3c21828f	0.009857788
5	0x3bd47490	0.006483622
6	0x3ba178ca	0.0049277293
7	0x3c61ed05	0.01378942
8	0x3b115def	0.0022181233
9	0x3ac83fca	0.00152778
10	0x3bed4dfa	0.0072419615
11	0x3b608102	0.0034256582
12	0x3bb216eb	0.005434861
13	0x3bc3057c	0.0059515815
14	0x3ab9b58f	0.0014168489
15	0x3a9226d0	0.0011150483
16	0x3aa8e475	0.0012885468
17	0x3ca39813	0.019969976
18	0x3baf6f61	0.0053538536
19	0x3c1eab5b	0.009684409
20	0x3aab7e57	0.0013083917
21	0x3ab1f5ac	0.0013577244
22	0x3b9f5b55	0.0048631825
23	0x3aaeee13	0.0013346098
24	0x3c1fb6d7	0.009748182
25	0x3ace1bbf	0.0015724822
26	0x3b5d6e6d	0.0033787743
27	0x3c239bf5	0.0099859135
28	0x3b6e391f	0.0036349965
29	0x3a923658	0.0011155112
30	0x3bd4b47d	0.0064912424
31	0x3abad089	0.0014252822
32	0x3a874256	0.0010319452
33	0x3ac0c697	0.0014707622
34	0x3c89bb56	0.016812962
35	0x395c02ae	0.00020981833
36	0x3c183262	0.009289356
37	0x3b63ddfb	0.0034769762
38	0x3b7b5c2e	0.0038354504
39	0x3b2fc233	0.0026818633
40	0x3c1d57ea	0.00960348
41	0x3b1d0403	0.002395869
42	0x3a980b69	0.001160008
43	0x3ab577b6	0.0013844881
44	0x3bd00888	0.0063486733
45	0x3a2a58ce	0.0006498218
46	0x3b234192	0.002491091
47	0x3b704db6	0.0036667413
48	0x3a11be74	0.0005559691
49	0x3a450aa9	0.0007516542
50	0x3b46e1d1	0.0030347
51	0x3b880427	0.0041508856
52	0x3a807b2a	0.0009802331
53	0x3b54244c	0.0032370267
54	0x3bc943b3	0.0061421036
55	0x3aa9ce57	0.0012955171
56	0x3bce1caa	0.006290038
57	0x3b54b7c2	0.003245816
58	0x3c248047	0.010040349
59	0x3ae4dcbe	0.0017460806
60	0x39d4e8b1	0.0004060916
61	0x3c0670ed	0.008205635
62	0x3bb03f4d	0.00537864
63	0x3ba063c3	0.004894705
64	0x3ad70dfb	0.0016407365
65	0x3a8ccbf4	0.0010741935
66	0x3b17e746	0.0023178621
67	0x3b937a6b	0.0045006773
68	0x3a4eceb5	0.0007889078
69	0x3b49c89b	0.0030789736
70	0x3b72559e	0.0036977301
71	0x39b32483	0.00034168744
72	0x3b8a3b8a	0.0042185234
73	0x3aac18e7	0.001312998
74	0x3b9fdad4	0.0048783813

block2.conv_2.weight f4 [75, 15, 10]
0	0xbd30d795	-0.043174345
1	0x3d367984	0.04454948
2	0x3d37d053	0.044876408
3	0xbd124e79	-0.03571937
4	0xbd97f4ee	-0.074197635
5	0x3ca4f237	0.020135028
6	0x3d5c412e	0.053773098
7	0xbc42c4de	-0.011887757
8	0xbd32dabf	-0.043665644
9	0xbce79b9c	-0.028272443
10	0x3d1d19fa	0.03835485
11	0x3cd893e7	0.026437713
12	0xbd249dca	-0.040189542
13	0x3d1d4110	0.038392127
14	0xbd438075	-0.047729928
15	0x3c589af9	0.013220542
16	0x3bf53d00	0.0074840784
17	0xbc93217f	-0.017960308
18	0xbdbc7d29	-0.0920356
19	0xbde1dcb2	-0.110284224
20	0xba8ed5e2	-0.0010897482
21	0xbd0d64b6	-0.034519874
22	0x3c0afd32	0.008483218
23	0x3d3806b5	0.04492827
24	0x3d1251d0	0.035722554
25	0xbd367409	-0.044544253
26	0xbc2ee051	-0.010673598
27	0x3cda6db2	0.026663635
28	0xbd221b6d	-0.039576937
29	0xbd799a1a	-0.06093798
30	0x3c4ad201	0.01237917
31	0x3cbbb447	0.022913111
32	0xbd37af3c	-0.04484485
33	0x3dae60f0	0.08514583
34	0xbd4a0e94	-0.04933031
35	0x3d3d2907	0.046181705
36	0xbd842d37	-0.064539365
37	0x3cad94bf	0.021189092
38	0xbd0ed6b4	-0.034872726
39	0x3d2eeec8	0.04270819
40	0xbd144f4d	-0.03620844
41	0x3d1e54ad	0.038654972
42	0xbd6d61d7	-0.057954635
43	0x3d4542c8	0.04815939
44	0x3bc15ded	0.0059010894
45	0x3d4ab5bd	0.049489725
46	0x3d4e6556	0.05038961
47	0x3c8121d7	0.015763206
48	0x3d0567ff	0.03256988
49	0xbb9cf20d	-0.004789597
50	0x3c3ab1a9	0.011394897
51	0xbce03800	-0.027370453
52	0xbc81aa44	-0.01582826
53	0xbd3c49f6	-0.045968972
54	0xbcf95928	-0.03043802
55	0x3d5a5e61	0.053312663
56	0xbcb05fda	-0.02153008
57	0x3d5f3765	0.054496188
58	0xbd56f95a	-0.052483894
59	0xbda0289f	-0.07820248
60	0xbcf1405e	-0.029449638
61	0xbb7f789b	-0.0038981799
62	0xbd915129	-0.07095558
63	0x3d8c7b64	0.068594724
64	0xbce03443	-0.02736867
65	0xbd9a8bcc	-0.075461954
66	0xbd9521ad	-0.07281814
67	0x3d8cb35b	0.06870147
68	0x3ccb2128	0.024796084
69	0xbd1fb088	-0.038986713
70	0x3b7b12b5	0.003831071
71	0xbd3b8ac0	-0.04578662
72	0xbd867c87	-0.065667205
73	0x3d44a4a6	0.048008583
74	0xbd53aa17	-0.051675882
75	0xbcf1aa59	-0.029500173
76	0xbda72322	-0.08160998
77	0x3cfae896	0.030628484
78	0x3d18927a	0.037249066
79	0x3d6a9e30	0.057279766
80	0xbd8ae0d4	-0.06781164
81	0x3d7ef358	0.06224379
82	0xbc26d7ae	-0.010183258
83	0x3db1b6ae	0.086774215
84	0x3d8b4317	0.06799906
85	0xbd59ccfd	-0.053174008
86	0xbd985358	-0.074377716
87	0x3d119ec9	0.03555182
88	0xbd71553b	-0.058919173
89	0xbdb12076	-0.086487696
90	0x3d1c611d	0.038178552
91	0x3d633f83	0.05548049
92	0xbd2730dc	-0.04081808
93	0x3d211acf	0.039332207
94	0xbc3981ba	-0.011322433
95	0xbd7fce99	-0.062452886
96	0xbdab223f	-0.08356141
97	0x3d0c6fad	0.03428619
98	0xbd182b17	-0.03715047
99	0xbd2122f4	-0.039339975
100	0x3c49d653	0.012319165
101	0x3c5beaf5	0.013422717
102	0x3cea7a70	0.028622836
103	0x3da27d24	0.07934025
104	0x3d94f3bd	0.07273052
105	0xbcb94eef	-0.022620646
106	0xbda6a3df	-0.08136725
107	0xbd833f83	-0.06408598
108	0x3d28fe1e	0.04125797
109	0xbdc363ad	-0.09540496
110	0xbc54b64b	-0.012982915
111	0xbcb990bf	-0.022652028
112	0x3d868659	0.065685935
113	0x3d3fb6ee	0.046805315
114	0xbd8153a1	-0.06314779
115	0x3d64d8ac	0.055870697
116	0x3c6d3217	0.014477274
117	0x3d82fab7	0.06395476
118	0xbd9d3b70	-0.076773524
119	0x3c9dc64e	0.019259598
120	0xbda711c3	-0.08157685
121	0xbcab3877	-0.020900948
122	0x3ca68269	0.020325856
123	0x3da15156	0.07876842
124	0x3c7e1232	0.015507268
125	0xbd85918c	-0.065219015
126	0xbd9737f4	-0.07383719
127	0x3cd11bd0	0.025525957
128	0xb97c5387	-0.00024063709
129	0x3d4b7222	0.049669392
130	0x3c29cd5c	0.010363903
131	0xbd3cf700	-0.046133995
132	0xbc4c1a76	-0.012457481
133	0x3da115f7	0.078655176
134	0xbd59de97	-0.053190794
135	0xbc700518	-0.014649652
136	0xbd8728a1	-0.06599546
137	0xbd5bbaae	-0.05364483
138	0x3d408f1c	0.04701148
139	0xbda3780d	-0.07981882
140	0xbd9264ba	-0.07148118
141	0x3d1f0c63	0.038830172
142	0xbd9ee8eb	-0.07759269
143	0x3d604427	0.054752495
144	0xbc80b095	-0.0157092
145	0x3ce51c6f	0.02796766
146	0xbc45521f	-0.012043505
147	0x3cde50a0	0.027138054
148	0x3d32fee3	0.04370011
149	0x3c9f2673	0.019427514
150	0x3d7bd4c5	0.06148221
151	0xbdbbc53c	-0.09168479
152	0xbd8b8ce4	-0.06813982
153	0xbd3a4e19	-0.045484636
154	0xbcf875dd	-0.03032964
155	0x3cc47b67	0.023984624
156	0x3da1b270	0.078953624
157	0x3db511ed	0.0884131
158	0x3db207b3	0.08692875
159	0x3d0ea186	0.03482201
160	0xb93ada4d	-0.00017819666
161	0x3d17ac81	0.037029747
162	0x3d3f6c45	0.046734113
163	0x3d7244ef	0.05914777
164	0xbc7421c9	-0.014900633
165	0x3c9997f8	0.018749222
166	0x3d0be47c	0.034153447
167	0x3dab243f	0.08356523
168	0xbd1baabd	-0.038004626
169	0x3d6c56e6	0.05770006
170	0x3d987d83	0.074458145
171	0xbd395289	-0.045244727
172	0xbc808100	-0.015686512
173	0xbd0ac4bc	-0.033879027
174	0xbd9944c8	-0.07483822
175	0x3c8b174d	0.016978884
176	0x3c554b82	0.013018491
177	0xbd1fad91	-0.038983885
178	0x3d21da7e	0.03951501
179	0xbd050aa5	-0.032480855
180	0x3d3316c2	0.043722875
181	0xbd56aec7	-0.052412774
182	0x3cc9f709	0.024653928
183	0xbd6d0df8	-0.05787465
184	0xbd918b0c	-0.07106599
185	0x3cd72593	0.026263034
186	0x3c6bc117	0.014389298
187	0xbcd4e926	-0.02599008
188	0x3c32a4c5	0.010903542
189	0x3c7c2a29	0.015390911
190	0x3d2db68c	0.04241042
191	0x3c6e2ca8	0.014537014
192	0xbd64d5ef	-0.055868085
193	0xbd21778b	-0.039420646
194	0x3d174e03	0.036939632
195	0x3cfe6622	0.03105456
196	0xbd8c8293	-0.068608426
197	0x3d950981	0.07277203
198	0xbd06c567	-0.0329031
199	0xbdbdf8ad	-0.09275947
200	0x3caf2a66	0.021382522
201	0x3d1fea5a	0.039041854
202	0x3d1d9d43	0.038480055
203	0xbce626ab	-0.02809461
204	0xbd9ff75b	-0.07810851
205	0xbc2329a6	-0.00995866
206	0xbd5b1488	-0.053486377
207	0xbd4ceeef	-0.050032552
208	0x3cd64051	0.026153715
209	0xbd99feb4	-0.07519284
210	0xbd866d20	-0.06563783
211	0x3d8ea280	0.06964588
212	0xbd5e7e6c	-0.054319784
213	0x3d335695	0.043783743
214	0x3d7e51ee	0.062089853
215	0xbc02e71f	-0.007989674
216	0x3d05569b	0.032553297
217	0x3cff2127	0.031143738
218	0x3cd18ad0	0.025578886
219	0x3cac3adc	0.02102416
220	0x3cb0b519	0.02157073
221	0xbd80c597	-0.06287687
222	0xbd8dc503	-0.06922343
223	0xbd6571f1	-0.056016866
224	0xbd7af17e	-0.06126546
225	0xbd4cb8ae	-0.04998081
226	0xbd0a9758	-0.03383574
227	0xbd42b615	-0.04753693
228	0xbd5bb9fc	-0.053644165
229	0x3cc0ce41	0.02353585
230	0xbce295a6	-0.027659249
231	0xbc55f727	-0.013059414
232	0xbd39d516	-0.04536923
233	0x3d071f28	0.032988697
234	0xbd128664	-0.035772696
235	0xbc934b4b	-0.017980238
236	0x3d53c74a	0.05170373
237	0x3d8b5190	0.06802666
238	0x3c45f448	0.012082167
239	0x3db7bdf0	0.089717746
240	0x3d9f244b	0.07770594
241	0x3d829447	0.06375938
242	0xbbd7e18d	-0.006588167
243	0xbd75a705	-0.059973735
244	0x3d0ebef3	0.034850072
245	0xbc0f30d7	-0.008739672
246	0xbd8699f6	-0.065723345
247	0xbd90d4ec	-0.070718616
248	0xbd86c081	-0.06579686
249	0xbcf95dc7	-0.030440224
250	0xbd735788	-0.05940965
251	0xbd6329d7	-0.055459823
252	0x3d617878	0.05504653
253	0x3d9086e2	0.07056977
254	0x3d3840ea	0.044983782
255	0x3d8c843a	0.06861158

block2.bnorm_2.weight f4 [75]
0	0x3f7c5640	0.9856911
1	0x3f7d5099	0.9895111
2	0x3f7dd8e5	0.9915908
3	0x3f7d2532	0.9888488
4	0x3f82dafc	1.0223079
5	0x3f81f19d	1.015186
6	0x3f837b72	1.0272048
7	0x3f8020c9	1.0010005
8	0x3f840149	1.0312892
9	0x3f7b5877	0.9818186
10	0x3f7e641d	0.9937151
11	0x3f7f164d	0.99643403
12	0x3f7b905c	0.9826715
13	0x3f81bf5f	1.0136527
14	0x3f7d4c43	0.9894449
15	0x3f820159	1.0156661
16	0x3f81a8c1	1.0129625
17	0x3f7fa155	0.9985555
18	0x3f7d5c8c	0.9896934
19	0x3f7aee4d	0.9801987
20	0x3f812e89	1.0092326
21	0x3f811c46	1.0086753
22	0x3f7afae5	0.98039085
23	0x3f7e9afb	0.9945523
24	0x3f8277b1	1.0192777
25	0x3f79de9c	0.976053
26	0x3f800b54	1.0003457
27	0x3f7f08bc	0.996227
28	0x3f7f4c2b	0.997256
29	0x3f80c34a	1.0059597
30	0x3f811647	1.0084924
31	0x3f7d09cd	0.9884308
32	0x3f81b185	1.01323
33	0x3f81c3ba	1.0137856
34	0x3f7bcd67	0.98360294
35	0x3f7f5195	0.9973386
36	0x3f80bf56	1.0058391
37	0x3f7e5c3c	0.9935949
38	0x3f7e9641	0.9944802
39	0x3f7ad42a	0.97979987
40	0x3f7d8c07	0.9904179
41	0x3f8020fc	1.0010066
42	0x3f7f3c6f	0.9970159
43	0x3f811c78	1.0086813
44	0x3f7f1104	0.9963534
45	0x3f7bfa07	0.98428386
46	0x3f79e54c	0.97615504
47	0x3f8093ba	1.0045083
48	0x3f7de4d6	0.991773
49	0x3f7f7e29	0.9980188
50	0x3f821709	1.016328
51	0x3f80ca0c	1.006166
52	0x3f817c34	1.0116029
53	0x3f8241c1	1.0176316
54	0x3f7cd284	0.9875872
55	0x3f7da70d	0.99083024
56	0x3f813745	1.0094992
57	0x3f80b869	1.0056278
58	0x3f822156	1.0166423
59	0x3f7e3236	0.99295366
60	0x3f808038	1.0039129
61	0x3f810563	1.0079769
62	0x3f7c7639	0.98617893
63	0x3f7eed89	0.995812
64	0x3f822ef2	1.0170577
65	0x3f7e75ce	0.99398506
66	0x3f80164d	1.0006806
67	0x3f83288f	1.0246753
68	0x3f80f9c3	1.0076221
69	0x3f802538	1.0011358
70	0x3f7df863	0.99207133
71	0x3f81a1ad	1.0127465
72	0x3f818a6f	1.0120372
73	0x3f80327f	1.001541
74	0x3f7eb0cd	0.99488527

block2.bnorm_2.bias f4 [75]
0	0xbaf178ef	-0.0018422882
1	0xbc6ed8bb	-0.01457804
2	0xbb5e4e7b	-0.003392129
3	0x3c17d0ab	0.009266059
4	0x3ceea8b5	0.02913318
5	0xbd3523d6	-0.04422363
6	0x3b208d27	0.0024498196
7	0xbcb1db92	-0.021711145
8	0xbc7c3a92	-0.015394824
9	0xbcf420cc	-0.029800795
10	0xbb7f777b	-0.0038981128
11	0xbc39d7e2	-0.011342974
12	0xbcb7edde	-0.022452291
13	0x3b3986ce	0.002830911
14	0xbceefc79	-0.029173123
15	0xbca38d27	-0.019964768
16	0xbc953dc5	-0.01821793
17	0xbd14945e	-0.036274306
18	0xbc75405f	-0.014968961
19	0xbc61ea1d	-0.013788727
20	0xbd0961c2	-0.033540495
21	0xbcc05d37	-0.023481948
22	0x3b016ebd	0.0019749843
23	0x3b8e08d0	0.0043345466
24	0xbd1d0de7	-0.038343336
25	0xbd071ae8	-0.032984644
26	0xbbe25c5a	-0.006907982
27	0xbb36ecce	-0.0027912143
28	0xbd335368	-0.043780714
29	0xbcf3c275	-0.02975581
30	0xbce40ba4	-0.027837582
31	0xbc437516	-0.011929771
32	0x3c71e734	0.014764596
33	0xbd09d50b	-0.03365044
34	0xbbd1dbff	-0.0064043994
35	0xbb6e2bfa	-0.003634213
36	0xbd03aa0d	-0.032144595
37	0x3c25a7e4	0.010110829
38	0x39e87031	0.00044334077
39	0xbc59d2c0	-0.013294876
40	0xbc645c65	-0.013938044
41	0x3c3a17c4	0.011358205
42	0xbc8d7663	-0.017268365
43	0xbc3ca71f	-0.011514454
44	0xbc1f8833	-0.009737062
45	0x3b4dec51	0.0031421373
46	0xbc74dbc5	-0.014944975
47	0xbcaa12ec	-0.020760976
48	0xbcec1d7f	-0.028822659
49	0xbc9cbbb8	-0.01913248
50	0xbb731a74	-0.0037094625
51	0x3c94704f	0.01811996
52	0xbb8b7427	-0.00425579
53	0x3cffc11a	0.031220008
54	0xbc51d9d2	-0.01280828
55	0xbcb43600	-0.021998405
56	0x3b36bef9	0.0027884825
57	0x3b9192ab	0.004442533
58	0xbb598abd	-0.0033194267
59	0xbc91f0e7	-0.017815067
60	0xba8a5646	-0.0010554276
61	0x3c280612	0.0102553535
62	0x3b12d13e	0.002240255
63	0x3c77d08d	0.015125406
64	0x3d413761	0.047171954
65	0xbcb1a143	-0.02168334
66	0xbc1fffc3	-0.009765568
67	0x3d4a8286	0.049440883
68	0x3d01780d	0.03160863
69	0xbbaa7f5f	-0.005203172
70	0xbc808d0e	-0.01569226
71	0x3c43e3c5	0.01195616
72	0xba82546e	-0.0009943375
73	0x3b9ba9dc	0.0047504734
74	0xbc38ebd1	-0.011286692

block2.bnorm_2.running_mean f4 [75]
0	0xbec5af54	-0.38610327
1	0xbe0eca44	-0.13944346
2	0xbf28b33a	-0.6589848
3	0xbeefc939	-0.46833208
4	0x3e328331	0.17432858
5	0x3ea994c4	0.33121312
6	0x3e35f1ac	0.17767972
7	0x3f35610c	0.70851207
8	0x3d5c290c	0.053750083
9	0xbe5afec8	-0.21386254
10	0xbf3edc95	-0.7455533
11	0xbe6a47ed	-0.22879
12	0xbf1159b0	-0.5677748
13	0x3e4bc3d8	0.19898927
14	0xbd182a9a	-0.037150003
15	0xbe99c294	-0.30031264
16	0xbd6afb82	-0.057368763
17	0x3eceaed3	0.40367755
18	0x3edf6d0b	0.4363788
19	0xbf45a41e	-0.7720355
20	0x3e43105e	0.19049212
21	0xbe8387ab	-0.25689444
22	0x3d4d87a8	0.0501782
23	0xbea5c5fc	-0.32377613
24	0xbda23132	-0.079195395
25	0x3ea1ae4e	0.31578296
26	0x3e35b83b	0.1774606
27	0x3da12e51	0.07870162
28	0xbdf03e05	-0.11730579
29	0x3cbfb853	0.023403322
30	0xbdfdd5b7	-0.123942785
31	0xbbcaa760	-0.0061845034
32	0x3f1844e6	0.5948013
33	0xbe9c88e4	-0.3057319
34	0x3e52edb9	0.20598496
35	0x3e4fc6d1	0.20290686
36	0xbb58d23d	-0.0033084296
37	0x3cc6a251	0.02424732
38	0x3ee8c461	0.45462325
39	0xbeb664c4	-0.35623753
40	0x3eba8274	0.36427653
41	0x3ef9de1b	0.48802266
42	0xbed3f089	-0.4139445
43	0xbe2cf51a	-0.16890374
44	0x3dbb1a8e	0.09135924
45	0xbe232537	-0.15932165
46	0xbe8e1a09	-0.27754238
47	0x3ecf2603	0.40458688
48	0xbf0f48ec	-0.55970645
49	0x3e35cde4	0.17754322
50	0x3f1e0a68	0.6173463
51	0x3b561818	0.003266817
52	0xbeb9889d	-0.3623704
53	0xbe7c027e	-0.24610326
54	0x3e9bca3b	0.30427727
55	0x39fc041b	0.00048068244
56	0x3c773810	0.01508905
57	0x3dddd350	0.1083132
58	0x3f268473	0.6504585
59	0xbc585ddb	-0.013205971
60	0xbec211c1	-0.3790417
61	0xbf187ea2	-0.59568226
62	0x3dc8fd95	0.09813992
63	0xbec54fc1	-0.3853741
64	0x3e9a39ef	0.30122325
65	0x3e9d8913	0.30768642
66	0x3eb062b7	0.34450313
67	0xbea3a5e6	-0.31962508
68	0xbe430dec	-0.1904828
69	0x3f0dfdb2	0.55465233
70	0x3e1470f2	0.1449621
71	0x3d5348e3	0.051583182
72	0xbf15ce51	-0.5851794
73	0xbebfba4b	-0.37446818
74	0x3d92bda5	0.07165078

block2.bnorm_2.running_var f4 [75]
0	0x3dd7c3db	0.10535403
1	0x3edf1b75	0.43575636
2	0x3e1c971b	0.15292017
3	0x3ecece46	0.4039175
4	0x3e7c7002	0.24652103
5	0x3df83da7	0.12121134
6	0x3d7e491b	0.062081438
7	0x3e89ae8e	0.26890987
8	0x3e805603	0.25065622
9	0x3e10a9d5	0.14127286
10	0x3eaa4220	0.33253574
11	0x3f29ee29	0.6637903
12	0x3ecf21a0	0.4045534
13	0x3e535190	0.20636582
14	0x3e803b67	0.2504532
15	0x3e27bab2	0.16379812
16	0x3e21b091	0.15790011
17	0x3dc4b3d7	0.09604614
18	0x3ee5cc30	0.44882345
19	0x3e3b4f42	0.18291953
20	0x3d720d1f	0.059094545
21	0x3dc9c046	0.098511264
22	0x3e3601d2	0.17774132
23	0x3e2b382b	0.16720645
24	0x3dcf18a2	0.1011212
25	0x3dc9a819	0.09846515
26	0x3de3d579	0.11124701
27	0x3e590030	0.21191478
28	0x3dfaa27f	0.12238025
29	0x3deeb450	0.11655486
30	0x3d078b08	0.033091575
31	0x3e868421	0.2627268
32	0x3d8c49cd	0.06850014
33	0x3d1cc525	0.03827395
34	0x3ed19e03	0.40940866
35	0x3f2f7cc8	0.68549776
36	0x3dd573fc	0.10422513
37	0x3ef99231	0.48744348
38	0x3eaaeaf0	0.33382368
39	0x3ec8063b	0.39067253
40	0x3ea2a4d7	0.31766388
41	0x3efa9f2e	0.4894957
42	0x3da42833	0.0801548
43	0x3d259cf6	0.040432893
44	0x3ed6c8e1	0.41950133
45	0x3ed0bb1a	0.40767747
46	0x3ebc13cd	0.36733857
47	0x3ecd15c9	0.40055683
48	0x3e76b334	0.24091798
49	0x3e921ec8	0.2853911
50	0x3ebcb2a8	0.36855054
51	0x3f2b028a	0.6680075
52	0x3e713a15	0.23557313
53	0x3e0eaac2	0.13932326
54	0x3f8b3afd	1.0877377
55	0x3ea7f619	0.32804945
56	0x3ec1decb	0.3786529
57	0x3ef43efb	0.477043
58	0x3fcba97a	1.5911095
59	0x3f808903	1.0041813
60	0x3ef28f32	0.47374874
61	0x3daeff72	0.08544816
62	0x3f16a315	0.58842593
63	0x3e19b26b	0.15009467
64	0x3f60ec29	0.8786035
65	0x3e82bfda	0.25536996
66	0x3f3d13bc	0.7385824
67	0x3e3c3665	0.18380125
68	0x3f819e57	1.0126446
69	0x3edbf8d8	0.4296329
70	0x3d795e40	0.0608809
71	0x3ec13a16	0.3773963
72	0x3eab6f51	0.33483365
73	0x3ebb4b75	0.36581007
74	0x3e4f8d44	0.20268732

block3.conv_3.weight f4 [150, 15, 10]
0	0x3d6341fb	0.055482846
1	0x3b704271	0.0036660696
2	0xbd5d7083	-0.054062378
3	0xbb74b22f	-0.003733765
4	0xbd1530ef	-0.03642362
5	0x3d43de4b	0.047819417
6	0xbbb3a5f9	-0.005482432
7	0xbd1b1a9e	-0.03786718
8	0xbd46b2e2	-0.04851044
9	0x3c212e79	0.00983774
10	0xbd20008d	-0.039063025
11	0x3aa034f1	0.0012222809
12	0xbd49601e	-0.04916393
13	0x3d433b12	0.047663756
14	0x3c324993	0.010881799
15	0xbd74c238	-0.059755534
16	0xbc211d94	-0.009833712
17	0x3d334918	0.04377088
18	0x3c30fefe	0.010802982
19	0x3d22850e	0.039677672
20	0x3cf3e7a6	0.029773545
21	0xbd5cd057	-0.053909626
22	0xbd3f1172	-0.046647497
23	0xbc1ea438	-0.0096827075
24	0x3d030169	0.031983767
25	0xbbaff3c8	-0.005369637
26	0xbc342d4d	-0.010997129
27	0xbd28b3d7	-0.041187134
28	0xbd3da144	-0.046296373
29	0x3d5291ec	0.051408693
30	0xbd0ebd0e	-0.034848265
31	0xbc2270c5	-0.009914582
32	0xbd093eb0	-0.03350705
33	0xbd66383e	-0.05620598
34	0xbd3a9f05	-0.04556181
35	0x3ce585d6	0.02801792
36	0x3b83e2bd	0.004024832
37	0xbcf925e6	-0.03041358
38	0xbd61cb59	-0.055125568
39	0x3d065b0c	0.032801673
40	0x3c35e3ad	0.011101645
41	0x3d2c86cf	0.04212075
42	0x3d356143	0.04428221
43	0xbc03e489	-0.0080500925
44	0xba1a92d6	-0.0005896514
45	0x3cc8fb39	0.024533855
46	0x3d0e460a	0.034734763
47	0xbd2ecb25	-0.042674202
48	0x3c9fd380	0.01951003
49	0xbd9ef969	-0.07762415
50	0xbd5270f0	-0.051377237
51	0x3c9ac2f3	0.018891787
52	0x3cedbdbc	0.029021136
53	0x3b1ced62	0.0023945202
54	0x3d8297c9	0.06376607
55	0xbd1e6b15	-0.03867634
56	0xbd043b8c	-0.03228335
57	0x3d1bd3ed	0.038043905
58	0x3cb22a4f	0.02174869
59	0xbd810a9e	-0.06300853
60	0xbd2727e5	-0.04080953
61	0xbc548cdb	-0.012973036
62	0xbd8fee01	-0.070278175
63	0xbd090b3d	-0.033457983
64	0x3bd6b083	0.0065518036
65	0x3d2d15ab	0.042256992
66	0xbd941183	-0.072299026
67	0xbc73a51b	-0.014870907
68	0x3c299a3b	0.010351713
69	0xbd78aef7	-0.060713734
70	0xbc42e1fa	-0.011894697
71	0xbc714961	-0.014726968
72	0xbd832533	-0.064035796
73	0xbcf22870	-0.029560298
74	0x3d85907f	0.06521701
75	0xbce8082c	-0.02832421
76	0x3cdbe562	0.026842777
77	0xbd8dfbd8	-0.06932801
78	0xbd110ecc	-0.035414502
79	0xbcf80c83	-0.030279404
80	0x3cf239bd	0.029568547
81	0x3a8bc55b	0.0010663675
82	0xbd4c05e4	-0.049810305
83	0xbd86c5f2	-0.06580724
84	0x3cb430da	0.02199595
85	0x3c6598a2	0.014013441
86	0x3cd45c52	0.025922928
87	0xbd05cd76	-0.032666646
88	0xbd6cd81c	-0.057823285
89	0x3d1971a4	0.03746189
90	0x3d135f3d	0.0359795
91	0xbd7830f3	-0.060593557
92	0xbc9495f3	-0.018137908
93	0xbc8bb324	-0.017053194
94	0x3d597fe3	0.053100478
95	0xbb9395a0	-0.0045039207
96	0x3c40eeb3	0.01177566
97	0x3d3c9153	0.04603703
98	0x3d0ff2a4	0.03514351
99	0xbd0490b9	-0.03236458
100	0x3c943815	0.018093148
101	0x3c81c31a	0.015840102
102	0x3ccc25cd	0.024920369
103	0xbd911741	-0.070845135
104	0x3d41014e	0.047120385
105	0xbb5e69ed	-0.0033937648
106	0xbd2e91d0	-0.042619526
107	0xbd13cf4c	-0.036086366
108	0xba3bc71f	-0.0007163155
109	0xbd3696a0	-0.04457724
110	0x3d3b81b5	0.045777995
111	0xbc83a716	-0.016070884
112	0xb9fd1773	-0.0004827339
113	0x3ca78c6e	0.020452704
114	0x3d747c51	0.05968887
115	0x3d014a0e	0.031564765
116	0x3bd94a70	0.006631188
117	0xbd1dffff	-0.038574215
118	0x3c8591a9	0.016304808
119	0x3d26b31a	0.04069815
120	0x3c1fbdc1	0.009749831
121	0xbd405525	-0.0469562
122	0x3c8d437c	0.017244093
123	0x3d1baa03	0.038003933
124	0xbd2ef7a8	-0.042716652
125	0x3d134aca	0.035959996
126	0x3d44ed50	0.04807788
127	0x3cc919fd	0.024548525
128	0xbd4362ae	-0.04770153
129	0x3b71b09c	0.003687895
130	0x3c88a1f8	0.016678795
131	0xbaec2150	-0.0018015299
132	0xbd6a2c43	-0.057171118
133	0xbc506efc	-0.012721773
134	0x3c4fe6cb	0.012689303
135	0x3c29db85	0.010367279
136	0xbc97f5dc	-0.018549852
137	0x3a642152	0.0008702475
138	0xbd931f1e	-0.071836695
139	0x3d184749	0.037177358
140	0x3cf4e77f	0.029895542
141	0x3b6173b7	0.0034401247
142	0x3bf4fa5d	0.0074761347
143	0xbcc95213	-0.024575269
144	0x3cd54d09	0.02603771
145	0xbc396720	-0.011316091
146	0xbcfd2f09	-0.030906217
147	0x3d371290	0.044695437
148	0x3a91319b	0.0011077406
149	0xbd85fe5d	-0.065426566
150	0xbc71a2df	-0.014748304
151	0x3d2c996c	0.042138502
152	0x3a5d3649	0.000843857
153	0xbcf127c9	-0.029437916
154	0xbd8d3212	-0.06894316
155	0xbc6e0740	-0.014528096
156	0x3c118a8b	0.008883129
157	0x3c0b4b55	0.008501847
158	0xbd45ccb6	-0.04829093
159	0xbd84b841	-0.06480456
160	0xbcfcba16	-0.030850451
161	0x3c8917a2	0.016734902
162	0x3d55be9d	0.052183736
163	0xbd0689f7	-0.032846417
164	0xbc16362c	-0.009168189
165	0xbc5a3594	-0.013318438
166	0xbca6ea77	-0.020375473
167	0x3cd838ae	0.026394214
168	0x3d3a87f9	0.04553983
169	0x3d90b4a0	0.070657015
170	0xbd6478e1	-0.05577934
171	0xbd10f734	-0.035392
172	0xbbb3b8f4	-0.0054846946
173	0xbcae4d80	-0.02127719
174	0x3cd02662	0.025408927
175	0xbd63e730	-0.0556404
176	0x3c196d17	0.009364388
177	0xbcd88114	-0.026428737
178	0xbca8a553	-0.020586645
179	0xbc66122a	-0.014042417
180	0xbc67ed23	-0.014155659
181	0xbc9c4fab	-0.019080957
182	0xbd044924	-0.032296315
183	0x3c392345	0.011299913
184	0x3c0aa7c7	0.008462853
185	0xbbc97354	-0.0061477814
186	0xbce19518	-0.027536914
187	0xbd50c22b	-0.050966423
188	0x3d35dbf0	0.044399202
189	0x3bf257fd	0.007395743
190	0xbbfe3cfc	-0.0077587347
191	0xbbdde19a	-0.0067712786
192	0x3c2d7960	0.01058802
193	0x3c6d4bc1	0.014483393
194	0x3aa27504	0.0012394493
195	0xbcaa5b47	-0.020795478
196	0x3d1cee4c	0.038313195
197	0x3b45c2db	0.0030175957
198	0x3c036435	0.008019497
199	0xbcecfb4e	-0.028928425
200	0xbd3a4dab	-0.045484226
201	0xbd514a59	-0.051096294
202	0xb7a9be86	-2.023509e-05
203	0xbcff619b	-0.031174472
204	0x3da30b55	0.07961146
205	0xbcfd89ec	-0.030949555
206	0xbd30c996	-0.043160997
207	0x3d1e16fe	0.038596146
208	0x3d81a73d	0.06330726
209	0xbbffc9f1	-0.0078060557
210	0x3d820c95	0.06350056
211	0xbc9883e4	-0.018617578
212	0xbd28b294	-0.04118593
213	0xbc747141	-0.01491958
214	0x3c293528	0.010327615
215	0x3da8343d	0.08213089
216	0xbcf38e67	-0.029730989
217	0xbbbb0ed4	-0.0057085548
218	0xbba31dbb	-0.0049779094
219	0x3c82bfa8	0.01596053
220	0xbc0103e4	-0.007874463
221	0x3c223458	0.009900175
222	0xbd4c39b9	-0.049859736
223	0xbd4787dc	-0.04871355
224	0xbcefa7b4	-0.029254772
225	0xbd0c4020	-0.034240842
226	0x3c4795ae	0.0121816825
227	0xbd34b3ef	-0.04411691
228	0xbd3d51a4	-0.046220437
229	0x3d64f02c	0.05589311
230	0xbbcf560c	-0.0063273963
231	0x3c67c59a	0.014146233
232	0xbcd38ff6	-0.025825482
233	0x3c2c401f	0.010513335
234	0x3d28095f	0.041024562
235	0x3d5034a5	0.050831456
236	0xbcacac76	-0.02107833
237	0x3cea700d	0.028617883
238	0xbba0c1b6	-0.0049059046
239	0x3c585444	0.013203684
240	0x3c8dd0e2	0.017311517
241	0x3cbc5dd6	0.022993963
242	0xbda2c150	-0.07947028
243	0x39d048db	0.00039727133
244	0xbd37f904	-0.044915214
245	0x3c85533f	0.016275046
246	0x3d1d6df3	0.038434934
247	0xbd574cf8	-0.052563637
248	0x3d3301e9	0.043702994
249	0x3d819d78	0.06328863
250	0xb9851c53	-0.0002538884
251	0xbd429d2c	-0.047513172
252	0xbd867ba1	-0.06566549
253	0x3c7fe37f	0.015618204
254	0xbced867f	-0.028994797
255	0xbd3c9bc4	-0.046046987

block3.bnorm_3.weight f4 [150]
0	0x3f80ca06	1.0061653
1	0x3f8112b4	1.0083833
2	0x3f7b271c	0.9810655
3	0x3f7e4782	0.9932786
4	0x3f7f31c6	0.99685323
5	0x3f804893	1.0022148
6	0x3f828f6f	1.0200022
7	0x3f7b4c8c	0.98163676
8	0x3f7c544d	0.9856613
9	0x3f83a55f	1.0284842
10	0x3f800cce	1.0003908
11	0x3f854ed1	1.0414678
12	0x3f80059d	1.0001713
13	0x3f80016b	1.0000433
14	0x3f7db5fb	0.99105805
15	0x3f785d79	0.9701763
16	0x3f7e213e	0.99269474
17	0x3f7e62ea	0.9936968
18	0x3f80b6bf	1.005577
19	0x3f7bbb2c	0.98332477
20	0x3f80dfaf	1.0068263
21	0x3f830452	1.0235693
22	0x3f7a36ac	0.9773967
23	0x3f80126c	1.0005622
24	0x3f7fd1cd	0.99929506
25	0x3f81b3b3	1.0132965
26	0x3f7e4b0b	0.99333256
27	0x3f82b9c3	1.021294
28	0x3f7bf709	0.9842382
29	0x3f7e8e10	0.9943552
30	0x3f805861	1.0026971
31	0x3f7de68a	0.991799
32	0x3f803b90	1.0018177
33	0x3f81362f	1.009466
34	0x3f81663e	1.0109327
35	0x3f7dd491	0.99152476
36	0x3f80a0c5	1.0049063
37	0x3f7fa434	0.9985993
38	0x3f81b80a	1.0134289
39	0x3f810e23	1.0082439
40	0x3f820a7e	1.0159452
41	0x3f817da2	1.0116465
42	0x3f830540	1.0235977
43	0x3f7dbea2	0.9911901
44	0x3f7ef216	0.99588144
45	0x3f7dc118	0.9912276
46	0x3f829694	1.0202203
47	0x3f7f0a3d	0.99625
48	0x3f81afe4	1.0131803
49	0x3f80adf7	1.005309
50	0x3f7c9c58	0.9867606
51	0x3f7e9b51	0.99455744
52	0x3f7e8ac5	0.99430496
53	0x3f7b1857	0.98084015
54	0x3f7a95bc	0.97884727
55	0x3f7f93b7	0.9983477
56	0x3f7e7e46	0.9941143
57	0x3f80d462	1.0064814
58	0x3f81058e	1.007982
59	0x3f7eebc2	0.9957849
60	0x3f816aa6	1.0110672
61	0x3f7b0b35	0.98063976
62	0x3f8097fd	1.0046383
63	0x3f8176ad	1.0114342
64	0x3f80e57f	1.0070037
65	0x3f823238	1.0171576
66	0x3f7fa785	0.9986499
67	0x3f7e90bf	0.99439615
68	0x3f7bfe47	0.9843487
69	0x3f7d3232	0.98904717
70	0x3f7e61a8	0.9936776
71	0x3f80c302	1.0059512
72	0x3f7f9246	0.9983257
73	0x3f7e059b	0.99227303
74	0x3f829ee4	1.020474
75	0x3f7ffcda	0.99995196
76	0x3f7e0dee	0.99240005
77	0x3f8047e1	1.0021936
78	0x3f82958e	1.020189
79	0x3f8032ff	1.0015563
80	0x3f7f61ce	0.99758613
81	0x3f7c7e59	0.9863029
82	0x3f7e5032	0.9934112
83	0x3f7cda30	0.9877043
84	0x3f81c211	1.0137349
85	0x3f79f847	0.97644466
86	0x3f812f86	1.0092628
87	0x3f817c7b	1.0116113
88	0x3f7f9146	0.99831045
89	0x3f80623c	1.0029979
90	0x3f7f2988	0.99672747
91	0x3f808180	1.003952
92	0x3f81dfec	1.014646
93	0x3f826645	1.018746
94	0x3f7f1c84	0.99652886
95	0x3f7d58eb	0.98963803
96	0x3f7e1f29	0.99266297
97	0x3f824f39	1.0180427
98	0x3f80a89a	1.0051453
99	0x3f7c5166	0.98561704
100	0x3f7f4596	0.99715555
101	0x3f7bcab3	0.9835617
102	0x3f7f2a8f	0.99674314
103	0x3f7c576e	0.9857091
104	0x3f80b517	1.0055264
105	0x3f81fd57	1.0155438
106	0x3f815b26	1.0105941
107	0x3f8007c9	1.0002376
108	0x3f7d19e9	0.9886766
109	0x3f81257d	1.0089566
110	0x3f810925	1.0080916
111	0x3f81568f	1.010454
112	0x3f7eb963	0.9950163
113	0x3f81b47d	1.0133206
114	0x3f7e0054	0.9921925
115	0x3f793403	0.9734499
116	0x3f7d2af3	0.9889366
117	0x3f7fa502	0.99861157
118	0x3f826dd6	1.0189769
119	0x3f775e7b	0.9662854
120	0x3f804954	1.0022378
121	0x3f7f074f	0.9962053
122	0x3f7fb1d2	0.9988071
123	0x3f8114cc	1.0084472
124	0x3f7c3aef	0.98527426
125	0x3f8103e4	1.0079312
126	0x3f7d9e6a	0.99069846
127	0x3f7f4d88	0.9972768
128	0x3f805f10	1.0029011
129	0x3f7fae57	0.99875396
130	0x3f791947	0.97304195
131	0x3f803ba4	1.0018201
132	0x3f7ccdbd	0.9875143
133	0x3f81fefd	1.0155941
134	0x3f811360	1.0084038
135	0x3f7e5c03	0.9935915
136	0x3f7e00ac	0.99219775
137	0x3f7e1303	0.9924776
138	0x3f850bf6	1.0394275
139	0x3f8135df	1.0094565
140	0x3f81ca9a	1.0139954
141	0x3f7ee0da	0.99561846
142	0x3f792411	0.9732066
143	0x3f81a3d5	1.0128123
144	0x3f7ede52	0.99557984
145	0x3f801e1e	1.0009191
146	0x3f851a5f	1.0398673
147	0x3f84997d	1.0359341
148	0x3f7daede	0.9909495
149	0x3f7e7bc9	0.9940763

block3.bnorm_3.bias f4 [150]
0	0x3b01a343	0.001978115
1	0xbd262bb7	-0.040569033
2	0xbd0a24b7	-0.03372642
3	0xbbbadbfa	-0.005702493
4	0xbcfe2647	-0.031024111
5	0xbcbeb539	-0.023279773
6	0xbb3cf7c8	-0.0028834213
7	0xbc8f9883	-0.017528778
8	0xbd44799d	-0.047967542
9	0xbc903fdc	-0.017608576
10	0xbd8f9a55	-0.070118584
11	0xbd72154a	-0.059102334
12	0xbcc297ae	-0.023753967
13	0xbc759628	-0.014989413
14	0xbd2d1edc	-0.042265758
15	0xbcfe648e	-0.031053808
16	0xbcc5c68e	-0.02414253
17	0xbc6d7927	-0.014494217
18	0xbcc4ac9d	-0.02400809
19	0xbd29d7c4	-0.041465536
20	0xbc9820db	-0.018570354
21	0xbd5ffb0d	-0.05468278
22	0xbca49950	-0.020092636
23	0xbc94a684	-0.018145807
24	0xbcd4e406	-0.025987636
25	0xbc89d95e	-0.016827282
26	0xbce3d6e7	-0.027812434
27	0xbc89d6ef	-0.016826121
28	0xbc3e70cc	-0.011623573
29	0xbcbe19b9	-0.023205625
30	0x3cdeb7be	0.027187224
31	0xbbd8d5b4	-0.0066172723
32	0xbceacc37	-0.02866183
33	0x3cbfff35	0.023437122
34	0xbcbcd5d7	-0.023051186
35	0x3c5d8e53	0.013522702
36	0x3c384d34	0.011248875
37	0xbc9c089f	-0.01904708
38	0xbcb944c3	-0.022615796
39	0xbd134018	-0.035949796
40	0x3cdd1afc	0.026990406
41	0xbc5fc334	-0.01365738
42	0x3c4a7d08	0.012358911
43	0xbcd5d924	-0.026104517
44	0x3bd61eba	0.0065344246
45	0xbd2d8120	-0.04235947
46	0x3c0e7655	0.008695205
47	0xbd31d948	-0.043420106
48	0xbd1c1ed9	-0.038115356
49	0x3d04b0bd	0.032395113
50	0xbd1462c7	-0.036227014
51	0xbc948c55	-0.018133322
52	0xbc28a8ab	-0.01029412
53	0xbcc09d92	-0.023512635
54	0xbbc23a08	-0.005927328
55	0xbca4ecf3	-0.020132517
56	0xbd289f3a	-0.041167475
57	0x3d084515	0.033269007
58	0xbbd4656f	-0.0064818184
59	0xbcdda3bc	-0.027055614
60	0xbba74da0	-0.005105689
61	0xbc7f0175	-0.015564312
62	0xbc9149eb	-0.017735442
63	0xbc7ea968	-0.015543319
64	0x3b2d7b7d	0.002647131
65	0xbcb0cc7d	-0.021581883
66	0x3c878434	0.016542532
67	0xbc69d598	-0.014272116
68	0xbc9aa042	-0.018875245
69	0xbc451adb	-0.012030329
70	0x3b44b077	0.0030012408
71	0x3bdd250c	0.006748801
72	0xbc33ee81	-0.010982157
73	0xbc1da9e4	-0.009623025
74	0xbc2d10fc	-0.010563131
75	0xbc8dcc67	-0.01730938
76	0xbccc3619	-0.02492814
77	0xbc6373c4	-0.013882581
78	0x3b3bf966	0.0028682589
79	0xbc8233f5	-0.015893916
80	0xbc8512cf	-0.01624432
81	0xbcd97f0d	-0.02654984
82	0xbb86a581	-0.004109085
83	0xbc506952	-0.012720423
84	0x3c20e29f	0.009819656
85	0xbcb2c76d	-0.02182361
86	0x3c0711d1	0.008243994
87	0xbbec594c	-0.0072127935
88	0x3a8bb1ee	0.0010657886
89	0xbbe87e6a	-0.007095148
90	0xbb561f8d	-0.0032672614
91	0xbcb1c03a	-0.021698106
92	0xbbe7d0b0	-0.007074438
93	0xbcd2ca48	-0.02573122
94	0xbcd44582	-0.02591205
95	0x3bd7d3d9	0.0065865335
96	0xbbe35993	-0.0069381683
97	0xbc52962d	-0.0128531875
98	0xbc9b7fcc	-0.018981837
99	0xbb08965a	-0.002084157
100	0xbc5910c9	-0.013248631
101	0xbc954031	-0.018219085
102	0x3b236c0e	0.0024936232
103	0xbd0866e1	-0.033301238
104	0xbae785c3	-0.0017663765
105	0xbc0902e6	-0.008362507
106	0xbc9b7fe0	-0.018981874
107	0xbc2077c8	-0.009794183
108	0xbcc4c685	-0.024020443
109	0xbc1d7d30	-0.009612367
110	0x3c3f70c4	0.0116846
111	0x3c5c23c5	0.0134362625
112	0xbd314733	-0.04328079
113	0xbcc6982a	-0.02424248
114	0xbc1a38f8	-0.0094129965
115	0xba8f5312	-0.0010934791
116	0xbc8d4328	-0.017243937
117	0x3c7b5498	0.015339993
118	0xbcfc7f34	-0.030822374
119	0xbd1711fc	-0.036882386
120	0x3b6b62fe	0.0035917158
121	0x3c4ffcb5	0.012694527
122	0xbc93100e	-0.017951991
123	0x3c892500	0.016741276
124	0xbaf00170	-0.0018310975
125	0x3c72fc88	0.014830716
126	0xbc3440bf	-0.011001765
127	0xbc4ca6fa	-0.012490982
128	0x3c247df6	0.010039797
129	0xbc5c892e	-0.013460441
130	0xbc6f91df	-0.014622181
131	0xbc571c4d	-0.013129306
132	0xbc1b8487	-0.009492046
133	0xba9254fd	-0.0011164244
134	0x3b77ccf3	0.0037811368
135	0xbbfc0b51	-0.0076917787
136	0xb8acc4be	-8.238245e-05
137	0xbc5169e9	-0.012781599
138	0x3ce24def	0.027625052
139	0x3b7a8de0	0.0038231537
140	0x3c9ec9c3	0.019383317
141	0xbba4cda1	-0.0050293957
142	0xbc27da2b	-0.010244886
143	0x3a110250	0.00055316556
144	0xbc244a82	-0.01002753
145	0x3bd4097b	0.0064708567
146	0xbc43fbad	-0.01196186
147	0x3ceff004	0.029289253
148	0xbba49206	-0.00502229
149	0x3b8ac023	0.0042343303

block3.bnorm_3.running_mean f4 [150]
0	0xbed8b7bc	-0.42327678
1	0xbdcb1854	-0.099167496
2	0x3d453e5a	0.048155166
3	0x3e737718	0.237759
4	0x3d4f0d54	0.05054982
5	0x3eb4b506	0.3529436
6	0x3c543ad2	0.012953477
7	0xbdc3eec2	-0.09567024
8	0x3ec6d705	0.38835922
9	0xbe11621c	-0.14197582
10	0x3f34875b	0.70519036
11	0x3d018222	0.031618245
12	0xbcc4362f	-0.023951618
13	0xbe317394	-0.17329246
14	0xbc85cd32	-0.016333196
15	0xbe4da0e8	-0.20080912
16	0x3e964189	0.29346874
17	0xbea24292	-0.31691414
18	0x3f0210a2	0.5080663
19	0x3e518e4f	0.20464443
20	0xbec9e9a5	-0.3943607
21	0x3e96f6ce	0.29485172
22	0x3cffe09c	0.031235032
23	0xbe230b01	-0.15922166
24	0xbe327f56	-0.17431387
25	0xbbab3e64	-0.0052259434
26	0x3d13c3cb	0.036075395
27	0x3e1dfff1	0.15429665
28	0xbde3c200	-0.11120987
29	0xbda6b139	-0.08139271
30	0xbed0f974	-0.40815318
31	0xbeb899e4	-0.3605491
32	0x3e82fc59	0.2558315
33	0xbeecb026	-0.4622814
34	0x3cca3dd7	0.02468769
35	0x3dd85dee	0.10564791
36	0xbe789f70	-0.2427957
37	0xbeaffcd1	-0.3437257
38	0xbead4266	-0.3383972
39	0xbc4f63c5	-0.012658064
40	0xbdcc31ba	-0.09970422
41	0xbd06261d	-0.03275119
42	0xbf2030a5	-0.62574226
43	0x3e29351b	0.16524164
44	0xbe6d5640	-0.23177433
45	0xbf2e5e81	-0.6811295
46	0x3e776668	0.24160159
47	0xbd2a1247	-0.041521337
48	0xbe9fbcfa	-0.31198865
49	0xbea5a040	-0.32348824
50	0x3d5ab5f3	0.053396177
51	0xbd8029d7	-0.0625798
52	0xbf5f9378	-0.87334394
53	0xbf8362b1	-1.0264493
54	0xbee923e4	-0.45535195
55	0x3e8a444d	0.27005234
56	0xbe805010	-0.25061083
57	0xbea30ee2	-0.31847292
58	0xbe677129	-0.22601761
59	0xbe86b258	-0.2630794
60	0x3d22f751	0.03978664
61	0x3f052302	0.5200654
62	0x3eb8da5f	0.36104104
63	0x3df0a373	0.117499255
64	0x3f060f26	0.52366865
65	0x3d4717d0	0.048606694
66	0xbd40dcfe	-0.047085755
67	0x3f444a71	0.7667609
68	0x3e821f46	0.25414485
69	0x3ee10bc0	0.43954277
70	0x3e595497	0.21223675
71	0x3ed3fe5e	0.41405004
72	0x3eb2d350	0.34926844
73	0x3e05d40f	0.13069175
74	0x3e36e2a5	0.17859896
75	0x3e93468f	0.2876477
76	0x3ee03a86	0.4379465
77	0x3bf32ff6	0.007421489
78	0xbcec4953	-0.028843557
79	0x3d6a6aa2	0.0572306
80	0x3d9eb99c	0.07750246
81	0x3d2cd571	0.04219574
82	0x3ee64e37	0.44981548
83	0x3e50fda8	0.20409262
84	0x3f2db428	0.6785302
85	0x3f082053	0.5317432
86	0x3e49cb73	0.19706516
87	0x3ec98339	0.39357927
88	0x3ea53985	0.32270446
89	0x3ee5a2fd	0.44850913
90	0x3e2be119	0.16785087
91	0xbe85e35f	-0.26150033
92	0xbec45a29	-0.38350037
93	0xbd157046	-0.036484025
94	0xbd4911dd	-0.0490893
95	0xbeb66dee	-0.35630745
96	0x3ea4ddd8	0.32200503
97	0x3e0d1ece	0.13781282
98	0xbeb5536f	-0.35415217
99	0x3e330e00	0.1748581
100	0xbed860ce	-0.42261356
101	0xbe202fde	-0.1564326
102	0x3d721c06	0.059108756
103	0xbeafa458	-0.34305072
104	0xbdfbbd72	-0.12291993
105	0x3ef43229	0.4769452
106	0x3dc892c0	0.09793615
107	0xbed650d2	-0.41858536
108	0x3ea71745	0.3263494
109	0xbcb6ee2c	-0.022330366
110	0xbeaa9b61	-0.3332167
111	0x3dab059e	0.08350681
112	0x3d53202a	0.051544346
113	0xbea5f0e4	-0.32410347
114	0xbe3b097e	-0.1826534
115	0xbe7db3bf	-0.24775599
116	0xbdf668ec	-0.12031731
117	0xbebf57e5	-0.37371746
118	0xbec86645	-0.39140525
119	0x3c080c8e	0.0083037745
120	0xbb147cad	-0.002265732
121	0x3ed7a90a	0.42121154
122	0xbea9c803	-0.3316041
123	0xbd1f32a4	-0.038866654
124	0x3ea24f45	0.31701103
125	0xbccecb72	-0.025243495
126	0x3dbca5ed	0.09211335
127	0xbcfa44ec	-0.030550443
128	0x3df162da	0.117864326
129	0x3ed4c467	0.41556093
130	0xbe7017e8	-0.2344662
131	0x3ec11318	0.3770988
132	0xbd0bc83f	-0.034126516
133	0x3e572165	0.21008833
134	0xbdf571e7	-0.11984616
135	0xbeb46731	-0.3523498
136	0x3c278190	0.010223761
137	0xbe823623	-0.25431928
138	0x3b8cc11e	0.0042954823
139	0xbe118ab5	-0.14213069
140	0x3e16769a	0.1469368
141	0x3e896862	0.2683745
142	0x3e96c0d0	0.2944398
143	0xbe16dfe4	-0.14733845
144	0x3e49ec77	0.1971911
145	0x3d4e2cb7	0.050335612
146	0xbd27aabb	-0.040934306
147	0x3e0264fc	0.12733835
148	0x3e5c3e8f	0.21508239
149	0x3ca15215	0.01969246
