submit_entry/checkpoints/cv_edgcn_all_12s_slice_nosing/1/best.pth (torch_old, 360070 bytes, 27 tensors)

conv_time.weight f4 [75, 1, 10]
0.076135546 0.09110778 0.05459227 0.018389126 0.021602402 0.023332983 0.052036904 -0.07977473
-0.08670201 -0.018437762 -0.072943054 -0.030568112 -0.026637707 0.038486965 -0.027986243 -0.05159984
-0.0023955766 0.05013318 -0.02874622 0.008818371 -0.07998197 -0.023562703 -0.005788564 -0.038006537
0.0016125964 -0.020535612 0.03110914 -0.026644059 0.051869184 0.064848326 0.06629699 -0.07197682
-0.07564665 -0.08278227 -0.0757056 -0.007447497 0.01046392 -0.03683501 0.01770011 0.07803661
0.012441437 -0.06543929 0.021821214 -0.02672776 -0.022876123 0.07833766 0.085586876 -0.035801712
-0.016665254 -0.09249912 0.070968695 -0.011489414 0.00393601 0.04312666 -0.08324552 0.074305445
-0.06550073 -0.06694183 -0.02244488 0.019634478 -0.035063628 -0.013796364 -0.052301716 -0.04454175
-0.03994235 0.083357126 -0.06957734 0.014721347 0.08773655 0.089400396 0.03213578 -0.0058316556
-0.009753297 0.005996093 0.0735434 -0.061351568 0.06768898 0.047267206 0.038225252 0.0047543324
0.05246352 -0.059491843 0.075912245 -0.018524257 0.09619381 -0.018834485 0.065740466 0.09704457
0.02836858 -0.06754062 0.046099376 0.08115172 0.042868484 0.018121235 -0.0115858875 0.033671267
-0.0745898 0.05029932 -0.058701325 -0.0837355 0.0824584 -0.03941611 0.095382154 0.025803708
0.10091002 0.019693222 0.07938647 -0.043983396 -0.06549724 0.0038241714 0.06307626 0.054174125
0.096823774 0.038958002 0.038371295 0.012491449 -0.024943214 -0.0012766678 0.052382443 0.018841619
-0.06511088 -0.035735767 0.0065235607 0.036401197 0.032941457 0.02626351 -0.015827198 -0.076237425
-0.100559935 -0.04366574 -0.039595205 0.09394449 0.018515425 0.030464351 0.07369757 -0.057842314
0.03592243 -0.062018126 -0.07443444 -0.00074866606 0.09382684 -0.0046359487 0.040432837 0.023059445
0.033145547 0.01857094 0.07437177 0.021950891 -0.022697039 0.051309407 -0.0070751826 0.06413001
-0.008396585 0.089522004 0.034358576 -0.046681963 0.10929778 -0.060139492 0.03592858 0.09439632
-0.04212271 -0.03331673 -0.07313281 0.0799017 -0.07217077 0.06743137 0.055190913 -0.005625169
0.039481595 0.06405353 -0.047785807 -0.074054465 0.00975899 -0.0361167 0.032504138 -0.027638253
-0.027936043 0.08408325 0.06214053 -0.07478498 -0.067277595 -0.0063723032 -0.074532405 0.04016408
0.06480709 -0.021703893 0.08335885 0.04334908 0.038180035 0.00038811463 -0.08324607 0.041741103
-0.0827331 -0.02086076 -0.019802239 0.014359446 -0.012847541 -0.02004695 -0.02049964 -0.036477685
-0.031064222 0.023496017 0.0430577 -0.06435669 0.070220016 0.04142776 -0.036425438 -0.059422772
-0.08487704 -0.035026383 -0.029278077 -0.056569133 0.00605477 0.07999169 0.011743488 0.0011545802
0.027499765 0.08340116 0.018324738 0.03242428 0.048994783 0.07616558 -0.020453496 0.030958591
-0.013449307 -0.059957836 -0.025405826 0.025212511 -0.09441356 -0.0865543 0.005382388 -0.031788826
-0.02164674 -0.0436939 -0.002004706 -0.022728128 0.038382825 0.07656087 0.09070881 0.06265081
0.07581813 -0.013780647 0.06868018 0.072935306 -0.032561965 -0.025403768 0.06984711 0.04235052
-0.010004163 -0.08133066 0.03830451 0.008571113 0.06038858 0.013656643 0.038523346 -0.012385458
00000000: f4ec 9b3d b796 ba3d 259c 5f3d cba4 963c
00000010: 85f7 b03c d024 bf3c a624 553d ef60 a3bd
00000020: d390 b1bd ca0a 97bc 2b63 95bd fa69 fabc
00000030: 5237 dabc 82a4 1d3d 6843 e5bc 5b5a 53bd
00000040: 1bff 1cbb 7358 4d3d 317d ebbc ee7a 103c
00000050: 96cd a3bd 9206 c1bc ffad bdbb beac 1bbd
00000060: c25d d33a 4d3a a8bc 98d8 fe3c a444 dabc
00000070: c874 543d 33cf 843d b7c6 873d 9568 93bd
00000080: a1ec 9abd c089 a9bd 8a0b 9bbd 220a f4bb
00000090: dd70 2b3c 4fe0 16bd d2ff 903c a8d1 9f3d
000000a0: 2bd7 4b3c 0905 86bd 67c2 b23c 2df4 dabc
000000b0: b566 bbbc 7f6f a03d 2c48 af3d d1a4 12bd
000000c0: 9285 88bc 2e70 bdbd 0958 913d 183e 3cbc
000000d0: a5f9 803b 95a5 303d a17c aabd 742d 983d
000000e0: 3f25 86bd cc18 89bd 53de b7bc 7cd8 a03c
000000f0: e19e 0fbd 250a 62bc 533a 56bd 6971 36bd
00000100: 979a 23bd 24b7 aa3d 907e 8ebd ce31 713c
00000110: 38af b33d 8e17 b73d cfa0 033d 7917 bfbb
00000120: 4bcc 1fbc e07a c43b ec9d 963d c84b 7bbd
00000130: 85a0 8a3d 429b 413d 1592 1c3d 3bca 9b3b
00000140: fde3 563d b8ad 73bd e177 9b3d 2fc0 97bc
00000150: 4301 c53d c74a 9abc f0a2 863d 4ebf c63d
00000160: 3965 e83c bd52 8abd b3d2 3c3d df32 a63d
00000170: dd96 2f3d fc72 943c bcd2 3dbc e2ea 093d
00000180: 89c2 98bd a906 4e3d cd70 70bd 857d abbd
00000190: f3df a83d c972 21bd b857 c33d 4c62 d33c
000001a0: eaa9 ce3d ae53 a13c 6095 a23d ef27 34bd
000001b0: 6b23 86bd f39e 7a3b 202e 813d b0e5 5d3d
000001c0: 8b4b c63d 6d92 1f3d 382b 1d3d efa8 4c3c
000001d0: b655 ccbc dd55 a7ba f98e 563d bd59 9a3c
000001e0: da58 85bd ab5f 12bd 98c3 d53b 6c19 153d
000001f0: 9fed 063d 9326 d73c 0aa8 81bc 5e22 9cbd
00000200: 5ef2 cdbd d9da 32bd 952e 22bd f865 c03d
00000210: a9ad 973c 6090 f93c c0ee 963d 10ec 6cbd
00000220: 6623 133d b806 7ebd 1571 98bd 2142 44ba
00000230: 4928 c03d 28e9 97bb e79c 253d 29e7 bc3c
00000240: a0c3 073d 1522 983c 3a50 983d 5bd2 b33c
00000250: 24ef b9bc d029 523d efd6 e7bb 9856 833d
00000260: d491 09bc 5057 b73d 94bb 0c3d 9635 3fbd
00000270: 84d7 df3d d454 76bd d929 133d dc52 c13d
00000280: dd88 2cbd 2077 08bd a8c6 95bd 81a3 a33d
00000290: 45ce 93bd 7519 8a3d de0f 623d 5653 b8bb
000002a0: 74b7 213d 7f2e 833d 0dbb 43bd dea9 97bd
000002b0: 2ce4 1f3c 1bef 13bd 0f23 053d 9e69 e2bc
000002c0: 21da e4bc d733 ac3d 1287 7e3d de28 99bd
000002d0: d6c8 89bd c1ce d0bb 72a4 98bd 1783 243d
000002e0: 94b9 843d 5dcc b1bc 0bb8 aa3d ce8e 313d
000002f0: ab62 1c3d dd7b cb39 ea7c aabd b8f8 2a3d
00000300: f96f a9bd 2fe4 aabc 4e38 a2bc e243 6b3c
00000310: 7e7e 52bc 8039 a4bc dcee a7bc a069 15bd
00000320: 657a febc b87a c03c 455d 303d 71cd 83bd
00000330: 83cf 8f3d 28b0 293d d732 15bd 4b65 73bd
00000340: 03d4 adbd d377 0fbd 94d8 efbc 09b5 67bd
00000350: 1867 c63b afd2 a33d c267 403c 4855 973a
00000360: 3047 e13c 3ace aa3d c31d 963c 52cf 043d
00000370: c1ae 483d b3fc 9b3d 178e a7bc df9c fd3c
00000380: 7b5a 5cbc 5996 75bd e11f d0bc 788a ce3c
00000390: e65b c1bd 6143 b1bd be5e b03b 0035 02bd
000003a0: 8154 b1bc 60f8 32bd 6361 03bb 5730 babc
000003b0: 4f37 1d3d f2cb 9c3d 8ac5 b93d 114f 803d
000003c0: 8946 9b3d 39c8 61bc 32a8 8c3d 1b5f 953d
000003d0: b25f 05bd 901b d0bc 000c 8f3d bd77 2d3d
000003e0: 80e8 23bc b090 a6bd 31e5 1c3d db6d 0c3c
000003f0: 045a 773d 1dc0 5f3c a8ca 1d3d 60ec 4abc

conv_time.bias f4 [75]
9.97481e-05 -0.0069363536 -0.00211217 -0.0036843373 -0.0039108866 -0.00043385263 -0.00060626224 0.0018285024
-0.0027141282 0.008432793 0.0018081085 -0.0032540846 -0.0023671167 -0.0012174076 0.0025393048 0.0009820595
-0.00074715435 0.003983675 -0.003396406 0.0051020486 0.0014376066 -0.009169572 -0.0014209313 0.0042050933
0.0023899162 -0.0009873066 -0.0066496655 0.0013157045 -0.00045608584 0.00020164129 0.0017043089 -0.0007367923
0.0031691107 -0.001881237 0.003844263 -0.0027612715 0.0029779063 -8.147549e-05 0.00024603208 0.0020548052
-0.003667567 0.00623532 0.0032140315 0.0042265714 0.0019500881 -0.004123405 0.0013874756 0.004805878
0.0045053954 0.0034090807 -0.00012582935 -0.0018820311 -0.0024989645 0.0011844822 0.002956664 -0.0005101258
0.0059187873 -0.0008411999 -0.00044927315 -0.0016229058 8.012279e-05 0.00011376979 0.00020085736 4.84733e-05
0.00010661474 8.4232335e-05 0.0006572103 0.00019459926 5.050427e-05 -1.2580806e-05 0.00028373505 -1.102443e-06
-0.0001465947 -0.00010043356 0.00027398634
00000000: da2f d138 5a4a e3bb 556c 0abb ec74 71bb
00000010: e526 80bb b776 e3b9 92ed 1eba 5caa ef3a
00000020: 84df 31bb b329 0a3c 0efe ec3a 7b42 55bb
00000030: a121 1bbb 6c91 9fba 776a 263b 73b8 803a
00000040: aedc 43ba 7d89 823b 3d96 5ebb 162f a73b
00000050: 136e bc3a f93b 16bc 8b3e baba e1ca 893b
00000060: 24a0 1c3b 8368 81ba 70e5 d9bb b873 ac3a
00000070: ce1e efb9 ac6f 5339 1e63 df3a 4b25 41ba
00000080: dbb0 4f3b d793 f6ba 08f0 7b3b 73f6 34bb
00000090: fa28 433b d2dd aab8 defd 8039 e9a9 063b
000000a0: 905b 70bb a851 cc3b 80a2 523b 0d7f 8a3b
000000b0: 199a ff3a a11d 87bb f5db b53a a07a 9d3b
000000c0: ffa1 933b e26a 5f3b 0ff1 03b9 7cae f6ba
000000d0: abc5 23bb a140 9b3a 97c4 413b f7b9 05ba
000000e0: 63f2 c13b f883 5cba 6c8c ebb9 afb7 d4ba
000000f0: 9807 a838 b197 ee38 3d9d 5239 cf4f 4b38
00000100: 5a96 df38 e4a5 b038 a348 2c3a 570d 4c39
00000110: 8cd4 5338 2612 53b7 46c2 9439 a7f7 93b5
00000120: 37b7 19b9 db9f d2b8 d3a5 8f39

bnorm.weight f4 [75]
0.99867606 0.99409735 0.99326324 1.006743 0.99454564 0.9928565 1.0116743 1.0020874
0.996221 0.9964754 1.017866 1.0077895 0.9900958 0.99360377 1.0028204 0.99084634
0.99716496 0.99993557 0.99814636 0.9938072 0.9972202 1.0061216 1.0003167 1.0097983
0.99479717 1.0246087 0.99604744 1.0052501 1.000238 1.0040127 1.0049522 1.0074474
1.0011822 0.9964872 0.9843186 1.0036486 0.9923229 1.0179287 0.99889183 0.9802603
1.0042297 1.0026245 0.99913967 0.99636835 1.0057372 0.9997926 1.0000733 0.99633896
0.9957884 1.0127825 0.9972636 1.0076157 0.9904183 0.9944654 0.99793065 0.9963693
1.0058105 0.9977664 1.0129303 0.99175805 0.9930465 0.9985954 1.0001564 1.0020432
0.999908 1.0043279 0.99198616 0.9948538 1.0048095 1.0024407 1.0015007 1.000574
0.9983113 0.9914258 1.0008912
00000000: 3ca9 7f3f 2a7d 7e3f 8046 7e3f f4dc 803f
00000010: 8b9a 7e3f d82b 7e3f 8b7e 813f 6644 803f
00000020: 5708 7f3f 0319 7f3f 6f49 823f 3fff 803f
00000030: eb76 7d3f d15c 7e3f 6b5c 803f 1ba8 7d3f
00000040: 3446 7f3f c7fb 7f3f 8586 7f3f 266a 7e3f
00000050: d349 7f3f 98c8 803f 610a 803f 1241 813f
00000060: 07ab 7e3f 6126 833f f7fc 7e3f 09ac 803f
00000070: cc07 803f 7d83 803f 46a2 803f 09f4 803f
00000080: bd26 803f c919 7f3f 4efc 7b3f 8f77 803f
00000090: e008 7e3f 7d4b 823f 60b7 7f3f 57f2 7a3f
000000a0: 998a 803f 0056 803f 9ec7 7f3f ff11 7f3f
000000b0: ffbb 803f 68f2 7f3f 6702 803f 1210 7f3f
000000c0: fdeb 7e3f dba2 813f ab4c 7f3f 8df9 803f
000000d0: 0e8c 7d3f 4995 7e3f 6278 7f3f 0f12 7f3f
000000e0: 66be 803f 9e6d 7f3f b3a7 813f dbe3 7d3f
000000f0: 4c38 7e3f f3a3 7f3f 2005 803f f442 803f
00000100: f8f9 7f3f d18d 803f cef2 7d3f bdae 7e3f
00000110: 999d 803f fa4f 803f 2d31 803f cf12 803f
00000120: 5491 7f3f 15ce 7d3f 341d 803f

bnorm.bias f4 [75]
-0.010493717 0.0063757855 0.014593938 0.017335242 0.00090530136 0.020298468 0.067340635 -0.0049277837
0.0139911445 0.055760078 -0.00650783 -0.007708138 -0.00420938 0.03510383 0.0034404523 0.0039607594
0.040807053 0.010311394 0.009353293 0.00085867435 0.0019568193 0.016051233 0.0060651284 -0.016769614
0.027797135 0.018526565 -0.003273987 0.036314193 -0.0019507601 0.025283992 0.007668961 0.016783291
0.006087389 0.012944917 0.0056291893 0.0035690146 -0.010053906 0.0007311931 0.01514972 0.005359953
0.0050942125 -0.014605076 0.0070634806 0.007652479 0.02164159 -0.007709697 -0.0033722194 0.0015544267
0.00992409 -0.009628887 0.011164827 -0.008910251 0.0018647336 -0.00066349347 -0.0020359913 -0.0032752203
0.0074519427 -0.0055947406 -0.005728414 -0.019763362 -0.007891564 -0.0018169448 -0.012510378 -0.00415363
-0.008541055 0.004175089 -0.009841769 -0.0030034804 0.0014378368 -0.013103889 -0.00024596578 -0.002509797
0.008382162 -0.006817008 0.0017309178
00000000: d7ed 2bbc f7eb d03b 6a1b 6f3c a302 8e3c
00000010: bf51 6d3a f948 a63c e3e9 893d 3f79 a1bb
00000020: 1d3b 653c ae64 643d a33f d5bb 8c94 fcbb
00000030: d7ee 89bb 09c9 0f3d 3679 613b 42c9 813b
00000040: 4c25 273d 1ff1 283c 8e3e 193c a918 613a
00000050: fb3d 003b e07d 833c fcbd c63b 6e60 89bc
00000060: d1b6 e33c 06c5 973c 6390 56bb 31be 143d
00000070: a6b0 ffba 6020 cf3c e84b fb3b 1d7d 893c
00000080: b878 c73b eb16 543c 1075 b83b 21e6 693b
00000090: 23b9 24bc 8aad 3f3a 8836 783c 8ba2 af3b
000000a0: 5aed a63b 214a 6fbc c574 e73b a6c1 fa3b
000000b0: b449 b13c a0a1 fcbb 7400 5dbb e8bd cb3a
000000c0: a698 223c 7bc2 1dbc aeec 363c 4dfc 11bc
000000d0: 146a f43a 4bee 2dba 446e 05bb 14a5 56bb
000000e0: 6d2f f43b 1654 b7bb 6bb5 bbbb c6e6 a1bc
000000f0: 9e4b 01bc 8d26 eeba 54f8 4cbc 2d1b 88bb
00000100: c8ef 0bbc 2fcf 883b 5f3f 21bc 0ad6 44bb
00000110: cc75 bc3a b2b1 56bc f8f4 80b9 687b 24bb
00000120: 5655 093c 3561 dfbb f7df e23a

bnorm.running_mean f4 [75]
0.028232777 -0.03339845 -0.010783284 -0.03649239 -0.015410826 -0.007421048 0.0032458925 0.037440974
0.043792862 0.016292742 0.04945511 0.06119632 -0.04566272 0.002269247 0.06350745 0.07611114
0.018264055 -0.02010799 0.021204993 -0.054291558 -0.031600103 0.033843536 -0.030355442 0.041643534
0.042979605 0.034653984 -0.04689353 0.052998077 -0.036540363 0.04875774 0.01043812 0.013013211
-0.0028466394 -0.015550234 -0.00041722422 0.0006728759 -0.008066391 0.01182264 -0.0066808946 0.008186477
-0.00026206626 0.017187864 -0.00019585963 0.008950777 0.013687842 0.3241505 -0.2983812 0.17943014
-0.16686015 -0.15670873 -0.18782791 -0.2764721 -0.19493656 0.2547652 -0.13935955 0.16737236
-0.1231938 0.35917372 -0.3161622 0.21272805 -3.1367085 -6.365931 -5.073018 -10.524982
-3.7605126 8.798556 -1.2580854 -3.5092483 3.305246 1.6811737 6.8018923 -9.1482115
8.350804 -3.2383626 6.6259284
00000000: 6d48 e73c d0cc 08bd 5fac 30bc 0b79 15bd
00000010: b07d 7cbc 432c f3bb 0ab9 543b b55b 193d
00000020: 2560 333d 5b78 853c 7191 4a3d fea8 7a3d
00000030: d508 3bbd a6b7 143b 3210 823d 28e0 9b3d
00000040: 809e 953c 83b9 a4bc 18b6 ad3c d360 5ebd
00000050: 1c6f 01bd 859f 0a3d faab f8bc 6992 2a3d
00000060: 620b 303d 56f1 0d3d 6e13 40bd 8314 593d
00000070: 59ab 15bd 32b6 473d a604 2b3c 5d35 553c
00000080: af8e 3abb 69c6 7ebc e3be dab9 f063 303a
00000090: e528 04bc bfb3 413c 68eb dabb 9320 063c
000000a0: f065 89b9 90cd 8c3c ab5f 4db9 48a6 123c
000000b0: f842 603c 0ef7 a53e 6cc5 98be 89bc 373e
000000c0: 63dd 2abe 4178 20be f655 40be c08d 8dbe
000000d0: 739d 47be 9670 823e 45b4 0ebe a963 2b3e
000000e0: 084d fcbd 9ee5 b73e 03e0 a1be 62d5 593e
000000f0: d5bf 48c0 b5b5 cbc0 2a56 a2c0 5466 28c1
00000100: 3dac 70c0 e3c6 0c41 f108 a1bf 8697 60c0
00000110: 2789 5340 b330 d73f 1aa9 d940 135f 12c1
00000120: e59c 0541 5541 4fc0 9b07 d440

bnorm.running_var f4 [75]
0.030202126 0.01819633 0.008399672 0.033873808 0.010263186 0.009261699 0.01298504 0.029737385
0.054040086 0.013049332 0.057999413 0.0885004 0.044032298 0.009921254 0.078356616 0.06252799
0.01566161 0.014207266 0.016023498 0.036951985 0.018936273 0.024456229 0.020966822 0.023287477
0.025859835 0.015947543 0.022330167 0.03224044 0.027857995 0.031464927 0.017251318 0.042960122
0.00825254 0.042055305 0.004239563 0.0027938653 0.027890742 0.032068837 0.0108972145 0.008715755
0.002721713 0.027020387 0.0027066784 0.0051674177 0.03186443 0.18919867 0.1580964 0.054941345
0.052596807 0.045557085 0.06309797 0.13266331 0.06625258 0.11342997 0.0369912 0.05010266
0.031186722 0.22718164 0.17485423 0.081483915 26.687307 107.5819 68.90605 291.14926
38.182335 203.77625 4.6947904 33.0127 29.795547 7.897031 121.40288 219.33754
182.8735 27.940042 115.281265
00000000: 736a f73c 7810 953c c79e 093c 43bf 0a3d
00000010: ec26 283c 62be 173c 35bf 543c d19b f33c
00000020: 2359 5d3d decc 553c cb90 6d3d b33f b53d
00000030: 365b 343d c18c 223c 6f79 a03d ad0e 803d
00000040: c74c 803c 98c5 683c b643 833c f75a 173d
00000050: 3e20 9b3c 6e58 c83c 9dc2 ab3c 61c5 be3c
00000060: 01d8 d33c 6ca4 823c c1ed b63c 8d0e 043d
00000070: 7336 e43c 5ee1 003d a352 8d3c f4f6 2f3d
00000080: a935 073c 2f42 2c3d 08ec 8a3b 4819 373b
00000090: 207b e43c 9d5a 033d 3b8a 323c 87cc 0e3c
000000a0: c45e 323b dc59 dd3c 8762 313b 7153 a93b
000000b0: 4784 023d 4cbd 413e 06e4 213e 2d0a 613d
000000c0: c06f 573d 119a 3a3d 8239 813d e4d8 073e
000000d0: 6faf 873d f94d e83d 1684 173d 7238 4d3d
000000e0: 4c7b ff3c 4ea2 683e fd0c 333e 0ae1 a63d
000000f0: 9b7f d541 ef29 d742 e6cf 8942 1b93 9143
00000100: b6ba 1842 b8c6 4b43 b93b 9640 010d 0442
00000110: 485d ee41 7ab4 fc40 46ce f242 6956 5b43
00000120: 9edf 3643 3585 df41 0290 e642

block2.conv_2.weight f4 [75, 15, 10]
0.031389263 0.05690952 0.02796459 -0.059708215 -0.078714356 0.0017363417 0.029667905 -0.023557419
-0.016706822 -0.043945327 -0.06088498 0.051968932 -0.021721449 0.060212597 -0.07287222 0.04942794
-0.043692704 -0.056171138 -0.070541784 -0.07768317 0.032159913 -0.036261518 0.061430562 -0.024515882
-0.034237765 -0.0033516926 -0.033282366 0.0369597 -0.014524372 -0.00075382733 0.017483 0.009004752
0.0027127927 0.07304033 0.045896877 -0.012571025 0.014773062 -0.044430334 0.048852403 -0.022276094
0.025807345 0.02804757 0.06864592 0.00021743486 0.047514956 -0.028090665 0.009078225 -0.022066692
0.028610004 -0.032397885 0.020503655 0.035646047 -0.037642997 0.034228906 -0.050488736 0.048181668
-0.061781947 -0.01796179 -0.01824157 -0.040791385 -0.041046828 -0.09494798 -0.0076024756 0.024196135
-0.025534451 -0.039565366 -0.01862615 -0.064478986 -0.014008064 0.009604213 0.028427865 0.02983829
-0.07137953 0.044895705 0.03995398 0.06547066 0.013622261 0.033068404 -0.020656135 -0.008203252
-0.0007900698 0.025773788 0.076948784 -0.024591537 -0.017464878 0.02855301 -0.042879917 -0.07716321
0.06834965 -0.05007077 0.047534645 0.04479657 0.04185931 0.03728002 0.011067676 0.03641586
-0.040851936 -0.018623142 0.03881869 -0.044711206 0.031075386 0.069171734 0.05262459 0.022545757
-0.09238884 0.019461412 -0.083294265 0.052002214 -0.027572915 -0.082758024 0.08317763 -0.039006032
0.050485365 0.058897126 -0.0752144 0.03273385 -0.016445592 -0.042781245 -0.0027639112 0.0032868444
-0.011900568 0.036652416 0.077317335 -0.03025943 -0.063410185 -0.06297071 -0.054315023 0.0457798
0.01190873 0.03354057 -0.024552217 -0.056645583 0.037168533 -0.07158842 -0.0014009911 -0.08375892
-0.07160417 -0.013205142 -0.011159781 0.07967535 0.020392498 0.0041195042 0.013892422 -0.036404546
-0.036715593 -0.06366166 -0.023715055 0.011411412 -0.06340918 -0.008092223 0.028202955 0.034935605
0.0053635156 0.06562505 -0.040419832 0.05707657 -0.05400959 -0.03219183 0.08474221 0.03700327
-0.064270176 0.0012648238 -0.0453021 0.07269765 0.006321982 0.030826885 0.007602372 0.049222585
-0.08010729 0.062647715 -0.024764176 -0.041436505 0.0869885 -0.043586127 -0.033544313 -0.05007846
-0.01242117 -0.022629004 -0.021862758 -0.06732606 0.054548007 0.07968807 0.0028732284 -0.06427116
-0.036937192 0.028563084 0.02634333 0.0046033673 0.0643471 -0.0142575735 0.0639698 -0.005330565
0.037024137 -0.021845372 -0.047383443 0.023554653 -0.022790054 0.0024198492 0.026426237 -0.06566327
-0.012453387 -0.06347615 -0.07545703 -0.06552038 -0.075542815 0.047468327 0.056214068 -0.0016143984
0.02147054 -0.03291349 0.07465545 -0.0068314224 0.05790693 0.066328734 -0.07782794 -0.08718162
-0.09257718 -0.057862863 -0.06793944 0.047510333 -0.03955317 -0.020839857 -0.021236705 0.07586855
0.0093517 -0.055025972 0.023240017 -0.043171763 0.018828917 -0.03418847 0.01588103 0.05942976
0.016322004 -0.0361124 -0.02265089 -0.07261284 0.046144046 -0.0069862795 -0.033884317 -0.031923424
0.018954156 -0.04232868 -0.059087485 0.033286378 0.051027134 -0.011527229 0.053289972 0.06558443
0.055179954 -0.0670825 0.062130954 0.053294953 -0.0717999 0.07417134 0.07659865 0.0063061086
00000000: 0792 003d f519 693d ff15 e53c 9a90 74bd
00000010: fe34 a1bd f695 e33a 1b0a f33c 7dfb c0bc
00000020: bfdc 88bc 0400 34bd 8762 79bd 60dd 543d
00000030: 2ef1 b1bc 7ca1 763d 083e 95bd f474 4a3d
00000040: 1ff7 32bd b513 66bd 3678 90bd 5b18 9fbd
00000050: 1dba 033d f586 14bd 9d9e 7b3d 88d5 c8bc
00000060: e63c 0cbd 12a8 5bbb 1753 08bd 0e63 173d
00000070: a2f7 6dbc 7f9c 45ba 8238 8f3c ab88 133c
00000080: 1cc9 313b 2b96 953d 5dfe 3b3d b3f6 4dbc
00000090: b70a 723c 95fc 35bd 7519 483d 5b7c b6bc
000000a0: ed69 d33c 04c4 e53c 3b96 8c3d 3aff 6339
000000b0: 0b9f 423d 651e e6bc d6bc 143c 35c5 b4bc
000000c0: 875f ea3c a5b3 04bd 48f7 a73c 9701 123d
000000d0: 8b2f 1abd 9c33 0c3d 47cd 4ebd 245a 453d
000000e0: 110f 7dbd 9b24 93bc 586f 95bc de14 27bd
000000f0: b820 28bd 1674 c2bd 301e f9bb f936 c63c
00000100: a02d d1bc 4b0f 22bd de95 98bc 8f0d 84bd
00000110: 1482 65bc fd5a 1d3c 8ee1 e83c 6e6f f43c
00000120: 6e2f 92bd 8fe4 373d c9a6 233d 7b15 863d
00000130: e72f 5f3c bc72 073d 0e37 a9bc ef66 06bc
00000140: b01c 4fba 8d23 d33c 5397 9d3d 3174 c9bc
00000150: 8112 8fbc 01e8 e93c daa2 2fbd bf07 9ebd
00000160: e7fa 8b3d 0217 4dbd b0b3 423d 9c7c 373d
00000170: ab74 2b3d efb2 183d 3355 353c cc28 153d
00000180: 5c54 27bd 8f8f 98bc 5900 1f3d 1923 37bd
00000190: cf91 fe3c e9a9 8d3d e28c 573d e1b1 b83c
000001a0: 5c36 bdbd 8a6d 9f3c 2f96 aabd 4600 553d
000001b0: 98e0 e1bc 0a7d a9bd 0959 aa3d cac4 1fbd
000001c0: bec9 4e3d 1d3e 713d 020a 9abd ee13 063d
000001d0: e8b8 86bc 633b 2fbd bc22 35bb 1968 573b
000001e0: 9afa 42bc d820 163d 8d58 9e3d a0e2 f7bc
000001f0: 33dd 81bd caf6 80bd 6e79 5ebd 9983 3b3d
00000200: d51c 433c d661 093d bb21 c9bc 3305 68bd
00000210: 083e 183d f39c 92bd 76a1 b7ba cc89 abbd
00000220: 35a5 92bd 615a 58bc 84d7 36bc d42c a33d
00000230: 2b0e a73c e8fc 863b 0b9d 633c ef1c 15bd
00000240: 1763 16bd 0b61 82bd 1346 c2bc eef6 3a3c
00000250: acdc 81bd 3e95 04bc e209 e73c a318 0f3d
00000260: 6ec0 af3b 6d66 863d 448f 25bd 1fc9 693d
00000270: 2939 5dbd 95db 03bd 538d ad3d be90 173d
00000280: 15a0 83bd 72c8 a53a b28e 39bd 81e2 943d
00000290: a128 cf3b aa88 fc3c 521d f93b 9f9d 493d
000002a0: 4a0f a4bd 724d 803d 3ede cabc 53b9 29bd
000002b0: 0727 b23d 5e87 32bd c365 09bd 121f 4dbd
000002c0: 2a82 4bbc 7660 b9bc 8719 b3bc 3fe2 89bd
000002d0: bb6d 5f3d 8033 a33d c64c 3c3b 99a0 83bd
000002e0: 744b 17bd 21fd e93c f8cd d73c d8d7 963b
000002f0: 6ac8 833d 9998 69bc 9902 833d 05ac aebb
00000300: 9fa6 173d 11f5 b2bc 2415 42bd b0f5 c03c
00000310: 35b2 babc 5596 1e3b d67b d83c 777a 86bd
00000320: 4a09 4cbc c9ff 81bd 3789 9abd 8d2f 86bd
00000330: 31b6 9abd 266e 423d b940 663d 399a d3ba
00000340: fce2 af3c 4cd0 06bd f5e4 983d 20da dfbb
00000350: d12f 6d3d 5cd7 873d 4164 9fbd 478c b2bd
00000360: 1b99 bdbd 9c01 6dbd d523 8bbd 329a 423d
00000370: 8102 22bd 59b8 aabc 99f8 adbc f860 9b3d
00000380: df37 193c ea62 61bd d961 be3c e0d4 30bd
00000390: 1a3f 9a3c 3609 0cbd ef18 823c 9f6c 733d
000003a0: b9b5 853c 99ea 13bd 5c8e b9bc 0ab6 94bd
000003b0: 8a01 3d3d 29ed e4bb 48ca 0abd 23c2 02bd
000003c0: bf45 9b3c d760 2dbd b805 72bd 4c57 083d
000003d0: d401 513d b4dc 3cbc 9646 5a3d 2151 863d
000003e0: 6004 623d 8d62 89bd 077d 7e3d cf4b 5a3d
000003f0: d30b 93bd 25e7 973d c1df 9c3d 79a3 ce3b

block2.bnorm_2.weight f4 [75]
1.0080007 1.0027457 1.0088288 1.0038699 0.99745613 1.0156178 1.0065393 0.99594384
1.0165871 0.99847037 0.9961209 1.005179 0.9995195 0.98869354 0.99920416 1.0127279
0.99087864 0.9961278 0.9797966 0.99393123 1.0030625 0.99009603 1.0030068 1.0038213
0.99858046 1.0185192 1.0190921 1.0373601 1.008257 0.9986881 1.0065454 1.0066743
1.0056454 0.99602157 1.0033723 0.99626315 0.98844355 0.9929493 1.0114586 0.9993772
0.9967125 0.99046594 1.0032468 0.9991366 1.0173438 0.9931501 0.9911767 0.9903546
0.99644256 0.99508035 1.0121287 1.0006036 0.9964412 0.99938786 1.0056387 0.9909205
0.9966722 1.0196834 1.0291188 1.0018755 1.0216794 0.99837613 0.99600273 1.0026994
0.99558544 0.98687965 0.98967344 1.0100521 0.9938352 0.9978641 1.0032316 1.0100784
1.0008755 0.99241465 0.98934054
00000000: 2b06 813f f959 803f 4d21 813f cf7e 803f
00000010: 4959 7f3f c4ff 813f 48d6 803f 2df6 7e3f
00000020: 871f 823f c19b 7f3f c801 7f3f b5a9 803f
00000030: 83e0 7f3f 051b 7d3f d8cb 7f3f 11a1 813f
00000040: 39aa 7d3f 3b02 7f3f f3d3 7a3f 4772 7e3f
00000050: 5a64 803f ef76 7d3f 8762 803f 377d 803f
00000060: f8a2 7f3f d65e 823f 9c71 823f 37c8 843f
00000070: 910e 813f 06aa 7f3f 7bd6 803f b4da 803f
00000080: fdb8 803f 45fb 7e3f 816e 803f 1a0b 7f3f
00000090: a30a 7d3f ed31 7e3f 7a77 813f 2fd7 7f3f
000000a0: 8d28 7f3f 2d8f 7d3f 646a 803f 6bc7 7f3f
000000b0: 5238 823f 163f 7e3f c2bd 7d3f e187 7d3f
000000c0: dc16 7f3f 96bd 7e3f 6f8d 813f c713 803f
000000d0: c516 7f3f e2d7 7f3f c5b8 803f f7ac 7d3f
000000e0: e925 7f3f fc84 823f 2aba 833f 753d 803f
000000f0: 64c6 823f 9495 7f3f 09fa 7e3f 7458 803f
00000100: b0de 7e3f 25a4 7c3f 3d5b 7d3f 6349 813f
00000110: fc6b 7e3f 0674 7f3f e569 803f 404a 813f
00000120: b01c 803f e30e 7e3f 6c45 7d3f

block2.bnorm_2.bias f4 [75]
0.029397842 0.0035848944 0.016960425 -0.019544829 0.017664084 0.04997857 0.0013758668 0.00080169796
0.0017140891 0.016410239 0.018270789 0.042445935 -0.0056526116 -0.0039015145 0.0030254421 0.013927338
-0.003093244 0.0052070217 0.025961924 0.0025777286 -0.001491675 -0.0073352456 0.012703129 0.001875029
0.0054351296 -0.020205915 -0.0068318397 0.0038641656 0.0063162507 0.019552251 0.020917336 0.020509578
0.019741047 0.027034849 0.013947705 -0.0030491813 -0.024350159 0.008094163 0.029230975 -0.017307822
-0.013493133 -0.012333546 0.008619625 0.0017210046 0.0102562355 -0.012102169 -0.01064193 -0.00876296
-0.0063620135 -0.00248187 0.003500832 -0.012997721 -0.0022520954 -0.003941648 0.0060866643 -0.0072524613
-0.0040297285 0.019266544 0.021591894 0.0054029943 -0.008359049 0.0012941267 -0.004212907 0.008697889
0.007031327 -0.016400153 -0.013123292 -0.0014494149 -0.005917282 -0.00042992146 0.009659487 0.007266379
0.007301735 -0.0054681776 -0.007708821
00000000: bed3 f03c 8cf0 6a3b 97f0 8a3c 7a1c a0bc
00000010: 45b4 903c 54b6 4c3d 6e56 b43a 0a29 523a
00000020: 49ab e03a c46e 863c 9fac 953c cadb 2d3d
00000030: 8b39 b9bb 8db0 7fbb 7f46 463b 7d2f 643c
00000040: 06b8 4abb aa9f aa3b 1aae d43c 1cef 283b
00000050: 4f84 c3ba 805c f0bb c920 503c 88c3 f53a
00000060: 2c19 b23b e086 a5bc a0dd dfbb f13d 7d3b
00000070: 8df8 ce3b 0b2c a03c d55a ab3c b403 a83c
00000080: fab7 a13c 3078 dd3c ea84 643c c6d4 47bb
00000090: fc79 c7bc 619d 043c cc75 ef3c 22c9 8dbc
000000a0: 4d12 5dbc a412 4abc 5439 0d3c 5593 e13a
000000b0: c509 283c 2d48 46bc 7d5b 2ebc 8592 0fbc
000000c0: 7078 d0bb dea6 22bb 376e 653b 65f4 54bc
000000d0: e497 13bb f128 81bb a472 c73b 0ea6 edbb
000000e0: d00b 84bb dfd4 9d3c 7ce1 b03c 9a0b b13b
000000f0: 65f4 08bc b09f a93a 6d0c 8abb 9781 0e3c
00000100: 0c67 e63b 9d59 86bc 1303 57bc 4bfa bdba
00000110: c2e5 c1bb 1567 e1b9 d342 1e3c ce1a ee3b
00000120: 6543 ef3b 662e b3bb 479a fcbb

block2.bnorm_2.running_mean f4 [75]
-0.2409027 -0.18628038 -0.5665105 -0.28151938 0.31555897 -0.15798871 -0.29012698 0.5737125
-0.23001333 -0.43914738 -0.16045006 -0.479058 0.7560807 0.2845138 -0.39235833 -0.1899462
0.4425786 -0.38863572 0.17051491 0.20429993 -0.17660388 -0.38052487 -0.19280624 -0.4783532
0.34882128 -0.17111468 0.026325738 -0.2377684 -0.29286563 0.1823989 -0.31181437 -0.10579254
-0.225495 -0.11144606 -0.107446335 0.044529244 -0.050150797 0.075726375 -0.1625615 0.24204996
0.27075717 0.35206097 -0.34758797 -0.11154651 -0.07555968 0.3138552 -0.33105645 0.21214059
-0.2519457 0.30977347 -0.2038418 0.47171938 0.41075233 0.1915742 -0.5919233 0.517813
-0.106418535 0.23546834 -0.045983694 -0.37469628 0.10654887 -0.054871235 -0.31414783 -0.30697814
0.06461707 0.4438997 -0.16895273 0.11875565 -0.16651896 -0.23180407 -0.5815004 -0.06780695
0.1806385 0.2022707 0.13939108
00000000: 33af 76be 49c0 3ebe d506 11bf 4f23 90be
00000010: f290 a13e cbc7 21be 868b 94be d3de 123f
00000020: 9d88 6bbe edd7 e0be 054d 24be 1747 f5be
00000030: 818e 413f cbab 913e 31e3 c8be 4281 42be
00000040: aa99 e23e 43fb c6be 769b 2e3e 0034 513e
00000050: a6d7 34be 28d4 c2be 006f 45be b6ea f4be
00000060: b498 b23e b038 2fbe 13a9 d73c 8f79 73be
00000070: 7cf2 95be c7c6 3a3e 22a6 9fbe c2a9 d8bd
00000080: 29e8 66be d53d e4bd d30c dcbd 4c64 363d
00000090: ec6a 4dbd 6e16 9b3d 8676 26be f2db 773e
000000a0: afa0 8a3e 5641 b43e 0df7 b1be 7f72 e4bd
000000b0: 09bf 9abd a1b1 a03e 3b80 a9be 623b 593e
000000c0: 07ff 80be a19a 9e3e e8bb 50be 3485 f13e
000000d0: 214e d23e 072c 443e 4988 17bf 658f 043f
000000e0: f6f1 d9bd 9d1e 713e 6659 3cbd 31d8 bfbe
000000f0: 4b36 da3d a9c0 60bd fcd7 a0be 3d2c 9dbe
00000100: f455 843d d246 e33e f201 2dbe 2a36 f33d
00000110: f283 2abe 0c5e 6dbe 36dd 14bf 5fde 8abd
00000120: 4df9 383e 0d20 4f3e 89bc 0e3e

block2.bnorm_2.running_var f4 [75]
0.19444683 0.2802513 0.5300585 0.24061091 0.29010054 0.30563095 0.30343965 0.61234295
0.19798566 0.49535543 0.24066824 0.6059968 0.8585183 0.26664722 0.6944123 0.22095008
0.70025665 0.2770381 0.31697747 0.5349038 0.13028409 0.5127343 0.23647594 0.65454286
0.3122828 0.18653901 0.1757658 0.16147722 0.24894598 0.29693815 0.6518777 0.06574185
0.13374293 0.29188573 0.058256656 0.43375438 0.31972095 0.24534984 0.18169236 1.0681851
0.34858415 0.47715974 1.4034212 0.248533 0.11653799 0.3960261 0.8016696 0.15674429
0.5684897 0.718276 0.024881205 0.10812452 0.08423147 0.03769849 0.1615323 1.2751986
0.11268003 0.31392288 0.026229769 0.0631962 0.04516517 0.8808234 0.021378098 0.07856646
0.04505962 0.3692163 0.0708486 0.04253636 0.47676706 0.088352226 0.050949067 0.08164434
0.33717456 1.2237444 0.39296585
00000000: 121d 473e 197d 8f3e eab1 073f b562 763e
00000010: 0f88 943e a97b 9c3e 715c 9b3e 82c2 1c3f
00000020: c1bc 4a3e 3a9f fd3e bc71 763e 9b22 1b3f
00000030: dbc7 5b3f fc85 883e 01c5 313f bd40 623e
00000040: 0544 333f f0d7 8d3e df4a a23e 75ef 083f
00000050: 3169 053e 8e42 033f c026 723e 1f90 273f
00000060: 88e3 9f3e 1504 3f3e f3fb 333e 495a 253e
00000070: b2eb 7e3e 4708 983e 75e1 263f aaa3 863d
00000080: e8f3 083e 0c72 953e 889e 6e3d 0e15 de3e
00000090: 77b2 a33e fd3c 7b3e 900d 3a3e 4aba 883f
000000a0: 9f79 b23e 484e f43e 4ea3 b33f 6f7f 7e3e
000000b0: 78ab ee3d efc3 ca3e 383a 4d3f 9381 203e
000000c0: 8a88 113f f0e0 373f abd3 cb3c 6370 dd3d
000000d0: 8d81 ac3d bb69 1a3d b968 253e b539 a33f
000000e0: cac4 e63d 80ba a03e d0df d63c 026d 813d
000000f0: 1dff 383d a47d 613f 1f21 af3c 74e7 a03d
00000100: 7090 383d eb09 bd3e 1219 913d 9b3a 2e3d
00000110: d01a f43e 03f2 b43d f8af 503d 2635 a73d
00000120: 25a2 ac3e a8a3 9c3f d232 c93e

block3.conv_3.weight f4 [150, 15, 10]
-0.007711341 0.04464762 -0.02704988 0.043384977 -0.01833627 0.017017579 -0.014403282 -0.045899592
-0.029491631 -0.031559136 -0.030806975 0.03452159 0.03956591 0.03068368 -0.0457967 0.026983134
-0.029446196 0.01889274 0.03107088 0.06894851 -0.028646085 -0.021449775 0.02395295 0.020069944
-0.036738075 0.028712567 -0.07226057 -0.03721919 0.012464076 -0.059333075 -0.031203657 -0.031776577
-0.022995286 0.05030541 -0.057480298 0.016405854 -0.018570809 -0.042825475 -0.049444553 0.017670063
0.0011903568 0.06735976 -0.018081108 0.0089662885 0.04425477 0.033316225 -0.022953894 -0.04001024
-0.03335263 0.04638702 0.007482781 -0.0184398 -0.05680681 -0.064710006 -0.08010427 -0.0014054491
-0.012760763 -0.045305155 0.019418957 -0.052378193 0.041326486 0.0005907252 0.0136331525 0.036434516
-0.033786274 0.02510939 -0.05166434 0.007835885 -0.05415521 0.00991387 -0.014938142 0.047655787
-0.016333207 0.02722818 0.022864629 0.022997446 -0.047829583 0.012614256 0.04067061 -0.018619897
-0.014064319 -0.060330343 0.02466116 0.029359508 0.0108094765 0.022687957 -0.0426936 0.028939558
-0.052075833 0.051280376 0.0025337804 -0.029163953 0.040198784 -0.012090445 0.026943509 0.054284163
0.035117015 0.032981087 -0.016131753 -0.036929183 0.079215676 -0.022624567 -0.045964263 0.002873169
0.007946451 -0.0003203921 0.0449723 -0.004883936 0.026697483 0.003520496 -0.046946373 -0.0314006
-0.037048474 0.025693195 -0.02173028 -0.012623433 -0.0073100515 0.006467725 0.03723739 -0.03830299
0.07782003 0.05720867 -0.03476799 0.042721465 0.0015119405 0.02587174 0.0142636765 0.013318593
0.010988117 0.053819608 0.06757367 -0.028004479 0.040867265 0.028285503 -0.060606062 0.007392462
0.050906666 -0.040902596 -0.0004508558 0.011004096 -0.021857245 0.042927857 0.000645701 -0.0070231063
0.0065363324 -0.00032121816 0.02011493 -0.011402195 -0.015176933 -0.016113963 0.009439104 -0.017591711
-0.03725305 -0.024774347 -0.06465115 -0.015646042 0.07300029 -0.018986564 -0.04588683 -0.054265257
0.028694961 -0.063669145 0.0567359 -0.055381928 0.07058977 0.06440009 -0.04482491 -0.071666285
0.020228174 -0.056972973 -0.022493888 -0.0017823417 0.04915149 0.023601202 0.04634353 -0.0018111614
-0.014360385 0.031460162 0.048949625 0.002499697 0.014178976 -0.015561242 0.0004601713 -0.04114693
0.004552775 0.040690813 0.018621182 -0.022928873 -0.046896163 0.02046608 0.030388486 -0.037538193
0.0012267211 -0.06572571 0.0384248 9.519241e-05 -0.02091486 0.04134259 -0.039223846 -0.03266389
-0.016113658 0.04756165 -0.019942386 -0.034882475 0.07531403 0.015513527 0.0016313951 -0.03480581
-0.014204053 -0.07080241 -0.06052717 0.049933966 -0.048696432 -0.02582725 0.0622438 0.010415593
-0.009593516 -0.006207965 0.011155127 -0.043965433 -0.051072888 -0.008405548 -0.059528492 0.04313138
0.018010888 -0.009539776 -0.04958905 0.028335646 -0.026183179 0.04795438 -0.056040414 -0.028569968
0.018450638 -0.029011307 -0.0469338 0.02232971 0.022619488 -0.046321556 0.028770765 -0.06825428
0.055562735 0.0259332 -0.05924327 -0.044027984 0.025710674 0.039709177 -0.031714976 -0.06397763
0.033155072 0.055500176 -0.016070731 0.0077710524 -0.031777572 0.03319885 -0.042644933 -0.04721466
00000000: 6baf fcbb 6ce0 363d b697 ddbc 72b4 313d
00000010: f235 96bc 7368 8b3c befb 6bbc 3601 3cbd
00000020: 6f98 f1bc 2744 01bd e95e fcbc 8366 0d3d
00000030: dd0f 223d 575c fb3c 5295 3bbd bc0b dd3c
00000040: 2639 f1bc f3c4 9a3c 5c88 fe3c e034 8d3d
00000050: 32ab eabc 70b7 afbc fa38 c43c b969 a43c
00000060: aa7a 16bd 9e36 eb3c 5afd 93bd 2673 18bd
00000070: 2036 4c3c 3d07 73bd d09e ffbc 2828 02bd
00000080: 9c60 bcbc 0c0d 4e3d 7670 6bbd 9265 863c
00000090: cf21 98bc c469 2fbd 5f86 4abd cfc0 903c
000000a0: bf05 9c3a eaf3 893d d51e 94bc 57e7 123c
000000b0: 7d44 353d 9876 083d ce09 bcbc c7e1 23bd
000000c0: c49c 08bd 5100 3e3d 1e32 f53b 100f 97bc
000000d0: 42ae 68bd ae86 84bd b50d a4bd 0c37 b8ba
000000e0: 8512 51bc e691 39bd 8114 9f3c 848a 56bd
000000f0: f645 293d e6da 1a3a 965d 5f3c 5c3c 153d
00000100: 7a63 0abd 35b2 cd3c fd9d 53bd 1562 003c
00000110: dad1 5dbd c96d 223c 1cbf 74bc b732 433d
00000120: 38cd 85bc a20d df3c 9a4e bb3c 2465 bc3c
00000130: f4e8 43bd 06ac 4e3c 3a96 263d c188 98bc
00000140: 086e 66bc f31c 77bd 3306 ca3c 5a83 f03c
00000150: 3b1a 313c 18dc b93c 7cdf 2ebd a712 ed3c
00000160: 784d 55bd 5f0b 523d c80d 263b 3ee9 eebc
00000170: 7ba7 243d 0017 46bc a2b8 dc3c 1259 5e3d
00000180: dcd6 0f3d 2d17 073d bd26 84bc 0e43 17bd
00000190: d43b a23d 2857 b9bc 0645 3cbd c74b 3c3b
000001a0: d531 023c 4dfa a7b9 e034 383d 6d09 a0bb
000001b0: aeb4 da3c 1fb8 663b d74a 40bd ea9d 00bd
000001c0: 24c0 17bd 897a d23c b303 b2bc 84d2 4ebc
000001d0: 2889 efbb 36ef d33b 3c86 183d 99e3 1cbd
000001e0: 1c60 9f3d a353 6a3d e168 0ebd b4fc 2e3d
000001f0: 4e2c c63a f9f0 d33c 32b2 693c 3a36 5a3c
00000200: 8107 343c f371 5c3d 1064 8a3d a669 e5bc
00000210: 6f64 273d 00b7 e73c 103e 78bd 773c f23b
00000220: 8283 503d 7b89 27bd d760 ecb9 864a 343c
00000230: f70d b3bc 1fd5 2f3d 4344 293a 1622 e6bb
00000240: bb2e d63b 2c69 a8b9 11c8 a43c 46d0 3abc
00000250: aca8 78bc 6e01 84bc 79a6 1a3c 7e1c 90bc
00000260: a796 18bd 92f3 cabc d267 84bd 212c 80bc
00000270: 2d81 953d b689 9bbc d4f3 3bbd 3f45 5ebd
00000280: b211 eb3c f864 82bd e763 683d 29d8 62bd
00000290: 5f91 903d 32e4 833d 539a 37bd c6c5 92bd
000002a0: 8eb5 a53c 7e5c 69bd 1a45 b8bc 779d e9ba
000002b0: 1353 493d 4f57 c13c b7d2 3d3d 7e64 edba
000002c0: d247 6bbc 5fdc 003d 677f 483d f5d1 233b
000002d0: f04e 683c 94f4 7ebc 2543 f139 af89 28bd
000002e0: 722f 953b 69ab 263d 738b 983c 55d5 bbbc
000002f0: 3116 40bd 7ba8 a73c 46f1 f83c a6c1 19bd
00000300: eec9 a03a 339b 86bd 5363 1d3d 09a2 c738
00000310: a455 abbc d956 293d 2fa9 20bd 92ca 05bd
00000320: ca00 84bc 01d0 423d 375e a3bc ede0 0ebd
00000330: 3e3e 9a3d 732c 7e3c 89d4 d53a 8990 0ebd
00000340: 1eb8 68bc db00 91bd 56eb 77bd 8f87 4c3d
00000350: e975 47bd ab93 d3bc 5bf3 7e3d 2aa6 2a3c
00000360: 1f2e 1dbc 2f6c cbbb fec3 363c 1915 34bd
00000370: ce31 51bd 6cb7 09bc 26d4 73bd 88aa 303d
00000380: 928b 933c b84c 1cbc e31d 4bbd 2820 e83c
00000390: 1b7e d6bc d06b 443d a28a 65bd 910b eabc
000003a0: cb25 973c 1fa9 edbc a83d 40bd ccec b63c
000003b0: 814c b93c acbb 3dbd abb0 eb3c e6c8 8bbd
000003c0: c095 633d dd71 d43c 12a9 72bd b056 34bd
000003d0: 319f d23c 17a6 223d 90e7 01bd b406 83bd
000003e0: 9dcd 073d 2754 633d c4a6 83bc 50a4 fe3b
000003f0: 3329 02bd 84fb 073d 74ac 2ebd 2964 41bd

block3.bnorm_3.weight f4 [150]
0.9896624 1.0142804 0.9929031 1.0051165 0.9936276 0.9999629 1.0105425 1.0107352
1.0048318 0.98512995 0.9893615 1.0263336 1.0586474 1.0240691 1.0061321 1.0297652
1.0046668 1.007333 0.9892392 0.9902256 0.98284805 1.0046772 0.9726149 1.0060852
0.9858369 1.0208893 1.0036911 0.9687138 0.97733396 1.0231985 1.0084863 0.98017913
1.0502136 0.996987 0.98911166 0.98735684 1.0413513 0.9947387 1.0225232 1.0160017
1.0326813 1.0124892 0.9893186 1.0378597 1.0016226 0.9794898 0.9820663 1.0078043
0.9870041 1.0030754 0.99865097 1.0044854 1.0164028 0.9971005 1.0016377 1.0061063
1.0140668 1.0066361 1.0074924 0.9925203 0.98388964 1.0028017 1.0244677 0.9999953
0.98881406 1.0062969 0.9982453 1.0107946 0.99251366 0.98981595 0.99833137 1.0062512
0.9931338 0.99408877 0.99854183 1.0232115 0.99489355 1.0161905 0.99961835 0.99880123
0.9976383 1.0004468 0.99822915 0.9927527 0.9987158 1.0262512 1.0029731 0.99308115
0.9976056 1.0024137 0.97647095 1.0031459 1.0017091 1.0241652 0.9994996 0.98730063
0.9942385 0.9930085 1.0046834 1.0094675 0.98830694 0.9902176 0.9875826 0.99738646
1.018004 1.006835 1.0006082 1.0012275 1.0148555 0.99729747 1.0154914 0.9969654
1.0003805 1.0079783 0.99900347 1.0022061 1.0020484 0.9954147 0.998306 1.0206481
1.0413188 0.9843133 0.99520326 0.99798685 0.9880128 0.9962915 0.9967835 1.0062196
0.9974974 0.99284464 1.0063677 1.0269688 0.9961755 0.9972253 1.0009999 1.0313019
1.0221244 0.99338526 1.0035167 0.9911059 0.99843025 0.9955888 1.0143977 1.0019231
1.0116605 0.98720807 0.9901093 0.9798632 0.99902034 0.99281764
00000000: 845a 7d3f f1d3 813f e62e 7e3f a8a7 803f
00000010: 615e 7e3f 92fd 7f3f 7559 813f c55f 813f
00000020: 549e 803f 7a31 7c3f cc46 7d3f e65e 833f
00000030: c281 873f b214 833f f0c8 803f 59cf 833f
00000040: ec98 803f 4af0 803f c83e 7d3f 6d7f 7d3f
00000050: ee9b 7b3f 4399 803f 4afd 783f 66c7 803f
00000060: cf5f 7c3f 80ac 823f f378 803f a1fd 773f
00000070: 8f32 7a3f 2bf8 823f 1416 813f 05ed 7a3f
00000080: 666d 863f 8a3a 7f3f 6c36 7d3f 6bc3 7c3f
00000090: 004b 853f 32a7 7e3f 0ae2 823f 580c 823f
000000a0: e72e 843f 3f99 813f fc43 7d3f 96d8 843f
000000b0: 2b35 803f d8bf 7a3f b268 7b3f bbff 803f
000000c0: 4dac 7c3f c664 803f 97a7 7f3f fa92 803f
000000d0: 7d19 823f fa41 7f3f aa35 803f 17c8 803f
000000e0: f1cc 813f 74d9 803f 83f5 803f cf15 7e3f
000000f0: 31e0 7b3f ce5b 803f c221 833f b1ff 7f3f
00000100: eb22 7d3f 56ce 803f 018d 7f3f b861 813f
00000110: 6015 7e3f 9464 7d3f a592 7f3f d7cc 803f
00000120: 043e 7e3f 9a7c 7e3f 70a0 7f3f 98f8 823f
00000130: 58b1 7e3f 8812 823f fde6 7f3f 70b1 7f3f
00000140: 3965 7f3f a40e 803f f28b 7f3f 0a25 7e3f
00000150: d7ab 7f3f 335c 833f 6c61 803f 913a 7e3f
00000160: 1563 7f3f 184f 803f 00fa 793f 1667 803f
00000170: 0138 803f d817 833f 35df 7f3f bcbf 7c3f
00000180: 6a86 7e3f ce35 7e3f 7799 803f 3b36 813f
00000190: af01 7d3f e77e 7d3f 37d2 7c3f b854 7f3f
000001a0: f44d 823f f8df 803f ee13 803f 3928 803f
000001b0: c9e6 813f e34e 7f3f 9ffb 813f 2039 7f3f
000001c0: 780c 803f 6f05 813f b1be 7f3f 4a48 803f
000001d0: 1f43 803f 7fd3 7e3f fb90 7f3f 99a4 823f
000001e0: ef49 853f f5fb 7b3f a4c5 7e3f 117c 7f3f
000001f0: 68ee 7c3f f60c 7f3f 342d 7f3f cecb 803f
00000200: fd5b 7f3f 112b 7e3f a8d0 803f b773 833f
00000210: 5c05 7f3f 284a 7f3f c420 803f b301 843f
00000220: f9d4 823f 7f4e 7e3f 3c73 803f 1eb9 7d3f
00000230: 2099 7f3f e8de 7e3f c9d7 813f 043f 803f
00000240: 177e 813f abb9 7c3f ce77 7d3f 51d8 7a3f
00000250: ccbf 7f3f 4c29 7e3f

block3.bnorm_3.bias f4 [150]
-0.0027467136 0.0031411787 -0.011646018 -0.0050936695 -0.016691806 -0.006605018 -0.009891574 -0.0011784735
-0.0037803014 0.0015775476 -0.008962184 0.042921953 0.01127916 0.0047301115 -0.005358369 0.017208787
-0.0013495894 -0.011895686 0.0042408924 0.006378812 -0.011006398 0.00072205515 -0.0015036041 -0.0019720255
0.0105170235 -0.0046285354 0.0004364681 0.0016627937 0.0037413756 0.0027648448 -0.0029574533 -0.0002787934
0.031237097 -0.014843581 -0.017895354 -0.0075842286 0.01824716 0.0024854087 0.024491414 -0.016220441
-0.0035848462 -0.0037874032 0.00056051806 0.026860477 -0.0106442515 -0.006173022 0.019135673 0.0049700118
-0.0135003505 0.009037864 -0.017419515 -0.021583444 -0.0015995303 0.0088670645 0.03160321 0.00049540226
-0.0008861297 0.0020537574 -0.0012780392 -0.015394063 -0.00954476 -0.00613189 0.013255639 -0.0060949423
-0.008760246 -0.004648556 -0.00798512 0.017457647 -0.015210358 -0.0049039153 -0.012424888 0.012339296
-0.003019436 -0.0035004707 0.00773046 0.016360272 -0.0011458307 0.010589382 -0.013267724 -0.0047925618
-0.0025951054 0.0021430633 0.014775874 -0.007456529 0.0071250186 0.022848167 -0.0015368138 0.0017270013
-0.001223767 -0.012208913 -0.014210052 -0.0010668411 -0.0076278937 0.0063893297 -0.0019496107 -0.0019185925
-0.005239009 -0.011749434 -0.001966001 -0.0008484186 -0.020886796 -0.0055133537 -0.0154872555 -0.0042525097
-0.007397333 0.0015057344 -0.013876452 0.0040096682 0.0034220621 -0.0028270364 0.01631236 -0.0011954962
-0.0074929954 -0.002415262 -0.008099118 -0.01056361 0.003363476 -0.0047787423 -0.0029882044 0.026694352
-0.002975423 -0.011588083 -0.018501008 0.00872727 -0.010308441 -0.005913265 0.0011754617 -0.00034780081
-0.01201429 -0.016201928 -0.021246657 0.005084828 -0.0019594075 -0.015560353 0.0063797347 0.025583135
0.0020144088 -0.0071950383 -0.011304417 -0.0090980595 -0.0011360433 0.00042661553 0.018413855 -0.01408431
0.004106405 -0.016898528 -0.0075375494 -0.0047379187 -0.025817217 -0.0070146658
00000000: 3502 34bb 3cdc 4d3b f1ce 3ebc cce8 a6bb
00000010: 41bd 88bc e86e d8bb 4510 22bc 0277 9aba
00000020: efbe 77bb b7c5 ce3a 20d6 12bc eece 2f3d
00000030: 3acc 383c 0dff 9a3b 4295 afbb 71f9 8c3c
00000040: b5e4 b0ba 20e6 42bc 2ff7 8a3b 5a05 d13b
00000050: 2e54 34bc 4d48 3d3a 9514 c5ba 193d 01bb
00000060: 984f 2c3c f8aa 97bb c2d5 e439 19f2 d93a
00000070: de31 753b 6632 353b d5d1 41bb 042b 92b9
00000080: f1e4 ff3c 7e32 73bc 4799 92bc 1f85 f8bb
00000090: 117b 953c 3de2 223b 38a2 c83c bbe0 84bc
000000a0: bdef 6abb 1536 78bb bbef 123a 810a dc3c
000000b0: 3a65 2ebc 1047 cabb 6ac2 9c3c 7bdb a23b
000000c0: 9330 5dbc 8d13 143c 5fb3 8ebc c3cf b0bc
000000d0: 55a7 d1ba 2a47 113c 5e72 013d e2dd 013a
000000e0: 284b 68ba 5598 063b e183 a7ba 6137 7cbc
000000f0: a061 1cbc 06ee c8bb 2e2e 593c 15b8 c7bb
00000100: 2387 0fbc ea52 98bb 05d4 02bc 5703 8f3c
00000110: de34 79bc 06b1 a0bb c291 4bbc c22a 4a3c
00000120: bbe1 45bb 2768 65bb cc4f fd3b fa05 863c
00000130: b32f 96ba 167f 2d3c de60 59bc ec0a 9dbb
00000140: a512 2abb a372 0c3b 8216 723c e655 f4bb
00000150: fd78 e93b 142c bb3c ea6e c9ba 8c5c e23a
00000160: ce66 a0ba e507 48bc 47d1 68bc 3fd5 8bba
00000170: 69f3 f9bb 955d d13b 148a ffba 4879 fbba
00000180: feab abbb b380 40bc 06d8 00bb 6968 5eba
00000190: c91a abbc 5da9 b4bb 42be 7dbc a358 8bbb
000001a0: 5465 f2bb 105c c53a 0f5a 63bc 8963 833b
000001b0: ad44 603b cd45 39bb 80a1 853c 32b2 9cba
000001c0: cd87 f5bb 5f49 1ebb 2ab2 04bc fe12 2dbc
000001d0: c36d 5c3b ff96 9cbb c0d5 43bb 1dae da3c
000001e0: 50ff 42bb f1db 3dbc 6d8f 97bc d3fc 0e3c
000001f0: bce4 28bc 10c4 c1bb f311 9a3a 0959 b6b9
00000200: 96d7 44bc e8b9 84bc 780d aebc a19e a63b
00000210: 6769 00bb daf0 7ebc 180d d13b b993 d13c
00000220: 2c04 043b 5bc4 ebbb 2936 39bc 0710 15bc
00000230: 4ae7 94ba 5eab df39 a7d8 963c e1c1 66bc
00000240: 068f 863b c86e 8abc 8cfd f6bb 8b40 9bbb
00000250: a17e d3bc 48db e5bb

block3.bnorm_3.running_mean f4 [150]
-0.011923208 -0.4245546 -0.1597901 -0.2208628 0.58694 -0.40175253 0.09433459 -0.3677406
-0.014906091 0.18380064 0.39888555 -0.3572821 -0.32256034 -0.06630598 -0.06713139 -0.063386165
-0.08601334 0.03063676 0.07226508 -0.09622152 0.40294948 -0.077528305 0.25921637 -0.102001384
0.1971291 -0.21367274 -0.23359114 0.5039575 -0.15406781 -0.20852785 -0.21946017 0.1992368
-0.101525046 -0.56315315 -0.48864174 0.14270721 -0.14419888 -0.1201808 -0.031750567 0.023250936
-0.19126073 -0.10950288 -0.12162316 -0.038217593 0.111480005 0.3895377 0.1020907 -0.05982931
-0.1804503 -0.1361279 -0.26665595 -0.080237776 -0.37833986 0.29851952 0.08901746 -0.12027606
-0.25787172 -0.33771583 -0.11519279 -0.47291982 0.16582184 0.05880852 -0.05403339 -0.094535455
-0.011543305 -0.2982385 0.045658633 -0.258979 -0.31925848 0.019928329 0.23221512 0.06567996
0.11055416 0.015408841 -0.044687998 -0.10373152 -0.02519766 -0.12060515 0.11285988 -0.05832096
0.11222797 0.008629875 0.009670643 0.12904486 0.10675793 -0.11369282 -0.2736522 -0.07054556
0.03762555 -0.053465374 0.13138554 -0.07837256 -0.0013769298 -0.30973384 -0.05969338 -0.064792335
-0.1067053 0.21259502 -0.07813164 -0.059794277 0.23128116 -0.2544341 0.33254376 0.3267085
-0.025691215 -0.29604745 0.2743568 -0.306397 -0.17429844 -0.34544536 -0.20086572 -0.12783153
-0.07198993 -0.27410173 0.44533798 -0.17237233 -0.34903905 -0.32150242 0.15825748 -0.16370913
-0.08768698 -0.3289204 0.07216486 -0.0922329 -0.051772285 0.15327354 0.052979857 -0.1521539
0.10341782 0.22928344 -0.05209803 -0.0655676 0.16541272 -0.076261744 -0.20967446 0.05294126
-0.104597315 0.19678552 -0.041149445 -0.17411047 -0.18860173 -0.09972539 0.03568757 0.033214893
-0.22394659 0.025220795 0.05670055 0.07209341 -0.00940411 0.27090672
00000000: 8f59 43bc 385f d9be 04a0 23be dc29 62be
00000010: b341 163f 82b2 cdbe 7e32 c13d 7f48 bcbe
00000020: ad38 74bc 3c36 3c3e ba3a cc3e aeed b6be
00000030: a126 a5be 6ecb 87bd 2f7c 89bd 9bd0 81bd
00000040: c327 b0bd f1f9 fa3c b7ff 933d ca0f c5bd
00000050: 654f ce3e 29c7 9ebd 02b8 843e 1ae6 d0bd
00000060: 36dc 493e 07cd 5abe 8432 6fbe 5c03 013f
00000070: f4c3 1dbe 5388 55be 2bba 60be bb04 4c3e
00000080: 5dec cfbd ce2a 10bf 402f fabe d721 123e
00000090: dfa8 13be 5a21 f6bd e20c 02bd bf78 be3c
000000a0: dad9 43be 0c43 e0bd 9015 f9bd 0d8a 1cbd
000000b0: a14f e43d 7c71 c73e ee14 d13d 940f 75bd
000000c0: f7c7 38be 1d65 0bbe 2187 88be b453 a4bd
000000d0: c3b5 c1be 8dd7 983e c94e b63d 4c53 f6bd
000000e0: c307 84be 17e9 acbe 33ea ebbd 8c22 f2be
000000f0: 33cd 293e 34e1 703d 1e52 5dbd ce9b c1bd
00000100: 2120 3dbc b7b2 98be 8c04 3b3d e598 84be
00000110: d975 a3be bc40 a33c cdc9 6d3e 3783 863d
00000120: 386a e23d 5d75 7c3c c30a 37bd 3171 d4bd
00000130: 536b cebc d5ff f6bd 1523 e73d f5e1 6ebd
00000140: c7d7 e53d 5264 0d3c 9e71 1e3c 5624 043e
00000150: e7a3 da3d c8d7 e8bd 241c 8cbe 317a 90bd
00000160: 401d 1a3d 82fe 5abd ee89 063e cb81 a0bd
00000170: 197a b4ba 6f95 9ebe 0c81 74bd d8b1 84bd
00000180: 4f88 dabd 82b2 593e 7b03 a0bd d8ea 74bd
00000190: f8d4 6c3e 3045 82be 2d43 aa3e 5646 a73e
000001a0: 6276 d2bc 8893 97be 7f78 8c3e 11e0 9cbe
000001b0: 4a7b 32be 37de b0be beaf 4dbe 45e6 02be
000001c0: 756f 93bd 1057 8cbe 5703 e43e 5f82 30be
000001d0: 3fb5 b2be f79b a4be 400e 223e 5ea3 27be
000001e0: 3b95 b3bd 4168 a8be 2ccb 933d 9ae4 bcbd
000001f0: 2d0f 54bd bdf3 1c3e 6801 593d 3bce 1bbe
00000200: b9cc d33d 47c9 6a3e be64 55bd 4e48 86bd
00000210: f461 293e 1e2f 9cbd e7b4 56be efd8 583d
00000220: 1e37 d6bd 2582 493e 528c 28bd 044a 32be
00000230: d020 41be d33c ccbd 212d 123d 570c 083d
00000240: 4152 65be d79b ce3c d63e 683d b6a5 933d
00000250: b213 1abc 49b4 8a3e

block3.bnorm_3.running_var f4 [150]
0.29360694 0.105658025 0.09293372 0.08284169 0.43243906 0.07282962 0.123223394 0.30274498
0.17156549 0.2395579 0.30908468 0.09766773 0.080537885 0.10135013 0.15926483 0.067076236
0.19731873 0.09846849 0.12043534 0.17445493 0.34233603 0.06722127 0.24474162 0.082423195
0.09397003 0.15135095 0.06669463 0.48802748 0.19982457 0.13735317 0.16479294 0.17815644
0.09401499 0.49721077 0.24571854 0.11775741 0.1303899 0.115025 0.07093762 0.06719083
0.08324173 0.09993126 0.11007108 0.06260196 0.08485813 0.29582334 0.20470046 0.14274713
0.12618111 0.1789959 0.15850227 0.13592273 0.109593034 0.23475423 0.13289352 0.12966533
0.18315552 0.10251585 0.1539516 0.25915378 0.09308092 0.23430713 0.08483634 0.09527087
0.34849584 0.081433006 0.1430493 0.03199011 0.14784701 0.08338454 0.280029 0.049929816
0.108029224 0.06466549 0.17816819 0.09578941 0.02570977 0.050638292 0.16963863 0.08347819
0.1369421 0.044508465 0.05712703 0.11498021 0.17751613 0.04440991 0.04853722 0.28198928
0.33776784 0.033669207 0.0702536 0.028191205 0.096060805 0.06187166 0.060544513 0.11614992
0.16560954 0.3271929 0.034434784 0.019609027 0.06919584 0.26904374 0.1644654 0.26451868
0.046708163 0.0433605 0.06815158 0.04365214 0.055818528 0.08940261 0.050805993 0.29471555
0.06814824 0.04236902 0.11725638 0.104837686 0.39211532 0.13716167 0.18266973 0.15610804
0.08332467 0.35634458 0.1111791 0.04208938 0.1400511 0.29537877 0.14261003 0.18683347
0.10534247 0.078242645 0.06434974 0.08020181 0.064163424 0.021449298 0.10102688 0.030312534
0.15605801 0.28307986 0.08911391 0.27506852 0.11519286 0.13492075 0.20561883 0.034967646
0.10468199 0.056887552 0.07691844 0.09180823 0.10896853 0.11088855
00000000: a653 963e 3c63 d83d 0954 be3d e7a8 a93d
00000010: a768 dd3e b227 953d 8c5c fc3d 6401 9b3e
00000020: ddae 2f3e ab4e 753e 5940 9e3e 0506 c83d
00000030: 0cf1 a43d a890 cf3d 5216 233e 445f 893d
00000040: ec0d 4a3e d9a9 c93d cea6 f63d 50a4 323e
00000050: ab46 af3e 4eab 893d 8c9d 7a3e 7ecd a83d
00000060: 5c73 c03d befb 1a3e 3297 883d bdde f93e
00000070: d09e 4c3e 4fa6 0c3e 7bbf 283e a46e 363e
00000080: ee8a c03d 6992 fe3e a49d 7b3e cc2a f13d
00000090: ee84 053e 3a92 eb3d be47 913d 599b 893d
000000a0: a47a aa3d c3a8 cc3d f26c e13d 7535 803d
000000b0: 19ca ad3d 2876 973e ff9c 513e 4e2c 123e
000000c0: 9f35 013e b44a 373e 6b4e 223e 542f 0b3e
000000d0: 5072 e03d 6a63 703e 3d15 083e fdc6 043e
000000e0: 1f8d 3b3e d4f3 d13d 7da5 1d3e ceaf 843e
000000f0: 36a1 be3d 35ee 6f3e adbe ad3d 601d c33d
00000100: 0c6e b23e 59c6 a63d 847b 123e 1008 033d
00000110: 3565 173e 84c5 aa3d f65f 8f3e 3583 4c3d
00000120: 6d3e dd3d 576f 843d b971 363e 3d2d c43d
00000130: 4c9d d23c 196a 4f3d c0b5 2d3e 9df6 aa3d
00000140: 8d3a 0c3e 824e 363d 08fe 693d bf7a eb3d
00000150: cac6 353e 2ae7 353d f7ce 463d e660 903e
00000160: e8ef ac3e b9e8 093d 1fe1 8f3d 3ef1 e63c
00000170: 87bb c43d 236d 7d3d 86fd 773d 02e0 ed3d
00000180: 8c95 293e d485 a73e 7d0b 0d3d 1ca3 a03c
00000190: 8cb6 8d3d 1ac0 893e 9e69 283e fe6e 873e
000001a0: 0f51 3f3d c89a 313d 0e93 8b3d 96cc 323d
000001b0: f8a1 643d b718 b73d f219 503d f5e4 963e
000001c0: 4e91 8b3d 238b 2d3d 1d24 f03d 24b5 d63d
000001d0: 57c3 c83e 1c74 0c3e c60d 3b3e c9da 1f3e
000001e0: 20a6 aa3d cc72 b63e deb1 e33d ea65 2c3d
000001f0: 8e69 0f3e e33b 973e 5d08 123e 4651 3f3e
00000200: cbbd d73d ae3d a03d ccc9 833d d940 a43d
00000210: 1d68 833d 70b6 af3c 2ee7 ce3d fe51 f83c
00000220: accd 1f3e d8ef 903e 5b81 b63d c8d5 8c3e
00000230: 3cea eb3d aa28 0a3e be8d 523e 3c3a 0f3d
00000240: 8363 d63d ec02 693d 6a87 9d3d f405 bc3d
00000250: e52a df3d 8919 e33d
