submit_entry/checkpoints/Combined_edgcn_12s_slice_norm/PRA/5/best.pth (torch_old, 216618 bytes, 27 tensors)

conv_time.weight f4 [45, 1, 10]
0.06350906 -0.002508201 0.0006245556 -0.011334669 0.014877411 0.063029066 -0.04217211 -0.07010215
-0.07106512 -0.02900476 0.043375757 0.013663903 0.04805216 -0.023255741 -0.032836203 -0.011866033
-0.008102024 0.06993918 0.037956517 0.017867975 -0.022201082 0.054020654 -0.057643767 -0.067403324
-0.08059659 0.050318383 0.045170683 -0.083725534 -0.080471694 -0.043662068 -0.07541269 0.102432266
-0.012807832 -0.0058507 -0.044390094 -0.015345549 -0.026606338 0.0906677 0.10249931 0.057582155
0.073354125 0.115219474 0.04359283 0.081737354 -0.0959176 -0.07371724 -0.004365595 -0.05435316
-0.0068427515 -0.067467436 0.063434534 -0.060256056 -0.10386742 -0.08018673 0.030910624 0.045102935
-0.005123958 -0.11065032 0.0013036787 -0.08317782 0.061745465 -0.010536253 0.05233422 0.060250185
-0.044173628 0.035645153 0.11958013 0.08291289 0.08398575 -0.009880503 0.025953615 -0.048776098
0.0649593 -0.039023537 -0.060978808 -0.008770669 -0.05902042 0.08394487 -0.081064984 0.057563707
0.097156264 0.05613675 -0.048717335 0.09167634 -0.023697851 0.02797573 0.07164486 0.0022154588
-0.010298887 -0.11321649 -0.08547002 -0.041961156 0.015089202 -0.029912107 -0.09426855 -0.107112385
-0.10535484 0.07895188 -0.01659023 -0.091842785 0.11144746 0.10194675 -0.024105862 0.07400238
-0.018113952 0.080623105 -0.05919818 0.10933444 0.05622337 -0.021677254 -0.02512874 -0.0846829
0.012502384 -0.013003477 -0.029837977 -0.096356764 0.050796397 -0.044843588 0.078198425 -0.018543027
-0.048445463 -0.09117961 0.049614467 0.024416836 0.08969678 0.016201561 -0.06319269 0.015254324
0.03418616 0.016599597 0.06253158 0.020966968 -0.11503352 0.03999096 0.11302278 0.027707402
0.040203266 -0.096568234 0.03563136 0.09252502 -0.04471793 0.11666452 0.026183313 0.112155065
-0.07358992 -0.06367898 0.055376597 -0.04045211 -0.0022228672 0.019492675 0.080735475 -0.06169374
-0.042685118 0.050833754 -0.052823775 1.2494994e-06 -0.09470227 -0.042011112 -0.044796333 0.05651182
-0.035287343 0.11708835 0.064513244 -0.0811848 0.122348726 0.029651182 0.13046561 -0.023688681
0.09509478 0.07333032 0.032152 -0.09123949 0.018857313 0.053466465 -0.034494817 0.068902
-0.107455395 -0.09478385 0.06435004 0.08550703 0.07785567 -0.038589247 0.08505345 0.027992623
-0.04670869 -0.08820814 0.040904894 0.020814141 -0.10073831 0.12178942 -0.06990735 -0.02696648
-0.0573202 0.0029929325 0.09821239 -0.09654161 -0.035341937 -0.085227855 0.11596858 0.024174677
-0.09069138 0.030746965 -0.003592324 0.018719027 -0.053514026 0.07260028 -0.022965385 -0.04428751
0.08701315 0.040096916 0.0908643 0.07533465 0.046868596 0.077743456 -0.029571963 0.06464486
-0.0003560465 -0.04131728 -0.070862524 0.07701972 0.03168337 -0.10283896 0.11213543 0.005076012
0.010250724 -0.09953893 0.0971164 -0.061077807 -0.04878014 -0.0757644 -0.06777946 0.0817242
-0.09123007 0.111263335 0.021951977 -0.022254523 0.042533465 -0.07254797 0.057993423 -0.057507154
0.101636775 0.08968689 0.09126397 -0.010669457 0.064599864 -0.088967845 -0.027613973 -0.117578365
0.046787914 -0.114765696 -0.050446216 -0.06689642 -0.05558305 -0.050035086 -0.009322053 0.010205717
00000000: 0a11 823d a160 24bb 38b9 233a 0cb5 39bc
00000010: 62c0 733c 6215 813d aabc 2cbd b791 8fbd
00000020: 978a 91bd 649b edbc c7aa 313d 90de 5f3c
00000030: 57d2 443d d382 bebc 417f 06bd c069 42bc
00000040: 5abe 04bc 463c 8f3d 4b78 1b3d dc5f 923c
00000050: 0bdf b5bc c344 5d3d df1b 6cbd c10a 8abd
00000060: d30f a5bd a61a 4e3d e504 393d 4b78 abbd
00000070: 58ce a4bd ffd6 32bd f871 9abd 02c8 d13d
00000080: f1d7 51bc 3bb7 bfbb 63d2 35bd e66b 7bbc
00000090: 89f5 d9bc fdaf b93d 29eb d13d 44db 6b3d
000000a0: b03a 963d 30f8 eb3d 658e 323d ea65 a73d
000000b0: 7270 c4bd 10f9 96bd 440d 8fbb 6ba1 5ebd
000000c0: 2939 e0bb 5e2c 8abd f7e9 813d 0ecf 76bd
000000d0: 71b8 d4bd f138 a4bd 4738 fd3c dbbd 383d
000000e0: e0e6 a7bb a39c e2bd 33e0 aa3a 2259 aabd
000000f0: d0e8 7c3d 40a0 2cbc 685c 563d e6c8 763d
00000100: 68ef 34bd a700 123d 6de6 f43d 3cce a93d
00000110: b900 ac3d d5e1 21bc ad9c d43c 72c9 47bd
00000120: 6209 853d 25d7 1fbd eac4 79bd dab2 0fbc
00000130: 65bf 71bd 4aeb ab3d 6605 a6bd ecc7 6b3d
00000140: ddf9 c63d a6ef 653d d48b 47bd cec0 bb3d
00000150: ff21 c2bc 5c2d e53c 8aba 923d 3b31 113b
00000160: aabc 28bc 0cde e7bd e80a afbd 76df 2bbd
00000170: b338 773c 3c0a f5bc df0f c1bd bd5d dbbd
00000180: 47c4 d7bd 86b1 a13d 3ce8 87bc 1218 bcbd
00000190: 913e e43d 75c9 d03d a879 c5bc 8f8e 973d
000001a0: b663 94bc ba1d a53d ca79 72bd bcea df3d
000001b0: 7a4a 663d 7f94 b1bc cada cdbc 3a6e adbd
000001c0: cdd6 4c3c 890c 55bc c66e f4bc b256 c5bd
000001d0: e20f 503d e9ad 37bd 7f26 a03d 8ce7 97bc
000001e0: c06e 46bd 60bc babd 8a38 4b3d d105 c83c
000001f0: f2b2 b73d 23b9 843c 2b6b 81bd 46ed 793c
00000200: c906 0c3d e1fb 873c 8f10 803d ebc2 ab3c
00000210: b296 ebbd 90cd 233d 7d78 e73d a2fa e23c
00000220: 2eac 243d 91c5 c5bd 30f2 113d c27d bd3d
00000230: 262a 37bd cfed ee3d 637e d63c 8eb1 e53d
00000240: 50b6 96bd 206a 82bd 92d2 623d 1db1 25bd
00000250: 86ad 11bb 1aaf 9f3c a458 a53d 93b2 7cbd
00000260: 97d6 2ebd 0e37 503d be5d 58bd 79b4 a735
00000270: 44f3 c1bd d813 2cbd 5c7c 37bd f078 673d
00000280: 7689 10bd 04cc ef3d 851f 843d 3744 a6bd
00000290: f891 fa3d 09e7 f23c c798 053e c40e c2bc
000002a0: 0dc1 c23d 352e 963d d1b1 033d c5db babd
000002b0: a77a 9a3c a7ff 5a3d 704a 0dbd 7e1c 8d3d
000002c0: 9311 dcbd 091e c2bd f4c9 833d 4f1e af3d
000002d0: cb72 9f3d c20f 1ebd 8130 ae3d c950 e53c
000002e0: 9c51 3fbd 78a6 b4bd e48b 273d 6b82 aa3c
000002f0: e34f cebd bb6c f93d 962b 8fbd cfe8 dcbc
00000300: 96c8 6abd 1325 443b 9423 c93d 9cb7 c5bd
00000310: b5c2 10bd f18b aebd ef80 ed3d f909 c63c
00000320: 67bc b9bd 0fe1 fb3c 326d 6bbb a558 993c
00000330: 8631 5bbd 75af 943d e721 bcbc d266 35bd
00000340: f333 b23d aa3c 243d 1017 ba3d 0e49 9a3d
00000350: 49f9 3f3d f637 9f3d e740 f2bc 8664 843d
00000360: c1ab bab9 4f3c 29bd 5f20 91bd 84bc 9d3d
00000370: 6cc6 013d 3c9d d2bd 43a7 e53d ad54 a63b
00000380: a7f2 273c 11db cbbd f7e4 c63d b92c 7abd
00000390: afcd 47bd 5e2a 9bbd f5cf 8abd 045f a73d
000003a0: d5d6 babd 08de e33d a2d4 b33c 1e4f b6bc
000003b0: 9237 2e3d 0894 94bd 838a 6d3d 9f8c 6bbd
000003c0: f126 d03d c3ad b73d 9be8 ba3d f2ce 2ebc
000003d0: ef4c 843d c634 b6bd b336 e2bc edcc f0bd
000003e0: afa4 3f3d 470a ebbd b1a0 4ebd fe00 89bd
000003f0: 0dab 63bd 97f1 4cbd 86bb 18bc e135 273c

conv_time.bias f4 [45]
0.010619819 0.0052523757 -0.0037376387 -0.0050507593 -0.0006032766 -0.009029852 0.0052970056 0.0027168535
-0.0043468163 -0.0055641388 -0.0021852057 -0.010295441 -0.0027328252 0.007613498 0.007756776 0.0012062063
0.0011811382 -0.0034636518 0.0060704537 0.0035559093 -0.0029449542 0.00077352615 -0.0028461136 -0.003614867
-0.003982146 -0.006685691 -0.0041123284 0.005001198 -0.000102704194 -0.002567039 -0.0024936853 -0.0034356383
0.0057261917 -0.005075747 0.003887447 -0.0060296543 -0.0011195156 0.0023392602 0.0023523087 -0.010915317
-0.0054577366 -0.0030582168 0.0026591131 0.0043036616 -0.010141546
00000000: c0fe 2d3c 1f1c ac3b 2cf3 74bb d780 a5bb
00000010: 3525 1eba f2f1 13bc 8192 ad3b 3d0d 323b
00000020: bd6f 8ebb 6153 b6bb ab35 0fbb 36ae 28bc
00000030: 3319 33bb a67a f93b 8e2c fe3b 9119 9e3a
00000040: 6cd0 9a3a 6ffe 62bb a8ea c63b 420a 693b
00000050: 2200 41bb 76c6 4a3a dd85 3abb 68e7 6cbb
00000060: a97c 82bb a413 dbbb b6c0 86bb 17e1 a33b
00000070: e562 d7b8 c53b 28bb 196d 23bb 7228 61bb
00000080: c7a2 bb3b 7452 a6bb 8ac4 7e3b 6894 c5bb
00000090: b6bc 92ba 464e 193b 3129 1a3b 28d6 32bc
000000a0: d0d6 b2bb 5d6c 48bb 8444 2e3b bb05 8d3b
000000b0: ba28 26bc

bnorm.weight f4 [45]
0.9977988 0.99376804 1.0019202 0.9923692 1.0277051 0.99822956 0.9852612 0.99173534
0.99944913 1.0072094 1.0019143 0.9972251 0.99746764 0.99530905 0.99600095 0.9988822
0.99810535 1.0235924 1.0030932 0.99982387 0.9983401 1.0019141 0.99110764 0.98798436
1.0109786 0.9984577 0.9964472 0.9952561 0.99746066 0.99838805 1.0042235 1.0089923
0.9964865 1.002466 1.005803 0.9927169 0.9956166 1.0064728 0.9968633 0.9968554
1.0010604 0.99388045 0.9896774 1.0012041 1.0104309
00000000: be6f 7f3f 9567 7e3f ec3e 803f e80b 7e3f
00000010: d78b 833f f98b 7f3f 143a 7c3f 5ee2 7d3f
00000020: e6db 7f3f 3dec 803f ba3e 803f 254a 7f3f
00000030: 0a5a 7f3f 93cc 7e3f ebf9 7e3f beb6 7f3f
00000040: d583 7f3f 1305 833f 5c65 803f 75f4 7f3f
00000050: 3793 7f3f b93e 803f 3bb9 7d3f 8bec 7c3f
00000060: bf67 813f ec9a 7f3f 2a17 7f3f 1bc9 7e3f
00000070: 9559 7f3f 5c96 7f3f 658a 803f a926 813f
00000080: bd19 7f3f ce50 803f 27be 803f b222 7e3f
00000090: bbe0 7e3f 1ad4 803f 6f32 7f3f ea31 7f3f
000000a0: bf22 803f f36e 7e3f 805b 7d3f 7527 803f
000000b0: cd55 813f

bnorm.bias f4 [45]
0.0037505943 -0.0025586449 -0.010414107 0.022511644 0.019011006 -0.008013848 -0.023376474 0.00861534
-0.0032926786 0.005987898 0.014982718 0.0043527232 0.023237532 0.006050322 -0.025844252 -0.00072950195
-0.008172518 0.0011550052 -0.0005565647 -0.004726981 -0.0026662857 -0.0009388718 -0.011778088 -0.016437659
0.004574079 -0.0093695 0.012536365 -0.0029257762 0.005673144 0.0040997607 -0.012928298 0.006995369
-0.0039241756 -0.022671755 -0.0022062997 0.0060996534 -0.0071465974 0.020613914 0.017580682 -0.010517782
0.02015266 0.018166218 0.0076642376 -0.014822416 0.0039654057
00000000: 88cc 753b f0ae 27bb ee9f 2abc 576a b83c
00000010: f8bc 9b3c 844c 03bc 0580 bfbc 5b27 0d3c
00000020: fbc9 57bb 2136 c43b 137a 753c 4aa1 8e3b
00000030: a35c be3c c841 c63b 53b7 d3bc 0c3c 3fba
00000040: 06e6 05bc 8b63 973a 6de6 11ba cae4 9abb
00000050: dabc 2ebb 9f1e 76ba e2f8 40bc 45a8 86bc
00000060: 28e2 953b 8882 19bc 5365 4d3c 61be 3fbb
00000070: c8e5 b93b 4957 863b 36d1 53bc 6939 e53b
00000080: 5f96 80bb 1eba b9bc 9197 10bb 9adf c73b
00000090: 012e eabb 83de a83c 5d05 903c c652 2cbc
000000a0: 3117 a53c 52d1 943c 4924 fb3b b8d9 72bc
000000b0: 3cf0 813b

bnorm.running_mean f4 [45]
-0.024051215 0.068611786 -0.12047247 0.06512548 0.0027097468 -0.13244915 0.18173203 -0.024547372
0.056838166 -0.20104979 0.16566236 -0.07956876 0.014018927 0.09800346 0.05095656 -0.024867386
0.0862469 -0.0035837963 0.023707049 -0.017965896 0.0020075 0.05074515 -0.02485958 -0.0034428923
0.0016433281 -0.053808875 -0.004609642 0.03850483 -0.0055248453 0.05583328 0.0027941265 -0.012517808
-0.0053399378 0.033845864 0.024322273 -0.026146319 0.01114632 0.050395977 -0.025383908 -0.040395435
0.015550182 0.021465238 0.07748333 -0.0140833715 -0.016263084
00000000: 0e07 c5bc 5684 8c3d 45ba f6bd 8260 853d
00000010: 0296 313b c0a0 07be f617 3a3e 9217 c9bc
00000020: 23cf 683d ffdf 4dbe 65a3 293e f2f4 a2bd
00000030: a4af 653c 0ab6 c83d d3b7 503d b0b6 cbbc
00000040: 37a2 b03d 20de 6abb 4935 c23c 372d 93bc
00000050: 4390 033b 25da 4f3d 51a6 cbbc 26a2 61bb
00000060: f164 d73a b266 5cbd 7b0c 97bb 3eb7 1d3d
00000070: c309 b5bb 70b1 643d aa1d 373b 7e17 4dbc
00000080: a5fa aebb f6a1 0a3d 813f c73c ce30 d6bc
00000090: 0e9f 363c 036c 4e3d eaf1 cfbc af75 25bd
000000a0: 31c6 7e3c ded7 af3c 95af 9e3d f1bd 66bc
000000b0: 293a 85bc

bnorm.running_var f4 [45]
0.0006333335 0.0019582843 0.006760966 0.002664886 0.00016760828 0.0076874807 0.015379156 0.00042735192
0.0019396776 0.018822206 0.014031252 0.0026675717 0.00017387261 0.004003454 0.0010105687 0.0018495338
0.019690795 5.2800024e-06 0.0008545879 0.0012403274 9.428044e-05 0.0067269104 0.0014671525 5.1655734e-06
0.0002601838 0.0059532495 1.6456914e-05 0.0031173904 8.7215216e-05 0.009231494 0.00013626395 0.00026474337
0.0003333737 0.0035752144 0.0013549355 0.001359112 0.00057300244 0.005578308 0.0019551257 0.0022427063
0.0011952599 0.0015928696 0.013525433 0.0008901972 0.00010021856
00000000: 4b06 263a 8f56 003b 188b dd3b 5ea5 2e3b
00000010: 01c0 2f39 43e7 fb3b dbf8 7b3c 340e e039
00000020: c83c fe3a 0731 9a3c 56e3 653c 6dd2 2e3b
00000030: 9351 3639 682f 833b 0f75 843a 0e6c f23a
00000040: 974e a13c e02a b136 6c06 603a 7b92 a23a
00000050: 6db8 c538 6a6d dc3b 784d c03a f053 ad36
00000060: 4769 8839 7a13 c33b f40c 8a37 224d 4c3b
00000070: 50e7 b638 b13f 173c 13e2 0e39 41cd 8a39
00000080: a9c8 ae39 254e 6a3b 1798 b13a 3b24 b23a
00000090: 8b35 163a 3dca b63b 9121 003b 5efa 123b
000000a0: 44aa 9c3a d6c7 d03a c799 5d3c 1f5c 693a
000000b0: 6e2c d238

block2.conv_2.weight f4 [45, 15, 10]
0.10154205 0.0076376987 0.071029566 0.05088347 -0.0540435 0.02285701 0.05655225 -0.07831821
0.033263434 0.07440619 -0.10524225 -0.027463539 0.05024963 0.0823586 -0.032991674 -0.08027234
-0.03908492 -0.067880034 0.017900735 -0.07520008 0.04944193 0.07677146 0.086036965 0.088723674
0.010526939 -0.0006922274 0.036563314 -0.083031245 0.049549874 0.021482415 0.032587674 -0.09838343
0.03440218 0.031096235 0.05121217 0.0014101561 -0.057045024 -0.0036886646 0.05034193 0.087144345
-0.029525565 -0.0829325 -0.047559258 0.012560421 -0.09274564 0.07859059 -0.038547248 -0.08882637
0.017624607 -0.09182705 0.060853347 -0.027518345 0.046497766 0.054253515 -0.09307731 -0.09606161
-0.010263217 0.08354696 -0.06986999 0.032876577 -0.027825698 -0.06689656 -0.07240864 -0.011538769
-0.09320902 -0.08713845 0.08773955 -0.053537827 0.044800032 -0.04781255 -0.028866615 0.039759032
0.09253744 0.07982414 -0.089806795 0.028329354 0.021803917 0.018624922 0.016827779 0.09271465
0.06803728 -0.089570634 -0.039436366 0.03341202 -0.10107455 0.014275101 -0.10218229 0.013816304
-0.042876486 -0.068907 -0.020018604 0.02756635 0.07909991 -0.0010268751 0.03182492 -0.06342775
-0.091369465 -0.03331351 0.024740886 -0.053525012 0.065635756 0.007762929 0.037043698 -0.051973518
-0.04090889 0.052882865 0.06198407 -0.08351921 -0.02444768 -0.070760235 -0.07906497 -0.065440975
-0.08696432 -0.02006588 0.049805537 -0.09670479 0.058189053 -0.07110709 -0.083555244 -0.039872672
0.08052322 -0.0012540892 -0.052010883 0.059117574 0.019976944 -0.040017102 -0.05260654 0.06854151
0.066835254 -0.05773924 0.08273887 -0.08772102 0.074751936 -0.047470447 0.0417773 -0.077952206
-0.08640968 -0.048609514 0.08111144 -0.011656278 -0.08366689 -0.08022382 -0.040477652 0.0928456
0.00800923 -0.017809495 0.039269656 -0.087095164 -0.053253744 -0.01724392 -0.05748813 0.08925742
0.003526892 -0.019114017 -0.038159825 0.053378 -0.07230358 0.05271252 0.04593501 -0.0040984387
0.05977315 -0.08826458 -0.042484265 0.02110181 -0.025985375 -0.010719723 0.009418661 0.06004715
0.085231386 -0.053098887 -0.082843155 0.022673607 0.03883452 -0.02105521 -0.005804716 0.019524582
-0.044446517 -0.074411854 0.007847615 0.007203494 -0.09888806 0.0403078 -0.0667575 -0.10527961
0.027508043 0.07736901 0.06702317 0.02459757 -0.0035904192 -0.020937877 -0.05657952 -0.09142232
0.01784734 0.04440201 0.00826782 0.004902707 0.011718041 -0.087406985 0.022805393 0.08624633
-0.0705681 -0.008844738 0.048905592 0.084931344 0.07211877 0.040045448 0.04621499 0.08171577
-0.11144507 -0.049285095 0.06559393 -0.058483727 -0.09734424 0.034297183 -0.045333393 0.01965942
0.030999664 0.0679719 0.030946804 -0.013806301 0.046664875 -0.06461885 -0.005527249 -0.010532183
0.0728858 0.026203528 0.08493733 -0.047067344 -0.07805241 0.0049017896 -0.0022588582 -0.06307871
-0.093121424 0.062363833 -0.07211661 0.055044107 -0.07816166 -0.005398272 -0.0030877038 -0.023110338
0.089096285 -0.028522942 0.05665305 0.011166476 0.079856455 -0.101779185 0.028104 -0.1049276
-0.048177946 -0.044197388 -0.08786699 -0.08045218 -0.0086091105 -0.074059375 0.092582054 -0.046891928
00000000: 47f5 cf3d a945 fa3b f377 913d 2f6b 503d
00000010: b85c 5dbd a03e bb3c 55a3 673d 4c65 a0bd
00000020: 3d3f 083d 4662 983d 4089 d7bd 37fb e0bc
00000030: 8ed2 4d3d a0ab a83d 4722 07bd d365 a4bd
00000040: 8217 20bd b004 8bbd 90a4 923c 8002 9abd
00000050: 9f83 4a3d 5b3a 9d3d 2634 b03d c2b4 b53d
00000060: 2f79 2c3c 9876 35ba 6ac3 153d 490c aabd
00000070: cff4 4a3d e4fb af3c a77a 053d 407d c9bd
00000080: 4de9 0c3d 88bd fe3c dac3 513d fdd4 b83a
00000090: 0ba8 69bd 86bd 71bb 5733 4e3d bc78 b23d
000000a0: 99df f1bc 84d8 a9bd 7fcd 42bd 39ca 4d3c
000000b0: 6df1 bdbd 1af4 a03d b8e3 1dbd 9aea b5bd
000000c0: 7b61 903c d20f bcbd 5c41 793d 276e e1bc
000000d0: 7174 3e3d ef38 5e3d 519f bebd f3bb c4bd
000000e0: 0d27 28bc ab1a ab3d ff17 8fbd 97a9 063d
000000f0: b8f2 e3bc 1001 89bd fb4a 94bd 1b0d 3dbc
00000100: 5fe4 bebd a575 b2bd cbb0 b33d 7b4a 5bbd
00000110: 3d80 373d 18d7 43bd ae79 ecbc 5eda 223d
00000120: 4584 bd3d d77a a33d a0ec b7bd f612 e83c
00000130: 219e b23c 4b93 983c 69da 893c 2ee1 bd3d
00000140: 2157 8b3d cf70 b7bd 0788 21bd 0bdb 083d
00000150: 2c00 cfbd 1de2 693c f344 d1bd c75d 623c
00000160: 419f 2fbd 1d1f 8dbd 0efe a3bc d3d2 e13c
00000170: 22ff a13d 3698 86ba d95a 023d 68e6 81bd
00000180: ea1f bbbd bf73 08bd 66ad ca3c 0b3d 5bbd
00000190: 0a6c 863d 2b60 fe3b 22bb 173d 2fe2 54bd
000001a0: 1590 27bd b49b 583d 02e3 7d3d 1f0c abbd
000001b0: 8046 c8bc beea 90bd d1ec a1bd eb05 86bd
000001c0: 591a b2bd 3361 a4bc e400 4c3d 290d c6bd
000001d0: a557 6e3d 98a0 91bd 031f abbd 8751 23bd
000001e0: 5ce9 a43d 4060 a4ba 5d09 55bd 4525 723d
000001f0: b0a6 a33c f9e8 23bd f579 57bd 7e5f 8c3d
00000200: ece0 883d fb7f 6cbd ff72 a93d 14a7 b3bd
00000210: 8b17 993d 5f70 42bd ad1e 2b3d 68a5 9fbd
00000220: 8ff7 b0bd c51a 47bd c11d a63d f9f9 3ebc
00000230: 8c59 abbd 634c a4bd e5cb 25bd d525 be3d
00000240: 2539 033c 38e5 91bc 38d9 203d f35e b2bd
00000250: 9920 5abd 1f43 8dbc ac78 6bbd 98cc b63d
00000260: 6e23 673b 0095 9cbc 7a4d 1cbd e4a2 5a3d
00000270: e613 94bd 15e9 573d 5926 3c3d 324c 86bb
00000280: b1d4 743d 0fc4 b4bd fb03 2ebd b4dd ac3c
00000290: 48df d4bc c7a1 2fbc ba50 1a3c 00f4 753d
000002a0: cb8d ae3d 387e 59bd aca9 a9bd 00be b93c
000002b0: f210 1f3d fa7b acbc 7d35 bebb 04f2 9f3c
000002c0: 8d0d 36bd 3e65 98bd 4893 003c 4a0b ec3b
000002d0: d385 cabd cb19 253d 28b8 88bd d69c d7bd
000002e0: 8c58 e13c a573 9e3d 7243 893d d880 c93c
000002f0: 3d4d 6bbb e985 abbc edbf 67bd a03b bbbd
00000300: 9634 923c e2de 353d c075 073c e3a6 a03b
00000310: 07fd 3f3c 6f02 b3bd 60d2 ba3c eaa1 b03d
00000320: 0286 90bd 85e9 10bc 3b51 483d 7cf0 ad3d
00000330: 01b3 933d b206 243d ee4b 3d3d 995a a73d
00000340: 503d e4bd 2bdf 49bd 1c56 863d a28c 6fbd
00000350: 6b5c c7bd 347b 0c3d 82af 39bd cb0c a13c
00000360: 02f3 fd3c da34 8b3d 2784 fd3c d333 62bc
00000370: ab23 3f3d e356 84bd ed1d b5bb 2d8f 2cbc
00000380: 2645 953d c8a8 d63c 9ff3 ad3d b0c9 40bd
00000390: f1d9 9fbd 319f a03b 5a09 14bb 692f 81bd
000003a0: 72b6 bebd 3871 7f3d e0b1 93bd ee75 613d
000003b0: 3813 a0bd fde3 b0bb 135b 4abb e451 bdbc
000003c0: 1d78 b63d f2a8 e9bc 070d 683d 98f3 363c
000003d0: c88b a33d 9b71 d0bd 5c3a e63c 48e4 d6bd
000003e0: 3d56 45bd 5208 35bd 9cf3 b3bd 1dc4 a4bd
000003f0: 3a0d 0dbc 71ac 97bd a99b bd3d c011 40bd

block2.bnorm_2.weight f4 [45]
0.9900118 1.0225114 1.0181181 1.005322 1.0004238 0.98871034 0.97967106 1.0094305
0.99070317 1.0206767 1.0034007 0.9891693 0.98842543 1.009424 0.9970836 1.0021079
1.0070779 0.99862915 0.99918884 1.007587 1.0131567 0.98894036 0.9924282 0.9984051
0.98652995 1.0133994 1.0113667 0.99119735 0.98984814 0.99755913 1.0025262 1.0104765
0.9869026 1.011909 1.0058714 0.9971894 1.0020715 1.0131427 0.9833232 0.9930994
0.99763244 1.0040215 0.99737453 1.0018699 1.004761
00000000: 6a71 7d3f a7e1 823f b251 823f 64ae 803f
00000010: e30d 803f 1f1c 7d3f b9cb 7a3f 0535 813f
00000020: b99e 7d3f 89a5 823f 6f6f 803f 333a 7d3f
00000030: 7309 7d3f ce34 813f df40 7f3f 1245 803f
00000040: eee7 803f 29a6 7f3f d7ca 7f3f 9cf8 803f
00000050: 1eaf 813f 322b 7d3f c60f 7e3f 7a97 7f3f
00000060: 3a8d 7c3f 12b7 813f 7774 813f 1cbf 7d3f
00000070: b066 7d3f 0960 7f3f c752 803f 4b57 813f
00000080: a6a5 7c3f 3c86 813f 65c0 803f ce47 7f3f
00000090: e143 803f a9ae 813f 12bb 7b3f c33b 7e3f
000000a0: d764 7f3f c783 803f f053 7f3f 463d 803f
000000b0: 029c 803f

block2.bnorm_2.bias f4 [45]
-0.004740727 0.030361896 0.010687921 0.01617927 -0.022008184 -0.023088131 -0.00086086616 0.011030382
-0.017285356 0.009729855 0.0039786664 -0.009738838 -0.0105074635 -0.0028452342 -0.006868909 -0.0043937587
-0.010456801 0.002159917 -0.012226781 0.007996817 -0.0005842209 -0.0023597928 -0.020431567 -0.0017439844
-0.013895655 0.00410694 -0.015436737 0.001759892 -0.0067067947 0.0004282866 -0.00018921832 -0.0080939485
-0.003764141 0.0064013903 0.004461319 -0.005396729 0.012652824 -0.004260209 -0.023546942 -0.0019720767
0.024351625 -0.008033117 -0.0073571797 0.007837609 0.0065636076
00000000: 1a58 9bbb 83b9 f83c 641c 2f3c 638a 843c
00000010: 824a b4bc 5223 bdbc c0ab 61ba c6b8 343c
00000020: 059a 8dbc f869 1f3c 795f 823b a68f 1fbc
00000030: 7f27 2cbc 1c77 3abb 9614 e1bb 85f9 8fbb
00000040: 0153 2bbc 658d 0d3b d652 48bc 1505 033c
00000050: 6726 19ba c1a6 1abb 1a60 a7bc 6896 e4ba
00000060: 9aaa 63bc 8293 863b 5eea 7cbc 2dac e63a
00000070: acc4 dbbb a88b e039 e868 46b9 7b9c 04bc
00000080: ceaf 76bb c1c2 d13b 4230 923b 0bd7 b0bb
00000090: ca4d 4f3c 3999 8bbb 84e5 c0bc f53d 01bb
000000a0: 0f7d c73c 569d 03bc 7f14 f1bb 5169 003c
000000b0: 8813 d73b

block2.bnorm_2.running_mean f4 [45]
-0.35394722 -0.060936272 -0.3567559 -0.34379196 0.18799934 -0.51411706 -0.1615864 -0.47519433
0.3304543 -0.018004933 -0.029263409 0.27827716 -0.35280448 -0.3979332 -0.07523189 0.4006417
0.00334171 -0.22148228 0.22978163 -0.23759754 0.042574305 -0.16853023 0.10718551 0.33445188
0.29417583 0.2549162 -0.19281456 0.06342162 -0.313877 -0.29628804 -0.3854303 0.044632446
0.18848982 0.3945978 0.100608036 -0.14080437 -0.16480562 -0.1270437 0.1395709 0.22571772
-0.25590894 0.24538006 0.3093526 -0.08740165 0.23355259
00000000: 9238 b5be 5098 79bd b6a8 b6be 8005 b0be
00000010: e682 403e 2d9d 03bf e876 25be ac4c f3be
00000020: 4e31 a93e 157f 93bc d1b9 efbc 587a 8e3e
00000030: caa2 b4be e6bd cbbe 2d13 9abd e920 cd3e
00000040: 9700 5b3b 40cc 62be e04b 6b3e c54c 73be
00000050: 6562 2e3d 3093 2cbe 1484 db3d 473d ab3e
00000060: 379e 963e 6084 823e 2e71 45be 32e3 813d
00000070: 7cb4 a0be 11b3 97be 1f57 c5be 83d0 363d
00000080: 7a03 413e b908 ca3e 960b ce3d 052f 10be
00000090: cec2 28be be17 02be adeb 0e3e 8c22 673e
000000a0: 7f06 83be e944 7b3e 7763 9e3e a3ff b2bd
000000b0: 6928 6f3e

block2.bnorm_2.running_var f4 [45]
0.81712973 0.09315136 0.11153661 1.1590197 0.10563615 0.10078158 0.08804185 0.28168234
0.22431283 0.1500909 0.087460876 0.58633864 0.07173209 0.16108003 0.33351532 0.37757373
0.06664375 0.10210636 0.3366106 0.20041367 0.055198397 0.15913725 0.2704211 0.11179796
0.73390514 0.101232365 0.08276461 0.27450743 0.26092842 0.25225893 0.47013667 0.16287626
0.21745643 0.24445641 0.070294 0.06431703 0.056605477 0.08799666 0.044135712 0.2965612
1.002555 0.1599723 0.13653842 0.18198845 0.038515452
00000000: 6a2f 513f 24c6 be3d 4e6d e43d c25a 943f
00000010: c457 d83d 9366 ce3d 494f b43d ab38 903e
00000020: 43b2 653e 6eb1 193e b01e b33d 4a1a 163f
00000030: 46e8 923d 2af2 243e 85c2 aa3e 5851 c13e
00000040: 857c 883d 241d d13d 3958 ac3e 3e39 4d3e
00000050: b717 623d e0f4 223e a274 8a3e 54f6 e43d
00000060: 35e1 3b3f ea52 cf3d 7e80 a93d 3d8c 8c3e
00000070: 6998 853e 1528 813e c1b5 f03e 09c9 263e
00000080: e6ac 5e3e c852 7a3e 4df6 8f3d a6b8 833d
00000090: 25db 673d 9837 b43d a6c7 343d dfd6 973e
000000a0: b953 803f c7cf 233e bad0 0b3e 2e5b 3a3e
000000b0: 61c2 1d3d

block3.conv_3.weight f4 [90, 15, 10]
-0.030823741 0.03606636 0.01728724 -0.07375978 -0.007278123 0.05434309 0.01414762 0.024262179
-0.004106733 -0.07582016 0.0425283 -0.027429657 0.03315817 -0.040419627 -0.042028267 0.041582085
0.03859789 0.04356114 0.009170195 0.08484965 0.038547453 -0.034257613 -0.08066075 0.06261464
0.015449797 0.06495352 0.013437653 0.026274698 -0.0141124725 0.09239546 0.012315366 0.02851026
0.039836355 0.04600169 -0.042733386 -0.029882865 -0.023319472 -0.03393679 -0.039061755 0.031465832
-0.008385155 0.039062332 0.017694179 0.015312007 0.05683473 -0.05414678 0.019835819 -0.05952117
0.028788606 0.03961418 0.07262608 -0.051342476 0.06567018 -0.038437605 0.08120014 0.02291005
0.0029092133 0.0042902487 -0.0051676435 -0.014394965 0.044656727 -0.032883845 -0.003326197 0.00026985529
-0.015743485 -0.05904792 0.051645588 -0.032034233 0.041857377 0.028704464 0.036330357 0.005933402
0.03381284 0.019093856 0.02897126 -0.06101851 0.0003181922 -0.069487736 0.005078334 -0.02634373
-0.021685904 -0.04136329 -0.041941803 -0.021496492 0.03459841 0.030208183 0.06121361 0.018841017
-0.06386363 0.08476724 0.011873265 -0.0041780863 0.067955755 0.005375166 -0.0069882288 -0.0032200222
-0.082428426 0.0019508392 -0.015078574 -0.057650562 0.021741671 0.06563335 -0.0123850815 0.023472516
-0.029317215 -0.02706982 -0.03459027 -0.029677391 -0.057726305 -0.045888707 0.038614374 0.017717341
-0.020014513 -0.014340177 -0.021957867 0.06822199 -0.04139477 -0.07056711 0.058235604 -0.00026510848
0.07598368 -0.04474089 -0.049880467 -0.06851518 -0.05632301 -0.064078 0.007520916 0.04769494
-0.07272913 -0.00484921 0.059240803 0.03811687 0.017115358 0.014386907 -0.042943925 -0.03393795
-0.056987897 0.06531782 0.001559079 -0.0023236047 0.038884643 -0.006594019 -0.014129797 0.03146418
-0.00723691 0.06374835 -0.014274243 0.009898036 0.011119229 -0.015481624 0.077239394 -0.06544539
-0.011830548 0.005153298 0.012969936 -0.058719106 -0.053587094 0.04458923 -0.006171668 0.01410403
0.03482957 0.032904096 0.082773425 -0.031619534 -0.06580442 0.07203774 0.08216328 -0.027490588
0.018790452 -0.015132326 0.0009241051 -0.03583823 0.019541932 0.056158155 0.05429167 0.05046478
-0.071559355 -0.063289255 -0.013688341 -0.06656418 0.026467182 -0.050795425 -0.022768168 0.046542656
-0.05335159 0.03724225 -0.043110106 -0.020833492 -0.061605547 -0.0382993 0.039245114 0.08171804
0.016958524 -0.069222115 -0.046254713 -0.008864609 0.024995316 -0.0069290455 -0.023306513 -0.011464746
0.075400695 -0.02180009 0.031884383 -0.0018362015 -0.058702774 -0.06788193 -0.06114716 -0.06391699
-0.07556127 -0.030330481 0.0037193885 0.013067039 -0.060551077 -0.019783758 -0.030159734 -0.07033813
-0.0768779 0.025016697 -0.07210271 -0.013173189 0.0440852 -0.038387693 0.07360344 0.048039034
-0.0010809471 -0.055081833 0.06279157 -0.048869077 0.016503476 -0.039436765 0.032311376 -0.05399845
0.041984018 -0.014247183 0.0556423 0.014839788 0.028604195 -0.010164028 0.0294786 0.016406292
0.009463017 -0.004596919 0.026648087 0.033425182 0.06423551 -0.08305129 0.034928173 0.05309004
-0.0036550455 0.03834463 0.033689532 0.03064756 -0.032723285 0.036535412 -0.019298764 0.0010662376
00000000: 1282 fcbc 52ba 133d f89d 8d3c 5e0f 97bd
00000010: 527d eebb dc96 5e3d 6bcb 673c 7ac1 c63c
00000020: c691 86bb 9a47 9bbd 2832 2e3d 29b4 e0bc
00000030: dcd0 073d 0d8f 25bd d525 2cbd fa51 2a3d
00000040: d218 1e3d 2a6d 323d 963e 163c a7c5 ad3d
00000050: efe3 1d3d b651 0cbd 7731 a5bd 1b3c 803d
00000060: 2521 7d3c 5a06 853d 9a29 5c3c 093e d73c
00000070: 0038 67bc d539 bd3d 64c6 493c 598e e93c
00000080: 722b 233d 456c 3c3d 3409 2fbd e9cc f4bc
00000090: 7a08 bfbc 4e01 0bbd 38ff 1fbd 51e2 003d
000000a0: e461 09bc d3ff 1f3d 62f3 903c 36df 7a3c
000000b0: 89cb 683d 04c9 5dbd ba7e a23c 78cc 73bd
000000c0: 15d6 eb3c 7a42 223d fbbc 943d 7d4c 52bd
000000d0: 167e 863d c070 1dbd 424c a63d dbad bb3c
000000e0: 80a8 3e3b 3795 8c3b 5655 a9bb dcd8 6bbc
000000f0: f9e9 363d 36b1 06bd 53fc 59bb 5d7b 8d39
00000100: 7bf8 80bc 3bdc 71bd 538a 533d 5436 03bd
00000110: a472 2b3d a025 eb3c 24cf 143d fc6c c23b
00000120: 557f 0a3d b86a 9c3c 2355 ed3c 8cee 79bd
00000130: 09d3 a639 964f 8ebd 2768 a63b cece d7bc
00000140: a3a6 b1bc 8e6c 29bd 2bcb 2bbd 6919 b0bc
00000150: 10b7 0d3d 2777 f73c 1fbb 7a3d 7a58 9a3c
00000160: efca 82bd 729a ad3d 1588 423c 54e8 88bb
00000170: 632c 8b3d 2922 b03b 83fd e4bb 0207 53bb
00000180: 3cd0 a8bd 4db3 ff3a 200c 77bc ff22 6cbd
00000190: 971b b23c c76a 863d ccea 4abc 6f49 c03c
000001a0: a82a f0bc 87c1 ddbc 87ae 0dbd 001e f3bc
000001b0: 6b72 6cbd ccf5 3bbd 1b2a 1e3d f523 913c
000001c0: 7af5 a3bc 10f3 6abc fce0 b3bc f8b7 8b3d
000001d0: 908d 29bd 7d85 90bd 7588 6e3d 42fe 8ab9
000001e0: 559d 9b3d 3942 37bd 764f 4cbd b051 8cbd
000001f0: f5b2 66bd 543b 83bd 0472 f63b c55b 433d
00000200: 03f3 94bd 1fe6 9ebb 7ca6 723d 6f20 1c3d
00000210: 8235 8c3c 10b7 6b3c f8e5 2fbd 8502 0bbd
00000220: 246c 69bd 59c5 853d 035a cc3a 9e47 18bb
00000230: 8145 1f3d a412 d8bb aa80 67bc 96e0 003d
00000240: 9a23 edbb 7f8e 823d 84de 69bc 5f2b 223c
00000250: 6d2d 363c a3a6 7dbc b02f 9e3d 3c08 86bd
00000260: ead4 41bc ffdc a83b db7f 543c 7283 70bd
00000270: 247e 5bbd 32a3 363d b43b cabb 9714 673c
00000280: 74a9 0e3d 72c6 063d 1d85 a93d 7c83 01bd
00000290: 78c4 86bd 8688 933d 3945 a83d f133 e1bc
000002a0: 6fee 993c 93ed 77bc a53f 723a 1ccb 12bd
000002b0: 6716 a03c 1806 663d f160 5e3d 28b4 4e3d
000002c0: b68d 92bd cc9d 81bd 1045 60bc cd52 88bd
000002d0: b4d1 d83c dd0e 50bd 4f84 babc 83a3 3e3d
000002e0: 3287 5abd 548b 183d 3994 30bd 00ab aabc
000002f0: 1956 7cbd badf 1cbd 7cbf 203d ca5b a73d
00000300: 9aec 8a3c 53c4 8dbd 9575 3dbd dd3c 11bc
00000310: fac2 cc3c 0c0d e3bb 4ded bebc a1d6 3bbc
00000320: ae6b 9a3d 1a96 b2bc 3399 023d b3ac f0ba
00000330: 5272 70bd ae05 8bbd 7275 7abd e9e6 82bd
00000340: debf 9abd a177 f8bc fcc0 733b 2217 563c
00000350: 6804 78bd 8c11 a2bc 8c11 f7bc 700d 90bd
00000360: 2972 9dbd d1ef cc3c 96aa 93bd 5cd4 57bc
00000370: af92 343d 6a3c 1dbd 66bd 963d 94c4 443d
00000380: 91ae 8dba 7d9d 61bd de98 803d f12a 48bd
00000390: 4c32 873c 7288 21bd ef58 043d 7b2d 5dbd
000003a0: 6ff7 2b3d 046d 69bc 2ee9 633d 9522 733c
000003b0: 5853 ea3c 0687 26bc 1b7d f13c 7d66 863c
000003c0: c50a 1b3c c0a1 96bb 174d da3c d8e8 083d
000003d0: e88d 833d cb16 aabd d810 0f3d f174 593d
000003e0: 7d89 6fbb 420f 1d3d 09fe 093d 9710 fb3c
000003f0: da08 06bd 28a6 153d 7118 9ebc ffc0 8b3a

block3.bnorm_3.weight f4 [90]
0.9997612 1.0042069 0.99031544 0.9995016 0.9982786 0.9886783 1.0016261 1.026029
1.0001612 0.9787633 0.9957988 0.9887107 1.0000366 0.99444896 0.98713946 1.0177149
0.97805554 0.995855 0.9968433 1.0170715 1.0126001 1.0102885 0.9892618 1.0051574
0.9921436 1.0167078 0.9940433 0.9975713 0.998644 1.002199 1.0135964 1.0048515
0.9889074 0.99260813 1.002866 0.98783374 1.0031626 0.99883544 0.990594 1.006894
0.98828673 0.9990613 0.99154985 0.9993532 1.0065718 0.995095 0.9870684 1.0032656
1.0060515 1.015547 0.9968983 0.99853855 0.98707104 0.99998623 0.9984407 1.0222565
1.0007645 1.0000546 1.0137843 1.0040116 0.99574214 1.005235 0.9822926 1.0119276
0.9961933 1.0184895 1.0025276 1.0017939 0.9813091 1.0032305 0.9982127 0.9906248
0.9862883 1.0140015 1.0143766 0.9951589 1.010851 0.993342 1.0040503 1.0104849
1.0021957 1.0115459 1.0113686 0.97686464 1.0026413 1.0005302 1.0026882 0.9924463
1.0234109 0.9844927
00000000: 5af0 7f3f da89 803f 5085 7d3f 56df 7f3f
00000010: 308f 7f3f 051a 7d3f 4935 803f eb54 833f
00000020: 4805 803f 3b90 7a3f acec 7e3f 251c 7d3f
00000030: 3301 803f 3594 7e3f 2cb5 7c3f 7b44 823f
00000040: d961 7a3f 5af0 7e3f 1f31 7f3f 662f 823f
00000050: e19c 813f 2251 813f 4340 7d3f ffa8 803f
00000060: 1ffd 7d3f 7b23 823f 9f79 7e3f d560 7f3f
00000070: 22a7 7f3f 0f48 803f 87bd 813f f99e 803f
00000080: 0929 7d3f 911b 7e3f ea5d 803f ace2 7c3f
00000090: a267 803f aeb3 7f3f 9297 7d3f e7e1 803f
000000a0: 5c00 7d3f 7bc2 7f3f 36d6 7d3f 9cd5 7f3f
000000b0: 58d7 803f 8cbe 7e3f 84b0 7c3f 026b 803f
000000c0: 4cc6 803f 72fd 813f ba34 7f3f 39a0 7f3f
000000d0: b0b0 7c3f 19ff 7f3f cf99 7f3f 4dd9 823f
000000e0: 0d19 803f ca01 803f afc3 813f 7483 803f
000000f0: f5e8 7e3f 8aab 803f 8777 7b3f d886 813f
00000100: 8606 7f3f dd5d 823f d352 803f c83a 803f
00000110: 1337 7b3f db69 803f de8a 7f3f 9699 7d3f
00000120: 647d 7c3f cdca 813f 18d7 813f bcc2 7e3f
00000130: 9163 813f a94b 7e3f b884 803f 9257 813f
00000140: f347 803f 567a 813f 8774 813f cd13 7a3f
00000150: 8d56 803f 6011 803f 1658 803f f610 7e3f
00000160: 21ff 823f b707 7c3f

block3.bnorm_3.bias f4 [90]
0.004774214 0.002337406 -0.004019332 -0.016771128 0.004636152 -0.019165825 0.0004793767 -0.016918713
0.030847207 -0.019509032 -0.03331234 -0.021956844 0.0010080888 -0.005739055 -0.020470483 -2.3629085e-05
-0.030179039 -0.02553098 -0.0043256297 -0.015292209 -0.012113058 -0.0071206754 -0.00039460906 0.0061748116
-0.002228748 -0.020194907 -0.027042452 -0.0074778385 0.00097316795 -0.0043194504 -0.0058638076 -0.0033998685
-0.007051126 -0.0026768257 -0.015883038 -0.017297653 -0.018674104 -0.006751938 -0.020577112 -0.00968146
-0.0023771508 -0.01053564 -0.011578113 -0.014434485 0.0020202096 -0.008116095 -0.008161479 -0.0048246686
-0.0041910796 0.00094596186 0.0025942982 -0.0004271869 -0.0024234806 -0.00048498024 -0.0037295585 -0.014631077
-0.0011127292 -0.02174782 -0.009470472 0.0054055224 -0.017694518 -0.027659463 -0.007248751 -0.007100557
-0.0021184317 -0.02139035 -0.015487051 0.01525793 -0.034113202 -0.003412469 -0.0071284543 -0.013392055
-0.02688524 -0.023623105 0.0014791723 0.0031545958 -0.007913341 -0.015462276 0.00684692 0.0106159495
-0.009135044 -0.009693924 -0.0055367276 -0.005501814 -0.00633829 -0.004305484 -0.0057749017 -0.013695919
-0.009274538 -0.019715996
00000000: 0271 9c3b 2a2f 193b 9ab4 83bb 9b63 89bc
00000010: ddea 973b a601 9dbc da54 fb39 1d99 8abc
00000020: 48b3 fc3c 68d1 9fbc 8572 08bd d7de b3bc
00000030: d921 843a af0e bcbb b7b1 a7bc 1337 c6b7
00000040: 083a f7bc 5926 d1bc 03be 8dbb 2c8c 7abc
00000050: d975 46bc 8e54 e9bb 88e3 ceb9 1356 ca3b
00000060: 3010 12bb ca6f a5bc 2288 ddbc a808 f5bb
00000070: 321c 7f3a 2d8a 8dbb 2f25 c0bb 54d0 5ebb
00000080: 220d e7bb af6d 2fbb 251d 82bc cfb3 8dbc
00000090: 6ffa 98bc 5c3f ddbb 5591 a8bc fd9e 1ebc
000000a0: f9c9 1bbb ad9d 2cbc 20b2 3dbc 9e7e 6cbc
000000b0: 7e65 043b 5ff9 04bc b9b7 05bc 4118 9ebb
000000c0: 5355 89bb 6dfa 773a 1a05 2a3b 0ef8 dfb9
000000d0: 42d3 1ebb f244 feb9 9c6b 74bb 2fb7 6fbc
000000e0: ffd8 91ba 7c28 b2bc 0a2a 1bbc cf20 b13b
000000f0: 18f4 90bc 1996 e2bc ee86 edbb caab e8bb
00000100: 63d5 0abb d13a afbc 66bd 7dbc 66fc 793c
00000110: 49ba 0bbd bba3 5fbb cf95 e9bb 5a6a 5bbc
00000120: 6f3e dcbc 3e85 c1bc c9e0 c13a 56bd 4e3b
00000130: f5a6 01bc 7c55 7dbc 215c e03b 85ee 2d3c
00000140: 27ab 15bc 44d3 1ebc 706d b5bb 9048 b4bb
00000150: 6eb1 cfbb 0415 8dbb 633b bdbb d964 60bc
00000160: 3bf4 17bc 7183 a1bc

block3.bnorm_3.running_mean f4 [90]
0.116172105 -0.4007658 0.15712969 -0.057278987 -0.048601363 0.029631793 -0.31335178 -0.19360186
0.26629487 0.34384105 -0.08459194 -0.082159586 0.032781135 0.19701293 -0.11464702 0.113960154
-0.2070511 -0.037139475 0.02131371 0.094915554 -0.17903417 0.22662571 0.08271059 0.15446828
-0.13423035 0.13473994 0.023334805 -0.15866235 0.11436067 -0.2032922 0.015310103 0.12551446
0.09342085 0.16920085 0.10082255 -0.030991381 -0.18278149 -0.03985974 -0.009083325 -0.11843235
-0.2870977 -0.06853357 0.0019765636 0.006945463 0.100737445 0.18457313 -0.17142734 -0.057298243
0.05027193 -0.15454094 -0.05334313 -0.02730661 -0.04136171 0.10207485 0.3079533 -0.2577202
0.20967875 0.07447768 0.101561695 -0.31949624 -0.14756335 0.066310786 -0.06728754 -0.30566847
0.19647612 -0.08965225 0.26102087 0.5295465 -0.31835008 -0.6846998 0.19906132 -0.04574933
-0.20027468 -0.21651389 0.17627779 -0.14549616 -0.2823037 0.31343144 -0.011833271 0.10938033
0.07508005 -0.42574733 0.016944248 0.07316956 -0.1714868 0.04343689 -0.0154014025 -0.25433138
0.05383842 -0.046552125
00000000: a4eb ed3d 2d31 cdbe 9be6 203e 5f9d 6abd
00000010: 3912 47bd 60be f23c a56f a0be 913f 46be
00000020: cd57 883e ef0b b03e 8a3e adbd 4943 a8bd
00000030: 8345 063d c2bd 493e 0fcc eabd f163 e93d
00000040: 3405 54be 901f 18bd 179a ae3c 1663 c23d
00000050: bc54 37be 9210 683e 2b64 a93d ef2c 1e3e
00000060: ae73 09be 44f9 093e a228 bf3c 6278 22be
00000070: ed35 ea3d d52b 50be 3ad7 7a3c dd86 003e
00000080: 6e53 bf3d fd42 2d3e 0e7c ce3d a3e1 fdbc
00000090: 122b 3bbe f743 23bd 3ad2 14bc a98c f2bd
000000a0: 78fe 92be 545b 8cbd 3c89 013b c496 e33b
000000b0: 6f4f ce3d bd00 3d3e a68a 2fbe 90b1 6abd
000000c0: f0e9 4d3d fb3f 1ebe 537e 5abd 1db2 dfbc
000000d0: e56a 29bd 9e0c d13d 0eac 9d3e e7f3 83be
000000e0: 07b6 563e c187 983d 94ff cf3d 0395 a3be
000000f0: d91a 17be f3cd 873d 0dce 89bd 9480 9cbe
00000100: 0931 493e 999b b7bd 87a4 853e 5c90 073f
00000110: c8fe a2be 7c48 2fbf bbd6 4b3e a663 3bbd
00000120: ce14 4dbe d1b5 5dbe 2a82 343e f2fc 14be
00000130: 1c8a 90be 167a a03e 56e0 41bc cb02 e03d
00000140: 92c3 993d 8efb d9be aace 8a3c ecd9 953d
00000150: 3c9a 2fbe e1ea 313d 2a56 7cbc b937 82be
00000160: ad85 5c3d 71ad 3ebd

block3.bnorm_3.running_var f4 [90]
0.14683081 0.14602634 0.28790194 0.3783773 0.11269572 0.11434375 0.17705685 0.11384657
0.2846087 0.118673265 0.113897555 0.14595072 0.080395676 0.11219508 0.19804777 0.18324426
0.62320846 0.11701473 0.16254221 0.12254945 0.052768666 0.11327788 0.08914614 0.3891846
0.13573302 0.05418806 0.17203943 0.16945428 0.11826425 0.0993144 0.11768263 0.2929335
0.17430928 0.14510803 0.13327189 0.46068332 0.08747375 0.118872575 0.115300015 0.13647552
0.07035481 0.07941485 0.2764308 0.1403661 0.14114447 0.081457436 0.14222918 0.20316744
0.08576804 0.10728494 0.2412268 0.21103339 0.17809995 0.1417362 0.4324391 0.16620645
0.15937984 0.09130056 0.10950254 0.10200496 0.24176839 0.061825726 0.31913546 0.14625822
0.08658641 0.05107834 0.13198312 0.23287597 0.054016367 0.20711687 0.20584378 0.25540546
0.044266123 0.07536723 0.1323948 0.15333484 0.091071874 0.20486674 0.2653906 0.13116457
0.07808404 0.06603407 0.26548475 0.25663984 0.06836485 0.06982956 0.28371096 0.07730588
0.2881654 0.14246893
00000000: d15a 163e ee87 153e e267 933e abba c13e
00000010: 03cd e63d 0e2d ea3d 644e 353e 6428 e93d
00000020: 3bb8 913e f80a f33d 1f43 e93d 1b74 153e
00000030: 7da6 a43d 89c6 e53d 09cd 4a3e 62a4 3b3e
00000040: 978a 1f3f 6ba5 ef3d 7771 263e 35fb fa3d
00000050: f523 583d 3cfe e73d 4092 b63d 3443 c73e
00000060: 99fd 0a3e 4df4 5d3d 1b2b 303e 6c85 2d3e
00000070: 8734 f23d 5965 cb3d 9703 f13d 61fb 953e
00000080: 227e 323e 3397 143e 6d78 083e afde eb3e
00000090: 7025 b33d 7773 f33d 6a22 ec3d 3dc0 0b3e
000000a0: 2f16 903d 41a4 a23d 5688 8d3e 22bc 0f3e
000000b0: 2d88 103e 28d3 a63d 87a4 113e 200b 503e
000000c0: 27a7 af3d 35b8 db3d 2904 773e 2319 583e
000000d0: d55f 363e 4b23 113e a868 dd3e 0632 2a3e
000000e0: 7834 233e cafb ba3d de42 e03d fae7 d03d
000000f0: 2292 773e f93c 7d3d b965 a33e b7c4 153e
00000100: 3754 b13d 8537 513d 9526 073e 0a77 6e3e
00000110: 4440 5d3d 7216 543e b6c8 523e 81c4 823e
00000120: 6550 353d 225a 9a3d 8192 073e cf03 1d3e
00000130: e483 ba3d 96c8 513e 47e1 873e 0150 063e
00000140: 86ea 9f3d df3c 873d 9eed 873e 4c66 833e
00000150: df02 8c3d cd02 8f3d 9042 913e 8c52 9e3d
00000160: 6a8a 933e 60e3 113e

block4.conv_4.weight f4 [90, 30, 10]
-0.012299351 -0.034166485 -0.031866618 0.048129562 0.03832374 -0.03988397 0.029551586 0.04385857
-0.05565964 0.056098476 0.0112166 -0.022646474 -0.01677252 0.05936294 -0.071190946 0.040915474
0.003449128 0.03246051 -0.08757915 -0.015120692 -0.0014610118 -0.05586004 0.072460584 -0.046318356
0.05413936 0.061486878 -0.051626794 0.044842858 -0.033831637 0.043715052 -0.026736531 0.062044248
-0.06662146 0.033175714 0.050886355 -0.027166927 0.005720437 -0.060513154 -0.0025305615 -0.06067564
-0.012441138 -0.06667341 -0.016352806 -0.049092025 -0.06952324 0.028261015 0.0498574 0.04190659
-0.0587588 -0.04440182 -0.021058058 -0.021064641 0.06485504 0.05684074 0.04448801 -0.06050091
0.011497187 0.06267488 0.0017173461 -0.048162043 0.05818844 -0.028876448 0.0452898 0.005030802
-0.022503637 0.017036485 -0.040014505 -0.052370667 0.07524854 -0.038982525 0.0032666924 0.022741426
-0.024152962 0.019306444 0.034810454 -0.06831812 0.0010013808 -0.083540216 -0.054193635 -0.075067066
-0.044814486 -0.042983755 0.0680991 0.065769166 -0.013419443 0.06846606 -0.043232948 -0.014021565
-0.0047811065 -0.0048901956 -0.06946463 -0.041858472 0.05434013 0.059956398 0.009786833 0.046971004
0.028041132 -0.005273707 -0.007367451 -0.011369597 0.010125294 0.002993875 0.012930423 0.0028768855
-0.008689502 0.021994762 0.04329266 -0.0051531126 -0.0018483963 -0.046413224 -0.06231487 0.049760275
-0.0156208705 0.06865415 0.019622575 0.07144049 0.010284252 -0.012746561 -0.010380521 0.027925491
-0.043411136 0.06435553 0.0031366071 -0.0041785054 0.0053582843 -0.022298664 0.054280434 -0.013504013
-0.012007939 0.023356987 -0.041433614 0.066998556 -0.010629428 -0.07001125 0.026156755 -0.03880231
-0.022493333 0.0024716288 0.004054931 0.0017996875 -0.03694938 -0.017890764 0.0026827771 0.072122104
-0.062490553 0.064989746 0.030618927 0.0543985 -0.0005077568 0.07673074 0.010764698 -0.0401497
-0.03292205 0.01879567 0.019979937 0.037252594 0.07294695 -0.01888212 -0.025894022 -0.061873674
0.02387788 -0.03336784 -0.014999753 0.032708816 0.028361877 0.061904144 0.013066565 0.013404071
-0.0100804325 0.053248808 -0.05383161 0.052359886 -0.019970378 0.03274345 -0.071229324 -0.034040716
-0.0392812 -0.0030103642 -0.051002853 0.06911295 -0.06519217 -0.045393057 -0.016535271 0.00021608458
-0.016489131 -0.060242604 -0.01973607 -0.06469289 0.0058606756 0.025908966 -0.067228824 -0.020958126
0.015138614 -0.07445431 -0.00024088736 -0.054863796 -0.012419446 0.038524274 0.06727435 -0.054117102
-0.081854254 0.009550859 0.014214463 -0.0049013607 -0.045588795 -0.0035323054 -0.002773823 -0.014999344
-0.038180877 0.01340923 0.06404748 0.055032305 0.013765767 0.066373065 -0.02216731 -0.0028153823
-0.048372086 -0.08356116 -0.04824542 -0.059112042 0.0019000042 -0.053591672 0.061116062 0.058940977
-0.052896336 -0.04946782 -0.040119782 -0.05345341 0.056567617 -0.040899888 -0.033230793 -0.078819044
-0.057597823 -0.020491831 -0.047274183 -0.00073584454 -0.06408933 0.063531175 0.010428353 -0.028702186
0.031044686 0.059569508 -0.047126602 0.041231338 -0.025050899 0.065843165 0.023974584 0.032527506
-0.0088431975 -0.039214995 -0.012304784 0.001759333 0.00016832694 0.040411357 -0.041210096 -0.039113067
00000000: 3883 49bc 28f2 0bbd 9286 02bd 8123 453d
00000010: 5bf9 1c3d 605d 23bd 2b16 f23c 0ba5 333d
00000020: 5dfb 63bd 84c7 653d d5c5 373c 1985 b9bc
00000030: 8666 89bc 8e26 733d 8fcc 91bd fc96 273d
00000040: c40a 623b 50f5 043d b35c b3bd c7bc 77bc
00000050: 6c7f bfba 7fcd 64bd 3766 943d 51b8 3dbd
00000060: 3cc1 5d3d aad9 7b3d 9e76 53bd 25ad 373d
00000070: 0b93 0abd 8e0e 333d 9206 dbbc 1c22 7e3d
00000080: d570 88bd 42e3 073d 366e 503d 2d8d debc
00000090: 8172 bb3b a4dc 77bd c7d7 25bb 0587 78bd
000000a0: ead5 4bbc 128c 88bd 52f6 85bc b814 49bd
000000b0: 3362 8ebd a583 e73c 4637 4c3d 3fa6 2b3d
000000c0: 11ad 70bd afde 35bd f381 acbc c18f acbc
000000d0: b8d2 843d d6d1 683d 0f39 363d cdcf 77bd
000000e0: b35e 3c3c b05b 803d 9318 e13a 9045 45bd
000000f0: 0057 6e3d 4d8e ecbc cc81 393d 6dd9 a43b
00000100: 8c59 b8bc 1990 8b3c 40e6 23bd a082 56bd
00000110: e81b 9a3d 24ac 1fbd 0116 563b 3a4c ba3c
00000120: 6fdc c5bc 8c28 9e3c 6895 0e3d 5fea 8bbd
00000130: c440 833a 2217 abbd 25fa 5dbd c3bc 99bd
00000140: 658f 37bd bc0f 30bd 8a77 8b3d fcb1 863d
00000150: 39dd 5bbc ef37 8c3d 0815 31bd b5ba 65bc
00000160: d4aa 9cbb ef3d a0bb 7943 8ebd ca73 2bbd
00000170: c293 5e3d d794 753d f458 203c ab64 403d
00000180: 84b6 e53c 10cf acbb a96a f1bb 8c47 3abc
00000190: 90e4 253c e334 443b 20da 533c 218a 3c3b
000001a0: 6a5e 0ebc 5c2e b43c a553 313d 71db a8bb
000001b0: e345 f2ba cb1b 3ebd e13d 7fbd 6ed1 4b3d
000001c0: aeee 7fbc 8c9a 8c3d 86bf a03c 644f 923d
000001d0: 487f 283c f4d6 50bc 1013 2abc 00c4 e43c
000001e0: e0cf 31bd d5cc 833d 898f 4d3b d8eb 88bb
000001f0: 8c94 af3b b0ab b6bc 2955 5e3d f03f 5dbc
00000200: f2bc 44bc 2757 bf3c 4bb6 29bd 8a36 893d
00000210: 0d27 2ebc 0f62 8fbd b146 d63c 2cef 1ebd
00000220: f043 b8bc 0dfb 213b 3adf 843b 7ee3 eb3a
00000230: 3c58 17bd a78f 92bc 88d1 2f3b c1b4 933d
00000240: 18f6 7fbd 5819 853d 8bd4 fa3c f6d0 5e3d
00000250: fb1a 05ba 0225 9d3d 6a5e 303c 0374 24bd
00000260: 46d9 06bd 60f9 993c f7ac a33c 2d96 183d
00000270: 3665 953d adae 9abc b31f d4bc 406f 7dbd
00000280: 8b9b c33c b7ac 08bd 86c1 75bc aef9 053d
00000290: 2b57 e83c 338f 7d3d 2515 563c c09c 5b3c
000002a0: 6628 25bc 6c1b 5a3d 897e 5cbd 5277 563d
000002b0: eb98 a3bc ff1d 063d aee0 91bd 476e 0bbd
000002c0: 53e5 20bd 8849 45bb 5ee8 50bd 178b 8d3d
000002d0: 7983 85bd 12ee 39bd fa74 87bc c394 6239
000002e0: 3714 87bc f3c0 76bd 8aad a1bc b57d 84bd
000002f0: e90a c03b 0a3f d43c 44af 89bd 60b0 abbc
00000300: f307 783c 807b 98bd b596 7cb9 dcb8 60bd
00000310: ef7a 4bbc a1cb 1d3d 22c7 893d e5a9 5dbd
00000320: 34a3 a7bd 357b 1c3c c7e3 683c 989b a0bb
00000330: 51bb 3abd 407e 67bb 07c9 35bb cfbf 75bc
00000340: 8d63 1cbd 63b2 5b3c 532b 833d 8e69 613d
00000350: d089 613c 9aee 873d 3898 b5bc 4782 38bb
00000360: cf21 46bd 1d22 abbd fd9c 45bd 781f 72bd
00000370: 9009 f93a f182 5bbd d654 7a3d 186c 713d
00000380: d4a9 58bd c59e 4abd a454 24bd f6f1 5abd
00000390: 72b3 673d a486 27bd 031d 08bd e16b a1bd
000003a0: b2eb 6bbd 7cde a7bc 93a2 41bd b1e5 40ba
000003b0: 4441 83bd a21c 823d afdb 2a3c d920 ebbc
000003c0: 6d51 fe3c 28ff 733d d307 41bd 31e2 283d
000003d0: 8b37 cdbc c8d8 863d 5966 c43c 903b 053d
000003e0: 0fe3 10bc e79f 20bd 019a 49bc 6b99 e63a
000003f0: eb80 3039 6186 253d ebcb 28bd 0635 20bd

block4.bnorm_4.weight f4 [90]
1.0122828 0.9980303 1.029461 1.0209234 1.0261357 1.0044445 1.0015491 1.0399325
1.0037749 1.0116396 1.0080134 1.0241436 1.0159897 1.0140973 1.0041363 1.014719
1.03309 1.0085723 1.0137507 1.0113275 1.0325074 1.0051639 1.0165565 1.018751
1.0191228 1.0162816 1.0872903 1.0126837 1.0042677 0.9976964 0.99366474 1.0049576
1.0201882 1.0092356 0.9975722 1.022059 1.0021766 0.9974022 1.0023234 1.0119832
1.039818 0.9997087 1.0031364 1.005018 1.0173367 0.9982225 1.0082766 1.0125903
0.99363506 1.0021764 0.9989741 0.9963094 1.0273974 0.9972573 0.9966968 0.99752444
1.0290161 0.99950546 1.0271844 1.0049611 1.0292306 1.0080955 0.99920106 1.0088464
1.0101625 1.0044198 1.0247585 0.9989171 1.0102389 1.0145692 1.0083433 1.0122495
1.0145944 1.0109713 1.00783 0.9939143 1.0073152 1.0289718 1.0320216 1.0111905
1.013953 1.0187958 1.017541 1.0032425 1.0018126 1.0138698 1.0081024 1.0186456
1.0056925 1.041884
00000000: 7c92 813f ea7e 7f3f 61c5 833f 9ead 823f
00000010: 6a58 833f a391 803f c332 803f 821c 853f
00000020: b27b 803f 687d 813f 9506 813f 2317 833f
00000030: f30b 823f f1cd 813f 8a87 803f 50e2 813f
00000040: 4b3c 843f e618 813f 95c2 813f 2e73 813f
00000050: 3429 843f 36a9 803f 861e 823f 6f66 823f
00000060: 9e72 823f 8415 823f 542c 8b3f 9f9f 813f
00000070: d88b 803f 0869 7f3f d060 7e3f 73a2 803f
00000080: 8795 823f a22e 813f e460 7f3f d4d2 823f
00000090: 5347 803f c055 7f3f 224c 803f aa88 813f
000000a0: c218 853f e9ec 7f3f c666 803f 6ea4 803f
000000b0: 1738 823f 828b 7f3f 350f 813f 8f9c 813f
000000c0: de5e 7e3f 5147 803f c4bc 7f3f 220e 7f3f
000000d0: c281 833f 414c 7f3f 8627 7f3f c35d 7f3f
000000e0: cdb6 833f 97df 7f3f c77a 833f 91a2 803f
000000f0: d4bd 833f 4609 813f a4cb 7f3f e121 813f
00000100: 014d 813f d490 803f 492b 833f 08b9 7f3f
00000110: 824f 813f 67dd 813f 6511 813f 6491 813f
00000120: 3bde 813f 8267 813f 9300 813f 2b71 7e3f
00000130: b4ef 803f 59b5 833f 4919 843f b16e 813f
00000140: 36c9 813f e767 823f c93e 823f 406a 803f
00000150: 653b 803f 7cc6 813f 8009 813f fb62 823f
00000160: 88ba 803f 745c 853f

block4.bnorm_4.bias f4 [90]
0.000104086444 -0.013682512 -0.003450915 -0.0028839172 -0.004240922 -0.011132295 -0.01259038 -0.0008862115
-0.008100209 -0.010023292 -0.010930363 -0.004387166 0.0029555259 -0.0059673614 -0.0018622271 -0.004345216
0.006470219 -0.009573815 -0.0051466553 -0.0026865648 -0.0060961293 -0.0067157163 -0.0041877227 0.0039381627
-0.004577449 -0.007778917 0.0090254415 -0.0037803026 -0.004058432 -0.012341851 -0.002638125 -0.0053700656
-0.018990641 0.004118383 -5.5170163e-05 -0.017407898 -0.0030065705 -0.0059294007 0.0017483757 -0.003459003
-0.020351278 -0.0056000343 -0.0068675643 -0.009077501 -0.009596753 -0.0009757667 0.004161889 0.007435524
-0.0035086304 -0.009041478 -0.006500788 -0.0060454314 -0.008914272 -0.03219568 -0.0030116278 -0.0037923167
-0.011694459 -0.0047756503 -0.020253424 -0.0060146507 -0.007355233 0.0015549283 -0.014256733 -0.004660411
-0.0135782845 -0.006919104 -0.011410117 -0.0074880696 -0.0052197413 -0.0020106216 -0.006032204 -0.0037820206
0.0030652422 -0.00026047794 -0.008069803 -0.0037477778 -0.012672183 -0.013412267 -0.005009816 -0.012945143
-0.0030153426 -0.010595437 -0.0006934192 -0.0018974443 -0.0031200182 -0.010013423 0.002035446 -0.0047293855
-0.001191114 -0.0014174064
00000000: fc48 da38 9d2c 60bc bf28 62bb 1a00 3dbb
00000010: 6ff7 8abb 3b64 36bc e247 4ebc a650 68ba
00000020: bdb6 04bc bc38 24bc 4415 33bc 37c2 8fbb
00000030: 7fb1 413b db89 c3bb f915 f4ba 5062 8ebb
00000040: 2204 d43b 7edb 1cbc 46a5 a8bb 1411 30bb
00000050: 0ac2 c7bb 830f dcbb 2a39 89bb b40b 813b
00000060: 6dfe 95bb 49e6 febb 72df 133c f4be 77bb
00000070: 98fc 84bb 7a35 4abc 65e4 2cbb 60f7 afbb
00000080: 4392 9bbc 80f3 863b 8366 67b8 029b 8ebc
00000090: e209 45bb 6b4b c2bb c129 e53a 71b0 62bb
000000a0: b9b7 a6bc 7e80 b7bb 4e09 e1bb ccb9 14bc
000000b0: b33b 1dbc 98ca 7fba 7560 883b b2a5 f33b
000000c0: 0df1 65bb b522 14bc 9004 d5bb c118 c6bb
000000d0: 2b0d 12bc 9edf 03bd bb5e 45bb 8488 78bb
000000e0: 1e9a 3fbc 0f7d 9cbb 82ea a5bc 8c16 c5bb
000000f0: 2b04 f1bb bcce cb3a 1295 69bc 5cb6 98bb
00000100: 7477 5ebc a7b9 e2bb 80f1 3abc 7b5e f5bb
00000110: 5d0a abbb a2c4 03bb cba9 c5bb c7db 77bb
00000120: 3be2 483b c290 88b9 3537 04bc 479d 75bb
00000130: fd9e 4fbc 20bf 5bbc 6229 a4bb dd17 54bc
00000140: 0e9d 45bb 7c98 2dbc 93c6 35ba aab3 f8ba
00000150: 3879 4cbb 570f 24bc 1e65 053b f6f8 9abb
00000160: 271f 9cba 44c8 b9ba
