submit_entry/checkpoints/Combined_edgcn_12s_slice/II/2/best.pth (torch_old, 75847 bytes, 26 tensors)

conv_time.weight f4 [15, 1, 10]
00000000: e55e df3b 98bd 0cbe 3e2f b2bc 55fb 99bc
00000010: 5fcf 6fbc 686b 31bd 6d62 45be 0a47 2b3e
00000020: 953b d23b 79ba 443e f291 353e 00e2 f53d
00000030: b01f da3d de78 f13d d642 3dbe 44ba 00be
00000040: ab34 203e 187c 89bd f181 3fbe 156e 36be
00000050: d76b 413e 1f8d 3e3b 0ae4 873d b516 063e
00000060: fb0b 8dbd 6d61 38be 3afa 753d a594 d9bd
00000070: 272c 16bd 4588 da3d b066 883d 7dea 673d
00000080: bc75 fcbd c0a2 b3bd ae70 d23d 20a9 57bd
00000090: aaf8 193d 25fc 6ebc cc81 85bc b448 72bd
000000a0: e4fc 143e 755c 91bd f8d9 44bd 1893 69bd
000000b0: d40c c8bd 809a 413e 9e93 37be 381b 20be
000000c0: 6ab9 d23d 6a3a 163e 2770 113e e19a 86bd
000000d0: bc3b 7d3d 1c6a 5a3e d7a6 023e 18e5 fbbd
000000e0: ecd6 dabd 030e 3a3e cf67 f93c 3db0 223e
000000f0: 5474 55be d23c bc3c a047 263e d4ae f8bd
00000100: 99ba a53d 28c8 ddbd e3e6 e13d d3ef 24bb
00000110: a630 cbbd 7b07 2a3d bdb3 8f3d 88c9 d0bd
00000120: e0ef 27bd 5b6f 933d 5062 08be 0ddc 9dbd
00000130: 9e95 62be 1a7e 12be 44c8 babd 79f1 21be
00000140: ad5d b93d 1583 47bd c5e4 76bc 52e3 d03d
00000150: 211e 533e 8852 093e 6440 423e fc83 813d
00000160: 60af 113d 1680 9d3d f4b5 cb3d af3a c5bd
00000170: cb05 2e3e bb63 9fbd ec77 343e fc5b 42bc
00000180: 331b 0b3e bdde 19be 1061 14bd aa20 19be
00000190: ef5a 323e 0cf1 1e3d b51e 3d3e 553c 713d
000001a0: 4410 d5bd da95 a33d 8534 be3d e0c3 19be
000001b0: 1d27 0c3d f628 a83c d429 1dbe ff64 1b3e
000001c0: b407 11bc 64bf cbbd 5dcd 823c b3fe b43d
000001d0: a283 1e3c c1d4 31be 4a0a a2bd 5b58 d3bb
000001e0: feb5 183e 8d4d 96bd e5be 423e bbbb a1bb
000001f0: 0766 da3d ff67 ebbc 031a 12be 1603 9dbd
00000200: 06c3 3c3d 5c43 873d 48f5 53bd a18a 873b
00000210: 94ca 90bd fc0c 83bd 7b25 193c 2ecd 10bd
00000220: be42 073e 200e 27bd 5df1 323e 7692 7a3c
00000230: 3951 3bbe afc1 4f3d 58cb 59bd 4bb1 d53d
00000240: 1a8a b5bd 25bc 2bbe c44c ee3d 7401 813b
00000250: 892a d0bd 9d30 7e3d
0.006816732 -0.137442 -0.021751042 -0.018796602 -0.014636843 -0.04331532 -0.19275828 0.16726318
0.006415794 0.19211759 0.17731455 0.12005997 0.10650575 0.11790632 -0.18482527 -0.12571055
0.15645091 -0.06713122 -0.18701912 -0.1781543 0.18888794 0.0029075814 0.06635292 0.130946
-0.06887051 -0.18005915 0.060053088 -0.10624055 -0.0366632 0.106705226 0.06660211 0.05662011
-0.123271435 -0.087712765 0.10275398 -0.052651525 0.03759066 -0.014586483 -0.016297244 -0.059151366
0.14549595 -0.07097713 -0.048059434 -0.057025045 -0.09768072 0.18906593 -0.17927405 -0.15635383
0.10289271 0.1467072 0.14202939 -0.065725096 0.061824545 0.2132954 0.12758957 -0.122995555
-0.10685524 0.18169408 0.030445008 0.15887542 -0.20845157 0.02297822 0.1623826 -0.12142721
0.08092231 -0.108291924 0.11030366 -0.002516736 -0.09921388 0.04151104 0.07016704 -0.10194689
-0.041000247 0.07198974 -0.13318753 -0.07707987 -0.22127387 -0.14305916 -0.09120229 -0.15814771
0.0905107 -0.048708994 -0.015069191 0.10199608 0.20616962 0.1341039 0.18969876 0.06324002
0.03556764 0.07690446 0.09946814 -0.09630334 0.16994397 -0.07782694 0.17623872 -0.011862751
0.13584594 -0.15026374 -0.03622538 -0.14953867 0.17417501 0.0388041 0.18468745 0.058895428
-0.10403493 0.07987566 0.09287361 -0.15016127 0.03421699 0.020527344 -0.15347987 0.15175246
-0.008851934 -0.09948614 0.015967065 0.088376425 0.009674938 -0.17366315 -0.07912119 -0.006449742
0.14913175 -0.073390104 0.19018133 -0.0049357093 0.106639914 -0.028736113 -0.14267735 -0.07666604
0.046084426 0.06604645 -0.05174759 0.004136399 -0.07069889 -0.06398961 0.009347315 -0.035351925
0.13209054 -0.040784955 0.17474885 0.015293708 -0.18292703 0.05072182 -0.05317244 0.104342066
-0.088642314 -0.1677099 0.11635736 0.003936941 -0.10164363 0.06205808

conv_time.bias f4 [15]
00000000: 7b46 d73b 462e 6c3b d7b5 1dbc f894 6ebc
00000010: 001f 34bc 5f90 4abb d015 ea3b b60c 72bc
00000020: 055a f73b e08a 47bb 1e7f 5abb 8617 893b
00000030: 0114 943c fa5b 3f3c 5fb9 a93c
0.006569681 0.0036038323 -0.0096258735 -0.014561884 -0.010993719 -0.0030908806 0.0071437135 -0.014773538
0.007548573 -0.0030447766 -0.0033339928 0.0041837124 0.018075945 0.011679644 0.020718275

bnorm.weight f4 [15]
00000000: 32de 763f 7bc5 813f a730 813f c2a3 7c3f
00000010: 63ee 813f 09f2 7a3f baca 813f 0f6c 7e3f
00000020: b3a7 7e3f eca3 803f 1546 7a3f 1b65 7e3f
00000030: 6fec 7e3f 7642 833f 8809 7e3f
0.96432793 1.0138391 1.0092973 0.98687375 1.0150875 0.98025566 1.0139992 0.99383634
0.9947464 1.0050025 0.97763187 0.99373025 0.9957952 1.0254657 0.99233294

bnorm.bias f4 [15]
00000000: cd2c 443d f2a1 b53d 78e9 9d3c afbd 48bc
00000010: 687e 0a3d 8712 26bc 1283 7d3d d1e3 6d3d
00000020: 2650 fe3b 5842 1a3d aa7e c7bb e27f 9c3d
00000030: aa10 59bd ee57 3a3d e782 3f3b
0.047894288 0.08868779 0.019276366 -0.012252255 0.033811957 -0.010136253 0.061892577 0.05807859
0.0077610193 0.037660927 -0.0060880976 0.07641579 -0.052994408 0.045494013 0.002922231

bnorm.running_mean f4 [15]
00000000: 7957 1b3b 14df 8dba 4ef2 523b bada abbc
00000010: eec9 53bc 2dc6 353d dee4 ccba 21eb 9fbd
00000020: d5b7 923d a9bf 123b 0edf f63c 28f8 77bc
00000030: d346 123d 0db2 8d3c c9c1 503a
0.002370326 -0.0010823929 0.0032187882 -0.02097832 -0.012926562 0.04437845 -0.0015632173 -0.07808519
0.071639694 0.002239207 0.030135658 -0.015134849 0.035712074 0.017296815 0.00079634466

bnorm.running_var f4 [15]
00000000: ea7d 943c 123f 403d 69d4 6a3d 3b01 823c
00000010: 9fdd f33b d7b1 313f e087 e93c a766 9f3f
00000020: 40dc a23f 37d3 9b3c 5571 af3e 4a61 f23d
00000030: 3b10 d33d 9f2c 933c 4ce1 f93d
0.018126447 0.04693515 0.057331476 0.015869727 0.007442191 0.6941199 0.028507173 1.2453202
1.2723465 0.019021614 0.34266153 0.11834963 0.1030583 0.017965613 0.12201175

block2.conv_2.weight f4 [15, 15, 10]
00000000: 5bf0 05be 8fec 61bd 19fb 77bd 0766 ae3d
00000010: f2bc cd3d 914d c5bd d890 2f3c d7a4 d4bc
00000020: 767b 5bbd cffe 443d 3a54 343d 6edd 92bc
00000030: b14f 82bd 34c5 e43d 04a5 e23c 879a 0b3e
00000040: b070 dabd c624 cdba 160a de3d ce02 8fbd
00000050: 1a6a ab3d 1a34 afbc 9529 0f3d 8748 0cbe
00000060: e660 d4bd 6851 cebd 3faf dbbd 0cff b73d
00000070: c423 19bd 09cc 583d 3dab e6bd 90f7 c63d
00000080: 8e41 a43d 1dfd d6bd 5b7e a7bd 9c16 56bd
00000090: c841 04be 26ed 123d 6b19 893d 7f02 723d
000000a0: 4a78 0dbd 652e c2bd 42a8 6bbc f21c 373b
000000b0: 5d51 883c 9717 483c 1146 3b3e 7fc1 cb3d
000000c0: 1950 c8bd 6b69 09be e9d8 e9bd d5b7 b73d
000000d0: 5578 5d3d feac 9bbd 1a74 a5bd 5970 be3d
000000e0: 22ff d63c 5419 f7bd c90b 16bc 65f1 d3bd
000000f0: 92d0 6fbc ccb8 7dbd ab94 e8bd 377f 7ebd
00000100: 31e1 90bc bdd4 293d 4f16 913c 0f2b 823d
00000110: 3c5e 303d 54f3 eeba f268 863d 9042 3ebd
00000120: 72d0 0f3e ac31 cf3b 14ea 123d 2e91 163d
00000130: 4de3 b33c d848 6dbd 644f a4bd 2cc2 14be
00000140: f53d b2ba 391a 65bd 785f f1bd 995e 08be
00000150: bfef a8bd 5d97 183b 2151 063e 034e 12bd
00000160: 9886 023e c67a 4cbd 640b ef3d c0b0 b63d
00000170: dc10 c5bd 1384 163b 1407 45bd b950 69bd
00000180: 9052 b03d 475c a63c 1944 803d c518 9ebd
00000190: 649c a0bd d87f 7c3b 0901 f1bd d45f 8639
000001a0: 503b 8e3d ff5a 2c3d 9428 823d 1718 e8bd
000001b0: ef7f c23d f111 7e3c 0104 163d b7a8 00be
000001c0: 71aa b9bb 8e5e 3a3c 434e 873a e527 293e
000001d0: c02b f23d 1bd2 75bc a682 fc3d d05a 5fbd
000001e0: 366a 7cbd 681c 863c 02e5 5e3d 4b7f acbc
000001f0: d490 ea3d de94 973d 75f8 a8bc 554c e4bc
00000200: 0185 e03d 6b7a a7bd 8e73 073e 2e6d b03d
00000210: b20e 0dbe 4017 b4bd 753a 74bc 02fb d93d
00000220: 0b4e 81bd d187 d8bd 1b7e 233e 00eb fdbd
00000230: 89e8 8cbd ee0f 98bc 5d96 a8bd 5f51 da3d
00000240: a6d1 f43d 9bff 193d 244f a33d d8df d23b
00000250: fa02 ad3c 6f3e 413d a469 6ebd 0509 00be
00000260: 192a 8f3d 9bd3 2d3d 8b00 d3bd 0d89 21bd
00000270: fa4d df3d 120d 6dbd b080 a8bd df0d d03c
00000280: 5e6c 9c3d c4db 123d d244 b3bd 343d e83d
00000290: 42ea 18bd 854e 50bc 02e1 0bbe 57a0 1bbe
000002a0: 99ff 3dbe fbc9 e43d 9d98 f33d 5f94 18be
000002b0: 4b32 fabb 6b62 eabd 7895 80bc eeca 8b3b
000002c0: 1a55 b5bd dd31 4f3d 665e b3bd ab5c afbd
000002d0: 4bb5 bd3d 3d61 ab3d 5320 623d b98f 98bd
000002e0: 454b 083e 11c5 adbd 2da5 e2bd e3ea da3a
000002f0: 26e9 b9bd 8ef0 443c 52e9 f8bc cbfd 4abc
00000300: 5819 57bd b02c fb3d 31b8 01be 204f f2bd
00000310: c5f1 bebc dc41 063e c9e4 12be bd32 8dbd
00000320: 477a 513d e3af 043d d5fe d9bd 6cfb 123e
00000330: dadd 94bd 2363 f13d 5261 113d 0d39 6e3c
00000340: 38e4 943d 792d b1bc 4800 98bd 6baf 893d
00000350: 32cc b9bd 4e92 0bbe 777e bc3d c7b0 f4bd
00000360: 31d7 803d c512 0c3e 7c21 20bc 8805 43bd
00000370: f645 fb3d ea0c 9e3c 3fc7 f33d cc03 183e
00000380: 5db7 5e3d bfb0 98bd 6ac4 8f3d d66a 103e
00000390: b828 e0bd 4cb1 83bd 78b2 fdba fa16 c33d
000003a0: b138 9fbd 2a8b c33d 8e8a ec3d cc46 06be
000003b0: e4ab aebd 7339 f53d 25c2 62bd 551c a9bc
000003c0: e46f 2a3d 2b13 813d cc8e b93d 88cd e9bd
000003d0: af0a 8bbc 0aa1 f3bd 191d 673d 76f1 95bb
000003e0: 8d7c 9cbd c09b 7cbd 2a5a 5d3b 284b d5bd
000003f0: ffe2 fbbd 50ff 9ebc 6daa 283d ef4d d7bd
-0.1307997 -0.05515724 -0.0605422 0.08515554 0.10045804 -0.09633935 0.010715686 -0.025957508
-0.05358454 0.048094567 0.044025637 -0.017927852 -0.06362856 0.11170426 0.027666576 0.13633166
-0.10666025 -0.0015651218 0.108417675 -0.06982957 0.08369847 -0.021387149 0.034951765 -0.13699542
-0.103700444 -0.10074121 -0.10726785 0.08984193 -0.037387624 0.052928958 -0.1126313 0.097151875
0.08020316 -0.10497496 -0.08178397 -0.052267656 -0.12915719 0.035870694 0.06694301 0.05908441
-0.034538545 -0.09481505 -0.0143833775 0.0027940837 0.01664036 0.0122126555 0.18288447 0.09949016
-0.097809024 -0.1341912 -0.114183255 0.0897061 0.054069836 -0.07601355 -0.08078785 0.09298772
0.026244704 -0.12065378 -0.009158083 -0.10348777 -0.014637129 -0.061943814 -0.11356481 -0.06213304
-0.017685505 0.04146265 0.017710833 0.06355869 0.04305862 -0.0018230476 0.065629855 -0.046450198
0.1404436 0.00632306 0.035867766 0.036759548 0.021958971 -0.057930797 -0.08022955 -0.14527196
-0.0013598787 -0.05593321 -0.11785787 -0.13317336 -0.08248853 0.002328358 0.13116886 -0.03571893
0.12746656 -0.049921773 0.116720945 0.08920431 -0.09622356 0.0022966906 -0.048102453 -0.05696175
0.086094975 0.020307673 0.062629886 -0.07719568 -0.07842329 0.003852835 -0.117677756 0.0002562987
0.06944907 0.04207897 0.06355396 -0.1133272 0.09497058 0.015507207 0.036624912 -0.1256436
-0.00566607 0.011375083 0.0010323006 0.16519125 0.11824751 -0.015003706 0.12329607 -0.054529965
-0.06162473 0.016370967 0.054417618 -0.021056792 0.11453405 0.07401441 -0.020626286 -0.02786843
0.109628685 -0.08177646 0.13227674 0.086145744 -0.13775137 -0.08793497 -0.014906515 0.10643579
-0.06313714 -0.1057278 0.15966074 -0.12398338 -0.0688029 -0.018562283 -0.082318045 0.106600516
0.1195405 0.03759728 0.07974079 0.0064353757 0.021119583 0.047178682 -0.058206216 -0.1250344
0.06990451 0.04243813 -0.10302838 -0.039437342 0.10903545 -0.057873793 -0.0822767 0.02539724
0.07637857 0.035854116 -0.08753361 0.113397986 -0.03733278 -0.012714033 -0.13660052 -0.15197884
-0.18554534 0.11171337 0.11894343 -0.14900349 -0.00763539 -0.11444553 -0.015696272 0.0042661345
-0.088541225 0.050584663 -0.087582394 -0.08562597 0.092630945 0.08368156 0.055206608 -0.07449288
0.13309963 -0.08484853 -0.11066661 0.0016702082 -0.09077673 0.012020243 -0.030384693 -0.0123896105
-0.052514404 0.12264383 -0.1266792 -0.11831498 -0.023308644 0.13111061 -0.14345087 -0.06894443
0.051142003 0.0323943 -0.106443085 0.14353722 -0.07268877 0.11786487 0.035493203 0.014539969
0.07270092 -0.021628128 -0.07421929 0.067229114 -0.0907215 -0.1363003 0.09203809 -0.1194778
0.062910445 0.13679035 -0.009773608 -0.047612697 0.12269203 0.019293267 0.119032376 0.14845198
0.054374088 -0.07455587 0.07019885 0.14103255 -0.109452665 -0.06430301 -0.0019355556 0.09525867
-0.07774485 0.09548028 0.11549865 -0.13112944 -0.08528879 0.11973848 -0.055360932 -0.020643393
0.041610613 0.06302484 0.090604395 -0.11416155 -0.016972868 -0.1189595 0.056424234 -0.0045759035
-0.07640944 -0.061671972 0.0033775666 -0.104147255 -0.122991554 -0.019408852 0.041178156 -0.105129115

block2.bnorm_2.weight f4 [15]
00000000: e235 7b3f db79 893f 1d97 823f 566e 7f3f
00000010: 8f7d 7f3f 6ca0 7e3f ff92 803f 9859 873f
00000020: a666 763f 069e 7c3f bf33 813f 7307 853f
00000030: 6f47 7a3f 83dc 7a3f a96f 813f
0.98129094 1.0740312 1.0202366 0.99777734 0.9980096 0.99463534 1.004486 1.0574217
0.9625038 0.98678625 1.0093917 1.0392898 0.9776525 0.97992724 1.0112201

block2.bnorm_2.bias f4 [15]
00000000: 1ebb d33b 9ac9 a63d c26b 423d bb36 9dbc
00000010: 47b3 6bbc bf08 0d3c 9237 2e3d 8dc8 89bc
00000020: 424d 29bb 3f91 223d 2b0b 273d 76b9 fc3d
00000030: efb8 ecb8 6eda 8b3c 17f5 89bc
0.006461515 0.08143921 0.047466047 -0.019191137 -0.014386005 0.008608042 0.042533465 -0.016819263
-0.0025833403 0.0396893 0.040782135 0.12340061 -0.000112878035 0.017071929 -0.0168405

block2.bnorm_2.running_mean f4 [15]
00000000: a258 a1bd a7aa 41be f383 85be ca64 a0bd
00000010: afc3 bb3c 0e01 85be 9966 99be a5fe 04bf
00000020: d57c 493e 1bd9 5d3e 0fee adbc df28 54be
00000030: a224 83be 4f3e 573c d52b 72be
-0.078782335 -0.18912755 -0.26077232 -0.07831724 0.022920458 -0.25977367 -0.29961088 -0.51951057
0.19676526 0.2166485 -0.02123168 -0.20718716 -0.25613886 0.013137414 -0.23649533

block2.bnorm_2.running_var f4 [15]
00000000: bf8c b93e 09af b43e 6433 043f 06a7 823f
00000010: 27c6 8c3e 2479 be3f a479 e33e f718 713f
00000020: c20e 843f 2e68 a13e 02c4 e73e fa49 953e
00000030: 99c2 803f ce3f 783f bd05 403f
0.36240193 0.3528979 0.51640916 1.0207222 0.27494928 1.4880719 0.44428742 0.9417872
1.0317004 0.31524795 0.4526673 0.29158002 1.0059386 0.9697236 0.75008756

block3.conv_3.weight f4 [30, 15, 10]
00000000: 732d 713d 6716 b03c 2604 bbbd 3017 983c
00000010: 1112 e9bd 0cb7 dbbc 6123 193d cd46 a7bd
00000020: ae50 973d 710b a63b 4873 893d 15f2 c4bd
00000030: b30f 92bd 624d 493d fb6c 4ebd a115 343d
00000040: e1a1 c6bb e1a9 2cbd de7a 663d 707b 86bd
00000050: a1a3 a13d 5341 7b3c d496 a73d c8d2 ac3c
00000060: 4bd9 a83d ded6 6c3d eccd 673d d63e 6fbd
00000070: fc45 ddbc ac91 e3bd 1500 b6bc 2d01 a3bd
00000080: 6ccd eabd ae6a 8e3c d2d7 b0bc 15cf d5bd
00000090: 462f 5e3d 2cf0 a33d a72a da3d b17b 2d3d
000000a0: 4827 c0bd ad81 94bd 8f7d 08be 02f8 afbd
000000b0: eae6 43bd ef4f 5e3d 9fe8 933d 1aba 603d
000000c0: fb90 613d ae52 ae3c 5034 babd e7ab ad3d
000000d0: 40ed 56bd 1d71 633c 0a61 a1bc 0c36 c63b
000000e0: 74a3 10bc caed 85bd 0fb0 3c3d 92b4 92bd
000000f0: f544 a9bd 5de9 833d 310b 3e3d 75ea 903c
00000100: 84d9 acbd 63b9 9c3d 26d7 f83d b2b7 a53c
00000110: 8385 9fbd b201 aabd 7ea6 ea3d 6d7e 74bd
00000120: 1173 97bd 5a19 123c 2903 e53d 620e f03d
00000130: 888b 163d 0d85 803d 3378 2e3b b849 fcbc
00000140: 5b6c 6c3d 5146 49ba 5163 0e3d b385 e6bd
00000150: 5963 393d 5ea4 293d 244a 2d3d bbb4 f1bc
00000160: 7ee1 c43d 1898 9a3d f8d6 0cbe 6dea abbd
00000170: 1837 d9bd fbea 973d bde6 8dbd ab49 2d3d
00000180: f8a7 cebd c030 56bd b5f9 6fbd 1d60 4f3d
00000190: 3c7f 81bd a2a4 4dbd 66f7 f3bc fc19 45bc
000001a0: 0d14 d5bd 41f3 d9bc f638 5e3c b43b 99bd
000001b0: 44cc b43d b0d9 72bd fd0b 0bbe 849b e1bc
000001c0: 2362 b03d 4975 ee3d 9406 0ebc 968e 88bd
000001d0: da05 23bc 226f f7bc c8b4 9cbc 299e 173d
000001e0: 7f1e bfbd 3d0b ce3d 8f2a 753d f0ef 313d
000001f0: 5abe c6bd 8c55 90bd aa71 d3bc 13bb 19bd
00000200: 12c2 62bd 56d1 013e 37a8 713d 1b72 c53d
00000210: 07a6 6dbd 6770 bb3d ccaa a93d 98ca a53d
00000220: 1ba1 07bc 1fbc e6bc 3248 853c eeb2 ca3d
00000230: b310 eebc e5b1 963d 0b07 7ebd 9c59 89bd
00000240: e103 1a3d 018e a2bd d995 debd d07a d83d
00000250: a0f4 d2bc 50b6 d3ba d9fc 9d3d 4686 d63c
00000260: 3c8e 44bd 96f2 4a3d 57b0 60bd 64d2 973d
00000270: 95b8 f13c 599d b0bd a578 85bd 5baf d7bc
00000280: 957c f03d 44cd d239 62f6 91bd 11a5 5fbd
00000290: 21d2 4abd a3c4 273c 6c95 5d3d 1103 9dbd
000002a0: 855c 05bd f9e2 c03a cf89 57bc 62a9 9c3d
000002b0: f8c0 f8bb ca04 b13d f8c6 753d 5f5c 4cbd
000002c0: 8878 98bd 14a1 ba3c 8faa dfbd 16c2 a2bb
000002d0: 1761 dabd edf7 c83d 7e54 babd db98 943d
000002e0: cfa3 f53c f2f9 963d 37e4 babd 7ddf 66bd
000002f0: f89e bfbd 096c f5bc 8777 08be c8b0 acbc
00000300: 8857 583b c48e a63d 9306 a33a 41cd 09bd
00000310: d34f 8abd 4c7c f23d b532 a2bd f386 e6bc
00000320: 3aaa ed3c 483b df3c 2b50 593d 3d15 65bb
00000330: 5a32 b5bd 57bf 9c3d 5ecb 89bd 79cc c03d
00000340: 2150 a0bd a8ad e33c 7481 ce3c 18d6 e93c
00000350: ce41 2a3d 9447 bbbd d19e 61b9 ba23 a9bc
00000360: 260c cabd ed29 103c 0a23 cfbd d890 eb3d
00000370: 522c cfbd 1e92 9e3d 3567 e93c 6da6 1d3e
00000380: deb2 d2bd b784 e9bd 20c1 9abc c13b 93bd
00000390: e69a 1c3e 8137 193e ce3a a9bd 58c7 863d
000003a0: 6d30 6d3d 63fb c7bd 47df 8e3d 7840 95bc
000003b0: 4c1f 893d 4e34 a53d 4197 c7bd e063 c53d
000003c0: cbc2 763d e002 153d 31ce 233c e9b6 bb3c
000003d0: 9b4f 74bd aa7c 4fbc ebae ab3d 09f5 363c
000003e0: 98aa 9fbd df00 07be 68de 10be f671 e0bd
000003f0: c65c b63c 964a 4f3c 7f58 0abe 8245 c1bd
0.058881234 0.021495057 -0.091316506 0.018565744 -0.11380399 -0.026820682 0.037387256 -0.08167801
0.07388435 0.005067282 0.06711441 -0.09616486 -0.07131901 0.049146064 -0.0503969 0.04396594
-0.006061778 -0.042154197 0.05626952 -0.065665126 0.07892538 0.015335399 0.08183065 0.021096602
0.0824457 0.0578221 0.056592867 -0.058409534 -0.02701091 -0.11111769 -0.022216836 -0.07959209
-0.11464962 0.017384853 -0.021587286 -0.104398884 0.054244302 0.080047935 0.106526665 0.04235429
-0.09382492 -0.07251296 -0.13329147 -0.085922256 -0.04782764 0.05427545 0.07222103 0.05486498
0.055069905 0.02127966 -0.09092009 0.084800534 -0.052472353 0.013881949 -0.019699592 0.0060489234
-0.008828033 -0.06539495 0.04606634 -0.07163347 -0.08265106 0.06440995 0.04639739 0.017689923
-0.08439925 0.07652547 0.12150411 0.020229194 -0.07789137 -0.083011046 0.11457537 -0.05969088
-0.07394994 0.008917177 0.111822434 0.11721493 0.03675416 0.062753774 0.0026621937 -0.03079687
0.057720523 -0.00076780195 0.034762684 -0.1125597 0.04526076 0.04141652 0.042307034 -0.029505124
0.09613322 0.07548541 -0.13753879 -0.083943225 -0.106062114 0.07417866 -0.069287755 0.042306583
-0.10090631 -0.052292585 -0.05858775 0.05062877 -0.06323096 -0.050205834 -0.029781055 -0.012030121
-0.10404215 -0.02660525 0.013563385 -0.074820906 0.08828023 -0.059289634 -0.13578792 -0.027539976
0.08612468 0.11643464 -0.008668561 -0.06667821 -0.009950126 -0.03020436 -0.019129172 0.037016068
-0.093319885 0.10060737 0.05985504 0.043441713 -0.097042754 -0.07047567 -0.025811035 -0.037531924
-0.05536086 0.12677512 0.058998313 0.096409045 -0.058019664 0.091522984 0.0828453 0.08095282
-0.008278157 -0.028165875 0.016269777 0.098974094 -0.029060697 0.073581494 -0.062018435 -0.06706545
0.037601355 -0.07937241 -0.10868425 0.105702996 -0.025751412 -0.0016152356 0.077142425 0.026187073
-0.047987208 0.049547754 -0.05485567 0.07413176 0.02950696 -0.08623762 -0.06517152 -0.026328733
0.11742512 0.00040207256 -0.07127072 -0.05460078 -0.0495168 0.010239753 0.054097578 -0.076666005
-0.032558937 0.0014716081 -0.013155415 0.07649495 -0.007591363 0.086434916 0.060004205 -0.04989278
-0.074448645 0.022781886 -0.10921203 -0.0049669845 -0.1066305 0.09812913 -0.09098147 0.07255717
0.029985337 0.07371892 -0.0912556 -0.05636548 -0.09356493 -0.029958742 -0.13326846 -0.02108039
0.0033011157 0.08132699 0.0012437872 -0.03364301 -0.067535065 0.11840114 -0.07919828 -0.02814052
0.029011834 0.027249947 0.05305497 -0.0034955286 -0.088474944 0.07653683 -0.06728242 0.09414
-0.078277834 0.027792767 0.025208212 0.02854447 0.041566662 -0.09144512 -0.00021516836 -0.020646919
-0.098655984 0.008799058 -0.10114105 0.11502236 -0.10115875 0.077427134 0.028491596 0.15395518
-0.102880225 -0.114022665 -0.018890917 -0.071891315 0.15293464 0.1496258 -0.08263169 0.065809906
0.05790751 -0.09764745 0.069761805 -0.018219218 0.066954225 0.08066617 -0.09745646 0.0963819
0.060244363 0.036379695 0.00999789 0.022914367 -0.05964623 -0.012664 0.08382972 0.011166819
-0.0779621 -0.13183926 -0.14147341 -0.10959236 0.022261035 0.01265206 -0.13510321 -0.09437086

block3.bnorm_3.weight f4 [30]
00000000: 6684 833f 1bf9 8e3f c5ad 833f e8dd 7f3f
00000010: d18d 813f 3051 7a3f 8ece 723f 82c7 7e3f
00000020: 9861 813f 8d22 883f ce6e 813f 67dc 743f
00000030: 2784 803f d3e8 853f 18a4 863f bd14 7e3f
00000040: 4415 853f 540f 833f 1a88 863f 9cae 803f
00000050: b940 7a3f 84b0 853f b54a 753f 3b6c 873f
00000060: ae22 7c3f 750e 873f a1c6 703f c788 7c3f
00000070: c3c4 823f 8360 7c3f
1.027478 1.1169771 1.0287405 0.9994798 1.0121404 0.9778013 0.9484643 0.99523175
1.0107908 1.0635544 1.011194 0.9564881 1.004033 1.0461677 1.0518827 0.99250394
1.0397115 1.0239053 1.0510285 1.0053287 0.9775501 1.0444493 0.9581712 1.0579904
0.98490417 1.0551287 0.94053084 0.98646206 1.0216297 0.98584765

block3.bnorm_3.bias f4 [30]
00000000: e462 97bc 84d0 dd3a f8bb ae3c bed1 62bc
00000010: 371f 9d3a 7a94 21bd 1252 82bd 00f2 1dbc
00000020: de44 e4bc 1547 173c f30b 87bc ab55 c3bc
00000030: 1ab9 44bc ebe3 02bb 55d9 90bc df8c 0abd
00000040: 537d 083c fd2c 25bd e84b dc3b 5667 3b3b
00000050: e4b7 49bc 1359 2c3d cd26 57bd 7ba8 023c
00000060: 5acb 813b a40a 8739 9a6e 91bd 009b 14bc
00000070: 754f f3ba 035a 6dbc
-0.018479772 0.0016923104 0.021329865 -0.013843952 0.0011987452 -0.03944824 -0.0636331 -0.009640217
-0.02786487 0.009233256 -0.01648519 -0.02384456 -0.012007022 -0.0019972275 -0.017681757 -0.03382575
0.008330661 -0.040326107 0.006722916 0.0028595529 -0.012311909 0.042077135 -0.052527238 0.007974739
0.003961009 0.00025757134 -0.07101174 -0.009070158 -0.0018563109 -0.0144867925

block3.bnorm_3.running_mean f4 [30]
00000000: f17d 3abe e0e5 bbbd 3579 10bf ee99 74be
00000010: d8d4 09be 0402 0e3f 05ee 4ebe b2be fd3d
00000020: ff4c c1be e5f1 dabe 6f69 8fbe 4de0 75bd
00000030: 8bac e1be 8669 afbe ce19 16bf 0b7a a8bd
00000040: b2d5 9abe 70d0 09bf 2ce9 d1be 0163 a0be
00000050: 4c9e a1be 26e6 61be 3a00 e53d b387 0cbe
00000060: 1b79 463f 5ac0 9ebe 50c7 a0be da80 b43d
00000070: 1c1d 80be 9995 b03e
-0.18212105 -0.091747046 -0.5643495 -0.23886845 -0.134601 0.55471826 -0.20207985 0.12389888
-0.37754056 -0.42762676 -0.28010127 -0.060028363 -0.44076952 -0.34260195 -0.58633125 -0.08226403
-0.30241162 -0.53833675 -0.4099821 -0.31325534 -0.31566083 -0.22060451 0.11181684 -0.1372364
0.7752854 -0.31006128 -0.31402063 0.08813639 -0.2502221 0.34489134

block3.bnorm_3.running_var f4 [30]
00000000: 5686 c83e 9528 5f3e 0905 7c3f 6218 143f
00000010: 931e 163e a79c db3e 1e51 123f e677 063f
00000020: 2f76 913e 8489 603e f77f db3e e6b8 003f
00000030: f488 073f a843 be3e 930d ca3e 8867 f63e
00000040: c0ca 6f3e f371 a83e 56f8 823e 0b46 7b3e
00000050: a4bc c43e 8b8b b03e bdff 8c3e 1a6b bc3e
00000060: 3d6d 263f 8aff a03e d8aa 9c3e 39e3 8d3e
00000070: aca2 843e 5902 083f
0.3916499 0.21792825 0.98445183 0.57849705 0.146601 0.42892954 0.57155025 0.525267
0.2841048 0.21927458 0.42871067 0.5028213 0.5294335 0.37160993 0.3946348 0.48125863
0.23417187 0.32899436 0.2558009 0.24538438 0.3842517 0.34481463 0.27538863 0.36800462
0.65010434 0.3144496 0.30599093 0.2771242 0.2590536 0.5312858

block4.conv_4.weight f4 [30, 30, 10]
00000000: fbed 00bd 8523 dcbc 868f 913d 12c3 f1bc
00000010: 139e 193d 869f acbc 4da9 2f3d e04b 223d
00000020: 73e3 9b3d c744 ee3b 3a58 63bd 4168 b8bd
00000030: 6ac8 9dbc 0963 d2bc 074a 4a3d 4efb b2bc
00000040: e501 99bd b963 d8bd 370f 5abd 1aa5 613c
00000050: 63e5 a83d 99bf 663d 9948 a1bd d866 9dbd
00000060: 52ff 513c 3c43 72bd d8c4 d9bd 7762 c1bd
00000070: 8585 97bc 3e40 6ebd faad 47bd 014c b3bc
00000080: 41cc 44bd 095b 913d 8db0 83bd 8eeb e9bd
00000090: 081c a03d 33df 60bc bb0f 1abd 13c5 8b3d
000000a0: 0df8 85bc 7470 873d 618e 73bd 4796 3c3d
000000b0: 4cf1 e33b f54b ac3d b6f2 7c3d 2b80 66bc
000000c0: 5376 8bbd b6bf b9bd d8bd 93bb 22ea f43c
000000d0: f1fb 5f3d a01b 0f3c b65b b7bd 0b29 46bc
000000e0: 441a cbbc b3fd 2ebb 6c17 063d b0aa 1dbc
000000f0: 05f3 d73c 343e 05bd ac1c 9e3d 4d7d 4b3d
00000100: 6080 96bd 1ac9 a13d 2c46 2fbd 14d3 623a
00000110: 9fb1 943b 368a 29bd 6a87 4b3c 55b0 223d
00000120: 4e4b a2bc 5dba 093b df76 dc3c 6790 953d
00000130: 22e1 a2bc 713c a43b c4f6 c53b 0b0a 64bb
00000140: a590 47bd 8866 e2bd bf95 243d a11b b1bd
00000150: df5a 79bd 835e 963d f1f8 433d 62e5 3a3d
00000160: 7f70 24bd 9297 843c 0890 413d cb4b e13d
00000170: aa7c b83d 9f3b f0bd e527 f83c c735 ebbc
00000180: b653 633d 7565 48bd e3ef 3ebd e896 613d
00000190: d693 49bc 9d95 b9bd eb1c 46ba 7698 c1bd
000001a0: 9539 8fbd 8684 9f3c 48e9 b63d 8a43 843d
000001b0: 9f74 18bd 2766 97bc 695e 0f3d 975d a5bd
000001c0: 908b 8ebd 5ef6 6abd 82ad 643c 77ad fcbc
000001d0: d5a7 593d dae8 983d 6d5a 85bd 2b70 ec3c
000001e0: 03d2 1c3d 68b4 babd 9865 ecba 3ea3 d5bd
000001f0: bc96 de3c 6879 9c3d 8bb2 893c b785 b2bd
00000200: e9df 86bb 4d1e b13c 88e4 7dbd 84a7 78bd
00000210: 3723 d1bd 9879 cdbd 4f2f 87bd 8a41 373d
00000220: 3d6d 463d f32b a5bd 70b0 803c 7413 ac3c
00000230: 1a45 c2bd 488e 0cbd 83bd 3abc 4589 afbd
00000240: 350e e7bc 990f 3d3d eec5 0abd 24b8 4b3d
00000250: 5e6f a03d b994 8cbc ceed 763d 2d1b fe3c
00000260: 555e 2d3d 669c 823b 539e b63d e5b7 8c3c
00000270: 5aa3 ad3b 0830 97bd 4afe f1bc db51 aebd
00000280: dc3d 643d f757 163d 9c1d 9f3d 5cb6 c0bd
00000290: 1323 0abe 422a e83c 4402 743c fe2f 3d3c
000002a0: db9f 303d c1f0 17bd 564b 02be 86e1 cbbd
000002b0: 61ea 0dbd d358 52bc 3963 a53d 89bf cd3d
000002c0: eb6b b33d 4187 d2bd 6bc3 7d3d ad7b 8d3d
000002d0: d1f5 873d 2621 48bd e240 03bd 65e4 d83d
000002e0: 2674 cabb 30a2 1a3d 7f23 ccbd 53c3 cdbc
000002f0: 89bd 7f3c 53b7 42bd 288d 92bb 58bc ba3d
00000300: 1072 03bd 39d8 0abd c9c1 cabd b959 a4bc
00000310: 75ec debc 18a7 7cbc fde9 3cbd ede3 a2bd
00000320: 04c2 60bd 23d1 aabc 45aa bb3c 2c7b 85bd
00000330: 07e7 80bc 8570 cbbd f7b4 57bd fd21 653d
00000340: bd67 5ebc 1ce0 333d 4b2d b1bd 81e0 8bbc
00000350: a08e 723d 18c5 3e3d 6828 7c3d b597 4fbd
00000360: dfc3 4dbd 5d28 00be a3ff 25bc 84f2 f1bd
00000370: 5746 8f3d c64d 35bc b566 09bd a037 4a3c
00000380: 82f5 3fbd 2e53 a4bd 9625 bf3d 51c2 af3d
00000390: 8ed0 903d 768c 38bd d190 a33c 1016 acbd
000003a0: abd4 633d 9a19 193d 4253 293d 64de 77bd
000003b0: 84b3 92bb bbdb 05bd b89f d13d 12f6 093e
000003c0: 01ea 84bd b8c1 a63d 8425 8d3d 13b7 5c3c
000003d0: 82d9 a8bd 449d b63d 80de 063c 7a65 273d
000003e0: 43f4 9c3a c735 ba3d d549 c93c 5e4a 443d
000003f0: 68b0 8e3d 445b 90bd 63f3 33bc 7b55 6a3c
-0.031476956 -0.026872406 0.07107453 -0.029511962 0.037504267 -0.02107216 0.042886067 0.03962314
0.07611742 0.0072713825 -0.05550406 -0.0900426 -0.019260604 -0.02568199 0.049387004 -0.021848347
-0.074710645 -0.105658956 -0.053237166 0.013772273 0.08246877 0.056335066 -0.07875175 -0.076856315
0.012817221 -0.05914615 -0.10633248 -0.09442609 -0.018496284 -0.058166735 -0.0487499 -0.021886827
-0.048046354 0.07097442 -0.06430159 -0.114218816 0.078178465 -0.01372509 -0.037612658 0.06824698
-0.016353631 0.066132456 -0.059461955 0.046041753 0.006956255 0.08412925 0.061754905 -0.014068644
-0.06809678 -0.09069769 -0.004508715 0.0298968 0.05468363 0.008734614 -0.08953039 -0.012094746
-0.024792798 -0.002670151 0.03273718 -0.009623215 0.026360998 -0.032530025 0.077203125 0.049680043
-0.07348704 0.07899685 -0.04279153 0.0008652669 0.0045377756 -0.041391574 0.012422422 0.039718945
-0.019811299 0.0021015622 0.02691215 0.07302933 -0.019882742 0.005012088 0.0060413796 -0.0034796025
-0.04872193 -0.110547125 0.04018187 -0.08647848 -0.060877677 0.073422454 0.04784483 0.045628913
-0.040146347 0.016185556 0.0472565 0.110007845 0.09008153 -0.11730122 0.03029246 -0.028712166
0.055499755 -0.048924882 -0.046615493 0.055075556 -0.012303313 -0.090617396 -0.00075574097 -0.09452908
-0.06993405 0.019472372 0.089312136 0.064581946 -0.037220594 -0.018481327 0.035002146 -0.080744915
-0.06960213 -0.05736386 0.013957383 -0.030844433 0.053138573 0.07466288 -0.06511388 0.02886208
0.03828622 -0.09116441 -0.0018035648 -0.104315266 0.027171485 0.07640344 0.016808769 -0.0871691
-0.0041160476 0.021620894 -0.061985523 -0.06070663 -0.10211795 -0.10032958 -0.0660082 0.044740237
0.04844402 -0.08065023 0.015709132 0.02100537 -0.09485836 -0.034315377 -0.011397722 -0.08571104
-0.028205017 0.046157453 -0.033880167 0.049736157 0.078337416 -0.01716076 0.060285382 0.031018818
0.04232629 0.0039859293 0.08916917 0.017177531 0.005299014 -0.07382208 -0.0295402 -0.085117064
0.055723056 0.036704984 0.077693194 -0.09409782 -0.13489942 0.028340463 0.014893118 0.011547087
0.0431212 -0.037094835 -0.12724051 -0.099551246 -0.03464735 -0.01283856 0.08075566 0.10046298
0.08760818 -0.10279704 0.061953943 0.06908355 0.06638683 -0.048859738 -0.0320443 0.10590438
-0.0061783968 0.03775233 -0.09967708 -0.025117552 0.015609154 -0.047538113 -0.0044723935 0.09117955
-0.0320912 -0.033897612 -0.09900243 -0.020062314 -0.02721236 -0.015420698 -0.046121586 -0.0795363
-0.054872528 -0.020851677 0.02290834 -0.06517634 -0.015735162 -0.09933571 -0.052662816 0.055940617
-0.013574538 0.0439149 -0.08651217 -0.017074825 0.05921805 0.046574682 0.061561972 -0.05068179
-0.050235625 -0.12515397 -0.010131749 -0.11813834 0.06995838 -0.011065906 -0.033545215 0.012342364
-0.046864994 -0.08023678 0.09333341 0.08581985 0.07071029 -0.04505583 0.019966515 -0.084026456
0.055622738 0.03737793 0.041339166 -0.060514823 -0.0044769663 -0.032680254 0.10235542 0.13472775
-0.06489945 0.08142418 0.06891921 0.013471383 -0.08244611 0.08916715 0.008231759 0.04086826
0.0011974651 0.090922885 0.024571339 0.047922485 0.069672406 -0.070486575 -0.010983321 0.014302607

block4.bnorm_4.weight f4 [30]
00000000: 103d 853f 2d60 863f c9b9 813f 3c0f 833f
00000010: 8cd9 843f 0f2b 863f eadf 883f aa96 813f
00000020: b65c 883f 79de 843f d0ce 863f 88c0 853f
00000030: 9409 803f 9b20 823f 84e6 863f 5caa 883f
00000040: 1779 863f 608a 7f3f b076 813f 71cc 893f
00000050: 1e93 843f c7ec 883f 09c1 853f 15ae 813f
00000060: 711f 833f dbde 803f c871 843f e85d 853f
00000070: d391 873f 45e0 813f
1.040926 1.04981 1.0134822 1.0239024 1.037889 1.048189 1.0693333 1.0124104
1.0653293 1.0380393 1.0531864 1.0449381 1.0002923 1.01662 1.0539098 1.067699
1.0505704 0.9982052 1.0114346 1.0765516 1.0357397 1.0697259 1.0449535 1.0131251
1.024397 1.006801 1.0347223 1.0419283 1.0591377 1.0146567

block4.bnorm_4.bias f4 [30]
00000000: fbca 7bbc a749 153c eeb8 10bc 85e3 f7bb
00000010: ffd3 24bc 4be4 463b 2834 173b ae0c d03b
00000020: fc0f 623c 7096 a3bc 811a cdbb 8f66 5dbc
00000030: 00d9 40bc f7a7 a0bc 6177 893b 4a7e 693c
00000040: 008c 09bc 9005 863b ed49 8cbc 31d2 1f3c
00000050: 268d 103b 9ae7 653c 4b76 ddbb d5ce 463b
00000060: 8a2a a5bb 46b8 dbbc a9cb 233a 36c9 ad3b
00000070: d91a 8f3b ef8a 16bc
-0.0153682185 0.009111798 -0.008833153 -0.0075649642 -0.010060309 0.0030348476 0.002307186 0.006349168
0.013797756 -0.019969195 -0.006259263 -0.013513221 -0.011770487 -0.019611342 0.0041951393 0.014251301
-0.008395195 0.0040900186 -0.017125094 0.009754703 0.0022056787 0.014032269 -0.0067584864 0.0030335684
-0.0050404714 -0.026821267 0.0006248304 0.005303527 0.004367214 -0.009188398

block4.bnorm_4.running_mean f4 [30]
00000000: e64b 1bbf 1307 50bf 09ea a3be 9230 e3be
00000010: e178 ad3e b2c5 18bf a512 793c f456 bfbe
00000020: 5096 9bbe da45 86be e7c8 e13e 4ecd 393e
00000030: ad9a 1b3f 3642 4d3d 1268 8a3d 0839 fdbe
00000040: 5539 c73e 2db9 37bf dc64 133e 0b8f 38be
00000050: 203b a43f e334 a9bd d7c1 df3e 0fd2 d6be
00000060: 5f1c d33d 0c11 34bf c8d0 2f3f e44e 80be
00000070: b05c c33d 0cd5 b9be
-0.60662687 -0.81260794 -0.32014492 -0.44372994 0.33881286 -0.5967666 0.015202199 -0.37371027
-0.30388117 -0.26225168 0.4409859 0.18144724 0.6078289 0.05011197 0.06758131 -0.49457574
0.38910928 -0.7176693 0.14393944 -0.18023317 1.2830544 -0.082620405 0.43702576 -0.41957137
0.10308146 -0.7033851 0.6867795 -0.2506019 0.09539163 -0.36295354

block4.bnorm_4.running_var f4 [30]
00000000: 2c6b c13e caad 133f 786e 143f 25ef dc3e
00000010: db3e dc3e 6a6e 263f 0747 cf3e 2f8f 623f
00000020: 037a 3b3f d1b7 193f f235 f33e 441d b53e
00000030: ade5 053f 4cff a63e ba0c 013f f688 103f
00000040: 825f 2a3f d0e0 393f f968 343f d11f 0a3f
00000050: fcfd 653f 4860 023f 88e9 cc3e 9c04 443f
00000060: fbca 9b3e 09c8 403f b2df fa3e 3a79 113f
00000070: aced e63e cbac bf3e
0.37777078 0.57687056 0.5798106 0.43151203 0.43016705 0.6501223 0.40483877 0.8849973
0.7323305 0.60046107 0.47502095 0.3537389 0.5230358 0.3261665 0.50410044 0.56458986
0.66551983 0.7260866 0.70472676 0.539548 0.89840674 0.50928164 0.4002192 0.76569533
0.304283 0.7530523 0.4899879 0.568256 0.45103204 0.37436518

conv_channel_res.weight f4 [1, 30, 3]
00000000: c436 5fbc ef22 9ebd 199a a3bd 4219 813a
00000010: 0bec a13d da2c 9e3d b978 cbbc bb02 f5bd
00000020: 76c2 debc 0af8 f4bd cbb7 efbd 2d41 efbd
00000030: d4a9 dfbd a8a1 0bbe a061 06be a3c2 69bd
00000040: cb35 043e fbd8 143e b608 cc3d b0b3 77bd
00000050: 955b 723d 69a5 e1bc 12c4 89bd fa5c afbd
00000060: 39cf 2b3d 75c1 973d 7bba 973d 52cf ecbd
00000070: 02be acbd c369 09be 2423 9b3d c470 d0bd
00000080: 2db7 803b acb1 98bd 6ed7 03be 82bd bbbd
00000090: 9d81 073d 67aa 3ebc cda6 9fbd 7c4f cdbd
000000a0: fdd3 b0bd ee78 e2bd 8111 aabc 40fe f13d
000000b0: 1d17 0d3e 3878 833c 77ed b43d 9606 043e
000000c0: e171 cd3b 87fe cfbd 6890 02be 9fc6 01bd
000000d0: f39e 83bc c1b3 93bd 3762 cfbd 78a5 873d
000000e0: 4ee6 05bd f747 1d3d e97c 213e c963 1b3e
000000f0: 5b75 983d c62c d83d 2235 a73c a878 df3d
00000100: 4723 273d 35d6 113e e638 d13d 7418 bbbd
00000110: 6fb4 9cbd 60c6 30bd e4d7 d8bd 6a74 413d
00000120: 186b 94ba 5b43 febd 6119 38bd e7aa 25bd
00000130: 4d52 8ebd 7463 e7bd 32eb 623d a71c 8fbb
00000140: 7a74 c8bd 8eba eebc c263 cf3d 52a1 823d
00000150: 342c ff3d 1dde b53d e926 633d f862 99bd
00000160: f764 6ebc ff30 91bd
-0.013623897 -0.07721507 -0.07988376 0.0009849446 0.0790635 0.077233985 -0.024837838 -0.119634114
-0.027192336 -0.11961372 -0.117049776 -0.11682353 -0.10921064 -0.13635886 -0.13123178 -0.057070386
0.12911145 0.14535896 0.09962599 -0.060474098 0.05916937 -0.027544694 -0.067268506 -0.08562656
0.04194567 0.07409946 0.07408615 -0.11562981 -0.084346786 -0.13419251 0.07575062 -0.10177758
0.0039280863 -0.07455763 -0.12875149 -0.09167005 0.033082593 -0.011637307 -0.077954866 -0.10024926
-0.086341836 -0.11058222 -0.0207603 0.118160725 0.13778348 0.016048536 0.08834355 0.12893137
0.006269679 -0.10155969 -0.12750399 -0.03168356 -0.016067004 -0.0721202 -0.10126155 0.066233575
-0.03269034 0.03839871 0.15770306 0.15174784 0.07444259 0.10555415 0.020411078 0.10911685
0.040805127 0.1424187 0.10215931 -0.091355234 -0.076516025 -0.043157935 -0.10588053 0.04723016
-0.001132342 -0.12415191 -0.04494608 -0.04044619 -0.069492914 -0.11298266 0.05540008 -0.0043674293
-0.09787841 -0.02914169 0.10126449 0.06378426 0.12459603 0.08880255 0.05545703 -0.0748958
-0.014550439 -0.070894234

classifier_conv.weight f4 [32, 1, 35]
00000000: 2c48 2cbd 5566 44bd 347b 91bc e101 7dbd
00000010: e6df 983b 1cc4 edbd c206 15be 5d4b 86bd
00000020: 0e5f ccbc d4e3 01bd e815 f9bd 05e5 07bd
00000030: 4a43 a5bd bda2 96bd e4eb 05be 242d 09be
00000040: 4709 dfbd be0a 05be 0ede 0cbe 1766 c1bd
00000050: d876 cdbd ad6b e0bd 7354 24be 4afd 52be
00000060: 824c e3bd 2d21 10be 06ff e6bd 3e47 53be
00000070: 2813 0cbe 1aa2 70be 2311 533d 916b b3be
00000080: e1cf 9f3e 9c8b bcbb 8c69 813d 0c8b 283d
00000090: 07eb 363d 313b ee3c 6ae8 f53d 64da ab3d
000000a0: d12d d23c 250d a93d 3df8 923d 7a9f dd3c
000000b0: df36 0e3e 23be 223d 6d56 173e e166 a33d
000000c0: 70b9 2e3e d32a 2c3e b4fc f63d 71fe f03d
000000d0: ce10 253e a96c 473e 846d 4c3e d800 873d
000000e0: 0c1f 223e e6c3 4a3e f4b4 353e 97fb 563e
000000f0: 15bf 653e 3a24 593e b4aa 7a3e dd84 d83d
00000100: afe3 a83e 4141 31bd 1138 da3e 4d2c c7be
00000110: 2ba1 d73d 58cb dfbd 70f4 373a f5c9 123d
00000120: 1c2e a6bd eab0 99bd 8a6a cfbd 4b1d a5bd
00000130: d53c e3bd 0ed2 5bbc 7bd4 92bd 2ed9 a0bd
00000140: a73c 07be 5729 14be 3ff4 e0bd 4bce 84bd
00000150: 99b3 cbbd 2edf b1bd 163b f4bd 3bb2 44be
00000160: 499c 07be 546a 73bd e9c5 ddbd 80f1 18be
00000170: 7abd 29be 94c2 4bbe 09ac 29be ac3e ffbd
00000180: e0f4 0fbe 99b2 5fbe 0e46 86bd 49c4 8dbe
00000190: 1738 5b3d adf4 bdbe 6366 ac3e 0fc9 593c
000001a0: 9aca bd3d a64c 1cbd 899d e2bc 59fb 06bb
000001b0: 1d31 f7bd cf27 3b3c 7169 11be a66e 08be
000001c0: 46f0 08be 416c 18be 0f38 10be d8a2 c5bd
000001d0: 1543 47bd 75c9 09be 43bb 03be d2a1 edbd
000001e0: 4c4b 2bbe 6a52 dfbd 22e4 ddbd 9ca7 1cbe
000001f0: e89f 26be e1a4 3cbe 037c 39be 7352 10be
00000200: fd7c 1cbe be81 50be ba7c 8abe 8290 71be
00000210: 80b1 2cbe e78e e0bd 08d0 79be 3635 263b
00000220: 291f cebe 9781 b23e e7ac 80bd 0cb7 e53b
00000230: 52a5 f8bd efd2 81bc b425 12bd 9a24 34bd
00000240: 68d3 a1bd a5b1 99bd 7844 94bd 9f76 e5bd
00000250: 93e4 b3bd e1ae 70bd c1ab 06be 0a3a c2bd
00000260: e325 d2bd fa60 0dbe 083c 1cbe 2252 b0bd
00000270: 4196 20be 20da 50be b270 0dbe cd2b 11be
00000280: ad6c 30bd f9c0 1abe 6f37 84be cc76 11be
00000290: db1e 68be 1467 29be 8e78 1dbe f9a1 77be
000002a0: cba8 37be 7170 8abe 7d3b 813d c2da d5be
000002b0: 1fa3 b43e ad79 a3bd 8ca2 dcbc abe1 053e
000002c0: 97a9 4f3d 3b79 ad3d 8bf4 343d 55a0 833c
000002d0: 4805 013c d441 163e 37fd 9d3d 5da5 cb3d
000002e0: 416f d53d 5835 053e 37d0 063e ce30 ce3d
000002f0: 4211 233e a068 253e 6ec3 693d 50df e03d
00000300: a114 a53d 3c1e a63d b6e9 1e3e bb4a d53d
00000310: 385d 683e 85fd 693e 6890 dd3d fb60 1b3e
00000320: 1858 423e b15c 733e 9980 423e 0138 9e3d
00000330: ec34 7f3e 5001 64bd bafa 9c3e ddfb 8ebe
00000340: 65b1 543d df02 173d d222 c0bd 85a4 90bd
00000350: cffc 9dbd 0e4d 8fbd 8ada 38bd 617f 33bd
00000360: d2e5 07be f11b d1bd 7ef3 0abd 57cf 4bbd
00000370: bce1 44bd 5afb 07be 3ae7 f9bd 87a7 2ebd
00000380: a5c0 b6bd 7125 b6bc 2225 26be 80a6 81bd
00000390: 17a1 23be cf7a 00be eb5e 23be 1d41 3fbe
000003a0: 5114 efbd f1c6 eabd 32c5 cdbd 2544 31be
000003b0: 372d 1abe ffb0 9cbd 87bd b2bd 7bb4 90be
000003c0: 6794 5c3d 3e98 81be b469 ab3e 9b47 76bc
000003d0: ca9b e6b9 8a53 c9bd af8a bfbd 32a4 3dbc
000003e0: 0935 24be e76b cebc 244a b0bd 3304 0dbe
000003f0: 1d2a 0bbe e3f1 1dbd 41af c5bd e2f4 dbbd
-0.042061016 -0.047949154 -0.017758943 -0.06176937 0.0046653626 -0.116096705 -0.14553359 -0.06557343
-0.02494767 -0.031711414 -0.121623814 -0.033177394 -0.08069475 -0.073552586 -0.13078266 -0.13396126
-0.108904414 -0.12992379 -0.13756582 -0.094433 -0.10032433 -0.109580375 -0.1604784 -0.20604435
-0.11098577 -0.14075156 -0.112791106 -0.20632645 -0.13679183 -0.23499337 0.051530015 -0.35043004
0.31213287 -0.0057539474 0.063189596 0.04114823 0.044657733 0.029080959 0.1200722 0.08391264
0.025656613 0.0825446 0.07176254 0.027053583 0.13888119 0.03973211 0.14779063 0.07978607
0.17062926 0.16813211 0.12059918 0.11767281 0.16119692 0.19475044 0.19963652 0.06591958
0.15832156 0.19801292 0.1774481 0.20994411 0.22436173 0.21205226 0.2447918 0.10572217
0.3298621 -0.04327512 0.426209 -0.38900986 0.10528787 -0.109274566 0.000701732 0.035837132
-0.081142634 -0.07504447 -0.101277426 -0.08062228 -0.11095587 -0.01341678 -0.07169434 -0.07853924
-0.13206731 -0.14468895 -0.10984086 -0.0648466 -0.09946365 -0.08685146 -0.11925332 -0.19208615
-0.13243212 -0.059427574 -0.10828764 -0.14935875 -0.16576186 -0.19898444 -0.16569532 -0.124631256
-0.14058256 -0.21845473 -0.065563306 -0.27688816 0.05352029 -0.37100735 0.33671865 0.013292565
0.09267159 -0.038159035 -0.02766301 -0.0020596592 -0.120699145 0.011423065 -0.14200379 -0.13323459
-0.13372907 -0.14885046 -0.14083885 -0.096502006 -0.04864796 -0.13455756 -0.12864403 -0.116031304
-0.16727942 -0.10904391 -0.108345285 -0.15298313 -0.16271937 -0.18422271 -0.18113713 -0.14093952
-0.15282054 -0.20361993 -0.27048284 -0.23590282 -0.16864586 -0.109647565 -0.24395764 0.0025361306
-0.40258148 0.34864494 -0.062829785 0.0070103463 -0.12140907 -0.015847651 -0.035680488 -0.04398022
-0.07901651 -0.07504586 -0.07239622 -0.11204266 -0.087838314 -0.058760528 -0.13151456 -0.09483726
-0.102611326 -0.13806525 -0.15257275 -0.086094156 -0.15682317 -0.20395708 -0.13812521 -0.14176865
-0.04307239 -0.15112676 -0.25823542 -0.14205474 -0.2266802 -0.16543227 -0.15378019 -0.24182881
-0.17935483 -0.2703891 0.063101746 -0.4176846 0.35280702 -0.07982192 -0.026932977 0.13074367
0.050698843 0.084703885 0.044178527 0.016067663 0.007874794 0.14673549 0.077143125 0.0994365
0.104216106 0.1300863 0.13165365 0.100679025 0.15924552 0.16153193 0.057071142 0.109800935
0.08060575 0.081112355 0.15518841 0.10414644 0.2269181 0.22850616 0.10818559 0.15173714
0.18978918 0.23765828 0.18994369 0.07725526 0.24922532 -0.055665314 0.3066004 -0.2792653
0.05192699 0.036867972 -0.093816414 -0.070626296 -0.07714235 -0.06997119 -0.04513029 -0.04382265
-0.13271263 -0.102104075 -0.03392362 -0.04975828 -0.04806684 -0.13279477 -0.12202306 -0.042640235
-0.08923463 -0.02223465 -0.16225103 -0.063305855 -0.1597942 -0.12546848 -0.15954177 -0.18677182
-0.11673797 -0.11463726 -0.10047378 -0.17311151 -0.1505631 -0.07650947 -0.08727556 -0.28262696
0.053852465 -0.25311464 0.33479083 -0.0150317205 -0.0004398509 -0.09830387 -0.09352624 -0.011574792
-0.16035856 -0.025197936 -0.08607891 -0.13771133 -0.13590284 -0.03856076 -0.09652568 -0.10740067

classifier_conv.bias f4 [32]
00000000: 4cbe 7f3c 9d91 80bc e0a6 683c 60eb 873c
00000010: fec7 943c 241a 86bc 7e4d 813c 89f1 a53c
00000020: e07b 1b3c fe06 723c 0f5f ad3c 1a1c 9dbc
00000030: 66d3 80bc 4d6d adbc 4ef8 60bc 8143 a9bc
00000040: 8a36 7c3c 66eb 5b3c 7a60 703c dffb 533c
00000050: d88e 22bc 0a95 80bc 6be5 6abc 3526 97bc
00000060: 8fbe 8e3c e100 8e3c 5a65 5f3c 50ed 863c
00000070: d434 96bc 3eb3 733c b486 973c 3f29 86bc
0.015609335 -0.015694434 0.014199942 0.016591728 0.01816177 -0.016369887 0.015784021 0.020256775
0.009489983 0.014772175 0.021163492 -0.019178439 -0.015725803 -0.021170283 -0.013731075 -0.020662071
0.0153938625 0.013422823 0.014671439 0.012938469 -0.009921752 -0.015696067 -0.014336924 -0.018450836
0.01742485 0.017334403 0.013635004 0.016470581 -0.018335737 0.014874278 0.018496849 -0.01637709

fc.weight f4 [2, 32]
00000000: 675e bc3d a675 afbd cfbf bd3d 58d6 ad3d
00000010: f5a5 ba3d b3bb afbd 1746 b43d 4f4d ad3d
00000020: b0c9 ba3d f13e b03d 77cb b63d 2238 abbd
00000030: 13dc afbd 1afa b4bd f1d7 a7bd c4b5 babd
00000040: d9e8 c13d a02a ba3d 32d3 b03d fa17 bb3d
00000050: 6894 99bd e519 b8bd 63e3 aebd f43d b3bd
00000060: ef75 ad3d f73b bd3d 9b95 c73d 22d4 b43d
00000070: 3aa2 b6bd 7afd ac3d 59d1 b93d 8694 c1bd
00000080: c2fe c0bd f37d b53d 0f26 c5bd 0b73 b7bd
00000090: 6cf3 b7bd e326 ac3d 719b b7bd 17c3 acbd
000000a0: 6eb3 bfbd 1687 aebd dd37 b8bd f067 a83d
000000b0: 6100 b33d 388f ad3d f71c a53d 6f5e b53d
000000c0: dbeb c0bd 30c2 b5bd 6df1 b6bd f1cd b4bd
000000d0: 07fd a03d 8aeb b73d dabe b13d 25fd b63d
000000e0: ff3f afbd 93a8 b8bd eb68 c8bd 0d49 b2bd
000000f0: 18bc ac3d f454 aabd d288 bdbd 9c08 b93d
0.09197693 -0.085673615 0.092651 0.084881485 0.09113685 -0.08580723 0.08802431 0.08462011
0.091205 0.08605755 0.089255266 -0.08360316 -0.08586898 -0.088367656 -0.081954844 -0.091167
0.0946824 0.09090161 0.08634032 0.091354325 -0.07499009 -0.08989314 -0.08539464 -0.08752051
0.0846976 0.09239953 0.09745332 0.088295236 -0.08917661 0.08446784 0.09073133 -0.09452157
-0.09423591 0.088619135 -0.096264 -0.089574896 -0.08981976 0.084058546 -0.08965195 -0.08435648
-0.09360395 -0.08521859 -0.0899503 0.082229495 0.08740307 0.084745824 0.08062165 0.088559024
-0.09419986 -0.08874929 -0.08932767 -0.08828343 0.07860761 0.089804724 0.0867898 0.08935002
-0.08557128 -0.09016528 -0.097856365 -0.087053396 0.084343135 -0.08316985 -0.09254612 0.09034845

fc.bias f4 [2]
00000000: 8f9e ac3c 7d9e acbc
0.0210717 -0.021071667
