submit_entry/checkpoints/Combined_edgcn_12s_slice/V/1/best.pth (torch_old, 75847 bytes, 26 tensors)

conv_time.weight f4 [15, 1, 10]
00000000: 5614 243d d12f e6bd 90fb a5bc 3075 3abd
00000010: 60bd 4abd 1845 83bd 99df 49be 2462 2a3e
00000020: 8857 61ba aa9a 3a3e 679d 3c3e 4f16 063e
00000030: d9c9 ee3d 9af7 fa3d e1f3 37be 01ec f0bd
00000040: 6f8d 293e 3185 6ebd 986a 37be a3bf 2fbe
00000050: 2473 333e 866e b7bc 0d69 493d 29d8 fa3d
00000060: db4a 9dbd 55ce 46be 268b 1f3d 99d5 f8bd
00000070: 1767 2ebd 5449 cd3d aa61 9e3d e698 763d
00000080: bb51 e6bd a80d 9abd 37d1 e73d ebbc 2dbd
00000090: 5fd4 2f3d 3eda 37bc be1b d2bc 5d81 abbd
000000a0: bf63 113e 9fdd 8fbd e4e0 34bd 8e1f 80bd
000000b0: 31db f2bd 9921 2c3e d905 35be 49ce 0dbe
000000c0: 04a2 f43d a6f2 2b3e ec2b ad3d 11f2 3bbe
000000d0: ef55 83bd a271 1c3e 4361 093e 96b0 eabd
000000e0: 39ff e5bd 88e6 5d3e 41a6 bd3d 85ef 033e
000000f0: 4519 22be 9e30 543d dba2 3b3e d647 febd
00000100: c157 783d daa8 06be 2397 af3d 2ea6 d3bc
00000110: 7e3e 1abe c188 8ebc 6e0c 963d dccd c1bd
00000120: 6af8 1cbc 0bfc 113e 22d6 31bd afd5 25bc
00000130: b912 4cbe 6112 52be 6fc1 04be f25a 17be
00000140: ad24 b73c e627 04be e7d4 cebd 3df8 873c
00000150: c218 073e a0c9 af3d 237b 523e af9f d23d
00000160: b0f4 7e3d 85f4 bd3d e572 dd3d ca8c c1bd
00000170: a001 2d3e b118 a3bd 626b 2f3e e68e 65bc
00000180: efcd 0b3e 140b 19be 666c 1dbd b096 1cbe
00000190: 0f20 fa3d ce1f c43d c4a2 3f3e 29f0 ec3b
000001a0: 46d7 22be 49f1 053d 269e 843d cf92 31be
000001b0: 7287 8b3c 97d0 013c 798a 43be 09d9 083e
000001c0: 1e5d 36bc 5a2f b4bd b866 263d dff8 023e
000001d0: 1b26 803d f060 d0bd 2e95 dfbc 9e33 ce3b
000001e0: dfb5 173e 2371 e4bd 439b 163e fd40 12bd
000001f0: 7160 a13d ca05 39bd 27e5 19be be61 9dbd
00000200: 10d7 693d 6259 a73d 6890 68bd 312b 93ba
00000210: d0cc 9ebd 36a9 93bd 2a6e 143b 1ead 33bd
00000220: 1b4d fc3d d86b 4ebd 497d 303e 7d50 be3c
00000230: 922c 5dbe 41cf 5b3c eeae 63bd 7248 ef3d
00000240: 2d15 8dbd 66b1 20be d1d3 023e 4110 933c
00000250: 7400 a7bd 9c18 943d
0.040058456 -0.11239589 -0.020261556 -0.045521915 -0.04949701 -0.06409663 -0.19714202 0.16639
-0.0008596112 0.18223062 0.18419419 0.13094448 0.11659593 0.122542575 -0.17964126 -0.11763764
0.16557859 -0.05823249 -0.17911756 -0.17162947 0.17524391 -0.022391569 0.04917245 0.122482605
-0.07680293 -0.19414647 0.03895106 -0.121501155 -0.042578783 0.10023752 0.07733472 0.06020441
-0.112460576 -0.07522136 0.113192014 -0.042416494 0.042927142 -0.011221467 -0.025647994 -0.083742835
0.14198206 -0.07024693 -0.044159785 -0.062560186 -0.11858214 0.16809691 -0.17678012 -0.13848223
0.119449645 0.16791782 0.08455643 -0.1835406 -0.06412875 0.15277722 0.13416009 -0.11459462
-0.112303205 0.21669972 0.09260226 0.12884338 -0.15829952 0.051804177 0.18323843 -0.12416045
0.060630564 -0.1315035 0.08573749 -0.025836077 -0.15062901 -0.017399194 0.073265895 -0.09463093
-0.009580711 0.14256303 -0.043417104 -0.010121747 -0.19929017 -0.20514823 -0.12964414 -0.14780787
0.022356356 -0.12905845 -0.10099202 0.016597861 0.13193038 0.08583379 0.20554785 0.102843635
0.06224507 0.09275154 0.1081293 -0.094506815 0.16895151 -0.07963694 0.17130807 -0.01401112
0.13652776 -0.14945632 -0.038433455 -0.15291858 0.12213146 0.09576379 0.18714434 0.0072307778
-0.15902433 0.03270081 0.06475477 -0.1734116 0.017032359 0.007923267 -0.19095792 0.13364042
-0.011130599 -0.08798094 0.040625304 0.1279025 0.06257268 -0.10174739 -0.027292814 0.0062927743
0.14815472 -0.111543916 0.14707665 -0.03570651 0.07879723 -0.045171537 -0.15028821 -0.076846585
0.057089865 0.08171345 -0.05677834 -0.0011228082 -0.07753909 -0.07210009 0.002264867 -0.04386627
0.12319394 -0.050395817 0.17235292 0.02323174 -0.21599033 0.013416112 -0.055586748 0.1168374
-0.068888046 -0.15692672 0.12776114 0.017952086 -0.08154383 0.07231256

conv_time.bias f4 [15]
00000000: f390 853b 3ecc 003c 40f6 bfbc f93a 533c
00000010: a631 e33b 3fec 5eba 44a0 4f3c 1cb0 143c
00000020: 7e93 1abc 3239 583b 2b00 86bb f5a4 e03c
00000030: 62d4 dcbc d86b 6c3b 1850 e2bc
0.004076117 0.007861195 -0.02343285 0.012892478 0.006933409 -0.00085038313 0.012672488 0.009075191
-0.009434579 0.0032993075 -0.0040893755 0.027422408 -0.02695674 0.0036075022 -0.027626082

bnorm.weight f4 [15]
00000000: 9538 7e3f 8270 863f b0dc 803f 97fb 773f
00000010: f768 823f 1d78 7c3f c97b 773f 8c86 7e3f
00000020: 944e 7c3f ad0e 823f 889c 7c3f cfa4 713f
00000030: 53d1 743f d88b 8e3f fd08 7b3f
0.9930509 1.0503085 1.0067348 0.9686827 1.0188283 0.9862078 0.96673256 0.9942405
0.985574 1.0160729 0.9867635 0.943921 0.95631903 1.1136427 0.9806059

bnorm.bias f4 [15]
00000000: aacc 86b9 e00b b6bb 2986 1d3d 820a d1bb
00000010: c868 dd3c 0633 013d 8cbd 7abd e906 523c
00000020: 1c7f 163a 46c6 043d 2fde f43c 05a2 ae3d
00000030: 9089 4dbd 1a7e 763d b2b1 593c
-0.00025710958 -0.005555615 0.038458023 -0.0063794265 0.027027503 0.0315428 -0.061215922 0.01281903
0.00057409867 0.03241565 0.029891102 0.085269965 -0.050180018 0.060178854 0.013286995

bnorm.running_mean f4 [15]
00000000: 2538 bcbc b92e 303c 2249 84bc d8af 58bb
00000010: 1cab e23a 9c9a b73d 1628 44bd 83db 23be
00000020: 088b fd3d f8c4 9a3c 08f0 4f3d a3d0 753c
00000030: 153a d4ba e35f 1d3c 4b74 b8bd
-0.02297599 0.010753327 -0.016148154 -0.0033063795 0.0017293426 0.08965036 -0.04788979 -0.16001706
0.12380034 0.01889275 0.05076602 0.015003356 -0.0016191626 0.009605381 -0.09006556

bnorm.running_var f4 [15]
00000000: ed43 903c b668 e83c a6d2 d53b dd79 993b
00000010: 68ed 9e3b 01e6 e03d 20d1 413d b232 c33e
00000020: 5a0d 793e 5ac7 3e3c 716d 393d 733b 443b
00000030: eeb9 253c 9b47 d63b 6eea 573d
0.017610515 0.028370243 0.0065253554 0.0046837167 0.0048500784 0.1098137 0.047318578 0.38124615
0.243215 0.011644209 0.045270387 0.002994266 0.01011513 0.0065392978 0.052713804

block2.conv_2.weight f4 [15, 15, 10]
00000000: 302f eebd 1306 adba 5d1a 70bd 2321 703d
00000010: 7cea bc3d 824a aebd 116f 99bc e522 b2bd
00000020: a800 01be 6dfb ce3d 368a 903d 03c9 c1bc
00000030: 23aa a2bd 7b4a c63d 4f73 24bd 3fce 393d
00000040: 04df 3dbe ad3e c1bc 5068 013e caf2 a1bd
00000050: ca79 bb3d 59ec c9bc 537b 833c 9d51 e8bd
00000060: 0fea 9dbd 9060 30be 2dd1 30be 91e7 a53d
00000070: c775 2dbd 5039 823d 9de5 d6bd 1ef3 cd3d
00000080: a15f c63d bb9d cfbd ebb1 a6bd 2be5 7fbd
00000090: 3d57 26be 6d0a 743c 896f b03d a652 2d3d
000000a0: 1347 283d 897a 39bd 6c47 33bd 8c31 5fbb
000000b0: b647 293d a495 713c f546 213e 9dd5 073d
000000c0: ddda 1bbe 378d babd c782 debd 6e39 c63d
000000d0: fe1a 4f3d 9b44 a0bd b41a 9cbd 39e8 be3d
000000e0: 66f6 d23c f2ed d2bd 77db 343b 2ff8 a5bd
000000f0: 9711 64bb 3e8a 7ebd df52 e3bd 69a5 5dbd
00000100: a957 cbbc 1941 de3c ac1a 36bb 4f76 113d
00000110: 1e66 9c3c f22e f83b 81b8 933d 095e 6cbd
00000120: a6c3 063e 83f3 c13a 888d e13c 609c 823c
00000130: f199 d3bb 7d52 74bd 9aee 69bd 3149 e8bd
00000140: 8eb4 09bc 4672 90bd 79e0 0bbe 31a6 15be
00000150: c31c babd 940c 0aba c33b 083e 6b31 00bd
00000160: 5037 0d3e 8a00 efbc 45c0 e83d 196e 7c3d
00000170: cfaa d2bd cb52 d4bc 4159 1abe fb4a 1dbe
00000180: 24cb 8d3d 0522 913c 8802 913d 3cb4 9ebd
00000190: 149f 71bd e4b1 c73b a387 0cbe 3519 8dbc
000001a0: a215 753d a5cc fb3c b25c 823d e6dc dbbd
000001b0: 5307 d13d 5dce a53c 2568 283d 8ab1 05be
000001c0: 90bb de3c 6141 e13c 10f2 e1bc 6c7d fd3d
000001d0: 2ee9 d13d 35f0 0e3c 7531 263e 6e27 76bd
000001e0: a944 29bd 80e9 e53c e61b 5a3d 5a83 65bc
000001f0: 3d0d 073e 396b 8a3d 8c9a 51bc 052b 653b
00000200: d6d9 e93d 10e2 8dbd 96a4 7f3d 676b 513d
00000210: dce6 24be d3d9 05be 5a82 8abc 8601 103e
00000220: e108 35bd 8767 11be 8e17 af3d ff8e 22be
00000230: 3ca8 1dbd b84d ae3b 8418 a8bd a742 d33d
00000240: 1f3c cf3d 816d bd3c b028 7f3d c75e 85bc
00000250: afee e9bb 9982 603d bf9f 09bd 009a ddbd
00000260: 5dce 883d 4a6c 5a3c 4eb3 e1bd 6dce 3dbd
00000270: 4a37 aa3d adf6 abbd bdd5 e6bd 313d 423d
00000280: 2191 983d 4de2 573d 3767 c8bd ba63 a53d
00000290: d9cb c3bd 1c74 cbbd ac53 38be 7920 11be
000002a0: 550e 1cbe c839 093e 5aa9 2a3e 5b47 ddbd
000002b0: 6a43 2a3c cd1e efbd 3457 53bb 1257 a0bc
000002c0: 1b5a 12be 6b7d dd3c afbb a0bd c503 a8bd
000002d0: 0575 863d bf12 903d 5dd6 593d e50a 99bd
000002e0: 1fbc 133e 26f4 aebd 56be b0bd 3cf4 c83c
000002f0: 3118 6bbd 2953 783d 4d38 87bc d41b 62bc
00000300: 4b13 6cbd 46d5 d83d 9d9c 02be c518 00be
00000310: d17c 14bd 6498 f43d cf22 85bd bada 76bc
00000320: 7d6d 853d 279d 433d 815b c3bd c722 0a3e
00000330: c8e8 b5bd 2563 d33d 6088 fa3c 5ce5 db3c
00000340: 64c3 c43d c964 203a b0ad 23bd d199 b83d
00000350: cae2 98bd af03 f9bd ff0d cd3d cb55 e7bd
00000360: dfa8 843d aaab 1c3e 72d8 203c 9880 58bc
00000370: 4d06 043e 9419 1f3c 9d4f e63d c2fc 0d3e
00000380: 0dc7 2d3d 6f60 b2bd c463 9a3d a129 223e
00000390: f822 b4bd ba98 2dbd c865 723c d90a de3d
000003a0: 2770 95bd 33ab b33d b81c ab3d 2e45 24be
000003b0: 8f0d b8bd daa1 fa3d 9ce3 20bd ac5c f73a
000003c0: 507a b43d 01ce c33d cc8c e83d 9d1b bebd
000003d0: 67ec 153b 4ddb 00be 6285 e13c 9b59 8abc
000003e0: 944e 5fbd 9e93 89bd 8785 003d 89bc abbd
000003f0: f997 eabd d5ab 41bc 14cf 553d 4f2e f2bd
-0.11630094 -0.0013200663 -0.058618892 0.05862535 0.09224412 -0.08510305 -0.018729718 -0.08698062
-0.12597907 0.101065494 0.07057612 -0.02365542 -0.07942607 0.09682175 -0.04014903 0.045362707
-0.18542105 -0.023589456 0.12637448 -0.079076365 0.09154089 -0.024648832 0.016050017 -0.113436915
-0.07710659 -0.17224336 -0.17267294 0.081008084 -0.04234865 0.06358588 -0.10493014 0.100561365
0.096862085 -0.101375066 -0.08139404 -0.06247441 -0.16244216 0.014895064 0.08615024 0.042315148
0.041083407 -0.045282874 -0.043769285 -0.0034056632 0.041328155 0.01474515 0.15749724 0.033162702
-0.15220208 -0.09108966 -0.108647875 0.096789226 0.05056285 -0.078255855 -0.07622281 0.09321637
0.025752258 -0.10299291 0.0027596632 -0.08103978 -0.0034800523 -0.062143557 -0.11099791 -0.054112826
-0.024822073 0.02713065 -0.0027786894 0.03551322 0.019091662 0.0075739557 0.07212926 -0.057706866
0.13160571 0.0014797304 0.027533308 0.015943706 -0.00645756 -0.05964898 -0.057112314 -0.11342085
-0.008404864 -0.07053046 -0.13659848 -0.14614178 -0.09087517 -0.00052661565 0.13304047 -0.03129713
0.13790631 -0.029175062 0.113647975 0.061628435 -0.102864854 -0.025918385 -0.1507311 -0.15360634
0.069235116 0.017716417 0.07080561 -0.07749221 -0.0589896 0.0060942043 -0.13723616 -0.017223934
0.059835084 0.03073723 0.063653365 -0.107354924 0.10206475 0.020240003 0.041114945 -0.13056007
0.027189046 0.027496995 -0.027581245 0.12377438 0.102495536 0.008724262 0.16229804 -0.060096197
-0.041325245 0.028065443 0.053249262 -0.014008367 0.13188644 0.06758732 -0.0127931945 0.0034968269
0.11418502 -0.069278836 0.06241282 0.051127817 -0.16103691 -0.13071375 -0.01690786 0.14063081
-0.04419792 -0.14199649 0.085494146 -0.15874861 -0.03849052 0.0053193234 -0.08207801 0.10315447
0.10118889 0.023123505 0.062294662 -0.016280545 -0.007139049 0.054812048 -0.03359961 -0.10820389
0.06679986 0.013331482 -0.11020528 -0.04633944 0.08311327 -0.08396659 -0.11271236 0.047421638
0.07449556 0.05270605 -0.09785312 0.08075662 -0.09560365 -0.099342555 -0.18000668 -0.14172544
-0.15239842 0.13400948 0.16666165 -0.108046256 0.010392049 -0.11675797 -0.0032248022 -0.019572768
-0.14292185 0.027037343 -0.07848298 -0.08203844 0.065652885 0.070348255 0.05318295 -0.07472781
0.14427231 -0.08542661 -0.08630054 0.024530523 -0.057396118 0.060626183 -0.016506338 -0.01380058
-0.057635587 0.10587554 -0.12755056 -0.12509449 -0.036251847 0.11943129 -0.0650078 -0.015066797
0.06515024 0.047757294 -0.09538937 0.13489829 -0.0888229 0.10321645 0.030582607 0.026842766
0.0960758 0.0006118534 -0.039960563 0.09013713 -0.074651316 -0.12158906 0.10012435 -0.112956606
0.06477522 0.1529986 0.00981723 -0.013214253 0.12893029 0.009710688 0.11245654 0.1386595
0.042426158 -0.087097995 0.0753856 0.15836193 -0.08795732 -0.04238198 0.014794774 0.10841913
-0.07296782 0.08772888 0.08355087 -0.16042015 -0.08986961 0.12237902 -0.039279565 0.0018872223
0.08812392 0.095607765 0.1135498 -0.092826106 0.0022876502 -0.12583657 0.027529422 -0.01688843
-0.054518297 -0.06717609 0.03137734 -0.083855696 -0.11454768 -0.011820753 0.05219944 -0.11825239

block2.bnorm_2.weight f4 [15]
00000000: 5c0d 823f d89e 853f 4097 873f d5fa 793f
00000010: b027 7c3f 0a99 7f3f 926f 7c3f 86f8 853f
00000020: ee21 6c3f 77fc 803f e381 803f 90ea 8a3f
00000030: 1dc6 813f 6497 773f 7583 8a3f
1.0160327 1.04391 1.0593033 0.97648364 0.9849806 0.99842894 0.9860774 1.0466468
0.9223927 1.0077046 1.0039638 1.0852833 1.0138584 0.9671538 1.0821368

block2.bnorm_2.bias f4 [15]
00000000: e625 6f3c 2363 ce3c 79e6 adbc 19ad 96bc
00000010: ef2d 84bc 1661 d1bc 57d7 b8bc be18 d4bc
00000020: 5a09 7cbd 0a98 51bb f2d1 2abd 473c 523d
00000030: 8f2a 3a3d 325b 52bd 82bb ff3c
0.014596438 0.025193756 -0.021228062 -0.018393086 -0.016135184 -0.02555899 -0.02256362 -0.025890704
-0.061532356 -0.0031981491 -0.041704126 0.051327016 0.045450743 -0.051356502 0.03121734

block2.bnorm_2.running_mean f4 [15]
00000000: 94c3 bebe 878f d4bd 9ecb 48bf 4fb3 fd3c
00000010: ad72 0a3d c6ff b0be 8229 f8be 2a8f 20bf
00000020: d4cf f13e e9ad 503d 2d45 293e b4fd 8fbe
00000030: 37a8 adbe 1a58 c93d 1c10 b4be
-0.3725859 -0.10378938 -0.78435695 0.03096929 0.03380077 -0.3457014 -0.48469168 -0.6271845
0.47228873 0.050947104 0.16530295 -0.28123248 -0.339174 0.09831257 -0.3516854

block2.bnorm_2.running_var f4 [15]
00000000: fb88 783f 1dab fc3e 2f39 ab3f 05c7 ad3f
00000010: 34af 4b3f 13e4 6a3f 0f54 923f 94fa ab3f
00000020: caaf 8f3f 87f0 c93e 8000 8d3f c541 023f
00000030: dd21 173f 49f8 263f 9cb6 213f
0.97084016 0.493493 1.3376826 1.3576361 0.79564214 0.91754264 1.1431903 1.3435845
1.1225522 0.3944132 1.1015778 0.50881606 0.59036046 0.65222603 0.63169265

block3.conv_3.weight f4 [30, 15, 10]
00000000: d2b5 b03c 4d4c 913c a35a 6dbd ba2b f93b
00000010: 4579 c2bd 9c24 35bd 6247 363d 69fd eebd
00000020: b5bc 293d 2614 cdbc da75 663d a779 0fbd
00000030: 431c 3bbd 51ee db3c 3bd6 17bd 328d 9d3d
00000040: 0186 4fbb de3d d5bd 3b5e 1b3d 26b5 a0b9
00000050: c934 133e 1d53 2a3d fde4 cc3d 267f 09bc
00000060: 17cb f43d e080 bf3d 8d61 fa3c d6fb b2bd
00000070: a0b4 afbd 470c 88bd 9859 80bb ea98 8bbd
00000080: 200a 05be 8078 573b 7e48 96bb da8e dcbd
00000090: ef17 4e3d 634f 9e3d ee03 9d3d a179 2f3d
000000a0: 6c8a c8bd 2037 70bd e54d ccbd bb96 c0bd
000000b0: 9479 5ebd 8708 4f3d eab1 7c3d 065d 873d
000000c0: 3854 c13d 12d2 473d 94e1 aabd f9fb 7a3d
000000d0: 38ae 5bbd 35b1 3e3d 4189 903c c5e4 123d
000000e0: c895 0c3c bac1 99bd 8976 1d3d 61aa b7bd
000000f0: 082f 99bd f97a a23d ee04 1f3d 4bd5 433c
00000100: f6ea 20bd 7d24 f83d 9f41 cd3d 51b7 2cbc
00000110: b71a a3bd 5622 e7bd 8087 963d d2e3 1ebb
00000120: d34d c3bd 8473 1cbd 3413 863d 36b6 103e
00000130: 47e0 d03d b56a 193c 149d 1abd a5b0 90bd
00000140: 5322 733d defd 073c 2fb1 4a3d fef1 d4bd
00000150: 3c60 883d 554d 063d ab61 ea3c 591e 00bd
00000160: 78f2 b03d be86 863d d2ae 17be cb5f a7bd
00000170: cf42 99bd 0367 9d3d e61a 54bd a569 d73c
00000180: 2549 cebd bfbe 98bd 31cc a9bd dbb7 073d
00000190: ba1f 02be e215 97bd 77a4 6e3c 0067 d33c
000001a0: 36ee 87bd 0f7f 22bd efb2 e23b 2d53 fbbd
000001b0: fef7 0e3d b7a4 96bd 018f d2bd d9f0 1d39
000001c0: ecfc a03d 02dd 843d 79c9 5b3c 58f8 c1bc
000001d0: 6361 09bd a891 e6bc 3a35 6bbc 1001 b53c
000001e0: cfa6 03be 570d e03d 3e9e 9b3d 24f8 943d
000001f0: ca35 d8bd 6825 05be f012 19bd e4a5 64bd
00000200: 7343 99bd 0e6e fc3d 9830 f23c 5dca b43d
00000210: 4d69 7dbd c134 aa3d 7574 b93d 6b1a 903d
00000220: e261 6cbc 9975 a5bc 56e5 483c ab0a c83d
00000230: ca57 8f3c 5a2f c03d a9c1 c4bc 10ed 96bd
00000240: 7992 063d f664 87bd 53ca 86bd bbc4 e03d
00000250: f1b2 52bd c368 acbc 5a91 e93c 81d0 09bd
00000260: 79a3 48bd ce18 863c 70f2 2ebd 4bb3 8d3c
00000270: dc52 d83c 5639 bdbd 2ef0 0ebe 9206 92bd
00000280: 6f34 003e 229d 243b 897d 40bd 3223 e0bd
00000290: b662 9dbd 62b8 b7bb b88b 993d 40c1 6ebd
000002a0: 35d2 9bbd d82c 0b3d ae0f 4abc a56e 613d
000002b0: 9e7c 7bbd a772 c93d 64c1 d13d dac7 aabc
000002c0: a138 bdbc fff2 b13c 53ac d9bd 2e95 463c
000002d0: b82a afbd af0c be3d a742 babd 334a 7b3d
000002e0: 21d0 683d 317b 553d 8599 c2bd e7df 00bd
000002f0: 5630 9bbd 3371 62bd 8f46 f4bd 28c8 acba
00000300: 443b fb3c 027d be3d 791e 373d ecca 52bd
00000310: 06fb cabd 7dc3 9a3d c884 b5bd 76f7 dd3c
00000320: 1971 653d d5dc 80bc f949 963c 3660 2d3a
00000330: 829c febd b1be 933d 2851 98bd c971 7c3d
00000340: bde3 dcbd 149a 103d 37b5 5ebb 02b1 553d
00000350: 4d7d 0e3e 9777 0dbd 4bba fa3c 1a14 ac3c
00000360: bfaf afbd b457 76bd c92a 22be 76a0 753d
00000370: d16f e9bd a23b 4f3c ce6a 333c f2f5 f33d
00000380: e67c 24bd 0b6b 1abd 1dd2 ca3d 3eb7 a7bd
00000390: afda 193d 560e 24bb 9285 81bd e09b ee3d
000003a0: 8083 743d d066 a6bd 694b b03d 5b2c 8dbc
000003b0: 07e1 ac3d 2009 af3d 073f c1bd cf29 cf3d
000003c0: 1dfd a23d 8c6e 6a3d 8f0d 8d3d 20e5 083d
000003d0: f367 d2bd 5251 57bd 9606 9b3d c72b ebbb
000003e0: c3a5 0cbe 99f0 1ebe f5fa 07be 9a17 b7bd
000003f0: cf16 7c3c e7d7 7f3b d941 d1bd 16cc 8abd
0.021571074 0.017736578 -0.057947766 0.0076040896 -0.094957866 -0.044224367 0.04450167 -0.11669428
0.04143973 -0.025034022 0.056264736 -0.035028126 -0.04568125 0.026847037 -0.03706954 0.076929465
-0.0031665566 -0.10412191 0.037931662 -0.00030652544 0.14375605 0.04158317 0.100046135 -0.008392131
0.11952799 0.09350753 0.030564094 -0.0873944 -0.08579373 -0.06642967 -0.0039169304 -0.068162754
-0.12992144 0.003287822 -0.0045862785 -0.10769434 0.050315794 0.077299856 0.07666765 0.042840604
-0.09792027 -0.05864632 -0.09975795 -0.094037496 -0.054315165 0.05054524 0.06169311 0.0660954
0.094398916 0.048784323 -0.08343807 0.061275456 -0.053632945 0.046555717 0.017643573 0.035862703
0.0085806325 -0.075076535 0.038443122 -0.08968044 -0.074796736 0.079336114 0.03882306 0.0119527085
-0.039286576 0.121163346 0.10022282 -0.010541753 -0.0796408 -0.11285846 0.07350063 -0.0024244678
-0.09536328 -0.0381961 0.065466315 0.14132008 0.101990275 0.00936382 -0.037747458 -0.07064942
0.059358906 0.008300273 0.04948538 -0.10397719 0.0665898 0.032788593 0.028611025 -0.03127894
0.08639997 0.06568669 -0.14812782 -0.08172568 -0.07483446 0.076856636 -0.051783465 0.026295492
-0.10072545 -0.07458257 -0.082908995 0.033134323 -0.12707415 -0.07377221 0.014565579 0.02580595
-0.06637232 -0.039671954 0.006918303 -0.12271724 0.034904473 -0.073556356 -0.10281182 0.0001506241
0.07860741 0.064874664 0.013414734 -0.02367799 -0.03354014 -0.028145626 -0.014355952 0.022095233
-0.12856601 0.109400444 0.07598542 0.072738916 -0.105571344 -0.1300255 -0.037371576 -0.055822268
-0.07483568 0.12325679 0.029564187 0.0882766 -0.061868 0.08310843 0.090554155 0.07036289
-0.014427634 -0.020197676 0.012261709 0.0976766 0.017497916 0.093840316 -0.024018126 -0.07369435
0.03285453 -0.06611054 -0.06581559 0.10975023 -0.051440183 -0.021046048 0.028511692 -0.03364611
-0.048984025 0.01636925 -0.042711675 0.017297408 0.026406698 -0.092394516 -0.13958809 -0.071301594
0.12520002 0.0025118073 -0.04699472 -0.10944213 -0.07684843 -0.005606697 0.07497352 -0.058289766
-0.07608453 0.033978313 -0.01233284 0.05503716 -0.06139814 0.09836321 0.102419645 -0.02084725
-0.023098292 0.021722315 -0.10628571 0.012120528 -0.0855307 0.09279763 -0.09094744 0.06135006
0.056839112 0.052119438 -0.09501938 -0.03146353 -0.07577579 -0.055283736 -0.119275205 -0.001318221
0.030667908 0.09301187 0.044706795 -0.051463053 -0.0991116 0.07556818 -0.08863217 0.027095538
0.05601606 -0.0157303 0.01834582 0.0006613763 -0.12432195 0.07214106 -0.07437354 0.06163195
-0.10785625 0.03530319 -0.0033982524 0.05217076 0.13914986 -0.034537878 0.03060641 0.021005679
-0.08578443 -0.060142234 -0.15836634 0.05996748 -0.113982804 0.012648495 0.010950757 0.11912145
-0.040158175 -0.03769974 0.09903357 -0.081892475 0.03756207 -0.002503296 -0.06324305 0.116508245
0.05969572 -0.08125079 0.08608133 -0.017233064 0.08441358 0.08546662 -0.0943585 0.10115396
0.07958434 0.057234332 0.06887352 0.033421636 -0.10273733 -0.052567787 0.075696155 -0.0071768495
-0.13735108 -0.15521468 -0.13279326 -0.089400485 0.015386297 0.00390386 -0.102176376 -0.067772076

block3.bnorm_3.weight f4 [30]
00000000: bd61 943f 4486 8b3f 06e2 853f 717f 8e3f
00000010: 8794 823f a463 843f b324 753f 2e29 763f
00000020: ed8a 883f 9545 843f 30ee 7a3f 3dd3 703f
00000030: 206b 823f 4294 843f db49 863f acdf 803f
00000040: da19 843f 8674 853f bc4b 803f 467b 833f
00000050: de3a 843f cb8d 833f 74a1 6c3f d363 843f
00000060: b7ad 723f 8810 8d3f 8024 783f 6b07 743f
00000070: 7c44 853f b1d2 833f
1.1592327 1.090035 1.0459602 1.1132642 1.0201577 1.0342908 0.95759124 0.96156585
1.0667397 1.0333735 0.98019695 0.94072324 1.0188942 1.0357745 1.0491289 1.0068259
1.0320389 1.0426185 1.0023112 1.0271995 1.0330465 1.0277647 0.9243386 1.0342964
0.9479632 1.102067 0.96930695 0.9532382 1.0411525 1.0298673

block3.bnorm_3.bias f4 [30]
00000000: e9b2 29bd 30f8 7cbd 3f13 10bd eba7 9ebd
00000010: a2f2 69bc ed6f 7a3b 1f86 cebd 9bf1 5abd
00000020: 4e5e ab3d dbf7 c1bd a316 4cbd d455 29bd
00000030: 9d3c 02bd 5272 a8bd 10cb 43bd 13ff 4abd
00000040: c98d e3bc feb1 28bd 38c4 5cbd 5974 95ba
00000050: 2306 893c 060f 58bc 5e89 1ebd 5459 79bd
00000060: 9e05 24bc 00dc 903d a61f 95bd 520b 91bc
00000070: f37c 24bd ff83 45bc
-0.041430388 -0.061760128 -0.035174605 -0.077468716 -0.01427904 0.0038213686 -0.10084175 -0.05345307
0.083675966 -0.09471103 -0.049826276 -0.041341618 -0.031796087 -0.0822493 -0.047801077 -0.049559664
-0.02777757 -0.04118537 -0.053898066 -0.0011402472 0.016726559 -0.013187176 -0.038705222 -0.060876206
-0.010011105 0.07073212 -0.07281427 -0.017705593 -0.040158223 -0.012055396

block3.bnorm_3.running_mean f4 [30]
00000000: 3bc1 61be 0578 c3be 471c 99be a18e 2cbe
00000010: 6dba 44bd 253c 88be 78f3 b8be a862 95be
00000020: 6771 d2be 803e 3cbf 075e 53be ba8a 1abe
00000030: 052c 8cbe b553 dabe 3249 26bf 0612 f6be
00000040: f5d0 ccbe 82f9 0dbf 8261 a3be 96d5 dbbe
00000050: b10a cdbe 3cf7 c6be 15c4 a8bd 84ca 23bf
00000060: 6d7c 203f d090 debe cf28 c4be 66bd 723e
00000070: b3d2 76be 9600 55bd
-0.22046368 -0.38177505 -0.29904386 -0.16851284 -0.048029352 -0.26608387 -0.36123252 -0.2917683
-0.41102144 -0.7353287 -0.20641337 -0.15091982 -0.27377334 -0.42641988 -0.6495544 -0.48060626
-0.40003172 -0.55458844 -0.3191033 -0.4293639 -0.4004722 -0.388605 -0.08240525 -0.6398089
0.6268986 -0.43469858 -0.38312384 0.23705062 -0.24103813 -0.052002512

block3.bnorm_3.running_var f4 [30]
00000000: 8bf3 bc3e ffc8 5e3e 292f dd3e ad9a 6f3e
00000010: 19fa 8b3e 5936 a13e ad7d d43e 0807 e13e
00000020: 4aca a63e 874f ce3e 600f e13e 4a63 e23e
00000030: b5d6 a33e c939 1a3f c62c 183f 27ff 3f3f
00000040: b16f c03e 95b6 b53e 519e a93e be6a 963e
00000050: 0a33 803e b3ab d93e 7fe3 d23e 869a 0d3f
00000060: 2593 583f 0ed2 023f acd0 e73e edd3 043f
00000070: 9f4c 593e 8d3b 993e
0.3690456 0.21756361 0.43200043 0.23398848 0.27339247 0.31486776 0.41502133 0.43950677
0.3257621 0.4029505 0.43957043 0.44216377 0.31999746 0.60244423 0.5944332 0.74998707
0.37585214 0.35490862 0.33128598 0.29378313 0.2503894 0.4251381 0.4118919 0.5531391
0.84599525 0.5110177 0.45276392 0.51885873 0.21220635 0.29928246

block4.conv_4.weight f4 [30, 30, 10]
00000000: 3f10 e83c 3d00 27bd bbb9 d5bc c261 1cbc
00000010: 7dd2 e13d b4ec 483c 7645 da3d 5aa5 953d
00000020: 84ed e03d 957f 59bd 00bc 08bd 83c1 39bd
00000030: ee59 8b3d 695b e6bc dcfd a93d 3414 37bd
00000040: 8ae1 4a3c 16e9 5dbd bdc2 28bd 0f2a 3abd
00000050: 652d e03d f05d c33c 3b70 8cbd 7b63 9cbd
00000060: 4663 82bc 4050 88bd eb7e 07be 7705 a9bd
00000070: cc70 963c 55ab 0a3d d304 1ebd e6ec 45bc
00000080: ead0 31bd 78b7 f13d f4aa 6cbc 4d23 b2bd
00000090: 2abd aa3d 57c5 9ebc 2837 dbba e98d 203d
000000a0: 1d29 36bd ab80 803d e7da 99bd 4db1 d13c
000000b0: dee9 3a3c 7ea4 2c3d 9464 023d a513 28bc
000000c0: 8b31 7fbd b19c 92bd bdfb 3cbc 3fff 513d
000000d0: c83a 083d ec75 c23c 4e89 b4bd 0aa2 42bd
000000e0: 8297 c9bc 53d5 c53b 221a bc3d 0902 6b3d
000000f0: b7b9 f43c 31d8 20bc db7b b13d b7b8 063d
00000100: bd88 80bd 7625 853d 41dd 10bd f227 4c3c
00000110: eb3f afbc 347a ebbc ed79 4b39 a808 473d
00000120: c400 53bd d2e2 e3bb f8e5 e13c 899b 833d
00000130: b2db 37bd 7eb0 82bc 01e9 edba c308 d2bc
00000140: 33dc debc 1c94 c1bd 51d0 b23d 0a9c a2bc
00000150: 9bef a7bd af0b 213d e15c cb3c 27c2 d03c
00000160: 1338 79bc 2aa3 033e 6496 433c db1e f03d
00000170: 3379 973d b5a2 c9bd c406 113d 47dd 86bd
00000180: ef03 c0bb 85b0 4ebd 7e8a c6bd f9da a33d
00000190: 344a e2bc 3161 9bbd a7c3 3c3b 0cc0 c9bd
000001a0: cdf9 87bd d794 843c 6d17 0e3d 2250 1c3d
000001b0: 6e76 8dbd f29b 2ebc c454 b73b a145 9dbd
000001c0: 4d83 6fbd fe1b 33bd 048a 493d 5c25 c8bc
000001d0: a2ba 053d 2ac1 b73d 3d24 55bd ae1c 693d
000001e0: d41f 093d 21af 35bd 2901 03bd 154e bebd
000001f0: 6379 4f3d 02d9 113d dba5 233d 21c5 d3bd
00000200: 4c7e 7ebc 2b65 f93c ded3 6abd ab0d b5bd
00000210: 08f1 f8bd 15c8 b2bd 493e 8abd 20f9 993c
00000220: ba56 ba3c 9463 acbd b1c8 a13a 3406 8f3c
00000230: 98f5 63bd 14ab 7fbd a39c 44bd 743c 46bd
00000240: 5a4a 6ebd c09e f03d 6838 cfbc 14d6 483d
00000250: 160a 6c3d 73f3 bdbc dd18 e73d 1001 c33c
00000260: 88e1 be3d 034b e33c 2368 a23d ed38 6bbc
00000270: 77ac 5abc d619 0abe 176d 01bc 18c2 9cbd
00000280: 3dc7 2ebc ce3c 32bc c74c de3d c043 52bd
00000290: fa37 b2bd 9f73 f13c 2d84 ec3c e9d2 8f3d
000002a0: 1670 7d3b d2ec a5bc 1fea e1bd 2242 d4bd
000002b0: c477 4cbd 3a37 dfbc d2b9 4a3d bbea b13d
000002c0: b8c7 863d ee5c cfbd 33d5 813d 92be a43b
000002d0: 8261 d63d c5d8 0bbd 0f94 0fbd 95f1 bc3d
000002e0: 6b00 0c3d 73c9 183d 13d9 e4bd acab 3ebd
000002f0: 819c 3a3c 0c0e 70bc 6248 1abd 98e0 cc3d
00000300: 65ee 213d a434 da3a 1b47 d2bd 7971 25bd
00000310: 2b74 e1bd 22f0 01bd bcb5 83bc 228b 293a
00000320: 0f0e 35bd 0078 61bb 8d6f 8f3d 680e 98bd
00000330: 5df0 c3bc 9cf6 97bd c0fd 8cbd f55e d13d
00000340: ef8c 9dbc 24c1 3fbc b4d7 02be 3675 b3bd
00000350: 6484 163d 10d8 193d 93bb f23d bd4c a9bc
00000360: de39 0bbd 23d5 82bd 4cd4 1ebd 89ae bdbd
00000370: 913b 093d 041c 5bbd fd91 46bd 0dea 8b3a
00000380: 2883 6dbd d00b a3bd 1e59 9e3d 0833 953d
00000390: dc3c 963d 40fb 0fbd 9b3f ba3d f055 9fbd
000003a0: 2dc7 4b3d 5f64 3e3c 6ceb 023e 8e9b 23bd
000003b0: 62be ac3d 21e4 64bd 8d46 273e 2a74 0b3e
000003c0: 4da6 90bd bebc ba3d 93e4 913d df5f 5d3c
000003d0: ee6f b6bd d291 843d f889 c5bc 4234 bd3c
000003e0: 3e7e b5bb 7824 bb3d e2f8 0fbd 0911 22bb
000003f0: 7674 c83d 7ae6 c0bc 69a5 40bd 38be f7bc
0.02832806 -0.04077171 -0.02608954 -0.009544792 0.110264756 0.012263466 0.1065778 0.07306929
0.109828025 -0.053100187 -0.033382416 -0.045350563 0.06804262 -0.02811976 0.08300373 -0.044697
0.012382874 -0.054177366 -0.041201342 -0.045450266 0.10946158 0.023848504 -0.06857344 -0.07636162
-0.015916478 -0.066559315 -0.13232009 -0.082529955 0.018364333 0.0338548 -0.03857882 -0.012080407
-0.043412127 0.11802572 -0.014445055 -0.08698139 0.083368614 -0.019381208 -0.0016724812 0.039197836
-0.044472802 0.062745415 -0.075124554 0.025597239 0.011408297 0.04214906 0.0318342 -0.01025859
-0.062303107 -0.07158793 -0.011534628 0.051268812 0.033259183 0.02373787 -0.08815251 -0.047517814
-0.024608377 0.006037393 0.09184672 0.057374988 0.029873712 -0.009817169 0.08666202 0.032891
-0.06276081 0.06501286 -0.035367254 0.012460696 -0.021392783 -0.028744794 0.0001940501 0.04859224
-0.051514402 -0.0069545293 0.027575478 0.0642615 -0.044887252 -0.015953299 -0.0018151106 -0.025638944
-0.027204609 -0.09452078 0.087311395 -0.019849796 -0.08199998 0.039317783 0.024824562 0.025483204
-0.015211123 0.12855211 0.011937711 0.11724635 0.07396164 -0.09845487 0.035406843 -0.06585174
-0.005859844 -0.05046131 -0.09694384 0.0800075 -0.027623273 -0.07586897 0.0028803141 -0.09851083
-0.066394426 0.016184254 0.03469031 0.038162358 -0.06907354 -0.010657297 0.0055948216 -0.07679296
-0.058474828 -0.043727867 0.049203888 -0.024431877 0.03264869 0.0897239 -0.052036513 0.056912117
0.03347762 -0.04435647 -0.03198353 -0.09292237 0.050652873 0.035607345 0.039953094 -0.10340334
-0.015533041 0.030443748 -0.05733096 -0.088404976 -0.12155348 -0.08729569 -0.06750161 0.01879555
0.022746433 -0.084174305 0.0012343136 0.017459013 -0.05565414 -0.062419012 -0.048000943 -0.048397496
-0.058176376 0.11749029 -0.025295451 0.049032286 0.057626806 -0.023187375 0.11284039 0.023804218
0.093203604 0.02774573 0.07930019 -0.014356834 -0.013346783 -0.13486418 -0.007899544 -0.07654208
-0.010667619 -0.010878755 0.10854488 -0.051334143 -0.08702083 0.029474078 0.02887162 0.0702265
0.0038671545 -0.020254526 -0.11030983 -0.10364176 -0.049918905 -0.027248014 0.04949362 0.086873494
0.06581062 -0.10125147 0.06339493 0.0050276006 0.10467817 -0.034142274 -0.03505331 0.092257656
0.034180086 0.037301492 -0.11174216 -0.046550438 0.0113898525 -0.014651787 -0.037666686 0.10003775
0.03953399 0.0016647768 -0.102674685 -0.04039142 -0.110084854 -0.03172315 -0.016077869 0.0006467571
-0.04420286 -0.00344038 0.070036985 -0.07424623 -0.023918325 -0.07420084 -0.068843365 0.1022319
-0.019232241 -0.011703763 -0.12777597 -0.087625906 0.03674735 0.03755957 0.11852183 -0.020666474
-0.033990733 -0.06388309 -0.03877668 -0.092618056 0.033504073 -0.053493515 -0.04847907 0.0010674611
-0.05798641 -0.079612374 0.077318415 0.07285124 0.07335827 -0.03515172 0.09094163 -0.07780063
0.049750496 0.01162061 0.12785119 -0.03994327 0.0843475 -0.055881623 0.16335507 0.13618532
-0.07062969 0.09118031 0.07123675 0.013511627 -0.08908068 0.064731255 -0.02411364 0.023096208
-0.005538731 0.09137815 -0.035149463 -0.0024729392 0.09787838 -0.0235474 -0.047032747 -0.03024207

block4.bnorm_4.weight f4 [30]
00000000: eab7 853f a445 853f 209b 833f 0179 843f
00000010: ed65 843f 28b4 8c3f ec3d 8b3f ec40 863f
00000020: 52ab 853f d0d9 873f 15c0 8d3f 72f9 823f
00000030: e882 833f f985 813f 0a23 893f 1316 893f
00000040: ce52 863f 535d 853f f341 873f 80df 893f
00000050: cdf1 873f 5a32 893f 4f50 9d3f 19db 813f
00000060: a872 803f fca2 803f 3257 9d3f 5348 893f
00000070: d809 883f 567a 823f
1.0446751 1.0411878 1.0281715 1.0349427 1.0343605 1.0992479 1.0878272 1.0488563
1.0442908 1.0613346 1.1074244 1.0232375 1.0274324 1.011901 1.0713818 1.0709862
1.049402 1.0419105 1.0567001 1.0771332 1.0620667 1.0718491 1.2290133 1.0144988
1.003499 1.0049739 1.2292235 1.0725197 1.0628004 1.0193584

block4.bnorm_4.bias f4 [30]
00000000: ebe8 87bc a6ec 993b 8b90 ccbc a118 80bc
00000010: 086c 3abc 05d5 3dbc 7eb7 543a d8f2 60bc
00000020: 0718 23bb 24c5 a7bc c8c4 6a3b 43f1 54bc
00000030: 8cad bbbc ecb8 91bc 97d6 553c 383e 0e3c
00000040: 3b8e bdbc d789 17bc 32fb 35bc 89be 8c3c
00000050: 0be1 0cbc a461 9e3c bd2f ea3c 8549 5abc
00000060: b3f6 1ebc e54a acbc 7b3f f83c 3e2a 8e3b
00000070: 5fd1 ca3b 8da3 d2bc
-0.016590556 0.0046974 -0.024971267 -0.015636744 -0.011378296 -0.011586432 0.00081145007 -0.013729773
-0.0024886148 -0.020479746 0.0035822857 -0.012996974 -0.022909902 -0.017788373 0.0130516505 0.008681826
-0.02313911 -0.009249172 -0.011107253 0.017180698 -0.008598576 0.019333668 0.028587217 -0.0133231925
-0.009702372 -0.021031806 0.030303707 0.0043385318 0.0061895098 -0.025712753

block4.bnorm_4.running_mean f4 [30]
00000000: 1121 94be ed3a 92bf fbff be3e ed1b 453e
00000010: f876 f63e 2882 c13e 0ed3 883e 1de4 873e
00000020: d768 1c3f dfb6 0c3f cf00 ab3e dfc9 6c3d
00000030: 32c1 203f 1033 1fbe ae05 82be 95f8 743d
00000040: 6cc0 0d3f 72e3 963e 57bb a43e 6c2d 673c
00000050: b5e7 a83f 7350 44be cb01 0a3e 0fcc 56bf
00000060: c1eb c2be 1ed2 23bf 4f6f ad3c c723 713e
00000070: 1f9e a33e 6ea7 33bf
-0.28931478 -1.1424233 0.37304673 0.19248934 0.4813764 0.37794614 0.26723522 0.26541224
0.6109747 0.5496654 0.33399054 0.057809707 0.6279479 -0.15546823 -0.25394958 0.05980738
0.5537174 0.29470402 0.3217418 0.0141099505 1.3195711 -0.19171314 0.13477246 -0.8390512
-0.3807049 -0.6399249 0.02117124 0.23548804 0.31956574 -0.7017735

block4.bnorm_4.running_var f4 [30]
00000000: 8e58 ab3e 8317 253f b2e8 c73e f112 c93e
00000010: aa0d ce3e da19 803e ac5c b03e 0833 a03e
00000020: e796 0e3f a0c5 c43e 70c4 a23e cbef 793e
00000030: 58ca cf3e 1a8d fb3e e8d9 f83e 1053 073f
00000040: 0713 1b3f 1913 883e 68e2 c23e 8985 f63e
00000050: b13a e83e dbac 023f 7d40 a43e 957a bb3e
00000060: 5f49 f33e 3c94 183f b352 9c3e 300b bf3e
00000070: f062 963e b582 cb3e
0.33466 0.64489 0.3904472 0.39272264 0.402448 0.25019723 0.34445703 0.31288934
0.5569901 0.38432026 0.31790495 0.2440788 0.40584064 0.4913109 0.4860375 0.5286112
0.6057591 0.2657707 0.3806336 0.48148754 0.45357278 0.51045007 0.3208045 0.3661696
0.47516915 0.5960119 0.30531844 0.37313223 0.29372358 0.3974816

conv_channel_res.weight f4 [1, 30, 3]
00000000: 2432 8dbc 4780 acbd a3d8 afbd 78b7 e6bc
00000010: d3e6 8a3d 6a04 7c3d 0c21 1dbd cb8b 0bbe
00000020: 93a2 27bd 285c 15be 60e6 febd 13a9 eebd
00000030: 3a2a e0bd 2579 fcbd 61db 0abe 068a 23bc
00000040: 9b65 393e bae3 423e abf9 083e 05a9 78bc
00000050: 6fe1 c93d f534 3ebd fed8 b9bd 6566 0dbe
00000060: d7ee c73c 55c8 6d3d 6e8b 833d aafe 0cbe
00000070: 39df d2bd 9b7a 25be 2c71 c03d 50ea bebd
00000080: 8f63 1a3c facf 6cbd faf4 e0bd c80b 86bd
00000090: 89ca 803b 1c59 32bd 168b e0bd 6071 c7bd
000000a0: 1762 aabd e30e d6bd 604e b3bc 2568 013e
000000b0: c8bb 1f3e 8d43 113c 7d2e b93d 5b6c 0b3e
000000c0: 59c8 3c3a 7dcf d9bd 3db5 01be bec8 70bd
000000d0: 7a9a 4dbd 8c70 01be 6762 0fbe dd4f 273d
000000e0: 2cc7 88bd bea9 ad3c d959 253e c850 1c3e
000000f0: 2d5c c43d ebda 083e f39f 5f3d 30de d43d
00000100: 8b8f 143d 814e 1b3e f634 0f3e 3128 93bd
00000110: 5e76 69bd b8e4 0abd 54f1 c0bd 54d9 8c3d
00000120: 4cb4 a13c 9a9c d2bd fe58 e1bc b3d8 08bd
00000130: 2107 40bd edbc fbbd d647 c43d 2438 943c
00000140: 64c3 bcbd 50f9 6cbc 8cb4 f23d a6b4 c23d
00000150: 575c 013e ae22 c43d b56e 803d cde4 adbd
00000160: a9cf bebb 184a 92bd
-0.017235823 -0.084229045 -0.08586242 -0.028163657 0.067823075 0.061527647 -0.038361594 -0.13627546
-0.040926527 -0.14585936 -0.12446284 -0.11653342 -0.10945554 -0.12327794 -0.13560249 -0.009981638
0.18105166 0.19032183 0.13376491 -0.015177016 0.09857451 -0.046437223 -0.09074591 -0.13808592
0.02440588 0.05805238 0.064230785 -0.13769022 -0.102964826 -0.16160052 0.09396586 -0.09322035
0.009423151 -0.05781553 -0.109842256 -0.06545216 0.003930394 -0.043542013 -0.109640285 -0.097384214
-0.083194904 -0.10452058 -0.021887958 0.12637384 0.15598977 0.008866203 0.0904207 0.13615553
0.0007201485 -0.106352784 -0.12666793 -0.058785193 -0.05019615 -0.1264059 -0.14002381 0.040847648
-0.06678614 0.021199103 0.16147555 0.1526519 0.09587894 0.1336476 0.0545959 0.103939414
0.036269706 0.15166666 0.13985047 -0.071854 -0.05699765 -0.03390953 -0.0942103 0.068773896
0.019739293 -0.10283776 -0.027508255 -0.033409785 -0.0468818 -0.12291894 0.09584014 0.018093176
-0.09216955 -0.014463738 0.11850843 0.09507112 0.12632881 0.09576927 0.06271116 -0.08490906
-0.005823095 -0.071430385

classifier_conv.weight f4 [32, 1, 35]
00000000: 3634 16be 7483 fbbd 9073 f6bd 12e5 cabd
00000010: 8745 c5bd bf3a 38be fccc 23be 04ba d1bd
00000020: 10dc d5bd 75fa 30bd c6bb 54be 19fc e5bd
00000030: 658e 20be bf04 19be 06e2 77be 0d87 53be
00000040: 6a21 69be 1224 8abe c89a 67be 1b07 58be
00000050: 2070 86be dd94 31be 99e1 b3be 6d61 a7be
00000060: f9b2 1abe 198c a6be 8c1b 8cbe f4bb a1be
00000070: f419 acbe d5bf d5be 22da 0a3e 50b4 f6be
00000080: 0f96 de3e f9a0 4fbd 8bb7 863d 79b5 0d3e
00000090: 4e49 f03d 9bd0 e63d 5a06 103e d2d7 353e
000000a0: 1d9b b83d ef2f 9b3d baa6 e03d 879c f83d
000000b0: 50ba 133e 9bb2 0f3e 8825 6a3e 7f41 2d3e
000000c0: 22a4 8a3e 1486 9f3e 606b 6c3e 9930 743e
000000d0: 0c5c 9a3e e767 923e c70f a93e 0912 8b3e
000000e0: a750 553e d010 cc3e 8291 a13e 2b13 7e3e
000000f0: f9a8 d63e 23e6 c23e 70a9 b43e 49e0 9d3e
00000100: 2acf 013f f75d 15be da53 0c3f 4c1f 02bf
00000110: 91d7 263e ef51 c3bd cea3 d8bd d278 5cbd
00000120: 2e17 2bbe 43e1 e4bd dba9 54be a5e0 1abe
00000130: 7ccd f6bd 4d9d 4abd 9870 28be 1818 cfbd
00000140: ff5f 5dbe 438f 5abe 9198 26be 13df 0dbe
00000150: 9ba7 5abe 54e5 2abe eda3 61be b72b 9ebe
00000160: 2826 53be 4525 42be dea4 8dbe 388f 4bbe
00000170: e7e8 b7be 5a47 adbe 4267 57be 1553 a5be
00000180: bc87 a0be 7975 acbe 5079 8ebe f6f8 ecbe
00000190: df3c 1d3e 6c8c fdbe e8b4 e73e 478b 25bd
000001a0: c03f aa3d 0805 19be d9d5 debd d350 c5bd
000001b0: eadb 19be f4ae aabd a213 5fbe b8b9 0abe
000001c0: 3831 2fbe 1268 7abe e2cf 23be d59b 40be
000001d0: 7b5a 06be 65b6 5bbe 295b 5bbe f582 7bbe
000001e0: 12ba 87be f0b8 6ebe f932 86be f19a 73be
000001f0: 587b 9abe 7915 c2be a02f 75be 1050 b8be
00000200: 7612 8fbe 3017 7bbe 3570 f6be c6b2 d9be
00000210: d938 9cbe f0b4 adbe b419 e2be 2bb8 e53d
00000220: 59fb 04bf 6b96 ec3e 17d3 f6bd 1247 ecbb
00000230: 3b40 62be 5826 a5bd ddc0 01be 408c 7dbd
00000240: 45de 3fbe 34f2 1abe b495 b2bd 9feb 33be
00000250: 05bf 40be 7dff 84bd 4811 64be 26fa 32be
00000260: 931a 36be dbf0 6dbe c4c5 8fbe 734d 32be
00000270: 8080 84be cd23 a7be e10a 65be 093f 8ebe
00000280: d6dd 7dbe 54c9 61be 30f6 ebbe 8bb2 8abe
00000290: d0ab 7fbe 330c babe b2f2 a2be cae8 b6be
000002a0: 1586 d5be afd4 efbe 45c2 2e3e 68f9 09bf
000002b0: f339 ee3e 4b7d 08be 73f9 07bd e7d0 6b3e
000002c0: 0c2c 0d3e cc39 333e c3af 873d 551f dd3d
000002d0: 581f 963d 7f19 1b3e d0eb ec3d 9b19 413e
000002e0: 8487 fa3d c8b6 613e 2b94 5f3e a6af 343e
000002f0: 5fa0 7d3e 8124 923e 7f4d 183e e232 723e
00000300: f279 5b3e 2f92 2c3e 4cc8 883e 592d 983e
00000310: 414f 923e 55d9 db3e 9cf3 803e b06f 3b3e
00000320: a9f4 cc3e 2db0 da3e 555c a83e bfda 9d3e
00000330: 5bb4 e53e 609e 0ebe f036 dd3e 0c04 d5be
00000340: f7a7 e43d 77a1 4c3d 4a51 42be b89a 02be
00000350: 2969 23be a3bf c5bd f711 08be 0b8b dbbd
00000360: 57e9 09be 1687 13be 3d36 05be 03e9 80bd
00000370: e6c9 0abe 3b9c 4dbe f050 40be 731b 01be
00000380: f443 4ebe 6942 cbbd 7280 89be 3195 44be
00000390: 5801 7bbe 9222 6fbe 3730 a3be cfaf 74be
000003a0: 1b01 9bbe a4b4 7dbe 58bf 08be e24d b3be
000003b0: 981c 9bbe 050a 3fbe 8db8 92be c2f0 edbe
000003c0: 03fa 143e c44b c4be 150c ec3e 3ed1 46bd
000003d0: 2998 03bc 87ba 38be 7ef4 25be 2728 b5bd
000003e0: 1cbb 31be 0c49 03be 83de 22be 7853 07be
000003f0: 4536 33be f57b e2bd 9d6d d5bd 0a66 42be
-0.14668354 -0.12280932 -0.120337605 -0.09906973 -0.09632402 -0.1799116 -0.15996164 -0.10240558
-0.10442364 -0.043207604 -0.20774755 -0.112297244 -0.15679319 -0.14943217 -0.24207315 -0.20656987
-0.22766653 -0.26980644 -0.22617638 -0.2109646 -0.2625742 -0.17341943 -0.35133055 -0.32691517
-0.15107335 -0.3252876 -0.27364767 -0.3158871 -0.3361355 -0.4174792 0.13559774 -0.48184443
0.4347386 -0.050690625 0.06577977 0.13838758 0.11732732 0.11270257 0.14064923 0.1775811
0.090139605 0.07577502 0.109693006 0.1213923 0.14426541 0.14032976 0.2286588 0.16919516
0.27078348 0.3115698 0.23087835 0.23846664 0.3014835 0.28594896 0.3301985 0.27162197
0.20831548 0.39856577 0.31556326 0.24812 0.4192579 0.38066205 0.3528552 0.30835178
0.5070673 -0.14586626 0.5481545 -0.50829005 0.1629317 -0.09537112 -0.10578118 -0.05382616
-0.16708061 -0.11175778 -0.2076792 -0.15124758 -0.12050912 -0.04946642 -0.16449201 -0.101120174
-0.21618651 -0.21343713 -0.16269137 -0.13854627 -0.21352999 -0.16689044 -0.22035189 -0.30892727
-0.20620024 -0.1895953 -0.27664846 -0.19878852 -0.35919878 -0.338435 -0.21035483 -0.3228995
-0.31353557 -0.33683375 -0.2782693 -0.46283692 0.15355252 -0.49521196 0.45255208 -0.04041603
0.083129406 -0.14943326 -0.10880632 -0.096345566 -0.15025297 -0.08334151 -0.21784833 -0.13547409
-0.17108619 -0.24453762 -0.1599727 -0.18809445 -0.13120453 -0.21456297 -0.21421494 -0.24561675
-0.26509148 -0.23312736 -0.26210764 -0.23789574 -0.3017223 -0.37907007 -0.23943949 -0.35998583
-0.27943772 -0.24520564 -0.48132482 -0.42519206 -0.3051212 -0.33927107 -0.44160235 0.11216768
-0.51946026 0.4620851 -0.12051981 -0.0072106207 -0.22094814 -0.08063954 -0.12671228 -0.06190133
-0.18737133 -0.15131456 -0.0871996 -0.17570351 -0.18822868 -0.06494043 -0.22272217 -0.17478237
-0.17783575 -0.2323641 -0.2808057 -0.17412357 -0.25879288 -0.326445 -0.22367431 -0.27782467
-0.24791655 -0.22049457 -0.46086264 -0.27089342 -0.24967885 -0.36337432 -0.31825787 -0.3572448
-0.4170386 -0.46841952 0.17066295 -0.5389619 0.46528587 -0.13329045 -0.033196878 0.23028909
0.13786334 0.17502517 0.06625321 0.10796992 0.07330197 0.15146445 0.11568415 0.18857424
0.12232879 0.22042382 0.21833865 0.1764513 0.24768208 0.28543475 0.14873312 0.23652223
0.21433237 0.1685264 0.26715314 0.29722098 0.2857609 0.4293925 0.2518586 0.18304324
0.4003041 0.42712536 0.32882944 0.30830953 0.44864163 -0.13927603 0.43205976 -0.4160465
0.11164849 0.049958672 -0.18976322 -0.12754333 -0.15958084 -0.096556924 -0.13288103 -0.1071988
-0.13467918 -0.14407 -0.13008972 -0.062944435 -0.1355358 -0.20079128 -0.18780875 -0.12608127
-0.2014311 -0.09924776 -0.26855808 -0.19197537 -0.24512231 -0.23353031 -0.31872723 -0.2389519
-0.3027428 -0.2477594 -0.13354242 -0.35020357 -0.30295253 -0.18656166 -0.28656426 -0.46472746
0.14548497 -0.38339055 0.46102968 -0.048539393 -0.008031883 -0.18039905 -0.16206548 -0.08845549
-0.17356533 -0.12820834 -0.15905194 -0.13215435 -0.17501171 -0.11058799 -0.10421298 -0.18984237

classifier_conv.bias f4 [32]
00000000: 70e1 c53c 525f bfbc cb94 a63c 7f30 e33c
00000010: eb35 023d 5887 66bc 0673 dc3c 25ea 883c
00000020: 58fd 8b3c cafd dd3c f8e2 d43c 8865 c1bc
00000030: 938d 9dbc 26ae d4bc e6c3 9fbc 3b3a 0bbd
00000040: ddb8 743c 649a c73c acc0 d43c 85a8 f23c
00000050: 92ef 8ebc f958 0bbd 82a7 c1bc 1a2a e9bc
00000060: 05a7 d13c f55c d63c 181a b93c 77bb d23c
00000070: 92e9 bdbc 2158 bb3c ed2e bb3c ecca 00bd
0.024155349 -0.023360882 0.020334622 0.027733086 0.0317897 -0.014070354 0.026910316 0.016713211
0.017088577 0.027098555 0.025987133 -0.023607984 -0.019232547 -0.025961947 -0.019502591 -0.03399108
0.014936653 0.024365611 0.02597078 0.029621372 -0.01744822 -0.034020398 -0.023639444 -0.028462458
0.025592336 0.026167372 0.02259545 0.025724156 -0.023182664 0.022869172 0.022849524 -0.03144352

fc.weight f4 [2, 32]
00000000: 5300 be3d 010a a3bd 69c3 b93d 49cb aa3d
00000010: 36cf b93d 31a5 babd f72d ba3d 3d54 af3d
00000020: 714f bc3d 4128 ae3d 0ee7 ba3d 8088 adbd
00000030: 61d7 aebd 30b8 b8bd f437 b9bd f120 b1bd
00000040: c0fb b23d 67e0 ab3d 8e90 bd3d e427 b83d
00000050: 960b afbd b5c1 bcbd 3e18 b7bd cd07 b2bd
00000060: 185d ae3d faf5 b13d 0451 bf3d b3ae b53d
00000070: 85c2 b8bd 2a32 ae3d 4f2e be3d 050e b0bd
00000080: 1e03 bebd bf0d a33d ffc7 b9bd 2ad1 aabd
00000090: 79cd b9bd eaa2 ba3d 0330 babd e053 afbd
000000a0: 6e52 bcbd 3427 aebd f3e7 babd c586 ad3d
000000b0: 3fd9 ae3d 9fb3 b83d 4c36 b93d 9f1d b13d
000000c0: 12fb b2bd b1dd abbd 5794 bdbd f723 b8bd
000000d0: 2810 af3d 9cc1 bc3d 021a b73d 2a0a b23d
000000e0: 595e aebd 10f3 b1bd a651 bfbd 0cad b5bd
000000f0: 76bc b83d 9230 aebd a530 bebd c908 b03d
0.092774056 -0.079608925 0.09070475 0.08339555 0.090727255 -0.09113539 0.09090798 0.08560989
0.0919484 0.085037716 0.091261014 -0.08473301 -0.08537174 -0.09019506 -0.09043875 -0.08648861
0.08739424 0.08392411 0.09256087 0.089919835 -0.08547132 -0.09216634 -0.08940171 -0.08692894
0.0851385 0.086894944 0.093416244 0.08871212 -0.09021477 0.08505662 0.092861764 -0.08596424
-0.09277938 0.07961606 -0.09071349 -0.08340676 -0.09072394 0.09113105 -0.09091189 -0.0856092
-0.0919541 -0.08503571 -0.09126272 0.08472971 0.0853753 0.09018635 0.090435594 0.08648228
-0.08739294 -0.08391894 -0.09256809 -0.08991235 0.085480034 0.092166156 0.089405075 0.08693345
-0.08514089 -0.086889386 -0.09341745 -0.08870897 0.09020321 -0.08505358 -0.09286622 0.08595426

fc.bias f4 [2]
00000000: 62f7 f53c fdf8 f5bc
0.030025188 -0.030025953
