submit_entry/checkpoints/Combined_edgcn_12s_slice/V/4/best.pth (torch_old, 75847 bytes, 26 tensors)

conv_time.weight f4 [15, 1, 10]
00000000: 82c2 873b 365d 1abe cfd9 3dbd 6ca0 42bd
00000010: 4b28 d7bc 609f e3bc 07c1 2dbe b7b6 343e
00000020: 05ea db3a 0caf 453e 2519 3c3e 33a8 033e
00000030: 0650 e53d 3ae8 f53d 9821 36be 83ee edbd
00000040: 1886 273e 93b6 82bd d36a 3cbe bd1d 34be
00000050: ce89 3e3e 54df 8dbc 4181 353d a25e f63d
00000060: 3af5 8abd 69f0 3bbe 0c32 2c3d f19a fabd
00000070: e568 0dbd 6e49 ee3d e3f7 973d ea42 4a3d
00000080: 0d17 fabd 98e3 98bd f273 ec3d d58b 50bd
00000090: 9173 0d3d c27a a8bb 6f3b 01bc 29e3 90bd
000000a0: 0ff3 1a3e 94cb 84bd e372 2dbd fd5c 80bd
000000b0: 6073 ebbd ca41 333e 300a 34be 40b0 12be
000000c0: 83bd e73d a294 233e 4d7a fa3d ef21 08be
000000d0: 51c0 a13b 7973 413e 433f c63d 4cde 2dbe
000000e0: d579 12be 9149 3a3e 5022 103d 0a3b 143e
000000f0: 1149 18be d011 733d fd5b 323e 5c8b 19be
00000100: bae7 e83c 161e 08be 7253 f13d 51e3 c63b
00000110: ae98 f5bd 7f96 3d3b c316 053d 0041 15be
00000120: 698b 1bbd 6ca7 163e 2cb4 21bd dc1b 0abd
00000130: 20e6 53be e9d7 d9bd c895 43bd 2a12 06be
00000140: 56a9 133e a676 fd3b 5819 a93c d8a1 d23d
00000150: 0b0c 383e 2189 b93d 7121 1d3e 04f7 543d
00000160: 3fef 573d d0c2 b13d 83e0 d43d 00c9 c9bd
00000170: cf80 273e 84b1 a3bd ed6c 363e a81e dbbb
00000180: fbfa 0c3e e325 1dbe 0e69 20bd 34d1 14be
00000190: 4b31 273e e3ed 5d3c ad32 173e a6ca c93d
000001a0: d40c 3cbd 9475 e63d b5a0 e03d 639a 06be
000001b0: 5aae 753d e9fc 613d a121 49be 2d39 eb3d
000001c0: d293 04bd 6025 ccbd 7958 0c3d bef6 f33d
000001d0: b7f1 523d edf6 e3bd 97d7 f3bc ad61 583c
000001e0: 93ea 523e ee8f 2abd c070 4d3e 3f5b 8fbc
000001f0: 0d89 aa3d 1c2d 05bd 7ca4 08be 063c a1bd
00000200: 090c 033d d307 6e3d dbac 81bd d4eb c0ba
00000210: 3a45 8cbd 1d33 75bd eb9b 023c e362 48bd
00000220: 90af f03d 90bb 41bd 925c 393e e918 b63c
00000230: 853a 5fbe fbe0 533d eb73 27bd 1183 ff3d
00000240: da02 6abd b98a 1dbe 4d79 e83d 0e35 8d3b
00000250: 71e7 99bd cbb4 bf3d
0.00414306 -0.1507462 -0.046350297 -0.04751627 -0.02626433 -0.027785957 -0.16968165 0.17647825
0.0016778117 0.19305056 0.18368967 0.12857132 0.11196904 0.12007184 -0.17786252 -0.11617758
0.16359746 -0.063824795 -0.18400125 -0.17589469 0.18607256 -0.017318405 0.04431272 0.120297685
-0.067850545 -0.18353428 0.042039916 -0.12236584 -0.034523863 0.11635099 0.074203275 0.04938022
-0.12211428 -0.07465285 0.11545552 -0.050914604 0.03453404 -0.005141587 -0.007887705 -0.07074577
0.15131782 -0.06484142 -0.042345893 -0.06267736 -0.114966154 0.17505565 -0.17582011 -0.14325047
0.11315443 0.15974668 0.12230358 -0.13294195 0.004936256 0.18891706 0.09680035 -0.16979331
-0.14304288 0.18192126 0.035188973 0.14475647 -0.14871623 0.05934316 0.17417903 -0.14994568
0.028430808 -0.13292727 0.11783494 0.0060695787 -0.11992012 0.0028928814 0.03249241 -0.14575577
-0.03797475 0.14712304 -0.039478466 -0.033717975 -0.20693254 -0.10636885 -0.047750264 -0.13092867
0.14420065 0.0077350913 0.020641968 0.102847755 0.17973344 0.090593584 0.15344788 0.051993385
0.052718397 0.08679736 0.10394385 -0.09852791 0.1635773 -0.07992843 0.1781499 -0.006687004
0.13767616 -0.15346484 -0.039162688 -0.1453293 0.16327398 0.013545486 0.14765425 0.09853105
-0.04591067 0.11252895 0.109681524 -0.13144831 0.059980728 0.055172835 -0.19641735 0.11485515
-0.032367535 -0.09968066 0.03426406 0.11912297 0.05150005 -0.11131082 -0.029765887 0.0132068815
0.20597295 -0.04164117 0.20062542 -0.017499564 0.083269216 -0.032513723 -0.13343996 -0.07872777
0.0319939 0.05811293 -0.06331798 -0.001471872 -0.068491414 -0.0598632 0.007971744 -0.04892243
0.11752236 -0.047298014 0.18101719 0.022228675 -0.21799667 0.05172823 -0.040882032 0.12476171
-0.057131626 -0.1538495 0.11351261 0.004309303 -0.07514847 0.093606554

conv_time.bias f4 [15]
00000000: 2f6f c6bc 252d 1bba ae89 f73b 20fb 4a3b
00000010: a1d6 de39 ed7c 0e3c 8c03 893c 896a b93b
00000020: 9e04 593c a603 1dbc de0a af3b f394 833c
00000030: 1867 953c 04fe c23b 9665 d13a
-0.024222938 -0.0005919508 0.0075542545 0.0030972436 0.0004250305 0.008696777 0.016725324 0.005658452
0.01324573 -0.009583389 0.0053418716 0.016062235 0.018237635 0.005950691 0.001597571

bnorm.weight f4 [15]
00000000: d11c 803f 1285 853f eb77 813f 6799 7f3f
00000010: f12d 803f 41e2 793f de66 733f 5785 7c3f
00000020: bec6 7c3f cf73 803f 3a0d 7c3f 0943 7a3f
00000030: 2010 7b3f 0294 8b3f a5a4 7f3f
1.0008794 1.0431235 1.0114721 0.9984345 1.001402 0.9761086 0.9507884 0.9864096
0.98740757 1.0035342 0.9845768 0.9775854 0.9807148 1.0904543 0.998606

bnorm.bias f4 [15]
00000000: 468d 153c 7462 f23c 0f60 9a3d 6541 4fbc
00000010: 57aa 993c 2eda 68bc 1abd afbd 967d 47bd
00000020: 3610 3d3c 8dd9 373d 6eea 0e3d cec3 143d
00000030: 5093 3b3d 17b8 e23d 5fd7 16ba
0.0091279205 0.029587962 0.07537853 -0.012649869 0.018757982 -0.014212174 -0.0858099 -0.048703752
0.0115395095 0.044885207 0.03489154 0.036319546 0.045794785 0.110702686 -0.00057541387

bnorm.running_mean f4 [15]
00000000: 8fe5 5abd 387c 65bb 15a4 0a3d 7232 6fbc
00000010: 75a8 51ba 3332 e43d e6e3 0dbd 379f 30be
00000020: 2e87 953e 3b9e 143c a93d 403e 8dd5 d8bc
00000030: 9596 d63d 94e2 903c 4919 43bd
-0.05344158 -0.0035016667 0.033847887 -0.014599429 -0.00079978193 0.11142387 -0.03464117 -0.17248236
0.29204696 0.009070928 0.18773521 -0.026469016 0.1047794 0.017686166 -0.047631536

bnorm.running_var f4 [15]
00000000: 7288 353d 8352 b23d b34e c63c e1c6 c93b
00000010: f22e 573c c588 e93d 778f e83c 2f41 b03e
00000020: 39a2 513f cb0a ef3c 5021 b43e 39c7 b33c
00000030: 674d c63d 2306 a13c 8d29 063d
0.044319578 0.08707144 0.024207449 0.0061577414 0.013133751 0.1140304 0.028388722 0.3442473
0.8188816 0.029179951 0.35181665 0.021945583 0.09682732 0.019656247 0.03275447

block2.conv_2.weight f4 [15, 15, 10]
00000000: 03fc 00be d642 423c a12b 0fbd d4b4 973d
00000010: 2e51 b83d 0f5d 97bd f94e 6ebc dd3d 99bd
00000020: 14c0 09be 01b9 a53d 61af 013d 97a7 37bd
00000030: 7dc4 b3bd a356 b23d 748f 07bd e020 2f3d
00000040: 8fc5 3abe 6a80 ecba 551f 173e 92c6 8bbd
00000050: 1976 9e3d 5c79 26bd 4624 033d 5f5c c8bd
00000060: 331e bcbd 10f6 1cbe 8304 35be 45d8 c83d
00000070: 6f77 82bc 05bf 493d 95fc c1bd 9b3d ee3d
00000080: f901 e73d ac3d f7bd 22a7 c8bd 5e15 c9bd
00000090: 3d9c 1dbe b83f 78ba d343 973d 697c 1c3d
000000a0: 34db 5c3d 56e3 93bc 4ffc 15bd 5b61 77bb
000000b0: fc3e a83c 8826 da3c 739c 1d3e 6520 503d
000000c0: b82a cebd 3db1 abbd bb86 e8bd 16b4 d73d
000000d0: 517b 4f3d b028 9dbd be34 c5bd d2cf bf3d
000000e0: 007b 943c 2eed e1bd 59ed 0fbc a1f9 bcbd
000000f0: 2269 733b ef20 2abd 447b ccbd 138c 4dbd
00000100: 02a4 d1bc 84ae 993c 4249 52bc b406 fe3c
00000110: 2a77 b33b 6538 69bc 958e 993d cb58 38bd
00000120: 05ed 0d3e 153d 80bb 577f 643c 6051 a13b
00000130: 6ffd 78bc a19a 9abd dde8 9cbd 424f 05be
00000140: 18ae ffbb ba53 71bd f344 f6bd 5424 0cbe
00000150: 285e b8bd 0949 f5ba bef1 083e 30d2 0abd
00000160: 7776 013e 787d 34bd cdd3 b13d aa81 8c3d
00000170: 3495 b3bd 7639 3dbd 553f 12be 1b47 20be
00000180: ea8d c73d 9515 143d 121b 903d b8eb b1bd
00000190: 920d a3bd 3ecf 263b 4c24 f8bd cb98 2f3b
000001a0: b6bb 873d 907e ec3c 1f78 5a3d ee1d e9bd
000001b0: dd1a d33d 47f4 cd3b ffa8 633d af50 d1bd
000001c0: c73d 353d 2822 ac3c 16d0 9ebb 01f8 fd3d
000001d0: ab0d d43d 2382 04bb dd3c 153e 42f1 85bd
000001e0: 27b1 84bd 5c75 cc3c 7768 7b3d 18ab b238
000001f0: ce7b db3d 7ce2 803d b534 0fbd 52fb 70bc
00000200: 1d6e ee3d 3fed b7bd 8817 a33d fe31 bd3d
00000210: 82b3 12be 79f7 05be 7010 e5bc ab01 033e
00000220: e8d7 54bd 266f 33be 0d70 c33d 3d04 e0bd
00000230: acd0 11bd 4971 b73c 210a 8dbd ae88 f23d
00000240: 7f66 d93d e83a e93c c2c4 533d 7e1b 90bc
00000250: d345 a1bc a6dd 243d 7a21 a7bd d112 00be
00000260: d138 833d 5112 9e3c 0b58 edbd 5059 0dbd
00000270: eea4 c43d a25e 98bd 2343 f7bd 09a2 903d
00000280: f171 923d 5643 3b3d 2ea3 dbbd 65b1 a83d
00000290: 92dc bdbd 5515 57bd 3aaa 28be b776 0bbe
000002a0: ccd3 40be 8617 e53c 30e4 0f3e 5e29 06be
000002b0: 6320 99bc 7a4d 11be 198c 6f3b 84df a03b
000002c0: 1bee e5bd 6c3b 453d 3698 95bd 0679 39bd
000002d0: cef3 9e3d ab29 a63d c1b8 863d aca9 6bbd
000002e0: e2fc 023e bf92 a8bd 9057 debd 525e 0a3c
000002f0: f6e6 99bd 4f76 21bc 034c 0abd 4a8b 1dbd
00000300: ba97 56bd bcaa c73d f8d9 f4bd fea6 f7bd
00000310: de40 64bd 9904 cf3d facd dcbd 2cc7 9c3c
00000320: 075f 863d 7b30 383d 7eda bcbd e949 0d3e
00000330: db8e 97bd 7944 dd3d 07e1 b53c 41bd c23b
00000340: 3eb8 833d 292a acbc 63e2 27bd 8076 ba3d
00000350: 9ae7 98bd 125c efbd 5693 d23d e8fd f1bd
00000360: 7922 5e3d 303b 093e ff84 98bb bef6 38bd
00000370: 3a97 ff3d 31a0 573c 41c5 e43d dbde 103e
00000380: 9b16 123d 5cc2 c5bd 97db 7f3d 548e 0d3e
00000390: d4fd dabd ae67 a2bd b00e a13c eb29 c83d
000003a0: 037b a5bd eb80 be3d 9053 c73d f28c 1dbe
000003b0: 971e ccbd 5a20 cc3d 9b88 94bd 3697 18bd
000003c0: 19f6 803d 6f6f 8c3d 7c7f b53d e923 d2bd
000003d0: d78f a7bc 3165 ecbd 5fb2 893d d134 833c
000003e0: ca45 0fbd c0d9 f0bd 37e7 2e3d 05b9 9ebd
000003f0: 845a f0bd 8dd8 a6bc 3eb9 313d 3020 fdbd
-0.12596135 0.011856755 -0.034953717 0.07407537 0.08999859 -0.073907964 -0.014545196 -0.074825026
-0.13452178 0.08091927 0.031661395 -0.04483756 -0.087777115 0.08707931 -0.033095792 0.04275596
-0.18239425 -0.0018043641 0.14758046 -0.06824984 0.07737369 -0.04064308 0.032017015 -0.097832434
-0.091854475 -0.1532824 -0.17677502 0.09806875 -0.015926091 0.049254436 -0.09472004 0.11632844
0.11279673 -0.1207231 -0.09797503 -0.098185286 -0.15391631 -0.0009469944 0.07385983 0.038204584
0.053919986 -0.018052738 -0.036617573 -0.0037747237 0.020537846 0.026629701 0.15391712 0.050812144
-0.10066742 -0.08383415 -0.11353823 0.105323955 0.050654713 -0.07673776 -0.096292004 0.093658105
0.018125057 -0.110315666 -0.008784615 -0.092273004 0.0037141521 -0.041535314 -0.099844486 -0.050182413
-0.0255909 0.018759973 -0.012834849 0.031009056 0.005476852 -0.014234637 0.074978985 -0.045006555
0.13859947 -0.0039135315 0.013946376 0.0049230307 -0.015197142 -0.075490244 -0.07661603 -0.13018516
-0.007802736 -0.05891774 -0.1202487 -0.13685733 -0.09002334 -0.0018713783 0.13373467 -0.033891857
0.12642847 -0.04406497 0.08682976 0.06860669 -0.087686926 -0.046197377 -0.14281972 -0.15652125
0.09743865 0.036153395 0.07036413 -0.08687538 -0.07961573 0.0025453116 -0.12116298 0.0026793953
0.066276 0.028868943 0.053337213 -0.11382662 0.10307858 0.0062852236 0.05558109 -0.10220467
0.04424837 0.02101238 -0.004846583 0.124008186 0.103541695 -0.002021917 0.14573999 -0.06540157
-0.06479102 0.024958305 0.061378922 8.51957e-05 0.10716973 0.062931985 -0.034962375 -0.014708357
0.11642096 -0.08980798 0.079634726 0.09238051 -0.1432629 -0.13082685 -0.02796194 0.12793605
-0.051963717 -0.17522869 0.09542856 -0.109383084 -0.035599396 0.022392886 -0.068866976 0.11842476
0.10615253 0.028470472 0.051701315 -0.017591234 -0.019686615 0.040250443 -0.08160682 -0.12507178
0.06407321 0.019295843 -0.115890585 -0.034509003 0.0960177 -0.07439925 -0.12073352 0.07062156
0.07150639 0.045718513 -0.107244834 0.0823696 -0.09270586 -0.05251058 -0.16471186 -0.13619505
-0.18830794 0.027965318 0.1405189 -0.13101718 -0.018692201 -0.14189711 0.003655201 0.0049094576
-0.11227056 0.048152372 -0.073044226 -0.045281433 0.07761346 0.08113416 0.06578208 -0.05753486
0.1279178 -0.082311146 -0.10856545 0.008445339 -0.075147554 -0.009854867 -0.033763897 -0.038462915
-0.05239079 0.09749362 -0.11955637 -0.12092398 -0.055725925 0.10108299 -0.107814744 0.019137941
0.06561094 0.04496811 -0.092213616 0.13797726 -0.074002944 0.10804076 0.022202028 0.005942971
0.06431626 -0.021016197 -0.040987384 0.09104633 -0.074660495 -0.11687483 0.10282008 -0.11816007
0.054232094 0.13401484 -0.0046545262 -0.045157187 0.12480016 0.013160751 0.11170436 0.14147513
0.03566609 -0.09656212 0.062465277 0.13823825 -0.10692945 -0.079299316 0.019660324 0.0977362
-0.08080103 0.09301933 0.09732735 -0.15385798 -0.09966772 0.09967108 -0.07252618 -0.03725358
0.062969394 0.06857192 0.08862206 -0.102607556 -0.02045433 -0.11542738 0.06723475 0.016016396
-0.034978665 -0.117602825 0.042700972 -0.077501334 -0.117360145 -0.020366931 0.04338955 -0.12359655

block2.bnorm_2.weight f4 [15]
00000000: 8d04 813f 54bb 8a3f 5948 833f e236 793f
00000010: 628a 793f c7e5 763f caff 783f 99d4 8d3f
00000020: 5bac 753f 255b 813f 8b6c 803f 837e 833f
00000030: 8c65 823f 57ef 7b3f c2ee 853f
1.0079514 1.0838418 1.0256454 0.9734937 0.9747678 0.9644436 0.97265303 1.1080505
0.9596612 1.010594 1.0033125 1.0272983 1.018724 0.9841208 1.0463488

block2.bnorm_2.bias f4 [15]
00000000: d6db 9f3a d885 c53d 27ae 083d c489 2bbc
00000010: 8148 9d3b 690b 5cbd 9c4b 9fbc 204c 223d
00000020: 6ded eabc 6b73 5d3d 6ad5 91bb 4f10 0b3c
00000030: da1e 99bd ac5e 8b3a fe1a ca3b
0.0012196254 0.09644669 0.03336921 -0.010469858 0.004799903 -0.05372182 -0.019445233 0.03962338
-0.028677667 0.05406515 -0.0044504898 0.008487775 -0.074765876 0.0010633073 0.0061677685

block2.bnorm_2.running_mean f4 [15]
00000000: f9f3 9ebe 476e 9ebe 8cb2 35bf bd66 c83d
00000010: d8e4 79bc f1f1 b8bd a402 babe e09a f0be
00000020: 1d16 ec3e 4fd3 ec3d 0e75 5a3e 86dd 55be
00000030: 7d54 fcbe 3a1a b33e 4e3d b8be
-0.3104551 -0.3094351 -0.70975566 0.09785221 -0.0152523145 -0.09030522 -0.3633014 -0.4699316
0.4611062 0.115637414 0.21333715 -0.20885286 -0.4928321 0.34980947 -0.35984272

block2.bnorm_2.running_var f4 [15]
00000000: 6be0 843f b9a9 663f 6853 da3f cf20 803f
00000010: 64e7 9c3f 1d83 883f 8dc3 5a3f 2b1e b33f
00000020: 21c4 a63f e53e 113f 3c99 3a3f 143a c33e
00000030: f25d 7e3f 6c4d a93f 9055 5c3f
1.0380987 0.90102726 1.7056704 1.0010012 1.2258115 1.0665013 0.85454637 1.3993582
1.3028604 0.56736594 0.7289007 0.38130248 0.993621 1.3226752 0.8606806

block3.conv_3.weight f4 [30, 15, 10]
00000000: e9f5 783d ee74 0e3c a00d 90bd 0e77 de3c
00000010: 066c e6bd 2631 33bd d52e 353d 73bd abbd
00000020: 470e c93c cc32 fc3c 20b2 603d aeff bebd
00000030: dfe8 50bd b215 903d 19d1 7bbd 80e8 483d
00000040: 0eae a23c 3b09 50bd de50 243d ada5 1dbd
00000050: 370a c63d 619b bf3c 8f1a fd3d d3ff 2cbb
00000060: 3be6 ab3d b6a3 a83d 141e ae3c a666 c9bd
00000070: eeea 92bc 3804 9bbd 7b17 d1bc 2c27 a8bd
00000080: 3199 e6bd 3834 813c 18c9 12bc c408 dabd
00000090: 1308 543d 129d 9c3d b4cc e33d 3db0 583d
000000a0: 5edd b3bd 5e72 72bd 5bff d7bd efd5 aebd
000000b0: afe8 5dbd 9cae 293d ccec 563d 299b 893d
000000c0: f89d 9c3d e1f0 2b3d b3a5 b5bd e561 a83d
000000d0: 5162 7bbd ad7c fc3c f231 9d3b d016 903c
000000e0: ffb8 59bb fb25 70bd a95f 1c3d 6723 b3bd
000000f0: a66c a0bd d8f5 7a3d 267a 463d a7f9 813d
00000100: b654 8ebd 34c8 cd3d ce74 003e b522 c5bc
00000110: c91c 24bd d33d c1bd 1aaa ab3d 18b0 50bd
00000120: a819 8cbd 5203 993c 508f a13d a7bc d93d
00000130: f8b3 ae3d abba 1c3d 6216 90bd a349 08bd
00000140: be60 613d 7691 273c d63a 343d e34b f7bd
00000150: 1ea3 473d bcd8 443d 40f9 f53c c39b 0fbd
00000160: a9ab ad3d d5ba 953d 4830 04be dd67 c0bd
00000170: 2f20 4cbd 517c b13d c6ba 8ebd 8833 c93c
00000180: 405e e5bd 7b3f 71bd 7b02 8abd 7ecc 423d
00000190: 28d3 febd d058 e8bd 881b 32bc 7bf2 333c
000001a0: 5c0b acbd d975 1ebd 1769 0bbc df82 c9bd
000001b0: 49c9 493d 2f36 a3bd c84d 83bd d64c f4bc
000001c0: 6bbc 843d 0d1c ae3d f690 19bd d1e8 25bd
000001d0: 37db 993b 120c 35bd d740 a0bb 82fe cd3c
000001e0: 8638 c7bd 0727 fa3d f374 723d 3f44 373d
000001f0: f11c 0bbe 401d b5bd 6ec4 c4bc 1397 82bd
00000200: 2d49 85bd a2d1 083e 3985 883d 3407 c63d
00000210: b4a4 73bd 5408 c03d 601f c13d 9fe6 973d
00000220: 8f9b 65bc 8e22 e0bb 820a af3b 7989 aa3d
00000230: cce4 fdbc 5793 4b3d e7ed 71bd 0b9d 8ebd
00000240: 041e e73c 6623 8dbd 90d6 c5bd 787a fd3d
00000250: 1d6b 70bc 8ef6 74bb 77c6 b63d 8816 e73c
00000260: d017 12bc 0edf c83c 1a01 81bd 60b9 153d
00000270: 44fe 883d 6511 fdbd f716 1ebe 69a7 51bd
00000280: 88e3 f33d f683 fcbb 7c7b 61bd 548e bfbd
00000290: fc5d a2bd 3488 923c f581 0c3d 0875 c9bd
000002a0: 873c d5bd 68ef 003d da03 cbbd bf1d 573d
000002b0: 333a acbc e8e5 533d 4179 d13d 883b 4dbc
000002c0: bd61 0dbd bf64 08bc 7c41 93bd c47b 68bc
000002d0: 0a64 c7bd f8e1 b23d 0cd3 81bd 7a8a 253d
000002e0: 8225 1d3d 8afd 7a3d 8c43 cabd 641b b4bc
000002f0: 387b 89bd 4361 3dbd cfc3 e9bd 26c1 bbbb
00000300: e599 70bc bcda 313d 5b2b e03c d485 38bd
00000310: 86ec ffbd 2f47 813d cd31 9ebd 6039 8fbb
00000320: 4ef8 543d 8bf2 383d 2310 e33c 5c8b e7ba
00000330: e866 b5bd 27d2 793d 73f8 8fbd 61cc db3d
00000340: 3bec aebd e3a8 093d 3d1f 8bbc b817 863d
00000350: fe61 bf3d bafa 87bc 6ce6 303d 4f85 133d
00000360: 89d5 1dbe 5ea0 8cbd b825 fbbd 92fc 833d
00000370: 90a9 aabd 811d 703d 69ef 393d 4567 383e
00000380: 3c3b 083c 1712 da3c 1d39 cc3d 9d1d 15be
00000390: 9e35 e73c 5b1b a53d 34fe 66bd 73ec ba3d
000003a0: 5fd7 243d 94de fbbd a962 423d 6004 a7bc
000003b0: c7d8 ab3d e63c c43d 215f d3bd b317 b13d
000003c0: 5446 943d a583 4a3d 2a32 123d 85ff 0c3d
000003d0: 7f09 ebbd 5776 00bd 1de1 8b3d 5a1a 3abc
000003e0: bd1a ecbd 1b1b 0fbe ab5a c9bd 1369 d8bd
000003f0: 557c c93c 8c68 97bb 1ed1 fbbd fc70 84bd
0.060781393 0.00869487 -0.07033849 0.02715638 -0.112510726 -0.043748043 0.044234116 -0.08385744
0.02454294 0.03078594 0.054857373 -0.09326111 -0.051003333 0.07035388 -0.061478708 0.049049854
0.019858386 -0.050790053 0.040116183 -0.03848808 0.09669917 0.02338952 0.12358581 -0.00263976
0.08393522 0.082343504 0.021254577 -0.09834032 -0.017934289 -0.07569164 -0.025523892 -0.082105964
-0.11259688 0.01577197 -0.008959077 -0.10646203 0.051765513 0.07647146 0.111230284 0.05290245
-0.08782457 -0.0591911 -0.10546752 -0.08536898 -0.054176982 0.041426286 0.05247192 0.067190476
0.07647318 0.041977767 -0.08869495 0.08221797 -0.06137306 0.030821169 0.0047972137 0.017589003
-0.0033221839 -0.05862997 0.038177166 -0.08746987 -0.07833223 0.06126961 0.048456334 0.063464455
-0.06949751 0.10047951 0.12544557 -0.024064401 -0.040066514 -0.0943562 0.08382054 -0.050949186
-0.06840831 0.018678341 0.07888663 0.10631686 0.0853042 0.038263958 -0.07035519 -0.03327335
0.0550239 0.010227552 0.044001423 -0.12075021 0.048739545 0.048058257 0.030026078 -0.035060655
0.08480007 0.07311026 -0.12909043 -0.0939481 -0.04983538 0.086662896 -0.06969218 0.024560705
-0.111996174 -0.05889843 -0.06738754 0.0475583 -0.124426186 -0.11345065 -0.010870822 0.010983105
-0.08400604 -0.038686607 -0.008508942 -0.09839415 0.049264226 -0.07969319 -0.0641132 -0.029821794
0.064812504 0.08501444 -0.03749176 -0.040505234 0.004695322 -0.044200964 -0.004890542 0.025145773
-0.09727578 0.12214475 0.059193563 0.04474282 -0.13585259 -0.088434696 -0.024019446 -0.06376471
-0.06508098 0.13361219 0.06666035 0.09669343 -0.059483245 0.093765885 0.094298124 0.07417034
-0.014014139 -0.0068400567 0.005341829 0.08327002 -0.030992888 0.04970106 -0.059064772 -0.06963547
0.028212555 -0.06891517 -0.09660065 0.12376875 -0.014673975 -0.0037378403 0.08924573 0.028208986
-0.00891681 0.024520423 -0.06299038 0.03655374 0.06689122 -0.12356833 -0.15438448 -0.051185045
0.119086325 -0.0077061607 -0.055049405 -0.09353319 -0.07928082 0.017887212 0.034303624 -0.09836775
-0.10411935 0.031478316 -0.09912844 0.052518602 -0.021023845 0.051732928 0.102282055 -0.0125264
-0.03451704 -0.008324801 -0.071902245 -0.014189664 -0.09735878 0.08734506 -0.06339082 0.040415265
0.03836585 0.06127695 -0.09876165 -0.021985717 -0.06712955 -0.046235334 -0.11414301 -0.005729812
-0.014685129 0.043421492 0.027364423 -0.045049503 -0.12496285 0.06312405 -0.077243425 -0.0043708533
0.051994614 0.045153182 0.027717656 -0.0017665434 -0.088575184 0.060991433 -0.0702981 0.107323416
-0.08541151 0.03360833 -0.016982669 0.06547493 0.093448624 -0.016599048 0.043188497 0.036015805
-0.15413488 -0.06866525 -0.12263054 0.06444658 -0.08333123 0.058621887 0.045394335 0.18008144
0.008314904 0.026619954 0.09971831 -0.14562078 0.028223809 0.08061858 -0.05639477 0.0912713
0.040244456 -0.12298313 0.04745737 -0.020387828 0.08390956 0.09581928 -0.10320879 0.086470984
0.072399765 0.049441952 0.03569237 0.03442337 -0.114764206 -0.031362858 0.06830046 -0.011358822
-0.115285374 -0.13975184 -0.09831747 -0.10566916 0.024595419 -0.0046206173 -0.12295745 -0.064668626

block3.bnorm_3.weight f4 [30]
00000000: bcec 863f 6ffb 893f 4963 813f 6a3e 853f
00000010: 5e0a 843f d7d1 833f 8c86 7e3f 7b33 7b3f
00000020: 0c7e 823f 6a0e 843f 72dc 783f 40a0 723f
00000030: 02d4 7e3f 6d20 883f b048 853f e97a 803f
00000040: 4eba 873f 4c95 823f 76e2 7d3f aa33 873f
00000050: baa8 803f 117b 8a3f 5ce7 703f 5aa7 813f
00000060: 802b 743f fbe8 8d3f 3ebc 833f 7f93 733f
00000070: 158a 813f bda0 853f
1.0540996 1.0779856 1.0108424 1.0409672 1.0315664 1.0298413 0.9942405 0.9812543
1.0194716 1.0316899 0.9721137 0.9477577 0.9954225 1.0634896 1.0412807 1.0037509
1.0603731 1.0201812 0.99173677 1.0562642 1.0051491 1.0818807 0.94103026 1.0129197
0.95378876 1.1086725 1.0291822 0.95146936 1.0120264 1.0439678

block3.bnorm_3.bias f4 [30]
00000000: b140 3a3b 9e47 e6bb 62a8 a2bc ef2d 2ebb
00000010: 4ae7 47bc ac47 323d d5f4 2bbc 9ddf a1bc
00000020: 47c4 bf3c 122a cdbd 0e5f 06bd 3c6d f0bc
00000030: 266f c3bd 12d1 7cbd 7653 39bd 5efb 16bd
00000040: 1658 de3c ba1e e8bc 28fc 67bd 8690 d8bc
00000050: 78a7 7dbd b361 833c 7d88 f8bc 9f8d 90bc
00000060: e9c7 2fbc 9a06 7b3d 06fc 8cbd 5279 40bd
00000070: b187 4fbc c843 893d
0.0028419907 -0.0070275804 -0.019855682 -0.0026577672 -0.01220114 0.043525383 -0.010495384 -0.019759947
0.023409022 -0.1001779 -0.032805495 -0.029348962 -0.09542684 -0.061722822 -0.04524561 -0.036860816
0.027141612 -0.028334964 -0.05663696 -0.026436102 -0.06192729 0.016037798 -0.03033852 -0.017645655
-0.010728815 0.061285593 -0.06884007 -0.0469907 -0.012666629 0.06702381

block3.bnorm_3.running_mean f4 [30]
00000000: 3ea7 15be 3022 43be 6337 adbe 1c1a 25be
00000010: 0d24 91bd df0f 96be 7857 ccbe 0e05 a63d
00000020: b531 fcbe 21f5 13bf dad7 c23d 78e3 20be
00000030: 2719 31be b368 93bd f148 87be 4f1a 9fbe
00000040: 3a19 5ebe 5750 e2be 9688 dbbe 140b a1be
00000050: a948 61be 4f21 10be b64b 64be 0e81 2bbf
00000060: 62fe b03e d700 8cbe 9930 42be 5333 843e
00000070: c182 85be 0fbb df3d
-0.14614579 -0.1905601 -0.3383132 -0.16123241 -0.07086954 -0.29308984 -0.39910483 0.08106433
-0.49256673 -0.5779591 0.09513827 -0.15711772 -0.17294751 -0.07197704 -0.26422837 -0.3107476
-0.2168931 -0.4420192 -0.42877644 -0.31453764 -0.22000374 -0.14075206 -0.22294506 -0.66993797
0.3456908 -0.2734439 -0.18963851 0.25820407 -0.2607632 0.109243505

block3.bnorm_3.running_var f4 [30]
00000000: f8eb bc3e a51f 853e d588 633f 2aeb 983e
00000010: 5983 733e 5a37 943e 36f3 b43e 439e 183f
00000020: dc32 c83e 7e09 c83e 3c2e da3e 148d e63e
00000030: 78b0 903e 84db d03e 6396 b93e f2d2 543f
00000040: ade9 c43e 109b f03e 08c9 df3e 5563 b23e
00000050: 8510 513e 7853 b23e 3001 eb3e 0139 2c3f
00000060: d5c8 e33e 8d64 7c3e f58c 2f3e 10a0 fb3e
00000070: a475 ad3e 6cc4 e23e
0.3689878 0.26000705 0.88880664 0.29866916 0.23780574 0.2894848 0.35341805 0.5961649
0.39101303 0.39069742 0.426134 0.4502951 0.28259635 0.40792477 0.36247548 0.83134377
0.3845953 0.46993303 0.43708062 0.3484141 0.20416458 0.34829307 0.45899343 0.6727448
0.4448916 0.24647732 0.17143615 0.49145555 0.33878815 0.44290483

block4.conv_4.weight f4 [30, 30, 10]
00000000: 5e03 3eba 2c30 b43b 0c62 223d 5f2c 21bd
00000010: e50a f83d 6b89 c83b 5c4d a03d 84cd a33d
00000020: 64c3 c63d 30f9 cabc ce0c 36bd ed4b acbd
00000030: c25a a83d 8b76 75bd 7f99 243d a3ce 4bbd
00000040: 09f7 f3bc 4c86 31bd 25e6 86bd 2e4b 72bc
00000050: af02 4b3d a102 963d d559 abbd b59d 8ebd
00000060: 97b2 1f3c 9cf3 28bd 4a34 afbd ff33 91bd
00000070: 165b f9bc 2dfe a7bb 418e 84bc 77cc 9cbc
00000080: 3ee7 4fbd 9d49 df3d 0395 b1bd 9736 7dbd
00000090: cda4 6e3d 49af 8539 c205 cabc 2d60 b23d
000000a0: 5487 a13c fc1c 003e 725f d9bd d665 303d
000000b0: 71cc 603d eb40 c13d 316a 7a3d 55be 5b3d
000000c0: 0208 a5bd 577d 05bd 2e45 233d d3b5 393d
000000d0: 1494 573d 2bf5 4d3d 134a c1bd a3bd f2ba
000000e0: cff9 193c 27d5 883c 0d8b 943d 2c85 223d
000000f0: 5831 673d 41be 53bc a90a d03d c4f1 323d
00000100: 4b28 9ebd f8a9 b13d d659 13bd 7172 f6ba
00000110: aae7 8abc 421c a13b fff1 3c3b 5116 793d
00000120: 68bb f6bc 58cd 913b 9d87 ed3c 4348 883d
00000130: 8ccb 07bd 06ed d6bb 10a5 74b9 8493 b7bb
00000140: 2372 03bc b1d8 ecbd 83fe a73d e17e fbb9
00000150: 2c00 75bd bf4a b03d e4ab bd3d cf8d 063d
00000160: 50f3 8e3c bf33 ef3d 2fc9 3e3d 1b63 0f3e
00000170: fd51 a43d 940f c3bd 3413 aa3d 43ba 0cbd
00000180: 00f5 53bc 7e27 b6bc 6155 88bd a155 613d
00000190: 4ae4 01bd 1641 f6bc baca 9b3b b090 c3bd
000001a0: 6f5c 92bd bba1 bd3b 78e3 693d 76c3 9a3d
000001b0: 0574 3cbd e2f0 8cbc fd1c b33c 2525 8fbd
000001c0: 6c10 82bd 7e01 5dbd 5409 c83c cb68 eabc
000001d0: cad1 4c3c a82d be3d cc57 59bd 4229 513d
000001e0: 6d15 753d 8a57 95bd f952 c1bc 1dd7 a5bd
000001f0: 76cd 0b3d 20aa 7c3d 08a8 9d3c eb7a d8bd
00000200: 1684 5cbc acd0 353d 6848 babd a7cb 61bd
00000210: aa5e eebd 9239 32bd 2aa3 3dbd cee8 fc3c
00000220: 48d9 393d d04e c1bd 8778 123d 2ec9 1d3c
00000230: cae0 9cbd 7227 81bd d4e1 24bd 20bf 53bd
00000240: 8e0c 97bd 4237 eb3d 5895 c7bc ef5b 013c
00000250: a2cc 8e3d 8435 043c 751d 2e3d 521e f43c
00000260: 93e2 a03d 4c67 093d b646 b83d 3e41 b83c
00000270: 3d7c b13b e779 97bd e767 8f3c 3b3c 7dbd
00000280: 6102 cbbb d2ae 363c d143 823d a912 3ebd
00000290: 9ce5 cdbd f307 933d e13e 1f3d 19c6 58bb
000002a0: acf5 5e3d 4d62 2c3d 272d c5bd f70f bebd
000002b0: f976 6e3c 10c3 d1ba 1f34 a03d b91b f63d
000002c0: 2afb b23d 732b fbbd 36a0 a53d 9366 553c
000002d0: 4818 233e 8ebe b5bd 8a16 76bc 2ede e83d
000002e0: 57df 4e3d 1905 413d 1ab6 b3bd e628 e9bb
000002f0: 74e4 903d 3a9c 863c 0d53 5bbd 57de be3d
00000300: e93d a83c f582 4abd 11bb 95bd b87d 49bc
00000310: 4259 4cbd 97bf ebbb 2790 afbc dbae 17bc
00000320: f09a cf3b 2a83 f23c 107a a8bc 5107 38bd
00000330: ce6a 06bd 87b9 c7bd d303 83bd 605b a13d
00000340: 9eb6 153c 8fbf 4b3d 1f39 9fbd 6b94 76bd
00000350: 3fd0 f13d 8f92 a93d 0dec f23d d477 09bb
00000360: af2d 47bd b18c 70bd 0542 76bd b636 76bd
00000370: 1f4b 793d cedf 0bbd 1ee8 18bd e200 af3c
00000380: 4486 d9bc 1158 a3bd 40dd b03d 096f 8b3d
00000390: 843b b03d baaf 08bd 2856 863d f665 95bd
000003a0: 25dc d93c 52ca 873c 5d83 773d 3144 4ebd
000003b0: 22d9 333d d1d7 edbc 1f0c 8f3d 8c47 033e
000003c0: 058e 8cbd 5479 af3d f5b7 953d 701f 913c
000003d0: 3458 9ebd 16a5 9d3d 8b82 e7bc 9957 2e3d
000003e0: af7e 283c 107b d13d 0d50 a7bd 2729 0fbd
000003f0: 17c3 883d e171 afbd 09e2 a7bc b569 16bc
-0.00072484266 0.0054989066 0.039644286 -0.039348956 0.12111453 0.006119897 0.07827255 0.07998183
0.097052366 -0.024777025 -0.044445805 -0.08412919 0.08220436 -0.059927505 0.040185448 -0.04975761
-0.029780881 -0.043340966 -0.06586865 -0.014788432 0.049563106 0.0732472 -0.083667435 -0.06963674
0.009747169 -0.04124795 -0.08554895 -0.070899956 -0.030438941 -0.0051267357 -0.016181113 -0.019140465
-0.05075764 0.109027125 -0.08671 -0.06181964 0.058262635 0.00025498334 -0.024660949 0.0870975
0.01971785 0.12511057 -0.10613908 0.04306587 0.05488247 0.0943621 0.06113643 0.05364831
-0.08058168 -0.032590237 0.039860897 0.045339417 0.052631453 0.05028264 -0.09437957 -0.0018519651
0.009397938 0.016703201 0.07253084 0.039677784 0.056443542 -0.012923778 0.10158283 0.043687597
-0.07722529 0.08674997 -0.035974346 -0.0018802417 -0.01695617 0.0049166987 0.0028830764 0.0608123
-0.03011866 0.0044495277 0.02899533 0.06654408 -0.0331531 -0.006559017 -0.00023331144 -0.005602302
-0.008022818 -0.11564768 0.08202841 -0.00047968983 -0.059814617 0.08608007 0.09261301 0.032850083
0.017450005 0.11679792 0.046578582 0.1400265 0.080234505 -0.09524456 0.08304444 -0.03435732
-0.0129368305 -0.022235628 -0.0665691 0.055013303 -0.031711854 -0.030060332 0.0047543915 -0.09549081
-0.071465366 0.005787102 0.057101697 0.075568125 -0.046009082 -0.017204706 0.021864409 -0.06989507
-0.063507885 -0.0539565 0.02441851 -0.028614422 0.0125011895 0.09286052 -0.053062245 0.051064737
0.059834886 -0.072920874 -0.023599135 -0.0809767 0.03413149 0.06168568 0.019245163 -0.1057032
-0.013459226 0.044388458 -0.09095842 -0.05512586 -0.116391495 -0.043511935 -0.046298184 0.030872729
0.04537323 -0.094388604 0.035759475 0.0096304845 -0.076600626 -0.06306352 -0.04025443 -0.051695943
-0.073754415 0.11485149 -0.024363205 0.007895454 0.06972624 0.0080694 0.04250856 0.029799614
0.078557156 0.033545777 0.08997862 0.022492047 0.0054164217 -0.07396298 0.0175056 -0.06182502
-0.006195352 0.011150079 0.06360591 -0.046404514 -0.1005356 0.071792506 0.038878325 -0.003307706
0.05443351 0.042085934 -0.09627753 -0.09280389 0.0145547325 -0.0016003568 0.07822441 0.120170064
0.08739312 -0.12264147 0.080871984 0.013024944 0.15927231 -0.08874236 -0.015020022 0.113705024
0.050505962 0.047124002 -0.087749675 -0.007115471 0.07074824 0.016431917 -0.053546 0.09319752
0.020537334 -0.049441297 -0.07311071 -0.01229804 -0.04988981 -0.00719447 -0.021431042 -0.009257997
0.0063356087 0.02960356 -0.020566016 -0.044928852 -0.0328167 -0.097521834 -0.06397214 0.078787565
0.009137778 0.04974323 -0.07774567 -0.060200136 0.11807298 0.08279907 0.11861429 -0.0020975964
-0.04862755 -0.058727924 -0.060121555 -0.06011077 0.060862657 -0.034148984 -0.03733074 0.021362726
-0.02655328 -0.07975782 0.0863595 0.06808288 0.08605102 -0.03337071 0.06559402 -0.07294838
0.02659423 0.016575966 0.060428012 -0.050358 0.043908246 -0.029033573 0.06984734 0.12820262
-0.068630256 0.085680634 0.07310478 0.017715186 -0.07731667 0.07697503 -0.02826049 0.04256401
0.01028411 0.102285504 -0.08169565 -0.034951355 0.066778354 -0.085666426 -0.020493524 -0.009180476

block4.bnorm_4.weight f4 [30]
00000000: 5d46 843f f0e6 883f 95e2 843f 8109 843f
00000010: a827 863f 96db 8a3f e223 8b3f ffe0 833f
00000020: 0166 853f 7f15 863f d39e 883f b6a5 813f
00000030: d135 843f 6fc7 803f f194 893f 0b82 873f
00000040: 282b 873f 9de1 833f 005c 873f 50d5 893f
00000050: c130 893f 4931 893f 0329 9f3f 2e98 813f
00000060: 69ba 823f a732 813f 91f6 8a3f 983c 8a3f
00000070: 58f8 883f 6ad2 813f
1.0333973 1.0695477 1.0381647 1.03154 1.0480852 1.0848262 1.0870326 1.0303038
1.0421754 1.047531 1.0673469 1.0128696 1.0328923 1.0060862 1.0748578 1.0586561
1.0560045 1.0303227 1.0574951 1.0768223 1.0718004 1.0718166 1.2434391 1.0124567
1.0213138 1.0093583 1.0856496 1.0799742 1.0700788 1.0142338

block4.bnorm_4.bias f4 [30]
00000000: f8ab abbc c4f8 e23b f4ee 8bbc 342a 00bc
00000010: fdaa bcbb ee0f 1eba acd5 c0ba b758 61bc
00000020: 8d1a f83b 3f8a ccbb a61e 32bc 8f24 7dbc
00000030: 7841 9fbc a9f6 45bc b385 133b 25e1 dc3b
00000040: e6e7 e3bb c9a7 c2bb 1329 14bc 9c84 243c
00000050: b034 72bb 8d07 2b3c 0e05 313d c457 58bc
00000060: d2a9 dfbb 26c8 95bc b013 e33b 378d 133c
00000070: 6810 5fbc 5eef 97bc
-0.020956025 0.006926628 -0.017081715 -0.007822562 -0.005757688 -0.00060295954 -0.0014712117 -0.013754061
0.0075715245 -0.006242066 -0.010871565 -0.015450611 -0.019440398 -0.012082734 0.002251011 0.0067407065
-0.0069551347 -0.0059404117 -0.009042996 0.010041382 -0.0036957674 0.010438812 0.04321771 -0.013204519
-0.006825664 -0.018283915 0.006929837 0.009005836 -0.013614751 -0.018546756

block4.bnorm_4.running_mean f4 [30]
00000000: c768 023f d685 2abe c3c1 a43e b437 f3bd
00000010: ce1c 4b3e f325 0e3e 1aa1 023e bde2 af3e
00000020: 7b4e 19bd 0584 ba3e 9943 c63e 4775 a23c
00000030: 3f8c d13e cfd8 b4be c649 4ebc 3ee2 adbe
00000040: 02c8 31bd 3dd8 c33e ed2d 8a3e abd6 793e
00000050: 4363 253f 624c a6bd 66b4 523e d797 f6be
00000060: d7e3 8b3d a573 86be 1862 e13e 0e30 3bbe
00000070: 0c3b 043f 00e9 063f
0.5094113 -0.16652617 0.32179078 -0.11875859 0.19835207 0.13881664 0.12756768 0.34352675
-0.03742836 0.36428848 0.38723448 0.019831313 0.40927312 -0.35321662 -0.012590831 -0.33961672
-0.043403633 0.38250914 0.26988164 0.24398296 0.64604586 -0.081200376 0.20576629 -0.4816272
0.068305664 -0.26260105 0.44020152 -0.1828005 0.516526 0.5269928

block4.bnorm_4.running_var f4 [30]
00000000: 4508 953e 1f94 df3e c293 8a3e 7ead 593e
00000010: 8560 973e 025b 913e fcda b53e 332b cb3e
00000020: 9065 f53e 9a5a 9c3e e727 643e 689b 763e
00000030: e668 ca3e ef9d e03e 1001 ee3e e613 e23e
00000040: ffbe 013f fbad d73e baea 9d3e fe8c 9b3e
00000050: ed6c c83e d366 be3e 1c50 533e 0afe b33e
00000060: c5f6 9e3e 735c 0e3f 9e5f a13e 6a68 d73e
00000070: 671e c23e 2725 203f
0.29107872 0.43667695 0.27065855 0.21257588 0.29565826 0.28389746 0.35518634 0.39681396
0.4792905 0.30537874 0.22280847 0.2408272 0.39533156 0.43870494 0.46485186 0.44155806
0.5068206 0.42124924 0.30843145 0.30381006 0.39145604 0.37187824 0.20636028 0.35154754
0.31047645 0.55609816 0.31518263 0.4207185 0.3791382 0.6255669

conv_channel_res.weight f4 [1, 30, 3]
00000000: 09af 0abc ad6d 91bd 8fa4 9abd 57db 133b
00000010: 605c c03d 90a5 b73d f526 4ebd 38a9 13be
00000020: d7d0 30bd 2582 05be e8ff f6bd e4cb 02be
00000030: ffde f7bd 880a 11be da6d 14be a8f7 02bd
00000040: 87aa 293e 2955 313e 8f58 0c3e 6cb2 a1bc
00000050: 171c c73d 4a8f 11bd 3cdc 99bd 1877 efbd
00000060: 23a2 833c fa43 5d3d 62ad 713d 778f ecbd
00000070: f355 a3bd 35b3 22be bfc0 803d 5fe5 f6bd
00000080: 12a9 b7bc 221f 38bd efeb c8bd 82b9 73bd
00000090: 9c1d 673a 9a19 3ebd d1d9 eabd 25b9 b5bd
000000a0: 852a a3bd 403f c9bd ff9d 33bc f3e0 063e
000000b0: baa9 223e e6e9 d43b bdbd a63d 5c26 fc3d
000000c0: 2b7d 26bc 42b4 dabd 74e1 0cbe c397 50bd
000000d0: 0ee3 ecbc 75e9 ebbd 7bf7 fabd d2a2 813d
000000e0: 8b9a 72bd 58cf 043d 8e33 273e 3fe4 163e
000000f0: bbf1 de3d 0915 0f3e a16a 743d 6979 e03d
00000100: fb69 183d e953 163e dcbb 0c3e 5ff3 aabd
00000110: 759a 58bd 5322 39bd debf e5bd 5bc3 153d
00000120: 09bf a63c c372 edbd a43b 15bd ff90 55bd
00000130: 28d4 78bd 099c f0bd 0f40 773d 5a16 0abc
00000140: c92d f0bd e866 e8bb a725 fe3d df89 c03d
00000150: b7c1 0a3e 72bb d43d 2963 813d a078 a1bd
00000160: 9e43 ef3b 7f32 81bd
-0.008464583 -0.07100997 -0.07550918 0.0022561157 0.09392619 0.089671254 -0.05033012 -0.1442002
-0.043167915 -0.13037927 -0.12060529 -0.1277309 -0.1210308 -0.14164174 -0.1449503 -0.031974465
0.16568957 0.17317642 0.13705657 -0.019738398 0.097221546 -0.03553704 -0.075127095 -0.11692637
0.016068524 0.054019906 0.05900324 -0.11550801 -0.07975378 -0.15888675 0.062867634 -0.12055468
-0.022419486 -0.044951566 -0.09810626 -0.059503086 0.0008816363 -0.046411134 -0.114673264 -0.08873204
-0.07967094 -0.09826517 -0.010962962 0.13171749 0.15885058 0.0064976094 0.081416585 0.12312004
-0.010161678 -0.10678913 -0.13757879 -0.05092598 -0.028916862 -0.11519138 -0.122542344 0.06329884
-0.059229415 0.0324243 0.1632826 0.14735506 0.1088595 0.13972868 0.059672 0.10960657
0.037210446 0.14680447 0.13743538 -0.083472006 -0.052881677 -0.04519875 -0.112182364 0.03656326
0.020354765 -0.11594155 -0.03643383 -0.052140232 -0.060749203 -0.11748511 0.060363825 -0.008428181
-0.11727483 -0.0070923455 0.12409525 0.09401297 0.13550459 0.10387315 0.063177414 -0.078843355
0.007301762 -0.063084595

classifier_conv.weight f4 [32, 1, 35]
00000000: a07c f3bc d3b5 4fbd 5103 9f3c 169e 43bd
00000010: 734d 553c a929 eabd 5ba2 0abe 429e c5bd
00000020: a924 8bbd 18f1 b3bd 3340 26be bda5 c5bd
00000030: 32e8 2cbe 028b 0cbe c05d 68be 525f 57be
00000040: 68ca 5abe cc91 4cbe 8a1d 81be 2228 5dbe
00000050: 0a38 73be 9f9c 37be 9816 9fbe a857 97be
00000060: abdf 33be 422b 85be 3c73 7cbe 30f1 a6be
00000070: e5fc 8fbe b14a bfbe 31b5 1b3e 5807 e7be
00000080: 89ee 893e 9b9a 80bd 3ece dd3d 77f7 a93c
00000090: b181 203d fa91 a5bc c9d5 b93d 4ee2 5e3d
000000a0: b7e5 9a3c ab8c 913d af72 d33d b191 9d3d
000000b0: cea3 2f3e 0376 983d 4d64 4e3e 31ed 303e
000000c0: 048d 703e ab2b 853e 2279 4f3e 6010 6b3e
000000d0: e362 753e 1a86 9e3e 3cad a73e 6242 593e
000000e0: 34be 5b3e 5150 b43e 27f6 863e 01fd 883e
000000f0: 1691 af3e ebfb b73e 004c b83e c3cc 7b3e
00000100: c01b eb3e 29b6 25be 1164 053f 76e1 acbe
00000110: 60e2 2f3e b3ba 26be f6cb 763c 5c01 0a3d
00000120: fedb 1cbd 144d 56bd 5f36 b8bd 4a56 96bd
00000130: 5329 ddbd 2916 31bd 3570 eebd 9fa4 04be
00000140: 9448 30be 26fb 4bbe 77e7 39be 0fd6 f1bd
00000150: 2247 34be dbd6 1bbe 3eb9 5cbe 7f0f 87be
00000160: f157 7dbe e948 3dbe accb 7abe ce3d 58be
00000170: 3208 a3be 0c92 91be af38 6cbe 5ea1 80be
00000180: 7bf8 96be 747d b4be 3886 63be 5a4f d1be
00000190: a008 343e 4863 efbe abf4 953e 1b67 4dbd
000001a0: e31e 103e a089 a9bc 9763 9bbc 7720 093d
000001b0: ad09 b8bd f07b 213d fe70 0dbe e20d ffbd
000001c0: 06a9 22be 692a 44be 158b 35be 72cb 0cbe
000001d0: 3837 c7bd e7e9 5cbe 8c38 40be 77de 56be
000001e0: e1b2 80be 1eb6 64be cbe4 4cbe d145 8cbe
000001f0: da6c 96be 931d a7be d8a3 7cbe fef6 96be
00000200: 73c0 72be a054 88be c71e d1be fe61 cabe
00000210: 44ae 9bbe 0526 87be 0b05 bebe b95e f93d
00000220: 3733 00bf 54be 933e f356 febd 59c1 763d
00000230: 1fdf bbbd 8476 6abb c360 aa3b 218e 94bc
00000240: d1d8 8cbd 5270 8dbd 1e0a 6dbd fe0d 22be
00000250: f4b9 15be a795 dcbd 1ac0 39be ddc1 28be
00000260: d969 51be 42d8 4fbe b507 7cbe 0e0a 23be
00000270: b06b 89be 070c 8fbe 2f7e 7ebe 2269 8bbe
00000280: ac1e 51be 4613 5dbe 6fa4 cebe 232c 5ebe
00000290: da52 9abe 1b30 95be 4089 9cbe e650 bbbe
000002a0: 828b aebe 8f7c cebe 3f1b 3e3e 5057 01bf
000002b0: 9192 9b3e cf82 1abe 3967 053d 2eac e83d
000002c0: 135d 4c3d fc49 333d 90e2 403c e9e5 8dbb
000002d0: 0717 fb3b 4053 123e 6672 f23d c852 193e
000002e0: f933 183e aa8e 293e 63c8 433e f276 383e
000002f0: 935c 563e cf30 803e c523 023e f78e 6e3e
00000300: 8d82 1f3e 5cb7 443e 3519 8f3e 5b8f 7e3e
00000310: 54bf 943e 815f c33e f512 453e 4ffe 5f3e
00000320: d604 a33e 7303 ca3e d87b a63e 040d 753e
00000330: 282d cd3e 9908 2bbe 1de6 d13e de59 70be
00000340: b7d6 e13d 3fac 9bbc b4a4 a7bd aa56 85bd
00000350: c74c 1cbd 481c 30bd ce04 b2bc b400 07bd
00000360: 3b80 f7bd ac0f 08be 8a3a 90bd a153 cebd
00000370: 3bc1 acbd e852 40be 81e7 4bbe 3340 aabd
00000380: 76f2 2fbe bdf2 9dbd fa85 85be a003 07be
00000390: 74c1 8abe 2743 77be 2e66 90be d98b 81be
000003a0: a3ae 84be 0fa8 47be f16a 1abe b909 93be
000003b0: 2dc7 91be 315d 4abe 2a77 62be 7d7d d4be
000003c0: aa49 233e 6eba b8be 37dd 933e 8065 8dbd
000003d0: a509 383d 4a7d 80bd 8ea8 a4bd f70e 2d3d
000003e0: 7aa3 f5bd 269b 72bb 9192 97bd 2fa7 ebbd
000003f0: 764f 2cbe d68d aabd 6bf7 0cbe 78d3 0bbe
-0.029722512 -0.05071051 0.019410761 -0.047758184 0.013018954 -0.11433727 -0.13538496 -0.09649326
-0.06794102 -0.08786219 -0.16235428 -0.09650753 -0.1688545 -0.13724902 -0.22692013 -0.21032456
-0.21366274 -0.19977492 -0.2521785 -0.2159734 -0.23751846 -0.1793084 -0.31071925 -0.29559064
-0.17565791 -0.26009566 -0.24653333 -0.32605886 -0.2812263 -0.37361673 0.15205838 -0.4512279
0.269398 -0.06279489 0.10830353 0.020747883 0.039186183 -0.020211209 0.090739794 0.05441504
0.018908365 0.071069084 0.103246085 0.07693804 0.1715233 0.07444384 0.20155449 0.17277981
0.23491293 0.2600988 0.20261052 0.22955465 0.23963504 0.30961686 0.32749355 0.2121673
0.21459275 0.35217527 0.26359674 0.26755527 0.3429038 0.35934386 0.35995483 0.24589829
0.4591961 -0.1618277 0.52105814 -0.33765763 0.17176199 -0.16282158 0.0150632765 0.033692703
-0.03829574 -0.0523196 -0.089947455 -0.07340677 -0.107988976 -0.043234024 -0.116424955 -0.12953423
-0.17215186 -0.19920024 -0.18154703 -0.118084066 -0.1760526 -0.1521868 -0.2155504 -0.2637901
-0.24740578 -0.18484844 -0.24491757 -0.21117327 -0.3184219 -0.28431737 -0.23068498 -0.25123113
-0.2948645 -0.35251963 -0.22219169 -0.40880853 0.17581415 -0.46755433 0.2928823 -0.050147157
0.14074282 -0.020695508 -0.018968387 0.033478227 -0.089862205 0.039424837 -0.13812634 -0.1245382
-0.1588479 -0.19156803 -0.17728837 -0.13749483 -0.09727329 -0.21573602 -0.18771571 -0.20983301
-0.25136474 -0.22335097 -0.20009153 -0.27397016 -0.29379922 -0.3263975 -0.24671876 -0.29485315
-0.23706226 -0.26627064 -0.40843794 -0.39527887 -0.30406392 -0.26396194 -0.37113222 0.1217627
-0.5007815 0.28856146 -0.12418928 0.060242984 -0.09173416 -0.0035776207 0.005199523 -0.018134179
-0.06877292 -0.06906189 -0.057870977 -0.1582565 -0.14621717 -0.107707314 -0.18139687 -0.16480203
-0.20450534 -0.2029734 -0.24612315 -0.15921804 -0.26839972 -0.27938864 -0.24852823 -0.27228647
-0.20421857 -0.21589383 -0.40359828 -0.21696524 -0.30141336 -0.29138264 -0.30573463 -0.36585158
-0.3409081 -0.40329406 0.18565081 -0.50523853 0.3038526 -0.15088962 0.032569144 0.11360966
0.04989345 0.04377173 0.011772767 -0.004330386 0.007662657 0.1428957 0.11838226 0.14972985
0.14863576 0.16558328 0.1911941 0.18014124 0.20933752 0.25037238 0.12708957 0.23296724
0.15577145 0.19210571 0.2794892 0.24859373 0.29052222 0.381588 0.19245513 0.21874355
0.31839627 0.39455757 0.3251636 0.23930746 0.40073514 -0.16702498 0.40995875 -0.23471782
0.11027282 -0.019003032 -0.081857115 -0.065106705 -0.038159158 -0.04299572 -0.021730807 -0.032959655
-0.12085005 -0.13287228 -0.070424154 -0.10074545 -0.08435293 -0.18781626 -0.1991253 -0.08313026
-0.17182335 -0.07712314 -0.26078779 -0.13184977 -0.27100718 -0.2414671 -0.28202957 -0.25302008
-0.25914487 -0.19497703 -0.15079857 -0.28718355 -0.28472272 -0.19762112 -0.2211577 -0.4150199
0.1594607 -0.36079735 0.2887971 -0.06904125 0.044931073 -0.06273897 -0.08039962 0.0422506
-0.11994071 -0.0037018745 -0.07401002 -0.11506497 -0.16827187 -0.08327834 -0.13766257 -0.13654888

classifier_conv.bias f4 [32]
00000000: b059 893c d44f a9bc 8101 c03c ac2c c73c
00000010: 7cf8 0c3d fe1c d7bc 8840 8d3c dcab b53c
00000020: f092 a33c 300f a63c 419a d23c 8070 90bc
00000030: ec73 94bc dbb7 b0bc bd2b a2bc 0ecb debc
00000040: a777 9f3c c281 bd3c eda2 ad3c 579b b33c
00000050: 596c cfbc 2889 eebc 742c ddbc d122 c0bc
00000060: c9e6 903c 95c1 c73c 2ec0 dc3c 6b0e b73c
00000070: ac1a 03bd ef0e d03c ac9b a83c fefc c0bc
0.0167664 -0.020667948 0.023438217 0.024313293 0.03441666 -0.026258942 0.017242685 0.022176675
0.019967526 0.020270914 0.02570832 -0.01763177 -0.018121682 -0.021572044 -0.019796247 -0.027196433
0.019466234 0.023133162 0.021195853 0.021924658 -0.025320219 -0.029118136 -0.026998736 -0.023454102
0.017688172 0.0243843 0.026947107 0.022345742 -0.03200786 0.025397746 0.020582043 -0.023558136

fc.weight f4 [2, 32]
00000000: 3a67 ba3d ccc8 afbd 8781 c03d 6073 a83d
00000010: d48a b23d d7f7 afbd 53aa b23d f164 b53d
00000020: dd2b ba3d 4068 bb3d adaa b63d a8de b2bd
00000030: cab0 aebd e500 b6bd e9a7 b1bd e4c7 b6bd
00000040: 8ea9 b93d 33bf b83d 6ba1 b83d 1182 b63d
00000050: e277 a7bd 3258 b4bd fab1 b1bd 8f0a bebd
00000060: 7edd b33d 2038 af3d af6d bc3d 6b48 b23d
00000070: 9e39 b8bd a62e b13d fda6 b83d f2fe b2bd
00000080: 1e85 babd a6ef af3d 23b1 c0bd e2b0 a8bd
00000090: 7d79 b2bd a7e0 af3d 83bf b2bd 7b61 b5bd
000000a0: 754b babd c45d bbbd e5b3 b6bd c2cc b23d
000000b0: 08c5 ae3d 3cd1 b53d 4196 b13d a9a5 b63d
000000c0: 65a3 b9bd 1fa3 b8bd dcc8 b8bd ce59 b6bd
000000d0: 94a7 a73d d056 b43d 63c4 b13d 0223 be3d
000000e0: 12e9 b3bd 701a afbd 4473 bcbd 1238 b2bd
000000f0: f0f9 b73d 901d b1bd 24bf b8bd 15c8 b23d
0.0910172 -0.08583221 0.093997054 0.08225131 0.087178856 -0.085921936 0.08723893 0.08857144
0.090903975 0.091507435 0.089192726 -0.087338746 -0.085298136 -0.08886889 -0.086746044 -0.08924845
0.09065543 0.09020843 0.09015163 0.08911527 -0.08177163 -0.088058844 -0.086765245 -0.09279358
0.08782481 0.08555627 0.09200608 0.08705219 -0.089953646 0.086514756 0.090162255 -0.08740033
-0.09107421 0.08590631 -0.09408786 -0.08236863 -0.08714578 0.08587771 -0.08727934 -0.088564835
-0.090964235 -0.09148744 -0.08921031 0.08730461 0.085336745 0.08877799 0.08671237 0.08918316
-0.09064368 -0.09015488 -0.09022686 -0.08903848 0.0818626 0.08805621 0.08680036 0.09284021
-0.08784689 -0.085499644 -0.09201673 -0.08702101 0.08983219 -0.08648217 -0.09020832 0.08729569

fc.bias f4 [2]
00000000: c399 ea3c 199a eabc
0.028637772 -0.028637933
