submit_entry/checkpoints/Combined_edgcn_12s_slice_norm/PRA/2/best.pth (torch_old, 216618 bytes, 27 tensors)

conv_time.weight f4 [45, 1, 10]
0	0x3d817696	0.063214466
1	0x396d8db6	0.00022654873
2	0xbae778cd	-0.0017659903
3	0xbc3094c5	-0.010777657
4	0x3c04a569	0.0080960775
5	0x3d79dbda	0.061000682
6	0xbd43c374	-0.04779382
7	0xbd85ddfa	-0.06536479
8	0xbd98d4f3	-0.07462492
9	0xbd02d79b	-0.0319439
10	0x3d423622	0.047414906
11	0x3cb1b282	0.021691564
12	0x3d35a9b4	0.044351295
13	0xbc8fbe13	-0.01754669
14	0xbd185a4c	-0.03719549
15	0xbbe52051	-0.006992378
16	0xbc8e3f47	-0.017364157
17	0x3d8ccf09	0.06875426
18	0x3cfad231	0.030617805
19	0x3caeb10a	0.021324653
20	0xbcd418d9	-0.025890755
21	0x3d604ad6	0.05475887
22	0xbd8729b4	-0.06599751
23	0xbd858a53	-0.06520524
24	0xbdb0e7ee	-0.08637987
25	0x3d5c10d2	0.05372698
26	0x3d256aca	0.040385045
27	0xbda1f76c	-0.0790852
28	0xbda28814	-0.07936111
29	0xbd1911f2	-0.03737063
30	0xbdac11fd	-0.084018685
31	0x3db9ea54	0.09077898
32	0xbc97518b	-0.0184715
33	0xbc746d13	-0.014918583
34	0xbd3fd365	-0.04683246
35	0xbca7f3ef	-0.020502059
36	0xbcd9f61a	-0.026606608
37	0x3db27016	0.08712785
38	0x3dd46b69	0.10372049
39	0x3d71f4b0	0.059071243
40	0x3d9c1a85	0.07622246
41	0x3de619d3	0.11235394
42	0x3d4156ef	0.047202047
43	0x3d9fc272	0.078007594
44	0xbdbf5762	-0.09342839
45	0xbd9de69c	-0.07710001
46	0xba6854dc	-0.00088627427
47	0xbd6861bd	-0.056733835
48	0xbb5795d4	-0.00328957
49	0xbd8e4398	-0.06946486
50	0x3d6c0972	0.057626195
51	0xbd7fc48d	-0.062443305
52	0xbde14c07	-0.11000829
53	0xbda287f0	-0.07936084
54	0x3cb7afcf	0.0224227
55	0x3cdbc693	0.026828086
56	0xbc47230c	-0.012154352
57	0xbdcf8ce2	-0.10134293
58	0xbba11c4c	-0.0049167033
59	0xbda9ed5e	-0.08297227
60	0x3d9b3976	0.07579319
61	0x3a9865e9	0.0011627051
62	0x3d6b4ef1	0.05744833
63	0x3d899573	0.06717958
64	0xbd1de837	-0.038551535
65	0x3d26b552	0.040700264
66	0x3deb1b83	0.11479857
67	0x3da0942c	0.078407615
68	0x3d8fc8d1	0.070207246
69	0xbc81cc74	-0.015844561
70	0x3d0ecf16	0.03486546
71	0xbd1b59f8	-0.037927598
72	0x3d995a0d	0.07487879
73	0xbcf2e6bd	-0.02965104
74	0xbd642340	-0.05569768
75	0xbb00abb8	-0.0019633602
76	0xbd5bcd62	-0.053662665
77	0x3db9bd92	0.09069361
78	0xbda78064	-0.081787854
79	0x3d716f08	0.05894378
80	0x3dd2c1b4	0.10290852
81	0x3d763899	0.06011257
82	0xbd3a42d2	-0.04547388
83	0x3dc3e6ad	0.09565482
84	0xbc912f32	-0.0177227
85	0x3d0538c5	0.032524843
86	0x3da9609f	0.08270382
87	0x3c1901ce	0.009338809
88	0x3b7aff46	0.0038299127
89	0xbdd536cc	-0.10410842
90	0xbdb308e4	-0.0874193
91	0xbd1301dd	-0.03589045
92	0x3c159652	0.009130077
93	0xbcd025ab	-0.025408586
94	0xbdd30db2	-0.103053465
95	0xbdd23d83	-0.10265639
96	0xbde2ef81	-0.11080838
97	0x3daaeea1	0.08346296
98	0xbcabfd42	-0.020994786
99	0xbdb23ee5	-0.087034024
100	0x3ddb5090	0.107087255
101	0x3ddd553f	0.10807275
102	0xbcd58ae1	-0.0260672
103	0x3de17384	0.11008361
104	0xbca1895c	-0.019718818
105	0x3dcd909d	0.100373484
106	0xbd820e94	-0.06350437
107	0x3de2827f	0.110600464
108	0x3d393a3d	0.045221556
109	0xbce59c67	-0.02802868
110	0xbcde2f1f	-0.027122078
111	0xbdb2fa56	-0.08739154
112	0x3c380ba2	0.011233242
113	0xbc8877ce	-0.01665869
114	0xbd00862a	-0.03137795
115	0xbdc5cfc8	-0.09658772
116	0x3d500f40	0.050795794
117	0xbd1e395e	-0.03862893
118	0x3da6c4bd	0.081429936
119	0xbbcb28a5	-0.0061999136
120	0xbd528f3a	-0.051406123
121	0xbdb9df67	-0.09075814
122	0x3d48232c	0.048861668
123	0x3cd033b4	0.025415279
124	0x3db383a4	0.08765343
125	0x3c7bff16	0.015380641
126	0xbd8f0959	-0.06984205
127	0x3c4c8e12	0.012485044
128	0x3ccae7cd	0.024768734
129	0x3c585189	0.013203033
130	0x3d553b72	0.052058645
131	0x3c7cba53	0.0154252825
132	0xbdfd90ad	-0.1238111
133	0x3d1a5265	0.037676234
134	0x3ddf67d6	0.10908477
135	0x3cdf5cdc	0.027265958
136	0x3d127684	0.035757557
137	0xbdcbf936	-0.099596426
138	0x3d0e04cf	0.034672555
139	0x3dbf94b4	0.09354535
140	0xbd5be5e0	-0.053686023
141	0x3dd439c7	0.10362583
142	0x3c9d63c1	0.019212605
143	0x3dcd5291	0.10025514
144	0xbda667f7	-0.081252985
145	0xbd941c4f	-0.07231962
146	0x3d507ff1	0.050903264
147	0xbd2479d5	-0.04015525
148	0xbb2e381b	-0.0026583734
149	0x3cd8ff1a	0.02648883
150	0x3db9d6ae	0.0907415
151	0xbd80ae94	-0.06283298
152	0xbccfbe70	-0.025359362
153	0x3d574bff	0.05256271
154	0xbcc75f76	-0.024337512
155	0xbaa1cd02	-0.0012344422
156	0xbdb60e26	-0.08889417
157	0xbd41e6f4	-0.047339395
158	0xbd291b4e	-0.041285805
159	0x3d5dab4e	0.054118447
160	0xbd6984ed	-0.057011534
161	0x3df346f2	0.11878766
162	0x3d24e45f	0.040256854
163	0xbda1007a	-0.07861419
164	0x3dc732f3	0.09726515
165	0x3d094730	0.033515155
166	0x3de30101	0.11084176
167	0xbc6ff356	-0.014645418
168	0x3dd0c9e6	0.10194759
169	0x3dc45e7b	0.09588333
170	0x3d1699cc	0.036767766
171	0xbdbca186	-0.09210496
172	0x3ca6b872	0.020351622
173	0x3d51435d	0.051089633
174	0xbd038ffe	-0.032119744
175	0x3d8b9a90	0.0681659
176	0xbdd3d3f8	-0.10343164
177	0xbdc225fe	-0.09479903
178	0x3d8b7c3b	0.068108045
179	0x3dae5c72	0.08513726
180	0x3dce1bcf	0.10063898
181	0xbd4a7392	-0.049426623
182	0x3dd322e5	0.1030939
183	0x3c6213ba	0.0137986485
184	0xbd2bfdb7	-0.04199001
185	0xbdd659f2	-0.104663745
186	0x3d2fc273	0.04291005
187	0x3bbecb3c	0.0058225673
188	0xbdd244d8	-0.10267037
189	0x3dc9a9e1	0.09846855
190	0xbd8b4f1b	-0.068021975
191	0xbcace72e	-0.021106329
192	0xbd688232	-0.05676479
193	0x3b48cb98	0.003063893
194	0x3dc619fd	0.096729256
195	0xbdec0c6d	-0.115258075
196	0xbd1f95fd	-0.0389614
197	0xbde9015d	-0.11377213
198	0x3de0953e	0.10965966
199	0xbc7cfa8e	-0.015440596
200	0xbdabcd86	-0.0838881
201	0x3d149051	0.036270443
202	0x3b0d6850	0.0021577068
203	0x3cedf564	0.029047675
204	0xbd337a10	-0.04381758
205	0x3dabff47	0.083983
206	0xbc9925e2	-0.018694822
207	0xbd26751b	-0.040639024
208	0x3db329e4	0.087482244
209	0x3d4259b8	0.047448844
210	0x3db0e048	0.08636528
211	0x3d92eb5e	0.07173799
212	0x3d32326d	0.04350512
213	0x3dc2058b	0.094737135
214	0xbcfd2327	-0.030900551
215	0x3d966716	0.07343881
216	0xbadac0b2	-0.0016689508
217	0xbd1e4411	-0.038639132
218	0xbd97d346	-0.07413344
219	0x3d98eda3	0.074672006
220	0x3d02e831	0.031959716
221	0xbdd939ca	-0.106067255
222	0x3dea0f3a	0.114286855
223	0x3ba3b5fd	0.00499606
224	0x3c619f6c	0.013770919
225	0xbdcbb34d	-0.09946308
226	0x3dcce486	0.10004525
227	0xbd734175	-0.059388597
228	0xbd2fc922	-0.042916425
229	0xbd8b9019	-0.06814594
230	0xbd84c12a	-0.064821556
231	0x3dacef51	0.084440835
232	0xbdaf5fcf	-0.08563196
233	0x3deb7b04	0.11498073
234	0x3cdcfb75	0.026975373
235	0xbca68e23	-0.020331448
236	0x3d3ee06a	0.046600737
237	0xbd929c74	-0.07158747
238	0x3d80ee3a	0.06295438
239	0xbd60f5c8	-0.054921895
240	0x3dd14163	0.1021755
241	0x3dbbc7a8	0.09168941
242	0x3dbb52b9	0.091466375
243	0xbc231085	-0.009952669
244	0x3d82b058	0.06381291
245	0xbdb4feaf	-0.088376395
246	0xbce1d906	-0.027569305
247	0xbded981b	-0.116012774
248	0x3d419c94	0.047268465
249	0xbde93a0a	-0.11388023
250	0xbd397120	-0.0452739
251	0xbd5fa162	-0.054597266
252	0xbd53e04f	-0.05172759
253	0xbd6b7335	-0.057482917
254	0xbcb212c0	-0.021737456
255	0xbc830b62	-0.015996639

conv_time.bias f4 [45]
0	0xbba9cb41	-0.0051817005
1	0x3b14281f	0.0022606922
2	0x3b6ae2ee	0.0035840827
3	0x3bbb50c0	0.0057164133
4	0x3b3f7d45	0.0029218954
5	0x3bfef21d	0.007780327
6	0xbc14d5a5	-0.00908414
7	0xbb98789c	-0.0046530496
8	0xbb0bad58	-0.0021313038
9	0xb9fc92ec	-0.0004817465
10	0x3b85a679	0.004078683
11	0xbadae23f	-0.0016699507
12	0x3c4f1a1c	0.012640502
13	0xbb8a25bb	-0.0042159236
14	0xbb473cca	-0.0030401223
15	0xbbb04b6a	-0.005380084
16	0xbb1807cf	-0.0023198014
17	0xbae87b35	-0.0017736914
18	0x3c131c88	0.00897897
19	0x3a36fc9c	0.0006980391
20	0x3ae0e167	0.0017157019
21	0xbba36e27	-0.0049874964
22	0x3bb0b17f	0.005392253
23	0x3a394a28	0.000706824
24	0xba55b472	-0.00081521936
25	0xba839e2e	-0.0010041648
26	0x3baf83d5	0.005356292
27	0xbc53aa2d	-0.012918991
28	0xba39338c	-0.0007064871
29	0x3ba7ad4c	0.005117094
30	0xbb964838	-0.004586246
31	0xbb0e1336	-0.002167893
32	0xbbf3c057	-0.0074387
33	0xbb7b700a	-0.003836634
34	0x37c8a576	2.3918907e-05
35	0x3befa6a4	0.0073135663
36	0x3b5db9fc	0.003383278
37	0x3af07b21	0.0018347242
38	0xba5bf565	-0.00083907536
39	0x3b909219	0.0044119474
40	0xbb0daf76	-0.0021619475
41	0x3be56d3f	0.0070015485
42	0x3b0c74e1	0.002143197
43	0x3b8a274a	0.0042161094
44	0xb9034794	-0.00012519798

bnorm.weight f4 [45]
0	0x3f8086dd	1.0041157
1	0x3f7dbd4b	0.99116963
2	0x3f80bab8	1.0056982
3	0x3f81116a	1.0083439
4	0x3f824bdb	1.0179399
5	0x3f7fe4a3	0.99958247
6	0x3f7f0cdf	0.99629015
7	0x3f7cd452	0.98761475
8	0x3f7ed6b9	0.9954639
9	0x3f80163f	1.0006789
10	0x3f8069de	1.0032308
11	0x3f81227d	1.008865
12	0x3f7e6195	0.9936765
13	0x3f7efb8b	0.99602574
14	0x3f7e1a37	0.9925875
15	0x3f7fb219	0.9988113
16	0x3f7ebd3b	0.9950749
17	0x3f801b86	1.00084
18	0x3f7d9afb	0.99064606
19	0x3f7f3339	0.99687535
20	0x3f80e0a1	1.0068551
21	0x3f7f561b	0.9974076
22	0x3f7ee5ee	0.99569595
23	0x3f8078a7	1.003682
24	0x3f809660	1.0045891
25	0x3f7c7ed2	0.9863101
26	0x3f81650b	1.0108961
27	0x3f7ee5a9	0.99569184
28	0x3f803f7d	1.0019375
29	0x3f806202	1.002991
30	0x3f82712d	1.0190789
31	0x3f8015db	1.000667
32	0x3f7cb595	0.9871457
33	0x3f7fe113	0.9995281
34	0x3f80d773	1.006575
35	0x3f7d6f2b	0.98997754
36	0x3f8111ad	1.0083519
37	0x3f7f8b0e	0.99821556
38	0x3f811bef	1.008665
39	0x3f8062a6	1.0030105
40	0x3f7fdf31	0.9994994
41	0x3f7dd6db	0.9915597
42	0x3f7d72f0	0.99003506
43	0x3f7f544f	0.9973802
44	0x3f7ecb37	0.9952883

bnorm.bias f4 [45]
0	0x3c5b9d4e	0.013404204
1	0xbc1b7d72	-0.009490358
2	0xbb9c555c	-0.004770918
3	0x3cac2efb	0.021018496
4	0x3ccc40ba	0.024933208
5	0xbc783722	-0.015149863
6	0xbc170433	-0.00921731
7	0x3d0436d7	0.03227886
8	0xbc5ce687	-0.013482696
9	0xbbe45bb4	-0.0069689397
10	0x3c740f5b	0.014896239
11	0x3c91522e	0.017739382
12	0x3cdb10c8	0.0267414
13	0x3c0e7b4c	0.008696388
14	0xbc8a6e76	-0.016898375
15	0x3c6c0359	0.014405095
16	0xbc775660	-0.015096277
17	0xbc3179b7	-0.010832242
18	0x3b58d106	0.0033083572
19	0xbc14cbac	-0.009081762
20	0xbc43b08f	-0.01194395
21	0x3b40e58a	0.002943369
22	0xbb30285d	-0.0026879527
23	0xbcd93035	-0.026512245
24	0xbbf98ed5	-0.007615904
25	0xbcaa6226	-0.020798754
26	0xbbbb15f1	-0.0057094027
27	0xbb5f52e0	-0.0034076497
28	0x3c65d26b	0.014027218
29	0xbb3e2468	-0.00290134
30	0x3cbb56bf	0.022868512
31	0x3c708f4c	0.014682602
32	0xbc595d85	-0.013266926
33	0xbb87662f	-0.0041320543
34	0xbb3a5bb8	-0.0028436016
35	0x3b4d3b97	0.0031316036
36	0xbc14cae0	-0.009081572
37	0x3ced35e0	0.028956354
38	0x3c573789	0.013135799
39	0x3ce99d22	0.02851731
40	0x3cde5694	0.027140893
41	0xbc34d4bb	-0.011037047
42	0xbb8a2953	-0.004216352
43	0x3c29a962	0.010355325
44	0xbd80425c	-0.06262657

bnorm.running_mean f4 [45]
0	0xbd33b609	-0.043874774
1	0x3d80981c	0.062790126
2	0xbde1eda2	-0.11031653
3	0x3d675570	0.056477964
4	0x3bb7889c	0.005601002
5	0xbe02bf8f	-0.12768386
6	0x3e2c0d4d	0.16801949
7	0xbbf5b98e	-0.0074989265
8	0x3dabecf1	0.08394802
9	0xbe418429	-0.18898071
10	0x3e3663b4	0.17811471
11	0xbd822511	-0.06354726
12	0x3ca020e9	0.019546943
13	0x3d8a2c74	0.0674676
14	0x3c871abc	0.01649224
15	0xbca4fcf1	-0.020140143
16	0x3d8da508	0.06916243
17	0x398976f6	0.0002621931
18	0x3c9fc176	0.019501429
19	0xbd0be226	-0.03415122
20	0x3c918ad0	0.017766386
21	0x3d3052d5	0.043047745
22	0xbc4ed864	-0.012624834
23	0x3bdf9040	0.006822616
24	0x3bbab895	0.0056982734
25	0xbd60cd56	-0.054883324
26	0x3bcc5f50	0.006236948
27	0x3c9a43a8	0.01883109
28	0xbc87f900	-0.016598225
29	0x3d4e7b54	0.050410584
30	0x390a7afa	0.00013206518
31	0xbc958991	-0.018254073
32	0xbc9db412	-0.019250903
33	0x3cacbd41	0.021086337
34	0x3c8829c2	0.016621474
35	0xbcb5c1f4	-0.02218721
36	0x3c38312f	0.011242195
37	0x3d36664f	0.044531163
38	0xbc1d4586	-0.009599095
39	0xbca74f40	-0.020423532
40	0x3c32541b	0.01088431
41	0x3d159a0b	0.03652386
42	0x3d8d8fd4	0.06912199
43	0xbc6cbacb	-0.014448832
44	0xbbb629fb	-0.0055592037

bnorm.running_var f4 [45]
0	0x3a68ecad	0.0008885365
1	0x3b05937f	0.0020382104
2	0x3bed7a08	0.0072472133
3	0x3acd53bc	0.0015665214
4	0x392940f3	0.00016141291
5	0x3c290a75	0.010317435
6	0x3c8efeba	0.017455447
7	0x3802c1d3	3.1174928e-05
8	0x3b8a3477	0.00421768
9	0x3ca24506	0.019808304
10	0x3c8b5147	0.01700653
11	0x3b15d16e	0.0022860426
12	0x3855818b	5.0903804e-05
13	0x3b3a69f8	0.002844451
14	0x39833bfb	0.00025030956
15	0x3a2fd698	0.0006707697
16	0x3c7cacbc	0.015422042
17	0x3775b8b7	1.4646145e-05
18	0x39b3f010	0.000343204
19	0x3b723533	0.0036957979
20	0x3a4c2954	0.0007788141
21	0x3be34326	0.006935495
22	0x3a7d5c07	0.0009664897
23	0x38ef6594	0.000114153285
24	0x3933734c	0.00017113722
25	0x3c0fdadd	0.008780208
26	0x377686ba	1.4694111e-05
27	0x3b48041d	0.003052003
28	0x3a465e10	0.0007567117
29	0x3bcd7701	0.00627029
30	0x39033788	0.0001251382
31	0x3a5018ad	0.0007938247
32	0x39e61c37	0.0004389004
33	0x3ae058fd	0.0017116364
34	0x3a96cc1b	0.001150492
35	0x3b3c6d67	0.0028751732
36	0x39c2a4ed	0.00037125443
37	0x3ba986ac	0.005173525
38	0x39bf224b	0.0003645591
39	0x3ae269c6	0.0017273955
40	0x3a31eab4	0.00067869877
41	0x3b28776f	0.0025705954
42	0x3c4b8f7d	0.012424347
43	0x3a861eee	0.0010232606
44	0x38c9cc1a	9.622444e-05

block2.conv_2.weight f4 [45, 15, 10]
0	0x3dfd74a7	0.12375765
1	0x3ced0c74	0.028936602
2	0x3dbd0af1	0.092306025
3	0x3d906ae7	0.0705164
4	0xbd11e541	-0.035619024
5	0x3d267988	0.040643245
6	0x3d95fade	0.0732324
7	0xbd8065ef	-0.06269442
8	0x3d4ac568	0.049504668
9	0x3dba4586	0.09095292
10	0xbdb3b184	-0.08774093
11	0xbc27dbcd	-0.010245276
12	0x3d8800c9	0.06640775
13	0x3dc930c9	0.09823758
14	0xbc8c4cf2	-0.017126534
15	0xbd820254	-0.063481
16	0xbcb036e5	-0.02151055
17	0xbd4c2c39	-0.04984686
18	0x3d08669d	0.033300985
19	0xbd792734	-0.060828403
20	0x3d802ac7	0.06258159
21	0x3dbdf46d	0.09275136
22	0x3dd7fe79	0.10546584
23	0x3de080fd	0.109621026
24	0x3cfed7ac	0.0311087
25	0x3c93ac69	0.018026548
26	0x3d6536f3	0.055960607
27	0xbd849aa6	-0.06474809
28	0x3d8a11d8	0.06741685
29	0x3d1f04ec	0.038823053
30	0x3d200f84	0.039077297
31	0xbdbdbc4d	-0.09264431
32	0x3d17924f	0.037004765
33	0x3d01a2c8	0.03164938
34	0x3d60cfbf	0.054885622
35	0x3c41b7e3	0.011823627
36	0xbd499a44	-0.049219385
37	0x3b2345c4	0.002491341
38	0x3d5ca570	0.05386871
39	0x3dbc7838	0.092026174
40	0xbc911828	-0.017711714
41	0xbd97b3e6	-0.0740736
42	0xbd2faed8	-0.042891353
43	0x3c3ecbfe	0.011645315
44	0xbdc1deca	-0.09466322
45	0x3d989afb	0.07451435
46	0xbd33277f	-0.04373884
47	0xbdbdb70d	-0.0926343
48	0x3c855640	0.016276479
49	0xbdb4192e	-0.08793865
50	0x3d927249	0.071507044
51	0xbc64cf3a	-0.013965422
52	0x3d827ac3	0.06371071
53	0x3d9532f1	0.07285107
54	0xbd990786	-0.07472138
55	0xbda28da8	-0.07937175
56	0x3bc97779	0.0061482755
57	0x3dcab6f8	0.0989818
58	0xbd5e3780	-0.054252148
59	0x3d44bca7	0.048031475
60	0xbc2cfc6f	-0.010558232
61	0xbd4c07b1	-0.049812023
62	0xbd65070f	-0.055914935
63	0x3b73f0e1	0.0037222432
64	0xbda0d16e	-0.078524455
65	0xbd943688	-0.072369635
66	0x3dd71aff	0.10503196
67	0xbd11694b	-0.035500806
68	0x3d78b52c	0.060719654
69	0xbd0f07b4	-0.034919456
70	0xbcf231b5	-0.029564718
71	0x3d24804d	0.04016142
72	0x3db5caeb	0.08876594
73	0x3d9cfbdd	0.076652266
74	0xbdb3947f	-0.08768558
75	0x3cf441f0	0.029816598
76	0x3c9e40e6	0.019318055
77	0x3c97e044	0.018539555
78	0x3c927d15	0.01788191
79	0x3dc26639	0.09492154
80	0x3dbc1d11	0.091852315
81	0xbd8df656	-0.069317505
82	0xbca78f8d	-0.020454193
83	0x3d4bf825	0.049797196
84	0xbdb0f391	-0.086402066
85	0x3cd85f1f	0.026412545
86	0xbdb8ef0f	-0.09029972
87	0x3ce4c611	0.027926477
88	0xbcc06c19	-0.023489045
89	0xbd51e99d	-0.05124818
90	0xbc063dbb	-0.008193429
91	0x3d2efb66	0.04272022
92	0x3dc72d89	0.09725482
93	0x3ca3454a	0.0199305
94	0x3d5b071d	0.05347358
95	0xbd2ecb26	-0.042674206
96	0xbd94858b	-0.07252034
97	0xbc688af3	-0.014193284
98	0x3d2f7125	0.042832512
99	0xbd1404b5	-0.0361373
100	0x3d9f1ccf	0.07769167
101	0x3c9db73f	0.019252418
102	0x3d483b4d	0.04888468
103	0xbd2737d8	-0.04082474
104	0xbcfcef07	-0.030875696
105	0x3d80ceb4	0.062894255
106	0x3d956876	0.07295315
107	0xbd8ebad2	-0.06969227
108	0xbc3a05d9	-0.011353933
109	0xbd7448e5	-0.05963983
110	0xbd9a9182	-0.07547285
111	0xbd705778	-0.058677167
112	0xbda01f9a	-0.078185275
113	0xbc272133	-0.010200786
114	0x3d7fdfea	0.0624694
115	0xbda98ce3	-0.08278825
116	0x3d8f869f	0.07008099
117	0xbd743d47	-0.05962875
118	0xbd966265	-0.07342986
119	0xbcf4ef18	-0.029899165
120	0x3d9e9a86	0.07744317
121	0xb9d93793	-0.0004143087
122	0xbd5ae81b	-0.05344401
123	0x3d54ae42	0.051923998
124	0x3c260ccb	0.010134886
125	0xbd43fcd0	-0.047848523
126	0xbd4cc71b	-0.04999457
127	0x3d90e151	0.07074226
128	0x3d8a1983	0.06743147
129	0xbd631ece	-0.0554493
130	0x3dcc19f2	0.09965886
131	0xbd9265c3	-0.07148316
132	0x3db812d3	0.089879654
133	0xbd0aba04	-0.033868805
134	0x3d626ebe	0.055281393
135	0xbd827f5d	-0.06371949
136	0xbd8b8625	-0.068126954
137	0xbd04ce81	-0.0324235
138	0x3dc13479	0.094338365
139	0xb9c2116c	-0.00037015544
140	0xbda4674e	-0.08027516
141	0xbd9be153	-0.076113366
142	0xbd1511a1	-0.036393765
143	0x3dc92d75	0.09823123
144	0x3c42905f	0.011875241
145	0xbc899660	-0.016795337
146	0x3d20360c	0.039114043
147	0xbda5ecc2	-0.081017986
148	0xbd3aa6ec	-0.045569345
149	0xbbf6249b	-0.007511688
150	0xbd888d39	-0.06667561
151	0x3dacb0c7	0.08432155
152	0x3a06b6bf	0.00051389256
153	0xbcbc7fe5	-0.023010204
154	0xbd2ad4dd	-0.04170691
155	0x3d581adc	0.05275999
156	0xbd8e1c34	-0.06938973
157	0x3d6bd541	0.05757642
158	0x3d51f786	0.051261447
159	0x39353ccf	0.00017284158
160	0x3d7f6c3a	0.062359072
161	0xbdabe64d	-0.08393536
162	0xbd1542ea	-0.036440767
163	0x3cddf33f	0.027093528
164	0xbcad0142	-0.021118764
165	0xbbf72a35	-0.0075428733
166	0x3c202100	0.009773493
167	0x3d76d07c	0.06025742
168	0x3db06ffe	0.08615111
169	0xbd5d757c	-0.05406712
170	0xbdc62ca1	-0.09676481
171	0x3c4a251e	0.012337951
172	0x3d02ae95	0.031904776
173	0xbcd938e9	-0.026516395
174	0xbc2e98d9	-0.010656559
175	0x3c78136b	0.015141348
176	0xbd3e35d3	-0.04643805
177	0xbd95b699	-0.07310218
178	0x3c3b6cbe	0.0114395
179	0x3c48513f	0.012226402
180	0xbdc50b89	-0.09621341
181	0x3d322929	0.043496285
182	0xbd8336bf	-0.06406926
183	0xbdd87c5d	-0.105705954
184	0x3cda4859	0.026645826
185	0x3d9aa3d4	0.07550779
186	0x3d8139cd	0.06309853
187	0x3ca85eff	0.02055311
188	0xbbd8ab41	-0.006612212
189	0xbcc869e9	-0.024464564
190	0xbd4f6c0b	-0.050640147
191	0xbdbd1e81	-0.09234334
192	0x3c91f2f6	0.017816048
193	0x3d466b47	0.04844215
194	0x3c9886e7	0.018619014
195	0x3ca39b9c	0.019971661
196	0x3cde83c3	0.027162438
197	0xbd96a9e8	-0.07356626
198	0x3cedc0d3	0.02902261
199	0x3db0fc10	0.08641827
200	0xbdab428b	-0.083623014
201	0xbc9a46a9	-0.018832522
202	0x3d2a3150	0.041550934
203	0x3da2c1e7	0.0794714
204	0x3d8a4769	0.06751902
205	0x3d10301a	0.035202123
206	0x3d3537e6	0.044242762
207	0x3da8d6eb	0.08244117
208	0xbdde3d3f	-0.108515255
209	0xbd381935	-0.044945914
210	0x3d8984dd	0.06714795
211	0xbd5ef10e	-0.054429106
212	0xbdbaaaed	-0.09114633
213	0x3d24ef5a	0.040267326
214	0xbd2b3ad8	-0.041804165
215	0x3cab14a7	0.020883871
216	0x3cfa9ab1	0.03059134
217	0x3d876964	0.066118985
218	0x3cf0b71f	0.029384194
219	0xbc7a0a00	-0.015261173
220	0x3d29ea62	0.04148329
221	0xbd8dc427	-0.06922179
222	0xbc27e7ec	-0.010248166
223	0xbc648ce1	-0.013949604
224	0x3d943878	0.07237333
225	0x3cc5f988	0.024166837
226	0x3da9dd85	0.082942046
227	0xbd3ce544	-0.046117082
228	0xbd9bac34	-0.076012045
229	0x3c04ec5c	0.008112993
230	0xba8c47f8	-0.0010702601
231	0xbd8021cf	-0.062564485
232	0xbdb96259	-0.090519615
233	0x3d8d7bf8	0.06908411
234	0xbd847810	-0.064682126
235	0x3d7bee63	0.06150664
236	0xbd9a5c17	-0.07537096
237	0xbbe3cba0	-0.006951764
238	0xbc01ecfb	-0.007930036
239	0xbcdef148	-0.027214661
240	0x3d98b4ed	0.07456384
241	0xbd26a4cc	-0.040684506
242	0x3d46778c	0.048453853
243	0x3bbd17bc	0.0057706516
244	0x3d99ff66	0.075194165
245	0xbdd9ae5f	-0.10628962
246	0x3cccc3e2	0.024995748
247	0xbdd5f8e9	-0.104478665
248	0xbd39862c	-0.045293972
249	0xbd20f663	-0.039297473
250	0xbdb39090	-0.087678075
251	0xbda16d10	-0.0788213
252	0xbb988b72	-0.004655295
253	0xbd8dc502	-0.06922342
254	0x3dc48b61	0.09596897
255	0xbd38cfce	-0.045120053

block2.bnorm_2.weight f4 [45]
0	0x3f7ce86e	0.9879216
1	0x3f80b8b6	1.0056369
2	0x3f840963	1.0315365
3	0x3f811771	1.0085279
4	0x3f7f442f	0.99713415
5	0x3f7d6545	0.9898265
6	0x3f7edd46	0.99556386
7	0x3f80985e	1.0046499
8	0x3f7f52a8	0.997355
9	0x3f7f797a	0.99794734
10	0x3f80c5ec	1.0060401
11	0x3f7bad2c	0.98311114
12	0x3f7dffc4	0.9921839
13	0x3f810522	1.0079691
14	0x3f7ff50a	0.99983275
15	0x3f7d028b	0.98832005
16	0x3f80a136	1.0049198
17	0x3f7f53ac	0.9973705
18	0x3f7bf18d	0.9841545
19	0x3f819591	1.0123769
20	0x3f80c5d5	1.0060374
21	0x3f7d20d4	0.98878217
22	0x3f800a50	1.0003147
23	0x3f82a701	1.0207216
24	0x3f7efabe	0.9960135
25	0x3f7e1453	0.9924976
26	0x3f823b83	1.0174412
27	0x3f801ed6	1.000941
28	0x3f7aae6c	0.97922397
29	0x3f805a70	1.0027599
30	0x3f7f63e6	0.9976181
31	0x3f8002fa	1.0000908
32	0x3f79c76d	0.97569925
33	0x3f816a74	1.0110612
34	0x3f7f8921	0.9981862
35	0x3f82f7c0	1.0231857
36	0x3f7d6ead	0.98997
37	0x3f81bd59	1.0135909
38	0x3f7dc258	0.9912467
39	0x3f7e4470	0.9932318
40	0x3f7cbf1c	0.9872911
41	0x3f814e19	1.0101959
42	0x3f7fff9f	0.9999942
43	0x3f81f0a6	1.0151565
44	0x3f7fc77e	0.99913776

block2.bnorm_2.bias f4 [45]
0	0xbcb4af0e	-0.022056129
1	0x3c648180	0.013946891
2	0x3d2337fc	0.039848313
3	0x3ca06842	0.019580964
4	0xba9143fd	-0.0011082884
5	0xbaf2a22b	-0.0018511465
6	0x3bad7997	0.0052940357
7	0x3b36fd79	0.0027922078
8	0xbc9695b7	-0.018381936
9	0x3b48c375	0.003063408
10	0x3b5574ba	0.0032570795
11	0xbc94cd87	-0.01816441
12	0xbc3e2026	-0.0116043445
13	0x3b219808	0.0024657268
14	0x3c075fc2	0.008262577
15	0xbc96bf11	-0.018401654
16	0xbcb7be5f	-0.022429643
17	0xbb8350b4	-0.0040074233
18	0x3af19726	0.0018431887
19	0x3c2bb9e8	0.010481335
20	0xbc1bfafc	-0.009520289
21	0xbc24ca54	-0.010058004
22	0xbcc170c5	-0.023613343
23	0xba692e27	-0.0008895122
24	0xbc766e45	-0.015040939
25	0xbbdaa262	-0.0066721896
26	0xbb93c257	-0.004509251
27	0xbc25ebcf	-0.010127022
28	0xbc90febe	-0.017699596
29	0x3b30f08f	0.0026998853
30	0xbbc30a9f	-0.005952194
31	0xbb38bfed	-0.0028190569
32	0xbc884db9	-0.016638624
33	0xbbc5c333	-0.0060352325
34	0xbc70cb8c	-0.014696967
35	0xbc3cb5d7	-0.011517963
36	0xbc02b078	-0.007976644
37	0xbbaa8c9f	-0.0052047516
38	0xbccc8332	-0.024964903
39	0x3b6db591	0.0036271552
40	0x3b79ad2d	0.0038097606
41	0xbc8cb320	-0.017175257
42	0xbb9475a2	-0.0045306245
43	0x3c9d57fc	0.019206993
44	0x3c938570	0.018007964

block2.bnorm_2.running_mean f4 [45]
0	0x3e3e277e	0.18569753
1	0xbd8586fb	-0.06519886
2	0xbebf7cc9	-0.3739989
3	0xbdd6d7fd	-0.10490415
4	0xbe0152bd	-0.12629218
5	0xbf09ac66	-0.53778684
6	0xbe96a6fe	-0.2942428
7	0xbeeb677e	-0.45977396
8	0x3eb3bd6e	0.3510546
9	0xbe2c1812	-0.16806057
10	0x3e29e871	0.16592576
11	0x3e985ce2	0.29758364
12	0xbd598154	-0.053101853
13	0xbef31b00	-0.47481537
14	0xbd150b55	-0.03638776
15	0x3f05e2ad	0.52299005
16	0x3e00abd9	0.12565555
17	0xbe5493e8	-0.20759547
18	0xbe2a504f	-0.16632198
19	0xbe6037a9	-0.21896233
20	0x3dda5cee	0.10662256
21	0xbdb37e3b	-0.08764311
22	0x3f283a26	0.6571373
23	0x3ebc3744	0.36760914
24	0xbcbd5f3c	-0.0231167
25	0x3e4cae37	0.19988333
26	0xbe5fb5ac	-0.21846646
27	0x3eb6e79f	0.35723588
28	0xbf266165	-0.6499236
29	0xbe9de3ff	-0.3083801
30	0xbf140314	-0.57817197
31	0x3d61eab1	0.05515546
32	0xbaa8d066	-0.001287949
33	0x3ea47d4d	0.32126847
34	0x3e728c75	0.23686393
35	0xbde05869	-0.10954363
36	0xbe82dea4	-0.25560486
37	0xbe92dc02	-0.28683478
38	0xbd3eafed	-0.046554495
39	0x3e231ee2	0.1592975
40	0xbdb89edd	-0.09014676
41	0x3e9c2bf2	0.30502278
42	0x3e4c8caf	0.19975542
43	0xbe806141	-0.250742
44	0x3dbf1923	0.09330966

block2.bnorm_2.running_var f4 [45]
0	0x3f206a87	0.6266255
1	0x3e27285f	0.16323994
2	0x3df9c942	0.1219659
3	0x3fcb7c66	1.5897338
4	0x3ecd3baf	0.40084597
5	0x3e071de3	0.13194995
6	0x3ecfddde	0.4059896
7	0x3e6aa32a	0.22913805
8	0x3ea54ec5	0.3228666
9	0x3dc1d8a6	0.094651505
10	0x3dbb7b83	0.09154417
11	0x3f734b8d	0.95037156
12	0x3e1d925c	0.15387863
13	0x3e55ff49	0.20898165
14	0x3ea06bc8	0.3133223
15	0x3e2f792a	0.17136064
16	0x3d169b35	0.03676911
17	0x3e6ba0d6	0.23010573
18	0x3dfa37e3	0.12217691
19	0x3e791988	0.24326146
20	0x3e009ecc	0.12560576
21	0x3e692141	0.22766592
22	0x3fc4d784	1.537827
23	0x3df39e4a	0.118954256
24	0x3d17aa5d	0.037027705
25	0x3d25662a	0.040380634
26	0x3d6df332	0.058093257
27	0x3e5a493e	0.21317002
28	0x3f6c44ab	0.9229228
29	0x3e320df8	0.17388141
30	0x3f852db4	1.0404572
31	0x3e4f4c14	0.20243865
32	0x3e23411e	0.15942809
33	0x3e0e39e2	0.13889268
34	0x3de1a1a9	0.11017162
35	0x3dd0c497	0.101937465
36	0x3d7c8d4b	0.061658185
37	0x3e65a0e1	0.22424652
38	0x3cc1c835	0.023655036
39	0x3dca51ea	0.09878905
40	0x3f401a77	0.7504038
41	0x3dd377df	0.10325598
42	0x3e11229d	0.1417336
43	0x3e5521b9	0.20813645
44	0x3d9ece04	0.07754138

block3.conv_3.weight f4 [90, 15, 10]
0	0xbc9943be	-0.01870906
1	0x3d476297	0.048678007
2	0x3ce2ca9b	0.0276845
3	0xbd846613	-0.064647816
4	0xba9ea4f3	-0.0012103602
5	0x3d67d5d1	0.056600396
6	0x3c7b6f61	0.015346379
7	0x3cdd0943	0.026981955
8	0xbb3d50a9	-0.0028887189
9	0xbda0fdb5	-0.07860891
10	0x3d35f37d	0.04442166
11	0xbcf1ac6b	-0.02950116
12	0x3d15aad2	0.03653986
13	0xbd1ce892	-0.038307734
14	0xbd191a4d	-0.037378598
15	0x3d27fb8d	0.041011382
16	0x3d1aa299	0.03775272
17	0x3d4554b7	0.048176493
18	0x3c37657f	0.011193632
19	0x3da4c56a	0.08045466
20	0x3ccc893a	0.024967778
21	0xbd4d491e	-0.050118558
22	0xbd9de344	-0.07709363
23	0x3d764f9d	0.06013452
24	0x3be994fb	0.0071283556
25	0x3d55d0d7	0.05220112
26	0x3ad7cd04	0.0016464298
27	0x3c8396a5	0.016063044
28	0xbcb540cc	-0.022125624
29	0x3dba15e5	0.09086207
30	0x3bb456af	0.0055034976
31	0x3c9f310f	0.019432573
32	0x3d1042ab	0.03521983
33	0x3d408e39	0.047010634
34	0xbd273831	-0.040825073
35	0xbcf60721	-0.030032696
36	0xbcda9f7c	-0.026687376
37	0xbd1b6f0a	-0.037947692
38	0xbd36f3bf	-0.04466605
39	0x3cd46fee	0.025932278
40	0xb5571bcc	-8.013419e-07
41	0x3d3c5939	0.045983527
42	0x3ce60b46	0.028081547
43	0x3cc6a22c	0.024247251
44	0x3d7d60d4	0.06185992
45	0xbd4818d9	-0.04885182
46	0x3cd7fb8f	0.02636507
47	0xbd69912a	-0.057023205
48	0x3cecd8a9	0.028911905
49	0x3d1cb1c1	0.038255457
50	0x3d8b63ad	0.06806121
51	0xbd7cecbd	-0.06174921
52	0x3d607d42	0.054806955
53	0xbd4d3339	-0.050097678
54	0x3d957a3c	0.07298705
55	0x3cebd4dd	0.028788025
56	0x3c94cc07	0.018163694
57	0x3cc3d277	0.023904068
58	0x3c355ada	0.011069024
59	0xbaac17c1	-0.0013129638
60	0x3d3f4c1a	0.046703435
61	0xbcd82ac9	-0.026387589
62	0xbb378be9	-0.0028006977
63	0xbada2f9b	-0.0016646268
64	0xbc8bce96	-0.017066281
65	0xbd623536	-0.055226527
66	0x3d72263f	0.059118506
67	0xbccfb6e9	-0.025355773
68	0x3d0f90ef	0.03505033
69	0x3ca92c8a	0.02065112
70	0x3d334e7e	0.043776028
71	0x3b5adee8	0.0033397023
72	0x3cf2ce12	0.029639278
73	0x3c97af14	0.018516101
74	0x3cf828b0	0.030292839
75	0xbd7b734e	-0.06138926
76	0xbb66eb30	-0.0035235398
77	0xbd981a68	-0.074269116
78	0x3a971fc7	0.0011529856
79	0xbcfd4164	-0.03091497
80	0xbce2b0c3	-0.027672177
81	0xbd3e1aff	-0.046412464
82	0xbd3a44db	-0.045475822
83	0xbcc10852	-0.023563538
84	0x3d076c8e	0.03306251
85	0x3cfeca4b	0.03110232
86	0x3d7f5c57	0.06234392
87	0x3c88804c	0.01666274
88	0xbd8c73b6	-0.068580076
89	0x3da825c7	0.082103305
90	0x3c87bb1c	0.016568713
91	0xbb916acc	-0.00443778
92	0x3d83b1ab	0.06430372
93	0x3c4f7203	0.01266146
94	0x3852cea1	5.026034e-05
95	0xbb7fcefa	-0.003903328
96	0xbda5ab65	-0.080893315
97	0x3c45a3f1	0.012063012
98	0xbae03792	-0.0017106405
99	0xbd4af18c	-0.049546763
100	0x3d04e723	0.03244699
101	0x3d864229	0.06555588
102	0xbcc7c145	-0.02438415
103	0x3c86fe63	0.016478723
104	0xbd0503eb	-0.03247444
105	0xbd0d3753	-0.03447659
106	0xbd195c0c	-0.0374413
107	0xbcbb3758	-0.022853538
108	0xbd40efac	-0.04710357
109	0xbd313fcd	-0.043273736
110	0x3cdbaef1	0.026816817
111	0x3c860d10	0.01636365
112	0xbcaa7dd4	-0.020811953
113	0xbc7f0049	-0.015564033
114	0xbc96ed00	-0.018423557
115	0x3d9491c1	0.07254363
116	0xbd20cc1d	-0.039257158
117	0xbd8eaa07	-0.06966024
118	0x3d653b0d	0.05596452
119	0xba9d1642	-0.0011984783
120	0x3da010a4	0.07815674
121	0xbd2c882f	-0.042122062
122	0xbd231886	-0.03981831
123	0xbd75dc9f	-0.060024854
124	0xbd782745	-0.060584325
125	0xbda26352	-0.079291
126	0xbc01dd11	-0.0079262415
127	0x3d205f54	0.039153412
128	0xbd91636f	-0.070990436
129	0xbac208cf	-0.001480365
130	0x3d858d00	0.06521034
131	0x3d3fbf83	0.0468135
132	0x3cb4c15b	0.022064855
133	0x3c9aa0ad	0.018875444
134	0xbd25277b	-0.040320855
135	0xbd03cb7b	-0.032176476
136	0xbd3d0509	-0.04614738
137	0x3d9e2b72	0.0772313
138	0x3c2e88d2	0.010652738
139	0xb834985b	-4.3057236e-05
140	0x3ce6a5eb	0.028155288
141	0xbc8dc1f0	-0.01730439
142	0xbcb2bfe0	-0.021820009
143	0x3ce278cd	0.027645493
144	0xbc630456	-0.013856014
145	0x3d7f5379	0.062335465
146	0xbc676773	-0.014123785
147	0x3c651913	0.013983029
148	0x3c518468	0.012787916
149	0xbc944c2f	-0.018102733
150	0x3d8bee33	0.06832542
151	0xbd8f1b42	-0.06987621
152	0xbca08f23	-0.019599503
153	0xbb3541d9	-0.0027657656
154	0x3b9409f8	0.00451779
155	0xbd88aaab	-0.06673177
156	0xbd5a331d	-0.0532714
157	0x3d3adc23	0.045620095
158	0xbbc678ec	-0.0060568955
159	0x3c07f9ec	0.008299332
160	0x3d0db3b1	0.034595195
161	0x3ccb17c8	0.024791613
162	0x3d98a296	0.07452886
163	0xbd1271bb	-0.035752993
164	0xbd9627b4	-0.073317915
165	0x3d810d46	0.0630136
166	0x3d88cbbd	0.06679485
167	0xbcf3d0ec	-0.029762708
168	0x3c992cd5	0.018698135
169	0xbca6b980	-0.020352125
170	0x3c7ab65b	0.015302266
171	0xbcc64879	-0.02420448
172	0x3d1720d3	0.036896538
173	0x3da26071	0.07928551
174	0x3d8c901c	0.06863424
175	0x3d78b711	0.06072146
176	0xbd82d842	-0.06388904
177	0xbd33d367	-0.04390278
178	0x3b7d13f6	0.0038616634
179	0xbd7f15d5	-0.06227668
180	0x3d084002	0.033264168
181	0xbd2cd8d5	-0.042198975
182	0xbcb23011	-0.021751435
183	0x3d37aeb0	0.04484433
184	0xbd735626	-0.05940833
185	0x3cb42b21	0.021993222
186	0xbd769c62	-0.060207732
187	0xbd11b7b8	-0.0355756
188	0xbd92498e	-0.07142936
189	0xbd42ca98	-0.04755649
190	0x3d04fc31	0.03246707
191	0x3d92777d	0.07151697
192	0x3a8ca227	0.0010729478
193	0xbd9c2d70	-0.07625854
194	0xbd3179c7	-0.043329027
195	0xbab5e1d4	-0.0013876506
196	0x3cee3ae4	0.029080816
197	0xbc0b561c	-0.008504417
198	0xbcc19ddd	-0.023634845
199	0xbc2ca998	-0.010538481
200	0x3d8fa68e	0.0701419
201	0xbcd4db69	-0.02598353
202	0x3cf235a0	0.029566586
203	0x3c13c5e2	0.009019347
204	0xbd341fdd	-0.0439757
205	0xbd6e0c8f	-0.058117446
206	0xbd75fd2d	-0.0600559
207	0xbd765528	-0.060139805
208	0xbd75aa50	-0.059976876
209	0xbc88fabf	-0.016721128
210	0x3c271d12	0.010199802
211	0x3cdb433c	0.026765458
212	0xbd23143e	-0.039814226
213	0xbc39919e	-0.011326222
214	0xbd03067b	-0.031988602
215	0xbd91652b	-0.070993744
216	0xbd9d99c3	-0.07695343
217	0x3cd964f7	0.026537402
218	0xbd88f615	-0.066875614
219	0x3a451170	0.0007517552
220	0x3d026362	0.03183306
221	0xbd2f6336	-0.042819224
222	0x3d7d35d1	0.0618189
223	0x3d2f3b7d	0.04278134
224	0xbb20c71b	-0.0024532739
225	0xbd6b23ea	-0.057407297
226	0x3d83d255	0.06436602
227	0xbd402714	-0.046912268
228	0x3cce7848	0.025203839
229	0xbcf7015e	-0.03015202
230	0x3d57b84c	0.052665994
231	0xbd2537aa	-0.04033629
232	0x3d326e44	0.04356219
233	0xbc5d9dca	-0.013526389
234	0x3d58d5d9	0.052938316
235	0x3c478334	0.012177277
236	0x3cbb6824	0.022876807
237	0xbc9ea40e	-0.019365337
238	0x3ca9df0a	0.020736236
239	0x3c28f122	0.010311397
240	0x3c9bcacd	0.019017601
241	0x3c80a4ab	0.01570352
242	0x3d3e4929	0.04645649
243	0x3d3747da	0.044746257
244	0x3d8c6a41	0.06856204
245	0xbda9af2e	-0.08285366
246	0x3d04bf55	0.03240903
247	0x3d4c8601	0.049932484
248	0xba795cf4	-0.0009512447
249	0x3d2c5d4f	0.042081174
250	0x3cf8365e	0.030299362
251	0x3d1f25e6	0.038854502
252	0xbcb43c81	-0.022001507
253	0x3d2771f3	0.040880155
254	0xbcae3769	-0.021266656
255	0xbc03fd5f	-0.008056014

block3.bnorm_3.weight f4 [90]
0	0x3f814eaf	1.0102137
1	0x3f81d891	1.0144216
2	0x3f7c7597	0.9861693
3	0x3f7e3be6	0.9931015
4	0x3f81fd53	1.0155433
5	0x3f79fb93	0.97649497
6	0x3f80d865	1.0066038
7	0x3f81bf24	1.0136456
8	0x3f7e1abc	0.99259543
9	0x3f7d8ec9	0.99046
10	0x3f814a92	1.0100882
11	0x3f80373c	1.0016856
12	0x3f80b82b	1.0056204
13	0x3f7bb5a6	0.9832405
14	0x3f7d650d	0.98982316
15	0x3f8035a1	1.0016366
16	0x3f7e98ba	0.9945179
17	0x3f7d8abe	0.9903983
18	0x3f7dda84	0.99161553
19	0x3f810e9c	1.0082583
20	0x3f835944	1.0261617
21	0x3f81030b	1.0079054
22	0x3f7dd154	0.99147534
23	0x3f7fb2d9	0.99882275
24	0x3f7d28e1	0.988905
25	0x3f824b22	1.0179179
26	0x3f7efd6e	0.99605453
27	0x3f7e1849	0.99255806
28	0x3f7e8357	0.9941916
29	0x3f82d138	1.0220098
30	0x3f7fee9e	0.99973476
31	0x3f7f90dc	0.9983041
32	0x3f7b5f34	0.98192143
33	0x3f78f118	0.9724288
34	0x3f818c4c	1.012094
35	0x3f7e222d	0.992709
36	0x3f82e035	1.0224673
37	0x3f81f198	1.0151854
38	0x3f7d8201	0.99026495
39	0x3f7f35dc	0.9969156
40	0x3f7cf6e4	0.98814225
41	0x3f806c59	1.0033065
42	0x3f807ff6	1.003905
43	0x3f7e0b6f	0.99236196
44	0x3f81192c	1.0085807
45	0x3f7ed11a	0.99537814
46	0x3f7e9d0e	0.99458396
47	0x3f808af0	1.00424
48	0x3f804fef	1.0024394
49	0x3f7ec1f7	0.99514717
50	0x3f803191	1.0015126
51	0x3f7fba51	0.9989367
52	0x3f7f1c69	0.99652725
53	0x3f818ecf	1.0121707
54	0x3f7f3e7a	0.99704707
55	0x3f84e403	1.0382084
56	0x3f7b2321	0.9810048
57	0x3f808e44	1.0043416
58	0x3f7f4d9e	0.9972781
59	0x3f80fec1	1.0077745
60	0x3f7ecdb6	0.9953264
61	0x3f7e0e38	0.99240446
62	0x3f794362	0.97368443
63	0x3f817394	1.0113397
64	0x3f7bcb4b	0.98357075
65	0x3f7fe8b7	0.9996447
66	0x3f807b51	1.0037633
67	0x3f7ea064	0.99463487
68	0x3f7c2dbf	0.98507303
69	0x3f7fec10	0.9996958
70	0x3f7f81b9	0.99807316
71	0x3f7d6be6	0.98992765
72	0x3f7d0037	0.9882845
73	0x3f83c591	1.0294667
74	0x3f8115ff	1.0084838
75	0x3f7edb8e	0.99553764
76	0x3f81f956	1.0154216
77	0x3f7ef290	0.9958887
78	0x3f8381d2	1.0273993
79	0x3f808dbc	1.0043254
80	0x3f812c9a	1.0091736
81	0x3f80e5b2	1.0070097
82	0x3f80a098	1.0049009
83	0x3f7a5b63	0.97795695
84	0x3f81c7d3	1.0139107
85	0x3f80497e	1.0022428
86	0x3f8019dd	1.0007893
87	0x3f80277b	1.0012048
88	0x3f819d2b	1.0126089
89	0x3f7cfe25	0.98825294

block3.bnorm_3.bias f4 [90]
0	0x3bec897e	0.007218539
1	0x3c4cf654	0.012509901
2	0xbc663df0	-0.014052853
3	0xbc4d2dd1	-0.0125231305
4	0x3d168e1e	0.036756627
5	0xbc81b92f	-0.015835373
6	0xbc23eab5	-0.010004689
7	0xbd417151	-0.047227208
8	0x3c088308	0.008332022
9	0xbc645e96	-0.013938567
10	0xbc818cde	-0.015814241
11	0xbbf17893	-0.00736911
12	0xbc848bbe	-0.016179916
13	0xbbce3ebd	-0.0062941
14	0xbcae94c0	-0.021311164
15	0xbce15c3b	-0.0275098
16	0xbbb69d81	-0.005572975
17	0xbc42f482	-0.0118991155
18	0xbaa345fa	-0.0012456768
19	0xbc6fa152	-0.014625864
20	0xbb264aa2	-0.0025374074
21	0xbc944e67	-0.018103791
22	0xbc481b54	-0.012213547
23	0x3b284235	0.0025674228
24	0xbbc5596d	-0.0060226233
25	0xbce5080f	-0.027957944
26	0xbc73a4a7	-0.014870799
27	0x3c709d2b	0.014685909
28	0xba4dfb33	-0.0007857561
29	0x3b314bf8	0.0027053338
30	0xbb56d684	-0.003278167
31	0xbbf05877	-0.0073347646
32	0xbc2f7166	-0.010708189
33	0xbc88c91c	-0.016697459
34	0xbb24719a	-0.0025092126
35	0xba20dd38	-0.000613648
36	0x3be1c684	0.00689012
37	0xbcdd6a54	-0.02702824
38	0xbc7ef06d	-0.015560252
39	0xbb3c0d1d	-0.002869434
40	0xbc9843bb	-0.018586984
41	0x3b72be4b	0.0037039693
42	0xbbc5b35d	-0.0060333447
43	0xbc23b700	-0.009992361
44	0xbb609a91	-0.0034271816
45	0xbc0fd705	-0.008779292
46	0x3a90993c	0.0011031996
47	0xbca99cb4	-0.020704605
48	0xbcb938f4	-0.022610165
49	0xbc11de98	-0.008903168
50	0x380e1840	3.3878023e-05
51	0xbd24a393	-0.04019506
52	0xbcb9694f	-0.022633223
53	0xbc3a2e82	-0.011363627
54	0xb9420ec5	-0.00018506784
55	0x3ba787fd	0.0051126466
56	0xbc0c04f5	-0.008546104
57	0xbc4973f8	-0.0122957155
58	0xbc5ea577	-0.013589255
59	0x3c34398c	0.011000048
60	0x3b86e224	0.0041163135
61	0xbcbe06da	-0.023196626
62	0xbc894629	-0.016757088
63	0xbc414676	-0.011796584
64	0xbbe3b716	-0.006949316
65	0xbcfb4b5b	-0.03067558
66	0xbaee922e	-0.0018201524
67	0x3bf33b63	0.007422851
68	0xbca0d80c	-0.01963427
69	0x3c0b4f19	0.008502745
70	0xbbaca589	-0.0052687568
71	0xbc58f8ea	-0.0132429395
72	0xbd13d5aa	-0.036092438
73	0xbd097651	-0.0335601
74	0xbc1566a7	-0.0091187125
75	0x3c9eeab0	0.019399017
76	0x3bd0e638	0.0063751005
77	0xbcbb8355	-0.022889772
78	0xbb97c1ac	-0.004631242
79	0xbbffd6ea	-0.007807602
80	0xbd08b888	-0.033379108
81	0xbab0f97b	-0.0013502085
82	0xbc39d213	-0.0113415895
83	0xbba5c4bd	-0.0050588534
84	0xbc1a662a	-0.009423772
85	0xbbdda454	-0.006763974
86	0xbbd6a403	-0.0065503134
87	0xb9d3dd63	-0.00040410002
88	0xbb05e980	-0.0020433366
89	0xbcdd24e9	-0.02699514

block3.bnorm_3.running_mean f4 [90]
0	0x3e0f6613	0.14003782
1	0xbea60620	-0.32426548
2	0x3efa8b9d	0.4893464
3	0xbdbc7bf3	-0.09203329
4	0x3d2ccf5f	0.042189952
5	0x3e158bee	0.1460416
6	0xbea92344	-0.33034718
7	0xbe251a28	-0.16123259
8	0x3ec5f72f	0.3866515
9	0x3e7815d3	0.24227075
10	0xbe2b407e	-0.1672382
11	0x3e39b11b	0.18133967
12	0x3e071bb5	0.13194163
13	0x3e0dd496	0.13850626
14	0xbe1597bb	-0.14608662
15	0x3e5017c0	0.2032156
16	0x3e0b5e77	0.13610254
17	0x3d9c89ca	0.07643469
18	0x3da488dd	0.08033917
19	0x3e10f1a9	0.14154686
20	0xbe0f3091	-0.1398337
21	0x3dd88671	0.10572518
22	0x3eb19fbc	0.3469218
23	0x3c9d2be3	0.019185966
24	0xbe977a01	-0.2958527
25	0x3d9d2518	0.07673091
26	0xbd6c0397	-0.05762061
27	0xbd258f7a	-0.040420033
28	0x3d974af6	0.073873445
29	0xbe1bd074	-0.15216237
30	0x3db04097	0.086060695
31	0x3ded15ae	0.11576401
32	0x3c8d6cfe	0.017263886
33	0x3ea8349f	0.32852647
34	0x3dce3f63	0.10070684
35	0x3ba25f5e	0.0049552163
36	0x3daf9ce1	0.08574844
37	0xbe372805	-0.1788636
38	0x3e409997	0.1880859
39	0xbe81be8e	-0.25340694
40	0xbe9f9cfd	-0.3117446
41	0x3d84099f	0.064471476
42	0x3e3cd900	0.18442154
43	0xbe10054e	-0.14064524
44	0x3d60c637	0.054876532
45	0x3c1d58b7	0.009603671
46	0xbe700ab9	-0.2344159
47	0x3d3c1eca	0.0459278
48	0x3d935965	0.07194785
49	0xbe54a310	-0.20765328
50	0xbde242e1	-0.110479124
51	0xbdebf945	-0.11522154
52	0xbcc33171	-0.023827286
53	0x3dff7bf3	0.12474813
54	0x3eaebe4c	0.3412956
55	0xbecc6b87	-0.39925787
56	0x3e9ecb93	0.3101469
57	0x3dc9522a	0.09830125
58	0x3dcc26ea	0.0996836
59	0xbea14f33	-0.31505737
60	0xbe26c6f0	-0.16286826
61	0xbda1ed4f	-0.07906591
62	0xbd907133	-0.07052841
63	0xbe887a18	-0.2665565
64	0xbcfcc2e6	-0.030854654
65	0xbd9fc632	-0.07801475
66	0x3e2542e2	0.16138795
67	0x3e915c85	0.283909
68	0xbe9c61c7	-0.30543348
69	0xbf158177	-0.5840067
70	0x3dbf7056	0.09347598
71	0xbe28b525	-0.16475351
72	0xbe0c9b17	-0.13731037
73	0xbe309a54	-0.17246372
74	0x3e1e6eb8	0.15471923
75	0xbdda568e	-0.1066104
76	0xbea6b4be	-0.3255977
77	0x3eb9d871	0.36297944
78	0xbdd4dbd0	-0.103934884
79	0x3da98aa5	0.082783975
80	0x3c908531	0.017641636
81	0xbecf3eb1	-0.40477517
82	0xbdc08618	-0.09400576
83	0x3aa2c9a5	0.0012419714
84	0xbe49eccb	-0.19719236
85	0x3be649ae	0.0070278263
86	0x3bc74321	0.0060810004
87	0xbe654758	-0.22390497
88	0xbe35ffbf	-0.1777334
89	0x3da0575d	0.07829163

block3.bnorm_3.running_var f4 [90]
0	0x3dc30f08	0.09524351
1	0x3d440b1d	0.04786216
2	0x3ebf66a7	0.37383005
3	0x3e6b69e2	0.2298961
4	0x3e2ef9ca	0.17087474
5	0x3e196ae5	0.14982183
6	0x3e9c9599	0.30582884
7	0x3dedaf38	0.11605686
8	0x3e612a79	0.21988858
9	0x3daa0a83	0.08302786
10	0x3dc7789b	0.097398005
11	0x3e38d89b	0.18051378
12	0x3de14109	0.109987326
13	0x3edcf3b6	0.43154687
14	0x3e805817	0.25067207
15	0x3dce1ae9	0.100637265
16	0x3f1ecb83	0.62029284
17	0x3dfa3193	0.12216487
18	0x3e8af859	0.271426
19	0x3dc4a56c	0.09601864
20	0x3d0acc64	0.03388633
21	0x3e169515	0.14705308
22	0x3e05bfee	0.13061497
23	0x3ec92a85	0.39290252
24	0x3e930648	0.2871573
25	0x3e29674a	0.16543308
26	0x3e40d163	0.18829875
27	0x3e5c1dde	0.21495768
28	0x3e234ee7	0.15948068
29	0x3d3a48cf	0.045479592
30	0x3e209b8b	0.15684335
31	0x3f01ad1b	0.50654763
32	0x3dc4c7bd	0.096084096
33	0x3eb31b3d	0.3498172
34	0x3f0c7d4d	0.54878694
35	0x3f043a2d	0.5165127
36	0x3ea55891	0.32294133
37	0x3e0ea2ac	0.13929242
38	0x3e88a807	0.26690695
39	0x3e87aa4c	0.26497114
40	0x3e3c69ec	0.18399781
41	0x3d89e848	0.06733757
42	0x3e6002ca	0.21876064
43	0x3e0a5231	0.13507916
44	0x3e63869c	0.22219318
45	0x3d90bf77	0.07067769
46	0x3e75e504	0.24013144
47	0x3e0300e2	0.12793306
48	0x3e463bcd	0.1935875
49	0x3e22e415	0.15907319
50	0x3ea3f2e2	0.32021242
51	0x3e218fc1	0.15777494
52	0x3e395cce	0.18101808
53	0x3e5a69ae	0.21329376
54	0x3f71021e	0.94143856
55	0x3e61a2da	0.22034779
56	0x3ed21dea	0.41038448
57	0x3e277f27	0.16357099
58	0x3e2dcd38	0.16972816
59	0x3df41554	0.119181305
60	0x3e572e41	0.21013738
61	0x3ddf34f3	0.10898771
62	0x3f11a1cf	0.56887525
63	0x3e3719cc	0.17880934
64	0x3db36fde	0.08761571
65	0x3d8d86c1	0.06910468
66	0x3e12a8f5	0.14322264
67	0x3e9c2d81	0.30503467
68	0x3da35832	0.07975806
69	0x3e2154c0	0.15754986
70	0x3eac84bf	0.33695027
71	0x3eac4b68	0.3365128
72	0x3d9a2598	0.07526702
73	0x3e08d46c	0.13362283
74	0x3e42b999	0.19016112
75	0x3ddb869e	0.107190356
76	0x3dd2477d	0.102675416
77	0x3e34caac	0.17655438
78	0x3de608c7	0.11232143
79	0x3dc8514c	0.09781131
80	0x3da30543	0.07959988
81	0x3e014016	0.12622103
82	0x3e8635e3	0.26212987
83	0x3e65c9b7	0.2244023
84	0x3df43cda	0.11925669
85	0x3dca58c0	0.09880209
86	0x3edd9e85	0.43285003
87	0x3e938337	0.28811046
88	0x3e6a0d15	0.22856553
89	0x3da2090a	0.0791188

block4.conv_4.weight f4 [90, 30, 10]
0	0xbc7688e1	-0.015047283
1	0xbd318061	-0.043335322
2	0xbcf31fc7	-0.029678239
3	0x3d464428	0.048404843
4	0x3d2137df	0.039359923
5	0xbd43eecb	-0.047835153
6	0x3c7154bf	0.014729678
7	0x3d0976a3	0.033560406
8	0xbd694756	-0.056952797
9	0x3d6b8ae9	0.057505522
10	0x3c81466e	0.015780654
11	0xbc9e25af	-0.019305078
12	0x3b822f45	0.00397292
13	0x3d588991	0.05286557
14	0xbd8d1d09	-0.06890304
15	0x3d5fc785	0.054633636
16	0x3cc420b5	0.023941377
17	0x3cc70f67	0.024299337
18	0xbdbe4bf0	-0.09291828
19	0xbcc6f893	-0.024288451
20	0xbc1b0c0b	-0.0094633205
21	0xbd3575bb	-0.04430173
22	0x3db55d43	0.08855679
23	0xbd2c9791	-0.042136732
24	0x3d51d3fa	0.051227547
25	0x3d7c8ec8	0.061659604
26	0xbd59f9df	-0.05321681
27	0x3d1c39a6	0.038140915
28	0xbd15cdd2	-0.03657324
29	0x3d339b44	0.043849245
30	0xbcf76508	-0.030199543
31	0x3d461cfc	0.048367485
32	0xbd6c8e99	-0.05775318
33	0x3d036f9c	0.03208886
34	0x3d5ef383	0.05443145
35	0xbcee271f	-0.029071389
36	0x3c8efdf1	0.017455073
37	0xbd793f16	-0.06085118
38	0xbc794b69	-0.015215733
39	0xbd852d85	-0.06502823
40	0xbb7b3794	-0.0038332688
41	0xbd8b0607	-0.06788259
42	0xbc5fb3d4	-0.013653714
43	0xbd615eb0	-0.05502194
44	0xbd53e2cb	-0.05172996
45	0x3d24e94c	0.04026155
46	0x3d509304	0.050921455
47	0x3d3018c8	0.042992383
48	0xbdaa9027	-0.08328276
49	0xbd6fd017	-0.05854806
50	0xbcc6dcb9	-0.02427517
51	0xbc73f501	-0.014889956
52	0x3d7d90e7	0.061905768
53	0x3d724b78	0.059154004
54	0x3d0ac99c	0.033883676
55	0xbd7e7018	-0.06211862
56	0x3c02a03e	0.007972775
57	0x3d4c3bc8	0.0498617
58	0x3ba7d777	0.005122121
59	0xbd478176	-0.048707448
60	0x3d55779d	0.052116025
61	0xbd071d3c	-0.032986864
62	0x3d143f35	0.03619309
63	0xbb5ed996	-0.0034004203
64	0xbce7645c	-0.028246097
65	0x3c0888e5	0.008333419
66	0xbd2df92f	-0.042473968
67	0xbd74c2ab	-0.059755962
68	0x3d7d031c	0.061770543
69	0xbd31f5b9	-0.04344723
70	0x3d234aba	0.039866187
71	0x3ce2f086	0.027702581
72	0xbd0ba869	-0.034096155
73	0x3c7c6f4f	0.015407397
74	0x3d1ce917	0.03830823
75	0xbd64ed2c	-0.055890247
76	0x3cffd0be	0.031227466
77	0xbd62d584	-0.055379406
78	0xbd40b7ad	-0.047050167
79	0xbdb73bb2	-0.08946933
80	0xbd1dd2e6	-0.038531207
81	0xbd35c590	-0.044377863
82	0x3d805894	0.06266895
83	0x3d915339	0.070959516
84	0xba992f89	-0.001168714
85	0x3d7a8927	0.061165955
86	0xbd688783	-0.05676986
87	0xbb715c4f	-0.0036828702
88	0xbbb343cc	-0.0054707285
89	0xbc97fd65	-0.018553445
90	0xbd95ceee	-0.07314859
91	0xbcdd8c4c	-0.027044438
92	0x3d8f7f13	0.07006659
93	0x3da9923c	0.08279845
94	0x3cb0c8c9	0.021580117
95	0x3d69a9f3	0.05704684
96	0x3d0d8d8c	0.034558818
97	0xbaca4e73	-0.0015434757
98	0xbcac615a	-0.021042515
99	0xbc29c5e2	-0.01036212
100	0xbcb8e208	-0.022568718
101	0x3bb923c5	0.005650016
102	0x3c63266f	0.013864144
103	0x3c9a3d65	0.018828103
104	0x3c251b75	0.010077347
105	0x3cb7fb7e	0.022458788
106	0x3cffb678	0.031214938
107	0xbbb1e090	-0.0054283813
108	0x3bef9d30	0.0073124394
109	0xbcfabf21	-0.030608715
110	0xbd6af74c	-0.057364747
111	0x3cc264e3	0.023729747
112	0xbd0285c6	-0.031865858
113	0x3d946bb6	0.07247107
114	0x3c8dd24d	0.017312193
115	0x3d925129	0.07144386
116	0x3c174432	0.009232568
117	0xbd01c975	-0.031686265
118	0xbd0bc50f	-0.034123477
119	0x3c94c410	0.018159896
120	0xbd6788fa	-0.056527115
121	0x3d458f61	0.04823244
122	0xbbc61755	-0.006045262
123	0xbc757c1f	-0.014983206
124	0x3cd58195	0.026062766
125	0xbd139a64	-0.03603591
126	0x3d171d5e	0.03689324
127	0xbae9f2b2	-0.0017848818
128	0xbc4226ba	-0.011850053
129	0xbb070038	-0.0020599496
130	0xbd46a14b	-0.048493665
131	0x3d22ee4a	0.03977803
132	0xbbde6ce2	-0.006787882
133	0xbd90ab96	-0.070639774
134	0x3cf44194	0.029816426
135	0xbd27c6a3	-0.04096092
136	0xbca2e422	-0.019884173
137	0x3bfffaa2	0.00781186
138	0xb9d6adb5	-0.00040946683
139	0x3937e621	0.0001753797
140	0xbcfe2334	-0.031022646
141	0xbd182c71	-0.037151758
142	0xbc5b66a0	-0.013391167
143	0x3d87ce3b	0.06631132
144	0xbd3b3cb1	-0.045712177
145	0x3d91b600	0.07114792
146	0x3cb10412	0.021608386
147	0x3d36a82f	0.044593986
148	0x3c08067a	0.008302325
149	0x3d8df975	0.06932346
150	0x3c1c01c4	0.009521905
151	0xbd46d8ba	-0.04854653
152	0xbbcfedf9	-0.006345507
153	0x3c5fd708	0.013662107
154	0x3c848c34	0.016180135
155	0x3d20d92c	0.03926961
156	0x3da5972c	0.08085474
157	0xbcbc30eb	-0.022972545
158	0xbca20734	-0.019778825
159	0xbd56be6d	-0.052427698
160	0x3ca0f99a	0.01965027
161	0xbd2b55c0	-0.041829824
162	0xbced4191	-0.028961929
163	0x3d127983	0.035760414
164	0x3d0128b5	0.031532962
165	0x3d8069a2	0.06270148
166	0x3c833e3b	0.016020885
167	0x3c84f13b	0.016228309
168	0xbca7098f	-0.0203903
169	0x3d449ef4	0.048003152
170	0xbd908777	-0.07057088
171	0x3d43205c	0.047638282
172	0xbb605448	-0.0034229923
173	0x3d10726d	0.035265375
174	0xbd9a7139	-0.07541127
175	0xbd2050d0	-0.03913957
176	0xbd063202	-0.032762535
177	0x3b035a0b	0.0020042683
178	0xbd0a2b95	-0.03373297
179	0x3d9c19c4	0.07622102
180	0xbd40ab52	-0.047038384
181	0xbd1908e0	-0.03736198
182	0xbbd4a3ff	-0.0064892764
183	0x3b86acf7	0.0041099745
184	0xbb019739	-0.0019773974
185	0xbd3e76bb	-0.04649995
186	0xbc37484a	-0.011186669
187	0xbd5c6f14	-0.05381687
188	0x3c3a7e61	0.01138267
189	0x3cb0f993	0.021603381
190	0xbda27927	-0.07933264
191	0xbceddd97	-0.029036326
192	0x3c8f91a3	0.0175255
193	0xbd86b2c6	-0.06577067
194	0x3bb4d07d	0.005518018
195	0xbd436c43	-0.04771067
196	0xbc1a6bfe	-0.009425161
197	0x3cd61cb1	0.026136728
198	0x3d4dcce2	0.05024422
199	0xbd3eff9b	-0.046630483
200	0xbdb3a950	-0.08772528
201	0x3c0ffb06	0.008787876
202	0x3d408c42	0.04700876
203	0x3bb7e905	0.005612495
204	0xbd5df221	-0.05418599
205	0xbbfab0dd	-0.0076504783
206	0xbb7cd0db	-0.0038576636
207	0xbc89d2a7	-0.01682408
208	0xbcca2c9e	-0.024679478
209	0x3d2e21ee	0.042512827
210	0x3d5adfe7	0.053436186
211	0x3d636564	0.055516616
212	0xbc2fee49	-0.010737964
213	0x3d3e8fa3	0.0465237
214	0xbcb5276e	-0.022113528
215	0xbb24950c	-0.0025113253
216	0xbd5e88c8	-0.054329664
217	0xbd960d27	-0.07326727
218	0xbd01a060	-0.031647086
219	0xbd6e2c4f	-0.058147725
220	0x3bfaa7d1	0.0076494
221	0xbd7a4b0b	-0.061106723
222	0x3d6e28c8	0.05814436
223	0x3d72f6a8	0.05931726
224	0xbd5b7adf	-0.053583976
225	0xbd85912e	-0.065218315
226	0xbd532415	-0.051548082
227	0xbd6bf223	-0.057603966
228	0x3d358d6f	0.044324335
229	0xbd7d3e53	-0.061827015
230	0xbca54bac	-0.020177685
231	0xbd521386	-0.05128815
232	0xbd54ae5f	-0.051924106
233	0xbcaa13a4	-0.020761319
234	0xbd59c6db	-0.05316816
235	0x3b96b963	0.0045997365
236	0xbd7261b9	-0.059175227
237	0x3d8579ea	0.06517394
238	0x3c89f368	0.016839698
239	0xbd02f6d1	-0.031973664
240	0x3cf1675d	0.029468233
241	0x3d8da9c0	0.06917143
242	0xbd165124	-0.036698475
243	0x3d30c68e	0.043158107
244	0xbceb0bc6	-0.028692137
245	0x3d811cc1	0.063043125
246	0x3ce200be	0.027588245
247	0x3d577f48	0.05261162
248	0x3a1d53fe	0.00060015905
249	0xbcfe2915	-0.031025449
250	0xbcd0bad4	-0.025479712
251	0x3a02236b	0.0004964384
252	0x3c740126	0.014892852
253	0x3d429e28	0.04751411
254	0xbd65628a	-0.056002177
255	0xbd16c7bc	-0.036811575

block4.bnorm_4.weight f4 [90]
0	0x3f81de97	1.0146054
1	0x3f822c4c	1.0169768
2	0x3f837a61	1.0271722
3	0x3f822c42	1.0169756
4	0x3f8336c3	1.0251087
5	0x3f811405	1.0084234
6	0x3f81b585	1.013352
7	0x3f85300a	1.0405285
8	0x3f7fae0e	0.9987496
9	0x3f8102cc	1.0078979
10	0x3f818a2b	1.012029
11	0x3f80d21f	1.0064124
12	0x3f81aa15	1.013003
13	0x3f82650c	1.0187087
14	0x3f821987	1.016404
15	0x3f81ac21	1.0130655
16	0x3f8470c5	1.0346915
17	0x3f81f560	1.0153008
18	0x3f816e7f	1.0111846
19	0x3f826734	1.0187745
20	0x3f8307c1	1.0236741
21	0x3f815f70	1.010725
22	0x3f81b4dc	1.0133319
23	0x3f82188a	1.0163739
24	0x3f818a98	1.012042
25	0x3f824a83	1.0178989
26	0x3f8132e2	1.0093653
27	0x3f81b5b9	1.0133582
28	0x3f807907	1.0036935
29	0x3f808a75	1.0042254
30	0x3f805948	1.0027246
31	0x3f81d4f4	1.0143113
32	0x3f807795	1.0036494
33	0x3f82befc	1.0214534
34	0x3f8066dc	1.003139
35	0x3f8358d5	1.0261484
36	0x3f806115	1.0029627
37	0x3f82cbbd	1.0218426
38	0x3f80732a	1.0035145
39	0x3f804aeb	1.0022863
40	0x3f7ff93c	0.99989676
41	0x3f805a56	1.0027568
42	0x3f7fae4f	0.9987535
43	0x3f81838e	1.0118272
44	0x3f81294e	1.009073
45	0x3f80257a	1.0011437
46	0x3f827228	1.0191088
47	0x3f826612	1.0187399
48	0x3f7ed420	0.9954243
49	0x3f8021b2	1.0010283
50	0x3f8063d0	1.003046
51	0x3f7f5dbb	0.99752396
52	0x3f802656	1.0011699
53	0x3f84949d	1.0357853
54	0x3f7f9e49	0.998509
55	0x3f8047e0	1.0021935
56	0x3f83ef2a	1.0307362
57	0x3f81ab3d	1.0130383
58	0x3f872885	1.055924
59	0x3f7fe7f4	0.9996331
60	0x3f837ee2	1.0273097
61	0x3f81a9fb	1.0129999
62	0x3f834883	1.0256504
63	0x3f8240a1	1.0175973
64	0x3f810c89	1.008195
65	0x3f810966	1.0080993
66	0x3f824447	1.0177087
67	0x3f7f098f	0.9962396
68	0x3f80dd78	1.0067587
69	0x3f82196b	1.0164007
70	0x3f8201f0	1.0156841
71	0x3f81d6cc	1.0143676
72	0x3f82de0f	1.0224017
73	0x3f816cf8	1.011138
74	0x3f814674	1.0099626
75	0x3f7f82af	0.9980878
76	0x3f80e283	1.0069126
77	0x3f8bd639	1.092475
78	0x3f80def1	1.0068036
79	0x3f813445	1.0094076
80	0x3f81c437	1.0138005
81	0x3f818feb	1.0122045
82	0x3f8256d2	1.0182745
83	0x3f804c94	1.002337
84	0x3f8068ad	1.0031945
85	0x3f82f72d	1.0231682
86	0x3f8068d4	1.0031991
87	0x3f814961	1.0100518
88	0x3f81ab14	1.0130334
89	0x3f86f97a	1.0544884
