submit_entry/checkpoints/cv_dgcn_all_15s/1/best.pth (torch_old, 341169 bytes, 25 tensors)

conv_time.weight f4 [75, 1, 10]
0	0xbd9aeccf	-0.07564699
1	0xbd8567ae	-0.06513916
2	0xbd914bd1	-0.07094539
3	0xbd2425d7	-0.04007515
4	0x3d99cc42	0.07509662
5	0x3d0854a7	0.033283856
6	0x3da64b34	0.081198126
7	0x3d9141e0	0.07092643
8	0x3cb04f95	0.021522323
9	0x3cae7152	0.02129427
10	0xbdb0523a	-0.086094335
11	0xbcd1c0f5	-0.025604704
12	0xbcaf8e69	-0.021430211
13	0x3d37cb4d	0.044871617
14	0xbd3be7e8	-0.04587546
15	0x3d9d1426	0.07669859
16	0xbcc75f1b	-0.024337342
17	0xbd27593e	-0.040856592
18	0x3d85d179	0.06534094
19	0xbd65baf1	-0.056086484
20	0x3db8e006	0.09027104
21	0x3c617521	0.013760836
22	0x3d91a872	0.071122065
23	0xbd1fcff5	-0.039016683
24	0x3d576584	0.052587047
25	0x3d16e519	0.03683958
26	0xbc81caa0	-0.01584369
27	0x3d95e357	0.07318752
28	0xbd7aa69d	-0.06119405
29	0xbca78834	-0.020450689
30	0xbcf902dd	-0.030396873
31	0xbd4148c8	-0.04718855
32	0xbd97c6e6	-0.07410984
33	0x3c8b0680	0.016970873
34	0x3cdb8f18	0.02680163
35	0xbb0b6d9f	-0.0021275056
36	0xbd9e02f9	-0.07715411
37	0xbd82fa3e	-0.06395386
38	0x3b138e01	0.002251506
39	0x3da26bee	0.07930742
40	0xbcc32d16	-0.02382521
41	0x3d0c2a4c	0.034220025
42	0xbdc5aec6	-0.09652476
43	0xbcbd43b0	-0.023103565
44	0xbd1b5c4b	-0.037929814
45	0x3d17aa48	0.037027627
46	0xbd51ebac	-0.051250145
47	0x3d788dc9	0.06068209
48	0x3cdb12b5	0.026742319
49	0xbd9375cc	-0.07200202
50	0xbbe042c8	-0.0068438984
51	0xbd80d3fc	-0.06290433
52	0x3d01c9af	0.03168648
53	0x3d82330f	0.06357395
54	0x3cd9079e	0.02649289
55	0xbd99b57f	-0.07505321
56	0x3d08fa06	0.033441566
57	0xbd26e025	-0.040741105
58	0x3cba52df	0.022744594
59	0x3ce3a35d	0.027787859
60	0x3a98b5af	0.0011650826
61	0x3d4ecfdb	0.050491195
62	0x3c80ceab	0.015723547
63	0x3ce59e73	0.028029656
64	0x3d696e3d	0.056989897
65	0xbd651cfe	-0.055935852
66	0x3b970448	0.0046086647
67	0xbd99f504	-0.07517436
68	0xbd9bca20	-0.07606912
69	0x3d40aa7b	0.047037583
70	0xbd85a4b5	-0.06525556
71	0x3d731216	0.05934342
72	0xbd137748	-0.036002427
73	0xbc0cbb66	-0.008589601
74	0x3db22c6c	0.08699879
75	0xbd6235b1	-0.055226985
76	0x3d69c9bd	0.05707716
77	0xbd7896d4	-0.060690716
78	0x3cd094ed	0.025461638
79	0xbd726849	-0.059181485
80	0xbc9d1fca	-0.019180197
81	0x3d96b482	0.07358648
82	0xbd1d1b8c	-0.03835635
83	0x3d9d3a8d	0.07677183
84	0x3caba7f3	0.020954108
85	0x3daa4e63	0.08315732
86	0x3d6a2118	0.057160467
87	0x3b040d51	0.0020149539
88	0x3db3603b	0.08758589
89	0x3d6c8197	0.057740774
90	0x3cba36ae	0.022731151
91	0xbdba81e0	-0.09106803
92	0x3c3a780f	0.011381163
93	0xbd80bf34	-0.06286469
94	0xbd03f5c3	-0.0322168
95	0x3d1fb850	0.038994133
96	0xbdb269bf	-0.08711576
97	0xbd770007	-0.06030276
98	0xbd4001bc	-0.046876654
99	0x3cb776eb	0.022395572
100	0x3d082191	0.033235136
101	0x3dabacc2	0.0838256
102	0x3d801579	0.062540956
103	0xbda4fe71	-0.08056343
104	0x3d9be5d0	0.07612193
105	0xbd3192c6	-0.043352865
106	0xbcfea012	-0.031082187
107	0xbc8ea025	-0.017410347
108	0x3d86f309	0.06589324
109	0x3c02f6cf	0.007993414
110	0x3d03e18a	0.032197513
111	0xbc91d342	-0.01780093
112	0x3d97e0ab	0.07415899
113	0x3d87f7e9	0.06639082
114	0xbd8741f6	-0.06604378
115	0xbcac5554	-0.021036781
116	0xbd0d46ec	-0.034491464
117	0x3d36553d	0.044514883
118	0x3da330d2	0.07968296
119	0xbbb5eb2e	-0.0055517172
120	0xbc011300	-0.007878065
121	0x3dc558fb	0.09636112
122	0x3d1e53f5	0.038654286
123	0x3d89fa01	0.067371376
124	0x3ccafab4	0.024777748
125	0xbd9c48ed	-0.07631097
126	0xbccf5ec8	-0.02531375
127	0xbda11ec3	-0.078671955
128	0xbd8c1627	-0.06840163
129	0xbd42b999	-0.04754028
130	0x3d8e451d	0.06946776
131	0xbd930e68	-0.07180482
132	0xbb881efb	-0.004154084
133	0x3cc2c70e	0.023776557
134	0x3da0594f	0.07829534
135	0x3d77cc2f	0.06049746
136	0xbda6f379	-0.081519075
137	0x3b0e374f	0.0021700447
138	0x3dcaf925	0.09910802
139	0x3d9066ac	0.07050833
140	0xbd3d7e26	-0.046262883
141	0x3d678202	0.05652047
142	0x3d81e978	0.06343359
143	0x3d24d4e8	0.040242106
144	0xbd995069	-0.0748604
145	0xbcbe2421	-0.023210587
146	0xbbf7c8de	-0.007561787
147	0xbd5fcc84	-0.0546384
148	0x3d3e24bd	0.046421755
149	0xbd4cee39	-0.050031874
150	0x3d8e6cb3	0.069543265
151	0x3b2be8c9	0.002623128
152	0x3d2c8d8e	0.042127185
153	0xbb3ed3ff	-0.0029118059
154	0x3d71d847	0.05904415
155	0x3d1e1e73	0.038603257
156	0xbd323f99	-0.043517683
157	0xbcdd0871	-0.026981564
158	0xbdad8f93	-0.0847465
159	0x3ce94903	0.028477198
160	0x3ba2dff4	0.004970545
161	0x3d426f16	0.04746922
162	0x3be35c3d	0.006938486
163	0xbd85c949	-0.06532533
164	0xbd6fdae8	-0.058558375
165	0xbbe519a9	-0.0069915843
166	0x3d2483d4	0.040164784
167	0x3cb566ae	0.022143688
168	0x3dad5797	0.08463972
169	0xbbb40831	-0.0054941406
170	0x3db5dbfc	0.08879849
171	0xbd8ae3e8	-0.06781751
172	0xbd97234e	-0.07379781
173	0x3d862487	0.06549936
174	0xbcb0b941	-0.021572711
175	0x3d51e765	0.051246066
176	0xbb0b107a	-0.0021219538
177	0xbbec6748	-0.0072144605
178	0xbd840e91	-0.06448091
179	0xbd097fcb	-0.03356914
180	0xbd639bc6	-0.05556848
181	0x3ce99118	0.028511569
182	0x3c51541c	0.012776401
183	0xbb3420f0	-0.0027485453
184	0xbd2e917d	-0.042619217
185	0xbdb77d89	-0.08959491
186	0xbd455d6f	-0.04818481
187	0xbdab811b	-0.08374234
188	0x3cc9bdb0	0.024626583
189	0xbd435159	-0.047685
190	0xbc884d21	-0.01663834
191	0x3ca8ecac	0.020620666
192	0x3d87e4a5	0.06635407
193	0xb9207f96	-0.00015306319
194	0xbd079902	-0.033104904
195	0x3db54085	0.08850197
196	0xbcda77dc	-0.026668482
197	0x3db07395	0.086157955
198	0xbc022872	-0.007944213
199	0x3d7333c8	0.059375554
200	0xbd460b1b	-0.048350435
201	0xbdb31f5c	-0.08746216
202	0x3a968cbe	0.0011486036
203	0x3c961219	0.018319177
204	0x3d9ef66f	0.07761847
205	0x3c81e80d	0.01585772
206	0x3c1828a8	0.009287037
207	0x3d270da7	0.040784504
208	0x3cacfa5c	0.021115474
209	0xba13df9a	-0.0005640924
210	0xbd910b2b	-0.07082208
211	0xbda0cf8f	-0.07852089
212	0xbc44166c	-0.011968236
213	0xbdb1be79	-0.08678908
214	0x3beabbbb	0.0071634925
215	0x3d2c28d3	0.04203112
216	0xbd4b111f	-0.049576875
217	0xbd29062d	-0.041265655
218	0x3c2537c4	0.010084096
219	0xbdaa3ae3	-0.08312013
220	0x3d4fa20d	0.050691653
221	0xbc588ec6	-0.013217634
222	0xbd93d7a9	-0.07218868
223	0xbd745313	-0.05964954
224	0x3d8f57fd	0.06999204
225	0x3d06e384	0.03293182
226	0xbd9fc746	-0.0780168
227	0xbdb00cea	-0.08596213
228	0x3bc47cd7	0.0059963274
229	0x3da39e01	0.07989121
230	0xbca8f63f	-0.020625232
231	0x3d8a2b2d	0.067465164
232	0x3d6b53b8	0.057452887
233	0xbcba36f4	-0.022731282
234	0xbda5928b	-0.080845915
235	0xbd8208db	-0.06349345
236	0x3d1f2c11	0.038860384
237	0x3dac7cd7	0.08422249
238	0xbd8df4f4	-0.06931487
239	0xbcca9f5d	-0.024734193
240	0xbd6db3a3	-0.058032643
241	0x3a83fe7b	0.0010070348
242	0xbd83357e	-0.06406687
243	0xbb8f5e67	-0.0043752673
244	0x3b91e38b	0.004452174
245	0x3cceb721	0.025233807
246	0x399da05b	0.00030064848
247	0xbd94e41e	-0.072700724
248	0x3c7f480a	0.01558114
249	0x3a888157	0.0010414523
250	0xbb722246	-0.0036946698
251	0xbd12c1a3	-0.035829198
252	0x3d0a74e5	0.033802886
253	0xbd9414f0	-0.07230556
254	0xbd4e4715	-0.050360758
255	0xbd89fa99	-0.06737251

conv_time.bias f4 [75]
0	0xbb8b7e91	-0.0042570313
1	0x3adfed9c	0.0017084363
2	0xba96649a	-0.0011474073
3	0xbafe38bc	-0.001939557
4	0x3a6817b3	0.0008853629
5	0xba904e2b	-0.0011009624
6	0x3a3a10d8	0.0007097847
7	0xbbb3b085	-0.0054836893
8	0xba7358fa	-0.0009282973
9	0x3b291b98	0.00258038
10	0x3aec5c3f	0.0018032863
11	0x3a1cd1dd	0.00059822
12	0x3b85ae78	0.004079636
13	0x3b43d26b	0.0029880058
14	0xba6ff119	-0.0009153053
15	0x3aae8c77	0.0013317008
16	0x3b62ed0a	0.003462615
17	0x3a037ed4	0.0005016152
18	0x39f1a782	0.00046091905
19	0x3a824c2d	0.0009940915
20	0xbb8a745a	-0.004225296
21	0xbb558b2a	-0.003258417
22	0xbb004ecb	-0.0019578214
23	0x3ac0fac9	0.0014723177
24	0x3ba152de	0.0049232086
25	0x3afce1e9	0.0019293401
26	0xbb4df73f	-0.0031427888
27	0xba050fb5	-0.0005075888
28	0xba05870e	-0.0005093672
29	0xbb1f93da	-0.00243496
30	0x395589f7	0.00020364659
31	0x3aa0f9e1	0.0012281501
32	0xbac485aa	-0.0014993448
33	0x397f854a	0.00024368349
34	0xb9c251ea	-0.00037063594
35	0x3b13cceb	0.002255256
36	0x3accd271	0.0015626681
37	0x3b3b6d3c	0.0028599044
38	0xbb213195	-0.0024596204
39	0x3a03d93c	0.0005029624
40	0x3a7a4185	0.00095465063
41	0x39aa8128	0.00032521156
42	0xba6b3faa	-0.0008974025
43	0xbb2aeff3	-0.0026082962
44	0xb97b1347	-0.00023944407
45	0x3a803fb2	0.0009784608
46	0x3b471927	0.0030379982
47	0xbb2a3168	-0.002596939
48	0x3a755dcc	0.0009359985
49	0xbae25501	-0.0017267765
50	0xbb876250	-0.004131593
51	0x3b7e2504	0.0038779387
52	0xbaf1c931	-0.00184468
53	0xbae8ecf1	-0.0017770809
54	0x3ad4fad6	0.0016249071
55	0x3abe6f55	0.0014529029
56	0x3b9983d5	0.004684905
57	0xbafeaa1e	-0.0019429361
58	0xbb01e9af	-0.0019823124
59	0xbb53de00	-0.0032328367
60	0xb89793eb	-7.227793e-05
61	0xb969309a	-0.00022238717
62	0xbb1d35c7	-0.0023988353
63	0x38af78fc	8.3671854e-05
64	0x380757a3	3.2268126e-05
65	0x38baf2a6	8.914368e-05
66	0xb99bc4ce	-0.00029710535
67	0xb85f920b	-5.3303356e-05
68	0xb9924c3d	-0.00027904092
69	0xbaa312b9	-0.0012441493
70	0x395e35af	0.00021191569
71	0x3a081d90	0.00051923934
72	0xb951af27	-0.00019997043
73	0x3a0fccef	0.00054855546
74	0x3a1f8562	0.0006085244

bnorm.weight f4 [75]
0	0x3f828ec8	1.0199823
1	0x3f7f54b5	0.9973863
2	0x3f7fdd5c	0.9994714
3	0x3f7efdf6	0.99606264
4	0x3f7ecd7f	0.9953231
5	0x3f810b72	1.0081618
6	0x3f805425	1.0025679
7	0x3f7f6b2d	0.9977291
8	0x3f801f8c	1.0009627
9	0x3f7ffe23	0.99997157
10	0x3f7fcbc8	0.9992032
11	0x3f7df58a	0.9920279
12	0x3f7da6d6	0.99082696
13	0x3f800f92	1.0004752
14	0x3f7f7ab9	0.99796635
15	0x3f80e739	1.0070564
16	0x3f7d7f57	0.9902243
17	0x3f7f0411	0.9961558
18	0x3f7f13cf	0.996396
19	0x3f82ae40	1.0209427
20	0x3f811b96	1.0086544
21	0x3f8018be	1.0007551
22	0x3f80079c	1.0002322
23	0x3f7eb9af	0.9950208
24	0x3f7fd3a7	0.9993233
25	0x3f7e512b	0.993426
26	0x3f8086a4	1.0041089
27	0x3f801a72	1.000807
28	0x3f806df4	1.0033555
29	0x3f7ea4a7	0.9946999
30	0x3f7fbad1	0.99894434
31	0x3f80fc70	1.0077038
32	0x3f7ee9d2	0.9957553
33	0x3f7f545b	0.9973809
34	0x3f7f304d	0.99683076
35	0x3f804513	1.002108
36	0x3f804c67	1.0023316
37	0x3f8030b7	1.0014867
38	0x3f807928	1.0036974
39	0x3f7f26bf	0.99668497
40	0x3f80ae62	1.0053217
41	0x3f7f0786	0.99620855
42	0x3f7ea0ff	0.9946441
43	0x3f7e8822	0.9942647
44	0x3f80abd1	1.0052434
45	0x3f7edf7a	0.9955975
46	0x3f7f8cca	0.998242
47	0x3f7fd0d1	0.99928004
48	0x3f80a382	1.0049899
49	0x3f7f5709	0.9974218
50	0x3f7fa455	0.99860126
51	0x3f806e39	1.0033637
52	0x3f7f5e26	0.99753034
53	0x3f7fa1ff	0.9985656
54	0x3f807069	1.0034305
55	0x3f800ea6	1.000447
56	0x3f803b53	1.0018104
57	0x3f805e42	1.0028765
58	0x3f802ce4	1.00137
59	0x3f807a9b	1.0037416
60	0x3f7f530e	0.99736106
61	0x3f805fc5	1.0029227
62	0x3f801222	1.0005534
63	0x3f80b591	1.005541
64	0x3f80036b	1.0001043
65	0x3f7ff31c	0.9998033
66	0x3f7f2a15	0.9967359
67	0x3f8004c1	1.0001451
68	0x3f804cd1	1.0023443
69	0x3f800d70	1.0004101
70	0x3f7f0238	0.9961276
71	0x3f7e8106	0.99415624
72	0x3f801023	1.0004925
73	0x3f7f0e4c	0.9963119
74	0x3f800d72	1.0004103

bnorm.bias f4 [75]
0	0x3ca8eab5	0.02061973
1	0xba4b9bf8	-0.00077670766
2	0x3c3e7471	0.0116244415
3	0x3c20bd7d	0.0098108025
4	0xbbdcc77d	-0.006737648
5	0x3c67d29e	0.014149336
6	0x3bdf8e30	0.00682237
7	0x3ba1128c	0.004915541
8	0xba2ef9f2	-0.0006674818
9	0x3ce6bbab	0.028165659
10	0x3b00c334	0.00196476
11	0x3b45cc3f	0.0030181555
12	0x3d59fab0	0.05321759
13	0x3876a033	5.8800168e-05
14	0x3c3c1163	0.011478755
15	0x3b2f01c2	0.0026703929
16	0xbbf1f9ff	-0.007384538
17	0x3bfac2f2	0.007652634
18	0xbbd41547	-0.006472263
19	0x3b8a0bf5	0.004212851
20	0x3b9859b4	0.0046493653
21	0x3c4b470a	0.012407074
22	0x3ca5ac46	0.020223748
23	0x3bf8f50d	0.0075975717
24	0x38eaa7d5	0.00011189251
25	0x3b90b8a0	0.0044165403
26	0x3d561b0b	0.052271884
27	0x3c8007f0	0.015628785
28	0x3b25a70f	0.0025276577
29	0x3cf36dd0	0.029715449
30	0x3cdebf30	0.027190775
31	0x3b8a29a1	0.0042163883
32	0xbb6b35d8	-0.0035890248
33	0x3c24b6ab	0.010053317
34	0x3c2f599c	0.010702517
35	0x3b8a3ba7	0.004218537
36	0xbb92afbf	-0.004476517
37	0x3c6bd28d	0.014393461
38	0x3c8a8d2b	0.016913017
39	0x3c67b713	0.014142769
40	0x3b95a39c	0.004566623
41	0x3bda58de	0.006663426
42	0x3aad7291	0.0013232996
43	0xbbe09c02	-0.006854535
44	0xb9b92777	-0.00035315353
45	0xbc27859d	-0.010224727
46	0x3be9f862	0.0071402052
47	0xbb987b54	-0.0046533737
48	0xbb379e00	-0.002801776
49	0x3bf2f7d4	0.0074147973
50	0xbbf72494	-0.0075422022
51	0x3aa8e343	0.0012885112
52	0xbb3c64f4	-0.0028746696
53	0x3b6b05ea	0.003586168
54	0xbbfd7481	-0.0077348356
55	0x3c412784	0.011789206
56	0x3c3288ad	0.010896844
57	0x3b6dffd6	0.003631582
58	0xbb180932	-0.002319884
59	0xb850f383	-4.9817852e-05
60	0x3b1b7f44	0.002372698
61	0x3bb5b5ac	0.0055453386
62	0x3ca60345	0.02026523
63	0xbad1a19b	-0.0015993597
64	0xbc47564d	-0.012166572
65	0xbac9bf44	-0.0015392085
66	0xba36e595	-0.00069769594
67	0x3ae211c3	0.0017247725
68	0xbc0375f9	-0.008023732
69	0x3bd120eb	0.006382098
70	0x39aeb8d6	0.0003332558
71	0xbb9d606f	-0.0048027555
72	0xbbd8a723	-0.006611721
73	0xbc0dea34	-0.008661795
74	0x3b20285b	0.0024438116

bnorm.running_mean f4 [75]
0	0x3bb1f6f3	0.00543105
1	0xbc9ee8a7	-0.019398047
2	0x3d13583e	0.035972826
3	0xbd081eb8	-0.03323242
4	0xbcd41e71	-0.025893422
5	0x3b2c29eb	0.0026270102
6	0x37c8310a	2.3864694e-05
7	0xbc819061	-0.015815916
8	0x3d95cf39	0.07314915
9	0xbd4ca61d	-0.049963105
10	0x3cfcb900	0.030849934
11	0x3ceaa873	0.028644776
12	0xbc265326	-0.01015166
13	0x3d468f4f	0.048476513
14	0xbc25b1c2	-0.010113182
15	0x3cb6a560	0.022295654
16	0x3cb0acb0	0.021566719
17	0xbc821319	-0.015878247
18	0xbd9e0fd4	-0.07717863
19	0x3d7b47b1	0.061347667
20	0x3c0304cd	0.00799675
21	0xbdc425eb	-0.09577545
22	0xbc9ecbf7	-0.019384367
23	0xbbeeb10a	-0.0072842883
24	0xbd0a9cea	-0.03384105
25	0xbdb76fa0	-0.08956838
26	0xbbd685f0	-0.0065467283
27	0xbd12689b	-0.03574429
28	0x3c2c99c2	0.010534706
29	0x3b1f0a2d	0.002426754
30	0xbc290f4a	-0.010318587
31	0x3c64339e	0.013928322
32	0xbbe0d883	-0.0068617477
33	0x3b284a73	0.002567914
34	0x3a52d3b8	0.0008042413
35	0xbbd75e5e	-0.0065725287
36	0x3b53126f	0.0032207032
37	0x3bd70242	0.0065615484
38	0xbb7aeb27	-0.0038287134
39	0xbb3459a4	-0.002751925
40	0x3b27b826	0.0025591939
41	0x3bbf449b	0.005837036
42	0xbbea2703	-0.007145764
43	0xbb5e6e51	-0.0033940265
44	0x3bb51b72	0.0055269534
45	0x3dc625b9	0.09675164
46	0x3d904eea	0.07046302
47	0x3e2a424d	0.16626854
48	0xbdef4f68	-0.116850674
49	0x3e8dddaf	0.27708194
50	0xbc634668	-0.013871767
51	0xbc2f7d7a	-0.010711068
52	0x3e38c97a	0.18045607
53	0xbe8618ed	-0.26190892
54	0xbd2af280	-0.041735172
55	0xbd0d2ba0	-0.034465432
56	0xbb5a9d1a	-0.00333578
57	0x3de121a0	0.109927416
58	0x3cb4af6d	0.022056306
59	0xbda85225	-0.08218793
60	0xc04ed32c	-3.231639
61	0xc0285af0	-2.6305504
62	0xbef43634	-0.47697604
63	0x40bb9b9b	5.862745
64	0xbfd8b19e	-1.6929204
65	0x410bc3a9	8.735269
66	0xbe9b5cef	-0.3034434
67	0xc09cb0b4	-4.89657
68	0xbffe4622	-1.9865153
69	0x40544581	3.3167422
70	0x40867532	4.201806
71	0xc0721c8f	-3.782993
72	0xc09cf7ba	-4.90524
73	0xc05d2468	-3.455347
74	0xc0a1d6bf	-5.057464

bnorm.running_var f4 [75]
0	0x3c214e8b	0.009845386
1	0x3c59a48d	0.013283861
2	0x3d2d28ed	0.042275358
3	0x3cf88c36	0.030340295
4	0x3caf139b	0.021371653
5	0x3a2eef5d	0.0006673241
6	0x3aee1862	0.0018165226
7	0x3b5c4273	0.0033608943
8	0x3e26e0c6	0.16296682
9	0x3da867f0	0.082229495
10	0x3ccfaf2d	0.025352085
11	0x3cc053eb	0.023477515
12	0x3c4ca93d	0.012491521
13	0x3d7af3c4	0.06126763
14	0x3b626831	0.0034546966
15	0x3bff5136	0.0077916635
16	0x3ba3d8bc	0.005000202
17	0x3b89c6ae	0.0042045927
18	0x3da60882	0.081070915
19	0x3d47718a	0.048692264
20	0x3b87c8b1	0.0041437973
21	0x3de6ac20	0.11263299
22	0x3baaa6e6	0.005207884
23	0x3aeeb99b	0.0018213274
24	0x3ca3e862	0.02000827
25	0x3de47aff	0.11156272
26	0x3b6ab7ec	0.0035815192
27	0x3c9d168f	0.019175796
28	0x3b009b6e	0.0019623893
29	0x3a43e0a7	0.00074721355
30	0x3d0f0e96	0.03492602
31	0x3d50a7d9	0.050941322
32	0x3c15d894	0.0091458745
33	0x3acfa434	0.0015841783
34	0x39e1bb8d	0.0004305508
35	0x3ccabc2e	0.024747934
36	0x3a8938ae	0.0010469162
37	0x3b911433	0.0044274568
38	0x3a1d159e	0.0005992296
39	0x3b6029b9	0.0034204556
40	0x3a635e50	0.00086734165
41	0x3c1f9785	0.009740715
42	0x3c4b677a	0.012414807
43	0x395cecdd	0.00021069073
44	0x3c2c2cee	0.010508759
45	0x3c83a155	0.01606814
46	0x3c04bcb1	0.008101628
47	0x3d4cbfa6	0.049987458
48	0x3cc7ea67	0.024403764
49	0x3e0bff2b	0.13671558
50	0x39370684	0.00017454667
51	0x39dc57e3	0.0004202715
52	0x3d6ef2cb	0.058337014
53	0x3df3a63d	0.11896942
54	0x3b5e91e0	0.003396146
55	0x3b1d6f75	0.0024022732
56	0x3997bda5	0.0002894226
57	0x3cb53e7a	0.022124518
58	0x3aaf5ead	0.0013379656
59	0x3c37166b	0.011174778
60	0x42029ec1	32.655033
61	0x41ac7f0f	21.56204
62	0x3f458e84	0.77170587
63	0x42d718e4	107.548615
64	0x410f5c08	8.959969
65	0x436f2458	239.14197
66	0x3e9da1c4	0.3078748
67	0x42969704	75.29495
68	0x414648d9	12.392785
69	0x4209c7ab	34.44499
70	0x425dcc3b	55.449444
71	0x42321da4	44.528946
72	0x4295fdd5	74.995766
73	0x4216a63b	37.662334
74	0x429fa3e9	79.82014

block2.conv_2.weight f4 [75, 15, 10]
0	0x3cd0f288	0.025506273
1	0x3d6ceab8	0.057841033
2	0xbd1706d8	-0.03687176
3	0x3d06e94c	0.032937333
4	0xbc99638d	-0.018724227
5	0xbd909424	-0.070595056
6	0xbda71003	-0.08157351
7	0x3d44b982	0.048028477
8	0xbcd039e7	-0.025418235
9	0xbd6e890d	-0.05823617
10	0x3c40e008	0.011772163
11	0x3c0b5c81	0.008505941
12	0x3cc2af52	0.02376524
13	0x3d90c694	0.07069126
14	0x3d878e24	0.06618908
15	0xbcd9731c	-0.026544146
16	0xbd9cb7f1	-0.076522715
17	0xbd45433b	-0.04815982
18	0x3d625ef9	0.055266354
19	0xbdb2563d	-0.08707855
20	0xbc8412cb	-0.016122242
21	0xbcc0341b	-0.023462346
22	0x3d86a027	0.065735154
23	0x3d680ebc	0.056654677
24	0xbd6ebf29	-0.058287773
25	0x3d69dc27	0.05709472
26	0x3c224118	0.009903215
27	0x3d72485f	0.05915105
28	0xbd96e82c	-0.07368502
29	0x3ca86f4d	0.020560885
30	0xbda46f71	-0.08029068
31	0xbcfe42eb	-0.031037768
32	0x3c25176b	0.010076384
33	0x3d8a1c27	0.06743651
34	0x3c2ce573	0.010552752
35	0xbd747f2c	-0.059691593
36	0xbd5e11af	-0.054216083
37	0x3d4bc2ba	0.049746253
38	0x3c956391	0.018235954
39	0x3d7be2a8	0.061495453
40	0x3be1cc87	0.0068908366
41	0xbd465bce	-0.048427396
42	0xbcb75c44	-0.022382863
43	0x3d8f41db	0.06994983
44	0xbd7582b2	-0.059939094
45	0xbc4cc82f	-0.012498899
46	0xbd60c746	-0.054877542
47	0xbd219eaf	-0.039457973
48	0x3d6b8f90	0.05750996
49	0xbd855e05	-0.065120734
50	0xbd8cf495	-0.06882588
51	0x3cf81d0f	0.030287294
52	0xbd9c43d6	-0.07630126
53	0x3d2cba8f	0.042170104
54	0xbcbe34bb	-0.023218503
55	0x3c96f6ff	0.018428324
56	0xbcb699c7	-0.022290124
57	0x3cac9a0d	0.02106955
58	0x3d51ba33	0.051202964
59	0x3c819e56	0.01582257
60	0x3da15636	0.078777716
61	0xbdb4e40b	-0.08832558
62	0xbdaf25d0	-0.08552134
63	0xbd82c0c5	-0.06384424
64	0xbd354747	-0.04425743
65	0x3c7b30b5	0.015331437
66	0x3d80a331	0.06281126
67	0x3d8b4c21	0.0680163
68	0x3d9a1798	0.075240314
69	0x3cb9b0b8	0.022667274
70	0x3c00947a	0.0078479
71	0x3cee3d59	0.029081987
72	0x3cb2ae78	0.021811709
73	0x3d633007	0.055465724
74	0xbc0bc5c8	-0.008531041
75	0xbbda374d	-0.0066594244
76	0x3c80a2f1	0.015702697
77	0x3d929d98	0.07158965
78	0xbd2f9042	-0.042862184
79	0x3d2d8ae1	0.042368773
80	0x3d815b65	0.0631626
81	0xbd84911b	-0.06472989
82	0xbcd7e70e	-0.026355293
83	0xbd00399e	-0.031304948
84	0xbda4bf15	-0.080442585
85	0x3cbb8108	0.022888675
86	0x3c9db6b8	0.019252166
87	0xbd094299	-0.033510778
88	0x3d096c0d	0.03355031
89	0xbd1dd591	-0.03853375
90	0x3d8fb26b	0.070164524
91	0xbd092e03	-0.033491146
92	0x3d2127a8	0.03934446
93	0xbd5aa0e8	-0.05337611
94	0xbd946abe	-0.07246922
95	0x3cc75c45	0.02433599
96	0x3c15294e	0.009104086
97	0xbd109027	-0.035293724
98	0x3b8b44b8	0.0042501353
99	0x3bf3a077	0.0074349004
100	0x3cc227a4	0.023700543
101	0xbae45522	-0.0017420391
102	0xbd7b9c93	-0.061428618
103	0xbd0d4575	-0.034490068
104	0x3d25de71	0.04049534
105	0x3d3753d3	0.044757675
106	0xbd6bfc17	-0.05761346
107	0x3d9bf816	0.07615678
108	0xbcf92e2a	-0.03041752
109	0xbdad3338	-0.08457035
110	0x3c4a07ba	0.012330944
111	0x3cdb1918	0.026745364
112	0x3d0da184	0.03457786
113	0xbc4e1d08	-0.012580164
114	0xbd916001	-0.070983894
115	0xba033c94	-0.000500628
116	0xbd1bc844	-0.038032785
117	0xbd14ddab	-0.03634421
118	0x3cf74270	0.030183047
119	0xbd86bc4d	-0.06578884
120	0xbd9359b8	-0.07194847
121	0x3d7be1e5	0.061494727
122	0xbd941d45	-0.07232145
123	0x3d17adb6	0.037030898
124	0x3d8ec5c5	0.06971315
125	0x3b86566c	0.0040996578
126	0x3d307b20	0.04308617
127	0x3d2b0afa	0.041758515
128	0x3d216df1	0.03941149
129	0x3d0d02e1	0.034426574
130	0x3bfb7121	0.007673398
131	0xbd9fdaa7	-0.078053765
132	0xbd96f5a7	-0.07371073
133	0xbd6abc9f	-0.05730879
134	0xbd6994db	-0.057026725
135	0xbd364089	-0.04449514
136	0xbcd27295	-0.025689403
137	0xbd2be27b	-0.041964035
138	0xbd587f94	-0.052856043
139	0x3cc0aa28	0.023518637
140	0xbca0eca4	-0.019644089
141	0xbbc2f41e	-0.005949511
142	0xbd50dda9	-0.05099264
143	0x3c6f1f95	0.014594932
144	0xbd554a22	-0.05207265
145	0xbd131d29	-0.03591648
146	0x3d0ceec2	0.034407385
147	0x3d1805c3	0.03711487
148	0xbc7b18c4	-0.015325729
149	0x3d8acbd9	0.06777162
150	0x3da3899b	0.079852305
151	0x3d947cdd	0.07250378
152	0xba24e998	-0.00062909117
153	0xbce7e703	-0.028308397
154	0x3d62d66f	0.05538028
155	0x3c005e06	0.007834917
156	0xbd37737f	-0.04478788
157	0xbd8ff4ff	-0.07029151
158	0xbdbe1d08	-0.09282881
159	0xbd0f8763	-0.035041224
160	0xbd43d8a9	-0.047814045
161	0xbd23cbf6	-0.039989434
162	0x3d88869a	0.06666298
163	0x3d946500	0.07245827
164	0x3d146766	0.03623142
165	0x3d6fb341	0.05852056
166	0xbc896234	-0.01677046
167	0xbd545f07	-0.051848438
168	0x3d53ca76	0.051706754
169	0x3da2e02b	0.07952913
170	0xbd28fff8	-0.041259736
171	0xbca5adfa	-0.02022456
172	0xbd37b602	-0.04485131
173	0xbd1517c5	-0.03639962
174	0x3d20de48	0.039274484
175	0x3d3801f4	0.044923738
176	0xbd9d58a7	-0.07682925
177	0xbb67152e	-0.0035260427
178	0x3d9fc3d8	0.07801026
179	0x3d9834e5	0.07431964
180	0x3d74426a	0.05963365
181	0xbcce01ed	-0.025147403
182	0xbd47220d	-0.048616458
183	0xbcd1502a	-0.02555092
184	0x3cbcbbf1	0.023038836
185	0xbd13fca3	-0.036129605
186	0x3d98d5ec	0.07462677
187	0xbd6f1112	-0.05836589
188	0xbd333106	-0.043747924
189	0x3d71058c	0.05884318
190	0x3d600155	0.05468877
191	0xbc95b940	-0.01827681
192	0x3d3f96a3	0.046774518
193	0xbd44888e	-0.04798179
194	0xbda4b65e	-0.08042596
195	0xbd805bf1	-0.062675364
196	0xbd6e5cc9	-0.058193956
197	0xbd3b58c0	-0.045738935
198	0xbd2b0116	-0.041749083
199	0xbd9c03b1	-0.076178916
200	0xbbbcd233	-0.0057623624
201	0x3c2298df	0.009924143
202	0x3b210ce1	0.0024574327
203	0x3ca45d0b	0.020063898
204	0xbba76c2a	-0.0051093297
205	0xbca783ce	-0.020448592
206	0x3d6e3449	0.05815533
207	0xbc2ce724	-0.010553155
208	0xbb18945a	-0.0023281784
209	0xbc17539d	-0.009236244
210	0xbbf86fb3	-0.007581675
211	0x3d1001b0	0.03515786
212	0xbc97e92b	-0.0185438
213	0xbd615577	-0.055013146
214	0xbc0c655f	-0.008569091
215	0xbd821463	-0.06351545
216	0xbdb5caca	-0.088765696
217	0xbd85b221	-0.06528116
218	0xbd545438	-0.05183813
219	0xbd980d29	-0.07424385
220	0x3cd7a4e9	0.026323752
221	0x3cd09851	0.025463255
222	0x3cfa301f	0.030540524
223	0x3c970249	0.018433707
224	0xbd95e145	-0.073183574
225	0x3d90825a	0.070561126
226	0x3ce3432e	0.027741995
227	0xbd9d7cbb	-0.07689806
228	0x3d861ed9	0.065488525
229	0xbd50609b	-0.05087338
230	0x3c6303d3	0.013855892
231	0x3c0199e4	0.007910226
232	0xbd9e9aac	-0.07744345
233	0x3d797069	0.06089822
234	0xbcd315c0	-0.025767207
235	0x3cac0191	0.02099684
236	0x3c56b323	0.013104233
237	0x3d1fd85c	0.039024696
238	0xbda82f04	-0.082120925
239	0xbd6613bf	-0.056171175
240	0xbb6553c9	-0.0034992567
241	0xbcbf2f10	-0.02333787
242	0xbcce10d6	-0.025154512
243	0x3c2148ac	0.0098439865
244	0x3d6e45b5	0.058171947
245	0xbc2eba21	-0.010664494
246	0xbd81e2dd	-0.06342099
247	0x3c938e31	0.018012138
248	0xbbb6bf08	-0.005576972
249	0x3ca9fbca	0.020749945
250	0x3dba6c0f	0.09102642
251	0xbd85b18c	-0.06528005
252	0x3d01ab6c	0.03165762
253	0xb78fce84	-1.7143095e-05
254	0x3b0434b8	0.0020173024
255	0xbd3535a9	-0.044240627

block2.bnorm_2.weight f4 [75]
0	0x3f7d7739	0.99010044
1	0x3f80b56d	1.0055367
2	0x3f82e800	1.0227051
3	0x3f800786	1.0002296
4	0x3f7f5e82	0.9975358
5	0x3f810045	1.0078207
6	0x3f79f5f1	0.976409
7	0x3f7d20bf	0.9887809
8	0x3f812b19	1.0091277
9	0x3f82a1a9	1.0205585
10	0x3f7ff732	0.99986565
11	0x3f80839d	1.0040165
12	0x3f8389ed	1.0276467
13	0x3f7ee0e9	0.99561936
14	0x3f7e7ca8	0.9940896
15	0x3f7fe5b8	0.999599
16	0x3f7cc0e1	0.9873181
17	0x3f7f6436	0.99762285
18	0x3f81423b	1.0098337
19	0x3f8060eb	1.0029577
20	0x3f83650d	1.0265213
21	0x3f7fc526	0.999102
22	0x3f815c25	1.0106245
23	0x3f7eb2e4	0.99491715
24	0x3f831a4c	1.02424
25	0x3f7cb007	0.98706096
26	0x3f80869e	1.0041082
27	0x3f7ecdeb	0.99532956
28	0x3f800f22	1.0004618
29	0x3f80261b	1.0011629
30	0x3f7e3971	0.993064
31	0x3f807aab	1.0037435
32	0x3f7e511f	0.9934253
33	0x3f7f9383	0.9983446
34	0x3f7f3fef	0.9970693
35	0x3f7f58cb	0.9974486
36	0x3f7fd92f	0.9994077
37	0x3f800ce7	1.0003937
38	0x3f82677b	1.018783
39	0x3f7faab2	0.99869835
40	0x3f801dac	1.0009055
41	0x3f804c71	1.0023328
42	0x3f7e5f1a	0.99363863
43	0x3f7ef8e2	0.99598515
44	0x3f80da13	1.0066551
45	0x3f80778e	1.0036485
46	0x3f7f584b	0.997441
47	0x3f829841	1.0202714
48	0x3f7fbc1e	0.9989642
49	0x3f7bfe44	0.98434854
50	0x3f7e83d2	0.9941989
51	0x3f7cc7c8	0.9874234
52	0x3f83768d	1.0270554
53	0x3f7f56fe	0.99742115
54	0x3f7f508d	0.99732286
55	0x3f7de324	0.99174714
56	0x3f823127	1.017125
57	0x3f7ee9d4	0.99575543
58	0x3f7e784e	0.9940232
59	0x3f7d6116	0.98976266
60	0x3f7f6082	0.99756634
61	0x3f81190d	1.008577
62	0x3f7edbd7	0.995542
63	0x3f7ff204	0.9997866
64	0x3f7f8cb8	0.99824095
65	0x3f822817	1.0168484
66	0x3f7ff689	0.9998556
67	0x3f7fc47f	0.99909204
68	0x3f7ebd44	0.99507546
69	0x3f7ece48	0.9953351
70	0x3f7d52f7	0.9895472
71	0x3f7f482e	0.9971951
72	0x3f803143	1.0015033
73	0x3f7fe899	0.9996429
74	0x3f80c114	1.0058923

block2.bnorm_2.bias f4 [75]
0	0x3c0a63c0	0.008446634
1	0x3b527fa8	0.0032119546
2	0x3cf9d334	0.030496217
3	0xbab2a65d	-0.0013629902
4	0x3c164851	0.009172515
5	0x3c1f76ca	0.009732911
6	0x3c24030a	0.01001049
7	0xbae249da	-0.0017264441
8	0x3d485e65	0.048918147
9	0x3b55ee13	0.0032643124
10	0x3b261b4c	0.002534586
11	0x3c526abd	0.012842831
12	0xbc8f84b1	-0.017519327
13	0x3cbdceef	0.023169963
14	0x3b9f3b19	0.00485934
15	0x3bae5f63	0.0053214296
16	0x3c3fbe91	0.011703149
17	0xbb36e0e1	-0.0027905034
18	0x3cab824c	0.020936154
19	0x3c1597dc	0.009130444
20	0x3cc5ebf7	0.024160368
21	0x3bdf2823	0.0068102046
22	0x39b90096	0.00035286386
23	0x3be199d4	0.006884793
24	0x39970763	0.00028806468
25	0xbc639139	-0.013889604
26	0x3a70b56b	0.0009182307
27	0x3bf2f64d	0.0074146152
28	0x3cc412d7	0.023934765
29	0xbc37897d	-0.011202213
30	0xbb26e266	-0.0025464534
31	0x3b8c38f2	0.0042792493
32	0x3baad6ff	0.005213618
33	0xbc869915	-0.016430417
34	0xbc8838e0	-0.016628683
35	0xbb876445	-0.004131826
36	0x3b738206	0.0037156357
37	0x3c4a4383	0.012345198
38	0x3d04f406	0.03245928
39	0x3bad83c5	0.005295249
40	0x3c40b6d5	0.011762341
41	0x3c168af5	0.009188403
42	0xbbe103a8	-0.006866891
43	0xbc2bc342	-0.010483565
44	0x3d24b53d	0.040211905
45	0x3b9d7bc4	0.004806014
46	0x3b404321	0.0029336887
47	0x3c90b584	0.017664678
48	0xbbb0d4e5	-0.0053964728
49	0xbc71dc54	-0.014762003
50	0x3a72039a	0.0009232104
51	0xbc57f0e3	-0.01317999
52	0x3cdc2f1c	0.026877932
53	0xbbdc4b19	-0.0067228195
54	0x3aa3eef3	0.0012507126
55	0xbbad51ff	-0.0052893157
56	0xbacc19a3	-0.0015571605
57	0x3c203057	0.00977715
58	0xbb8efe27	-0.0043637934
59	0xbc2af739	-0.010434919
60	0xbb99c320	-0.00469245
61	0x3c22f238	0.009945445
62	0xba647145	-0.0008714388
63	0xbab2bfb0	-0.001363745
64	0xbbe0cbe1	-0.0068602418
65	0xbb689889	-0.0035491309
66	0x3bbadcf9	0.0057026115
67	0x3b83591c	0.0040084254
68	0xbc387666	-0.011258697
69	0x3b6a68af	0.0035767963
70	0xbbd75561	-0.0065714573
71	0xbafe69ae	-0.0019410157
72	0x3b2c75d8	0.0026315358
73	0xbc29a0ce	-0.01035328
74	0xbab34f95	-0.0013680334

block2.bnorm_2.running_mean f4 [75]
0	0xbe03bebd	-0.1286573
1	0xbe29d3a0	-0.16584635
2	0xbd70c0d1	-0.058777634
3	0x3b819dfd	0.0039556012
4	0x3e7e5837	0.24838339
5	0xbe3d329c	-0.18476337
6	0x3e812f74	0.25231516
7	0x3d1a8fce	0.0377348
8	0xbd67b98d	-0.05657344
9	0xbe6a6714	-0.22890884
10	0xbe4ddc1f	-0.20103501
11	0x3d6a6901	0.057229046
12	0xbe7b9c71	-0.24571396
13	0x3e3ebcfe	0.18626782
14	0x3c774397	0.015091798
15	0xbd65bddb	-0.056089263
16	0x3e0f0a05	0.13968666
17	0xbd426a59	-0.047464702
18	0xbe062be5	-0.13102682
19	0xbcb1629a	-0.021653462
20	0xbe236eae	-0.1596019
21	0xbd17b794	-0.037040308
22	0xbea35bd7	-0.31906006
23	0xbe3f36b3	-0.1867321
24	0xbdffda34	-0.12492791
25	0x3e642957	0.22281395
26	0xbc39627a	-0.011314983
27	0x3d28c584	0.04120399
28	0xbd8da4fa	-0.069162324
29	0xbd9d49d4	-0.07680097
30	0xbe40663c	-0.18789
31	0x3df61a5d	0.12016747
32	0x3e3c882a	0.18411317
33	0x3df70033	0.12060585
34	0x3dbd07a4	0.09229973
35	0xbdf793a4	-0.12088707
36	0x3dfcf200	0.12350845
37	0x3e0f51ff	0.13996123
38	0xbc8cb319	-0.017175244
39	0xbdcde204	-0.10052875
40	0xbde76733	-0.112989806
41	0xbdabc388	-0.08386904
42	0xbda6a74a	-0.081373766
43	0x3e1321e1	0.14368393
44	0xbe0f7156	-0.14008078
45	0x3e5e3d43	0.21703057
46	0xbd3933e0	-0.045215487
47	0xbd0a50ed	-0.033768583
48	0x3e60f40d	0.21968098
49	0xbebe0134	-0.37110293
50	0x3e8ac03b	0.27099785
51	0xbe9ec347	-0.3100836
52	0x3a872061	0.0010309332
53	0x3e42eee1	0.19036438
54	0xbd13dd01	-0.036099438
55	0xbe584e8f	-0.21123718
56	0xbeabbca1	-0.3354235
57	0x3da7cdca	0.08193548
58	0x3d9e3cc1	0.07726432
59	0x39b5a7d3	0.0003464805
60	0xbd1f4b63	-0.038890254
61	0xbcf66a81	-0.030080082
62	0xbe19488d	-0.14969082
63	0x3cf14369	0.029451089
64	0x3e515e44	0.20446116
65	0xbc813f81	-0.015777351
66	0xbf0faa36	-0.56119096
67	0xbea197e3	-0.31561193
68	0x3ed90c08	0.42391992
69	0x3ce256d5	0.027629295
70	0x3da26e24	0.07931164
71	0x3e103b3f	0.140851
72	0xbe2931b3	-0.16522865
73	0xbe0818dd	-0.13290735
74	0xbe3bc238	-0.18335807

block2.bnorm_2.running_var f4 [75]
0	0x3ea8fa49	0.33003452
1	0x3e09776e	0.13424465
2	0x3d91cc95	0.07119099
3	0x3e13d107	0.14435206
4	0x3e11531c	0.1419186
5	0x3e098fca	0.13433757
6	0x3e5ae061	0.21374656
7	0x3e6cdb98	0.23130643
8	0x3da6b5e5	0.081401624
9	0x3e283cdb	0.16429465
10	0x3e68d41a	0.2273716
11	0x3daba3d7	0.08380859
12	0x3e495f5e	0.19665286
13	0x3df4b219	0.11948032
14	0x3db39c37	0.0877003
15	0x3deb48d3	0.114884995
16	0x3e1b29a3	0.15152602
17	0x3defddc4	0.1171222
18	0x3dee258e	0.11628257
19	0x3dd27c3a	0.102776006
20	0x3dc5efa1	0.09664846
21	0x3ddb75da	0.10715838
22	0x3eaa67aa	0.33282214
23	0x3ee743e4	0.45168984
24	0x3db8eca9	0.09029514
25	0x3e4cffe6	0.20019493
26	0x3d6412e6	0.055682085
27	0x3daccc39	0.0843739
28	0x3e91a83a	0.2844866
29	0x3e8a04de	0.26956838
30	0x3f3a51b2	0.7278091
31	0x3db67a79	0.089100786
32	0x3e2db6de	0.1696429
33	0x3ef5b388	0.47988534
34	0x3d6b7912	0.05748851
35	0x3eb6eb07	0.35726187
36	0x3e205afb	0.15659706
37	0x3f319167	0.6936249
38	0x3cacbaf7	0.021085246
39	0x3e211e01	0.15734102
40	0x3e106c39	0.14103784
41	0x3d6763c7	0.05649164
42	0x3e5d2f75	0.21600135
43	0x3dbe6f94	0.092986256
44	0x3dd082cc	0.101811975
45	0x3e48eb25	0.1962095
46	0x3e960f2f	0.2930846
47	0x3d331df1	0.043729726
48	0x3db98a9c	0.09059641
49	0x3e978972	0.2959705
50	0x3d795c29	0.060878906
51	0x3f84f4eb	1.0387243
52	0x3d7d9850	0.061912835
53	0x3e268763	0.16262583
54	0x3da0262c	0.07819781
55	0x3d82689f	0.06367611
56	0x3d3c83e0	0.046024203
57	0x3dae85f7	0.085216455
58	0x3de328ef	0.11091792
59	0x3eee73a0	0.4657259
60	0x3d8fe3ab	0.07025846
61	0x3c4c9ba1	0.012488277
62	0x3d41b753	0.047293972
63	0x3bd61f8a	0.0065345215
64	0x3cd6b820	0.026210845
65	0x3c618765	0.013765191
66	0x3f1a786f	0.6034002
67	0x3eafe3d6	0.34353513
68	0x3e09cf07	0.13457881
69	0x3cebcbf1	0.02878377
70	0x3ea2ae18	0.31773448
71	0x3c61b963	0.01377711
72	0x3c617bf9	0.013762468
73	0x3da29416	0.079384014
74	0x3c1dba21	0.009626896

block3.conv_3.weight f4 [150, 15, 10]
0	0x3d765dba	0.06014798
1	0xbd05a17e	-0.032624714
2	0xbafe7032	-0.0019412099
3	0xbc3a1d57	-0.011359534
4	0x3d4e356e	0.050343923
5	0x3b9d1e5c	0.004794879
6	0x3c6ffc7e	0.014647601
7	0x3d260aeb	0.040537756
8	0x3cb6a6dd	0.022296363
9	0xbd4a02f5	-0.049319226
10	0x3c687cdd	0.014189926
11	0x3c67095f	0.014101355
12	0x3d006c1f	0.031353112
13	0xbd5b02bd	-0.05346941
14	0x3d7a0dcb	0.06104831
15	0xbb94b898	-0.004538607
16	0xbd5555b5	-0.05208369
17	0xbd40e359	-0.047091816
18	0xbc762b93	-0.015025037
19	0xbd67fcb6	-0.05663749
20	0x3d170414	0.036869124
21	0xbcb4f0e5	-0.022087524
22	0x3cecfc2e	0.028928842
23	0x3ca52492	0.02015904
24	0x3d849b8e	0.06474982
25	0x3ca0cc52	0.019628678
26	0x3b86eeb3	0.0041178106
27	0xbcf2eb7b	-0.029653301
28	0x3c3293e3	0.010899517
29	0x3cf48032	0.029846285
30	0xbc3af69b	-0.011411334
31	0xbd57435e	-0.05255448
32	0x3cb676d6	0.022273462
33	0x3ce26d8c	0.027640127
34	0xbd1be78f	-0.03806263
35	0x3cf8f88d	0.030391956
36	0x3d302d6a	0.04301206
37	0x3d1af65b	0.0378326
38	0xbd121f0f	-0.03567415
39	0x39fcc12c	0.0004820911
40	0x3c97f640	0.018550038
41	0x3c48fa48	0.012266703
42	0xbd3c4670	-0.045965612
43	0xbc89260a	-0.016741771
44	0xbc6096f7	-0.013707868
45	0x3b59a2ca	0.0033208602
46	0xbc838d9e	-0.01605874
47	0x3af53f4f	0.0018710884
48	0xbd6d07d9	-0.057868812
49	0x3d636d97	0.055524435
50	0x3c8439ed	0.016140902
51	0x3c0538f5	0.008131255
52	0x3d13293e	0.035928003
53	0xbd61f921	-0.05516923
54	0x3cde603e	0.027145501
55	0x3c0e8d99	0.008700752
56	0xbc4a45a2	-0.012345703
57	0x3d86b090	0.065766454
58	0x3c7bfd9b	0.0153802885
59	0xbd949e23	-0.07256725
60	0xbcdb0915	-0.02673773
61	0x3cf917fb	0.030406943
62	0x3b569875	0.003274468
63	0xbd111652	-0.035421677
64	0xbd910e19	-0.07082767
65	0xbcaacedf	-0.020850597
66	0x3bc267f6	0.0059328033
67	0x3c41154b	0.011784862
68	0xbd103f14	-0.035216406
69	0xbd6cc770	-0.057807386
70	0xbd246114	-0.040131643
71	0x3cce60bf	0.025192617
72	0x3d71e34b	0.059054654
73	0xbcd1acae	-0.025595035
74	0xbc424450	-0.011857107
75	0xbc35aea3	-0.011089
76	0xbcdf41b3	-0.027253008
77	0x3c3ce03a	0.011528069
78	0x3d02a5c1	0.031896356
79	0x3d758f0d	0.059950877
80	0xbd3ca55a	-0.04605613
81	0xbc2ae08c	-0.010429513
82	0x3b76d59a	0.0037663938
83	0xbb00bba0	-0.0019643083
84	0x3cf144d0	0.029451758
85	0xbd28e140	-0.04123044
86	0xbbfbc5b4	-0.00768348
87	0xbd28c525	-0.041203637
88	0xbd523f98	-0.05133018
89	0xbc9e4c9a	-0.019323636
90	0xbca76b5e	-0.020436939
91	0xbc3c93e5	-0.01150987
92	0xbd22ae70	-0.039717138
93	0x3c731901	0.014837504
94	0xb9aef60b	-0.00033371183
95	0xbb2f5b23	-0.0026757203
96	0xbc886478	-0.01664947
97	0xbd01480e	-0.031562857
98	0x3d19cac7	0.0375469
99	0x3b9871c7	0.004652235
100	0xbd54ea04	-0.051980987
101	0xbcf2bbf3	-0.029630637
102	0xbc5d05bd	-0.013490138
103	0xbc1ba737	-0.009500316
104	0x3c17d2b8	0.009266548
105	0xbc92855a	-0.017885853
106	0x3d07cf77	0.03315684
107	0x3b7b23b2	0.0038320837
108	0x3c86126a	0.016366202
109	0x3bb68af2	0.005570763
110	0xbd1e6ce4	-0.038678065
111	0xbd15800a	-0.03649906
112	0x3c5befb9	0.013423854
113	0xbd68741a	-0.056751348
114	0x3d12cbf2	0.03583903
115	0xbd3a2dba	-0.045453764
116	0xbd36323e	-0.04448151
117	0x3d04ea8b	0.03245024
118	0x3d7b805f	0.06140172
119	0xbcc79796	-0.024364274
120	0x3d317f29	0.04333416
121	0xbc00d5fe	-0.00786352
122	0xbd6a80fa	-0.057251908
123	0x3d19d8bc	0.03756021
124	0x3ceb3908	0.028713718
125	0x3d8108be	0.063004956
126	0xbbb5c3be	-0.005547016
127	0x3d1cacf1	0.038250867
128	0xbcaeed9d	-0.021353537
129	0xbb087387	-0.0020820813
130	0xbccee977	-0.02525781
131	0x3be32565	0.006931948
132	0xbd3f8f3f	-0.04676747
133	0xbd2f3dfe	-0.04278373
134	0xbd0090cf	-0.0313881
135	0xbd5460ac	-0.051850006
136	0x3a04d8d9	0.0005067713
137	0xbd2da287	-0.042391326
138	0xbd48e833	-0.049049567
139	0x3d4addd8	0.049527973
140	0x3ca9547f	0.020670174
141	0x3ccbef7c	0.024894468
142	0x3c77d834	0.01512723
143	0x3d1cc99b	0.038278203
144	0x3d2df3f9	0.042469
145	0x3d02ba0b	0.031915706
146	0xbd1e106a	-0.038589872
147	0x3cf27013	0.029594457
148	0xbc0e2cdd	-0.008677688
149	0x3c8466f8	0.01616238
150	0x3cc1ebae	0.023671951
151	0x3d22d5db	0.03975473
152	0xbd5a373f	-0.053275343
153	0x3c88a2a4	0.016679116
154	0xbd9baa38	-0.07600826
155	0xbac4d51b	-0.0015017124
156	0x3d65fc68	0.056148916
157	0xbd4c4a24	-0.049875394
158	0x3d0de1ad	0.03463905
159	0x3cc130b9	0.023582803
160	0x3ce61caf	0.02808985
161	0xbcc35e2e	-0.02384862
162	0xbd23e579	-0.040013764
163	0x3d477dff	0.048704144
164	0xbc62eccd	-0.013850403
165	0xbd5752e8	-0.0525693
166	0x3d442a8f	0.04789215
167	0x3d26d25b	0.040727954
168	0x3d214d9d	0.03938066
169	0xbd302f7e	-0.043014042
170	0xbc746ee1	-0.014919014
171	0xbd351164	-0.044206038
172	0x3d674d4e	0.056470208
173	0xbd5cccf2	-0.05390639
174	0x3cf8a9d3	0.030354416
175	0x3d2381c4	0.039918676
176	0x3b7accfb	0.003826915
177	0x3d263528	0.040578038
178	0xbd4103b5	-0.047122676
179	0x3c6f2180	0.014595389
180	0x3c6dde17	0.014518282
181	0x3b535747	0.0032248066
182	0x3d6aa39c	0.057284936
183	0x3d45ad88	0.048261195
184	0x3d84f94d	0.06492863
185	0x3d82ca63	0.063862585
186	0xbc53bbec	-0.012923222
187	0x3d831228	0.063999474
188	0x3d88c2d1	0.06677783
189	0x3d40b0fd	0.04704379
190	0x3c8a15a6	0.016856026
191	0x3baff2c0	0.005369514
192	0x3c1afdb3	0.009459901
193	0x3d3698a8	0.044579178
194	0xbab0cc7a	-0.0013488673
195	0xbcebf92c	-0.028805338
196	0x3c58a853	0.013223725
197	0xbcbbcfdf	-0.02292627
198	0x3b2e0eb3	0.0026559054
199	0x3be69a68	0.0070374496
200	0xbd4a5623	-0.049398553
201	0xbc6c53a7	-0.014424241
202	0xbd2e20a8	-0.042511612
203	0xbd5ecd4b	-0.054395
204	0x3c14e9ef	0.009088977
205	0xbbb063e9	-0.005383004
206	0xb874940e	-5.831202e-05
207	0x3d1fbc80	0.038998127
208	0xbc6ad987	-0.014334089
209	0x39f89d69	0.00047419526
210	0x3c845d1e	0.016157683
211	0x3c54301b	0.012950922
212	0xbc5fd43d	-0.013661441
213	0x3cf19072	0.029487822
214	0xbc480901	-0.012209178
215	0xbd2e5263	-0.04255904
216	0xbc434f89	-0.011920818
217	0x3af5beb3	0.0018748849
218	0xbd451a9b	-0.048121076
219	0xbd943b79	-0.07237906
220	0x3d461805	0.04836275
221	0xbd1bfcb7	-0.038082805
222	0xbcbd04d0	-0.023073584
223	0xbd3f05c9	-0.046636377
224	0x3c913ee3	0.017730182
225	0xbcc6d241	-0.024270179
226	0xbbb17776	-0.005415852
227	0x3c8cf00f	0.017204313
228	0xbc97f989	-0.018551605
229	0x3ca3f353	0.020013487
230	0xbd2ce1e3	-0.04220761
231	0x3d2a7038	0.041610926
232	0x3cf006e7	0.029300166
233	0x3d05e8f9	0.032692883
234	0xbcc46b82	-0.023977045
235	0x3d54746b	0.051868837
236	0x3c45aeae	0.012065573
237	0xbce1dc11	-0.027570756
238	0xbd2d340c	-0.042285964
239	0xbd51a8b0	-0.051186264
240	0xbcc98c53	-0.024603045
241	0xbd101d5c	-0.03518425
242	0x3c48909a	0.012241507
243	0x3d1879da	0.03722558
244	0x3d1a34af	0.0376479
245	0xbbfa5201	-0.00763917
246	0x3c699a55	0.014257987
247	0x3d6f4164	0.05841197
248	0xbd5a0990	-0.053231776
249	0xbb695db4	-0.003560883
250	0x3cb3607b	0.021896591
251	0xbc4cf32f	-0.012509151
252	0xbd207677	-0.039175477
253	0x3c78d214	0.015186805
254	0x3c1adcb8	0.0094520375
255	0xbd1812b1	-0.0371272

block3.bnorm_3.weight f4 [150]
0	0x3f815c0a	1.0106213
1	0x3f7b1516	0.9807905
2	0x3f7be0f7	0.98390144
3	0x3f7cad2a	0.9870173
4	0x3f8096e2	1.0046046
5	0x3f7c8d7d	0.98653394
6	0x3f7fd3d9	0.9993263
7	0x3f800573	1.0001663
8	0x3f7ad33d	0.97978574
9	0x3f7b76f7	0.982284
10	0x3f7df486	0.9920124
11	0x3f81b776	1.0134113
12	0x3f849a2e	1.0359552
13	0x3f80b9b4	1.0056672
14	0x3f7f3415	0.99688846
15	0x3f7ee68b	0.9957053
16	0x3f7fd026	0.99926984
17	0x3f7f8106	0.9980625
18	0x3f7dbc7c	0.9911573
19	0x3f81f304	1.0152287
20	0x3f82be77	1.0214375
21	0x3f81942f	1.0123347
22	0x3f8047b2	1.002188
23	0x3f810e2e	1.0082452
24	0x3f835007	1.0258797
25	0x3f8136d9	1.0094863
26	0x3f7f9d1b	0.998491
27	0x3f82515b	1.0181078
28	0x3f80c255	1.0059305
29	0x3f82818b	1.0195783
30	0x3f809ece	1.0048463
31	0x3f7d1c11	0.9887095
32	0x3f83c5dd	1.0294758
33	0x3f80f511	1.0074788
34	0x3f808aa2	1.0042307
35	0x3f793ef1	0.97361666
36	0x3f835572	1.0260451
37	0x3f811c0c	1.0086684
38	0x3f809cc3	1.004784
39	0x3f80502d	1.0024468
40	0x3f7f7f9e	0.99804103
41	0x3f80fea8	1.0077715
42	0x3f7e236f	0.9927282
43	0x3f7a2a12	0.97720444
44	0x3f805a8a	1.002763
45	0x3f819b9f	1.0125617
46	0x3f7dc0fd	0.991226
47	0x3f808655	1.0040995
48	0x3f80ae41	1.0053178
49	0x3f7f5556	0.9973959
50	0x3f815a99	1.0105773
51	0x3f7d0d91	0.98848826
52	0x3f830db7	1.023856
53	0x3f80c443	1.0059894
54	0x3f803e6c	1.001905
55	0x3f7f1848	0.99646425
56	0x3f7f4ee2	0.9972974
57	0x3f83a59f	1.0284919
58	0x3f81671c	1.0109591
59	0x3f80004f	1.0000094
60	0x3f801e4b	1.0009245
61	0x3f81fd27	1.0155381
62	0x3f7f33f6	0.9968866
63	0x3f7fd282	0.99930584
64	0x3f8017c6	1.0007255
65	0x3f815232	1.0103209
66	0x3f807527	1.0035752
67	0x3f806c3b	1.0033029
68	0x3f803844	1.0017171
69	0x3f7f926d	0.99832803
70	0x3f7e5aa0	0.9935703
71	0x3f800dce	1.0004213
72	0x3f8056e9	1.0026523
73	0x3f7fc561	0.9991055
74	0x3f7e6dbb	0.99386185
75	0x3f7ed48c	0.9954307
76	0x3f800097	1.000018
77	0x3f81069b	1.0080141
78	0x3f82ba4d	1.0213104
79	0x3f80cedb	1.0063127
80	0x3f8133f5	1.0093981
81	0x3f812215	1.0088526
82	0x3f7df88e	0.9920739
83	0x3f7ecbe9	0.9952989
84	0x3f7de7b4	0.99181676
85	0x3f7db769	0.99107987
86	0x3f7f97af	0.99840826
87	0x3f7ffe3b	0.999973
88	0x3f80f04b	1.0073332
89	0x3f7e7c9f	0.99408907
90	0x3f7ea98a	0.99477446
91	0x3f7f3883	0.99695605
92	0x3f7eb773	0.9949867
93	0x3f816e91	1.0111867
94	0x3f7f585f	0.9974422
95	0x3f7a9472	0.9788276
96	0x3f7f321f	0.99685854
97	0x3f80009f	1.000019
98	0x3f828c36	1.0199039
99	0x3f840df3	1.0316757
100	0x3f80bf38	1.0058355
101	0x3f7e2e24	0.99289155
102	0x3f80cd7b	1.0062708
103	0x3f825c68	1.018445
104	0x3f7eb138	0.99489164
105	0x3f7e217a	0.9926983
106	0x3f7ed147	0.9953808
107	0x3f7e8467	0.9942078
108	0x3f80eb9a	1.00719
109	0x3f7e8b84	0.99431634
110	0x3f801735	1.0007082
111	0x3f7f79a0	0.9979496
112	0x3f7eb268	0.99490976
113	0x3f7e7aca	0.9940611
114	0x3f801af4	1.0008225
115	0x3f81a4a5	1.012837
116	0x3f7eb40a	0.9949347
117	0x3f7ea8af	0.9947614
118	0x3f804197	1.0020016
119	0x3f835f1f	1.0263404
120	0x3f7f6601	0.9976502
121	0x3f7e877d	0.9942549
122	0x3f817903	1.0115055
123	0x3f803bfd	1.0018307
124	0x3f7f745e	0.9978694
125	0x3f808864	1.0041623
126	0x3f8059f8	1.0027456
127	0x3f7f2893	0.99671286
128	0x3f8024f9	1.0011283
129	0x3f80cf53	1.006327
130	0x3f7e7ce7	0.99409336
131	0x3f7e2e60	0.9928951
132	0x3f7fa27e	0.9985732
133	0x3f7e5a72	0.9935676
134	0x3f807ec8	1.003869
135	0x3f80c120	1.0058937
136	0x3f80f082	1.0073397
137	0x3f806eaf	1.0033778
138	0x3f7f5a27	0.99746937
139	0x3f808d74	1.0043168
140	0x3f7d6afa	0.9899136
141	0x3f7f0fe7	0.9963364
142	0x3f80fe8f	1.0077685
143	0x3f7f080f	0.9962167
144	0x3f80f6d0	1.0075321
145	0x3f80a7e3	1.0051235
146	0x3f7ffe43	0.9999735
147	0x3f7f0ab5	0.9962571
148	0x3f7f800b	0.99804753
149	0x3f7e6501	0.9937287

block3.bnorm_3.bias f4 [150]
0	0xbc514d67	-0.012774802
1	0x3c73a99a	0.014871979
2	0xb7a76b4a	-1.9957912e-05
3	0x3c5c8b30	0.013460919
4	0x3c91483f	0.017734645
5	0x3c0b482e	0.008501096
6	0xbc75e65f	-0.015008538
7	0xbc67e6f9	-0.014154189
8	0x3b38b70c	0.0028185276
9	0xbc3812a2	-0.011234911
10	0xbc6813c4	-0.014164869
11	0x3ca44ecb	0.020057103
12	0x3c35498c	0.011064898
13	0x3bc68c4d	0.0060592056
14	0xbc6e6327	-0.014550007
15	0xbb420453	-0.0029604628
16	0x3ca69703	0.02033568
17	0xb996ae42	-0.00028740062
18	0x3c343250	0.010998324
19	0xbae62eed	-0.0017561592
20	0x3b822d03	0.003972651
21	0xbc4441c4	-0.01197857
22	0x3a614449	0.0008593244
23	0xbc67c75c	-0.014146652
24	0xbc7ef392	-0.015561001
25	0xbc0eb100	-0.008709192
26	0xbc400f56	-0.011722406
27	0xbc70f230	-0.0147061795
28	0x3a0555cd	0.00050863327
29	0xbc1fff9c	-0.009765532
30	0x3b62a2fb	0.0034582007
31	0xbc61e59a	-0.013787651
32	0xbbbe9869	-0.0058165086
33	0x3c69dad8	0.014273368
34	0xbcae7dca	-0.021300215
35	0xbb08bb5d	-0.002086363
36	0xbc3b053e	-0.011414824
37	0x3c8d9eb7	0.017287595
38	0xbb7bf5db	-0.0038446102
39	0xbbac9463	-0.0052667125
40	0xba082a48	-0.00051942887
41	0x3c46ac68	0.012126066
42	0xbc73b079	-0.014873617
43	0x3c908afe	0.017644402
44	0xba9dc56f	-0.0012036989
45	0x3cfe0112	0.03100637
46	0x3cb70e6a	0.02234574
47	0xbc50d6bb	-0.012746508
48	0x3c8d7037	0.017265422
49	0xbc9be727	-0.01903112
50	0xbca5bcda	-0.020231653
51	0x3ab78222	0.0014000575
52	0xbc29a54b	-0.01035435
53	0x3ca3b2b6	0.019982677
54	0xbc53a0f5	-0.012916793
55	0xbc84caee	-0.016210046
56	0xbbf6fd57	-0.0075375247
57	0x3cdcefd2	0.026969824
58	0x3cb96979	0.022633301
59	0xbc37cb83	-0.011217955
60	0xbb979a27	-0.0046265307
61	0xb71f87c0	-9.508745e-06
62	0xbb33993f	-0.0027404574
63	0x3c276f7e	0.010219453
64	0xbb9742b5	-0.0046161064
65	0x3c5e9d19	0.01358726
66	0x3c0e8203	0.008697989
67	0x3c6dd331	0.014515684
68	0x3c322a9e	0.010874419
69	0xbbd909be	-0.006623476
70	0xbc851fa6	-0.016250443
71	0xbb849456	-0.0040460033
72	0x3c64dc79	0.01396858
73	0x3b63368b	0.0034669961
74	0x3bc5b38f	0.006033368
75	0xbbdef3fb	-0.006803987
76	0xbb151530	-0.0022748224
77	0x3c8448a6	0.016147923
78	0x3b76e6e0	0.0037674233
79	0x3c2cf941	0.010557474
80	0x3ca5dd35	0.020247081
81	0x3bca5061	0.0061741327
82	0xbc3eaf35	-0.011638452
83	0xbbe14de5	-0.006875741
84	0xbc02a270	-0.007973298
85	0xbc117c3e	-0.008879719
86	0xba45b61b	-0.00075420894
87	0x3c650047	0.013977117
88	0x3c8b976d	0.017039979
89	0xbc6d8d19	-0.014498972
90	0xbc54a0eb	-0.012977819
91	0xbb700c62	-0.0036628474
92	0xbb665a8a	-0.003514918
93	0x3bea7df3	0.0071561276
94	0x3c271323	0.010197434
95	0xbcb13c41	-0.021635177
96	0x3c844520	0.016146243
97	0xbb1c58ae	-0.0023856568
98	0xb8a0dbca	-7.6703334e-05
99	0x3c74260e	0.014901651
100	0x3c16ed24	0.009211812
101	0xbc54343f	-0.01295191
102	0xbc4089bd	-0.011751589
103	0x3a54154e	0.0008090333
104	0xbba66b21	-0.0050786887
105	0x3af76472	0.001887454
106	0x3bd12a29	0.0063831997
107	0x3c225f86	0.00991047
108	0x3c4c7b05	0.012480502
109	0x3c43b3f7	0.011944762
110	0x3c14693d	0.009058294
111	0x3c094273	0.008377659
112	0x3b31cec0	0.002713129
113	0xbc06b0a7	-0.008220828
114	0x3bdb3e2d	0.0066907615
115	0x3ba3d98b	0.0050002984
116	0xbc2623a7	-0.010140336
117	0xbbbb1e97	-0.0057104337
118	0xbb3daec6	-0.0028943284
119	0x3b5e4d4a	0.003392058
120	0x3af2410a	0.0018482518
121	0x3b40d0db	0.0029421363
122	0x3c2d916f	0.010593756
123	0x3bdd01bc	0.0067445915
124	0xbb4333ba	-0.002978547
125	0xbb97c615	-0.0046317675
126	0xbbd7175f	-0.0065640653
127	0x3b90076e	0.004395417
128	0xbb7bd3f9	-0.0038425906
129	0xbbdd9780	-0.006762445
130	0xbb7bfddb	-0.003845087
131	0xbb111054	-0.0022134976
132	0x3b77950e	0.0037778053
133	0xbb3c67a7	-0.0028748305
134	0x398c7dd5	0.00026796633
135	0xbb00177b	-0.0019545245
136	0xbc8576cb	-0.016291996
137	0xbc39ab26	-0.011332309
138	0xbc8c1820	-0.017101347
139	0x3c2b3013	0.0104484735
140	0xb7d97536	-2.5922996e-05
141	0x3a8a7efd	0.001056641
142	0x3c12f682	0.008969905
143	0xbb733c2d	-0.0037114725
144	0xbc66dcd0	-0.014090732
145	0x3b9656f3	0.004588002
146	0xbb261327	-0.0025341006
147	0xbc4dc807	-0.012559897
148	0x3ad4bdf1	0.0016230923
149	0xbc7bbe23	-0.015365156

block3.bnorm_3.running_mean f4 [150]
0	0xbdf8cd32	-0.12148513
1	0x3dcc9502	0.099893585
2	0x3e7c936a	0.24665609
3	0xbe3aaab4	-0.1822918
4	0xbd21d797	-0.039512243
5	0xbda8e56e	-0.08246885
6	0xbe2de8a7	-0.16983281
7	0xbe106134	-0.1409958
8	0x3d383d8d	0.044980574
9	0x3e93f9ce	0.28901523
10	0xbe1afe5e	-0.15136096
11	0xbd1d15c6	-0.038350843
12	0xbe967d07	-0.29392263
13	0xbe219721	-0.15780307
14	0xbdbf2fc6	-0.09335284
15	0x3e832120	0.2561121
16	0xbead2520	-0.33817387
17	0x3dd7d5b5	0.10538808
18	0xbe35cd88	-0.17754185
19	0xbe837499	-0.25674894
20	0xbe899fb9	-0.2687967
21	0xbde59ff6	-0.11212151
22	0xbd8fe51a	-0.070261195
23	0xbe9e7ad2	-0.3095308
24	0xbe781095	-0.24225076
25	0xbe8152a3	-0.2525836
26	0xbdc2abbc	-0.09505412
27	0xbd4e5fce	-0.050384335
28	0xbd76bbfb	-0.060237866
29	0xbe14c864	-0.14529568
30	0xbe650f92	-0.22369221
31	0xbe330a73	-0.17484455
32	0xbd436314	-0.04770191
33	0xbdb4865d	-0.0881469
34	0x3e5019d1	0.20322348
35	0xbd3960f1	-0.045258466
36	0xbe122308	-0.14271176
37	0xbe5b133a	-0.21394053
38	0xbd284aab	-0.041086834
39	0xbddfb7ed	-0.10923753
40	0xbe8c28cb	-0.27374873
41	0xbe6c6f50	-0.23089337
42	0xbbfe68bf	-0.0077639516
43	0xbca9713b	-0.020683875
44	0xbe394106	-0.1809121
45	0xbe81e3e0	-0.25369167
46	0x3db8dbec	0.09026322
47	0xbe7e7aca	-0.24851528
48	0xbd8cd53e	-0.0687661
49	0x3dd80af8	0.10548967
50	0xbd85e08e	-0.06536971
51	0xbe3e7c7a	-0.18602172
52	0xbef9066e	-0.48637718
53	0xbe1ae187	-0.15125094
54	0x3e2c08c7	0.16800223
55	0x3c308d76	0.010775914
56	0x3d8291fb	0.063755
57	0xbe934abc	-0.28767955
58	0xbe1964b5	-0.14979823
59	0xbd77a610	-0.060461104
60	0x3e3595c5	0.17732914
61	0x3dacb60e	0.08433162
62	0x3cdeb845	0.027187476
63	0x3c0f10ee	0.008732064
64	0x3c0794bd	0.008275208
65	0xbe0c7540	-0.13716602
66	0x3dd536b0	0.104108214
67	0xbd626da6	-0.05528035
68	0xbd3435c7	-0.0439966
69	0x3dd7c8b3	0.10536327
70	0x3e0c1fd0	0.1368401
71	0xbd9a90db	-0.0754716
72	0xbe33b9ab	-0.17551295
73	0x3a549075	0.0008108684
74	0x3db09514	0.086221844
75	0x3e564487	0.20924579
76	0xbb445cf2	-0.0029962626
77	0xbd63baba	-0.055598
78	0xbe10d041	-0.14141943
79	0x3c07b3d7	0.008282623
80	0xbe0f6bee	-0.14006016
81	0x3b5fd995	0.0034156789
82	0x3d5de877	0.054176774
83	0x3d8cb2e4	0.06870058
84	0xbe2e942c	-0.1704871
85	0x3e0233ac	0.12715024
86	0xbccdf979	-0.025143372
87	0x3d1e1f8c	0.038604304
88	0x3d4a4eb1	0.049391452
89	0x3c76d4c5	0.015065377
90	0xbed83b07	-0.42232534
91	0xbe3a78ef	-0.18210195
92	0xbdd84856	-0.10560672
93	0xbe868206	-0.26271075
94	0xbd3a734f	-0.045520123
95	0xbe4d5277	-0.20050989
96	0xbbb9908f	-0.0056629847
97	0xbe249861	-0.16073753
98	0xbdb9811b	-0.09057828
99	0xbdbdfb6f	-0.09276473
100	0xbcc5693d	-0.024098033
101	0xbe1b8988	-0.15189183
102	0xbe5285cf	-0.20558856
103	0xbe3a0c41	-0.18168737
104	0xbe0022b6	-0.12513241
105	0xbdc02cb7	-0.09383529
106	0xbdc8c6fd	-0.09803579
107	0xbe10d382	-0.14143184
108	0x3cfcc6ce	0.030856516
109	0xbeafeeff	-0.34362027
110	0xbdb86ff7	-0.090057306
111	0xbd517aa8	-0.051142365
112	0xbe42a768	-0.19009173
113	0xbe196b6c	-0.14982384
114	0x3e053cba	0.13011447
115	0x39548abf	0.00020269582
116	0x3d56bcaa	0.052426018
117	0xbeaaa06f	-0.33325526
118	0xbd2fba5e	-0.042902343
119	0x3e7d242e	0.24720833
120	0x3d1a17ad	0.037620235
121	0xbacb3c94	-0.0015505725
122	0x3dd2dfd8	0.10296601
123	0x3c95caf7	0.018285258
124	0xbdd9f9a5	-0.10643319
125	0xbdf3028f	-0.118657224
126	0xbd2eb55a	-0.04265342
127	0xbdcf4a14	-0.10121551
128	0x3d88c099	0.0667736
129	0xbdd8e535	-0.10590593
130	0x3e496c28	0.19670165
131	0x3e111b61	0.141706
132	0x3e20a951	0.15689589
133	0xbe11f9e2	-0.14255479
134	0xbdda595f	-0.106615774
135	0xbc8bcd11	-0.017065557
136	0xbbff80c1	-0.007797331
137	0xbe35c137	-0.17749487
138	0xbd9653d6	-0.07340209
139	0x3e84d345	0.25942436
140	0xbea65bea	-0.32492
141	0x3d849eb5	0.064755835
142	0x3d338efb	0.04383753
143	0xbd74d26f	-0.059770998
144	0xbe01deb0	-0.12682605
145	0x3ce8b35f	0.028405843
146	0x3d0ce6cc	0.034399793
147	0x3db96d80	0.090540886
148	0x3d9384cb	0.072030626
149	0x3d6293c1	0.05531669
