submit_entry/checkpoints/Combined_edgcn_12s_slice_noise/ECG/4/best.pth (torch_old, 75847 bytes, 26 tensors)

conv_time.weight f4 [15, 1, 10]
00000000: 9dcd 66bc f27c 1fbe d929 1cbd 4e81 04bd
00000010: 7887 76bc f07b c7bc a11c 2abe 1688 3b3e
00000020: ba1d ea3b a2b3 433e 7c62 393e 0524 043e
00000030: 3c54 e93d dc1b fa3d cd69 34be 59c1 e7bd
00000040: dee8 2a3e 3e74 79bd e575 3bbe 07df 33be
00000050: f0ee 3a3e 4d9f 81bc ca9b 423d 0ee6 f33d
00000060: 0374 98bd 4404 3fbe 945b 343d d532 00be
00000070: ad11 48bd a9d4 c93d 35e2 823d 5921 493d
00000080: ad71 f5bd a222 94bd 4a44 fc3d ff32 08bd
00000090: 7a4d 5c3d 6307 25bc 7229 cfbc a4f2 93bd
000000a0: d2b4 1f3e 0458 7fbd fc37 23bd 010f 67bd
000000b0: aec5 dcbd 231c 373e 53ab 35be 950a 17be
000000c0: 99b8 e13d b68c 1d3e df85 0b3e 572c b6bd
000000d0: 9439 663d 9f7d 5c3e 0aae d63d 1bd9 2dbe
000000e0: 81a2 27be 9838 093e 42e2 c9bb fd15 093e
000000f0: 9531 30be 4e4f ae3c 23b1 0c3e e3d3 33be
00000100: 5d53 bf3c 82a0 f1bd 50db f63d 9d9f f339
00000110: 39ca ffbd d778 5b3c f900 033d a2d4 04be
00000120: 0814 cabc 2ecd 133e 950c fbbc f035 fc3b
00000130: e327 22be cbff cabd 1af6 debd e657 4cbe
00000140: fb34 2a3e f951 813c 8bcd 873c 6533 db3d
00000150: d781 363e 4da6 823d b386 023e cee6 123d
00000160: 1d01 363d 6458 c13d f41e e13d 79f4 c1bd
00000170: d2bb 263e 15e7 b3bd e685 2b3e 3699 90bc
00000180: 002b 083e 59ce 1ebe bc7a 26bd 3a1c 1bbe
00000190: befa f73d 6be9 943c 0047 3a3e aa3a a73d
000001a0: afcf 8fbd 45af f53d 61e9 0c3e a653 e0bd
000001b0: fa84 933d 03f7 613d d99b 09be f39a 283e
000001c0: 36ca c1bb 3bc8 c6bd 35c6 013d d53e ee3d
000001d0: d0e1 1b3d c3a0 11be 7cff 5bbd 8914 403c
000001e0: 5f07 143e e66f a5bd 143f 3e3e 8fe6 d5bc
000001f0: ddad 943d 02c3 4ebd 4553 18be a1e4 a8bd
00000200: 4e98 153d 6546 8d3d dfd1 8abd 62f9 acbb
00000210: 506b 89bd fb19 66bd a262 1c3c d915 3fbd
00000220: 0c37 f93d 9525 3cbd b3b9 353e 1971 ba3c
00000230: 6ef1 4ebe 735b 2d3d c5f1 29bd 98d3 0d3e
00000240: b452 4cbd cadb 1dbe 7883 eb3d e964 8b3b
00000250: 666a a6bd 39d6 a93d
-0.014087108 -0.15575007 -0.038125847 -0.032349877 -0.015046947 -0.02435109 -0.16612484 0.18313631
0.007144657 0.19111493 0.18103975 0.12904365 0.113930196 0.12212345 -0.17618485 -0.11316175
0.16690394 -0.060901873 -0.18306692 -0.17565547 0.1825521 -0.01582303 0.047511853 0.11909114
-0.074440025 -0.18653971 0.04403265 -0.12519391 -0.048844982 0.09855015 0.06390802 0.04910407
-0.119845726 -0.07233168 0.123177126 -0.03325176 0.053784825 -0.010072562 -0.025288317 -0.072240144
0.15596321 -0.062339798 -0.039848313 -0.056410793 -0.10779892 0.17881827 -0.17741136 -0.1475013
0.11021537 0.15385708 0.13625287 -0.08895176 0.056207255 0.21532296 0.10482414 -0.1697735
-0.16370584 0.13400495 -0.0061610052 0.13387294 -0.17206414 0.02127805 0.13739447 -0.17561297
0.02335518 -0.117981926 0.12053549 0.00046467493 -0.12489743 0.01339551 0.03198335 -0.12971738
-0.024667755 0.14433739 -0.030645648 0.0076968595 -0.15835528 -0.0991207 -0.10886784 -0.19955406
0.16621773 0.015786158 0.016577503 0.10703162 0.17822967 0.063793756 0.12746696 0.035864644
0.044434655 0.09440687 0.10992232 -0.094704576 0.16282585 -0.0878431 0.16750297 -0.017651182
0.13297653 -0.15508403 -0.040644392 -0.15147486 0.12108372 0.018177709 0.18191147 0.08165486
-0.070220344 0.11996321 0.13760902 -0.10953455 0.07203098 0.05516721 -0.13438357 0.16465358
-0.005913998 -0.0970616 0.031683166 0.11633078 0.03805715 -0.14221482 -0.053710446 0.011723646
0.14455937 -0.080779836 0.1857875 -0.026110915 0.07259724 -0.050478943 -0.14875515 -0.082467325
0.036522202 0.06898192 -0.06778311 -0.005278752 -0.06709921 -0.05617712 0.009545 -0.046651695
0.121687025 -0.04593428 0.1774662 0.022759007 -0.20209286 0.04232354 -0.041490335 0.13850248
-0.04988356 -0.15415874 0.11499685 0.004253973 -0.08125763 0.08292813

conv_time.bias f4 [15]
00000000: b4f7 54bb 2664 31bb 6ab7 46bb 495c 443c
00000010: 1700 81bb 63a7 c4bb 52d9 7b3b ce97 483a
00000020: f035 4bba 8792 9f3b 66f3 71bb b1fc e83a
00000030: 4cad 653b e585 b6bb 635b 01bc
-0.0032496275 -0.002706775 -0.0030321726 0.011984893 -0.0039367783 -0.0060013994 0.0038429094 0.0007652015
-0.0007751873 0.0048697623 -0.0036918758 0.0017775503 0.003504592 -0.0055701607 -0.007895323

bnorm.weight f4 [15]
00000000: d82a 743f ef17 853f 67db 7f3f d598 7e3f
00000010: c478 813f e528 793f 9fe1 763f 782f 833f
00000020: e02e 7f3f d212 823f 9d75 7d3f 4884 7c3f
00000030: c88e 7d3f e15f 833f 57d0 803f
0.95377874 1.0397929 0.99944156 0.99451953 1.011498 0.97328025 0.9643802 1.0248861
0.996809 1.0161994 0.9900759 0.98639345 0.9904599 1.0263635 1.006358

bnorm.bias f4 [15]
00000000: 8b5c 883d 20b0 8bbc e242 f73c 5610 11bd
00000010: 7b76 95bc 9f8d 23bd 05f2 04bd 9bf6 91bb
00000020: 5e20 7b3b f6ba 2b3c 159b 63bc 3f8f db3c
00000030: b345 c53c fbac 933d 256f 22bb
0.06658276 -0.017051756 0.03018326 -0.03541597 -0.018244972 -0.039929982 -0.03245737 -0.0044544465
0.0038318853 0.010481587 -0.013891955 0.026801703 0.024081087 0.07210728 -0.0024785486

bnorm.running_mean f4 [15]
00000000: 1fd5 9dbc d737 b6ba 9286 e33b fdf6 cf3a
00000010: 6947 22bb 6307 9c3d 67e4 73bd 21d6 05be
00000020: a373 493e 8449 3b3c 0cb4 0c3e 6bbe 71bc
00000030: 5caa fb3c d819 8f3b 3555 2bbd
-0.019266663 -0.001390214 0.0069435323 0.0015866455 -0.0024761802 0.076185964 -0.059543993 -0.13069965
0.19673018 0.011431102 0.13740557 -0.014754872 0.030720882 0.0043670945 -0.041829307

bnorm.running_var f4 [15]
00000000: 3a39 3d3d a230 cc3d 47ac cf3c 68aa ca3b
00000010: 1a36 633c 28fb 043e e94d 963d 69a2 ad3e
00000020: 6c98 373f 369d fb3c cbb9 bc3e 5036 0c3c
00000030: 2a76 eb3c 2c8d be3c a40e ec3c
0.046197154 0.099702135 0.025350703 0.006184865 0.013867879 0.12986434 0.07339079 0.33912972
0.7171695 0.030714612 0.368605 0.008557871 0.028742868 0.023260675 0.028815575

block2.conv_2.weight f4 [15, 15, 10]
00000000: 893f 13be b1aa 0dbd 1d23 33bd 188a 9f3d
00000010: cb09 a83d f457 a7bd 9a54 abbc 61da 95bd
00000020: c611 c6bd 0f19 c43d 5bd4 763d 3cdc 80bc
00000030: 9836 c7bd 400c 963d ffee ac3b 7a92 e33d
00000040: f9c8 13be 0c78 283b 174e 043e 57ff f9bd
00000050: d152 bd3d 3f09 0cbc 2e77 cc3c 0d73 2bbe
00000060: 7ef1 0cbe 1b49 d8bd 30da 14be 470e 9b3d
00000070: fd13 f5bc 4286 ca3c a8e9 dcbd b11e e43d
00000080: 82cc bd3d eee0 d0bd e049 babd 0a2e acbd
00000090: ffeb 15be 5099 b53c 626b 943d c0a6 123d
000000a0: 4981 45bc eec9 49bd 92df 2bbc c040 2a3c
000000b0: ac68 4dbb 3a1d 0c3d 0baa 293e 2c0a 713d
000000c0: a97c 93bd fb3c dbbd f910 dcbd 7a93 ca3d
000000d0: 9865 8d3d 4e7b 9dbd 0f9d bbbd a724 c23d
000000e0: 3711 283c 020b ebbd cd83 50bc 35df c1bd
000000f0: 270f eabb 1351 64bd 6ffb d3bd cd71 48bd
00000100: 492f b7bc 2fe3 ec3c 414f 16bb bf72 423d
00000110: 4975 683c 9068 32bc 28b3 8b3d 4da9 44bd
00000120: 2c29 103e 4e83 ed3b a1bc 033d 23e3 913c
00000130: 4d7c 03bc 4e9b 62bd 920a 92bd ca76 0abe
00000140: 6953 493c 77a8 49bd b40d e8bd 1f7e f6bd
00000150: 2dc9 9bbd c4ee a13b b808 063e 1bf1 2dbd
00000160: a30e f53d c5e9 26bd f13f f33d 775e 943d
00000170: 53b4 01be 8c76 46bd 86d7 a9bd 15b3 cfbd
00000180: 82d3 ab3d 95c8 d33c b8ec 5e3d 164c 19be
00000190: 7d3d 74bd eef7 a43c 0552 dcbd 3b7e f83b
000001a0: 0b73 a03d 2193 373d 1fc9 603d 3e93 f3bd
000001b0: bdb7 bd3d 48c0 2138 4402 353d eec1 f7bd
000001c0: 1e50 1e3a 7960 423c 8f10 883b bb7d 0c3e
000001d0: 63d5 c53d 9bcb 7fbc ab68 143e 948b 46bd
000001e0: 2f38 37bd d48f 1e3d 9c2b 8e3d 44cc 09bd
000001f0: 2462 bf3d 397e a83d 07f8 bdbc 713a c6bc
00000200: 3e18 e33d 74c5 c3bd 4d31 f53d 3cf5 ac3d
00000210: 1e02 0abe fd6a a9bd 5ce6 b2bc e76c e13d
00000220: 9bb3 97bd efca 22be 7628 e43d 3527 fbbd
00000230: 4b5d 51bd e647 3dbc 6ca6 a8bd bfe4 d33d
00000240: ba65 de3d 9577 0b3d 3c9b 883d a453 55bb
00000250: c48b e53b 1d6b 543d efe3 00bd f828 b8bd
00000260: abac ba3d bfe7 c03c f667 f3bd 58cb 51bd
00000270: 8946 bd3d acbb abbd 3123 debd 03f2 a13d
00000280: 6c9e 143d 20ed d33c c1d4 04be 8d90 b03d
00000290: 0f4b 9dbd 7c93 24bd d758 1bbe 0472 20be
000002a0: 9068 30be 894f a63d 3b20 f23d 6c33 0fbe
000002b0: 8eb3 c5bc 82ba f4bd db9f a3bc bf92 1bbc
000002c0: 611c f0bd 0c9c 273d 14c5 8dbd 9c4b b4bd
000002d0: 53fa 8b3d aa44 c83d ef61 8a3d 72ba 70bd
000002e0: 485b 0d3e b993 a4bd 57f0 d0bd 6460 843c
000002f0: 5ca6 a0bd 6fe3 a33c 7c3d 70bb ba69 71bb
00000300: 0b6a 31bd b50c d83d d695 10be 623a 18be
00000310: 527f 71bd ac60 ac3d 0fd9 d1bd d944 0fbc
00000320: 6d0e 913d ae90 433d 56d7 cdbd c231 0d3e
00000330: 5b81 94bd dd00 ee3d 7896 0d3d 97e6 653c
00000340: 9c92 9d3d 1c7e 91bc 5d21 d6bc 9bee cf3d
00000350: 6365 96bd 4ca0 fdbd 2d71 ca3d e545 e7bd
00000360: ea2b 823d 011a 133e ebee e23b f05f 16bd
00000370: bb79 113e 9892 913c eedc e23d c046 0f3e
00000380: 03d6 423d 50cf aabd c678 913d e983 153e
00000390: 62a6 cdbd 2250 96bd 8ccd 543c 6335 cd3d
000003a0: 8eb0 a8bd 3afc bf3d 0e71 d93d 0327 0dbe
000003b0: 84bd aabd 85bc eb3d 0509 6ebd ee90 c8bc
000003c0: 007d 463d df9d 793d d31e d23d 6962 f7bd
000003d0: 9ad0 b1bc e199 07be d3b1 2a3d 3d07 96bb
000003e0: d761 a8bd 2b35 c7bd 1b4d b63c 9fd9 adbd
000003f0: 7b0d f9bd d735 bbbc 6e19 283d 6cd6 eabd
-0.14379705 -0.034586612 -0.04373466 0.07790011 0.08204993 -0.081710726 -0.020914365 -0.07317043
-0.09671359 0.09575092 0.06026111 -0.015730016 -0.0972721 0.07326555 0.005277514 0.111119226
-0.14432134 0.002570632 0.12920414 -0.12206905 0.092443116 -0.008547126 0.024959173 -0.16743107
-0.13763997 -0.10560819 -0.14536357 0.075710826 -0.029916758 0.024722222 -0.10786754 0.111386664
0.092675224 -0.10199152 -0.09096122 -0.08407219 -0.14640807 0.022167832 0.07247044 0.035803556
-0.01205475 -0.04926484 -0.010490315 0.010391414 -0.0031342907 0.03420756 0.16568772 0.05884759
-0.072015114 -0.107049905 -0.10745425 0.0989141 0.06904143 -0.07689534 -0.09160816 0.09479647
0.010258011 -0.11476709 -0.012726736 -0.094664015 -0.0071429196 -0.05574138 -0.103506915 -0.048936654
-0.022361415 0.028916923 -0.0022935423 0.04747271 0.014188119 -0.010889187 0.06821281 -0.04801302
0.14078206 0.0072483188 0.032162312 0.017808503 -0.008025241 -0.05532389 -0.071309224 -0.13521877
0.012287953 -0.049232926 -0.11330739 -0.120357744 -0.076067306 0.004941793 0.13089263 -0.042466264
0.11965682 -0.040750284 0.1187743 0.0724458 -0.12666444 -0.0484529 -0.08293061 -0.10141579
0.08389951 0.02585248 0.05442497 -0.1497043 -0.059628952 0.020137753 -0.107578315 0.007583407
0.07834443 0.044818047 0.054879304 -0.118933186 0.09263561 3.8564467e-05 0.044191614 -0.12097536
0.000603916 0.011863821 0.0041523646 0.13719837 0.09659841 -0.015612508 0.14493053 -0.048472956
-0.044731315 0.038711384 0.069419116 -0.03364207 0.09344891 0.082272 -0.023189558 -0.024197789
0.11088608 -0.095591456 0.11972294 0.08445212 -0.1347737 -0.082723595 -0.02183836 0.110070996
-0.07407304 -0.15897726 0.1114053 -0.122633375 -0.05111436 -0.011552786 -0.082348675 0.10346364
0.108592466 0.03404959 0.066702336 -0.0032551074 0.0070051868 0.051859964 -0.031467374 -0.08992189
0.09114965 0.023548005 -0.11885063 -0.051219314 0.09241969 -0.08385405 -0.10846556 0.07907488
0.036283895 0.025869906 -0.12971784 0.08621321 -0.07680332 -0.040179715 -0.15170608 -0.15668494
-0.17227387 0.08120639 0.11822554 -0.1398446 -0.02413347 -0.11949636 -0.019973686 -0.009495436
-0.11724163 0.040920302 -0.06922355 -0.08803484 0.06834855 0.09778722 0.067569606 -0.058771558
0.13804352 -0.08035988 -0.10202091 0.016159244 -0.078442305 0.02000591 -0.0036657741 -0.00368367
-0.04331402 0.10549299 -0.14119658 -0.14866021 -0.058959313 0.08416876 -0.10246479 -0.008744442
0.070828296 0.0477454 -0.10050838 0.13788512 -0.07251235 0.116212584 0.034567326 0.014032028
0.07693979 -0.017760329 -0.026138956 0.10152932 -0.07343557 -0.1238409 0.09884868 -0.11292628
0.06356032 0.14365388 0.006925454 -0.036712587 0.14206593 0.017770097 0.11077295 0.13991833
0.04756738 -0.08340323 0.07103114 0.14601101 -0.10041501 -0.07339503 0.012988459 0.10019948
-0.082368 0.0937428 0.106172666 -0.13784413 -0.083369285 0.115105666 -0.05811407 -0.02448317
0.048459053 0.060941573 0.102597855 -0.12079317 -0.021705914 -0.13242294 0.041673493 -0.0045784996
-0.082217865 -0.09726938 0.022253564 -0.084887736 -0.12160774 -0.022852821 0.041039877 -0.11466679

block2.bnorm_2.weight f4 [15]
00000000: 1bd3 7e3f 3207 803f c0d8 813f 6ebe 7f3f
00000010: 4317 7c3f bc5e 803f 5b59 813f f039 843f
00000020: f210 753f db46 7f3f 8531 803f 8998 803f
00000030: 1d23 803f b15d 7c3f f920 823f
0.9954087 1.0002196 1.0144272 0.9989995 0.98472995 1.0028911 1.0105394 1.0330181
0.9572898 0.9971749 1.0015112 1.004655 1.0010716 0.9858046 1.0166312

block2.bnorm_2.bias f4 [15]
00000000: cc99 9dbc 6fa1 503b 1030 953c 774a 843c
00000010: 50bc cb3b 56c7 68bc 0d13 c73c 48b3 90bc
00000020: 650b 9abc 048a b33c 1118 9c3c 5125 0e3c
00000030: 8f0e 343c 4536 86bc bff2 5cbc
-0.019238375 0.0031834503 0.018211395 0.016148789 0.006217517 -0.014207682 0.024301076 -0.017663613
-0.018804261 0.021916397 0.019054445 0.008675889 0.010989799 -0.0163833 -0.01348561

block2.bnorm_2.running_mean f4 [15]
00000000: a8c8 61be 774b 03be 1585 e6be f877 423e
00000010: c98e 8abc 25fd c9bd 4774 6cbe b07a 16bf
00000020: f6ee 893e 6d71 383d 8965 273e 27af 3a3e
00000030: a064 0bbf e996 a33d f8e0 a6be
-0.220492 -0.12821756 -0.4502341 0.18991077 -0.016913788 -0.098627366 -0.23091231 -0.58780956
0.26940125 0.045030046 0.16347326 0.18230878 -0.54450417 0.07987768 -0.32593513

block2.bnorm_2.running_var f4 [15]
00000000: 7bc4 083f 069b 4c3f d366 9e3f df60 483f
00000010: cdde 323f be2c 303f 2710 3c3f 1f38 0040
00000020: dad3 ab3f a2fb 583f 95b3 3d3f 15a5 af3e
00000030: ff21 943f 15ec b63f f21c 983f
0.53424805 0.79924047 1.237513 0.78272814 0.69871217 0.6881827 0.73462147 2.0034254
1.3424027 0.8475896 0.74102145 0.34305635 1.1572875 1.4290797 1.1883833

block3.conv_3.weight f4 [30, 15, 10]
00000000: 1543 703d 8acf b83c 6d75 b5bd cb00 943c
00000010: 67f6 e0bd 4d28 bcbc 7c7b 443d 0042 abbd
00000020: 58cf 793d 3469 173c e6aa 6f3d 0b1c c8bd
00000030: 27a7 a1bd 8a8b 6d3d 49ed 26bd de44 793d
00000040: b66a e63b 4cfe 73bd 65a9 fa3c d738 58bd
00000050: a754 ac3d f5fa 0e3d 800b d13d 9eb9 b5bb
00000060: aec3 cd3d 945d aa3d 1639 b63c b7b2 b6bd
00000070: 7bf5 d3bc 7b07 e0bd 6662 1dbd 7bd9 b3bd
00000080: aca9 06be 6425 463c feec c7bc bffd e1bd
00000090: 790d 5b3d 667b b13d 46ff f13d 64b1 723d
000000a0: 9125 bdbd 73b0 46bd c3ce efbd a25c b5bd
000000b0: 0118 2cbd 5fcd 813d 7f36 823d 8847 7d3d
000000c0: af64 8b3d af6e 1a3d 2946 99bd 04eb a43d
000000d0: 3b0f 32bd 788b f63c e8d8 41ba 14d4 9cba
000000e0: 08d2 4dbb fdcd 5ebd 9b37 1b3d d0e9 70bd
000000f0: 8730 5cbd ac7d 4a3d 2a64 513d 42b7 5c3d
00000100: 735e 11bd 282b b33d a2be 0c3e 3df1 173d
00000110: 984c 3dbd 4c4e 94bd 8709 ab3d 4aa0 92bd
00000120: 1176 a9bd 24fc 723b b0e2 883d 0375 d53d
00000130: bfe6 803d c14e 703d 5a8f 1abd f8dd f2bc
00000140: a843 3e3d a23e 813b 15eb 2d3d 5ed3 f8bd
00000150: 0137 303d c7d6 103d 251b 063d ed62 78bc
00000160: 5feb d73d 0eb9 b23d 1ea1 00be ae1f b1bd
00000170: 5909 a0bd 8898 ae3d 5cd6 6dbd 3f79 f73c
00000180: 14c5 cabd 4234 66bd 68bf 84bd 01ad 5f3d
00000190: cc2f d0bd 223b dabd f470 d5bc 96c2 acbb
000001a0: 18f9 dbbd b87e 44bd badd a03c fd39 98bd
000001b0: 8301 8c3d cb34 94bd 7cf7 bdbd 4f3e 89bb
000001c0: ad47 8f3d 8bd5 903d f685 90bc 838b 64bd
000001d0: d0a2 05bd a72a 23bd acc2 9d3b 4d0d 803c
000001e0: aa23 b5bd c808 e13d 7dc8 6c3d 88d9 123d
000001f0: 9378 b6bd d6c3 60bd 89df 13bd 90f9 5bbd
00000200: f16c 86bd f05c fe3d 34cb 713d 7371 c23d
00000210: a75e 80bd bc7f c03d eabb be3d b2ee 903d
00000220: 23d0 a3bc 2f83 9ebc 09a3 853c a181 bc3d
00000230: 52c8 f3bc 3401 853d 1d79 7cbd 71d0 9dbd
00000240: 5fa7 273d ec42 87bd 554b bdbd cb6f e33d
00000250: 1652 10bd 2e7f 1abd 8ddb 4f3d 33e3 bbbb
00000260: 07d2 07bd 526a 663d 7f16 48bd e5b3 923d
00000270: 09f0 593d 6912 c5bd 3e98 f8bd 481e 45bc
00000280: 71ee f83d 4bf4 09bd b57e 79bd eeb2 6bbd
00000290: 9c5f 6cbd 4d3f d23c 491a 943d 8c30 aebd
000002a0: c19b 8bbd 4d88 5ebc 6655 a6bc 4f68 9e3d
000002b0: a265 483c 51de bc3d a47a 813d c610 03bd
000002c0: 0486 7ebd 40ad 80bd 0a48 a7bd 9e11 3d3d
000002d0: 9c9e f2bd 6745 883d 7ab7 b1bd c69e 853d
000002e0: bb20 ed3c 7d2d bc3d c0c0 e3bd 4706 0dbd
000002f0: ba13 7abd adee 9ebc 98d6 02be 8138 d0bc
00000300: a678 cabc fdf0 a93d a1c4 463b 4271 11bd
00000310: 2276 e1bd 6731 463d 459d babd 242c 673c
00000320: a01b 733d a469 2b3d dddf f43c 5d73 f0bb
00000330: beb2 abbd b4ec 663d 8aad 8abd 9641 923d
00000340: c41a b3bd e03e 8b3c 8656 46bd 6168 16bc
00000350: 474b 1f3d c09e 3ebd b73a 463d 3bb5 2abc
00000360: 450a d9bd 434c 61bd bdb5 dfbd 692b 9e3d
00000370: 2d7b cbbd 1f55 0c3d be43 423c dda4 243e
00000380: 3ade e2bc 683c 813a 38ce 823d bad1 12be
00000390: b71b 543d b96f ee3d 9461 d6bd a8f1 5b3d
000003a0: 8ba8 433d 00a8 cbbd c07d 4f3d 00ea 91bc
000003b0: 0e8b c63d d1a2 c23d 5cb8 b1bd 80f2 d83d
000003c0: 76d9 a63d cebd 1c3d 19b2 a43c 8556 2f3d
000003d0: 562a c5bd e155 e1bc 1245 b83d d290 c7bc
000003e0: 6067 a4bd 87c9 f8bd 43c7 febd 993a 0cbe
000003f0: 2ad0 113c 041c 9b3c 959d dcbd a8bb a0bd
0.058657724 0.0225599 -0.08860288 0.018066784 -0.109844975 -0.022968436 0.047969326 -0.08362198
0.060988754 0.009241391 0.05851259 -0.09770974 -0.0789321 0.057994403 -0.040753637 0.060856692
0.007031764 -0.05956869 0.030598352 -0.05278858 0.08414584 0.0349073 0.102072716 -0.005545809
0.100470886 0.0831863 0.022244018 -0.08920806 -0.02587389 -0.10938927 -0.03842392 -0.087817155
-0.13150662 0.012093876 -0.024404999 -0.11034726 0.053479645 0.086661145 0.11816268 0.059251204
-0.09235681 -0.04850812 -0.117093585 -0.08855559 -0.04201508 0.063379996 0.063580506 0.061835796
0.06806313 0.037703212 -0.07484085 0.08052638 -0.043471556 0.0300958 -0.0007394687 -0.001196506
-0.0031405706 -0.054395664 0.037894826 -0.05881673 -0.053757217 0.049436256 0.051120915 0.053885706
-0.035490464 0.08748466 0.13744596 0.037095297 -0.046215624 -0.072414964 0.083514266 -0.07159479
-0.082744725 0.0037076557 0.06683862 0.10422709 0.06294011 0.058668856 -0.037734367 -0.029646859
0.04645124 0.003944234 0.04246052 -0.1214969 0.043021206 0.035361078 0.03274073 -0.0151603045
0.1054294 0.08726703 -0.12561461 -0.086486205 -0.07814283 0.08525187 -0.058065757 0.030209182
-0.09900871 -0.05620218 -0.0648182 0.05460835 -0.101653665 -0.1065581 -0.026054837 -0.00527222
-0.1074087 -0.04797241 0.019636977 -0.074329354 0.06836226 -0.07236632 -0.092757195 -0.004188336
0.06996093 0.0707198 -0.017642003 -0.05579711 -0.032625973 -0.0398356 0.0048144665 0.015631342
-0.08844693 0.10988003 0.057808388 0.035851985 -0.089097165 -0.054874264 -0.03610185 -0.0537048
-0.06563748 0.1242007 0.05903168 0.09494295 -0.062680535 0.093993634 0.093131855 0.070767775
-0.019996708 -0.019349663 0.016313093 0.09204412 -0.029758606 0.0649437 -0.06163894 -0.07705773
0.040931102 -0.06604561 -0.09242884 0.11105307 -0.035234533 -0.037718944 0.05074649 -0.0057338714
-0.033159282 0.05625374 -0.04884958 0.071632184 0.05320743 -0.09622652 -0.12138413 -0.012031145
0.12154854 -0.03368024 -0.060911853 -0.057543688 -0.057708368 0.02566495 0.07231576 -0.08505353
-0.06816817 -0.013582301 -0.020304393 0.07734739 0.012231262 0.09222091 0.0632222 -0.03199842
-0.062139526 -0.06283045 -0.08168037 0.04615938 -0.118466586 0.066538624 -0.086775735 0.06524424
0.028946271 0.09188364 -0.111207485 -0.034429815 -0.06105397 -0.019400919 -0.12777174 -0.025417568
-0.024715733 0.08297918 0.0030329602 -0.0355084 -0.1100886 0.048386957 -0.09112028 0.014109645
0.059352517 0.041848794 0.029891903 -0.007337971 -0.08383702 0.05637808 -0.06771381 0.07141416
-0.087453395 0.016997755 -0.04842236 -0.009180159 0.03889015 -0.046538115 0.04839584 -0.010419185
-0.10597662 -0.05500437 -0.10923336 0.077231236 -0.09935603 0.034260865 0.011856971 0.16078515
-0.027693857 0.0009859921 0.06386989 -0.14337817 0.051784243 0.11642403 -0.1046783 0.05369726
0.047768157 -0.09944153 0.050657034 -0.017811775 0.09694491 0.09503711 -0.08677742 0.10593128
0.08146946 0.03826695 0.020104455 0.04280712 -0.096272156 -0.02750677 0.08997549 -0.024361048
-0.0802753 -0.12147813 -0.1244035 -0.13694228 0.008899728 0.018934257 -0.10772244 -0.078482926

block3.bnorm_3.weight f4 [30]
00000000: f939 873f 6cf0 883f fb85 813f c8d5 813f
00000010: ff16 823f 79a4 7c3f 9dcf 843f 231d 803f
00000020: 4076 733f 5b64 893f 24fe 7a3f eb56 793f
00000030: 0d86 803f 7679 883f 535c 853f a4f8 7d3f
00000040: 5864 833f 17aa 823f 1cd7 803f 438e 813f
00000050: 04df 7a3f 1952 883f a28b 783f ec01 843f
00000060: ef8f 7c3f 29cd 823f c6aa 823f 34a6 733f
00000070: 838f 7f3f 2aa1 7e3f
1.0564567 1.0698371 1.0119013 1.0143366 1.0163268 0.98688465 1.0375859 1.0008892
0.9510231 1.0733751 0.9804404 0.9739825 1.0040909 1.0662067 1.04188 0.9920752
1.0264997 1.0208157 1.0065646 1.012154 0.97996545 1.0650054 0.9708806 1.0313087
0.98657125 1.021886 1.0208366 0.9517548 0.99828357 0.99464667

block3.bnorm_3.bias f4 [30]
00000000: c525 c93c 2324 ee3a 60e4 bdbb 9208 db3b
00000010: 3d2b 013d 6191 433c 3380 0e3d 713b 5ebc
00000020: aa9f 7dbd 2eef c83c 9f6b febc a61b f13b
00000030: 9dd0 66bb a171 df3c 109a 4b3c 66c0 21bd
00000040: 2dc1 8cbb 5bee b13c a665 ddbc 6025 e0b9
00000050: 31ce 09bd 5081 6e3d 1b64 8c3b b218 2c3d
00000060: d123 713c 5c9f 1f3c 2b0a 2abd ae98 08bd
00000070: 5d1e 13bc 2168 13bc
0.024554143 0.0018168729 -0.0057950467 0.0066843713 0.031535376 0.0119365165 0.03479023 -0.013563977
-0.061919846 0.024528112 -0.031057177 0.0073580323 -0.0035219558 0.027275862 0.012426868 -0.039490126
-0.0042954893 0.021720102 -0.027026009 -0.00042752456 -0.033643905 0.05822879 0.0042843944 0.04201574
0.014718012 0.009742584 -0.041513603 -0.03334873 -0.008979407 -0.008996994

block3.bnorm_3.running_mean f4 [30]
00000000: fc21 dfbd 63e0 0bbe be47 f5be 836b 9fbe
00000010: 51da 1abe d590 10be d4e4 11bf fc9c 9a3d
00000020: d503 c2be fb84 ddbe 43b5 313e 90ef 71bd
00000030: 1307 dbbe f1b1 8dbe 1be6 2bbe 84a7 d1bd
00000040: d821 8fbe 56f8 e4be 54a3 13be 12d9 89be
00000050: 5a33 96bd a2ee 4cbe dc9a b2bd 6d28 cebe
00000060: f002 043f 01c4 cabe 2441 5cbd c975 0e3e
00000070: 4b99 babe 6447 b0bd
-0.10895154 -0.13659815 -0.47906297 -0.31136712 -0.15122344 -0.14117749 -0.5698979 0.07549474
-0.3789355 -0.4326552 0.17354302 -0.059066355 -0.42778835 -0.2767482 -0.16786997 -0.10237029
-0.27955508 -0.44720715 -0.14417773 -0.26923424 -0.07334013 -0.20012906 -0.08720943 -0.40265217
0.5156698 -0.39602664 -0.05377306 0.13912119 -0.36445078 -0.08607367

block3.bnorm_3.running_var f4 [30]
00000000: a6dd 193f b393 a33e 9f51 773f cc75 c73e
00000010: 6a6b d73e 5a15 b53e b2f9 da3e 240f 0a3f
00000020: 8f55 9e3e f593 c73e 8eb1 103f 5c32 463f
00000030: 19fc 6e3f 5185 053f c504 db3e ee48 3f3f
00000040: c8e9 113f ad31 bf3e a03b a93e ba38 d63e
00000050: eac4 fc3e 021b d53e 19fe a23e b7ce be3e
00000060: b10e 603f 50cc 353f 7132 443e 9f0a 153f
00000070: 5ea5 d63e caae 393f
0.60103834 0.31948623 0.9660892 0.3895706 0.42074138 0.35367852 0.42768627 0.5392935
0.3092465 0.3898007 0.56520927 0.7742059 0.9335342 0.5215655 0.42777076 0.74720657
0.56997347 0.37342587 0.33053303 0.41840154 0.49368984 0.41622168 0.31834486 0.37267086
0.8752242 0.7101488 0.19159867 0.5821933 0.4192304 0.7253233

block4.conv_4.weight f4 [30, 30, 10]
00000000: c38d 963c 4f0f 343a fd71 8c3d 1bce 0cbb
00000010: 4f47 893d 1afe f3bb b31c 903d ad32 2a3d
00000020: 6a9e 093e d110 84bd 20aa feba 7736 61bd
00000030: f7f2 2e3d 9f41 05bd 007b 413d 582b 99bc
00000040: 149d 4dbd 0de7 b8bd 2d00 39bd 2da0 9d3b
00000050: ae48 c03d 8e78 853d e2c2 39bd b18c b2bd
00000060: 0ec9 ae3b 828f 6abd a4e9 98bd 338d 61bd
00000070: fb91 9b3a 49f3 1bbc 69ab 34bd a69b b9bc
00000080: 6216 22bd 8453 c33d 99ef 82bd d849 ccbd
00000090: a045 b23d 3fad 1d3c 8c65 0abd 8ac7 613d
000000a0: 42d6 17bd 28ba ab3d 5f0e 8cbd 44b1 623d
000000b0: 732d 323c 1e9f 9d3d 3bca 843d 2f19 be3c
000000c0: 7899 20bd 1c42 70bd 2743 afbb 6e42 693d
000000d0: b0bb 293d 14da 073d 792a acbd 01c4 3ebc
000000e0: ff19 1abd 76c8 163c 4dd0 633d 1bdc 653c
000000f0: 066c b7bc 23c7 43bc ecf1 673d c020 203d
00000100: aaec 9abd abb8 933d 7b70 1dbd 1b76 05bc
00000110: 5c75 19bc ccf5 8ebd b4c8 943b 51e3 363d
00000120: 5aff d4bc 91a9 c43b eb70 4d3d b44c ae3d
00000130: dd47 fabc 2763 38bb fec7 2a3c 50aa 443c
00000140: dd5f 42bd 7c79 d3bd 2c63 763d 1fe0 d8bc
00000150: f8a1 57bd 04e6 9d3d 96bd 683d 655d 7f3d
00000160: fc91 aabc c4d1 a03d 2370 453d 9829 fd3d
00000170: 2c2c ee3d cd69 f0bd 34a9 633d ebf1 4cbd
00000180: 682d 4c3c 60bd 84bd 561a 63bd e2bb b73d
00000190: 0d6b 42bd d3f6 81bd 83e3 1fba 48bd dabd
000001a0: 4ec5 89bd 5f63 073c b64b 703d c136 5e3d
000001b0: 2ed4 c7bc c1eb babc 943b e8bb c2af 91bd
000001c0: f60e 37bd 0b18 34bd 96b3 de3c cf97 1ebd
000001d0: 4602 3e3d a7e5 9b3d d0f6 66bd d65c 533d
000001e0: 74a7 0d3d 8c48 c6bd cc60 18bc f3ed bebd
000001f0: 9163 1f3d abd6 763d f861 e83c d56d b4bd
00000200: 6734 883c b202 853c ed54 5bbd 05bb b7bd
00000210: 188d 99bd c168 8abd 2b81 0fbd d94f 7a3d
00000220: 4754 8c3d c886 90bd ca3b 2c3d 71dd 793d
00000230: 7e12 80bd 8e16 3fbd 025f eebc 201f 82bd
00000240: 10a7 f8bc 4edc bb3d f21d c7bc 99ba 8c3d
00000250: d11b b53d f9e7 133b 1681 863d 1c45 163c
00000260: 199d a73d 1a0b c23c 99cc bc3d 7e46 d43b
00000270: 25a0 d3b9 768a 76bd 9271 e4bb 9b42 a0bd
00000280: 70bb 943c c14a 073d 1e77 943d 83b8 91bd
00000290: eb70 a2bd 6bf3 043d c4d0 0a3d 5041 883c
000002a0: e2c6 253d e32b d1bc fbfa c4bd 2474 a9bd
000002b0: cd51 b7bc c482 0cbd 505b 943d 3c53 f93d
000002c0: 4a33 dd3d 74fc d6bd 5f7c 8a3d 4ecb 1b3d
000002d0: fca0 a03d d237 3fbd 4e4c e4bc 54fc f23d
000002e0: 441a 00bc 07b1 853d 2a6b b9bd bddf 5dbc
000002f0: 4b71 483d 7185 f4bb 04e1 cdbc ee07 bb3d
00000300: 1122 ef3c 905a 14bd 3982 dcbd bb9e 62bd
00000310: a232 b1bd 259f 0abc 1b92 95bc b95e adbc
00000320: a34e 45bd 2a10 50bb 0b9c 1f3c cfbe 8fbd
00000330: 526c 46bc 5a8e debd 7864 34bd 71d9 8d3d
00000340: 9393 ffbb fc7a 593c a393 e7bd e062 32bd
00000350: 8032 9d3d a226 863d 4d3e d83d 6719 76bc
00000360: 98ef cebc 6dcc ddbd bf75 20bd df77 82bd
00000370: 3708 583d 59ae d8bc 2ea1 ebbc 306f d23c
00000380: c30b 14bd 4237 94bd dae1 c33d 1370 be3d
00000390: ed6b ac3d 70d4 1bbd a031 183d 9bf2 91bd
000003a0: 7b43 863d de46 3ebc 18d0 973d 94b9 79bd
000003b0: 55bc b63c 2b6e acbd d5ca 003e 0796 c63d
000003c0: b9ec 9fbd 2b5f c93d 203c 923d 4668 993c
000003d0: 3d79 b1bd 1420 af3d 8f84 2ebc e49b 0c3d
000003e0: 9bab 283c e178 d13d 0100 9bbc 6a7c 313c
000003f0: 6185 8d3d 734f 98bd 7e85 25bc c01e 7a3c
0.018378144 0.0006868736 0.06857679 -0.0021485153 0.06703054 -0.0074460628 0.07036724 0.041552234
0.13439336 -0.0644852 -0.0019429363 -0.054983582 0.042712178 -0.032533284 0.047236443 -0.018697426
-0.05019863 -0.090284444 -0.045166183 0.004810354 0.093888626 0.065171346 -0.04535187 -0.08718241
0.005334026 -0.057265766 -0.074664384 -0.0550663 0.0011869067 -0.009518453 -0.044108782 -0.022657227
-0.039572127 0.09537414 -0.06393356 -0.09975022 0.08704686 0.009623825 -0.03378825 0.055121936
-0.037069567 0.08385116 -0.068386786 0.055344835 0.010875094 0.07696365 0.06483885 0.023205368
-0.03920886 -0.058656797 -0.0053485814 0.056948118 0.04143876 0.03316696 -0.084065385 -0.011643411
-0.037622448 0.009203067 0.055618573 0.014029528 -0.022390377 -0.011949333 0.0566272 0.039093733
-0.07564671 0.07212957 -0.038437348 -0.008145834 -0.00936636 -0.06980476 0.0045405272 0.04465038
-0.026000667 0.006001659 0.050156515 0.08510724 -0.030551845 -0.0028135271 0.010423658 0.012003496
-0.047454704 -0.10325906 0.06015317 -0.026474057 -0.0526447 0.077098876 0.05682143 0.062344927
-0.020821564 0.078525096 0.048202645 0.12361449 0.11629519 -0.1173893 0.055581287 -0.0500354
0.012461998 -0.06481433 -0.055445038 0.08971383 -0.047465373 -0.06345906 -0.00060992705 -0.10680634
-0.06727086 0.008263438 0.058665954 0.054251436 -0.024393167 -0.022817494 -0.0070871804 -0.07113601
-0.044692002 -0.04396824 0.027185243 -0.038718995 0.046388887 0.07612162 -0.056387722 0.051602207
0.034583524 -0.09681806 -0.009300422 -0.09322729 0.038913313 0.060263317 0.028367028 -0.08810011
0.01662655 0.016236637 -0.05354779 -0.08971218 -0.074976146 -0.067582615 -0.035035294 0.061111305
0.06852012 -0.070569575 0.042049207 0.0610022 -0.06253527 -0.04665237 -0.029098038 -0.06353593
-0.0303531 0.09172879 -0.024306271 0.06871528 0.08843196 0.0022568686 0.0656759 0.00917175
0.08184261 0.023686934 0.092187114 0.00647813 -0.00040364373 -0.06019064 -0.0069715464 -0.07825204
0.018155783 0.033030275 0.07249282 -0.07115271 -0.07931694 0.032458704 0.0338905 0.016632706
0.040472873 -0.025533622 -0.09618183 -0.08274105 -0.022377873 -0.034304395 0.07243979 0.12174079
0.10800798 -0.1049737 0.06762003 0.038035683 0.07843205 -0.046684094 -0.027868416 0.11864534
-0.007818762 0.06527906 -0.09053643 -0.013542113 0.04893617 -0.0074621965 -0.02513171 0.09132372
0.029191049 -0.03621918 -0.107670255 -0.05532716 -0.086522356 -0.008460795 -0.018258145 -0.021163331
-0.048170697 -0.0031747916 0.009741793 -0.07018816 -0.0121107865 -0.10866995 -0.044041127 0.06926239
-0.0077995746 0.013273951 -0.11307456 -0.043551326 0.07675648 0.065503374 0.10558758 -0.015020705
-0.025260732 -0.10830007 -0.03917479 -0.0637052 0.05274221 -0.026450323 -0.02876338 0.025687784
-0.03614403 -0.07237102 0.09564562 0.0929872 0.08419023 -0.038044393 0.0371567 -0.071263514
0.0655584 -0.011613576 0.074127376 -0.060967997 0.0223066 -0.0841945 0.12577374 0.09696584
-0.07808823 0.09832605 0.07140374 0.01872648 -0.086657025 0.0855104 -0.010651722 0.034328356
0.01029482 0.10228134 -0.0189209 0.010832885 0.06910206 -0.07437029 -0.010102628 0.01526612

block4.bnorm_4.weight f4 [30]
00000000: d476 813f 6e7f 833f d2c4 7f3f 79ab 803f
00000010: b1bb 833f f77b 873f b0f1 843f 8cf4 813f
00000020: a5b6 833f 9e45 833f f107 8d3f 0318 823f
00000030: 9f3d 803f b6eb 7e3f 5c89 863f 8064 853f
00000040: 1b7c 853f afb5 803f d25a 843f 1362 873f
00000050: fea8 843f b92d 863f 49c0 863f 65b0 803f
00000060: 4b7d 803f 45bd 803f 3bdf 913f 2fba 853f
00000070: af90 853f 6247 7f3f
1.0114388 1.0273263 0.999097 1.0052329 1.0291654 1.0584706 1.0386257 1.0152755
1.0290114 1.025562 1.1018049 1.0163578 1.0018805 0.99578416 1.0510669 1.0421295
1.0428499 1.0055445 1.0340216 1.0576805 1.0364072 1.0482703 1.0527431 1.0053831
1.0038236 1.005776 1.139625 1.0447444 1.0434779 0.99718297

block4.bnorm_4.bias f4 [30]
00000000: 312f 10bc c0cc 28bb 8cda 55bc 251d ffbb
00000010: fa79 3abc 6a2b febb 11dc 19bc def2 3bbc
00000020: 15e3 f539 3ce8 b1bc 1d64 b9bb e049 38bc
00000030: ea54 90bc 4b4a 55bc 8ce4 963b 299a 803c
00000040: 596b 29bc bf15 eabb e4cf 61bc 1c26 ef3a
00000050: c54c c1ba 5b00 ee3b f45e 16bb 664e 29bc
00000060: 3ef1 9bbb b286 88bc 51d0 803c f4ab 6039
00000070: 397a 19bc 03ab 51bb
-0.008800314 -0.0025756806 -0.013052594 -0.0077854567 -0.011381621 -0.00775664 -0.009390847 -0.011471478
0.0004689923 -0.021717183 -0.0056576864 -0.011248082 -0.017618615 -0.013018201 0.0046048816 0.01569851
-0.010340535 -0.0071437056 -0.013782475 0.001824561 -0.001474761 0.007263226 -0.002294478 -0.010333633
-0.004758983 -0.01666579 0.015724333 0.00021426362 -0.009367519 -0.00319928

block4.bnorm_4.running_mean f4 [30]
00000000: 1edb 543e 5c62 60bf 4d59 3ebd b9f4 433c
00000010: 92fb 863e 04f0 fd3c f267 c3be 764b 83bb
00000020: 53bd 1b3d 7fba 733e e7f0 f43e 25c2 053e
00000030: 818d 1a3f 3fcb d33d acca 183c 3315 a7be
00000040: b1e7 e03e 2125 83bb 7da7 3a3e b97f 03bd
00000050: 60e9 123f b7f0 7b3d ff65 c83e 54a2 edbe
00000060: 5d6a ba3e b6c7 07be 1d81 8e3e a4ae 663d
00000070: 4577 7e3f b7df 46bf
0.20786712 -0.87650084 -0.046471883 0.011960202 0.26363808 0.030998237 -0.3816524 -0.0040067984
0.03802235 0.23801611 0.47840044 0.13062342 0.6037217 0.103415005 0.0093256645 -0.3263336
0.43926767 -0.004002229 0.18227954 -0.032104228 0.5738735 0.06150886 0.39140317 -0.4641291
0.36409274 -0.13259777 0.2783288 0.056318894 0.9940074 -0.7768511

block4.bnorm_4.running_var f4 [30]
00000000: b0f9 a03e bbf1 f63e 3009 963e 9ace c23e
00000010: bbef 9b3e f8e1 c03e 4408 ff3e 8276 cf3e
00000020: 3107 073f b6c1 c63e 76d3 903e 35bc 923e
00000030: 3be9 063f 7187 103f f847 033f b7bc 003f
00000040: f2be 673f 0846 113f e98c 823e c208 833e
00000050: ed9e 1d3f 03e6 f83e adc4 bd3e 332a 223f
00000060: ffe2 ff3e 2fdc 0f3f 5ba4 0c3f 6004 b73e
00000070: b1b5 f83e 6d04 fe3e
0.31440496 0.482313 0.29303885 0.3804825 0.30456337 0.376724 0.49810994 0.40520102
0.5274535 0.38819665 0.28286332 0.28659216 0.5269963 0.5645667 0.5128169 0.50287956
0.90525734 0.56747484 0.2549813 0.2559262 0.61570626 0.48612985 0.37064114 0.6334564
0.49977872 0.5619535 0.54938287 0.35745525 0.4857612 0.49612752

conv_channel_res.weight f4 [1, 30, 3]
00000000: e647 9e3c f878 43bd 76ca 59bd e23c ecbc
00000010: d22e 753d 6c8e 6d3d 2b5e 3bbc 6909 dabd
00000020: fcd0 40bc 7ec1 d2bd 8462 cbbd c528 c9bd
00000030: 22a9 d3bd bdac ffbd 4db7 fdbd 40a4 4bbd
00000040: 287b 113e bf44 1b3e 4e77 c63d 5b20 60bd
00000050: 4830 703d 814b c2bc 1659 7cbd b025 c8bd
00000060: 6947 1b3c 921e 333d 422d 363d 7c74 d3bd
00000070: 5889 8ebd 1a4d ffbd 6501 a33d 6663 dcbd
00000080: 881b b93b be9b 3dbd 8be4 d2bd 84a2 7dbd
00000090: 303d b63c 9dc7 a1bc a8ac a7bd 9cf0 acbd
000000a0: a808 80bd c174 b0bd e846 fdbc 314a e73d
000000b0: 5012 0a3e 3d82 1abc b695 873d a9c4 db3d
000000c0: f457 833b 551e c6bd b0f2 f9bd 5777 06bd
000000d0: 5672 1bbc a9aa adbd 200f debd 2d03 923d
000000e0: bab1 27bd 2a08 bb3c bb43 123e 8d9a 083e
000000f0: d5c4 943d edf9 de3d fde2 e23c 22be bb3d
00000100: 1feb 963c 2515 fa3d f414 e03d 705e bfbd
00000110: ea07 7fbd f783 08bd 856c cebd 4217 583d
00000120: 7a80 9e3c e613 d1bd 0c38 a3bc 8556 20bd
00000130: 2f33 6ebd bdb3 efbd ef35 9c3d 6d91 893c
00000140: fa29 b8bd e53e 46bd 4be6 be3d 3221 783d
00000150: 5479 e13d 9df3 993d 33d1 273d bbe0 75bd
00000160: ddab f73b 2898 5cbd
0.019321393 -0.047722787 -0.053171597 -0.028837625 0.059859104 0.057997152 -0.011436026 -0.10646326
-0.011768576 -0.10290812 -0.099309 -0.09822229 -0.10334994 -0.12484119 -0.123884775 -0.049717188
0.14207137 0.15162943 0.09690724 -0.054718357 0.058639795 -0.023717644 -0.061608396 -0.09772813
0.009477475 0.043730326 0.044476755 -0.10324952 -0.0695979 -0.12465878 0.0795925 -0.10761146
0.005649034 -0.046291105 -0.10297497 -0.061922565 0.022245973 -0.019748503 -0.081872284 -0.0844433
-0.06251651 -0.08616019 -0.0309176 0.11293448 0.13483548 -0.009430465 0.06620352 0.10730869
0.0040082876 -0.09673754 -0.12204492 -0.032828655 -0.009487709 -0.084798165 -0.108427286 0.07129512
-0.040940978 0.022831041 0.1428365 0.13340206 0.07264105 0.10887513 0.027696127 0.09167124
0.018422661 0.12211064 0.109414965 -0.093441844 -0.062263407 -0.033328976 -0.10079292 0.052756555
0.019348372 -0.102088735 -0.019924186 -0.03914501 -0.05815428 -0.11704204 0.076274745 0.016792977
-0.089923814 -0.048399825 0.09321269 0.060578533 0.1100947 0.07517169 0.040970992 -0.060028773
0.0075583295 -0.053856045

classifier_conv.weight f4 [32, 1, 35]
00000000: 9f38 743b eb88 a3bc c886 0d3d f9af 58bc
00000010: 1188 163d 499e 99bd 7438 cabd ede4 e6bc
00000020: 1ace a23b 4d6e 04bb 3527 d2bd 254e 83bb
00000030: 703c 53bd d7a2 2fbd 3526 cbbd 0d5f c9bd
00000040: 63dc 9abd e882 9dbd fd01 a3bd ae87 9fbd
00000050: afb7 91bd 42a5 4fbd 23cb 09be 8fa3 1abe
00000060: 883c 9fbd 1412 e1bd 27ca a8bd 2fef 49be
00000070: c9ec e6bd 0f89 41be b6a9 6a3d 3294 a1be
00000080: c0a3 7d3e f1ef abbc 805b 183e c9db bbbc
00000090: d1b9 a53b 9422 01bd 03b8 6b3d fc36 143d
000000a0: 1156 aebc 648f b53c a06f 023d a324 293b
000000b0: 98df c03d 2847 a03c 1517 e13d 2ec3 373d
000000c0: 7c04 183e f774 053e 4b3d 993d a99b 9c3d
000000d0: b797 c43d 1779 fb3d c40a 393e 23ce fa3c
000000e0: a5fd 993d 8170 2b3e 9272 d53d 9c54 2b3e
000000f0: 879a 303e d7af 2e3e a5cc 6b3e 02f3 883d
00000100: 10b9 883e c816 6abd 57f8 c13e bc0f a0be
00000110: 3d8f 083e 0ac2 52be a6e6 523d ed9f 853d
00000120: 5243 01bd 7a5b c2bc 34aa 94bd 91cf 2ebd
00000130: f975 79bd 94af ca3c 94de 43bd 265b 4abd
00000140: a268 d8bd aa78 d9bd bc8a 8dbd 2e2b d1bc
00000150: 44dc 50bd e350 0dbd 41ad a3bd 24a4 05be
00000160: 9b51 96bd 61fe 26bd 8b3a 9ebd d123 b0bd
00000170: a901 15be aacc 0fbe b29a 08be 1d52 b4bd
00000180: 257a e9bd 3fe3 5bbe ffdf 35bd ad44 69be
00000190: 5cb6 813d bc4c a8be 252e 893e 6903 2abc
000001a0: 27a1 343e 5507 853c 2f37 623c 3c6a 743d
000001b0: ee8e 63bd 1e22 6f3d 1983 bfbd d227 a4bd
000001c0: a8b6 9cbd ed8f e6bd 891d e0bd 974c 94bd
000001d0: c1ed 803b 1408 aabd 8553 97bd 4742 86bd
000001e0: c097 e3bd 367b 8cbd 364e 22bd 3f21 a1bd
000001f0: cfce 09be 6cbd 11be f188 c7bd 18f0 d4bd
00000200: feed 93bd a457 1ebe ef7f 65be 313b 41be
00000210: d392 1bbe 18c2 8fbd 2283 35be c01d 653c
00000220: 46c3 b3be 549b 8c3e 7360 9dbd 1309 e93d
00000230: 34cc 65bd 7175 163d d560 013d 63d7 a53c
00000240: 30ed 5dbd 910e 11bd 7e7c 94bc 9345 9ebd
00000250: 14b9 84bd c747 91bc f4f1 c8bd dfe7 65bd
00000260: 2f36 85bd eafb ddbd 1b07 debd 6a89 11bd
00000270: 5f2d d5bd 171e 00be cf80 83bd 742c dfbd
00000280: 0982 1ebc 8081 9bbd 08f9 62be aac4 93bd
00000290: f855 3bbe ac45 e8bd 041d dcbd 5c69 66be
000002a0: 3b7d 20be e375 5abe 7f82 973d 124d babe
000002b0: 3cb8 8d3e c147 ddbd 880c 933d 01f8 a23d
000002c0: ab54 303c 1a02 ab3c bdc8 babc fc33 c4bc
000002d0: 5e06 21bd b009 ba3d 4036 013d 3cb2 873d
000002e0: 1e75 8c3d 282a d13d 9211 c53d 907f 673d
000002f0: 3dd3 f93d 4201 ec3d 4738 fc3b e01b 883d
00000300: b6c1 263c b6a7 3c3c 4777 013e 09a2 8d3d
00000310: 8654 173e 04dd 473e fb27 363d d905 f03d
00000320: f5b0 183e ffbc 4f3e 7ce0 363e 9681 5d3d
00000330: 13da 4c3e 0b4e 89bd e488 873e 19d1 5ebe
00000340: ef62 9d3d bcb7 7ebd 3762 3fbd 9127 15bd
00000350: ed82 b9bc d929 9abc a403 97bb df93 913b
00000360: d77d acbd a0c2 8fbd 7ac7 08bc 6c82 cfbc
00000370: a2d1 c6bc 6ea1 c3bd 48fb abbd c006 cabb
00000380: 2a6c 4abd 333d c43c 8249 f1bd 40c9 42bc
00000390: b132 debd 9f68 cabd 6c39 0bbe 2501 00be
000003a0: 7ba8 b7bd bace 59bd b6ba 65bd c8b6 09be
000003b0: 7e1a f0bd 7426 89bd 6162 4fbd a8b5 6abe
000003c0: ac72 813d ab81 5dbe e54d 8a3e ee44 0fbd
000003d0: 84e6 ab3d 68c1 d2bc 2849 2ebd 0552 803d
000003e0: f214 b8bd 0ced 893c 24e5 08bd 7794 9cbd
000003f0: b9ef b5bd 067a 22b9 b16b 3abd bcc3 94bd
0.0037265194 -0.019962749 0.034552366 -0.013225549 0.036750857 -0.075008936 -0.09874049 -0.028185332
0.004968417 -0.0020207346 -0.102613844 -0.0040071183 -0.05157131 -0.042879906 -0.09919397 -0.098325826
-0.07561567 -0.07690984 -0.079593636 -0.07789551 -0.07115113 -0.05069471 -0.13456397 -0.15101455
-0.07775217 -0.10989776 -0.082416825 -0.19720148 -0.11275632 -0.1889994 0.057290755 -0.31558377
0.24769497 -0.020988436 0.14878654 -0.02293195 0.0050575514 -0.031527117 0.057548534 0.03618525
-0.021281274 0.0221631 0.031844735 0.002580919 0.09417647 0.01956518 0.10990731 0.044863872
0.1484546 0.130329 0.07482394 0.07646877 0.0959925 0.122789554 0.18070513 0.030615872
0.07519082 0.16742136 0.10422243 0.16731495 0.17246448 0.17059265 0.23027284 0.06686975
0.2670369 -0.057150632 0.3788478 -0.31262004 0.13335891 -0.20581833 0.051489495 0.06524644
-0.031558342 -0.02372526 -0.07259026 -0.04267842 -0.060903523 0.024741925 -0.04781969 -0.049403332
-0.10566832 -0.10618718 -0.06911227 -0.025533285 -0.05099131 -0.034500968 -0.0799203 -0.13050896
-0.07339784 -0.04076994 -0.0772601 -0.086005814 -0.14551415 -0.14042917 -0.13340262 -0.08804724
-0.1140025 -0.21473406 -0.044403072 -0.22780104 0.063336104 -0.32871044 0.26793018 -0.01037679
0.176396 0.016238848 0.013807102 0.059671625 -0.05555623 0.058382146 -0.09351177 -0.080154076
-0.076520264 -0.112579204 -0.109431334 -0.07241171 0.0039345925 -0.08302322 -0.07388977 -0.0655561
-0.111129284 -0.06859438 -0.03962537 -0.07867669 -0.13457797 -0.14232415 -0.097429164 -0.10397357
-0.07223128 -0.1546312 -0.22412084 -0.18870236 -0.15192728 -0.07019442 -0.17725804 0.013984144
-0.3510992 0.27462256 -0.07684412 0.11378684 -0.056102946 0.036733095 0.031586487 0.020244306
-0.054181278 -0.035414282 -0.018125769 -0.07728114 -0.06480613 -0.017734421 -0.09811774 -0.056129333
-0.06504475 -0.108390644 -0.10841199 -0.03553144 -0.104090445 -0.12511478 -0.06421053 -0.10897151
-0.0096745575 -0.075930595 -0.2216531 -0.07215245 -0.18294513 -0.11341414 -0.10747722 -0.22501129
-0.15672772 -0.21334033 0.07397937 -0.36386925 0.27679622 -0.108047016 0.071801245 0.07957459
0.010762374 0.020875026 -0.022800798 -0.02395057 -0.039312713 0.09083879 0.031545877 0.066257924
0.06858276 0.10213119 0.09622492 0.056518137 0.12198494 0.115236774 0.0076971385 0.06645942
0.01017802 0.011514595 0.12643157 0.069156714 0.14778337 0.19517905 0.044471722 0.11719865
0.14911254 0.2028694 0.17859071 0.05407866 0.20005064 -0.06704339 0.26471627 -0.21759452
0.07684886 -0.06218694 -0.046724524 -0.036414687 -0.022645438 -0.018818783 -0.0046085883 0.0044426764
-0.084224395 -0.07019544 -0.00834834 -0.025330745 -0.024269883 -0.09552275 -0.083975375 -0.0061653554
-0.04941956 0.023954963 -0.11781599 -0.011888802 -0.10849512 -0.09883236 -0.13596123 -0.12500437
-0.08967682 -0.053175665 -0.056086265 -0.13448632 -0.11723803 -0.066967875 -0.05063093 -0.22920859
0.063207 -0.21631496 0.27012554 -0.034977846 0.08393577 -0.025726989 -0.042550236 0.06265644
-0.0898837 0.016836666 -0.03342165 -0.07645505 -0.08883614 -0.00015494981 -0.04551286 -0.07263896

classifier_conv.bias f4 [32]
00000000: 9e61 443c 331f 41bc 894f d33b 8bf5 a13c
00000010: ca35 8a3c 12ca 85bc 46de 2f3c 60b1 263c
00000020: 7188 193c f81c 6a3c b163 963c 202b 32bc
00000030: 8646 6abc 0c0a 62bc c877 30bc b828 7abc
00000040: 7ca8 313c 534b 643c 7e0f aa3b 189f 663c
00000050: fb8a 25bc a1fe 7abc e14d 13bc e843 16bc
00000060: 0a70 5a3c 5410 933c c6f1 243c 95cd 553c
00000070: 866f 54bc 9459 443c fd0f 243c f910 a2bc
0.011986164 -0.011787224 0.0064486903 0.019770404 0.016871352 -0.016331706 0.010734146 0.010174125
0.009370909 0.014289133 0.018358083 -0.01087454 -0.014299041 -0.013796341 -0.010770746 -0.015268497
0.010843392 0.013933974 0.005189835 0.014076017 -0.010103936 -0.015319497 -0.008990736 -0.009171464
0.013332376 0.017952122 0.010067409 0.013049503 -0.012966042 0.011984248 0.0100135775 -0.019783484

fc.weight f4 [2, 32]
00000000: 60d8 bd3d b99a b1bd 55f7 bb3d 1e48 a13d
00000010: 1490 b53d ab69 b1bd a3a8 b33d 9563 ae3d
00000020: 303c b93d a3c5 c23d 8979 b03d e334 a6bd
00000030: aa6b a2bd 5e2d acbd db53 a1bd 7ddc cdbd
00000040: 032d c93d 22ef bc3d 2b39 b73d a509 c43d
00000050: 53ee 81bd 8d9d b1bd 67fc 9bbd 3d8f bdbd
00000060: fd80 a63d 9f86 b93d b28e d03d 1978 ac3d
00000070: 71fa b9bd f484 a83d 9dc0 be3d d030 d5bd
00000080: 94aa cbbd a5b1 c33d d82c d2bd c5f7 bdbd
00000090: 8155 adbd 8366 a63d a569 bdbd 28b3 acbd
000000a0: 96e2 c7bd 2ab5 bdbd 0dab b4bd 7b96 9d3d
000000b0: b4c0 ab3d 59b7 953d 52eb 983d f8b4 bd3d
000000c0: 3720 c6bd 9ba3 afbd 3993 c9bd 8b0d b1bd
000000d0: 9706 983d abec b03d 0759 a43d c3d0 c83d
000000e0: 0ec8 abbd 0488 abbd 830b d3bd d1a2 a4bd
000000f0: a41c 9c3d 3c59 a0bd e7ec c9bd b26d bb3d
0.09269786 -0.08672089 0.09178034 0.078750834 0.08865371 -0.08662733 0.08772399 0.085150875
0.09044683 0.095103525 0.08616931 -0.08115556 -0.079306915 -0.084070906 -0.07877322 -0.100518204
0.098230384 0.092252985 0.08946451 0.09572152 -0.06344285 -0.086726286 -0.07616501 -0.09255836
0.08130071 0.0905888 0.10183467 0.08421344 -0.09080971 0.08228484 0.09314082 -0.10409701
-0.099446446 0.095553674 -0.102624595 -0.09275774 -0.08463574 0.08125021 -0.09248666 -0.08432609
-0.09760015 -0.0926307 -0.08821688 0.076947175 0.083863646 0.073103614 0.07466759 0.09263033
-0.09674113 -0.08576127 -0.098425336 -0.08645161 0.07423132 0.08638891 0.08024793 0.09805443
-0.08387767 -0.08375552 -0.1030493 -0.08038867 0.0762265 -0.0782952 -0.09859639 0.09151782

fc.bias f4 [2]
00000000: 447a 883c 187a 88bc
0.016659863 -0.016659781
