submit_entry/checkpoints/Combined_edgcn_12s_slice_norm/ECG/4/best.pth (torch_old, 75847 bytes, 26 tensors)

conv_time.weight f4 [15, 1, 10]
0	0xbbc7d4e2	-0.0060983757
1	0xbe1ac8c2	-0.15115646
2	0xbd012977	-0.031533685
3	0xbcee525e	-0.02909201
4	0xbc895301	-0.016763212
5	0xbd0778dc	-0.033074245
6	0xbe307353	-0.17231493
7	0x3e3897ee	0.18026707
8	0x3be7b970	0.0070716664
9	0x3e41f7ab	0.18942134
10	0x3e38a265	0.18030699
11	0x3e01c483	0.1267262
12	0x3def65a5	0.11689309
13	0x3dfd840b	0.12378701
14	0xbe3810da	-0.17975178
15	0xbdf71a91	-0.12065614
16	0x3e2688ac	0.16263074
17	0xbd80a1de	-0.06280874
18	0xbe399195	-0.18121941
19	0xbe2e2284	-0.17005354
20	0x3e2a559e	0.16634223
21	0xbc8c4881	-0.017124416
22	0x3d5ce28e	0.053926997
23	0x3dfe0f7a	0.12405296
24	0xbd9f032f	-0.07764279
25	0xbe447609	-0.19185652
26	0x3d2757be	0.04085516
27	0xbdf9c8e6	-0.121965215
28	0xbd2c717e	-0.042100422
29	0x3dd8cfff	0.10586547
30	0x3d9493b9	0.07254738
31	0x3d6c8a86	0.057749294
32	0xbdeafba0	-0.11473775
33	0xbd9477c6	-0.072494075
34	0x3df8974f	0.12138235
35	0xbd15a548	-0.036534578
36	0x3d523e94	0.05132921
37	0xbc1b2b16	-0.009470722
38	0xbcb1a04c	-0.02168288
39	0xbd8442d6	-0.064580604
40	0x3e144b5d	0.14481874
41	0xbd8d469d	-0.06898234
42	0xbd3a0b3c	-0.04542087
43	0xbd84c6e3	-0.06483247
44	0xbde5e09a	-0.1122448
45	0x3e34d7aa	0.17660394
46	0xbe362085	-0.17785843
47	0xbe194150	-0.14966321
48	0x3de1fd72	0.11034669
49	0x3e1ca2be	0.15296456
50	0x3e0e7f12	0.13915661
51	0xbdbf9d66	-0.09356193
52	0x3d3ca14d	0.046052266
53	0x3e5410f1	0.20709588
54	0x3de5641a	0.112007335
55	0xbe333b26	-0.17503032
56	0xbe2c1cc2	-0.16807845
57	0x3e06b1b0	0.1315372
58	0x3c5286b8	0.012849502
59	0x3e056cc1	0.13029768
60	0xbe32d845	-0.17465313
61	0xbb6078c4	-0.003425167
62	0x3e1da690	0.1539557
63	0xbe23dc72	-0.16002062
64	0x3ccce4d9	0.025011467
65	0xbe25c7ee	-0.16189548
66	0x3dd0862f	0.101818435
67	0x3c96b639	0.018397437
68	0xbd8e15be	-0.06937741
69	0x3d9a5ab8	0.075368345
70	0x3d45a0a0	0.048248887
71	0xbdd56d54	-0.10421243
72	0x3bc8845c	0.006119294
73	0x3e17f1de	0.14838359
74	0xbd4b7da3	-0.049680363
75	0xbd2d4c3a	-0.042309023
76	0xbe48959c	-0.19588321
77	0xbe23c0cf	-0.1599152
78	0xbdba5af6	-0.09099381
79	0xbe3406a7	-0.17580663
80	0x3da8d43d	0.08243606
81	0xbcc4cce4	-0.02402348
82	0x3cc74fb8	0.024330005
83	0x3dfb32f3	0.12265577
84	0x3e21ca24	0.15799767
85	0x3db14882	0.08656408
86	0x3e3cf106	0.18451318
87	0x3dc1bf55	0.09460322
88	0x3d8704d4	0.06592718
89	0x3dfb5dd9	0.122737594
90	0x3ddf0a1a	0.108905986
91	0xbdb69288	-0.08914667
92	0x3e2ab52e	0.16670677
93	0xbd9ba700	-0.07600212
94	0x3e2f96bf	0.17147349
95	0xbc565144	-0.013080899
96	0x3e03eb15	0.12882645
97	0xbe1fcdd3	-0.1560586
98	0xbd3e3939	-0.04644129
99	0xbe1c335c	-0.15253967
100	0x3dc5aab4	0.096517
101	0x3cd0adf9	0.025473582
102	0x3e305d40	0.17223072
103	0x3dbb2369	0.09137613
104	0xbd92d213	-0.07168975
105	0x3dff512b	0.124666534
106	0x3de02b46	0.10945754
107	0xbe05306c	-0.13006753
108	0x3d808410	0.06275189
109	0x3da35711	0.07975591
110	0xbe156093	-0.14587621
111	0x3e280e66	0.16411743
112	0x3aa5866e	0.0012628564
113	0xbdddc2da	-0.108281806
114	0x3cbfc43e	0.023409005
115	0x3de3e119	0.11126918
116	0x3d514cb8	0.051098555
117	0xbe06dab0	-0.1316936
118	0xbd261467	-0.0405468
119	0x3b9500c2	0.0045472095
120	0x3e1cb342	0.15302756
121	0xbd29ed1f	-0.041485902
122	0x3e6cf35e	0.23139712
123	0x3cb6e804	0.02232743
124	0x3dede011	0.11615003
125	0x3c97599f	0.018475352
126	0xbdbb6a3f	-0.09151124
127	0xbcda9a64	-0.026684947
128	0x3d985492	0.074380055
129	0x3dd3e933	0.103472136
130	0xbda1484a	-0.07875116
131	0xbb8733c7	-0.0041260454
132	0xbd8568c5	-0.06514124
133	0xbd420b40	-0.04737401
134	0x3c46d4e6	0.01213572
135	0xbd2ced8f	-0.04221874
136	0x3df53cf6	0.11974518
137	0xbd263076	-0.04057356
138	0x3e3609e6	0.17777213
139	0x3ce300ec	0.0277104
140	0xbe414099	-0.18872298
141	0xbb09cbfe	-0.002102613
142	0xbd9ee257	-0.07758015
143	0x3da20a4a	0.07912119
144	0xbda15343	-0.07877209
145	0xbe307bfa	-0.17234793
146	0x3e0f4d9e	0.13994452
147	0x3ceceaa1	0.028920474
148	0xbd7bb4ab	-0.061451595
149	0x3d9038dd	0.07042096

conv_time.bias f4 [15]
0	0x3c4d35bc	0.012525018
1	0xbbf1620c	-0.0073664244
2	0xbc1a0ded	-0.009402734
3	0xbc206d09	-0.009791621
4	0x3b1d7102	0.0024023657
5	0x3b46835d	0.00302907
6	0xbaac229b	-0.0013132872
7	0x3a63b963	0.00086869876
8	0x3c32493e	0.01088172
9	0x3c37d97d	0.011221287
10	0xbc76f19d	-0.0150722535
11	0xbc908a8d	-0.017644191
12	0xbb73bd45	-0.003719167
13	0xbc5231aa	-0.012829224
14	0xbbb66a4e	-0.0055668717

bnorm.weight f4 [15]
0	0x3f7a45fa	0.97763026
1	0x3f80800a	1.0039074
2	0x3f8140e3	1.0097927
3	0x3f7cb6c3	0.9871637
4	0x3f81d943	1.0144428
5	0x3f7e9ca4	0.99457765
6	0x3f7b4249	0.9814802
7	0x3f7f2d54	0.9967854
8	0x3f7e48ed	0.99330026
9	0x3f823572	1.017256
10	0x3f7a9c2c	0.9789455
11	0x3f799bcb	0.97503346
12	0x3f7ec0e5	0.99513084
13	0x3f85ba84	1.0447545
14	0x3f7e995d	0.99452764

bnorm.bias f4 [15]
0	0x3d8387f5	0.06422416
1	0xbd03204c	-0.032013223
2	0x3d1523fb	0.036411267
3	0xbc20e4a7	-0.00982014
4	0x3d6fd50c	0.058552787
5	0x3bfcb9a0	0.007712558
6	0xbc59d6f7	-0.0132958805
7	0x3cc24d0a	0.023718376
8	0xbccbd5cb	-0.024882218
9	0x3d06b63e	0.032888643
10	0xbd353bdf	-0.04424655
11	0xbcec9011	-0.02887729
12	0xbcb33adc	-0.021878652
13	0x3ce9f923	0.02856118
14	0xbc3b7ab1	-0.011442826

bnorm.running_mean f4 [15]
0	0xbc76e013	-0.015068072
1	0xbc246c96	-0.0100356545
2	0x3c209add	0.009802547
3	0xbc970e20	-0.018439353
4	0xbc4a0600	-0.012330532
5	0x3e24d770	0.16097808
6	0xbdba9436	-0.091103
7	0xbe9138cc	-0.28363645
8	0x3ede9495	0.43472734
9	0x3cfa7248	0.030572072
10	0x3e7a0396	0.2441543
11	0xbd4c1f71	-0.049834672
12	0x3e827c1a	0.25485307
13	0x3c86efcb	0.016471764
14	0xbe0104f5	-0.12599547

bnorm.running_var f4 [15]
0	0x3aa6affd	0.0012717244
1	0x3b38d8c1	0.0028205367
2	0x3a2f7cb0	0.00066943
3	0x38ca76c8	9.654235e-05
4	0x39e1c70f	0.00043063654
5	0x3bbdc470	0.0057912394
6	0x3b07dba3	0.002073028
7	0x3ca48bf4	0.020086266
8	0x3d2ea689	0.04263929
9	0x3a9245ec	0.0011159754
10	0x3c810969	0.015751557
11	0x39932271	0.00028063686
12	0x3c802442	0.01564229
13	0x3a675b22	0.00088255305
14	0x3b7a61c1	0.0038205239

block2.conv_2.weight f4 [15, 15, 10]
0	0xbe2011cb	-0.15631787
1	0xbd0807e4	-0.03321065
2	0xbd34dc4d	-0.044155408
3	0x3dae89c9	0.08522374
4	0x3dd8d513	0.10587516
5	0xbd8413b7	-0.06449073
6	0xbcc4d673	-0.024028039
7	0xbd95e28d	-0.07318602
8	0xbdbda790	-0.09260476
9	0x3da39c3c	0.07988784
10	0x3d76a7d2	0.06021864
11	0xbc55d814	-0.013052005
12	0xbd4d54b1	-0.050129596
13	0x3e02829a	0.12745133
14	0x3cd55150	0.02603975
15	0x3ddb699f	0.10713505
16	0xbe065f15	-0.13122208
17	0x3c54480e	0.012956632
18	0x3dfec0a1	0.12439085
19	0xbdd99358	-0.10623807
20	0x3dc28c84	0.094994575
21	0xbc1ad2c0	-0.009449661
22	0x3d3d5c86	0.046230815
23	0xbdc923c9	-0.098212786
24	0xbdaf5e4f	-0.0856291
25	0xbde9fedc	-0.11425564
26	0xbe0dc918	-0.13846242
27	0x3dae1c56	0.085014984
28	0xbd04c816	-0.03241738
29	0x3cc1c717	0.023654504
30	0xbdd9d18e	-0.106356725
31	0x3dc6cb55	0.09706751
32	0x3da61354	0.08109155
33	0xbdf4298e	-0.119219884
34	0xbdde5d50	-0.10857642
35	0xbdb5fe8c	-0.088864416
36	0xbe175205	-0.14777382
37	0x3c69f3a5	0.014279281
38	0x3d7f91f2	0.062395044
39	0x3d0e5a21	0.034753922
40	0xbcb08306	-0.021546852
41	0xbd8db63a	-0.069195226
42	0xbcc8b9ae	-0.024502601
43	0x3c1cf707	0.00958038
44	0x3ccdf61d	0.02514177
45	0x3d12630d	0.035738993
46	0x3e22d7ed	0.15902682
47	0x3d95a2b5	0.073064245
48	0xbdd092b6	-0.10184233
49	0xbe13b868	-0.14425814
50	0xbdbfcc53	-0.093651436
51	0x3ddf36ba	0.1089911
52	0x3d671bd3	0.05642302
53	0xbda38ede	-0.07986234
54	0xbdb260a9	-0.08709843
55	0x3dc23132	0.094820395
56	0x3cc4b6be	0.02401292
57	0xbdd3c99a	-0.10341187
58	0x3adfbac1	0.0017069207
59	0xbdab4629	-0.08362991
60	0xbbebf056	-0.007200281
61	0xbd5d9d01	-0.05410481
62	0xbdd80602	-0.10548021
63	0xbd5f1748	-0.054465562
64	0xbcf7e4f2	-0.030260537
65	0x3cc8ef82	0.024528269
66	0xbafd3b46	-0.0019320033
67	0x3d215e10	0.039396346
68	0x3c24b12e	0.010052009
69	0xbc93b6e2	-0.018031541
70	0x3d9400fb	0.072267495
71	0xbd3021c1	-0.04300094
72	0x3e0e26d0	0.13881993
73	0xba2417c2	-0.00062596437
74	0x3ca24b4c	0.019811295
75	0x3c51b412	0.01279928
76	0xbb92ec2b	-0.00448372
77	0xbd810cab	-0.06301244
78	0xbda5c78a	-0.080947
79	0xbe0e6259	-0.13904704
80	0x3c9bbca3	0.019010847
81	0xbd35521b	-0.044267755
82	0xbdec9e72	-0.115536585
83	0xbe07cfcf	-0.13262866
84	0xbda5c00d	-0.080932714
85	0x3c343a39	0.0110002095
86	0x3e14ba58	0.1452421
87	0xbcb776e4	-0.022395559
88	0x3e12025a	0.1425871
89	0xbccd4cf6	-0.025061112
90	0x3df589d1	0.11989177
91	0x3db6aaae	0.08919273
92	0xbda0de7f	-0.07854938
93	0xbc257491	-0.010098592
94	0xbdcc2d70	-0.09969604
95	0xbded0eec	-0.11575112
96	0x3d9e963e	0.077435
97	0x3c7fe4cd	0.015618515
98	0x3d12fbd2	0.035884686
99	0xbdd1c8e2	-0.102433935
100	0xbd4f8c3a	-0.05067084
101	0x3cc806b3	0.024417257
102	0xbddced11	-0.10787404
103	0x3ac43672	0.0014969839
104	0x3d95a139	0.073061414
105	0x3d24988c	0.040184543
106	0x3d87f898	0.06639212
107	0xbdcdae00	-0.100429535
108	0x3de676fe	0.11253165
109	0x3caeaddc	0.021323137
110	0x3d29e060	0.041473746
111	0xbe019f47	-0.12658416
112	0xbbb24875	-0.0054407665
113	0x3a223aa7	0.00061885495
114	0xbca2ac6f	-0.019857613
115	0x3e0f022c	0.13965672
116	0x3dd0cdb7	0.10195487
117	0xbca668a9	-0.020313578
118	0x3e02b78d	0.12765332
119	0xbd4055e3	-0.046956908
120	0xbd0e8bb7	-0.03480121
121	0x3d44233a	0.047885157
122	0x3d75a12a	0.05996815
123	0xbca8ff1b	-0.020629456
124	0x3df3ec8c	0.11910352
125	0x3d96c5e6	0.07361965
126	0xbca51e6d	-0.02015611
127	0xbbcb2fb9	-0.0062007573
128	0x3df8dbb8	0.12151283
129	0xbda40a3c	-0.080097646
130	0x3dc24c30	0.09487188
131	0x3d552014	0.052032545
132	0xbe19cd7d	-0.15019794
133	0xbdc3e6f9	-0.09565539
134	0x3c18a86d	0.0093175
135	0x3e1c8307	0.15284358
136	0xbcf1aaff	-0.029500483
137	0xbdf6c8bb	-0.12050005
138	0x3e07dd40	0.13267994
139	0xbdf6db7c	-0.12053582
140	0xbd6576e9	-0.056021605
141	0xbb9e2a6e	-0.0048268354
142	0xbda7da95	-0.08195988
143	0x3ddec81c	0.108780116
144	0x3dddb91b	0.10826322
145	0x3caaba0c	0.020840667
146	0x3d6115f4	0.054952577
147	0xbc60c752	-0.013719397
148	0x3a622efb	0.00086282165
149	0x3d4428ed	0.047890592
150	0xbd1972ff	-0.037463184
151	0xbdbe3c9e	-0.092889056
152	0x3db82eb2	0.089932814
153	0x3cff9fe2	0.031204168
154	0xbdd05f80	-0.10174465
155	0xbd0bdc2c	-0.03414552
156	0x3dc5ca97	0.096577816
157	0xbdb06ec4	-0.08614877
158	0xbe0318b6	-0.12802395
159	0x3d80458b	0.06263264
160	0x3d894025	0.06701688
161	0x3d33cf32	0.04389877
162	0xbdce65ab	-0.100779854
163	0x3de9673c	0.113966435
164	0xbd0ef665	-0.03490295
165	0xbc897a8e	-0.016782071
166	0xbe069c48	-0.13145554
167	0xbe047853	-0.12936525
168	0xbe3241e4	-0.17407948
169	0x3d82defd	0.06390188
170	0x3e186256	0.14881262
171	0xbe08ec57	-0.13371406
172	0xbc9fbda2	-0.019499604
173	0xbdf68514	-0.120371014
174	0xbc2f7c6f	-0.01071082
175	0xbbe0b1cd	-0.006857133
176	0xbdd00204	-0.101566344
177	0x3d638d58	0.055554718
178	0xbdc5d265	-0.0965927
179	0xbdb9107f	-0.090363495
180	0x3dbabb8d	0.09117804
181	0x3dcf1f60	0.10113406
182	0x3d9494ee	0.072549686
183	0xbd9b416b	-0.07580837
184	0x3e08ce8b	0.1336004
185	0xbdd46eaf	-0.10372674
186	0xbe00abae	-0.1256549
187	0xbaafc077	-0.00134088
188	0xbdb2385c	-0.08702156
189	0x3c07b8b8	0.0082837865
190	0xbc8f5b56	-0.017499607
191	0xbc545e28	-0.012961902
192	0xbd0ad414	-0.03389366
193	0x3dfce75b	0.12348815
194	0xbde82f44	-0.1133714
195	0xbdea5c15	-0.114433445
196	0xbcf2f22d	-0.029656494
197	0x3dd4bc2e	0.10387455
198	0xbde8a928	-0.11360389
199	0x3bceab73	0.0063070594
200	0x3d956dc1	0.072963245
201	0x3d5225ea	0.05130569
202	0xbdb6e73c	-0.08930823
203	0x3e196fe0	0.14984083
204	0xbd8a4b72	-0.06752671
205	0x3de8401f	0.11340355
206	0x3cdaaa4d	0.026692534
207	0x3c121cb8	0.00891798
208	0x3d8c169a	0.068402484
209	0xbc185dfc	-0.009299751
210	0xbd00cb3e	-0.031443827
211	0x3de30e17	0.11086672
212	0xbd61ef16	-0.05515965
213	0xbde399d6	-0.11113326
214	0x3de6b77b	0.11265465
215	0xbdd960dd	-0.10614178
216	0x3d5da939	0.05411646
217	0x3e06bed8	0.13158739
218	0x389736ed	7.210472e-05
219	0xbd09506b	-0.03352396
220	0x3e18dc4f	0.14927791
221	0x3d025daf	0.031827625
222	0x3e026ca0	0.1273675
223	0x3e163545	0.14668758
224	0x3d3171ab	0.043321293
225	0xbdbdc5c9	-0.0926624
226	0x3d66be21	0.056333665
227	0x3e08e134	0.13367158
228	0xbdd8d105	-0.10586742
229	0xbd90b6e2	-0.07066132
230	0x3ce976c9	0.028499024
231	0x3de8cf0f	0.11367618
232	0xbd898273	-0.06714334
233	0x3dd04141	0.10168696
234	0x3dda94a3	0.106728815
235	0xbe13af56	-0.14422354
236	0xbdbdf957	-0.092760734
237	0x3de2078f	0.11036598
238	0xbd6d1892	-0.05788476
239	0xbcc2b581	-0.023768188
240	0x3d6c93ec	0.057758257
241	0x3d816154	0.06317392
242	0x3ddfdb5c	0.10930511
243	0xbdd8361e	-0.10557197
244	0xbc062c7f	-0.00818932
245	0xbdeb99a2	-0.115039125
246	0x3d648725	0.055792946
247	0xbcc88a2d	-0.02447995
248	0xbdbf1b33	-0.0933136
249	0xbdcaac35	-0.09896127
250	0x3d108319	0.035281274
251	0xbd97b4f9	-0.07407565
252	0xbddb1eac	-0.106992096
253	0xbc1a9fb8	-0.009437494
254	0x3d49d779	0.049277756
255	0xbdedc1a1	-0.116091974

block2.bnorm_2.weight f4 [15]
0	0x3f7f336d	0.99687845
1	0x3f829f13	1.0204796
2	0x3f7bb2ae	0.9831952
3	0x3f7f92ed	0.99833566
4	0x3f78ee6a	0.9723879
5	0x3f80e328	1.0069323
6	0x3f7ceaee	0.98795974
7	0x3f8694f6	1.0514209
8	0x3f7bd539	0.98372227
9	0x3f838f4c	1.0278106
10	0x3f80f143	1.0073627
11	0x3f80ca09	1.0061656
12	0x3f7f139b	0.9963929
13	0x3f790beb	0.9728381
14	0x3f827354	1.0191445

block2.bnorm_2.bias f4 [15]
0	0xbca36bfb	-0.01994895
1	0x3cb833b5	0.022485593
2	0xbca9043a	-0.020631898
3	0xbc4ebe63	-0.012618634
4	0xbb249c99	-0.0025117754
5	0x3b98ce1b	0.0046632416
6	0xbad3cfd1	-0.0016159957
7	0xbcb58e84	-0.022162683
8	0xbc9450c2	-0.018104915
9	0x3d06de02	0.032926567
10	0xbc1c3475	-0.009533991
11	0x3c186988	0.009302504
12	0xbb7b5507	-0.003835024
13	0xbcdd17a3	-0.02698881
14	0xbd71a70c	-0.0589972

block2.bnorm_2.running_mean f4 [15]
0	0xbe665d19	-0.22496451
1	0x3d412e56	0.04716333
2	0xbed61ba8	-0.41817975
3	0xbe4d2ae8	-0.20035899
4	0xbe8f5ca2	-0.2800036
5	0xbdc56bf8	-0.09639734
6	0xbd26353f	-0.040578123
7	0xbe7c29c5	-0.24625309
8	0x3f5e0bc9	0.8673673
9	0xbcbb1eb9	-0.022841798
10	0x3eb78646	0.3584463
11	0xbea27750	-0.31731653
12	0xbedd9599	-0.43278196
13	0x3cc01b3e	0.02345049
14	0xbda4389c	-0.0801861

block2.bnorm_2.running_var f4 [15]
0	0x3f1f53ca	0.62237227
1	0x3f424c7e	0.7589797
2	0x3f419f21	0.75633436
3	0x3ece75b0	0.40324163
4	0x3f631f98	0.88720083
5	0x3ede7477	0.4344823
6	0x3f0a09e1	0.53921324
7	0x3ed62703	0.4182664
8	0x3f40a4ad	0.75251275
9	0x3ece55ff	0.40299985
10	0x3f09bef0	0.5380697
11	0x3efce4fd	0.49393454
12	0x3f286aaf	0.65787786
13	0x3fb91ff7	1.446288
14	0x3ebe95e8	0.37223744

block3.conv_3.weight f4 [30, 15, 10]
0	0x3d6f7e05	0.05846979
1	0x3cfc5560	0.030802429
2	0xbd1f8458	-0.038944572
3	0xbc4403e6	-0.01196382
4	0xbdc479be	-0.09593533
5	0x3c3a57e5	0.011373495
6	0x3c8f3079	0.017479168
7	0xbd8f652e	-0.0700172
8	0x3d5b0d1c	0.0534793
9	0x3c81e3fa	0.015855778
10	0x3d39bd51	0.04534656
11	0xbdd4aecc	-0.10384902
12	0xbd9fcabf	-0.078023426
13	0x3d72fe57	0.05932459
14	0xbc34d564	-0.011037204
15	0x3dc7cb6b	0.09755596
16	0xbce5d5e0	-0.028056085
17	0xbd9e68f8	-0.07734865
18	0x3d203d55	0.03912099
19	0xbd6a5a06	-0.05721476
20	0x3d64ca9b	0.055857282
21	0x3c7b9420	0.01535514
22	0x3da8b841	0.08238269
23	0xbd16b4fc	-0.036793694
24	0x3d7d1832	0.061790653
25	0x3d611bc7	0.05495813
26	0xbbd82e6a	-0.00659733
27	0xbd823a1f	-0.06358742
28	0xbc50f3ae	-0.01275341
29	0xbd613def	-0.054990705
30	0xbd340d27	-0.043957856
31	0xbdb85e0e	-0.090023145
32	0xbe08eebd	-0.13372321
33	0xbba8c6d5	-0.0051506558
34	0xbc5cd2a0	-0.013477951
35	0xbdeff588	-0.11716753
36	0x3d7160e2	0.058930285
37	0x3def1f06	0.11675839
38	0x3df04155	0.11731211
39	0x3d6395c9	0.055562768
40	0xbd911b82	-0.07085325
41	0xbd4c657e	-0.049901478
42	0xbdf3135d	-0.11868928
43	0xbded02cf	-0.11572801
44	0xbd6858c2	-0.05672527
45	0x3d8168c9	0.06318814
46	0x3d318981	0.043344025
47	0x3d595e16	0.053068243
48	0x3d6ad5fa	0.05733297
49	0x3c9c2329	0.019059734
50	0xbdb89437	-0.09012645
51	0x3d56af2e	0.052413158
52	0xbd79952f	-0.06093329
53	0x3ce92aa1	0.02846271
54	0xbd24c0c0	-0.040222883
55	0xbcae8d44	-0.021307595
56	0xbc467d59	-0.012114846
57	0xbda1cb49	-0.07900102
58	0x3cdfdcfb	0.027327051
59	0xbdb2e012	-0.08734144
60	0xbd95b4c5	-0.0730987
61	0x3d584c43	0.052807104
62	0x3d3f185b	0.046654087
63	0x3d407b5e	0.046992652
64	0xbda621b8	-0.081119
65	0x3d420957	0.04737219
66	0x3dd063a9	0.10175259
67	0x3c163bb0	0.009169504
68	0xbd33d244	-0.043901697
69	0xbd9cafa7	-0.076506905
70	0x3d9dabb0	0.076987624
71	0xbc915df7	-0.017745001
72	0xbd0c88ef	-0.034310278
73	0x3cdb53a2	0.026773278
74	0x3dfb19b1	0.122607596
75	0x3e01e33d	0.12684341
76	0x3dbfba1b	0.09361669
77	0x3dae71a6	0.085177705
78	0xbd0b0aa0	-0.03394568
79	0xbcaae995	-0.020863334
80	0x3d26f350	0.040759385
81	0xbc647fd9	-0.013946497
82	0x3c9cbf15	0.019134084
83	0xbe0c3f24	-0.13695961
84	0x3d4849e5	0.048898596
85	0x3d5da866	0.054115675
86	0x3d7668e0	0.06015861
87	0xbc1f58d2	-0.009725766
88	0x3dd353fb	0.103187524
89	0x3dbedbe4	0.093192846
90	0xbe047922	-0.12936834
91	0xbdc1909d	-0.09451411
92	0xbd8910e9	-0.066926785
93	0x3d8a44fc	0.06751439
94	0xbd50adb9	-0.050946925
95	0x3d21d69d	0.03951131
96	0xbddb6d44	-0.107142
97	0xbd3dfb62	-0.046382315
98	0xbd4ad1f1	-0.049516622
99	0x3d3e66c7	0.046484735
100	0xbdc9055c	-0.09815475
101	0xbdb57dae	-0.08861862
102	0x3c645b22	0.013937743
103	0xbc9f4e5b	-0.019446542
104	0xbdbf9b49	-0.0935579
105	0xbd3dd1e6	-0.046342753
106	0x3c801b33	0.01563797
107	0xbd6f0a19	-0.05835924
108	0x3dbbd1a6	0.09170847
109	0xbd674a14	-0.05646713
110	0xbdc9d520	-0.098551035
111	0xbd027050	-0.03184539
112	0x3d5df468	0.054188162
113	0x3d4633a2	0.048389085
114	0xbd0e7ee0	-0.034788966
115	0xbcc6fda4	-0.024290867
116	0x3b6553dc	0.003499261
117	0xbd5faafd	-0.054606427
118	0x3bb73ca0	0.005591944
119	0x3cf5c58f	0.03000143
120	0xbdaf5a67	-0.08562165
121	0x3de24f89	0.110503264
122	0x3d7ce493	0.061741423
123	0x3d44b094	0.04801996
124	0xbdfd1b64	-0.1235874
125	0xbd94756a	-0.072489575
126	0xbc5888de	-0.013216225
127	0xbd888fae	-0.0666803
128	0xbd6dbabd	-0.058039416
129	0x3e25c6a9	0.16189064
130	0x3d7a15ab	0.06105582
131	0x3dbc342c	0.091896385
132	0xbd4929b1	-0.049112026
133	0x3da95276	0.08267681
134	0x3d8b853b	0.06812521
135	0x3d91364c	0.070904344
136	0xbd0e5b59	-0.034755085
137	0xbd1c7446	-0.038196824
138	0x3aea76b2	0.0017888157
139	0x3da4bda4	0.080439836
140	0xbd37b1fb	-0.04484747
141	0x3d810c9e	0.06301235
142	0xbd11f165	-0.035630602
143	0xbd9c62cb	-0.07636031
144	0x3d218520	0.0394336
145	0xbd2c7c94	-0.042110994
146	0xbdd0c0b6	-0.10193007
147	0x3e09d469	0.13459934
148	0x39c27a54	0.00037093705
149	0xbc9a5deb	-0.018843612
150	0x3d93309c	0.07187006
151	0xbcf6794f	-0.030087141
152	0xbdbeafd1	-0.09310878
153	0x3cf67cac	0.030088745
154	0xbd607833	-0.05480213
155	0x3d8a8294	0.06763187
156	0x3c801994	0.015637197
157	0xbdb2491a	-0.08705349
158	0xbe1e8c85	-0.15483291
159	0xbc51d998	-0.012808226
160	0x3df0bb65	0.11754493
161	0xbd673bd0	-0.056453526
162	0xbdd12387	-0.102118544
163	0xbda94c1c	-0.0826647
164	0xbdacde8a	-0.084408835
165	0x3c8583c9	0.016298192
166	0x3d5e3771	0.05425209
167	0xbd9b05eb	-0.07569488
168	0xbd6bfd77	-0.05761477
169	0xbc9cdb41	-0.019147517
170	0xbcce8d53	-0.025213873
171	0x3d49bf68	0.049254805
172	0xbd34e4b3	-0.044163417
173	0x3db08f39	0.086210676
174	0x3d19da6b	0.037561815
175	0xbd9e36d1	-0.07725299
176	0xbd727e82	-0.05920268
177	0x3c99ef2f	0.01879081
178	0xbdc7e327	-0.09760123
179	0x3d10cc9c	0.03535138
180	0xbde7149e	-0.11283229
181	0x3d86a2b4	0.06574002
182	0xbdc55231	-0.096348174
183	0x3daa373e	0.08311318
184	0x3d304fc3	0.043044817
185	0x3d9400c6	0.0722671
186	0xbdebe32e	-0.115179405
187	0xbd172bd8	-0.036907047
188	0xbd73f026	-0.059555195
189	0xbd309c4e	-0.043117814
190	0xbdaf78b5	-0.08567945
191	0xbc1e95f0	-0.009679303
192	0xbd05af3c	-0.03263782
193	0x3d70e533	0.05881233
194	0x3c78cc31	0.015185402
195	0xbd19dd9d	-0.037564863
196	0xbdb4fd7f	-0.08837413
197	0x3d885b79	0.06658072
198	0xbdd5ccad	-0.104394294
199	0xbaaa5c06	-0.0012997396
200	0x3d84230a	0.06451996
201	0x3d08bdfc	0.03338431
202	0x3d8161e5	0.063175
203	0xbc6d894c	-0.014498066
204	0xbdbb9772	-0.09159745
205	0x3d0c2685	0.034216423
206	0xbddf728d	-0.10910521
207	0x3d989d0c	0.07451829
208	0xbdb88132	-0.09009017
209	0x3b98f0a7	0.00466736
210	0xbd28d588	-0.041219264
211	0x3d2778dc	0.040886745
212	0x3d98e47f	0.07465457
213	0xbd5bf9a6	-0.05370488
214	0x3d1b852b	0.037968796
215	0xbc71ba71	-0.014753924
216	0xbdb73c1e	-0.08947013
217	0xbd05efb5	-0.032699306
218	0xbde30c45	-0.110863246
219	0x3d946e66	0.07247619
220	0xbe02c8e6	-0.12771949
221	0x3d59787b	0.053093415
222	0xbc593969	-0.013258317
223	0x3e15c156	0.14624533
224	0xbdd1eb9b	-0.10250016
225	0xbd6e9e53	-0.05825646
226	0x3d413b33	0.047175597
227	0xbdbadb7f	-0.09123897
228	0x3da8b53c	0.08237693
229	0x3ddd3864	0.10801771
230	0xbde42591	-0.11139978
231	0x3d80f03b	0.0629582
232	0x3d646fe5	0.055770773
233	0xbda5cbff	-0.0809555
234	0x3dc278d0	0.094956994
235	0x3bbd0b22	0.0057691494
236	0x3dae3979	0.08507056
237	0x3d92350c	0.07139024
238	0xbddc5572	-0.10758485
239	0x3dbfa313	0.09357276
240	0x3db51c65	0.088433065
241	0x3d07b217	0.033128824
242	0x3c5448ca	0.012956807
243	0x3d3cdf46	0.046111368
244	0xbdb69066	-0.089142606
245	0xbc598657	-0.013276658
246	0x3dec8a26	0.11549787
247	0xba54616b	-0.00081016746
248	0xbdd745a8	-0.10511333
249	0xbe165e49	-0.14684404
250	0xbdf2acad	-0.118493415
251	0xbdcffdbf	-0.1015582
252	0xba66a75b	-0.00087987416
253	0x3c83e247	0.016099108
254	0xbdc529d9	-0.096271224
255	0xbdb47c49	-0.08812768

block3.bnorm_3.weight f4 [30]
0	0x3f857a61	1.0427972
1	0x3f8710aa	1.055196
2	0x3f7e672a	0.99376166
3	0x3f7fbb89	0.9989553
4	0x3f80fc30	1.0076962
5	0x3f829d9c	1.0204349
6	0x3f80d711	1.0065633
7	0x3f7e2aaa	0.9928385
8	0x3f80047f	1.0001372
9	0x3f81a84a	1.0129483
10	0x3f799aab	0.9750163
11	0x3f7841b6	0.96975267
12	0x3f8386d0	1.0275517
13	0x3f839fae	1.0283105
14	0x3f84b7c7	1.0368584
15	0x3f82bd8b	1.0214094
16	0x3f83507b	1.0258936
17	0x3f816c8c	1.0111251
18	0x3f807066	1.0034301
19	0x3f7de337	0.9917483
20	0x3f75b2e5	0.95976096
21	0x3f8150b3	1.0102752
22	0x3f79db9b	0.97600716
23	0x3f7f68ae	0.99769104
24	0x3f80d73d	1.0065686
25	0x3f84e69d	1.0382878
26	0x3f8194d2	1.0123541
27	0x3f781a0f	0.9691476
28	0x3f83b390	1.0289173
29	0x3f7bb670	0.9832525

block3.bnorm_3.bias f4 [30]
0	0x3d5f5dcb	0.054532807
1	0x3b3e029b	0.0028993252
2	0xbd06c341	-0.032901052
3	0xbcf1fa16	-0.029538196
4	0xbd21f48c	-0.03953986
5	0x3d84708b	0.06466778
6	0xbca133fd	-0.01967811
7	0xbd7934a0	-0.060841203
8	0xbcf186d2	-0.029483233
9	0x3cc37340	0.023858666
10	0xbcbf2b16	-0.023335975
11	0xbcb8d786	-0.022563707
12	0xbbbea0a8	-0.0058174916
13	0xbd0837e8	-0.03325644
14	0x3c6bec3c	0.014399584
15	0xbb33da46	-0.0027443334
16	0x3b891c70	0.004184298
17	0xbd6042fa	-0.054751374
18	0xbca4ea05	-0.02013112
19	0xbc28bf5e	-0.010299532
20	0xbd4305f0	-0.047613084
21	0xbd341ea1	-0.043974523
22	0xbd0d7ae3	-0.034541022
23	0xbd049c7e	-0.032375805
24	0xbc9c8d62	-0.019110385
25	0x3b1f57ae	0.0024313736
26	0x3bee96ae	0.007281146
27	0xbd47aa03	-0.04874612
28	0xba6b2acc	-0.0008970916
29	0xbc2773d4	-0.010220487

block3.bnorm_3.running_mean f4 [30]
0	0xbe4d741c	-0.20063823
1	0xbefd98f2	-0.4953075
2	0xbe3f84fa	-0.1870307
3	0xbe55c536	-0.20876011
4	0xbe307f3e	-0.17236039
5	0xbe1bf7be	-0.15231225
6	0x3dc491ab	0.095980965
7	0x3f58d7d5	0.84704334
8	0xbf0474f0	-0.5174093
9	0xbf5e077f	-0.8673019
10	0xbe073524	-0.13203865
11	0xbe259263	-0.16169123
12	0xbe1746ca	-0.14773098
13	0xbed64e27	-0.418565
14	0xbf38a795	-0.7213071
15	0xbe908016	-0.28222722
16	0xbeab1adf	-0.3341894
17	0xbf40837c	-0.7520063
18	0x3e475ce5	0.1946903
19	0xbeb4099e	-0.35163587
20	0x3ef474bd	0.47745314
21	0xbd0cbc4f	-0.034359273
22	0xbcd60749	-0.02612652
23	0xbf07ffcc	-0.5312469
24	0x3e07c767	0.1325966
25	0xbf035e3c	-0.51315665
26	0xbdd6fa97	-0.10497015
27	0x3d8402de	0.064458594
28	0xbeedfcc8	-0.4648192
29	0x3ea56a88	0.3230784

block3.bnorm_3.running_var f4 [30]
0	0x3ee84ae1	0.45369628
1	0x3ec94576	0.39310807
2	0x3f55d772	0.8353187
3	0x3ee0490e	0.43805736
4	0x3ee0b3f1	0.43887284
5	0x3ec73880	0.38910294
6	0x3f176267	0.59134525
7	0x3f35e65e	0.7105464
8	0x3f130877	0.5743479
9	0x3f0ac272	0.5420295
10	0x3eb6cede	0.35704702
11	0x3f211f02	0.6293794
12	0x3edf3c58	0.43600726
13	0x3e981127	0.29700586
14	0x3efe7986	0.4970209
15	0x3f6c3f84	0.9228442
16	0x3ed42d17	0.4144065
17	0x3f378c9b	0.7169892
18	0x3f182dd5	0.59444934
19	0x3f038f78	0.5139079
20	0x3ed94928	0.42438626
21	0x3ee11100	0.43958282
22	0x3f3161bb	0.6928975
23	0x3f47bfe7	0.78027195
24	0x3ed8e487	0.42361853
25	0x3ef8c9e8	0.48591542
26	0x3e976612	0.2957006
27	0x3f059bf3	0.52191085
28	0x3ef5eb06	0.4803087
29	0x3f4a7551	0.7908526

block4.conv_4.weight f4 [30, 30, 10]
0	0x3d065a16	0.032800756
1	0xbd29782f	-0.04137438
2	0x3da38b75	0.07985584
3	0x3a7ed4b2	0.0009721025
4	0x3d72f0ac	0.059311554
5	0x3d1195c9	0.035543237
6	0x3d8fa0a3	0.07013061
7	0x3cc9f22a	0.024651606
8	0x3e037182	0.12836269
9	0x3c8d3379	0.017236458
10	0xbc36eafa	-0.011164421
11	0xbdc62f18	-0.09676951
12	0x3ba7022f	0.005096696
13	0xbd481ad6	-0.048853718
14	0x3c95be27	0.018279148
15	0xbce1dac8	-0.027570143
16	0xbd32b9ae	-0.04363411
17	0xbd8a5b3f	-0.06755685
18	0xbc7c9883	-0.015417221
19	0x3b857b9b	0.004073573
20	0x3daa3a8d	0.08311949
21	0x3dcc0a98	0.09962958
22	0xbd549935	-0.051903922
23	0xbd6a2b7a	-0.05717037
24	0x3ccac27a	0.024750937
25	0xbda865f8	-0.08222574
26	0xbd89737d	-0.06711481
27	0xbda9a184	-0.0828276
28	0xbb07ded0	-0.0020732172
29	0x3d27e74b	0.040992063
30	0xbd58ed3c	-0.05296062
31	0xbc644ddd	-0.01393458
32	0xbcd26ce2	-0.025686685
33	0x3d92e4e3	0.07172563
34	0xbd0465f8	-0.032323807
35	0xbc1ad093	-0.009449142
36	0x3daf2f27	0.085539155
37	0xbd1f97ac	-0.038963005
38	0xbd682cbf	-0.0566833
39	0x3d2778d2	0.040886708
40	0xbd2cb1f5	-0.0421619
41	0x3dabce2f	0.08388936
42	0xbd9bfc17	-0.07616442
43	0x3d59f871	0.053215448
44	0x3ce338dd	0.027737075
45	0x3dd5dac0	0.10442114
46	0x3d9f55be	0.07780026
47	0x3cd6cc56	0.026220482
48	0xbd52f90f	-0.051507052
49	0xbd593e32	-0.05303783
50	0x3c48f6b4	0.01226585
51	0x3d2483e2	0.040164836
52	0x3d56f421	0.052478913
53	0x3c9891c9	0.018624203
54	0xbd6e6d57	-0.058209743
55	0xbb9b01ff	-0.0047304626
56	0x3bbbc52c	0.005730292
57	0x3c2a5b39	0.010397726
58	0x3d273aa1	0.040827397
59	0x3d4bd527	0.049763825
60	0x3c08a5ec	0.00834034
61	0xbcb9a323	-0.022660797
62	0x3db40870	0.08790672
63	0x3d350a9f	0.044199582
64	0xbd8a60bb	-0.06756731
65	0x3da7bbb2	0.08190097
66	0xbd059e88	-0.03262189
67	0xbc82ea47	-0.015980853
68	0xbc961e1e	-0.018324908
69	0xbd6b38d6	-0.05742725
70	0xbba4f12c	-0.0050336327
71	0x3d278ecf	0.040907677
72	0xbd0a162e	-0.03371256
73	0x3d00ed5b	0.03147636
74	0x3d8d2c2a	0.06893189
75	0x3dac8e70	0.08425605
76	0xbd297d92	-0.04137952
77	0xbc62d837	-0.013845495
78	0xbb811cbc	-0.003940193
79	0xbc93572a	-0.017985899
80	0xbbda250c	-0.0066572484
81	0xbdbb658a	-0.091502264
82	0x3cc273be	0.02373683
83	0xbdbccd1f	-0.09218811
84	0xbd949157	-0.07254284
85	0x3c6ebaf3	0.014570939
86	0x3ce97b20	0.028501093
87	0x3ccf79f4	0.025326706
88	0xbcdc8a47	-0.026921405
89	0x3d0fc3d4	0.035098866
90	0xbbdddb1a	-0.0067705037
91	0x3ddd980f	0.108200185
92	0x3d938aad	0.07204185
93	0xbdbd03e6	-0.09229259
94	0x3c872a15	0.016499558
95	0xbd04faec	-0.03246586
96	0x3da57d6d	0.08080564
97	0xbd46a6a0	-0.04849875
98	0xbd5d7863	-0.054069888
99	0x3c7c6df9	0.015407079
100	0xbda5a694	-0.08088413
101	0xbd7707fb	-0.060310345
102	0xbcd0e4c6	-0.025499713
103	0xbd8d8b58	-0.06911343
104	0xbcd7acd1	-0.026327522
105	0x3d2d5057	0.042312946
106	0x3da1e20b	0.079044424
107	0x3d6f10e6	0.058365725
108	0xbd4c08ac	-0.049812958
109	0x3c45f10c	0.012081396
110	0xb9de8bcb	-0.00042447294
111	0xbdd79205	-0.10525898
112	0xbd8b4bfd	-0.06801603
113	0xbd3e2d1a	-0.04642973
114	0x3cf778e5	0.030209014
115	0xbccb74fd	-0.024836058
116	0x3d1e9fca	0.038726605
117	0x3d858dbe	0.06521176
118	0xbd779099	-0.060440633
119	0x3cff30ec	0.031151257
120	0x3c2976db	0.010343279
121	0xbdaf6721	-0.08564592
122	0x3ca31a7a	0.019910086
123	0xbdac5489	-0.08414561
124	0x3d2be775	0.04196878
125	0x3d8246ae	0.06361137
126	0x3d827088	0.0636912
127	0xbdad08d1	-0.08448947
128	0xbd0e2e7d	-0.034712303
129	0x3cfa0da0	0.030524075
130	0xbd95e9d2	-0.07319988
131	0xbd7a41e6	-0.061098002
132	0xbd93f1c9	-0.07223851
133	0xbd435d8a	-0.047696628
134	0xbd52ee6d	-0.05149691
135	0xbd22e46d	-0.039768625
136	0x3db86d8d	0.0900527
137	0xbd2b4d6c	-0.041821882
138	0xb923bd52	-0.00015615419
139	0xbb92db8a	-0.0044817375
140	0xbd2b3e28	-0.041807324
141	0xbc972245	-0.018448958
142	0xbd98161f	-0.07426094
143	0xbd468590	-0.04846722
144	0xbd5e1593	-0.054219794
145	0x3dac6cdc	0.08419201
146	0x3cb0a028	0.021560743
147	0x3d0061a5	0.03134312
148	0x3d2587f5	0.04041286
149	0x3d2e7b06	0.042597793
150	0x3d9b931b	0.075964175
151	0xba37ec67	-0.00070161227
152	0x3d454811	0.04816443
153	0x3cbae076	0.02281211
154	0x3de0ab16	0.10970132
155	0x3d039e9b	0.03213368
156	0xbba8054b	-0.005127584
157	0xbda7bc7b	-0.08190247
158	0xbbd259aa	-0.00641938
159	0xbdd5843e	-0.10425614
160	0x3c62d46b	0.01384459
161	0x3da0a53e	0.078440174
162	0x3dbc75f1	0.09202183
163	0xbdad1d73	-0.084528826
164	0xbda760db	-0.081727706
165	0x3d320e4b	0.043470662
166	0x3cf892b5	0.030343393
167	0x3d10c053	0.035339665
168	0x3d85a205	0.065250434
169	0x3c1ef2af	0.009701415
170	0xbdd2f0ae	-0.10299812
171	0xbda39cc0	-0.07988882
172	0xbc0bcc4f	-0.008532598
173	0xbd8ce95c	-0.06880447
174	0x3d117b51	0.035517994
175	0x3dd3536e	0.10318647
176	0x3df2a45f	0.118477575
177	0xbd9179d7	-0.07103317
178	0x3da44a97	0.080220394
179	0x3d17ba13	0.03704269
180	0x3d45f45e	0.04832875
181	0xbd51df38	-0.05123827
182	0xbd02e635	-0.031957824
183	0x3db3aa51	0.0877272
184	0x3d1d41ae	0.038392715
185	0x3d3d1458	0.04616198
186	0xbddd497e	-0.10805033
187	0xbd66bd62	-0.056332953
188	0x3b82ee29	0.003995676
189	0xbd789d20	-0.06069672
190	0xbceecbc8	-0.029149905
191	0x3dc1c466	0.09461288
192	0x3d051b9d	0.032497037
193	0x3c6dcec2	0.014514627
194	0xbd67dc17	-0.05660638
195	0xbcb5a563	-0.02217359
196	0xbd3a4720	-0.045477986
197	0xbc3715d3	-0.011174637
198	0xbd7afffc	-0.061279282
199	0xbd95492c	-0.07289347
200	0xbd6511af	-0.055925068
201	0xbd2330cd	-0.039841462
202	0x3d470f3b	0.04859851
203	0xbd2e9d4a	-0.04263047
204	0xbcb64383	-0.022248989
205	0xbdc9acdb	-0.09847423
206	0xbd7c48eb	-0.061592977
207	0x3d58ba73	0.052912187
208	0xbd27ad18	-0.04093656
209	0x3d01c3b2	0.03168077
210	0xbd8c7261	-0.068577535
211	0xbcc92e17	-0.02455811
212	0x3d7ef1e1	0.062242392
213	0x3d938367	0.072027974
214	0x3dcfb9d7	0.10142868
215	0xbc27a876	-0.010233035
216	0xbd44b1a9	-0.048020992
217	0xbda3cd34	-0.07998124
218	0xbd04db13	-0.032435488
219	0xbdeab7a6	-0.114608094
220	0x3d38e23b	0.045137625
221	0xbd043253	-0.032274555
222	0xbd4f3671	-0.05058903
223	0x3ccfe1b4	0.025376178
224	0xbce1998f	-0.027539043
225	0xbd6fcf1b	-0.05854712
226	0x3dc736c5	0.09727243
227	0x3d8adfcc	0.06780967
228	0x3d80c136	0.06286852
229	0xbd37facd	-0.044916917
230	0x3d3d1029	0.04615799
231	0xbdb81ce7	-0.08989888
232	0x3d68bf3a	0.056822993
233	0xbb3cb1ad	-0.0028792426
234	0x3d81d7a3	0.063399576
235	0xbcf0bd55	-0.029387156
236	0x3d03d2b5	0.032183368
237	0xbd86707f	-0.06564426
238	0x3dec354c	0.11533603
239	0x3e0a5c43	0.13511758
240	0xbdb892eb	-0.090123974
241	0x3dd5b820	0.1043551
242	0x3d8bae42	0.068203464
243	0x3d0bb072	0.03410382
244	0xbdbe7887	-0.093003325
245	0x3db0c08e	0.08630477
246	0xbb891a3e	-0.0041840365
247	0x3d0dd78d	0.034629393
248	0x3c8b95f1	0.017039271
249	0x3e14de8d	0.14538021
250	0x3c35fe21	0.011107952
251	0x3c0be669	0.008538821
252	0x3d4ecf57	0.050490703
253	0xbda49f67	-0.08038216
254	0xbcba0d0e	-0.022711303
255	0x3cc32f06	0.023826133

block4.bnorm_4.weight f4 [30]
0	0x3f83301e	1.0249059
1	0x3f860e83	1.0473179
2	0x3f7d9d27	0.9906792
3	0x3f822a66	1.0169189
4	0x3f82a178	1.0205526
5	0x3f8685e8	1.0509615
6	0x3f86a6c5	1.0519644
7	0x3f8549b0	1.0413113
8	0x3f8405f9	1.0314323
9	0x3f80b5c4	1.005547
10	0x3f876018	1.05762
11	0x3f7d0090	0.98828983
12	0x3f832fd2	1.0248969
13	0x3f7ffa09	0.999909
14	0x3f855b73	1.0418533
15	0x3f84a220	1.0361977
16	0x3f83c556	1.0294597
17	0x3f815184	1.0103002
18	0x3f828fc2	1.0200121
19	0x3f86eeba	1.0541604
20	0x3f84cccc	1.0374999
21	0x3f857f5d	1.0429493
22	0x3f8de2e9	1.1084872
23	0x3f832771	1.0246412
24	0x3f814247	1.0098351
25	0x3f7e58ed	0.9935444
26	0x3f92f7e0	1.1481895
27	0x3f8710f1	1.0552045
28	0x3f843c03	1.0330814
29	0x3f808539	1.0040656

block4.bnorm_4.bias f4 [30]
0	0xbd051850	-0.03249389
1	0x3c03dbf2	0.0080480445
2	0xbcf4a2b5	-0.029862741
3	0xbcaf384c	-0.02138915
4	0xbcc9db9f	-0.024640856
5	0x3c94d2e9	0.018166976
6	0x3c764c6d	0.01503287
7	0xbcb5b634	-0.022181608
8	0x3c9ced40	0.019156098
9	0xbcb91aeb	-0.022595843
10	0xbd004d67	-0.031323817
11	0xbccb5b7b	-0.024823895
12	0xbcd67929	-0.02618082
13	0xbcb70a09	-0.022343652
14	0x3cb5de79	0.02220081
15	0x3cad4d4e	0.021155026
16	0xbcc0ced3	-0.023536121
17	0xbce4f8eb	-0.027950725
18	0xbcfc893a	-0.030827153
19	0x3c7a3662	0.015271755
20	0x3c82ec87	0.015981926
21	0x3c7a60bf	0.015281855
22	0xbc566eca	-0.013087938
23	0xbd1c327b	-0.03813408
24	0xbcd7dec0	-0.026351333
25	0xbcc86d3c	-0.02446615
26	0x3abb2c7a	0.0014280223
27	0x3cc54f45	0.02408565
28	0x3c9e71c3	0.019341355
29	0xbcd15cce	-0.025556948

block4.bnorm_4.running_mean f4 [30]
0	0x3e95c6bc	0.29253185
1	0xbf74b629	-0.95590454
2	0xbfa11c46	-1.2586753
3	0x3f064ad3	0.5245792
4	0xbd07909d	-0.0330969
5	0x3f58917d	0.84597
6	0xbf6b5375	-0.9192422
7	0x3e5ad5cc	0.2137062
8	0xbf9665aa	-1.1749775
9	0xbe80405a	-0.25049096
10	0x3eac9ba0	0.33712482
11	0xbfa382ad	-1.2774254
12	0x3bd5032a	0.0065006213
13	0xbe77b753	-0.24191026
14	0xbe7a8f21	-0.24468662
15	0xbf81dd6a	-1.0145695
16	0x3ea7593a	0.32685262
17	0x3de5b766	0.11216621
18	0x3e897efe	0.268547
19	0x3e61c150	0.22046399
20	0x3fd04887	1.6272134
21	0x3d57f780	0.05272627
22	0x3f12925c	0.57254577
23	0xbfbc5fda	-1.4716752
24	0xbdf7e673	-0.121045016
25	0xbf111175	-0.5666726
26	0x3f38c3b1	0.721736
27	0xbf306f2d	-0.6891964
28	0x3ebf46fc	0.37358844
29	0x3ee23d2c	0.44187295

block4.bnorm_4.running_var f4 [30]
0	0x3efa8912	0.489327
1	0x3f1c1c6b	0.6098086
2	0x3f9987ce	1.1994569
3	0x3e8daf93	0.27673015
4	0x3ede6ebe	0.43443865
5	0x3eb64951	0.3560281
6	0x3ec8ec2d	0.39242688
7	0x3eca9ade	0.3957128
8	0x3f83b3a5	1.0289198
9	0x3ec41fe4	0.3830558
10	0x3ebdac2c	0.3704542
11	0x3f1b25b9	0.60604435
12	0x3efb0cfb	0.4903334
13	0x3f03ab88	0.5143361
14	0x3f2ce441	0.6753579
15	0x3f243c96	0.64154947
16	0x3f8462d3	1.0342659
17	0x3ecdd5d6	0.40202206
18	0x3f073188	0.52809954
19	0x3f0e0e3d	0.55490476
20	0x3f2ecb40	0.68278885
21	0x3efba3a5	0.49148288
22	0x3edf565b	0.43620571
23	0x3eeee0ab	0.46655783
24	0x3e904ec4	0.28185093
25	0x3f277c77	0.65424293
26	0x3ee9ec1b	0.45687947
27	0x3f0cfc50	0.550725
28	0x3f203708	0.6258397
29	0x3ecfcd43	0.4058629

conv_channel_res.weight f4 [1, 30, 3]
0	0x3d33c11d	0.04388534
1	0xbd2291a0	-0.03968966
2	0xbd275c5b	-0.04085956
3	0xbcbab965	-0.022793481
4	0x3d97cb13	0.0741178
5	0x3d65f54c	0.056142136
6	0x3bb30e21	0.005464331
7	0xbdcd38f4	-0.100206286
8	0xbbcac90d	-0.006188518
9	0xbded1f91	-0.115782864
10	0xbdef776e	-0.11692701
11	0xbdd4538a	-0.10367496
12	0xbdcd567d	-0.10026262
13	0xbde9bc40	-0.11412859
14	0xbded8afe	-0.11598776
15	0xbd6c1f4b	-0.05764703
16	0x3e07e593	0.1327117
17	0x3e14533d	0.14484878
18	0x3de6b203	0.11264422
19	0xbd1eee2e	-0.038801365
20	0x3d7dbea2	0.06194938
21	0xbd1f8a84	-0.03895046
22	0xbdb3b402	-0.08774568
23	0xbe02a8ec	-0.12759751
24	0x3b85c088	0.0040817894
25	0x3d3d2a80	0.04618311
26	0x3d456396	0.048190676
27	0xbdabe28e	-0.08392821
28	0xbd4c378a	-0.049857654
29	0xbdd8d5d9	-0.10587663
30	0x3db85681	0.09000874
31	0xbdbe8cd6	-0.09304206
32	0x3ca51c61	0.020155134
33	0xbcc453b5	-0.023965696
34	0xbda278a3	-0.07933166
35	0xbccc70a3	-0.024956053
36	0x3d2e8f05	0.042616863
37	0xbbd1b65e	-0.0063999137
38	0xbdaf3aac	-0.08556113
39	0xbdbbcdbb	-0.09170099
40	0xbd8a01bd	-0.06738613
41	0xbdb494dd	-0.08817456
42	0xbd16b20a	-0.036790885
43	0x3dd3b2c3	0.103368305
44	0x3e040a37	0.12894522
45	0xbcbfdc77	-0.023420556
46	0x3d635de4	0.055509463
47	0x3dce3bf1	0.10070027
48	0x3d1732b6	0.036913596
49	0xbda6a1ee	-0.081363544
50	0xbdd1836c	-0.10230145
51	0xbd1655f3	-0.03670306
52	0xbcca2f55	-0.024680773
53	0xbdb99a1d	-0.09062598
54	0xbdc2fe8b	-0.095212065
55	0x3d977148	0.073946536
56	0xbd2945b6	-0.041326247
57	0x3c3fad76	0.011699071
58	0x3e0faeef	0.14031576
59	0x3e0479aa	0.12937036
60	0x3d992488	0.07477671
61	0x3de071b0	0.10959184
62	0x3d11f138	0.035630435
63	0x3da3ebf4	0.08003989
64	0x3c4d84e7	0.012543893
65	0x3dfbb9db	0.122913085
66	0x3e06f389	0.13178839
67	0xbd9224a6	-0.071358964
68	0xbd5b3f6e	-0.05352729
69	0xbcc22331	-0.023698421
70	0xbd9d0256	-0.07666461
71	0x3dae092b	0.084978424
72	0x3b0c33b6	0.0021393127
73	0xbde4c226	-0.111698434
74	0xbcea7db3	-0.028624391
75	0xbd03c72a	-0.03217236
76	0xbd53b1a7	-0.051683094
77	0xbdcd26f1	-0.10017193
78	0x3dae6cac	0.08516821
79	0x3cb4e1c0	0.022080302
80	0xbdca416e	-0.09875761
81	0xbd82d9f0	-0.063892245
82	0x3d9e9ccd	0.07744751
83	0x3d4edff7	0.05050656
84	0x3dca58a7	0.0988019
85	0x3d87a3b8	0.06623024
86	0x3d1ddd02	0.038540848
87	0xbd8b14a6	-0.06791048
88	0x3c3d2fd6	0.0115470495
89	0xbd6fdb7f	-0.058558937

classifier_conv.weight f4 [32, 1, 35]
0	0xbba1b3e0	-0.004934773
1	0xbd27a6c7	-0.040930536
2	0x3aca623d	0.0015440654
3	0xbd0b20b5	-0.03396674
4	0x3c6fe075	0.014640917
5	0xbdb7e657	-0.08979481
6	0xbdd3ea72	-0.10347451
7	0xbd245803	-0.040122997
8	0x3b6512aa	0.0034953752
9	0xbb85f544	-0.004088076
10	0xbdc285ac	-0.09498152
11	0xbbcf8f43	-0.006334217
12	0xbd533b89	-0.05157045
13	0xbc81888f	-0.015812187
14	0xbdac2e33	-0.08407249
15	0xbdd5dcfb	-0.10442539
16	0xbd18aa15	-0.037271578
17	0xbd4eab25	-0.050456185
18	0xbda0cdab	-0.07851728
19	0xbd57d4b1	-0.052693073
20	0xbd8ba7bd	-0.06819103
21	0xbd96b4f7	-0.07358735
22	0xbde1c45d	-0.110237814
23	0xbe2acc8f	-0.16679595
24	0xbda0715b	-0.07834121
25	0xbdc999a2	-0.09843756
26	0xbdb7dc65	-0.08977584
27	0xbe313e98	-0.17309034
28	0xbdf3c8b3	-0.11903515
29	0xbe2d65a6	-0.16933307
30	0x3dd7feca	0.10546644
31	0xbeabc155	-0.33545938
32	0x3e468593	0.19386892
33	0xbc8a3640	-0.016871572
34	0x3d9cbd51	0.07653297
35	0xbc19c2c1	-0.009384812
36	0x3d11551a	0.03548155
37	0x3c906563	0.01762647
38	0x3db23717	0.08701914
39	0x3d8f2cdb	0.069909774
40	0x3ad5e3f5	0.0016318547
41	0x3d04adce	0.032392316
42	0x3d31e1e4	0.043428317
43	0x3b1bed01	0.0023792388
44	0x3dc124ec	0.094308704
45	0x3c3ea732	0.011636542
46	0x3dee7943	0.116442226
47	0x3d4b6483	0.049656402
48	0x3dede696	0.116162464
49	0x3dce9ad7	0.10088127
50	0x3dba43d1	0.09094966
51	0x3cfb8236	0.030701738
52	0x3d8b0c9d	0.06789515
53	0x3df18b1c	0.11794111
54	0x3e128f45	0.14312465
55	0x3cafb7f5	0.021450022
56	0x3dd84f0e	0.105619535
57	0x3e03192d	0.12802573
58	0x3dfb5da8	0.12273723
59	0x3e306f2c	0.17229909
60	0x3e25e998	0.1620239
61	0x3e32d50b	0.17464082
62	0x3e47c9f5	0.19510634
63	0x3d9b419c	0.07580873
64	0x3e745093	0.23858862
65	0xbdec6bb5	-0.11543981
66	0x3ed02ba9	0.4065831
67	0xbe7cff07	-0.2470666
68	0x3e0939fe	0.13401029
69	0xbdf13062	-0.117768064
70	0x3d1b48b7	0.037911143
71	0x3d2be7c6	0.041969083
72	0xbd7f6102	-0.062348373
73	0xbd34bb27	-0.044123795
74	0xbdbda917	-0.09260767
75	0xbd675b43	-0.05648352
76	0xbd880a72	-0.06642617
77	0x3c7d453e	0.015458403
78	0xbd3679d8	-0.044549793
79	0xbd35d548	-0.044392854
80	0xbdc18c49	-0.094505854
81	0xbddd4ee6	-0.10806064
82	0xbd8b4c75	-0.068016924
83	0x3baa183b	0.005190877
84	0xbd072c8d	-0.03300147
85	0xbd3128f2	-0.04325194
86	0xbd0b7e23	-0.03405584
87	0xbdce65be	-0.100779995
88	0xbd91b7a3	-0.07115104
89	0xbbcc509b	-0.006235195
90	0xbd8f03cf	-0.06983148
91	0xbddf38a9	-0.10899479
92	0xbde3a76c	-0.111159176
93	0xbe1ed3f0	-0.15510535
94	0xbe08c135	-0.13354953
95	0xbda3d8c8	-0.08000332
96	0xbdefe27e	-0.11713122
97	0xbe362fd7	-0.17791687
98	0xbd51023f	-0.051027533
99	0xbe523792	-0.20529011
100	0x3dee5348	0.116369784
101	0xbeb5a051	-0.35473874
102	0x3e55bbb3	0.20872383
103	0xbc2aa19c	-0.010414507
104	0x3dcc7b5f	0.09984469
105	0x3afff9bb	0.0019529382
106	0xbc9ae780	-0.018909216
107	0x3c2f2852	0.010690765
108	0xbdad0229	-0.08447678
109	0x3c709a8f	0.014685287
110	0xbe0009f8	-0.12503803
111	0xbdccd261	-0.10001064
112	0xbdbd7c52	-0.09252228
113	0xbdf72a76	-0.12068646
114	0xbdf74046	-0.12072806
115	0xbd94bc6e	-0.072625026
116	0xbc572b59	-0.0131328935
117	0xbdd156c7	-0.102216296
118	0xbd6d10b1	-0.057877246
119	0xbd81bfe3	-0.063354276
120	0xbe0a3279	-0.13495816
121	0xbcdf1c02	-0.027235035
122	0xbc876f46	-0.016532551
123	0xbdabe4aa	-0.083932236
124	0xbdd2647f	-0.10273074
125	0xbe128dc4	-0.14311892
126	0xbe0874b1	-0.13325764
127	0xbda697f1	-0.08134449
128	0xbdc4ecd8	-0.09615487
129	0xbe2a1859	-0.1661085
130	0xbe6053d0	-0.21906972
131	0xbe5237a1	-0.20529033
132	0xbe0404ee	-0.12892506
133	0xbdcd0131	-0.10009993
134	0xbe29983c	-0.16561979
135	0x3d9c671f	0.07636856
136	0xbecb4a74	-0.3970524
137	0x3e57ec30	0.21086192
138	0xbda1450c	-0.07874498
139	0x3caa5ee8	0.020797208
140	0xbd8b19f5	-0.0679206
141	0x3bdfc54e	0.0068289405
142	0xbc0ce03e	-0.008598385
143	0xbc545a9f	-0.012961059
144	0xbdad5a16	-0.08464448
145	0xbd3c8cb1	-0.04603261
146	0xbce75a01	-0.02824116
147	0xbdbf619d	-0.0934479
148	0xbd849e00	-0.064754486
149	0xbcaa5518	-0.020792529
150	0xbdbc5e8c	-0.09197721
151	0xbd857a8f	-0.06517517
152	0xbd935fa7	-0.071959786
153	0xbda1f5e7	-0.0790823
154	0xbdbdb23f	-0.09262513
155	0xbd448e34	-0.047987178
156	0xbd79713e	-0.06089901
157	0xbdcf275c	-0.10114929
158	0xbd8df9dc	-0.069324225
159	0xbd9c005e	-0.076172575
160	0xbc5bc203	-0.013412955
161	0xbdda40df	-0.106569044
162	0xbe451d10	-0.19249368
163	0xbdbf9ddf	-0.093562834
164	0xbe40155a	-0.18758145
165	0xbde95db6	-0.11394827
166	0xbdf2a245	-0.11847357
167	0xbe4ab14a	-0.19794193
168	0xbe2d0932	-0.16898039
169	0xbe4a56d5	-0.19759686
170	0x3e0682f0	0.13135886
171	0xbecb3596	-0.3968932
172	0x3e5e994c	0.21738166
173	0xbdd83d7f	-0.105586044
174	0xbc37586c	-0.011190515
175	0x3da58093	0.08081164
176	0x3ceb6aed	0.02873751
177	0x3d70b93d	0.058770407
178	0x3b461ac6	0.003022836
179	0x3b22cb2c	0.0024840338
180	0xbcb2fea4	-0.021849938
181	0x3dc5f6c3	0.09666207
182	0x3d1d7e5a	0.038450576
183	0x3d8c8989	0.0686217
184	0x3d8773d9	0.06613893
185	0x3dc83581	0.0977583
186	0x3dd474e9	0.10373861
187	0x3d629de3	0.055326354
188	0x3dc63cb5	0.09679548
189	0x3dc4eac5	0.09615091
190	0x3caf5fda	0.02140801
191	0x3cb9e8f3	0.022694087
192	0xbc9e7b88	-0.019346014
193	0x3c8ececa	0.01743259
194	0x3dba30bf	0.09091329
195	0x3d842cff	0.06453895
196	0x3e33fdee	0.17577335
197	0x3e2de565	0.16982038
198	0x3d8750d2	0.06607212
199	0x3df445e1	0.11927391
200	0x3e12f01d	0.14349408
201	0x3e549ced	0.20762987
202	0x3e1be810	0.15225244
203	0x3d8b90f5	0.06814758
204	0x3e36eafa	0.17863074
205	0xbe016d9c	-0.12639469
206	0x3e988812	0.29791313
207	0xbe215027	-0.15753232
208	0x3d98ee5d	0.07467339
209	0x3cc07a79	0.0234959
210	0xbd42f162	-0.04759348
211	0xbd5cf50e	-0.05394464
212	0xbd62b63e	-0.05534958
213	0xbd163461	-0.036671046
214	0xbd0a652e	-0.0337879
215	0xbc735e4e	-0.014854027
216	0xbdb30539	-0.087412305
217	0xbd9dd510	-0.07706654
218	0xbc19a463	-0.009377572
219	0xbcb38dc1	-0.02191818
220	0xbc67d60e	-0.014150156
221	0xbdccfbcd	-0.10008965
222	0xbdabf395	-0.08396069
223	0x3c98f734	0.018672563
224	0xbd0f2d7f	-0.034955498
225	0x3c1f679d	0.009729293
226	0xbda6049f	-0.0810635
227	0x3c5cd836	0.013479283
228	0xbdd6d895	-0.104905285
229	0xbd87dc43	-0.066338085
230	0xbe00a9c6	-0.12564763
231	0xbe1adb2c	-0.1512267
232	0xbd8d439f	-0.06897663
233	0xbd99d8f1	-0.075120814
234	0xbd815653	-0.06315293
235	0xbe02d75d	-0.12777467
236	0xbdfa9541	-0.12235499
237	0xbd28584c	-0.04109983
238	0xbd87a79c	-0.06623766
239	0xbe59e3b8	-0.21278274
240	0x3de3609a	0.1110241
241	0xbe7456e4	-0.23861271
242	0x3e5e92b5	0.21735652
243	0xbd0cf48b	-0.0344129
244	0x3c572689	0.013131746
245	0xbd2dc25d	-0.042421687
246	0xbda14f66	-0.07876472
247	0x3c26bc1e	0.010176687
248	0xbde681cf	-0.11255228
249	0xbc7458b7	-0.014913729
250	0xbd51484d	-0.051094342
251	0xbdb0f5fc	-0.08640668
252	0xbdd5503f	-0.10415696
253	0xbb83b327	-0.0040191594
254	0xbd3b7f0c	-0.04577546
255	0xbd8ad93b	-0.06779715

classifier_conv.bias f4 [32]
0	0x3af2fd86	0.0018538691
1	0x3b063f98	0.0020484682
2	0xbb98e320	-0.0046657473
3	0x3ba15f0b	0.00492466
4	0x3ba3aae3	0.0049947365
5	0xbbb7a6b6	-0.0056045903
6	0x39e9ad54	0.00044570363
7	0xbaddec21	-0.0016931334
8	0xbaddeaff	-0.0016930996
9	0x3b754fb8	0.003743155
10	0x3b0e4c96	0.002171313
11	0x39736f2e	0.00023215704
12	0xba24785e	-0.00062740396
13	0x3a3376bc	0.0006846001
14	0x3bb1b67b	0.0054233647
15	0xbb204e68	-0.0024460796
16	0xb9fee335	-0.00048615938
17	0x39bf5f5e	0.00036501413
18	0xbc0adce4	-0.008475516
19	0x392c0f74	0.00016408955
20	0x3ad5e6fa	0.0016319447
21	0xbb1ab6aa	-0.0023607411
22	0x3b979514	0.004625926
23	0x3b5d0ed1	0.0033730755
24	0xba1c23a2	-0.00059562374
25	0xba070a3e	-0.00051513675
26	0xbb539139	-0.0032282604
27	0xb8ba896e	-8.8947694e-05
28	0x3b490d50	0.00306781
29	0xbb08610f	-0.0020809805
30	0x3a4b4bf0	0.0007755151
31	0xbbca69d4	-0.0061771665

fc.weight f4 [2, 32]
0	0x3dbbdd3a	0.09173055
1	0xbdad7664	-0.08469847
2	0x3dbc932b	0.092077576
3	0x3da779b7	0.08177512
4	0x3db9c634	0.09071007
5	0xbdb6f33a	-0.089331105
6	0x3dacba5d	0.084339835
7	0x3db5ad8f	0.08870994
8	0x3daeb997	0.08531492
9	0x3dc086ea	0.09400733
10	0x3db4699f	0.08809208
11	0xbda81a08	-0.0820809
12	0xbda1cfbf	-0.079009525
13	0xbdac9574	-0.084269434
14	0xbdad6339	-0.08466191
15	0xbdbf5bb3	-0.09343662
16	0x3dce870a	0.100843504
17	0x3dc409a6	0.09572153
18	0x3db0d52a	0.08634408
19	0x3dc30aeb	0.09523567
20	0xbd919b06	-0.071096465
21	0xbdb25361	-0.087073095
22	0xbda3821d	-0.079838015
23	0xbdbf9c4d	-0.09355984
24	0x3daceec8	0.084439814
25	0x3dbaba5d	0.09117577
26	0x3db5e1fc	0.08880994
27	0x3dafd3a8	0.08585292
28	0xbdbc8f7a	-0.092070535
29	0x3daedb25	0.08537892
30	0x3db5ebbd	0.08882854
31	0xbdcf0bab	-0.10109647
32	0xbdc7c192	-0.097537175
33	0x3dbce19f	0.09222721
34	0xbdcf6f96	-0.10128705
35	0xbdbfb442	-0.09360553
36	0xbdb2f00f	-0.08737194
37	0x3dadb8cf	0.08482515
38	0xbdb502be	-0.08838414
39	0xbdb47048	-0.088104784
40	0xbdbb502f	-0.09146153
41	0xbdbc1c90	-0.09185135
42	0xbdb8151c	-0.08988401
43	0x3da0bef5	0.07848922
44	0x3da9d05b	0.08291694
45	0x3d99a137	0.075014524
46	0x3da665f2	0.08124913
47	0x3db1c955	0.08680979
48	0xbdcc2205	-0.09967426
49	0xbdb90813	-0.09034743
50	0xbdc07f08	-0.09399229
51	0xbdb3150d	-0.087442495
52	0x3da469b0	0.08027971
53	0x3db1c6ee	0.08680521
54	0x3daaa51a	0.08332272
55	0x3dc943d1	0.09827388
56	0xbdb18b46	-0.086691424
57	0xbdaef2f2	-0.08542432
58	0xbdb7feb8	-0.089841306
59	0xbda93df6	-0.08263771
60	0x3da3574c	0.07975635
61	0xbda803be	-0.08203839
62	0xbdbf5f0f	-0.09344303
63	0x3db939f5	0.090442576

fc.bias f4 [2]
0	0x3bbbf402	0.005735875
1	0xbbbbf322	-0.005735771
