submit_entry/checkpoints/Combined_edgcn_12s_slice/ECG/2/best.pth (torch_old, 75847 bytes, 26 tensors)

conv_time.weight f4 [15, 1, 10]
0	0xbb9bc197	-0.0047533023
1	0xbe1e96cb	-0.1548721
2	0xbd1e453b	-0.038640242
3	0xbd16c4af	-0.036808666
4	0xbcc4e493	-0.024034774
5	0xbcea5a7d	-0.028607601
6	0xbe236b96	-0.1595901
7	0x3e45c51e	0.19313475
8	0x3c8a7402	0.01690102
9	0x3e449ec1	0.19201185
10	0x3e33e31e	0.17567107
11	0x3dfd0975	0.123553194
12	0x3de71721	0.11283708
13	0x3df7c0bb	0.12097307
14	0xbe3be9e8	-0.18350947
15	0xbe003123	-0.12518744
16	0x3e1fbd2e	0.1559951
17	0xbd8ad32b	-0.06778558
18	0xbe41a028	-0.18908751
19	0xbe384fab	-0.17999141
20	0x3e3af460	0.18257284
21	0xbca52251	-0.020157965
22	0x3d3f93ff	0.046772
23	0x3df07d5b	0.1174266
24	0xbda8ead9	-0.08247919
25	0xbe4a05f1	-0.19728829
26	0x3d33c64a	0.043890275
27	0xbdea432c	-0.11438593
28	0xbd1a5e40	-0.03768754
29	0x3dcffc01	0.10155488
30	0x3da35468	0.079750836
31	0x3d7ae40f	0.06125265
32	0xbdda2b2f	-0.10652768
33	0xbd6f4c24	-0.058422223
34	0x3e0486e1	0.12942077
35	0xbd27e28a	-0.04098753
36	0x3cd71da8	0.026259258
37	0xbd0f495f	-0.03498208
38	0xbd249982	-0.04018546
39	0xbdb9dbf9	-0.090751596
40	0x3e1fea96	0.15616831
41	0xbd83cc57	-0.06435459
42	0xbd47a60e	-0.048742346
43	0xbd809837	-0.06279033
44	0xbddb356e	-0.1070355
45	0x3e34c6e3	0.17653994
46	0xbe38ba9b	-0.18039934
47	0xbe1aa472	-0.15101793
48	0x3dd43743	0.10362103
49	0x3e228d80	0.1587429
50	0x3df68bc7	0.12038379
51	0xbdcf31ad	-0.10116897
52	0x3d11033b	0.03540347
53	0x3e3ec9a7	0.18631612
54	0x3db9d789	0.09074313
55	0xbe1088a7	-0.14114629
56	0xbdd4b907	-0.10386854
57	0x3e55b8d2	0.20871285
58	0x3d7c88ab	0.061653774
59	0x3e426991	0.18985583
60	0xbe39f618	-0.18160284
61	0x3d322ee7	0.04350176
62	0x3e30e024	0.17273003
63	0xbe152141	-0.14563467
64	0x3c6d422c	0.014481109
65	0xbe218a4a	-0.1577541
66	0x3dc12c54	0.09432283
67	0xbb950948	-0.0045482256
68	0xbdcd33a8	-0.10019618
69	0x3d0ac96e	0.033883505
70	0x3bf098ea	0.0073424475
71	0xbe05d61c	-0.13069957
72	0xbbb02e02	-0.0053765783
73	0x3e28a41b	0.16468851
74	0xbcf874f6	-0.030329209
75	0xbc5d7b6a	-0.013518194
76	0xbe3157bf	-0.17318629
77	0xbddab1b4	-0.106784254
78	0xbdd1fe73	-0.102536105
79	0xbe31527f	-0.17316626
80	0x3d94af39	0.072599836
81	0xbd05bcb1	-0.032650653
82	0xbbf25619	-0.0073955175
83	0x3d9d8510	0.07691395
84	0x3e4bb8fb	0.19894783
85	0x3e16e3ae	0.1473529
86	0x3e60e638	0.21962821
87	0x3dbf7162	0.09347798
88	0x3d5dc78f	0.054145392
89	0x3d9e57a3	0.07731559
90	0x3dc83c51	0.097771294
91	0xbdb3b0e3	-0.08773973
92	0x3e36f5a6	0.17867145
93	0xbda008b3	-0.07814159
94	0x3e295934	0.16537935
95	0xbcdbd3c1	-0.02683437
96	0x3dfd7260	0.12375331
97	0xbe2319c9	-0.15927805
98	0xbd3392f2	-0.04384131
99	0xbe24fb5e	-0.16111514
100	0x3d948d35	0.072534956
101	0x3cbd4c0d	0.023107553
102	0x3e3b39ab	0.18283717
103	0x3cd95775	0.02653096
104	0xbdd00477	-0.101571016
105	0x3dd79eab	0.105283104
106	0x3e0119cc	0.12607497
107	0xbde63e53	-0.11242356
108	0x3da2caa6	0.07948808
109	0x3de47fe7	0.11157208
110	0xbe160e9b	-0.14654009
111	0x3e1d2f8d	0.1535017
112	0xbc666728	-0.01406268
113	0xbdcc75d2	-0.0998341
114	0x3d0b3f98	0.033996195
115	0x3e06a051	0.13147093
116	0x3d80dcfa	0.06292148
117	0xbdfe16aa	-0.124066666
118	0xbd64fe24	-0.05590643
119	0xba43d9c8	-0.00074711116
120	0x3e13e250	0.144418
121	0xbdb27950	-0.08714545
122	0x3e334678	0.1750735
123	0xbc7f55ef	-0.015584453
124	0x3db7eae9	0.089803524
125	0xbd360bbc	-0.044444785
126	0xbe2334ff	-0.15938185
127	0xbdcfb1b9	-0.1014132
128	0x3caecefe	0.021338936
129	0x3d410be9	0.0471305
130	0xbd65d11e	-0.056107633
131	0xb9f97868	-0.0004758269
132	0xbda0eaff	-0.07857322
133	0xbd97fe5a	-0.074215606
134	0x3b0a9151	0.0021143744
135	0xbd1b1499	-0.03786144
136	0x3e062779	0.13100995
137	0xbd3a60f6	-0.045502625
138	0x3e326238	0.1742028
139	0x3d0211da	0.031755306
140	0xbe3f3233	-0.18671493
141	0x3d21e031	0.039520446
142	0xbd326791	-0.0435558
143	0x3df99880	0.1218729
144	0xbd9b1494	-0.07572284
145	0xbe292985	-0.16519745
146	0x3e00ca81	0.12577249
147	0x3cddb2a3	0.02706272
148	0xbd9563ad	-0.07294402
149	0x3da69fad	0.081359245

conv_time.bias f4 [15]
0	0x3b6bf5f2	0.003600475
1	0xbc3aab02	-0.0113933105
2	0x3bf79c02	0.0075564394
3	0x3c6224c6	0.013802713
4	0xbc953b16	-0.018216651
5	0xbc96dc1e	-0.018415507
6	0xbc0df290	-0.008663788
7	0x3b5f710b	0.0034094478
8	0x3cac8e91	0.021064075
9	0xbcce3b1f	-0.025174676
10	0x3c813fcb	0.01577749
11	0xbcca17eb	-0.024669608
12	0x3be8b912	0.00710214
13	0x3bfbf9c8	0.0076896884
14	0x3aaa8c9a	0.0013011873

bnorm.weight f4 [15]
0	0x3f725c1e	0.9467181
1	0x3f82a761	1.020733
2	0x3f83b30b	1.0289015
3	0x3f787dd8	0.9706702
4	0x3f82b1f6	1.0210559
5	0x3f7286e1	0.9473706
6	0x3f70b69e	0.9402865
7	0x3f7fb5ad	0.9988659
8	0x3f7ecf1a	0.9953476
9	0x3f84de7a	1.0380394
10	0x3f758f86	0.95922124
11	0x3f7a962f	0.9788541
12	0x3f7986e0	0.9747143
13	0x3f8aeecb	1.0854124
14	0x3f80c1c0	1.0059128

bnorm.bias f4 [15]
0	0x3d4eaf93	0.05046041
1	0x3d936e41	0.07198764
2	0x3da4a219	0.0803873
3	0xbd67bbc0	-0.056575537
4	0x3da12f43	0.078703426
5	0xbd9dd5e6	-0.077068135
6	0x3d626043	0.055267584
7	0x3d24651c	0.040135488
8	0xbc897a04	-0.016781814
9	0x3c3c29e5	0.011484598
10	0x3d8fe905	0.07026867
11	0x3cf67888	0.03008677
12	0xbd02bcce	-0.03191834
13	0x3e28e4e9	0.16493572
14	0x3cf40442	0.029787187

bnorm.running_mean f4 [15]
0	0xbc166462	-0.009179207
1	0xbccaa1af	-0.0247353
2	0x3c9678bf	0.018368123
3	0xbbc7fdd8	-0.0061032586
4	0xbcc21fb8	-0.023696765
5	0x3df99c7b	0.121880494
6	0xbd8b7398	-0.06809157
7	0xbe0fd396	-0.14045557
8	0x3e8110da	0.2520817
9	0xbcbc9365	-0.023019502
10	0x3e179123	0.14801459
11	0xbd22c028	-0.039734036
12	0x3ccd8686	0.02508856
13	0x3c9c255f	0.019060789
14	0xbd177c39	-0.036983702

bnorm.running_var f4 [15]
0	0x3d38a872	0.045082517
1	0x3dcf9086	0.101349875
2	0x3cc35573	0.023844456
3	0x3c7e70d7	0.015529833
4	0x3c8afb49	0.016965525
5	0x3eac8763	0.33697042
6	0x3d7c077e	0.061530583
7	0x3ebf0ec6	0.3731596
8	0x3f70ca11	0.9405833
9	0x3d05ba24	0.03264822
10	0x3e94a2ac	0.2903036
11	0x3c072104	0.008247618
12	0x3cd3c9c1	0.02585304
13	0x3ccb0054	0.02478043
14	0x3d07ec5c	0.033184394

block2.conv_2.weight f4 [15, 15, 10]
0	0xbe063aea	-0.13108411
1	0xbd896332	-0.06708373
2	0xbda8486f	-0.082169406
3	0x3d68e8ca	0.05686263
4	0x3d8a1da3	0.06743934
5	0xbdd1894c	-0.102312654
6	0xbd5938fd	-0.053032864
7	0xbd850f44	-0.06497052
8	0xbd97a05d	-0.07403634
9	0x3dc20f17	0.094755344
10	0x3d829d4c	0.06377658
11	0xbc783264	-0.015148733
12	0xbd7c99a1	-0.06166995
13	0x3e039fcd	0.12853928
14	0x3d795250	0.060869515
15	0x3e01af9c	0.12664646
16	0xbe065196	-0.1311706
17	0xbc88ff82	-0.016723398
18	0x3dd87498	0.105691135
19	0xbde61dec	-0.11236176
20	0x3ddd4c8a	0.10805614
21	0xbd0e7a62	-0.034784682
22	0x3cc5bb9b	0.024137309
23	0xbdee7d85	-0.11645035
24	0xbd9c77f1	-0.076400645
25	0xbdb4bb35	-0.088247694
26	0xbded62e4	-0.115911275
27	0x3d8ac139	0.067751355
28	0xbd89ca84	-0.0672808
29	0x3d6598f1	0.05605406
30	0xbdec3cb4	-0.11535016
31	0x3dafb1cc	0.08578834
32	0x3d9aabd2	0.075523034
33	0xbdfc184d	-0.123093225
34	0xbdaf982a	-0.08573945
35	0xbd853702	-0.065046325
36	0xbe05ca0a	-0.13065353
37	0x3cc4d84f	0.024028925
38	0x3d8df1db	0.06930896
39	0x3c73fccf	0.014891817
40	0x3c212354	0.009835083
41	0xbd9674f0	-0.07346523
42	0xbd0c3b85	-0.03423645
43	0x3c91ed0a	0.017813224
44	0x3d546f73	0.0518641
45	0x3d67f45a	0.056629516
46	0x3e4da8c9	0.20083918
47	0x3dd55da4	0.10418251
48	0xbd0d0b17	-0.034434404
49	0xbde50a37	-0.11183589
50	0xbdf283d1	-0.11841548
51	0x3dc62188	0.09674364
52	0x3d8640f0	0.065553546
53	0xbd8df8fe	-0.06932257
54	0xbd95154d	-0.072794534
55	0x3dd37124	0.10324314
56	0x3d035601	0.03206444
57	0xbdeb56b0	-0.11491144
58	0xbbcd74cf	-0.006270028
59	0xbda485f0	-0.08033359
60	0xbd04db49	-0.03243569
61	0xbd867f19	-0.06567211
62	0xbdd96e5e	-0.10616754
63	0xbd5efe55	-0.05444177
64	0xbccd1c42	-0.025037888
65	0x3cf5ac5c	0.029989414
66	0x3c2aa7c0	0.010415971
67	0x3d38024a	0.044924058
68	0x3be77316	0.00706328
69	0xbc86bbe8	-0.016447023
70	0x3d818a7e	0.063252434
71	0xbd6766c1	-0.056494478
72	0x3dffdb2f	0.12492978
73	0xbc396580	-0.011315703
74	0x3cdf671f	0.027270852
75	0x3cb3ff6f	0.021972386
76	0xbc176d1c	-0.009242322
77	0xbd6d9dac	-0.058011696
78	0xbda666b1	-0.081250556
79	0xbe14478c	-0.14480418
80	0x3c3b0b42	0.011416258
81	0xbd25a3eb	-0.040439527
82	0xbdd679df	-0.10472464
83	0xbdfe3a98	-0.124135196
84	0xbda1ded4	-0.07903829
85	0x3b1b057b	0.002365439
86	0x3e0184c4	0.12648302
87	0xbd240850	-0.04004699
88	0x3df8a54e	0.12140904
89	0xbd0986eb	-0.033575933
90	0x3db83232	0.08993949
91	0x3d6add2d	0.057339836
92	0xbde94d8d	-0.11391745
93	0xbb039b1c	-0.0020081466
94	0xbd98cb6c	-0.07460675
95	0xbdf1433b	-0.11780401
96	0x3d527c81	0.051388267
97	0xbccb71b4	-0.024834491
98	0x3d20dc50	0.039272606
99	0xbe0c94b6	-0.13728604
100	0xbd862268	-0.06549531
101	0x3cc3f5c9	0.02392091
102	0xbdc7e3b5	-0.097602285
103	0x3c9bf01b	0.01903539
104	0x3db588c3	0.08863976
105	0x3d48f951	0.04906589
106	0x3d663832	0.056205936
107	0xbdf2ae95	-0.11849705
108	0x3dcea766	0.100905225
109	0x3c791e10	0.015204921
110	0x3c273466	0.010205364
111	0xbe15df2c	-0.14635915
112	0xbca8042e	-0.020509806
113	0x3ccea4cd	0.025225068
114	0x3c40eaa8	0.011774696
115	0x3e216779	0.15762128
116	0x3daa2f2e	0.0830978
117	0xbc444625	-0.011979614
118	0x3e0c76b8	0.13717163
119	0xbdb0f5dd	-0.08640645
120	0xbd6154ac	-0.05501239
121	0x3ca738ff	0.02041292
122	0x3d1b6c40	0.037945032
123	0xbc7a6602	-0.01528311
124	0x3e169f17	0.14709125
125	0x3db32d0e	0.08748828
126	0x3c182454	0.009286005
127	0xbac37c77	-0.0014914413
128	0x3df417a2	0.1191857
129	0xbd2f89ec	-0.042856142
130	0x3e095f10	0.1341517
131	0x3daece66	0.08535461
132	0xbe415e1e	-0.18883559
133	0xbe1cecea	-0.1532475
134	0xbd3e7204	-0.046495453
135	0x3dc662ca	0.09686811
136	0xbddce6af	-0.10786187
137	0xbe4a2b54	-0.19743091
138	0x3df00998	0.1172058
139	0xbe02c10d	-0.12768956
140	0xbdbf94a0	-0.0935452
141	0xbccb360b	-0.024806043
142	0xbda6202b	-0.08111604
143	0x3dd94edc	0.10610744
144	0x3dba1d96	0.09087674
145	0x3c07b539	0.008282953
146	0x3da216c2	0.07914497
147	0x3c9db24c	0.019250058
148	0x3cca581d	0.024700219
149	0x3d7da64f	0.061926182
150	0x3bbfab2a	0.005849262
151	0xbd8944fb	-0.0670261
152	0x3dc69a93	0.096974514
153	0x3d1458a3	0.036217343
154	0xbde28d04	-0.11062053
155	0xbd0f6534	-0.035008624
156	0x3dc1797b	0.09446999
157	0xbdb105f9	-0.08643717
158	0xbdc57f99	-0.09643478
159	0x3dd957b7	0.106124334
160	0x3da467e0	0.08027625
161	0x3d310928	0.043221623
162	0xbd9cf24b	-0.07663401
163	0x3e0560a5	0.13025148
164	0xbd1b8ed0	-0.037977993
165	0xbc70f0f8	-0.014705889
166	0xbe0ba689	-0.13637747
167	0xbe1efea5	-0.15526827
168	0xbe57c551	-0.21071364
169	0x3cfcda5d	0.030865842
170	0x3e16691d	0.14688535
171	0xbe0e4e38	-0.13897026
172	0xbbcd0891	-0.0062571247
173	0xbe0fded2	-0.14049843
174	0xbcd3acd0	-0.02583924
175	0xbd2e70e0	-0.042588115
176	0xbe378a1c	-0.17923778
177	0xbd48c4ed	-0.049015928
178	0xbe1545ca	-0.14577404
179	0xbdf6c835	-0.12049905
180	0x3d6d3377	0.05791041
181	0x3da399e9	0.079883404
182	0x3ce27bce	0.027646925
183	0xbdc0de63	-0.09417417
184	0x3de82609	0.1133538
185	0xbdb98c6a	-0.09059985
186	0xbdbd4295	-0.09241215
187	0x3cede38d	0.029039169
188	0xbdaa5010	-0.08316052
189	0x3bd1af7c	0.006399093
190	0x3c43e505	0.011956458
191	0x3c26c800	0.01017952
192	0xbd67906a	-0.05653421
193	0x3e07bb88	0.13255131
194	0xbe0e0359	-0.13868465
195	0xbdf1e61e	-0.118114695
196	0xbd37fcbe	-0.044918768
197	0x3dad9ee6	0.08477573
198	0xbd89d2b1	-0.06729639
199	0x3cb8f8fe	0.022579666
200	0x3dad7dba	0.08471246
201	0x3d3b2be7	0.045696165
202	0xbdba2f49	-0.0909105
203	0x3dfcb40f	0.12339031
204	0xbdbaf291	-0.09128297
205	0x3db12b7a	0.086508706
206	0x3bbf2b09	0.0058339876
207	0x3b1ed3b9	0.0024235083
208	0x3d9381e6	0.072025105
209	0xbc7b8ec5	-0.015353863
210	0xbaadcff1	-0.0013260824
211	0x3ddf9a3e	0.10918091
212	0xbd96f0c3	-0.073701404
213	0xbe12019b	-0.14258425
214	0x3da5e821	0.08100916
215	0xbe057fc4	-0.1303702
216	0x3d2e1ed3	0.042509865
217	0x3e08edde	0.13371989
218	0x3a874617	0.0010320571
219	0xbd049693	-0.03237016
220	0x3e1743c9	0.14771952
221	0x3bc10d6a	0.0058914917
222	0x3dda312c	0.1065391
223	0x3df2b4ba	0.11850877
224	0x3cd24d16	0.025671523
225	0xbdcf273c	-0.10114905
226	0x3d5a0261	0.053224925
227	0x3e121c5c	0.1426863
228	0xbdc47ca0	-0.09594083
229	0xbd92f83e	-0.07176255
230	0x3c3e93b2	0.011631893
231	0x3de6224b	0.112370096
232	0xbd847986	-0.06468491
233	0x3dbda1e7	0.09259396
234	0x3da19e22	0.078914896
235	0xbe354c46	-0.17704877
236	0xbdf67d57	-0.120356254
237	0x3dbfd33f	0.09366464
238	0xbd8710b2	-0.06594981
239	0xbca167a8	-0.019702747
240	0x3d9c2b1b	0.07625409
241	0x3dd30540	0.10303736
242	0x3dee8e21	0.11648203
243	0xbdb6d51c	-0.08927366
244	0xbc6985d9	-0.014253103
245	0xbe193541	-0.14961721
246	0xbb4afad5	-0.0030972261
247	0xbd8bab27	-0.06819754
248	0xbe1ba400	-0.1519928
249	0xbe013778	-0.12618816
250	0x3cb02f5c	0.021506958
251	0xbdc10461	-0.09424663
252	0xbdee36ed	-0.1163157
253	0xbccfe7d0	-0.025379092
254	0x3cb064f2	0.02153251
255	0xbe1db952	-0.15402725

block2.bnorm_2.weight f4 [15]
0	0x3f8a46a2	1.0802805
1	0x3f81a1f9	1.0127555
2	0x3f83de11	1.0302144
3	0x3f7bd25e	0.9836787
4	0x3f7053fc	0.9387815
5	0x3f822082	1.0166171
6	0x3f7b1af9	0.9808803
7	0x3f897c3a	1.0741036
8	0x3f71b106	0.9441074
9	0x3f7f50a1	0.99732405
10	0x3f771706	0.96519506
11	0x3f7d0751	0.9883929
12	0x3f8101c0	1.0078659
13	0x3f7155b9	0.9427143
14	0x3f87989a	1.0593445

block2.bnorm_2.bias f4 [15]
0	0x3d36d01d	0.044632066
1	0xbc4f1980	-0.012640357
2	0xbcf18db7	-0.02948652
3	0xbd59f5ec	-0.053213045
4	0xbd4b879c	-0.049689874
5	0xbd3485a9	-0.04407278
6	0xbd30a687	-0.043127563
7	0xbd0d1b09	-0.03444961
8	0xbcea4480	-0.028597116
9	0x3cc27db2	0.023741577
10	0xbd01d1a0	-0.031694055
11	0x3d3b7cf0	0.045773447
12	0xbc4a5a55	-0.012350638
13	0xbc8cfc67	-0.017210199
14	0x3d1eaf9f	0.038741704

block2.bnorm_2.running_mean f4 [15]
0	0xbe7bfdd5	-0.24608548
1	0xbec4c980	-0.38434982
2	0xbed18f11	-0.40929464
3	0x3d1e8ef1	0.03871054
4	0x3cf82482	0.030290846
5	0xbea2f5c3	-0.31828126
6	0xbea9eb12	-0.33187157
7	0xbf2ddd0c	-0.67915416
8	0x3ee76673	0.4519535
9	0x3d3ae107	0.04562476
10	0x3e22d83f	0.15902804
11	0xbe059072	-0.13043383
12	0xbec043b3	-0.3755165
13	0x3db9d20a	0.09073265
14	0xbea53405	-0.3226625

block2.bnorm_2.running_var f4 [15]
0	0x3eb997b6	0.3624856
1	0x3fd08b42	1.6292498
2	0x3f90a257	1.1299542
3	0x3f85f152	1.046427
4	0x3f9a24c8	1.2042475
5	0x3fa881fe	1.316467
6	0x3f5ae4bb	0.85505265
7	0x40014ac4	2.0201883
8	0x3fbb51f1	1.4634382
9	0x3effc13b	0.4995211
10	0x3fb56354	1.4170938
11	0x3f159ccd	0.58442384
12	0x3f8a1b85	1.0789648
13	0x3fd19e08	1.6376352
14	0x3fafe208	1.3740854

block3.conv_3.weight f4 [30, 15, 10]
0	0x3cbac130	0.022797197
1	0x3d4bb315	0.049731333
2	0xbd92c66d	-0.07166753
3	0xbcd4d7db	-0.025981834
4	0xbdba4546	-0.09095244
5	0xbd4fb8ef	-0.050713476
6	0x3d172c68	0.036907583
7	0xbe1cd8d0	-0.15317082
8	0x3d27dec0	0.040983915
9	0x3cbc624c	0.02299609
10	0x3bfee6d2	0.007778981
11	0xbe0541d3	-0.13013391
12	0xbdc21da1	-0.094783075
13	0x3d5a1c3d	0.053249586
14	0xbd660d0f	-0.056164797
15	0x3d96375b	0.07334777
16	0x3b7c0ed3	0.0038460984
17	0xbe051945	-0.12997921
18	0xba66e174	-0.0008807399
19	0xbcf808ad	-0.030277574
20	0x3d937a57	0.07201069
21	0x3db33af5	0.087514795
22	0x3db2733f	0.08713388
23	0xbd56da63	-0.052454364
24	0x3d0ad05a	0.033890106
25	0x3d239e38	0.03994581
26	0x3b38373c	0.0028109094
27	0xbd84e9bd	-0.064898945
28	0x386bc735	5.6213892e-05
29	0xbdcfd198	-0.10147399
30	0xbb45139d	-0.0030071505
31	0xbc78de2a	-0.015189687
32	0xbdb9bca4	-0.090691835
33	0x3c5a131d	0.013310221
34	0xbd50aa9b	-0.050943952
35	0xbde640bb	-0.11242815
36	0x3d208285	0.039186973
37	0x3d913645	0.07090429
38	0x3e004022	0.12524465
39	0x3d06f16c	0.03294508
40	0xbdf749ea	-0.12074645
41	0xbc8ddbb6	-0.01731668
42	0xbe0c5f06	-0.13708124
43	0xbdd7316c	-0.10507473
44	0xbd4f7328	-0.05064693
45	0x3d0e62c4	0.03476216
46	0x3d57a397	0.052646246
47	0x3d4bd29b	0.049761396
48	0x3d85be7e	0.06530474
49	0x3cedc8a6	0.02902634
50	0xbc25290f	-0.01008059
51	0x3d5b1fff	0.05349731
52	0xbbc1587c	-0.0059004407
53	0xbc814513	-0.015780007
54	0xbcbd4170	-0.023102492
55	0xbc9002a5	-0.017579386
56	0x3ced6e04	0.028983124
57	0xbd9b2fb0	-0.07577455
58	0x3d473215	0.048631746
59	0xbd16de44	-0.036833063
60	0xbdb7634f	-0.089544885
61	0x3d76d88e	0.060265116
62	0x3d91f5f5	0.07126991
63	0x3d696a47	0.05698612
64	0xbd8b5dd0	-0.06805003
65	0x3dc1bfe3	0.094604276
66	0x3e0a4ec3	0.13506608
67	0xbac10ff6	-0.0014729488
68	0xbd8fc905	-0.07020763
69	0xbd8354e6	-0.064126775
70	0x3d9eb502	0.07749368
71	0xbd911a35	-0.07085077
72	0xbd983b8e	-0.07433234
73	0x3c559b98	0.013037585
74	0x3dc3f0d2	0.09567417
75	0x3da0f34d	0.07858906
76	0x3d5bf523	0.053700577
77	0x3dc13c62	0.09435345
78	0xbbaa36a7	-0.0051945033
79	0xbc869435	-0.016428092
80	0x3d592773	0.053016137
81	0xbd0cc782	-0.034369953
82	0xba9a0471	-0.0011750591
83	0xbe26b499	-0.1627983
84	0x3d9cd653	0.076580666
85	0x3d8b58ff	0.06804084
86	0x3d4d4d3f	0.050122496
87	0xbc953841	-0.0182153
88	0x3dcd4f00	0.10024834
89	0x3dc1b8b6	0.09459059
90	0xbe19c0a1	-0.15014888
91	0xbdcfd694	-0.101483494
92	0xbdc2e6c8	-0.09516674
93	0x3d84b48c	0.06479749
94	0xbd63060f	-0.0554257
95	0xbcf4c984	-0.029881246
96	0xbdf4e82d	-0.119583465
97	0xbd7705b6	-0.06030818
98	0xbd8fe715	-0.07026497
99	0x3da18371	0.078863986
100	0xbdc89149	-0.09793336
101	0xbd73363a	-0.059377886
102	0xbc21798c	-0.009855639
103	0xbd107dd3	-0.035276245
104	0xbdf47b49	-0.11937577
105	0xbd538956	-0.051644646
106	0x3d00df9d	0.031463254
107	0xbdb6f97d	-0.08934305
108	0x3d9f447b	0.077767335
109	0xbd56cd83	-0.052442085
110	0xbd89ed39	-0.067347
111	0xbcf356d8	-0.029704496
112	0x3d628421	0.05530179
113	0x3d95cf27	0.07314902
114	0xbb80636a	-0.003918101
115	0xbd469601	-0.0484829
116	0xbd15c1cb	-0.03656177
117	0xbda82cee	-0.08211695
118	0xbceede0a	-0.02915861
119	0x3d10eb2a	0.03538052
120	0xbd6a5f75	-0.05721994
121	0x3e15a517	0.14613758
122	0x3d5b609a	0.053558923
123	0x3c035c31	0.008017586
124	0xbded7a16	-0.11595552
125	0xbddd7d59	-0.10814924
126	0xbd7efc18	-0.062252134
127	0xbcd2b74d	-0.02572217
128	0xbd0f5da1	-0.0350014
129	0x3e02815b	0.12744658
130	0x3cdd5ef2	0.027022813
131	0x3da24bc1	0.07924605
132	0xbd804e5d	-0.062649466
133	0x3d6ae3b9	0.05734608
134	0x3de9b3d5	0.11411253
135	0x3d97b692	0.074078694
136	0x3cdf5718	0.02726321
137	0xbc6fd78e	-0.014638795
138	0x3c8eb39d	0.01741963
139	0x3d415b27	0.04720607
140	0xbd9ca303	-0.076482795
141	0x3cd6e268	0.026231006
142	0xbda5b610	-0.08091366
143	0xbdb0ce12	-0.08633055
144	0x3d0d186b	0.034447115
145	0xbda65210	-0.08121121
146	0xbc93b7b6	-0.018031936
147	0x3de8ca19	0.11366672
148	0xbd3eac47	-0.046551015
149	0xbce7a4b0	-0.028276771
150	0x3da421ea	0.08014281
151	0x3c328cfe	0.010897873
152	0xbd9e2c95	-0.07723347
153	0x3c584672	0.013200389
154	0xbd90853b	-0.07056662
155	0x3ca5ab51	0.020223292
156	0x3d47a91e	0.048745267
157	0xbdc4a01e	-0.096008524
158	0xbe05371e	-0.13009307
159	0xbc667eaa	-0.014068285
160	0x3e2d874b	0.16946141
161	0x3cbcb6bb	0.023036351
162	0xbc37e9fe	-0.011225222
163	0xbd815186	-0.063143775
164	0xbdbdc49b	-0.09266015
165	0x3cbd055e	0.023073848
166	0x3db1d3ef	0.08683001
167	0xbd932c45	-0.07186178
168	0xbe046509	-0.12929167
169	0x3b83a0c5	0.004016968
170	0xbd913704	-0.070905715
171	0x3d460890	0.04834801
172	0xbb85ed95	-0.00408716
173	0x3dad3614	0.0845758
174	0x3de191fe	0.11014174
175	0xbd59f574	-0.053212598
176	0xbd799c88	-0.060940295
177	0xbc0b7d51	-0.0085137645
178	0xbdecc875	-0.11561672
179	0x3d17d523	0.037068497
180	0xbdfca931	-0.12336958
181	0x3d975041	0.07388354
182	0xbde1e31b	-0.11029645
183	0x3d8ca9c5	0.068683185
184	0x3cfc3548	0.030787125
185	0x3d98febe	0.07470463
186	0xbd9d8255	-0.076908745
187	0xbcc3fd63	-0.023924535
188	0xbde508af	-0.11183297
189	0xbcd130d2	-0.025535975
190	0xbdd7d2cb	-0.105382524
191	0xbcb93c53	-0.022611773
192	0xbd587853	-0.052849125
193	0x3d306095	0.043060858
194	0x3c8d69cc	0.017262362
195	0xbd4d6d2b	-0.05015294
196	0xbdad370b	-0.08457764
197	0x3d5fd17f	0.05464315
198	0xbdc2710f	-0.094942205
199	0x3c65802f	0.014007612
200	0x3d26cb59	0.04072127
201	0x3cf58460	0.029970348
202	0x3ccb0ae6	0.02478547
203	0xbc21daad	-0.0098787965
204	0xbdbb6212	-0.09149565
205	0x3dc02997	0.09382933
206	0xbd47ff7c	-0.048827633
207	0x3caacfd5	0.020851055
208	0xbd965687	-0.073407225
209	0x3d829d96	0.063777134
210	0xbcedbeac	-0.029021583
211	0x3d16058a	0.036626376
212	0x3e0c2df9	0.13689412
213	0xbc1cd83d	-0.00957304
214	0x3cffb570	0.031214446
215	0x3d25fc27	0.040523674
216	0xbd8bd1af	-0.06827103
217	0xbd8b7763	-0.068098806
218	0xbe25fc55	-0.16209538
219	0x3d93dc98	0.07219809
220	0xbe209a83	-0.15683942
221	0xbce2d1b6	-0.027687889
222	0x3baa4080	0.0051956773
223	0x3e27fcad	0.16404982
224	0xbd79f07d	-0.061020363
225	0xbda06d22	-0.078333154
226	0x3d297a8c	0.041376635
227	0xbda7c523	-0.08191898
228	0x3d88171b	0.06645032
229	0x3de1c56e	0.11023985
230	0xbdac8950	-0.08424628
231	0x3da2efa1	0.07955862
232	0x3d1a9a51	0.037744824
233	0xbdcd4241	-0.100224026
234	0x3d8ea4dc	0.06965038
235	0xbd0e600b	-0.034759562
236	0x3da7d93e	0.081957325
237	0x3d992855	0.07478396
238	0xbdf9391d	-0.121690966
239	0x3d973256	0.07382648
240	0x3df9da65	0.121998586
241	0xbc56a483	-0.013100746
242	0x3bbbdc87	0.005733076
243	0x3d020da2	0.031751283
244	0xbda2a97c	-0.07942483
245	0xbc43cbed	-0.011950475
246	0x3e025356	0.12727103
247	0xb99d0f66	-0.00029956846
248	0xbe18e15f	-0.14929722
249	0xbe05f21e	-0.13080642
250	0xbe00d17f	-0.12579916
251	0xbe118794	-0.14211875
252	0x3c333764	0.010938499
253	0x3c521de3	0.012824508
254	0xbdbbc017	-0.091674976
255	0xbd48e43f	-0.049045797

block3.bnorm_3.weight f4 [30]
0	0x3f8ef3c5	1.1168143
1	0x3f8ae185	1.0850073
2	0x3f8589b9	1.0432655
3	0x3f8e6afd	1.11264
4	0x3f71577c	0.94274116
5	0x3f87cb63	1.0608944
6	0x3f8335f6	1.0250843
7	0x3f78ba05	0.97158843
8	0x3f845cc7	1.0340813
9	0x3f8430d8	1.0327406
10	0x3f860cb9	1.0472633
11	0x3f729274	0.9475472
12	0x3f824df6	1.0180042
13	0x3f8ae717	1.0851773
14	0x3f85297c	1.0403285
15	0x3f8736ff	1.0563658
16	0x3f896cd5	1.0736338
17	0x3f851e12	1.0399802
18	0x3f7d8032	0.99023736
19	0x3f840214	1.0313134
20	0x3f8709ce	1.0549867
21	0x3f84d992	1.0378897
22	0x3f6d8356	0.9277853
23	0x3f85999d	1.0437504
24	0x3f6ae6cc	0.9175842
25	0x3f8ba418	1.0909452
26	0x3f86cbee	1.0530984
27	0x3f6b06ab	0.9180705
28	0x3f82ee2c	1.0228934
29	0x3f800f50	1.0004673

block3.bnorm_3.bias f4 [30]
0	0xbde196db	-0.110151015
1	0xbcececa1	-0.028921427
2	0x3ba0a578	0.004902538
3	0x3c80cd7f	0.015722988
4	0xbd8e7cfd	-0.069574334
5	0xbbb40a74	-0.00549441
6	0xbdabeda0	-0.08394933
7	0xbd4a7010	-0.049423277
8	0xbd6ce5b0	-0.057836235
9	0xbdaf3037	-0.08554118
10	0x3ddc38f7	0.10753053
11	0xbd0518ff	-0.03249454
12	0xbd7365d7	-0.059423294
13	0xbda9e305	-0.08295254
14	0xbdb695bc	-0.08915278
15	0xbcce5386	-0.025186311
16	0x3bd82dbe	0.00659725
17	0xbce3c45f	-0.027803598
18	0xbdf9e172	-0.122012034
19	0xbd5b1482	-0.053486355
20	0xbcf9573b	-0.030437103
21	0xbd574336	-0.05255433
22	0xbd971829	-0.07377655
23	0xbd7ab7d6	-0.061210476
24	0xbd1b2336	-0.037875377
25	0x3d32f556	0.043691
26	0xbdca5f41	-0.098814495
27	0xbdec973c	-0.11552283
28	0xbca1d08d	-0.019752765
29	0xbda11ac2	-0.07866432

block3.bnorm_3.running_mean f4 [30]
0	0xbe9c5b54	-0.30538428
1	0xbe8c3ed0	-0.27391672
2	0xbedc86ed	-0.4307169
3	0xbef205f5	-0.4727017
4	0xbdb1cd96	-0.086817905
5	0xbe8c4a08	-0.2740023
6	0xbee73445	-0.45157066
7	0x3d3191c4	0.043351904
8	0xbeed00ab	-0.46289572
9	0xbf0ba6dc	-0.5455148
10	0xbe8d7fb6	-0.27636498
11	0xbcbbd007	-0.022926344
12	0xbe76f69a	-0.24117509
13	0xbe98c7d8	-0.2983997
14	0xbef084ec	-0.4697641
15	0xbeff9bdf	-0.49923608
16	0xbeb22441	-0.34793285
17	0xbea8119c	-0.32825935
18	0xbe94fb15	-0.2909781
19	0xbeb2be78	-0.3491094
20	0xbe8940ad	-0.26807156
21	0xbe8215c2	-0.25407225
22	0xbe18a233	-0.14905624
23	0xbeec3a2c	-0.46138132
24	0x3d075c45	0.03304698
25	0xbf543fe7	-0.8291001
26	0xbe6db557	-0.23213707
27	0xbcd97b07	-0.026547922
28	0xbe7bbf88	-0.24584782
29	0xbe3ec809	-0.18630995

block3.bnorm_3.running_var f4 [30]
0	0x3effa565	0.49930874
1	0x3eb87da4	0.36033356
2	0x3f4ef2e6	0.80839384
3	0x3f0ea3f9	0.5571895
4	0x3f32f910	0.6991129
5	0x3ed56be7	0.41683885
6	0x3f0b0fc2	0.5432092
7	0x3f8049ff	1.0022582
8	0x3f27e6fd	0.65586835
9	0x3f578e65	0.8420165
10	0x3ee99ae6	0.4562599
11	0x3f55f51b	0.83577126
12	0x3f3d0986	0.73842657
13	0x3f24844f	0.64264387
14	0x3f3ddeab	0.7416789
15	0x3f8d8b12	1.1058066
16	0x3ef970ea	0.4871896
17	0x3ee50d93	0.4473692
18	0x3ea3285c	0.3186673
19	0x3ec89b1e	0.39180845
20	0x3ed65c60	0.41867352
21	0x3eba3407	0.3636782
22	0x3f18aeee	0.5964192
23	0x3f031f79	0.512199
24	0x3eea0cf7	0.45713016
25	0x3fec9ef8	1.8486013
26	0x3f09296f	0.5357885
27	0x3f1e17f0	0.61755276
28	0x3edeb9e3	0.43501195
29	0x3f343e22	0.7040731

block4.conv_4.weight f4 [30, 30, 10]
0	0xbda547c0	-0.08070326
1	0xbc7027a7	-0.014657891
2	0x3df5b88a	0.11998089
3	0xbc79fea9	-0.01525847
4	0x3e3da888	0.18521321
5	0x3c92e816	0.017932933
6	0x3c24a51b	0.01004913
7	0x3d25b24b	0.040453237
8	0x3db79a83	0.08965018
9	0xbd0dccfd	-0.03461932
10	0xbd39871b	-0.045294862
11	0xbdba5f06	-0.091001555
12	0x3cb2a306	0.021806251
13	0x3cce44eb	0.025179347
14	0x3ceae30c	0.028672718
15	0xbd824ef8	-0.06362718
16	0xbd414b09	-0.0471907
17	0x3c7c8648	0.0154128745
18	0xbd897f10	-0.067136884
19	0xbca729b2	-0.020405624
20	0x3c10d692	0.00884022
21	0x3c8e3852	0.01736084
22	0xbda9bee0	-0.0828836
23	0xbd958e6f	-0.07302558
24	0x3b25a395	0.0025274504
25	0xbc87f5c2	-0.016596679
26	0xbda72db7	-0.08163016
27	0xbdc118e3	-0.09428575
28	0xbbf47c36	-0.007461096
29	0xbd86299c	-0.06550905
30	0xbd34a9c8	-0.04410723
31	0xbc810265	-0.015748212
32	0xbd3683a1	-0.044559125
33	0x3e0e5e4d	0.1390316
34	0x3cfacbd9	0.03061478
35	0xbd7c16d7	-0.06154522
36	0x3d75a084	0.059967533
37	0xb9f631f5	-0.00046957997
38	0xbd948de2	-0.072536245
39	0x3db5bbab	0.088736854
40	0xbd5d0c61	-0.053966884
41	0x3d5f58f3	0.054528188
42	0xbdac658d	-0.08417807
43	0x3cc4f9a4	0.02404482
44	0x3c171def	0.009223445
45	0x3d8fd0e3	0.07022264
46	0x3d1c631a	0.038180448
47	0x3bbee27c	0.005825339
48	0xbd925253	-0.07144608
49	0xbdb48450	-0.08814299
50	0x3bb867bf	0.005627602
51	0x3d513df3	0.05108447
52	0x3d4b63c5	0.049655695
53	0x3d22d56c	0.039754316
54	0xbe083ace	-0.13303682
55	0x3d3d52df	0.04622161
56	0xbc00c00c	-0.007858288
57	0x3af22d60	0.0018476658
58	0x3da5c006	0.08093266
59	0x3d992d00	0.07479286
60	0xbcc92035	-0.02455149
61	0xbc949f89	-0.018142479
62	0x3e199dbc	0.15001577
63	0x3accdacf	0.0015629175
64	0xbc9f5ccb	-0.019453427
65	0x3daa384f	0.08311521
66	0xbd92c6a6	-0.071667954
67	0x3be9e2c0	0.0071376264
68	0xbc456071	-0.012046919
69	0xbca02ee0	-0.019553602
70	0x3c83c789	0.016086357
71	0x3d32fbbd	0.043697108
72	0xbd3ce5fc	-0.046117768
73	0xbc9fddcc	-0.01951494
74	0x3d21f70c	0.039542243
75	0x3d62b803	0.05535127
76	0xbd482785	-0.048865814
77	0xba2d3b40	-0.0006608255
78	0x3c8481d5	0.01617519
79	0xbcba3abc	-0.022733085
80	0xbdd8dd0d	-0.10589037
81	0xbdf0aa3e	-0.11751221
82	0x3cfcd7ac	0.03086456
83	0xbc217642	-0.009854855
84	0xbb4f8fbc	-0.0031671366
85	0x3df01702	0.117231384
86	0x3d8041db	0.06262561
87	0x3ba4df59	0.005031508
88	0xbd9a2f82	-0.07528593
89	0x3c9da160	0.019241989
90	0x3cdfd0c0	0.02732122
91	0x3cb7309d	0.022362048
92	0x3d42ffa7	0.04760709
93	0xbe04a790	-0.12954545
94	0x3b450864	0.0030064816
95	0xbc602c09	-0.013682374
96	0x3d2b8b08	0.041880637
97	0xbd6f7b32	-0.058467098
98	0xbd6f4ad3	-0.058420967
99	0x3d5ab6b6	0.053396903
100	0xbd13b7e7	-0.036064055
101	0xbd4fbfb7	-0.050719943
102	0xbcc67e94	-0.024230279
103	0xbdce918f	-0.10086357
104	0xbd52c7e2	-0.051460154
105	0xbc2e225b	-0.010628308
106	0x3d56bf77	0.05242869
107	0x3d1d5289	0.03840879
108	0xbd70543c	-0.058674082
109	0xbd5ec4be	-0.054386847
110	0xb9e088e7	-0.0004282661
111	0xbdb18df4	-0.086696535
112	0xbda541e2	-0.08069207
113	0xbd67ea48	-0.056619912
114	0x3c8773ae	0.016534653
115	0xbd0ec296	-0.03485354
116	0x3d37a9f8	0.04483983
117	0x3d6b8d3b	0.057507735
118	0xbd5ee74d	-0.054419804
119	0x3cad62b0	0.021165222
120	0x3ca8febc	0.02062928
121	0xbe05f8dc	-0.13083214
122	0xbd1b81aa	-0.037965454
123	0xbdbd24d5	-0.09235541
124	0x3d55efa6	0.0522305
125	0x3dbbf374	0.091772944
126	0xbb34ba99	-0.0027577041
127	0xbe286475	-0.16444571
128	0xbd08f9a7	-0.033441212
129	0xbd0a30b9	-0.03373787
130	0xbda34499	-0.07972068
131	0xbdc98946	-0.09840636
132	0xbe053755	-0.13009389
133	0xbd6cadfe	-0.05778312
134	0xbd05843a	-0.032596804
135	0x3d47133d	0.04860233
136	0x3d696633	0.05698223
137	0xbe1d4fe5	-0.15362509
138	0xbd7c7938	-0.06163904
139	0x3d1fd9a9	0.039025936
140	0xbd935dd8	-0.07195634
141	0xbd2a3039	-0.041549895
142	0xbda119fa	-0.07866283
143	0xbdfc1c03	-0.1231003
144	0xbc7326fd	-0.0148408385
145	0x3e0e87d8	0.13919008
146	0x3b6f425c	0.003650806
147	0xbb7a157d	-0.003815978
148	0x3db24d85	0.08706192
149	0xbd929cdf	-0.07158827
150	0x3d6e5288	0.058184177
151	0x3c0ad588	0.008473761
152	0x3da4e6a4	0.08051804
153	0x3cef3a0b	0.029202482
154	0x3e07c261	0.13257743
155	0x3d2a7d24	0.04162325
156	0x3c1bf78b	0.009519468
157	0xbd83ab12	-0.064291134
158	0xba665d51	-0.0008787709
159	0x3d0142c9	0.031557832
160	0xbd069d40	-0.03286481
161	0xbcb4d78e	-0.02207544
162	0x3d7d484e	0.061836533
163	0xbd05d7a5	-0.032676358
164	0xbd9634bc	-0.07334277
165	0x3d8236ca	0.063581064
166	0x3cfb3f72	0.030669902
167	0x3d032537	0.032017913
168	0x3dbb02bd	0.09131382
169	0xbcc5636c	-0.02409526
170	0xbdd131ce	-0.102145776
171	0xbd53c147	-0.051697996
172	0xbcc5b165	-0.02413244
173	0x3d88e3c9	0.066840716
174	0x3e078240	0.1323328
175	0x3de3dc65	0.11126021
176	0x3de76ccb	0.113000475
177	0xbdc9b6d5	-0.098493256
178	0x3d3ed928	0.046593815
179	0xbb39182b	-0.0028243165
180	0x3d904aef	0.070455424
181	0xbcf10b10	-0.02942422
182	0xbd782fab	-0.060592335
183	0x3de061a0	0.109561205
184	0x3c2e29b0	0.010630056
185	0x3c8d11ef	0.017220465
186	0xbdc430bf	-0.0957961
187	0xbd2239b3	-0.039605808
188	0x3d31637d	0.04330777
189	0xbc52cb1c	-0.012865808
190	0xbd44b70a	-0.048026122
191	0x3de5de5b	0.112240516
192	0xbbea0127	-0.0071412507
193	0xbd467292	-0.048449107
194	0xbdd36dae	-0.10323654
195	0xbdd9eac5	-0.10640482
196	0xbd643f82	-0.05572463
197	0x3b030561	0.001999222
198	0xbdaa826b	-0.083256565
199	0xbcc6f290	-0.024285585
200	0xbd1aa429	-0.03775421
201	0x3ce78157	0.028259916
202	0x3cb21107	0.021736635
203	0xbd3e32cf	-0.046435174
204	0xbcd7e136	-0.026352506
205	0xbdc0ba53	-0.094105385
206	0xbcd4d47f	-0.025980232
207	0x3c3f8a4d	0.011690688
208	0xbd9f7964	-0.07786825
209	0x3ce20cac	0.027593933
210	0xbd94d432	-0.072670355
211	0xbd285190	-0.04109341
212	0x3d4bd934	0.049767688
213	0x3d5d63c8	0.054050237
214	0x3dab408e	0.08361922
215	0xbd535566	-0.051595114
216	0xbd1e2966	-0.0386137
217	0xbdd5e320	-0.10443711
218	0xbd59424d	-0.053041745
219	0xbdf49c84	-0.119439155
220	0x3d665f92	0.056243487
221	0xbc834af8	-0.016026959
222	0xbd70d9bb	-0.058801394
223	0x3a7d3198	0.0009658574
224	0xbd8802f8	-0.06641191
225	0xbda1472a	-0.078749016
226	0x3dc22e5e	0.094815
227	0x3d87b43e	0.06626175
228	0x3d358f0e	0.04432588
229	0xbd6bc87d	-0.057564247
230	0xbc7dba55	-0.01548632
231	0xbe00a4c7	-0.12562858
232	0x3d4518bd	0.048119295
233	0xbd19c82a	-0.037544407
234	0x3e0d1832	0.13778761
235	0xbce12e3b	-0.027487865
236	0x3d0327d1	0.032020394
237	0xbdb3c648	-0.087780535
238	0x3dbaf4ac	0.09128699
239	0x3daf7873	0.08567896
240	0xbd8babb2	-0.06819858
241	0x3d9d0b6d	0.07668195
242	0x3d61df91	0.05514485
243	0x3c3b7f36	0.011443904
244	0xbdafb486	-0.08579354
245	0x3da1c1c3	0.07898285
246	0xbc985f42	-0.01860011
247	0x3ceac80e	0.028659847
248	0xbc43b62d	-0.01194529
249	0x3d9a736f	0.075415485
250	0xbd5d59b6	-0.054040633
251	0x3c7ef812	0.015562074
252	0x3d9e2d4b	0.07723483
253	0xbd174927	-0.036934998
254	0xbcb42e11	-0.021994622
255	0xbc9133c3	-0.017724877

block4.bnorm_4.weight f4 [30]
0	0x3f83b3c5	1.0289236
1	0x3f867bbe	1.0506513
2	0x3f838933	1.0276245
3	0x3f81d59f	1.0143317
4	0x3f837c6d	1.0272347
5	0x3f8c7200	1.097229
6	0x3f8e72b2	1.1128752
7	0x3f82da35	1.0222842
8	0x3f85c366	1.0450256
9	0x3f899bc1	1.0750657
10	0x3f8bcd01	1.0921937
11	0x3f85e042	1.0459063
12	0x3f813197	1.0093259
13	0x3f863f15	1.0488001
14	0x3f8b5a14	1.0886865
15	0x3f892380	1.0713959
16	0x3f87eb64	1.061871
17	0x3f82a14a	1.0205472
18	0x3f884dd9	1.0648757
19	0x3f8b931c	1.0904269
20	0x3f843055	1.032725
21	0x3f878776	1.0588214
22	0x3fbbc22d	1.4668633
23	0x3f81d7d9	1.0143996
24	0x3f81a266	1.0127685
25	0x3f822275	1.0166765
26	0x3faee038	1.3662176
27	0x3f8c50c8	1.0962152
28	0x3f8b19fc	1.0867305
29	0x3f821087	1.0161294

block4.bnorm_4.bias f4 [30]
0	0xbc190f4c	-0.009342026
1	0xbc5f6dad	-0.013636989
2	0xbc7bd3f4	-0.015370358
3	0xbc3e29cd	-0.011606646
4	0xbc678854	-0.014131624
5	0xbc6f6d26	-0.014613425
6	0xbbff6e1b	-0.007795108
7	0x3c102cb3	0.00879972
8	0xbc58818a	-0.013214478
9	0xbc7c7026	-0.015407598
10	0xbb5ec75f	-0.0033993346
11	0xbc3ce227	-0.011528528
12	0xbc0bc1bc	-0.008530077
13	0xbc94de00	-0.018172264
14	0xbaceadf4	-0.0015768395
15	0xbb4f855e	-0.0031665186
16	0xbc7d6ef1	-0.015468345
17	0x3a995d03	0.0011700693
18	0xbc838d4d	-0.016058588
19	0x3b99ca5b	0.004693312
20	0xbb196243	-0.0023404516
21	0xbbed526d	-0.007242492
22	0x3c9b3bc7	0.018949402
23	0x3bcefd65	0.006316828
24	0xbc88bb62	-0.016690914
25	0xbc71ed80	-0.014766097
26	0x3db5b408	0.08872229
27	0x3c5a4b3b	0.0133236
28	0xbbf0c8bb	-0.0073481477
29	0xbcd08f68	-0.025459006

block4.bnorm_4.running_mean f4 [30]
0	0xbf1a1ac1	-0.60197073
1	0xbedc6c58	-0.4305141
2	0x3e11bec2	0.14232925
3	0x3d863829	0.065536804
4	0xbdc67a79	-0.096913286
5	0xbe268cee	-0.16264698
6	0x3ce25e72	0.027632926
7	0xbdd06690	-0.10175812
8	0xbe1534bc	-0.14570898
9	0x3d92bb03	0.07164576
10	0x3e994be8	0.29940724
11	0x3c794349	0.015213796
12	0x3ed540f6	0.41651124
13	0x3dfb6432	0.1227497
14	0xbdad22b4	-0.08453885
15	0x3e01a4e2	0.12660554
16	0x3eff3ecd	0.498526
17	0x3dace8ac	0.08442816
18	0xbe10c3cb	-0.14137189
19	0xbe1c3b2e	-0.1525695
20	0x3f5fb3e4	0.87383866
21	0xbe31e807	-0.17373668
22	0xbd195a43	-0.037439596
23	0xbed685fa	-0.4189909
24	0x3eb205f2	0.3477016
25	0xbe2ab696	-0.16671214
26	0xb99d565a	-0.0003000971
27	0xbdd0548c	-0.10172376
28	0x3e922658	0.2854488
29	0xbf50a3fa	-0.8150021

block4.bnorm_4.running_var f4 [30]
0	0x3ea78fe4	0.32726967
1	0x3edca029	0.43090943
2	0x3e84f0ce	0.2596497
3	0x3e2ef974	0.17087346
4	0x3e15401e	0.1457524
5	0x3e862e6f	0.262073
6	0x3e8240ae	0.25439972
7	0x3ed29c8f	0.4113507
8	0x3eaa8b73	0.33309516
9	0x3e819d6a	0.2531541
10	0x3e4fb6c9	0.20284571
11	0x3e272305	0.16321953
12	0x3f524409	0.82135063
13	0x3e7c6cc6	0.24650869
14	0x3eaddc31	0.33957055
15	0x3ed5b393	0.41738567
16	0x3ebef3d8	0.37295413
17	0x3eb3b783	0.35100946
18	0x3e6e47af	0.23269533
19	0x3eb2c0b5	0.3491265
20	0x3eeaac7f	0.4583473
21	0x3ea63d1d	0.324685
22	0x3e1de78c	0.1542036
23	0x3e53d69c	0.20687336
24	0x3e73804f	0.23779415
25	0x3eed5e44	0.4636098
26	0x3e590c31	0.21196057
27	0x3e92240e	0.28543133
28	0x3e861111	0.26184896
29	0x3ee8c899	0.45465544

conv_channel_res.weight f4 [1, 30, 3]
0	0xbba950c6	-0.0051670996
1	0xbd87ed0c	-0.0663701
2	0xbd9f0bbd	-0.07765911
3	0xbb995d1e	-0.00468029
4	0x3db9f567	0.0908001
5	0x3dadedc3	0.08492615
6	0xbcec5cb8	-0.028852805
7	0xbe0d819f	-0.13818978
8	0xbd47e965	-0.048806567
9	0xbdc1ded5	-0.0946633
10	0xbdef681d	-0.1168978
11	0xbdeed0ab	-0.11660894
12	0xbdc6f827	-0.097153
13	0xbe031587	-0.12801181
14	0xbdfe4e08	-0.12417227
15	0x3a566a7d	0.000817932
16	0x3e3531b9	0.17694749
17	0x3e465aec	0.19370621
18	0x3e14e4b8	0.14540374
19	0xbd10361f	-0.035207864
20	0x3db52517	0.08844965
21	0xbcf99e09	-0.030470865
22	0xbd9a3f5e	-0.075316176
23	0xbdd33fb2	-0.10314883
24	0x3cdadf40	0.026717782
25	0x3d82676f	0.06367385
26	0x3d92dc23	0.07170894
27	0xbe11c4ff	-0.14235304
28	0xbe00a871	-0.12564255
29	0xbe385ca6	-0.18004093
30	0x3d82283a	0.06355329
31	0xbe09a15e	-0.13440463
32	0xbcb03ead	-0.021514261
33	0xbd94a3d9	-0.07257814
34	0xbe0e766a	-0.13912359
35	0xbdaff2ac	-0.08591208
36	0x3cfa516b	0.030556401
37	0xbce8f381	-0.028436424
38	0xbdb38ef8	-0.087675035
39	0xbe0fd422	-0.14045766
40	0xbdd58567	-0.10425835
41	0xbe172955	-0.1476186
42	0xbb793bda	-0.003803006
43	0x3e135f69	0.14391865
44	0x3e360b58	0.17777765
45	0x3cb64b7f	0.022252796
46	0x3dc88889	0.09791667
47	0x3e0c57f0	0.1370542
48	0xbc4c6db7	-0.01247733
49	0xbde58c83	-0.11208441
50	0xbe18d971	-0.14926697
51	0xbd302b1d	-0.043009866
52	0xbc9570cb	-0.01824226
53	0xbddcb2e6	-0.1077631
54	0xbe16f9e9	-0.1474377
55	0x3d2d7974	0.042352155
56	0xbd8a5a6c	-0.06755528
57	0x3d80a3a3	0.06281211
58	0x3e29ae5a	0.16570416
59	0x3e33fc1b	0.1757664
60	0x3d98d10d	0.07461748
61	0x3ddb8b1f	0.107198946
62	0x3c9e6358	0.01933448
63	0x3dd5f594	0.10447231
64	0x3d01ece0	0.031720042
65	0x3e0a20c6	0.13489065
66	0x3e1b5b92	0.1517165
67	0xbdac7ad0	-0.08421862
68	0xbd8dec7d	-0.06929872
69	0xbd44f462	-0.048084624
70	0xbde1f505	-0.11033062
71	0x3d4ed38c	0.050494716
72	0xbbff9c0f	-0.007800586
73	0xbdf02b3e	-0.11726998
74	0xbd26c284	-0.04071285
75	0xbd3cdf7a	-0.04611156
76	0xbdabf797	-0.083968334
77	0xbdff93eb	-0.12479385
78	0x3dddfd64	0.10839346
79	0x3c98b554	0.018641151
80	0xbde2a718	-0.11067027
81	0x3c0fed50	0.008784607
82	0x3e11c677	0.14235865
83	0x3dee3063	0.11630323
84	0x3e1e9257	0.15485512
85	0x3df457eb	0.119308315
86	0x3da5953a	0.08085103
87	0xbdb6ca83	-0.08925345
88	0xbc2835ce	-0.010266734
89	0xbd864ddc	-0.06557819

classifier_conv.weight f4 [32, 1, 35]
0	0xbe15e4f1	-0.14638115
1	0xbbae5553	-0.00532023
2	0xbd9e6085	-0.077332534
3	0xbe03a2b1	-0.1285503
4	0xbcfe929e	-0.031075772
5	0xbe11eabd	-0.14249702
6	0xbe528e42	-0.2056208
7	0xbe0effd7	-0.13964783
8	0xbe0dfa19	-0.13864936
9	0xbda3d4c2	-0.07999565
10	0xbe7999ee	-0.24375126
11	0xbe2133f4	-0.15742475
12	0xbe4eddfd	-0.2020187
13	0xbe65370b	-0.22384278
14	0xbe85edf3	-0.26158103
15	0xbe8b8c81	-0.27255633
16	0xbe8a2f4f	-0.2698922
17	0xbe9bb20d	-0.3040928
18	0xbe9b1c84	-0.30295193
19	0xbe8349af	-0.25642154
20	0xbe861c36	-0.26193398
21	0xbe7e1599	-0.24812926
22	0xbebc2d6a	-0.36753398
23	0xbec88f64	-0.39171898
24	0xbe8d76f8	-0.27629828
25	0xbeac6ff5	-0.33679166
26	0xbea51768	-0.3224442
27	0xbe9c262e	-0.3049788
28	0xbe8d1815	-0.27557436
29	0xbef18e31	-0.47178796
30	0x3d4c023b	0.049806815
31	0xbf3cda6c	-0.73770785
32	0x3f2296ae	0.6351117
33	0x3d250a07	0.040292766
34	0x3dd70cbf	0.10500478
35	0x3e15dacc	0.14634246
36	0x3ba95d07	0.0051685604
37	0x3da6f5fc	0.081523865
38	0x3e306c1e	0.17228743
39	0x3dca5c0d	0.098808385
40	0x3d4cb73f	0.049979445
41	0x3e12e9e0	0.14347029
42	0x3e17619b	0.14783327
43	0x3e132e6d	0.14373179
44	0x3e2b0ebc	0.1670484
45	0x3e284550	0.1643269
46	0x3e76ba98	0.24094617
47	0x3e4cc9ca	0.19998851
48	0x3e9b9854	0.30389655
49	0x3e9fef5e	0.3123731
50	0x3e867b89	0.26266125
51	0x3e8e14a6	0.27750129
52	0x3ea2e65d	0.31816378
53	0x3ea96415	0.3308417
54	0x3eb7d38d	0.35903588
55	0x3e76ba6c	0.24094552
56	0x3e9721bd	0.29517928
57	0x3ecf63fd	0.40505973
58	0x3ebc393a	0.3676241
59	0x3eb3f645	0.35148826
60	0x3ec500a8	0.38477063
61	0x3eca1a98	0.39473414
62	0x3ea26503	0.3171769
63	0x3e716b30	0.23576045
64	0x3f0c364d	0.54770356
65	0xbd45fed1	-0.048338715
66	0x3f4e7e7d	0.80661756
67	0xbf334e4c	-0.70041347
68	0x3d85772d	0.065168716
69	0xbe23122e	-0.15924904
70	0xbdc65ac1	-0.09685279
71	0x3d6ced86	0.057843708
72	0xbe0ffbd5	-0.1406091
73	0xbe0a8dc8	-0.13530648
74	0xbdfd00e3	-0.12353685
75	0xbdd5c3cb	-0.10437735
76	0xbe284cba	-0.16435519
77	0xbdcf4400	-0.10120392
78	0xbe33c41a	-0.17555276
79	0xbdd8f220	-0.10593057
80	0xbe755222	-0.23957112
81	0xbe6ceab5	-0.23136409
82	0xbe52b9c6	-0.2057868
83	0xbe3a9e27	-0.18224393
84	0xbe6912d8	-0.22761095
85	0xbe6a6122	-0.22888616
86	0xbe9775df	-0.29582116
87	0xbebacd78	-0.36484885
88	0xbe9527e5	-0.29132
89	0xbe681788	-0.22665226
90	0xbe8dcc7a	-0.27695066
91	0xbe94070a	-0.2891162
92	0xbec23deb	-0.37937865
93	0xbec5cb56	-0.38631696
94	0xbe9e4d2a	-0.30918247
95	0xbe9fc3ef	-0.31204173
96	0xbeb812fc	-0.35951984
97	0xbea148a7	-0.31500742
98	0xbe5ff599	-0.21871032
99	0xbf0104bb	-0.50397843
100	0x3d4979da	0.049188472
101	0xbf3a62b6	-0.7280687
102	0x3f27b135	0.6550477
103	0x3d329617	0.043600168
104	0x3e0670e6	0.13129005
105	0xbe108e69	-0.14116825
106	0xba6f847f	-0.000913687
107	0xbd7b4728	-0.061347157
108	0xbe24cc4d	-0.1609356
109	0xbcd1d0ff	-0.025612352
110	0xbe2686c8	-0.16262352
111	0xbe4481a3	-0.19190077
112	0xbe465bc8	-0.1937095
113	0xbe817017	-0.2528083
114	0xbe2a01a7	-0.16602193
115	0xbe568621	-0.20949604
116	0xbe10b452	-0.14131287
117	0xbe791825	-0.24325617
118	0xbe7eb4fb	-0.24873726
119	0xbe87cc2f	-0.26522967
120	0xbea6534e	-0.3248543
121	0xbe8942ee	-0.26808876
122	0xbe9eb48d	-0.30997124
123	0xbe992d4d	-0.29917374
124	0xbea66299	-0.324971
125	0xbeb0bf1d	-0.34520808
126	0xbea5fe8b	-0.32420763
127	0xbebcf7f5	-0.36907926
128	0xbea7c444	-0.32766926
129	0xbeb7796f	-0.35834834
130	0xbee6f211	-0.45106557
131	0xbed75d2f	-0.4206328
132	0xbe842792	-0.2581144
133	0xbe816c9f	-0.25278184
134	0xbef49741	-0.47771648
135	0x3c466e0e	0.0121112
136	0xbf43f1ef	-0.76541036
137	0x3f2e0909	0.67982537
138	0xbce20b5d	-0.027593309
139	0x3d47e249	0.048799787
140	0xbe5c327e	-0.21503636
141	0x3ccab755	0.024745623
142	0xbd8568c6	-0.065141246
143	0xbdb4873b	-0.08814856
144	0xbde1bc37	-0.11022227
145	0xbdbfafa1	-0.093596704
146	0xbe05313b	-0.13007061
147	0xbe3ec65b	-0.18630354
148	0xbe585d38	-0.2112931
149	0xbd9cde72	-0.076596156
150	0xbe6b13a5	-0.22956713
151	0xbe53bfd3	-0.20678644
152	0xbe59edd3	-0.21282129
153	0xbe8b8836	-0.27252358
154	0xbe9c5d1b	-0.30539784
155	0xbe6332cf	-0.2218735
156	0xbe9ae740	-0.30254555
157	0xbeb7312f	-0.35779712
158	0xbe962b14	-0.2932974
159	0xbe9e0ecc	-0.30870664
160	0xbe6d4fd2	-0.2317498
161	0xbe92498a	-0.2857173
162	0xbee50bf7	-0.4473569
163	0xbe9ffdbc	-0.3124827
164	0xbebe4d63	-0.37168416
165	0xbeb1bbd5	-0.34713617
166	0xbeb6f0cc	-0.35730588
167	0xbea975e2	-0.3309775
168	0xbea81dce	-0.3283524
169	0xbf042f60	-0.5163479
170	0x3d949efa	0.07256885
171	0xbf4cb586	-0.7996448
172	0x3f2d4e04	0.6769717
173	0xbd482ece	-0.04887276
174	0x3c7093aa	0.014683643
175	0x3e62efc0	0.2216177
176	0x3c48260e	0.012216104
177	0x3e0dbdd3	0.13841943
178	0x3dd182c2	0.10230018
179	0x3d577268	0.05259934
180	0x3d4a393f	0.049371
181	0x3e602fa0	0.21893167
182	0x3e1b0e80	0.1514225
183	0x3e6218ec	0.2207982
184	0x3e0ece9a	0.13946
185	0x3e858100	0.26074982
186	0x3e641e02	0.22277072
187	0x3e5d2e89	0.21599783
188	0x3e9089ce	0.28230137
189	0x3e9fb733	0.31194457
190	0x3e5450b7	0.20733915
191	0x3e87570e	0.26433605
192	0x3e84ed8a	0.25962478
193	0x3e7bbe96	0.24584422
194	0x3ea54118	0.32276225
195	0x3e833ba8	0.25631452
196	0x3eb43944	0.3519994
197	0x3edde006	0.4333498
198	0x3e9dd77d	0.30828467
199	0x3ea04012	0.31298882
200	0x3ebee029	0.37280396
201	0x3edc0ec9	0.4298003
202	0x3e8eae24	0.27867234
203	0x3e5ffc6b	0.21873634
204	0x3efe76cf	0.4970002
205	0xbd555ca8	-0.052090317
206	0x3f2bcb07	0.6710667
207	0xbf1e66d0	-0.6187563
208	0xbb7b1437	-0.003831161
209	0xbc58c2ad	-0.013230008
210	0xbe40507b	-0.18780701
211	0xbcafc3a4	-0.021455593
212	0xbdfce8a4	-0.1234906
213	0xbde769fb	-0.11299511
214	0xbd88c6b2	-0.06678523
215	0xbd8d72a6	-0.06906633
216	0xbe4bdbe2	-0.19908097
217	0xbe2f4570	-0.17116332
218	0xbe1610b7	-0.14654814
219	0xbda86de9	-0.08224089
220	0xbe3626c6	-0.17788228
221	0xbe7f1c64	-0.24913174
222	0xbe7a24a3	-0.24428038
223	0xbe39abf9	-0.18132009
224	0xbe76ea61	-0.24112846
225	0xbe38681e	-0.18008468
226	0xbea7ee87	-0.3279917
227	0xbe732248	-0.23743546
228	0xbea75d2f	-0.3268828
229	0xbe92fd9e	-0.2870912
230	0xbe9d152d	-0.30680218
231	0xbea9a43c	-0.33133113
232	0xbea8dcca	-0.3298095
233	0xbe9ac036	-0.3022477
234	0xbe8629c8	-0.26203752
235	0xbebd6955	-0.36994424
236	0xbebce0e5	-0.3689033
237	0xbe436d46	-0.19084653
238	0xbe703349	-0.23457064
239	0xbf029ede	-0.5102366
240	0x3d7c86f5	0.061652143
241	0xbf1eafc4	-0.6198695
242	0x3f297436	0.6619295
243	0x3ce0b64a	0.027430672
244	0x3d3a40d0	0.045471966
245	0xbe3584be	-0.17726418
246	0xbcdb7c4f	-0.026792673
247	0xbd35abaf	-0.044353183
248	0xbe3b640e	-0.18299887
249	0xbcf5b43e	-0.029993173
250	0xbdd9e771	-0.10639847
251	0xbe4233ce	-0.18965074
252	0xbe5b5584	-0.2141934
253	0xbe03e5fe	-0.12880704
254	0xbde4580d	-0.11149607
255	0xbe5f8b8d	-0.21830578

classifier_conv.bias f4 [32]
0	0x3c9adb51	0.018903406
1	0xbccd85a0	-0.025088131
2	0x3c25ee71	0.01012765
3	0x3ce2b675	0.027674893
4	0x3cbea771	0.023273202
5	0xbd0e521a	-0.034746267
6	0x3cd3e158	0.025864288
7	0x3cc0d483	0.023538833
8	0x3c7d98a0	0.015478283
9	0x3ca420ee	0.020035233
10	0x3c96be64	0.018401332
11	0xbccc0829	-0.024906235
12	0xbc85f8eb	-0.016354045
13	0xbcf587c4	-0.029971965
14	0xbbe5a740	-0.007008463
15	0xbcc414e4	-0.023935743
16	0x3c8c969a	0.017161656
17	0x3cb932d4	0.022607245
18	0x3c83734f	0.016046194
19	0x3c97b945	0.01852096
20	0xbc012c6a	-0.007884124
21	0xbd13e6c7	-0.03610876
22	0xbc963613	-0.018336331
23	0xbba56514	-0.00504745
24	0x3c8054c9	0.015665429
25	0x3cecc174	0.02890084
26	0x3cb05730	0.02152595
27	0x3cdfe86f	0.027332513
28	0xbcb1c028	-0.021698073
29	0x3ca37ca1	0.019956889
30	0x3cd9530b	0.026528856
31	0xbd008625	-0.03137793

fc.weight f4 [2, 32]
0	0x3db8ce42	0.090237156
1	0xbdadedfa	-0.08492656
2	0x3db1f817	0.086898975
3	0x3dba206f	0.090882175
4	0x3db81c62	0.089897886
5	0xbdb08f60	-0.086210966
6	0x3db0a3c8	0.08624989
7	0x3db9ce63	0.09072568
8	0x3db5ad9a	0.088710025
9	0x3dc23ce5	0.09484271
10	0x3db02137	0.08600085
11	0xbdb86485	-0.090035476
12	0xbdac6e45	-0.0841947
13	0xbdb418b3	-0.087937735
14	0xbdaebb22	-0.085317865
15	0xbdb6e188	-0.089297354
16	0x3dbab1cb	0.091159426
17	0x3dac9ccb	0.084283434
18	0x3dbb5245	0.09146551
19	0x3db22491	0.08698381
20	0xbdb0b603	-0.08628466
21	0xbdb48774	-0.08814898
22	0xbdb47072	-0.0881051
23	0xbdb72173	-0.08941927
24	0x3db04d8d	0.08608542
25	0x3dba8fe7	0.091094784
26	0x3db5a8ab	0.088700615
27	0x3db80e00	0.08987045
28	0xbdba72f1	-0.091039546
29	0x3dace430	0.08441961
30	0x3db094a2	0.086220995
31	0xbdbb8a5c	-0.09157249
32	0xbdb8ce33	-0.090237044
33	0x3dadedfc	0.084926575
34	0xbdb1f82b	-0.086899124
35	0xbdba2075	-0.09088222
36	0xbdb81c5d	-0.08989785
37	0x3db08f68	0.086211026
38	0xbdb0a3db	-0.08625003
39	0xbdb9ce67	-0.09072571
40	0xbdb5ad9c	-0.08871004
41	0xbdc23ce3	-0.094842695
42	0xbdb0212a	-0.086000755
43	0x3db86491	0.090035565
44	0x3dac6e57	0.08419483
45	0x3db418b3	0.087937735
46	0x3daebb31	0.08531798
47	0x3db6e175	0.08929721
48	0xbdbab1d2	-0.09115948
49	0xbdac9cd1	-0.08428348
50	0xbdbb5262	-0.09146573
51	0xbdb22488	-0.08698374
52	0x3db0b601	0.086284645
53	0x3db48756	0.08814876
54	0x3db47069	0.08810503
55	0x3db72177	0.0894193
56	0xbdb04da3	-0.08608558
57	0xbdba8fd9	-0.09109468
58	0xbdb5a8a7	-0.088700585
59	0xbdb80e0f	-0.089870565
60	0x3dba72d9	0.09103937
61	0xbdace42e	-0.08441959
62	0xbdb09494	-0.08622089
63	0x3dbb8a49	0.09157235

fc.bias f4 [2]
0	0x3d02f5e2	0.031972773
1	0xbd02f6e5	-0.03197374
