submit_entry/checkpoints/Combined_edgcn_12s_slice_norm_noise/ECG/1/best.pth (torch_old, 75847 bytes, 26 tensors)

conv_time.weight f4 [15, 1, 10]
00000000: 1044 11bc 695e 1ebe 18e2 12bd b768 1cbd
00000010: ce32 a1bc 4778 13bd fc4b 2abe 38fd 3f3e
00000020: 4457 7b3c 89d4 413e 3aed 383e d9a3 043e
00000030: 7107 f13d 7f9b 023e 7972 36be d7fa e9bd
00000040: e31d 2b3e 289b 6fbd 73d7 3bbe 130a 2fbe
00000050: c69e 2a3e 9d42 4fbc 04ff 5a3d 19da 083e
00000060: ce74 aabd 2dc6 4fbe fc03 da3c b6f8 ecbd
00000070: 43c7 2abd 6a5c c33d af03 843d 7618 433d
00000080: 8a17 08be 6b1a a7bd e9dc f33d 304e d9bc
00000090: 9958 7d3d 9e1c 9f39 99ff aebc d08b 73bd
000000a0: ae06 253e cb0d 60bd eb3c eebc 9557 58bd
000000b0: 84cc ccbd 6f78 323e 4200 41be ea89 27be
000000c0: 0efa db3d 85d7 183e a6f3 ef3d f019 f1bd
000000d0: 0e42 5a3c ad2f 543e 3da4 ee3d f139 19be
000000e0: 91cd 2ebe ddca 293e cd35 ed3c b5ad 093e
000000f0: 9f41 09be 9eaa fe3c e47c 043e a6f6 4cbe
00000100: 84c4 11bd c8ba 4ebe 4571 f63d 384e 783d
00000110: 4c2b 6cbd 7e80 6e3d 18bf 9f3d 678d e3bd
00000120: a39d 46bc 3e01 133e e9d8 8fbd 8b26 85bd
00000130: ed8a 39be 05f6 60bd 0235 90bd a40d 3dbe
00000140: f90c 7d3d 05c4 23bc 0164 803d 2153 2a3e
00000150: 4b7b 483e 044f 193e 72ab 603e 87f5 753d
00000160: 2815 7fbc 332b 413d aaec e43d b856 91bd
00000170: 12c3 2f3e b0ea 76bd 380b 303e fa84 3bbb
00000180: 85df fc3d a35f 21be 156c 8fbd 0735 26be
00000190: 3a5b 583d b78d 08bd 9b1b 183e 976e cc3d
000001a0: 5c93 ad3c 007a 3e3e 8408 1a3e 50b8 0cbe
000001b0: 938b 323d c7eb 4f3d 8149 20be 69f2 233e
000001c0: 1f12 4839 a272 d0bd 507e 203d 6582 ed3d
000001d0: 1ed9 173d 7146 16be 7663 14bd 7426 3b3a
000001e0: 3766 153e 7cb0 f5bc d08d 773e a8e4 f33c
000001f0: 3c7e ba3d c202 d7bc a1dd e7bd bc17 05bd
00000200: 332d aa3d 262e b53d 1852 a3bd 864d abbb
00000210: 3f14 a3bd d7a6 70bd 5075 bb3b e91c 2ebd
00000220: 389b e63d 2853 2cbd 0916 3a3e 028c ee3c
00000230: 444e 1ebe 48a2 8b3d 1257 87ba ce56 163e
00000240: db54 70bd c7a8 3fbe e222 e73d fdb2 413c
00000250: ad28 9cbd d17d 803d
-0.008866325 -0.15465702 -0.03586015 -0.0381858 -0.019677546 -0.036003377 -0.16630548 0.18748939
0.01534063 0.18928732 0.18059245 0.12953128 0.117689975 0.1275463 -0.17817105 -0.11424797
0.1671062 -0.058497578 -0.18343906 -0.17093687 0.1666213 -0.012650159 0.053465858 0.13364448
-0.0832306 -0.20290442 0.026613228 -0.11570875 -0.041693937 0.09539111 0.06446015 0.04763075
-0.1329023 -0.08159336 0.1190737 -0.02652654 0.06185207 0.00030348165 -0.021362113 -0.059459507
0.1611583 -0.054700654 -0.029081782 -0.0528179 -0.09999946 0.17428754 -0.18847755 -0.16361204
0.107410535 0.14925964 0.11716394 -0.11772525 0.013321413 0.20721312 0.1165242 -0.14963509
-0.17070605 0.16581292 0.028956318 0.1344517 -0.13403939 0.031087216 0.12938267 -0.20015964
-0.035587803 -0.20188439 0.12033323 0.06062147 -0.05765848 0.05822801 0.0780012 -0.11110955
-0.012122544 0.14355943 -0.07023794 -0.06501492 -0.18119402 -0.054922123 -0.070413604 -0.18462235
0.06177995 -0.009995465 0.06269074 0.16633274 0.19578283 0.14971548 0.21940401 0.060048606
-0.015569009 0.04716034 0.111779526 -0.070966184 0.17164257 -0.06028241 0.1719178 -0.0028613196
0.123473205 -0.15759139 -0.07003037 -0.16231166 0.052821375 -0.033338275 0.1485428 0.09982031
0.02118843 0.18601227 0.15042311 -0.13742185 0.04359014 0.050761964 -0.1565304 0.16010441
0.00019080237 -0.101781145 0.03918296 0.115971364 0.037072293 -0.14675309 -0.036227666 0.0007139214
0.14589773 -0.02999138 0.24175191 0.029772118 0.091061085 -0.026246432 -0.11321569 -0.032493338
0.08309402 0.08846693 -0.079746425 -0.0052277474 -0.07962846 -0.05875286 0.005720772 -0.04250804
0.112600744 -0.04207149 0.18172468 0.029119495 -0.15459543 0.06818062 -0.0010325632 0.14681551
-0.058674674 -0.18716727 0.1128595 0.011822459 -0.07624946 0.062739976

conv_time.bias f4 [15]
00000000: bd45 d23b 6cdf 4a3c 5dc3 e83b 0b4f fbbb
00000010: a082 ab3c 735c 7a3b 5a41 303c 3771 703c
00000020: c004 383c 1e1c 6a3c 9367 4c3a 948c 2bbc
00000030: 181b 4abc 2575 fe3a e826 673c
0.006417005 0.0123823695 0.0071033672 -0.0076693348 0.02093631 0.0038202077 0.0107577685 0.01467543
0.011231601 0.01428893 0.0007797416 -0.010470528 -0.012335561 0.0019413574 0.014108397

bnorm.weight f4 [15]
00000000: 0195 7b3f 2cd8 853f e40e 863f 3d6f 7c3f
00000010: a4a4 853f 369a 7b3f 1a10 713f b619 7b3f
00000020: beed 783f 6522 7e3f a88c 773f e0c0 733f
00000030: a27b 7b3f 39c0 863f 6387 7e3f
0.98274237 1.0456595 1.0473294 0.98607236 1.0440869 0.9828218 0.94165194 0.98086107
0.97237766 0.9927123 0.96699 0.9521618 0.98235524 1.0527412 0.99425334

bnorm.bias f4 [15]
00000000: 45d8 dfbb 48cc 313d efbb 1fbc 8627 eb3b
00000010: d97d 0c3e 1dff 713c 0e3b da3b 032f 1abd
00000020: 67fb 303b 022a 253e 0a31 ccbc 34ee 76bd
00000030: 76bd eabd 03e9 27bd 2f6b 713c
-0.0068312013 0.04340771 -0.009749397 0.0071763424 0.13719882 0.014770296 0.006659872 -0.03764249
0.0027005316 0.16129306 -0.024925727 -0.060285762 -0.11461918 -0.0409937 0.014735027

bnorm.running_mean f4 [15]
00000000: 15a8 d7bc d03f af3c 5e4f 833c b46e b1bc
00000010: ac63 bd3c acef 2d3e bee6 c9bd 2bd6 74be
00000020: 3747 ec3e 77c8 213d a98b 8f3e 45d8 58bd
00000030: c993 5e3e 5386 5e3c 160b b7bc
-0.026325265 0.021392733 0.016029056 -0.021659233 0.023118816 0.16985959 -0.09858464 -0.23909824
0.46148083 0.03949782 0.2803624 -0.052940626 0.21736063 0.01358183 -0.022344153

bnorm.running_var f4 [15]
00000000: 601d e53a 2f64 613b c48f 603a 4869 e038
00000010: 2f17 cc39 6b66 cf3b ce71 4f3b 727f 823c
00000020: 4187 473d ff26 e53a c93c 993c f120 fa39
00000030: 45d1 4a3c 0d12 793a c23e c539
0.0017480068 0.003439199 0.00085663446 0.000107007625 0.00038927185 0.006329348 0.0031653526 0.015929911
0.048712973 0.0017482935 0.018705742 0.0004770826 0.012378995 0.0009501286 0.00037621526

block2.conv_2.weight f4 [15, 15, 10]
00000000: c03a 08be 3302 8ebd d591 c2bd 3037 5b3d
00000010: 959f d33d 1eb1 63bd 1d15 1b3c d452 63bd
00000020: 39a6 93bd b57d 9e3d c4ba 3a3d 6a2a 0cbd
00000030: 0b25 aebd 9d7f b13d 2446 28bc a4b3 f03d
00000040: 67e8 d0bd 2f4e a33c bfde e73d 7a91 03be
00000050: 22e6 953d 21ab a3bc eaa3 c53c b739 32be
00000060: 977e b5bd 4127 f0bd dfb2 dcbd 3dc4 cb3d
00000070: 5b3b f8bc a4b0 023d 7e30 b5bd 730e 033e
00000080: 134a ee3d 15fc 9abd 4560 ccbd bf39 89bd
00000090: 3887 edbd 683c be3c baa0 f33d caa5 8f3c
000000a0: b2a4 cfbc 59a4 17bd 5590 50bd 771b 12bc
000000b0: ac9d c73c 6333 843d 3782 463e bf85 9c3d
000000c0: 1a3f 9bbd 5155 d6bd c84d d9bd 8d3b da3d
000000d0: cc5e 853d e59f a5bd ff87 a9bd 7ee4 bb3d
000000e0: bf51 d43b 1766 d7bd 013c 15bd 6bdf d0bd
000000f0: 82cb 97bc 5a10 76bd ac29 e0bd 830d 85bd
00000100: de43 b4bc 7504 123d 26d1 a23a da8c 0f3d
00000110: e50b f2bb c995 a7bc 644c 7b3d 6bcd 5cbd
00000120: f9b4 033e 53a1 ecba 4e5c b83c 77e8 9b3b
00000130: db7d aabc 3528 a1bd 8377 bebd 6acd 18be
00000140: cac9 c03a c953 27bd c895 f9bd 2046 08be
00000150: 5a24 96bd faa3 613c ccc5 0b3e 66d8 6bbd
00000160: 9d8f e43d 4e8c 72bd fbcb d33d be96 993d
00000170: 7515 0dbe b79e 9abc a106 b9bd 4ac2 83bd
00000180: b1b9 d43d a011 ba3c cddd 1d3d ccb7 10be
00000190: ecb2 97bd 92dc ae3c f43f d6bd e1a2 73ba
000001a0: 8fe0 ac3d 136b 443d 362b 763d d93c fabd
000001b0: 974f a43d 3f81 41bc 40d7 513d 5bd0 d8bd
000001c0: 65d5 37bc abda c23b b217 78bc 8fc1 0f3e
000001d0: 6417 fb3d 6ba5 1cbd 1893 e73d fbc7 2ebd
000001e0: e292 90bd faf6 103d 9e61 8b3d 17bb fdbc
000001f0: 928b ea3d 859b 8f3d a576 a7bc cd82 59bb
00000200: 4ffe b33d 580c c7bd a755 033e abd1 febc
00000210: a5f9 44be 98c8 e0bd 084c 38bc b1fe 1d3e
00000220: b3d9 c1bc f149 1bbe f1c1 db3d 1fd7 42be
00000230: 9572 80bd afea f7ba c2ba 9bbd 7f02 c23d
00000240: 4faa dc3d 49e8 4bbb 6af9 783d 635d 483c
00000250: 370c de3c 9929 b43d a350 9cbd 458c e8bd
00000260: aa36 1a3d 36e8 c1bc 6112 15be 470b 3bbd
00000270: 48bf ba3d 29be b0bd c256 20be 7f7e cd3c
00000280: a641 7a3d 8e37 ef3b ba04 2bbe 3ac5 0fbc
00000290: 8401 11be 8c88 e6bd ab46 63be 84f2 38be
000002a0: d067 5bbe 675a 503d daa4 1c3e 3630 cebd
000002b0: f7b4 f7bc b0dc 45be c9bd 82bd 0905 75bd
000002c0: f6db 46be 4cd2 cabc b43c b2bd 116c 1abe
000002d0: 5042 8c3d 27ed a33d 83a6 273d 4518 afbd
000002e0: 4d54 ea3d 0b32 e8bd 1462 03be 9f28 bd3b
000002f0: afbb a1bd 771c 613d 9260 a1bc 050c b5bc
00000300: 1d0d 84bd 5557 6e3a 34b5 0bbe 2fb7 f6bd
00000310: b3e0 c9bd 0fcd 833c dbf5 1dbe 126c dabc
00000320: 9ad6 633d 4635 133d d1fc e4bd d1e9 013e
00000330: 7e0b b4bd f6ac c53d 0418 6f3c 3365 2f3b
00000340: a778 903d 12e6 c3bb 112b 49bd 6a86 a93d
00000350: df04 b4bd 9e0c 09be c8f4 bc3d 0513 ebbd
00000360: 847f 3e3d c2c6 023e 85ad 72bb 1faf 01bd
00000370: b079 fc3d 8a71 3c3c 6e9c d53d f814 073e
00000380: 2944 173d 165d c3bd c94b 563d 57fa 073e
00000390: 9048 d8bd 5d81 6bbd feed 103c 09bc c63d
000003a0: 58ed acbd 4178 a53d f608 ba3d 026b 1fbe
000003b0: 11be cbbd c510 d73d ed2a 83bd 3137 e9bc
000003c0: ac63 b03d 69a9 863d b286 bd3d a19a debd
000003d0: c05f 35bc 061b 09be 4a47 583d 9de2 893c
000003e0: 10e0 afbd 36de f3bd c449 8e3c 7ed4 bbbd
000003f0: bd54 00be 93cd 0cbd ebb1 e33c 056f 07be
-0.13303661 -0.06934013 -0.095004715 0.053519428 0.10333172 -0.055588834 0.009465483 -0.055498913
-0.07209439 0.077388205 0.04558827 -0.034220137 -0.08503159 0.086669184 -0.010270629 0.11753014
-0.10200577 0.019934742 0.11321782 -0.12848464 0.07319285 -0.019979062 0.024126012 -0.17404829
-0.08862036 -0.11726237 -0.107763045 0.09949539 -0.03030174 0.03190674 -0.0884714 0.1279848
0.11635222 -0.07567612 -0.099792995 -0.06700467 -0.115980566 0.023222163 0.118958905 0.01753511
-0.025347088 -0.03702197 -0.050918896 -0.008917681 0.024367176 0.06455114 0.1938561 0.076426975
-0.07580395 -0.104654916 -0.10610539 0.1065589 0.06512222 -0.08087138 -0.08277892 0.09174441
0.0064794715 -0.10517519 -0.036434177 -0.101988636 -0.018529657 -0.060074188 -0.10945448 -0.06496718
-0.022005018 0.03564878 0.001242195 0.035046436 -0.007386672 -0.020457165 0.06135215 -0.05390684
0.12862004 -0.001805345 0.022504952 0.0047579366 -0.020811966 -0.07868997 -0.09300139 -0.14922109
0.0014708575 -0.040851388 -0.12186772 -0.13308 -0.07331152 0.013772005 0.13649672 -0.05757942
0.111602046 -0.059215836 0.103416406 0.07499455 -0.13777716 -0.01887451 -0.090344675 -0.06433542
0.1038698 0.022713482 0.038541604 -0.14132613 -0.074071735 0.02134541 -0.10461417 -0.0009293985
0.08441269 0.047953676 0.060099803 -0.12218637 0.08022993 -0.0118106 0.05123067 -0.10586616
-0.011220311 0.0059464774 -0.015142368 0.1403868 0.12260321 -0.038243692 0.11307353 -0.042671185
-0.07059266 0.035391785 0.068057284 -0.030973 0.11452402 0.07012085 -0.020442316 -0.0033189536
0.0878874 -0.09719151 0.12825643 -0.031105837 -0.19235857 -0.1097576 -0.011248596 0.15429188
-0.023663377 -0.15164925 0.10730351 -0.19027375 -0.06271855 -0.0018914546 -0.076039806 0.09473132
0.10774671 -0.0031113795 0.060784735 0.012229296 0.027105434 0.087969966 -0.07632568 -0.11354879
0.037649788 -0.023670297 -0.14557792 -0.04566505 0.09118515 -0.0863002 -0.15658095 0.025084732
0.061097763 0.007300324 -0.16701022 -0.00877505 -0.14160734 -0.11256513 -0.22194926 -0.18061262
-0.2142632 0.050867464 0.15297261 -0.10067789 -0.030237658 -0.19322467 -0.06383855 -0.059819255
-0.19419846 -0.02475848 -0.087029845 -0.15080287 0.068485856 0.080042176 0.040930282 -0.08549551
0.1144186 -0.1133767 -0.12830383 0.0057726647 -0.07897126 0.054958787 -0.019699369 -0.022100458
-0.06447814 0.0009091993 -0.13643342 -0.12046658 -0.09857311 0.01608899 -0.15425818 -0.02666286
0.055624582 0.035939477 -0.111810334 0.1268685 -0.087912545 0.0965213 0.014593128 0.00267632
0.070542626 -0.0059783543 -0.049113337 0.082775906 -0.087899916 -0.1338372 0.09226376 -0.11478237
0.046508327 0.12771133 -0.0037029695 -0.03166115 0.123278975 0.011501679 0.10430227 0.13191593
0.036930237 -0.09539239 0.052318368 0.13279091 -0.10560715 -0.057496417 0.008845804 0.097038336
-0.08443707 0.08079577 0.090837404 -0.15568164 -0.09948362 0.105012454 -0.06404672 -0.0284687
0.08612761 0.06575281 0.09254207 -0.10869337 -0.011070192 -0.13389215 0.05280236 0.01683169
-0.085876584 -0.11907618 0.017369159 -0.09171389 -0.12532325 -0.03437574 0.027794799 -0.13225944

block2.bnorm_2.weight f4 [15]
00000000: d38e 793f 6ed1 933f 2211 823f e86f 7a3f
00000010: 3fb8 6d3f ddc2 7c3f 98e0 793f 1f28 853f
00000020: 2833 6e3f 3312 803f 8421 7e3f 9a87 823f
00000030: e8b8 7e3f 7dd2 783f 48c9 843f
0.9748356 1.1548288 1.0161479 0.97827005 0.9285926 0.9873484 0.9760833 1.0402869
0.9304681 1.0005554 0.9926989 1.0197632 0.99500895 0.9719618 1.0373926

block2.bnorm_2.bias f4 [15]
00000000: 2c03 a2bd 6675 2bbd 688f 4abd b055 7cbd
00000010: 04f2 67bc 6277 1dbd 36a1 5cbd 2ffa dcbb
00000020: 3e1e 8fbd 33ce 36bd 85f9 b0bd 7f8b ecbc
00000030: ccc1 eabb 535d c9bd e048 323b
-0.07910761 -0.041860007 -0.04945317 -0.061605155 -0.014156822 -0.03844393 -0.05386468 -0.0067436914
-0.0698819 -0.04463024 -0.08641342 -0.02887511 -0.0071642157 -0.09832253 0.0027204081

block2.bnorm_2.running_mean f4 [15]
00000000: 6cdb cabe 6a13 8abf 2bcd 37bf 4a6e 4fbe
00000010: 3b2e fbbd bb87 86be 3cf6 99be dd3e 7abe
00000020: 0cbe 2d3f 79df 693e 5357 7e3e 7d10 c1be
00000030: 3bf2 11bf 9e45 b0be d9d3 bdbe
-0.3962053 -1.0787175 -0.71797436 -0.20256916 -0.12264677 -0.2627543 -0.30070674 -0.24438043
0.67868114 0.22839154 0.24837999 -0.37707892 -0.5701024 -0.34428114 -0.3707569

block2.bnorm_2.running_var f4 [15]
00000000: b30c 093f ada0 1240 389b 943f ac52 313f
00000010: 5916 bf3f 533f 333f 01d5 973f 0216 003f
00000020: 695d d53f 5a74 413f 4467 5d3f 27e8 183f
00000030: 379d 6d3f ebf6 5b3f 49ea ef3e
0.53535 2.2910569 1.1609869 0.6926677 1.4928695 0.700185 1.1861879 0.5003358
1.6669132 0.75568163 0.86485696 0.59729236 0.92818016 0.8592364 0.46858433

block3.conv_3.weight f4 [30, 15, 10]
00000000: 36bf ac3c 5e7f b6bc 9301 abbd a212 e13c
00000010: 43cf 1bbe 9b68 1ebd 01c4 eb3c 4843 2fbd
00000020: 880e 8d3d a0a2 b23c 506b ad3d 4b23 c6bd
00000030: e16a e2bc 31fe cd3d f1a5 9b3c 584a e53d
00000040: 5dd5 af3c 5e95 47bd d3fc 883d ba77 16bd
00000050: 191c 493d a6bd 6fbb d4da 013d 418e 18bd
00000060: 52d8 f93c 91c0 003e 012d 9cbb cde7 b0bc
00000070: f87d c8bb 57b0 b3bc b94b a0bd 58d0 73bd
00000080: 3b05 c9bd 3adc 87bc 99ee 9ebd 7ca0 ebbd
00000090: 53cd 9d3d a073 da3d bdb3 023e 2383 ba3d
000000a0: a0f1 73bd af5f 22bd c80e b4bd 04ae bdbd
000000b0: 0d7d a6bd a312 313d 6109 253d 3c59 223d
000000c0: 5773 a13d 13a5 ba3c ff7a f2bd c2e8 373d
000000d0: fc4e bc3c bf7b 5f3c 13d0 493d d825 0dbd
000000e0: 95af 8f3c b98a 87bd 4674 303c 687d b6bd
000000f0: 3195 6bbd 7f71 823d 9ed6 8f3d 8f94 333d
00000100: acf1 463b 1db3 713d b95b ff3d 5286 763c
00000110: f8e5 53bd 6c72 0dbe 3241 a03d 470a bd3c
00000120: 9fb6 58bd b7df 04bd 31fa f53d eba2 413e
00000130: 48dd fa3d ca4b 3e3d 7022 f2bc c921 5cbd
00000140: 331b 363d 6176 90bb fb69 753c ab17 f6bd
00000150: 8990 323d 2282 3a3d 4d58 7c3d 5749 343c
00000160: e266 de3d 2df6 0b3d 0659 0cbe caa3 99bd
00000170: 23b6 95bd 4ced 813d 98d8 92bd 1ef7 0fbc
00000180: ea36 e9bd 6e83 e2bc fd13 f9bb 68f2 b23d
00000190: 4664 d4bd 37d9 95bd f325 6d3c 56dc eebb
000001a0: 77d6 bbbd a9bb 6dbd 2c54 b23c 2c79 96bd
000001b0: 245d d23d 5462 6fbd 0b7a 94bd 5f04 13bc
000001c0: 3b33 b73d 6947 a33d 4a7f a7bc 06f7 2abc
000001d0: 2f77 46bc 237c d0bc ac6a f33c cccb 6bbc
000001e0: 98b4 a0bd acd0 db3d 8ace 293d bd12 2cbc
000001f0: 808c 06be 80e2 9fbd f152 9c3c 3d96 72bd
00000200: 35e8 58bd 7361 163e 950b 923d fb4f ab3d
00000210: 123f 6abd be30 8c3d 24a7 d03c 3ddc 983d
00000220: 8bee fbbc 04f3 1bbd 3f36 7f3d 25e3 f93d
00000230: edd5 efbc e158 c83d 3a90 babb d00f 7abd
00000240: cfc4 163d d592 3abc 6a48 5bbc 4e4a 023e
00000250: 840d c23c 5e40 a03d 878f 7d3d 0fbe 97bd
00000260: e347 bcbd b0df 00bb a161 8e3c 6aa1 993d
00000270: 410f 46bc 6f54 cabc 9dc3 d4bd 077b a1bb
00000280: 9de9 123e 82cf d93a fcff 81bd 102a d6bd
00000290: efe4 55bd e304 f83c dbf5 993d 461f 8dbd
000002a0: f0d4 b43c 5022 20bd bddb 94bc 880a 573c
000002b0: a2d1 4abc d366 a33d 2116 5a3d c3cc 39bd
000002c0: 68c5 d9bc aff4 fe3c b087 dabd 1783 b13c
000002d0: 1e68 31bd 2186 b13d 5152 b9bd e4c8 643d
000002e0: 008a d93b cffa 7c3d 799d 02be 36ee 3dbd
000002f0: 2b1d d9bd d994 1a3c 2e3e d7bd 13a1 e53a
00000300: 855f 6bbd a314 913c 2d24 75bd deb3 4abd
00000310: 524e d3bd 5620 b53d 3d26 88bd a76c 303d
00000320: f7b4 563d a910 013e ec69 9c3d 532e e03b
00000330: 1e6c 93bd df37 e2b9 f1f6 d2bd 1ded 393d
00000340: 077c 49be 42d8 17bd 88fc 5ebd 5791 9c3d
00000350: 7602 7b3d bba0 c4bc af36 c33c 2be7 6abc
00000360: 9ba4 4ebd 6014 bfbb e858 abbd 88d7 d63d
00000370: 4116 85bd a3e2 0b3d fcf7 48bc 8979 a93d
00000380: 3058 e7bd 25bb c5bd 6635 a5bd db62 28be
00000390: e4ff be3d 8203 a33d 8143 99bd 6214 773d
000003a0: a456 493d 8def e8bd f35a 963d 862d d1bb
000003b0: 35d0 9a3d 7df3 743d 3ba3 f3bd 0240 983d
000003c0: 98aa 083e ca69 a73c 8938 013c 00f6 1a3d
000003d0: 841d 9cbd 8a0a 10bd 35ac ae3d c7e4 d2bc
000003e0: ca54 bbbd 330c b3bd a194 b3bd f7fe fabd
000003f0: fcf7 0a3b f1f7 0b3d 6d5d c9bd 99f8 f6bd
0.02108727 -0.02227753 -0.0834991 0.027474705 -0.15215783 -0.03867398 0.028779985 -0.042788774
0.06887537 0.021806061 0.08467734 -0.096747 -0.027638854 0.10058249 0.019000025 0.111958206
0.021464044 -0.048726432 0.066888474 -0.036735274 0.04909906 -0.0036581545 0.03170283 -0.03724504
0.030498657 0.12573458 -0.004766107 -0.021594906 -0.0061185323 -0.021934671 -0.07826943 -0.059524864
-0.09815451 -0.016584504 -0.07760353 -0.11505219 0.07705178 0.10666585 0.12763877 0.091070436
-0.059556603 -0.039642032 -0.08791882 -0.092617065 -0.0812932 0.043230664 0.040292148 0.03963588
0.078833275 0.022783792 -0.11839866 0.04489971 0.022986881 0.013640343 0.0492707 -0.03445992
0.017539779 -0.06618256 0.010769909 -0.08910638 -0.057515327 0.06369304 0.07023357 0.04384285
0.003035645 0.059008706 0.124686666 0.015046673 -0.051732987 -0.1381318 0.07824935 0.02307619
-0.052908536 -0.032439914 0.12010611 0.18909805 0.12249237 0.046458997 -0.029557437 -0.053743158
0.044459533 -0.004408643 0.014978881 -0.12016233 0.04359487 0.04553426 0.061607648 0.011003814
0.10859467 0.03417032 -0.13705835 -0.075019434 -0.073101304 0.06344089 -0.07170218 -0.008786945
-0.11387427 -0.027650561 -0.0076012597 0.087376416 -0.10370688 -0.07316821 0.01447438 -0.0072894497
-0.09171765 -0.058040295 0.021768652 -0.073473305 0.102716714 -0.058443382 -0.0724984 -0.00897321
0.08945318 0.07972605 -0.020446438 -0.010434872 -0.0121133765 -0.025449818 0.029713951 -0.014391851
-0.078469455 0.107331604 0.041456737 -0.010502514 -0.13139534 -0.07806873 0.019082518 -0.05922531
-0.052955825 0.14685611 0.07131115 0.083648644 -0.057189055 0.06845234 0.025470324 0.07463882
-0.030753395 -0.038073555 0.062307592 0.122015275 -0.029276812 0.09782577 -0.0056934627 -0.061050236
0.036808785 -0.011387547 -0.013383964 0.12723657 0.023688085 0.07824777 0.061904456 -0.07409298
-0.09193399 -0.0019664578 0.017380537 0.075014904 -0.012088598 -0.024698464 -0.10388873 -0.004927996
0.14346929 0.0016617628 -0.06347653 -0.104572415 -0.05222028 0.030275768 0.07517596 -0.068907306
0.022074193 -0.039095223 -0.018171186 0.013125069 -0.012379082 0.079785965 0.05324376 -0.04536129
-0.026583388 0.031122534 -0.106704116 0.021668954 -0.043312185 0.08668161 -0.09048904 0.055855647
0.0066387653 0.061762627 -0.12755384 -0.046369754 -0.106012665 0.009434902 -0.10509907 0.0017519317
-0.05746414 0.017710036 -0.059848953 -0.04948794 -0.10317673 0.08844058 -0.066479184 0.04307237
0.052418675 0.12604012 0.076373905 0.00684146 -0.07198356 -0.00043147706 -0.103010066 0.045392144
-0.19676219 -0.037071474 -0.05444005 0.07644909 0.061281644 -0.024002424 0.023829786 -0.014337341
-0.05044995 -0.0058312863 -0.08366567 0.10490328 -0.06498385 0.034151684 -0.012266155 0.08275134
-0.11296117 -0.096548356 -0.080668256 -0.1644396 0.09326151 0.079596534 -0.074835785 0.060322173
0.049154893 -0.11373816 0.07341566 -0.0063836006 0.075592436 0.05980252 -0.11896368 0.074340835
0.13346326 0.020436186 0.007887014 0.03783226 -0.07622817 -0.0351663 0.0852894 -0.025743855
-0.091470316 -0.08742561 -0.08768583 -0.12255662 0.002120494 0.034172002 -0.09832273 -0.12059135

block3.bnorm_3.weight f4 [30]
00000000: 0a31 853f 9699 813f fb20 823f 7f3c 773f
00000010: 030d 803f 5b0c 833f 2985 7c3f 5803 7b3f
00000020: c13c 863f 8ec8 8b3f 26bc 6c3f f347 773f
00000030: 8d6c 853f f5de 863f 4821 853f fc52 813f
00000040: cdb1 8d3f 937f 813f aeac 783f 83d3 7c3f
00000050: ba67 753f 298e 873f adad 753f 6b1d 883f
00000060: 28fa 793f 15be 923f e92f 8b3f 5b89 763f
00000070: d5ed 793f 065a 7a3f
1.040559 1.0124996 1.0166315 0.96576685 1.0003971 1.0238146 0.98640686 0.9805198
1.0487291 1.092058 0.9247459 0.9659416 1.0423752 1.0536791 1.0400782 1.010345
1.1069885 1.0117058 0.9713849 0.9876024 0.958614 1.0590259 0.95968133 1.0633978
0.97647333 1.1464258 1.0873996 0.9630334 0.9762853 0.97793615

block3.bnorm_3.bias f4 [30]
00000000: 6702 bdbd 75ca 14be 657d d8bc 28ed f6bd
00000010: c68a 4fbd 8a6b 4dbc 00aa 1abe 7fc0 b2bd
00000020: 8379 24bc 2460 a8bd 1afe 2dbe 721f d6bc
00000030: 861b 21bc 3e4e 99bd 8bf8 22bd 98e0 c9bd
00000040: 60c6 97bc 0bc6 edbd 9e56 acbd 9107 2bbb
00000050: a735 a5bc 5a1d 91bd cde8 73bd 5088 95bd
00000060: efee 7fbc 0bbe bfbd 2b6a 673c 3556 7bbd
00000070: 770a e0bc 13f2 8cbd
-0.09228974 -0.14530356 -0.02642698 -0.12056953 -0.050669454 -0.012537846 -0.15103912 -0.08728122
-0.010038736 -0.08221462 -0.16991463 -0.026138041 -0.009833222 -0.07485627 -0.03978781 -0.09857291
-0.01852721 -0.11610039 -0.084149584 -0.002609704 -0.020167185 -0.070856765 -0.059548188 -0.0730139
-0.015620931 -0.0936242 0.0141244335 -0.06136151 -0.02734874 -0.068821095

block3.bnorm_3.running_mean f4 [30]
00000000: b295 5c3e be28 13bf b756 28bd 1709 5bbe
00000010: c1ec ccbd df2a d3be 50cd 75bc ca17 353f
00000020: 92d6 35bf 3285 7ebf 5bd3 1cbe a113 c8be
00000030: 2939 eabe 0b1f a5be d725 1fbf a27e e0be
00000040: 2ec7 30bf 7ec3 42bf 1a58 97be e8f7 03bf
00000050: 06ac d93e 7c2c 91bb 71f0 8cbe ccc4 43be
00000060: d8da d43d 15d2 04bf 415c 9cbe 56e3 96be
00000070: 4858 5fbf 97a2 dfbe
0.21541479 -0.5748404 -0.041098323 -0.21390186 -0.10006095 -0.41243646 -0.015002564 0.70739424
-0.71030533 -0.9942199 -0.15315 -0.39077476 -0.45746735 -0.32250246 -0.62167114 -0.43846613
-0.69053924 -0.7607955 -0.29559404 -0.5155015 0.42514056 -0.004430352 -0.27527192 -0.19118041
0.10393304 -0.5188306 -0.30539134 -0.2947032 -0.8724408 -0.43678734

block3.bnorm_3.running_var f4 [30]
00000000: 6ad0 cd3e b0bb f13e bb70 f03e aa98 e53e
00000010: 6b22 b13e 28c6 933e 4233 a33e 4de8 c43e
00000020: 34ba 9f3e ab90 623e 1bd1 973e 5e1e 1d3f
00000030: 2d62 1c3f 3f10 ba3e dbe7 a63e cfba 083f
00000040: 5c2c 673e e649 113f 5571 d63e 4df3 b93e
00000050: a538 e43e 02de bd3e 1063 c43e 8d93 ac3e
00000060: 55d0 ba3e 069c 8c3e 9018 853e 9455 cb3e
00000070: 414e 093f 53a7 103f
0.4019807 0.47213507 0.46961007 0.44843036 0.3459657 0.2886212 0.31875044 0.3845848
0.3119675 0.22125499 0.29651722 0.6137446 0.61087304 0.3634052 0.32598767 0.5341005
0.22575516 0.56753385 0.4188334 0.36318436 0.44574466 0.3708344 0.3835683 0.33706322
0.3648707 0.27462786 0.25995302 0.39713728 0.5363503 0.56505316

block4.conv_4.weight f4 [30, 30, 10]
00000000: 21cf d9bc 7c27 2dbd d276 eb3c e096 95ba
00000010: 24f1 b83d d72d 863c 140d 3f3c 717f 473d
00000020: 8eca 5f3d e4b5 fdbc d915 91bc e6b5 b4bd
00000030: f592 583d 2d75 76bd 2bbb 353d 131a 9cbc
00000040: 1296 89bc 71ff 2abd eb5c 72bd a9f1 153c
00000050: 36a0 613d 4dcd 863d ae17 b1bd 8073 b5bd
00000060: 1a12 733d e9c6 80bd 1705 8abd 2bb2 92bd
00000070: ca7a a03c 7e9a 2b3d 23cb 9bbc 4789 43bc
00000080: 8550 fabc 06fd 8e3d 1bcf 94bd 4771 aabd
00000090: 79c6 983d 7ab3 2cbd b3fd 26bd 93ae f53c
000000a0: 1402 97bd f01f 843d 0d84 a1bd 47ae 653d
000000b0: 8648 ff3c 7cd6 913d 3d0d f73c 8e7e 1abc
000000c0: 10c8 c3bd 07d0 f5bc 4d53 ff3b dee5 503d
000000d0: 07f3 523d a34b 753d 4b17 33bd 24d6 78bd
000000e0: 8804 3ebd a4b4 953c ab73 d13d 353b 133e
000000f0: f45f 073d a915 9f3c d1a6 dc3d 87a5 4a3d
00000100: 6818 62bd 4217 503d f536 45bd a122 acbc
00000110: 1838 e8bc 1248 1fbd 1121 c23c 9886 6b3d
00000120: 4683 a2bc 7eae 063c 8267 b63c 6126 123d
00000130: a5e9 02bd f0e8 9f3b 8eb7 aa3c c8a6 b6bc
00000140: 7cb5 d5bc 3068 e0bd f87e 863d 3a4a 6abd
00000150: 38fe b7bd a1b3 d63b a879 f73c b971 823d
00000160: f844 05bd b6eb c23c 4f37 9e3d 5ed4 233e
00000170: 8734 9b3d 90fc 9bbd 3558 70bc 2367 39bd
00000180: aefe 633c 4cfd e3bb 294d abbd cda8 0ebd
00000190: 8f72 d9bb 4bba 79bd 9d0f e03c 7fbe f5bd
000001a0: 5bcf 78bd 72c1 85bc afb2 f93c 0cd3 8b3d
000001b0: 3bf0 80bc d996 723c 4f4f 873b e86a e2bd
000001c0: cccf 8ebd f215 79bd 1513 3e3d 67c5 1cbd
000001d0: c34c 533d 9d00 7a3d 9b68 54bd 595f 943b
000001e0: 9049 1c3d d304 8cbd 3a31 02bd 0500 83bd
000001f0: e218 c53d 053d 833d bb17 0c3d d249 f4bd
00000200: 51b2 61bd 2106 683d 4402 85bd dc18 e7bd
00000210: fbdc 0abd e387 82bd 109c 483b 1b55 3c3d
00000220: 4dc3 5b3d 7c84 d5bd 8ddd 09be 6bff ca3b
00000230: e1d3 abbd 1a6e 87bc 25c2 77bd 5597 8cbd
00000240: 2960 a23c b479 c33d ac6f 893b c4a7 5b3d
00000250: e516 853d a872 a03d 2242 c73d bc36 ef3b
00000260: e751 853d af13 123d a649 dc3d 123f 983c
00000270: f59f 8fbc 8a64 e6bd ff54 093c 5124 c1bd
00000280: 7325 323d ae20 50bc e27c 5a3d 2a35 f6bd
00000290: 3a7a 6fbd a136 2f3d 04a8 2b3d 4a89 033d
000002a0: 07db cd3d 1049 8e3d 035e a4bd 7519 d1bd
000002b0: 65b5 183d 98f5 85bd 0471 b83d dc9c 693d
000002c0: abc1 c33d 6038 64bd f638 a13c 2178 39bb
000002d0: 4dd6 673d fdab 49bd fa0b cbbc f28c d33d
000002e0: e553 013d 63ac c03a 484e fabd 2f79 a1bd
000002f0: e85e 773d 4708 a93c 84c5 943c b36a c43d
00000300: 0205 0e3d 0c27 6cbc 5f77 94bd a099 5cbd
00000310: 4b25 dbbd 09c5 3dbd 36b2 35bd cbf3 f63b
00000320: 191d 37bd 2cc7 2fbc ae70 8b3c 7369 8dbd
00000330: bebc a0bc c6c3 b9bd 853b c7bd 3246 623d
00000340: 098e 00bd 0793 423d 542a 90bd b8ce 203c
00000350: 7f03 fc3c 02d7 d539 fdd0 ce3d d5e6 9cbd
00000360: 45e8 48bd 818d d1bd 9680 8ebc 811b 9abd
00000370: fc10 213d 3b50 0cbd 42e7 18bd b070 703c
00000380: 73fe a9bc 92de a2bd f6a8 c43d 2786 983d
00000390: 1e75 7b3d d5c2 fd3b 2ce8 e13c 8c87 b3bd
000003a0: dd13 2d3d 323c d2bc 1216 843d 1f55 43bd
000003b0: 3fdc e13c 759b 9bbc 1d8d 3b3e f716 2e3e
000003c0: cb78 92bd 60b6 ac3d 9e17 073d 0f0e da3c
000003d0: 96e5 86bd 7ef5 8a3d 1bcf f03b ca96 bb3c
000003e0: 318c c73c d76c 213e 50ab f2bb b2be 9dbc
000003f0: 6d17 173d 9598 b5bd ea89 2bbd 1874 27bd
-0.026588025 -0.042273983 0.028743181 -0.0011412762 0.09030369 0.01637928 0.011660833 0.048705522
0.05463653 -0.030970521 -0.017710613 -0.08823757 0.052874524 -0.06017034 0.04436795 -0.019055402
-0.016795192 -0.041747514 -0.059170645 0.009151855 0.05508443 0.06582127 -0.08647095 -0.088599205
0.059343435 -0.06287939 -0.06739252 -0.07162889 0.0195898 0.041895382 -0.019017762 -0.011934585
-0.030555973 0.06981854 -0.07266065 -0.08322387 0.07459731 -0.04216335 -0.04076929 0.02999047
-0.07373443 0.06451404 -0.07886515 0.056074407 0.031162512 0.07120988 0.03015768 -0.009429587
-0.09559643 -0.030006422 0.0077919126 0.05100047 0.0515013 0.059886586 -0.043723386 -0.060751095
-0.04639104 0.018274613 0.1022714 0.14378054 0.033050492 0.019419508 0.10774005 0.049474265
-0.055199057 0.05080343 -0.048148114 -0.021012606 -0.02834706 -0.03888709 0.023697408 0.057501405
-0.019837987 0.008220313 0.022266153 0.035681132 -0.031961102 0.0048800632 0.020839479 -0.022296324
-0.026087515 -0.10957372 0.06567186 -0.057199694 -0.08984035 0.006552175 0.030209377 0.06369347
-0.032536477 0.023794036 0.07725393 0.1599898 0.07578378 -0.07616532 -0.014669468 -0.045264374
0.013915701 -0.0069576856 -0.083643265 -0.03482895 -0.006635971 -0.06096868 0.027351195 -0.11999225
-0.060744625 -0.016327593 0.03048071 0.06827363 -0.01573955 0.014806473 0.0041293274 -0.11055547
-0.06973228 -0.060811944 0.046404917 -0.038274195 0.051586878 0.06103574 -0.051857572 0.004527968
0.038156092 -0.06836858 -0.031785227 -0.06396488 0.09623887 0.06408123 0.03420232 -0.119281426
-0.055101696 0.05664647 -0.06494573 -0.112840384 -0.03390215 -0.063735746 0.0030610599 0.0459796
0.05365305 -0.1042566 -0.13463421 0.006194999 -0.08390022 -0.016531993 -0.060487885 -0.06864802
0.019821243 0.095446974 0.0041942205 0.05362679 0.064985074 0.07834369 0.09729411 0.007300226
0.06509762 0.035663303 0.10756235 0.018584762 -0.017532328 -0.11249645 0.008382081 -0.09430755
0.043492746 -0.012703104 0.053341754 -0.12021859 -0.058466174 0.042776708 0.04190828 0.03211335
0.10051542 0.06947529 -0.08025744 -0.10209934 0.037282366 -0.06540984 0.09005931 0.05703436
0.095584236 -0.055717826 0.019680481 -0.0028300362 0.056600858 -0.049236286 -0.024785984 0.103296176
0.03157415 0.0014699813 -0.12221962 -0.07884442 0.060393244 0.02063383 0.018160589 0.09590664
0.034672745 -0.014413606 -0.07249331 -0.053857446 -0.107004724 -0.046330485 -0.04435941 0.0075363866
-0.044705484 -0.010728639 0.017021503 -0.069048785 -0.01962125 -0.09070544 -0.09728149 0.055242725
-0.031385455 0.047503497 -0.070393234 0.009814911 0.030763386 0.0004078672 0.10098455 -0.07661215
-0.049049634 -0.10232068 -0.017395299 -0.07524777 0.03932284 -0.0342562 -0.03732992 0.014675304
-0.020751214 -0.07952608 0.09602539 0.074474625 0.06139099 0.007744173 0.027576528 -0.08766088
0.04225527 -0.025663469 0.06449522 -0.0476886 0.027570842 -0.018995026 0.18315549 0.17000948
-0.07151946 0.08433223 0.032981507 0.026618032 -0.06586759 0.06785105 0.0073489076 0.02289905
0.02435884 0.15764175 -0.007405676 -0.01925597 0.036887575 -0.08866993 -0.041879572 -0.0408822

block4.bnorm_4.weight f4 [30]
00000000: adf9 873f 4a3e 873f 35f9 7f3f f210 873f
00000010: d574 863f e855 8c3f 4761 8c3f a033 863f
00000020: 4345 873f cfbb 823f d0cd 963f 0f5d 803f
00000030: c8bf 893f db30 833f a759 893f cce7 873f
00000040: f458 883f 64ee 833f da71 8b3f f0a0 873f
00000050: 65c2 863f f17f 883f 2410 a23f 689d ac3f
00000060: 2bb1 833f 9dd7 823f f60a b03f 546a 8d3f
00000070: 2e01 883f 9556 843f
1.062307 1.0565884 0.99989635 1.0552046 1.0504404 1.0963717 1.0967187 1.0484505
1.0568012 1.0213565 1.1781559 1.0028399 1.0761652 1.0249285 1.0730485 1.0617614
1.0652146 1.0307126 1.089412 1.0595989 1.0528075 1.0664045 1.2661176 1.3485537
1.0288442 1.022205 1.3753345 1.1048074 1.062536 1.0338923

block4.bnorm_4.bias f4 [30]
00000000: 28c5 e1bc 19ff 8b3b 9bed 0abd e5d4 1bbd
00000010: 32df 01bd d849 f53b cd89 9d3c d569 e5bc
00000020: e2d6 463c a894 e0bc 54fb 50bd ca71 c0bc
00000030: 47a4 eebc 5f66 87bc 3e06 2b3c fc13 8a3c
00000040: 815a d6bc 3c9e b2bc 10f3 20bd 9204 df3b
00000050: e5cd 6a3c 0fcc b83c d878 e3bb ba6b d1bc
00000060: 403d f2bc 0d5e d1bc d140 7dbc 6895 8d3c
00000070: 5955 9a3c 5a11 e9bc
-0.027559832 0.0042723534 -0.033918004 -0.03804483 -0.031706996 0.0074856095 0.019230748 -0.028004566
0.012136193 -0.027414635 -0.051020935 -0.023491759 -0.029131068 -0.016528307 0.0104385 0.016855232
-0.026166203 -0.021803968 -0.039294302 0.0068059647 0.014331316 0.02255824 -0.006941896 -0.025564063
-0.029570222 -0.025557542 -0.015457348 0.017283157 0.018839525 -0.028450657

block4.bnorm_4.running_mean f4 [30]
00000000: 0ab6 9d3b bba5 33bf 215b 10be 735b 223d
00000010: 0cf8 b43e c4b4 5f3f 54c5 71be 018e 8a3f
00000020: f6e6 243e 4167 373f 3e18 603e d496 01bf
00000030: 10c9 873e 5429 ac3e affe 87be d3e3 20bf
00000040: 67f7 ef3e 02df f8be 8e11 273e 7c09 823f
00000050: b390 0340 2d28 21bf 1e82 0c3f e5dd 2dbf
00000060: ff91 20bd fc50 42bd 74e8 7c3d 11ac c1be
00000070: 3bff 043f 8bdf 053f
0.0048129605 -0.7017476 -0.14097263 0.039637994 0.35345495 0.873852 -0.23610431 1.0824586
0.1610373 0.7164193 0.21884248 -0.5062077 0.26520586 0.3362528 -0.26561496 -0.6284763
0.4686844 -0.4860764 0.1631529 1.0159144 2.0557067 -0.6295193 0.54886043 -0.6791671
-0.039201733 -0.047440514 0.061745122 -0.3782659 0.5195195 0.52294225

block4.bnorm_4.running_var f4 [30]
00000000: 0278 0e3f e50f 3c3f 0c5e 1e3f d74f a63e
00000010: 3518 9b3e 542d 893e e32d d53e 109e ea3e
00000020: 3263 593f d838 b63e 63c7 dd3e 1415 e23e
00000030: 0146 233f 28da ef3e 5838 f73e 3007 1e3f
00000040: 440a 8c3f 512d 363f b377 fa3e ee5e 023f
00000050: d451 563f 0ea2 033f 0263 df3e b723 8e3e
00000060: a736 c73e c34d ee3e c1b6 003f 1b30 dd3e
00000070: 3902 d93e 547d bf3e
0.5565187 0.73461753 0.61862254 0.32482788 0.30291906 0.26792395 0.4163657 0.45823717
0.84916985 0.35590243 0.43316182 0.44156706 0.6377869 0.46846128 0.48285174 0.6172972
1.0940633 0.711629 0.48919448 0.509261 0.8371861 0.5141915 0.43630224 0.27761623
0.38908884 0.46543702 0.5027886 0.43200764 0.42384508 0.37400305

conv_channel_res.weight f4 [1, 30, 3]
00000000: 7487 203d e416 72bd b15e b3bd 54c6 87bc
00000010: e744 b93d ffd1 8e3d 93cd 74bc 2057 e8bd
00000020: 498b c0bc bb08 1abe 2b9f 26be cd74 14be
00000030: b450 0abe c1b2 15be d453 13be 517e 91bc
00000040: 2946 2c3e fba3 4b3e 3a62 1d3e 47c8 63bc
00000050: 0750 e63d db13 2bbd 08f3 c8bd 2518 10be
00000060: 66ce b53c 738d 903d 85a7 b03d b653 dcbd
00000070: 0a9a 81bd ed42 f8bd b104 f33d 7e68 cbbd
00000080: bc42 5b3c a190 3abd e869 c4bd 260e 22bd
00000090: 6637 1e3d 6121 edbc 3ec5 febd 543b f7bd
000000a0: 78d4 c9bd 7c84 dcbd 3bcc cdbc 39fd 083e
000000b0: 2210 213e e619 07bc 48b4 943d bd13 083e
000000c0: 545c 013d 0312 d4bd 5700 10be 8806 59bd
000000d0: 306f 32bd 12c7 efbd 1b6b ffbd 9e9b aa3d
000000e0: d7c2 28bd 9f20 603c c213 143e 07af 103e
000000f0: 5867 af3d 6800 053e 3028 5e3d 90bb cf3d
00000100: 1042 f13c 3825 183e ca9b 2a3e 1bdb 83bd
00000110: db0f 8abd 0ceb 18bd 7acb b9bd 1e67 043e
00000120: 9016 f9bc 0c61 0cbe 2572 46bd ba49 53bd
00000130: 0399 95bd 390a 10be 9f75 b93d 1836 6fba
00000140: 7792 19be 4132 2dbd 32dc f63d 5a3b ba3d
00000150: cd0d 013e e23f d33d c438 843d c1e7 e5bd
00000160: 8079 6bbc 93ac 9cbd
0.03919168 -0.05910386 -0.08758295 -0.016574062 0.09046345 0.06973647 -0.014941591 -0.11344743
-0.023503916 -0.15042393 -0.16271655 -0.14497681 -0.13507348 -0.1461897 -0.14387447 -0.017760428
0.16823639 0.19886772 0.15369502 -0.01390273 0.11245733 -0.041766983 -0.098119795 -0.1407171
0.022193145 0.07058229 0.08625702 -0.10758154 -0.06328209 -0.1212214 0.11866129 -0.0993204
0.01338261 -0.045548085 -0.095905125 -0.039564274 0.03862705 -0.02894658 -0.12439965 -0.12071863
-0.09854978 -0.10767457 -0.025121799 0.13377847 0.1572881 -0.008245921 0.072609484 0.1328878
0.03158219 -0.10354998 -0.1406263 -0.052984744 -0.043563068 -0.117078915 -0.124716006 0.08330463
-0.04120144 0.0136796525 0.14460662 0.14129268 0.08564633 0.12988436 0.054237545 0.101431966
0.029450446 0.14857948 0.16660991 -0.064382754 -0.067413054 -0.037333533 -0.09072013 0.12929961
-0.030406266 -0.13708895 -0.0484487 -0.051583983 -0.07304575 -0.140664 0.090556376 -0.0009125187
-0.14997278 -0.042284254 0.12053718 0.09093352 0.12602921 0.10314919 0.0645614 -0.11225844
-0.01437223 -0.076501034

classifier_conv.weight f4 [32, 1, 35]
00000000: 2db7 2cbd a1c4 b1bd 1f1f b4bc 7947 cfbd
00000010: 5091 b4bd 6d1f 38be 494c 62be 4f6b e8bd
00000020: 7f0c aebd 1392 e7bd 0b68 43be 5fc9 e3bd
00000030: 9323 2fbe 3064 3fbe 67f8 81be 73e2 88be
00000040: c866 47be 7b00 70be ed39 69be 3aeb 70be
00000050: 95cb 85be 9a43 6ebe a65b aebe 36b8 bdbe
00000060: 51aa 86be b8a1 b2be 3fee a9be 8122 aebe
00000070: 9a16 99be 2044 e0be 46ba 763e b22e 75bf
00000080: 3432 d93e a182 10be 07e7 2b3e f249 4d3d
00000090: 03d3 b93d 4b6b 0a3d 0c10 0d3e dd05 313e
000000a0: 5164 df3d 440b 0a3e 1556 003e fd63 8a3d
000000b0: bf39 393e 29a5 023e 8119 5d3e 7c64 313e
000000c0: 4203 8e3e 086f 763e adfe 8d3e ee4b 483e
000000d0: c452 8d3e c8d0 8d3e 7428 aa3e 4510 7e3e
000000e0: cb89 8a3e e829 b43e 43c9 ad3e 04bd a83e
000000f0: 6ab5 cf3e f553 da3e df28 b83e 3c65 873e
00000100: 2f15 fb3e b149 79be fb36 833f 2dd7 01bf
00000110: 6997 743e 000d 46be dc32 09bc f406 cbbc
00000120: fa2f 8fbd 6d92 cbbd e4a4 3fbe 0d86 26be
00000130: 362b 37be 9c58 a0bd 9d8d fdbd ae16 13be
00000140: 872c 4fbe c840 4dbe 2b2b 3cbe 4ab6 24be
00000150: 7b83 45be 9305 62be a244 5bbe ad55 9bbe
00000160: 504b 63be 1bfc 44be c8c5 85be cb36 87be
00000170: 8a7e aabe 33f0 babe f871 98be a88f a2be
00000180: 8d0f b8be 445c b6be e05e 76be 3323 ecbe
00000190: c5c4 813e 4fb4 79bf c58a e53e c9c2 02be
000001a0: 1c54 473e 85fa 24bd 0d65 abbd 0731 1cbc
000001b0: 4b88 03be 9ce8 a8bd 80ec 47be f825 49be
000001c0: 966f 1bbe adfd 34be fe61 48be c7f9 2cbe
000001d0: 1938 0dbe 2529 48be afa6 62be 378d 4dbe
000001e0: c55a 9abe 08cf 48be b6f2 71be 54bf 70be
000001f0: d3f9 93be db00 b5be 04a1 95be 50d8 a8be
00000200: 3463 adbe d543 acbe 2826 f2be 850f e1be
00000210: f0b9 91be 8c70 91be ce59 d3be da31 5d3e
00000220: 8ce9 81bf aaf9 f03e 11dd 4fbe 1b88 fa3d
00000230: 8efa e9bd a0c8 97bd 6e30 02bd 7ab5 b6bd
00000240: 25ef 2abe 1c98 14be c40d 09be ad32 23be
00000250: 1c12 11be f516 dfbd 9a47 5abe 9a98 3bbe
00000260: 90e6 43be 41e0 76be bb27 74be ccd3 5bbe
00000270: 22fa 66be 1d51 96be a310 6ebe 30f5 87be
00000280: 2f9f 5fbe 9474 85be 89c9 d3be 0dfd a3be
00000290: d5a7 b9be c786 b9be 0872 b7be a4b9 b9be
000002a0: f2ce b4be 3fb6 e5be c9d3 803e 4d3d 82bf
000002b0: 8bde ec3e 19c4 64be 8e31 a23d d8ac f43d
000002c0: 94b9 a23d a26c 973d d02a 683d 9fd0 e73d
000002d0: 0ddf c73d b7a2 4e3e 492d 0b3e c00a 123e
000002e0: 4ba0 283e f665 513e db9c 573e 2e2c 393e
000002f0: bbc9 733e 5faa 7e3e 3a67 453e e8f6 4d3e
00000300: 21f1 5c3e 18d1 3c3e 500e 973e f389 8a3e
00000310: 30d5 a63e 604d ca3e fcf4 963e 8b59 993e
00000320: fc4b cf3e 4c6d e03e f08e a13e b764 873e
00000330: bcbc ec3e 0068 76be 316b 6c3f 7b74 cabe
00000340: c627 3b3e 2413 89bd 5ffe b0bd 65ab dabd
00000350: 6feb 82bd a2a5 ebbd 25c4 0cbe 7b9a 00be
00000360: e100 4bbe d027 27be 5d1a cfbd 8d33 00be
00000370: 8d95 0cbe 9740 51be fa88 57be 94b5 0abe
00000380: eea6 3ebe 2d14 2fbe 4b7a 7bbe c05e 4fbe
00000390: 5cfb 82be 9d9f 86be e67e a9be b51f 9bbe
000003a0: 4425 aabe f872 98be 95ef 82be 4d0a bdbe
000003b0: 77d5 bdbe 8a25 6ebe 471f 80be fd56 f4be
000003c0: db0e 793e dac0 5abf 96b5 e13e b61b 1dbe
000003d0: df6c dc3d 9126 c6bd 3d09 0dbe 9690 a03b
000003e0: fb58 25be 6d6c e6bd 2538 10be e82d 42be
000003f0: b56e 31be 7d1d 99bd 4b8b 1bbe 23e9 37be
-0.042166878 -0.08680082 -0.021987496 -0.10121054 -0.08816779 -0.17980738 -0.22099413 -0.113485925
-0.08498477 -0.11307158 -0.19082658 -0.11122393 -0.17103414 -0.18690562 -0.25384828 -0.26735267
-0.19472802 -0.23437683 -0.22776003 -0.23527232 -0.26131883 -0.23267975 -0.34054297 -0.37054604
-0.26301816 -0.34889007 -0.3318958 -0.340107 -0.29900056 -0.43801975 0.24094495 -0.95774376
0.42421114 -0.14112331 0.16787349 0.050119348 0.090734504 0.03379373 0.13775653 0.17287393
0.10907806 0.1348086 0.12532838 0.067573525 0.18088435 0.12758316 0.2159176 0.17323488
0.2773686 0.24065793 0.27733365 0.19560215 0.27602208 0.2769835 0.33233988 0.24810894
0.27058253 0.35188222 0.33942613 0.32956707 0.40568095 0.4264218 0.35968682 0.26444423
0.490396 -0.24344517 1.0251154 -0.5071896 0.23885883 -0.19340897 -0.008373942 -0.024783589
-0.06991573 -0.09940038 -0.18715245 -0.16262074 -0.17887577 -0.07829401 -0.12380526 -0.1436412
-0.2023183 -0.20044243 -0.18375842 -0.16085163 -0.19288437 -0.22072439 -0.214129 -0.30338803
-0.22196698 -0.19236796 -0.26127458 -0.2640899 -0.33299667 -0.36511382 -0.2977445 -0.31750226
-0.35949364 -0.35617268 -0.2405963 -0.46120605 0.25345436 -0.97540754 0.44832435 -0.12769617
0.19465679 -0.040277977 -0.08368883 -0.009533173 -0.1284496 -0.08247492 -0.19523811 -0.1964339
-0.15179285 -0.17674895 -0.19568631 -0.16892157 -0.13790931 -0.19546945 -0.22133897 -0.200734
-0.30147377 -0.19610226 -0.23627743 -0.23510486 -0.28901538 -0.35352215 -0.29224408 -0.32977533
-0.33864748 -0.33645502 -0.47294736 -0.43957153 -0.28462172 -0.2840618 -0.41279453 0.21601048
-1.0149398 0.4706548 -0.20299174 0.12232991 -0.11424743 -0.07411313 -0.031784467 -0.08921333
-0.16692789 -0.1451115 -0.13384157 -0.159373 -0.14167064 -0.108930506 -0.21316376 -0.18319932
-0.19130921 -0.24108984 -0.23843281 -0.21467513 -0.22556356 -0.2935876 -0.23248534 -0.2655425
-0.21838067 -0.26065505 -0.41364697 -0.32029 -0.36260858 -0.3623564 -0.35829186 -0.36274445
-0.35314137 -0.44865605 0.2516158 -1.0174958 0.46263537 -0.2234043 0.07919608 0.1194703
0.079455525 0.07393767 0.056681454 0.11319088 0.097593404 0.20179258 0.13591494 0.14261913
0.16467397 0.20449051 0.2105593 0.1808326 0.23807423 0.24869679 0.19277659 0.20113719
0.21576358 0.18439138 0.29503107 0.27058372 0.32584524 0.39512157 0.29483783 0.29951128
0.4048766 0.43833387 0.31554365 0.26444027 0.46237743 -0.2406311 0.9235106 -0.39541993
0.18276891 -0.06693104 -0.086422674 -0.10677222 -0.06392562 -0.11506201 -0.13746698 -0.1255893
-0.19824554 -0.16323781 -0.1011245 -0.12519665 -0.13728924 -0.20434795 -0.21048346 -0.13545829
-0.18618366 -0.1709754 -0.2455837 -0.20250988 -0.25582397 -0.2629365 -0.33104628 -0.30297628
-0.33231556 -0.29775214 -0.25573412 -0.3692192 -0.37076923 -0.23256508 -0.25023863 -0.47722617
0.24322073 -0.8545052 0.44083852 -0.15342602 0.10762953 -0.09675325 -0.13773055 0.0049000485
-0.16147225 -0.11251149 -0.14083917 -0.18962824 -0.17327388 -0.074763276 -0.15189855 -0.17960028

classifier_conv.bias f4 [32]
00000000: 5e5d 59bb 1ad1 0439 c4de b539 9099 633c
00000010: ba5e 0abb bee8 ac3b 1d06 30bb f190 89bb
00000020: c66e eaba 9e3d bbbb 90e3 18bb 784a 4eba
00000030: bc57 123b 9e60 7fbb ea84 cf3b d3cd d9b9
00000040: f82e fbbb 4f69 32bc 1900 4ebc ddc2 433a
00000050: 3f60 9ebb a876 8fbb c825 fbbb bc86 ee3a
00000060: df2a 41bc ac53 6b3c 83ed e5bb 6bdc c23a
00000070: 5930 013b e4a1 b3ba 1545 d93b 56a4 f2bb
-0.0033167223 0.00012666397 0.00034688984 0.013891593 -0.002111359 0.0052767685 -0.0026859113 -0.0041981866
-0.0017885796 -0.0057141325 -0.0023328997 -0.0007869373 0.0022330126 -0.00389675 0.0063329833 -0.00041542816
-0.007665511 -0.010889365 -0.0125732655 0.00074676966 -0.004833251 -0.0043781586 -0.007664416 0.0018198113
-0.011790006 0.014363211 -0.007016839 0.0014866715 0.0019712655 -0.0013704863 0.0066305497 -0.0074048443

fc.weight f4 [2, 32]
00000000: d939 af3d 64ec b4bd 6708 b43d e253 b63d
00000010: 0d88 b13d 958a afbd 7457 ac3d 1164 b63d
00000020: 9e15 ae3d 09b6 af3d 0a27 bb3d 97c5 abbd
00000030: db31 b7bd 7850 bcbd 4a93 b4bd 5779 b3bd
00000040: 74ee b23d b5b7 b73d c564 ae3d 99ae c13d
00000050: 64e8 acbd 3118 b8bd 38fd babd aa35 b8bd
00000060: e70b b63d de60 bd3d 1187 b23d 9e26 b93d
00000070: 7db7 babd fa97 b13d 285c b23d eec0 babd
00000080: de39 afbd 55ec b43d 7608 b4bd e053 b6bd
00000090: 0088 b1bd 8d8a af3d 7b57 acbd fe63 b6bd
000000a0: a215 aebd 03b6 afbd 1027 bbbd 9fc5 ab3d
000000b0: d031 b73d 7950 bc3d 4793 b43d 5b79 b33d
000000c0: 6cee b2bd b0b7 b7bd d364 aebd 95ae c1bd
000000d0: 79e8 ac3d 3a18 b83d 34fd ba3d ad35 b83d
000000e0: f00b b6bd df60 bdbd 0687 b2bd ac26 b9bd
000000f0: 7fb7 ba3d fb97 b1bd 325c b2bd cfc0 ba3d
0.085559554 -0.088341504 0.08790665 0.08902718 0.08668528 -0.08571354 0.08415118 0.08905805
0.08500217 0.08579642 0.091383055 -0.08387297 -0.08945056 -0.09195036 -0.08817156 -0.08763378
0.087368876 0.08970586 0.08515314 0.0945713 -0.084427625 -0.08988989 -0.09130329 -0.089946106
0.08888989 0.092469916 0.08717168 0.09040569 -0.09117029 0.08671565 0.08708984 -0.0911883
-0.08555959 0.08834139 -0.08790676 -0.08902717 -0.08668518 0.08571348 -0.08415123 -0.08905791
-0.0850022 -0.08579638 -0.0913831 0.083873026 0.08945048 0.091950364 0.088171534 0.08763381
-0.087368816 -0.089705825 -0.085153244 -0.09457127 0.08442778 0.08988996 0.09130326 0.08994613
-0.08888996 -0.09246992 -0.0871716 -0.09040579 0.0911703 -0.08671566 -0.08708991 0.091188066

fc.bias f4 [2]
00000000: b3c5 993c 95c8 99bc
0.018771028 -0.018772403
