submit_entry/checkpoints/Combined_edgcn_12s_slice_noise/V/1/best.pth (torch_old, 75847 bytes, 26 tensors)

conv_time.weight f4 [15, 1, 10]
0.038891077 -0.11377194 -0.020355416 -0.043170284 -0.047900364 -0.06538095 -0.19981693 0.16398859
-0.0020184207 0.18103985 0.1835743 0.13068353 0.1168726 0.12254859 -0.18018357 -0.11720721
0.1668047 -0.057024155 -0.17845252 -0.17087562 0.17500477 -0.023287443 0.048010465 0.1219075
-0.07681276 -0.19426253 0.039266083 -0.12100245 -0.04201252 0.100556165 0.07509732 0.05904469
-0.11423766 -0.07628237 0.113141 -0.04154544 0.04495904 -0.009983768 -0.02371752 -0.08017413
0.14134797 -0.07062468 -0.04503768 -0.06326619 -0.11891427 0.16727321 -0.17984748 -0.14205293
0.11611094 0.16396913 0.09435417 -0.17655577 -0.05917948 0.15592408 0.13733166 -0.113421045
-0.11447151 0.21042797 0.09122925 0.13157287 -0.15578431 0.052047525 0.18109785 -0.12743911
0.053709004 -0.14145458 0.074194714 -0.03724542 -0.15355007 -0.020365387 0.06101351 -0.106480196
-0.019258682 0.13746056 -0.044733007 -0.010360598 -0.1993254 -0.19740136 -0.126325 -0.15580294
0.024894388 -0.12755291 -0.09869961 0.019381534 0.13548625 0.08982263 0.20983249 0.09618167
0.05564607 0.08724424 0.10946326 -0.09323581 0.16963619 -0.07917352 0.17203502 -0.01317961
0.13712323 -0.14905018 -0.037630446 -0.15112236 0.123655304 0.09605289 0.18280117 0.0045473883
-0.15966035 0.03455684 0.06635468 -0.17282845 0.018121637 0.011182501 -0.18881083 0.13501692
-0.010326421 -0.08698148 0.041820034 0.12830506 0.062305238 -0.10206755 -0.026850918 0.0069009853
0.14399958 -0.11451141 0.1473687 -0.03429979 0.080084585 -0.04519132 -0.15050308 -0.076407336
0.05706268 0.08128242 -0.054333463 0.00067576766 -0.07659754 -0.07219769 0.0013398957 -0.044754848
0.1233558 -0.049460802 0.17263488 0.021996757 -0.20982604 0.016535582 -0.058108695 0.11175067
-0.0748934 -0.16054435 0.1257285 0.01651563 -0.08251746 0.07134346
00000000: 404c 1f3d 4301 e9bd 67c0 a6bc 53d3 30bd
00000010: 2c33 44bd 73e6 85bd cf9c 4cbe a0ec 273e
00000020: 7b47 04bb 8362 393e e7fa 3b3e e7d1 053e
00000030: e75a ef3d c1fa fa3d 0b82 38be 550a f0bd
00000040: dace 2a3e 2992 69bd 42bc 36be 05fa 2ebe
00000050: 7334 333e 4fc5 bebc 9fa6 443d a4aa f93d
00000060: 0250 9dbd c2ec 46be 79d5 203d 22d0 f7bd
00000070: 5215 2cbd 64f0 cd3d a0cc 993d d8d8 713d
00000080: 6ff5 e9bd ee39 9cbd 78b6 e73d 8d2b 2abd
00000090: f826 383d f592 23bc 3f4b c2bc 5632 a4bd
000000a0: 86bd 103e aca3 90bd 6e79 38bd b491 81bd
000000b0: 5389 f3bd ab49 2b3e f029 38be 5376 11be
000000c0: 93cb ed3d 86e7 273e c23c c13d 09cb 34be
000000d0: 2f66 72bd 90aa 1f3e aca0 0c3e 4b49 e8bd
000000e0: 0a70 eabd 6e7a 573e 67d6 ba3d 0abb 063e
000000f0: ec85 1fbe c92f 553d b771 393e 667f 02be
00000100: f9fd 5b3d 78d9 10be 66f3 973d a78e 18bd
00000110: 3b3c 1dbe 50d5 a6bc 4de9 793d 4a12 dabd
00000120: 62c4 9dbc 76c2 0c3e f539 37bd 7fbf 29bc
00000130: f51b 4cbe 9523 4abe 575b 01be ce8a 1fbe
00000140: 51ef cb3c 3b9d 02be 0523 cabd 06c6 9e3c
00000150: e8bc 0a3e edf4 b73d 54de 563e e5fa c43d
00000160: 22ed 633d 1cad b23d 462e e03d 6bf2 bebd
00000170: 1cb5 2d3e ba25 a2bd f329 303e 4aef 57bc
00000180: 086a 0c3e 9ca0 18be 6222 1abd d2bf 1abe
00000190: fe3e fd3d 61b7 c43d 3b30 3b3e 4202 953b
000001a0: 017e 23be 798b 0d3d f6e4 873d f1f9 30be
000001b0: d473 943c cf36 373c a057 41be e041 0a3e
000001c0: 2630 29bc 5923 b2bd 7c4b 2b3d 6762 033e
000001d0: c733 7f3d cb08 d1bd 75f6 dbbc a921 e23b
000001e0: a074 133e f584 eabd d2e7 163e f07d 0cbd
000001f0: 6303 a43d 891a 39bd 7b1d 1abe 737b 9cbd
00000200: 8fba 693d 6677 a63d c48c 5ebd 0026 313a
00000210: 2cdf 9cbd 62dc 93bd 709f af3a dc50 37bd
00000220: f7a1 fc3d 6997 4abd 33c7 303e 8b32 b43c
00000230: a3dc 56be a175 873c 6203 6ebd 89dd e43d
00000240: b661 99bd bd65 24be f9be 003e c94b 873c
00000250: eafe a8bd 851c 923d

conv_time.bias f4 [15]
-0.006297854 0.02505613 -0.019713838 -0.019702401 -0.015455657 0.01106985 -0.0042350106 0.0007780435
-0.016108042 -0.014225751 0.0067143217 -0.007275297 -0.009616137 0.011763359 -0.0003747494
00000000: 3a5e cebb 8342 cd3c ea7e a1bc ee66 a1bc
00000010: b939 7dbc 515e 353c d8c5 8abb 9ef5 4b3a
00000020: 03f5 83bc 2013 69bc d003 dc3b 9d65 eebb
00000030: 008d 1dbc 1bbb 403c 037a c4b9

bnorm.weight f4 [15]
0.9934735 1.0473299 1.0018545 0.9756813 1.0174091 0.9859449 0.96608216 0.9955697
0.9940959 1.0163842 0.98719466 0.9473976 0.96275926 1.1050193 0.98292243
00000000: 4754 7e3f e80e 863f c53c 803f 40c6 793f
00000010: 763a 823f e366 7c3f 2951 773f a8dd 7e3f
00000020: 127d 7e3f e118 823f cab8 7c3f a688 723f
00000030: 6477 763f 4671 8d3f cea0 7b3f

bnorm.bias f4 [15]
0.00031389704 -0.010104913 0.029013565 -0.009016543 0.019747604 0.02294373 -0.05215436 0.012679923
0.010990237 0.024162775 0.02743532 0.07656897 -0.044593237 0.058600143 0.011646409
00000000: 8c92 a439 148f 25bc dbad ed3c 1fba 13bc
00000010: bac5 a13c 7df4 bb3c cf9f 55bd 74bf 4f3c
00000020: 6510 343c 03f1 c53c 09c0 e03c 31d0 9c3d
00000030: 66a7 36bd b406 703d 94d0 3e3c

bnorm.running_mean f4 [15]
-0.037572287 0.029757056 -0.012141988 -0.034476273 -0.023871208 0.11163039 -0.081233144 -0.18534191
0.12261051 0.0039673774 0.063868806 -0.019222783 0.015665704 0.01801985 -0.06886348
00000000: 66e5 19bd 12c5 f33c 30ef 46bc fe36 0dbd
00000010: 8d8d c3bc 799e e43d 905d a6bd 45ca 3dbe
00000020: 381b fb3d c600 823b a6cd 823d 1979 9dbc
00000030: 5d55 803c 5d9e 933c 4c08 8dbd

bnorm.running_var f4 [15]
0.015110197 0.02699862 0.005948822 0.0026059998 0.0047314106 0.08073531 0.045655005 0.27524167
0.16103078 0.010746608 0.031822104 0.002151405 0.006397759 0.0059379432 0.038495526
00000000: c290 773c 362c dd3c 56ee c23b 6cc9 2a3b
00000010: f309 9b3b 8e58 a53d be00 3b3d 7aec 8c3e
00000020: 41e5 243e 8a12 303c e557 023d 96fe 0c3b
00000030: 4ba4 d13b 1493 c23b 7cad 1d3d

block2.conv_2.weight f4 [15, 15, 10]
-0.1166362 0.00035004457 -0.05862139 0.058341336 0.09291192 -0.086633 -0.021007434 -0.08683642
-0.1241669 0.10217112 0.06691567 -0.027738832 -0.08173987 0.096489005 -0.042440224 0.041122697
-0.18432392 -0.020413138 0.12684807 -0.07872911 0.091458626 -0.02562819 0.013037799 -0.113858014
-0.0730107 -0.17850214 -0.1723347 0.0800704 -0.043006066 0.061979793 -0.105275154 0.10099599
0.098145366 -0.10083587 -0.08397737 -0.06443715 -0.16691934 0.013935291 0.08243816 0.040667042
0.037713505 -0.04348362 -0.046515256 -0.0063416236 0.039403744 0.008828623 0.15039802 0.03055634
-0.1519713 -0.08702264 -0.10584656 0.09948075 0.05208981 -0.0779297 -0.07575743 0.09375421
0.027137747 -0.10174766 0.0041482216 -0.08093491 -0.0005566059 -0.05997898 -0.10882782 -0.052582093
-0.025018608 0.027336285 -0.002115549 0.035016287 0.017027345 0.0041455743 0.07386488 -0.056167636
0.13332401 0.0025636523 0.027814304 0.015852975 -0.005802186 -0.0596501 -0.059180804 -0.11776898
-0.0051621906 -0.066881284 -0.13310461 -0.1440831 -0.089744575 0.0015959804 0.13525595 -0.029289102
0.14021796 -0.027371956 0.113753095 0.060380302 -0.10341209 -0.021133266 -0.14990424 -0.15036312
0.06855815 0.01724157 0.06843625 -0.07791138 -0.05585023 0.008971411 -0.1333674 -0.013430088
0.063469 0.03149565 0.06407656 -0.10667782 0.10222913 0.0205884 0.041189827 -0.13248748
0.02752767 0.026832934 -0.031075545 0.12283041 0.10190783 0.0049468544 0.15991649 -0.06044446
-0.039229866 0.02986269 0.05122186 -0.013568475 0.13391212 0.06396371 -0.013969061 0.0017705281
0.11290318 -0.07049562 0.060039148 0.05163442 -0.1572031 -0.1330625 -0.017455367 0.13973548
-0.04693528 -0.14263207 0.09305356 -0.1506155 -0.0371087 0.0065548513 -0.08102076 0.10365924
0.10199802 0.022916505 0.061845597 -0.01767511 -0.006772986 0.05524745 -0.029465204 -0.10571269
0.06887061 0.016519401 -0.107722476 -0.042118542 0.08661249 -0.08549304 -0.11559508 0.04940492
0.071080916 0.05068758 -0.09443824 0.08655606 -0.08911419 -0.09241862 -0.17957202 -0.14032891
-0.14923596 0.13656521 0.16616896 -0.10949848 0.012470176 -0.112098284 0.00027436434 -0.019144772
-0.14595893 0.022410756 -0.07377176 -0.077463366 0.06404328 0.07035903 0.057407055 -0.07432236
0.14686374 -0.08672623 -0.089066595 0.024211185 -0.057981767 0.0630562 -0.018124169 -0.015173508
-0.05532592 0.10675652 -0.12244516 -0.12056309 -0.03572883 0.11676697 -0.067325816 -0.009688929
0.06791081 0.047867477 -0.09627844 0.13549943 -0.086877555 0.105132885 0.031885624 0.025356501
0.09401089 -0.0031113806 -0.03902651 0.09077557 -0.072701685 -0.11939042 0.10035867 -0.112873286
0.06375845 0.15270501 0.010661215 -0.014342176 0.13055204 0.011808326 0.11443359 0.1415697
0.04424412 -0.08676033 0.07443307 0.15747754 -0.08786313 -0.042194035 0.019070622 0.10986269
-0.073383614 0.08857396 0.08584112 -0.1581088 -0.08844085 0.12139632 -0.042104315 -0.0019010261
0.087603964 0.09754118 0.11809683 -0.089946814 0.0020228561 -0.12804313 0.026483953 -0.013648698
-0.05202519 -0.06567388 0.034174208 -0.08041959 -0.11032305 -0.010564107 0.051405143 -0.11968622
00000000: f6de eebd 3086 b739 fc1c 70bd 53f7 6e3d
00000010: 9b48 be3d a46c b1bd c817 acbc 4bd7 b1bd
00000020: 374b febd 183f d13d 150b 893d 8c3c e3bc
00000030: 3c67 a7bd 079c c53d cdd5 2dbd 4670 283d
00000040: 69bf 3cbe 7439 a7bc 76e4 013e ba3c a1bd
00000050: a94e bb3d 36f2 d1bc 7e9c 553c 642e e9bd
00000060: a286 95bd 44c9 36be 8278 30be f3fb a33d
00000070: 2127 30bd 86de 7d3d 809a d7bd fcd6 ce3d
00000080: 7000 c93d 0983 cebd 54fc abbd a0f7 83bd
00000090: e7ec 2abe d950 643c 57d5 a83d 7c92 263d
000000a0: 7a79 1a3d e11b 32bd c886 3ebd 65cd cfbb
000000b0: d265 213d eea5 103c f001 1a3e 4a51 fa3c
000000c0: 5d9e 1bbe ed38 b2bd 15c6 d8bd 90bc cb3d
000000d0: 205c 553d 9b99 9fbd b626 9bbd 3502 c03d
000000e0: fb4f de3c 1461 d0bd ceed 873b 34c1 a5bd
000000f0: 31e9 11ba 85ac 75bd 1fe1 debd 5260 57bd
00000100: d3f3 ccbc 58f0 df3c 06a5 0abb 3d6d 0f3d
00000110: ee7c 8b3c 99d7 873b 7846 973d 0910 66bd
00000120: 1786 083e f302 283b d3da e33c 19de 813c
00000130: 4420 bebb aa53 74bd 9267 72bd dd30 f1bd
00000140: 9827 a9bb 0ef9 88bd 934c 08be 858a 13be
00000150: 01cc b7bd 3730 d13a 8980 0a3e b3ef efbc
00000160: 4c95 0f3e 273b e0bc 62f7 e83d 5651 773d
00000170: b8c9 d3bd ac1f adbc 7f80 19be caf8 19be
00000180: 3768 8c3d 313e 8d3c 4e28 8c3d 0090 9fbd
00000190: 36c3 64bd d3fc 123c 7791 08be df09 5cbc
000001a0: 09fc 813d 9501 013d 923a 833d e779 dabd
000001b0: 825d d13d 01a9 a83c aab6 283d ccaa 07be
000001c0: b581 e13c bed0 db3c 2492 febc 838e fb3d
000001d0: 0db5 d03d 3919 a23b 26c1 233e 9c94 77bd
000001e0: 7faf 20bd 9aa2 f43c 03ce 513d 4f4e 5ebc
000001f0: 4220 093e 68ff 823d 7dde 64bc 1111 e83a
00000200: c839 e73d 0260 90bd 9ceb 753d 9d7e 533d
00000210: d9f9 20be 8941 08be 8ffe 8ebc d116 0f3e
00000220: 353f 40bd 240e 12be dd92 be3d f33a 1abe
00000230: 4bff 17bd 14ca d63b 36ee a5bd 4c4b d43d
00000240: 57e4 d03d 65bb bb3c cf51 7d3d 64cb 90bc
00000250: edef ddbb 264b 623d 0361 f1bc e57f d8bd
00000260: 090c 8d3d b253 873c 9a9d dcbd 7e84 2cbd
00000270: e461 b13d fa16 afbd 1dbd ecbd d05c 4a3d
00000280: df92 913d c89d 4f3d d668 c1bd 4e44 b13d
00000290: 8081 b6bd f945 bdbd bae1 37be 62b2 0fbe
000002a0: 50d1 18be c0d7 0b3e 3228 2a3e bd40 e0bd
000002b0: b64f 4c3c c993 e5bd 8fd8 8f39 7fd5 9cbc
000002c0: 4276 15be c396 b73c a615 97bd 1da5 9ebd
000002d0: 2029 833d 6518 903d a923 6b3d 5236 98bd
000002e0: 7363 163e 869d b1bd 8c68 b6bd 8956 c63c
000002f0: 4a7e 6dbd 9c23 813d 2379 94bc 4e9a 78bc
00000300: 6f9d 62bd 2aa3 da3d 87c4 fabd c8e9 f6bd
00000310: 6558 12bd 8523 ef3d 1ee2 89bd 50be 1ebc
00000320: d314 8b3d b010 443d a12d c5bd 5dc0 0a3e
00000330: dcec b1bd e94f d73d 809a 023d 70b8 cf3c
00000340: c888 c03d 4ee8 4bbb 43da 1fbd 8be8 b93d
00000350: 9fe4 94bd f782 f4bd d988 cd3d 1c2a e7bd
00000360: ca93 823d b45e 1c3e 60ac 2e3c 72fb 6abc
00000370: 6faf 053e b577 413c 285c ea3d a6f7 103e
00000380: 5339 353d 66af b1bd 5e70 983d cb41 213e
00000390: 96f1 b3bd a7d3 2cbd fe39 9c3c b1ff e03d
000003a0: 264a 96bd 4466 b53d 78cd af3d 46e7 21be
000003b0: 7a20 b5bd a29e f83d 9375 2cbd da2b f9ba
000003c0: b569 b33d acc3 c73d c0dc f13d 0936 b8bd
000003d0: e591 043b bd1d 03be e0f4 d83c ca9e 5fbc
000003e0: 5e18 55bd 0780 86bd 41fa 0b3d 07b3 a4bd
000003f0: 0df1 e1bd 1415 2dbc 338e 523d 0d1e f5bd

block2.bnorm_2.weight f4 [15]
1.0124768 1.0353905 1.0572801 0.9810573 0.9911361 0.99434584 0.98676425 1.0419033
0.9281163 1.0046171 1.0075481 1.0765622 1.0138621 0.9694496 1.0681782
00000000: d798 813f ad87 843f f454 873f 9226 7b3f
00000010: 18bb 7d3f 738d 7e3f 959c 7c3f 165d 853f
00000020: 0899 6d3f 4b97 803f 56f7 803f cacc 893f
00000030: 3cc6 813f d92d 783f 10ba 883f

block2.bnorm_2.bias f4 [15]
0.019271892 0.015065736 -0.014423371 -0.009745345 -0.017426165 -0.019811653 -0.023375258 -0.019881938
-0.059403744 -0.0068247607 -0.039680652 0.041731738 0.04301319 -0.04944106 0.03234736
00000000: 16e0 9d3c 47d6 763c 0150 6cbc f1aa 1fbc
00000010: 51c1 8ebc 0c4c a2bc 787d bfbc 72df a2bc
00000020: 5751 73bd 3ea2 dfbb 2e88 22bd e6ee 2a3d
00000030: 992e 303d b582 4abd aa7e 043d

block2.bnorm_2.running_mean f4 [15]
-0.3726552 -0.052425448 -0.8739206 0.0003616744 0.027934382 -0.3530461 -0.49347895 -0.645176
0.47564343 0.039233226 0.27936205 -0.2927336 -0.3727038 0.059674524 -0.32193407
00000000: aacc bebe 11bc 56bd 43b9 5fbf 1e9f bd39
00000010: a5d6 e43c 75c2 b4be 46a9 fcbe 412a 25bf
00000020: 8987 f33e 05b3 203d 8b08 8f3e 2ee1 95be
00000030: 08d3 bebe 466d 743d 8bd4 a4be

block2.bnorm_2.running_var f4 [15]
0.9471216 0.49410838 1.4001416 1.3623307 0.7067607 0.9157238 1.1677247 1.2904125
1.0584164 0.45204213 1.1550795 0.5502483 0.5656665 0.672192 0.5661351
00000000: 9076 723f c6fb fc3e d737 b33f da60 ae3f
00000010: 45ee 343f e06c 6a3f 0178 953f 3d2c a53f
00000020: 307a 873f 1172 e73e a5d9 933f 13dd 0c3f
00000030: 85cf 103f c614 2c3f 3bee 103f

block3.conv_3.weight f4 [30, 15, 10]
0.022257606 0.021551857 -0.06216274 0.011933601 -0.09718106 -0.043731526 0.04832701 -0.11192572
0.047027238 -0.013312523 0.054006126 -0.040175535 -0.04919534 0.03182003 -0.042273708 0.074105255
0.0026216933 -0.100769766 0.032784205 -0.0070043704 0.13212042 0.043374836 0.10126074 -0.008018086
0.1147514 0.08461878 0.026454853 -0.09478464 -0.07925013 -0.06493447 -0.009392011 -0.072708115
-0.13138512 0.0024699285 -0.0051376955 -0.10874527 0.04986756 0.074607596 0.0737993 0.04689901
-0.0988897 -0.060504664 -0.103364505 -0.09442942 -0.056946788 0.053103227 0.066337645 0.06442401
0.09172934 0.049025185 -0.08248082 0.060880583 -0.05247406 0.044499923 0.015164031 0.03119303
0.0047511384 -0.079876475 0.039941277 -0.091022395 -0.073975556 0.07675841 0.042936895 0.014152903
-0.041090086 0.1181545 0.103352375 -0.005137605 -0.0768308 -0.10840301 0.07311351 -0.0017405521
-0.09609154 -0.037959937 0.06457631 0.13664286 0.0962508 0.0051613217 -0.041197065 -0.054947548
0.06084714 0.0061388817 0.04501577 -0.102969214 0.06787103 0.03374069 0.032391615 -0.028620461
0.08868311 0.07045836 -0.14452198 -0.079492904 -0.077074334 0.07872308 -0.05111495 0.030851182
-0.10079397 -0.07731312 -0.0806805 0.037522 -0.12312229 -0.0735194 0.010330849 0.02157869
-0.069336146 -0.03972686 0.007466015 -0.11658796 0.035266604 -0.0725489 -0.09590132 -0.005312311
0.08192833 0.0683455 0.010841151 -0.026988683 -0.025814265 -0.023944732 -0.019689834 0.015803153
-0.11991398 0.10868578 0.078719966 0.07202459 -0.10643385 -0.1233479 -0.03362042 -0.0582985
-0.06618557 0.12461091 0.034988996 0.09200171 -0.06270079 0.08314628 0.09202284 0.070860766
-0.015095233 -0.019715047 0.015992757 0.10211282 0.007711781 0.09019819 -0.026822293 -0.07413949
0.03091254 -0.073287256 -0.06774823 0.10747685 -0.052029986 -0.022072852 0.04100959 -0.03398207
-0.046078272 0.019034944 -0.038045842 0.016879259 0.02600136 -0.09669235 -0.13397405 -0.07051264
0.12102751 -0.0051166643 -0.05153252 -0.106892094 -0.07101118 -0.010796527 0.0680483 -0.052441936
-0.06677583 0.026717562 -0.017305758 0.057757698 -0.058051344 0.101959586 0.101789854 -0.022287367
-0.020399326 0.017789125 -0.10630153 0.016950028 -0.09024426 0.08958679 -0.09435361 0.06223501
0.055977724 0.0546527 -0.09372135 -0.03289916 -0.07333551 -0.05474443 -0.12086133 -0.0019034853
0.033315815 0.09130958 0.043955952 -0.054392587 -0.09712626 0.07631339 -0.08826089 0.025339264
0.052100617 -0.010109913 0.02493836 0.00017926113 -0.12546453 0.077665515 -0.07638953 0.06407217
-0.11012309 0.035980023 -0.006962289 0.052476056 0.1354707 -0.033427175 0.030184973 0.019765567
-0.086208135 -0.05616328 -0.15178384 0.06848968 -0.11730702 0.015991654 0.010526208 0.12015992
-0.037215866 -0.037347045 0.097877674 -0.08089312 0.038925935 -0.0010277139 -0.0656874 0.11430571
0.06220465 -0.08354112 0.0850863 -0.015245329 0.088384755 0.08913554 -0.09058969 0.103135586
0.07589046 0.054823734 0.070406325 0.03610154 -0.101538695 -0.04832701 0.07937762 -0.004756953
-0.13536288 -0.15434772 -0.12932971 -0.08158447 0.017482119 0.007984762 -0.09793262 -0.06383734
00000000: 9555 b63c 858d b03c 5b9e 7ebd 2785 433c
00000010: dd06 c7bd d41f 33bd 8bf2 453d 5039 e5bd
00000020: a29f 403d c51c 5abc 8735 5d3d 1a8f 24bd
00000030: 0e81 49bd b855 023d 3227 2dbd 7fc4 973d
00000040: b7d0 2b3b 6160 cebd bb48 063d eb84 e5bb
00000050: 934a 073e d0a9 313d ca61 cf3d 4a5e 03bc
00000060: c802 eb3d 9c4c ad3d d9b7 d83c 731e c2bd
00000070: e44d a2bd 5dfc 84bd f3e0 19bc fee7 94bd
00000080: d289 06be 86de 213b 1d5a a8bb d7b5 debd
00000090: ed41 4c3d decb 983d 1624 973d 2d19 403d
000000a0: af86 cabd bdd3 77bd c5b0 d3bd 3664 c1bd
000000b0: 0941 69bd c582 593d 08dc 873d bcf0 833d
000000c0: 98dc bb3d a2ce 483d b4eb a8bd eb5d 793d
000000d0: 0aef 56bd 8d45 363d 8e72 783c 8688 ff3c
000000e0: 70af 9b3b 4796 a3bd 7799 233d f369 babd
000000f0: 7f80 97bd 8333 9d3d 99de 2f3d 94e1 673c
00000100: 144e 28bd fdfa f13d 69aa d33d 5b59 a8bb
00000110: 7759 9dbd 6602 debd 89bc 953d 3d23 e4ba
00000120: a4cb c4bd e17b 1bbd 9640 843d 1bec 0b3e
00000130: 241f c53d 4e20 a93b 41be 28bd ae10 61bd
00000140: da3a 793d ac28 c93b 7562 383d 86e1 d2bd
00000150: f7ff 8a3d ae33 0a3d 12ad 043d 7575 eabc
00000160: 7e9f b53d 794c 903d 92fd 13be 2dcd a2bd
00000170: 26d9 9dbd 9139 a13d e95d 51bd 9ebb fc3c
00000180: 126d cebd 5756 9ebd d13b a5bd abb0 193d
00000190: 8a27 fcbd 5791 96bd b942 293c cbc5 b03c
000001a0: 1c00 8ebd a2b8 22bd 79a5 f43b abc5 eebd
000001b0: b773 103d 8594 94bd e967 c4bd e512 aebb
000001c0: 0aca a73d baf8 8b3d 159f 313c 5f17 ddbc
000001d0: 7078 d3bc be27 c4bc 934c a1bc 9d75 813c
000001e0: 7695 f5bd a696 de3d ef37 a13d a181 933d
000001f0: fef9 d9bd d39d fcbd 91b5 09bd 68ca 6ebd
00000200: 4d8c 87bd 0134 ff3d 9f50 0f3d 646b bc3d
00000210: 4669 80bd 9948 aa3d 7976 bc3d 731f 913d
00000220: ff51 77bc 7381 a1bc 3e03 833c 8720 d13d
00000230: 1cb3 fc3b d4b9 b83d 6dba dbbc 72d6 97bd
00000240: 4c3c fd3c a117 96bd 96bf 8abd d31c dc3d
00000250: 651d 55bd 20d2 b4bc acf9 273d c830 0bbd
00000260: 92bc 3cbd 2cef 9b3c f5d5 1bbd 5f46 8a3c
00000270: ce00 d53c a406 c6bd 7e30 09be ee68 90bd
00000280: 45dd f73d b1a9 a7bb c413 53bd 3eea dabd
00000290: 4f6e 91bd ebe3 30bc e85c 8b3d 5bcd 56bd
000002a0: c4c1 88bd cade da3c cec4 8dbc 5693 6c3d
000002b0: 3fc7 6dbd 30d0 d03d 3377 d03d ff93 b6bc
000002c0: 7d1c a7bc 80ba 913c 9eb4 d9bd c9da 8a3c
000002d0: fcd1 b8bd 4779 b73d 773c c1bd 23ea 7e3d
000002e0: e648 653d 82db 5f3d fbf0 bfbd 45c1 06bd
000002f0: ee30 96bd b23b 60bd 2586 f7bd 5e7e f9ba
00000300: 2a76 083d 8400 bb3d 280b 343d c3ca 5ebd
00000310: 22ea c6bd 324a 9c3d 20c2 b4bd 4a94 cf3c
00000320: 7567 553d 0ca4 25bc 884b cc3c 0bf8 3b39
00000330: c679 00be 190f 9f3d 1d72 9cbd 4538 833d
00000340: 3788 e1bd ca5f 133d ea23 e4bb 22f1 563d
00000350: d5b8 0a3e efea 08bd 7a46 f73c 66eb a13c
00000360: e48d b0bd 780b 66bd 396d 1bbe 5144 8c3d
00000370: aa3e f0bd ee00 833c 1e76 2c3c 6716 f63d
00000380: aa6f 18bd 37f9 18bd 1774 c83d 4bab a5bd
00000390: cd70 1f3d 5bb4 86ba 1e87 86bd 1d19 ea3d
000003a0: 4eca 7e3d 9b17 abbd ba41 ae3d 8bc7 79bc
000003b0: 1103 b53d b28c b63d 1687 b9bd c038 d33d
000003c0: 756c 9b3d da8e 603d 3131 903d 35df 133d
000003d0: 85f3 cfbd 8bf2 45bd bc90 a23d 37e0 9bbb
000003e0: 919c 0abe 540d 1ebe 026f 04be c215 a7bd
000003f0: a936 8f3c 85d2 023c e690 c8bd 27bd 82bd

block3.bnorm_3.weight f4 [30]
1.1528977 1.0869664 1.0429524 1.1006216 1.0192981 1.0337286 0.9554725 0.96961766
1.0585697 1.0357978 0.9748141 0.94553226 1.016313 1.0302081 1.0473855 1.0081819
1.0275315 1.0324346 1.0051416 1.0260648 1.0265619 1.0318279 0.928837 1.0324827
0.95645016 1.1062942 0.97174203 0.9539383 1.0353287 1.0270079
00000000: 2792 933f b721 8b3f 777f 853f 2be1 8c3f
00000010: 5c78 823f 3851 843f d999 743f dd38 783f
00000020: 367f 873f 0695 843f 6b8d 793f 670e 723f
00000030: 8b16 823f dcdd 833f ba10 863f 1b0c 813f
00000040: 2786 833f d126 843f 7ba8 803f 1756 833f
00000050: 6166 833f f012 843f 43c8 6d3f 6528 843f
00000060: ebd9 743f 0c9b 8d3f 16c4 783f 4d35 743f
00000070: a785 843f ff74 833f

block3.bnorm_3.bias f4 [30]
-0.02792521 -0.04629716 -0.022415036 -0.073442444 -0.00699201 0.013667206 -0.0946058 -0.042876963
0.081701614 -0.06791331 -0.052209675 -0.031749446 -0.022366723 -0.08167608 -0.04727457 -0.043533735
-0.010396532 -0.039842613 -0.037226308 0.0024815046 0.010568664 -0.009595238 -0.036979068 -0.05351229
-0.0068430714 0.068914376 -0.06520821 -0.012641802 -0.03510947 -0.0058958004
00000000: 69c3 e4bc 17a2 3dbd bd9f b7bc fe68 96bd
00000010: 3b1d e5bb 6bec 5f3c b0c0 c1bd c19f 2fbd
00000020: 2d53 a73d 2216 8bbd d0d9 55bd b50b 02bd
00000030: 6b3a b7bc ca45 a7bd fba2 41bd 6e50 32bd
00000040: 3756 2abc 0232 23bd 9d7a 18bd bda0 223b
00000050: 3128 2d3c 5835 1dbc 5d77 17bd b42f 5bbd
00000060: d83b e0bb fb22 8d3d e28b 85bd 901f 4fbc
00000070: f3ce 0fbd 8f31 c1bb

block3.bnorm_3.running_mean f4 [30]
-0.22414389 -0.34148705 -0.33246976 -0.19002776 -0.08326812 -0.26113856 -0.33809274 -0.22963107
-0.44595012 -0.79548585 -0.1039467 -0.23471 -0.33128133 -0.43450204 -0.6573531 -0.5033384
-0.38849887 -0.5693523 -0.30653808 -0.43080848 -0.43040547 -0.33741784 -0.12167526 -0.67897457
0.60217506 -0.39143 -0.3884406 0.2805977 -0.2544559 0.058497027
00000000: fa85 65be 64d7 aebe 7a39 aabe a396 42be
00000010: 7a88 aabd f4b3 85be 7e1a adbe 6824 6bbe
00000020: 9353 e4be f6a4 4bbf 02e2 d4bd d157 70be
00000030: b59d a9be 0d77 debe 4b48 28bf c9da 00bf
00000040: 53e9 c6be 13c1 11bf 8ff2 9cbe ee92 dcbe
00000050: 1b5e dcbe 08c2 acbe e130 f9bd 47d1 2dbf
00000060: 2528 1a3f 8369 c8be b0e1 c6be 80aa 8f3e
00000070: 0b48 82be 949a 6f3d

block3.bnorm_3.running_var f4 [30]
0.37356257 0.20854393 0.4119625 0.24179931 0.2878585 0.32829294 0.40859652 0.4332161
0.35285506 0.4129177 0.42368853 0.412685 0.27623865 0.52095765 0.5596416 0.7654305
0.3761571 0.32651043 0.3172118 0.32467797 0.23482652 0.39660856 0.47079027 0.5591522
0.71346766 0.4246522 0.44109383 0.5256337 0.21800531 0.3263815
00000000: 9843 bf3e 8a8c 553e c0ec d23e 3d9a 773e
00000010: 3062 933e 0316 a83e 9033 d13e 80ce dd3e
00000020: 6ba9 b43e f369 d33e b4ed d83e 734b d33e
00000030: 276f 8d3e 7b5d 053f ac44 0f3f 41f3 433f
00000040: aa97 c03e 602c a73e 9669 a23e 313c a63e
00000050: 5d76 703e 4710 cb3e 6c0b f13e 9924 0f3f
00000060: d1a5 363f 036c d93e 0dd7 e13e ee8f 063f
00000070: c93c 5f3e 7a1b a73e

block4.conv_4.weight f4 [30, 30, 10]
0.026208531 -0.044328593 -0.021395382 -0.012845326 0.109303705 0.00888119 0.09916833 0.070778966
0.109516144 -0.055916082 -0.03689491 -0.049071405 0.06523251 -0.028586008 0.07421254 -0.049091034
0.0074531473 -0.059048764 -0.04643543 -0.044284943 0.10202542 0.028774105 -0.06693596 -0.07474446
-0.010843993 -0.06837538 -0.12786266 -0.086663365 0.017195635 0.027970819 -0.036897127 -0.015058539
-0.043687616 0.11670342 -0.021127101 -0.084106185 0.079403244 -0.017221687 -0.0029784907 0.04982571
-0.03942339 0.06505424 -0.07748669 0.024147438 0.007604799 0.04213134 0.030265044 -0.008956846
-0.0606306 -0.06788135 -0.008752417 0.0485137 0.03464666 0.02532608 -0.08956398 -0.045540325
-0.024849735 0.002554443 0.094727755 0.05866546 0.026068518 -0.010007224 0.08612049 0.037109748
-0.061345886 0.0649867 -0.04081733 0.008884943 -0.019790785 -0.031940654 -0.00090503943 0.04477163
-0.050357457 -0.0070634307 0.029123759 0.064233854 -0.04410708 -0.015222994 -0.002276781 -0.024812246
-0.025381219 -0.09652729 0.07987989 -0.027172092 -0.079903975 0.037306 0.026847297 0.022918858
-0.012831225 0.121003225 0.011717374 0.116728105 0.07710962 -0.094578505 0.038396183 -0.0581366
-0.0035876695 -0.048331488 -0.09107147 0.07761377 -0.028438468 -0.07633264 0.0056303455 -0.099025
-0.06459243 0.013755347 0.036103904 0.037702102 -0.068190776 -0.010974532 0.0021465614 -0.078039326
-0.059980348 -0.042981878 0.049356814 -0.02521679 0.032411177 0.08849596 -0.052204315 0.055607658
0.0345364 -0.045782946 -0.030974012 -0.09206845 0.050962936 0.03679206 0.03942738 -0.100104064
-0.011108425 0.031049546 -0.053574257 -0.08189944 -0.11906633 -0.08620198 -0.06983852 0.021138785
0.023688525 -0.082964584 0.006109511 0.018132169 -0.06400069 -0.056824632 -0.048841868 -0.050901238
-0.056612976 0.115165405 -0.028353093 0.04530959 0.057806034 -0.01922223 0.10955665 0.020638961
0.09170466 0.026451679 0.080686115 -0.013752694 -0.0123809315 -0.13113989 -0.006903134 -0.07511042
-0.0075648013 -0.010101558 0.10601185 -0.05846919 -0.0909703 0.025904622 0.031890966 0.06384314
0.0025278968 -0.018438473 -0.10582348 -0.0959843 -0.044940773 -0.025091749 0.047433257 0.087402105
0.06927547 -0.098968744 0.07330014 0.003914705 0.103343576 -0.036638353 -0.037510343 0.091830574
0.032835945 0.0356884 -0.1122421 -0.04619481 0.011976737 -0.014679907 -0.037168786 0.1011139
0.040970143 -0.004176462 -0.10067637 -0.03997234 -0.109370515 -0.026101334 -0.0175245 0.002665623
-0.04315996 -0.0024900013 0.06816134 -0.07932019 -0.02351135 -0.07798867 -0.07063855 0.099749975
-0.016768659 -0.007305759 -0.12761319 -0.08378605 0.038929317 0.042528294 0.11838725 -0.023608595
-0.030552287 -0.06411947 -0.04113887 -0.0899948 0.033902455 -0.054394633 -0.04796099 -0.00017397152
-0.05738273 -0.08006923 0.07815329 0.07354015 0.07493892 -0.034340862 0.085104436 -0.083711624
0.057618 0.015304571 0.120238826 -0.04168526 0.08750007 -0.05578621 0.15769754 0.13730904
-0.072394684 0.090245575 0.07057626 0.01404149 -0.08838064 0.06646586 -0.02306291 0.024924602
-0.0049066143 0.09278712 -0.033983476 0.003002812 0.104850896 -0.027783534 -0.049123712 -0.022471927
00000000: 46b3 d63c e691 35bd 5e45 afbc 3475 52bc
00000010: 9fda df3d 6982 113c c418 cb3d 90f4 903d
00000020: 004a e03d 4308 65bd 1e1f 17bd 19ff 48bd
00000030: 9f98 853d 342d eabc bffc 973d ae13 49bd
00000040: 8839 f43b 1edd 71bd 1433 3ebd 2164 35bd
00000050: b4f2 d03d acb7 eb3c b815 89bd a013 99bd
00000060: 01ab 31bc 6408 8cbd 6eee 02be 907c b1bd
00000070: dcdd 8c3c 0f23 e53c 7121 17bd 17b8 76bc
00000080: c9f1 32bd 3402 ef3d be12 adbc dd3f acbd
00000090: 2b9e a23d 7f14 8dbc c832 43bb 0b16 4c3d
000000a0: 6c7a 21bd 283b 853d 57b1 9ebd d9d0 c53c
000000b0: ad31 f93b e991 2c3d 66ee f73c bcbf 12bc
000000c0: cb57 78bd 6105 8bbd 4c66 0fbc 4db6 463d
000000d0: a8e9 0d3d a478 cf3c 526d b7bd 7e88 3abd
000000e0: ac91 cbbc 7168 273b a000 c23d 324b 703d
000000f0: a58d d53c 57f5 23bc f15f b03d 6400 183d
00000100: d345 7bbd bf17 853d 1330 27bd 2792 113c
00000110: 4920 a2bc 34d4 02bd 2b40 6dba 7562 373d
00000120: 9f43 4ebd 5a74 e7bb f394 ee3c 0a8d 833d
00000130: a0a9 34bd dd69 79bc 0c36 15bb 0d43 cbbc
00000140: 46ec cfbc 1ab0 c5bd 1198 a33d 0298 debc
00000150: b2a4 a3bd 2dce 183d ddee db3c 54c0 bb3c
00000160: 0f3a 52bc 8ad0 f73d 3bfa 3f3c 250f ef3d
00000170: a6eb 9d3d 60b2 c1bd 5145 1d3d a520 6ebd
00000180: 1b1f 6bbb 3df7 45bd ae83 babd f8f3 9e3d
00000190: caf7 e8bc 4a54 9cbd c37e b83b 9fcd cabd
000001a0: 0949 84bd 1b5e 613c b0e1 133d 856d 1a3d
000001b0: 9ba7 8bbd 86ce 33bc 53ad 0c3b 15d3 9fbd
000001c0: f4ad 75bd c40d 30bd 5f2a 4a3d 7193 cebc
000001d0: 95c1 043d 5f3d b53d 31d4 55bd dbc4 633d
000001e0: 0a76 0d3d e686 3bbd 36bd fdbc 628e bcbd
000001f0: 83be 503d 45b3 163d 9b7e 213d 5c03 cdbd
00000200: 1d00 36bc 9e5b fe3c ae70 5bbd e5ba a7bd
00000210: 0cd9 f3bd aa8a b0bd 7f07 8fbd 3f2b ad3c
00000220: 700e c23c 56e9 a9bd 4b32 c83b ea89 943c
00000230: cb12 83bd f2c0 68bd 690e 48bd d17d 50bd
00000240: 02e3 67bd d7db eb3d bf44 e8bc 8c96 393d
00000250: 05c6 6c3d f077 9dbc 3d5f e03d 0a13 a93c
00000260: a7cf bb3d 31b1 d83c c33e a53d fb52 61bc
00000270: 64d9 4abc 8949 06be af33 e2bb 7ed3 99bd
00000280: 27e2 f7bb 0181 25bc be1c d93d 647d 6fbd
00000290: a34e babd ee35 d43c 1aa0 023d 31c0 823d
000002a0: 12ab 253b 480c 97bc fbb9 d8bd 6b93 c4bd
000002b0: d113 38bd 368d cdbc 6049 423d e0ff b23d
000002c0: 4ce0 8d3d 20b0 cabd 621e 963d ed46 803b
000002d0: cca5 d33d 1912 16bd 72a4 19bd ab11 bc3d
000002e0: fc7e 063d 002e 123d 30df e5bd c536 3dbd
000002f0: 133a 443c fe83 70bc 4c3e 18bd ce14 cf3d
00000300: 4fd0 273d b4da 88bb 6a2f cebd 09ba 23bd
00000310: a6fd dfbd 77d2 d5bc 8a8f 8fbc bcb1 2e3b
00000320: 80c8 30bd 4a2f 23bb 2c98 8b3d a072 a2bd
00000330: e09a c0bc 86b8 9fbd f2aa 90bd b749 cc3d
00000340: 6d5e 89bc 2665 efbb 08ad 02be 0598 abbd
00000350: 5974 1f3d 2632 2e3d 0475 f23d d066 c1bc
00000360: ca48 fabc 1251 83bd 3b81 28bd 324f b8bd
00000370: 4ddd 0a3d e8cc 5ebd be72 44bd 206c 36b9
00000380: 270a 6bbd 56fb a3bd d50e a03d 389c 963d
00000390: 9479 993d 01a9 0cbd 3c4b ae3d 0071 abbd
000003a0: da00 6c3d 06c0 7a3c c63f f63d 2abe 2abd
000003b0: 3d33 b33d 1580 64bd 777b 213e be9a 0c3e
000003c0: aa43 94bd acd2 b83d 498a 903d 470e 663c
000003d0: e900 b5bd 411f 883d 6eee bcbc ae2e cc3c
000003e0: aac7 a0bb 2c07 be3d 4232 0bbd d3ca 443b
000003f0: 11bc d63d 4b9a e3bc f235 49bd 0c17 b8bc

block4.bnorm_4.weight f4 [30]
1.0407209 1.0404462 1.027306 1.0320385 1.0308625 1.0960969 1.0873895 1.0451273
1.0438309 1.0607822 1.1016814 1.0191693 1.025087 1.0079995 1.0692744 1.0687644
1.0458761 1.0377946 1.0532892 1.0757362 1.0614256 1.0707433 1.2149563 1.0164415
1.0134221 1.0038445 1.2401928 1.0712596 1.0607035 1.0164992
00000000: 5836 853f 572d 853f c37e 833f d619 843f
00000010: 4df3 833f e74c 8c3f 942f 8b3f bbc6 853f
00000020: 409c 853f b6c7 873f e503 8d3f 2474 823f
00000030: 0d36 833f 2106 813f fcdd 883f 46cd 883f
00000040: 45df 853f 74d6 843f 2ed2 863f b9b1 893f
00000050: cbdc 873f 1e0e 893f b083 9b3f c11a 823f
00000060: d1b7 813f fa7d 803f a3be 9e3f 091f 893f
00000070: 22c5 873f a51c 823f

block4.bnorm_4.bias f4 [30]
-0.015808972 0.0020232045 -0.023948688 -0.014492489 -0.011193631 -0.008998881 0.0011390982 -0.013527219
-0.0039994414 -0.020435225 0.013455208 -0.0135051645 -0.023196848 -0.01778916 0.0121982945 0.00961795
-0.023314863 -0.010273943 -0.013517096 0.01781646 -0.0054421164 0.019940525 0.029889198 -0.009570958
-0.0091072675 -0.023212947 0.038237263 0.0033237212 0.008017524 -0.024621224
00000000: d181 81bc bd97 043b 0a30 c4bc e871 6dbc
00000010: 7e65 37bc 0b70 13bc cb4d 953a 45a1 5dbc
00000020: bf0d 83bb c667 a7bc 3c73 5c3c c444 5dbc
00000030: 5107 bebc 93ba 91bc 5bdb 473c 9b94 1d3c
00000040: d0fe bebc 0a54 28bc cf76 5dbc d3f3 913c
00000050: c853 b2bb 505a a33c 31da f43c 82cf 1cbc
00000060: a636 15bc 1429 bebc ad9e 1c3d cad2 593b
00000070: ef5b 033c 73b2 c9bc

block4.bnorm_4.running_mean f4 [30]
-0.3296533 -1.2233942 0.46491772 0.14800233 0.47399485 0.3539143 0.3504935 0.09162529
0.4538514 0.66645694 0.31827152 -0.09151177 0.6837075 -0.18545686 -0.32896137 0.0077278228
0.6600655 0.20380408 0.37437314 0.067210734 1.2975601 -0.19621062 0.25971258 -0.8714774
0.26467645 -0.63658917 -0.016076764 0.17898756 0.3326769 -0.6949416
00000000: 51c8 a8be 2e98 9cbf b209 ee3e ec8d 173e
00000010: 74af f23e 4134 b53e e273 b33e 0aa6 bb3d
00000020: 365f e83e ec9c 2a3f 7cf4 a23e 866a bbbd
00000030: 7407 2f3f 67e8 3dbe a06d a8be ad39 fd3b
00000040: 0dfa 283f 04b2 503e d6ad bf3e c8a5 893d
00000050: 7316 a63f 70eb 48be 0cf9 843e 2519 5fbf
00000060: ac83 873e 82f7 22bf 6bb3 83bc 8448 373e
00000070: a054 aa3e b1e7 31bf

block4.bnorm_4.running_var f4 [30]
0.33641753 0.6643834 0.4013214 0.39002538 0.4374394 0.31362024 0.3505283 0.32162023
0.6209854 0.36874974 0.35688433 0.25744095 0.45198953 0.517504 0.5257519 0.5363221
0.58144593 0.2714854 0.43021753 0.5090636 0.4980936 0.509542 0.3479155 0.41444594
0.42128327 0.6571087 0.3084776 0.38646612 0.33121163 0.37437844
00000000: eb3e ac3e 0815 2a3f 007a cd3e 68b1 c73e
00000010: 0ff8 df3e d592 a03e 7278 b33e 68ab a43e
00000020: e6f8 1e3f c4cc bc3e 8bb9 b63e 4dcf 833e
00000030: 2c6b e73e 247b 043f ad97 063f 684c 093f
00000040: a4d9 143f 2200 8b3e 7945 dc3e fe51 023f
00000050: 2006 ff3e 5871 023f fb21 b23e 4232 d43e
00000060: 71b2 d73e 4738 283f c7f0 9d3e e3de c53e
00000070: 9294 a93e 88ae bf3e

conv_channel_res.weight f4 [1, 30, 3]
-0.014818274 -0.07958026 -0.08198603 -0.02964445 0.06643234 0.060121145 -0.03832895 -0.13480476
-0.04023699 -0.14224474 -0.12178357 -0.11393424 -0.10602132 -0.120355934 -0.1312757 -0.01308621
0.17759806 0.18708892 0.13294402 -0.0156942 0.0961171 -0.04361411 -0.086693935 -0.1338207
0.023405576 0.05746777 0.06345179 -0.13782871 -0.10100748 -0.16103828 0.090745926 -0.094269656
0.007404105 -0.053190645 -0.10622231 -0.06061555 0.0070802644 -0.039854612 -0.10731683 -0.09324207
-0.07959382 -0.10021625 -0.023868615 0.12446695 0.15359926 0.0075616096 0.08838566 0.13355826
0.003317079 -0.102321714 -0.12338549 -0.055295847 -0.045096792 -0.12205024 -0.135922 0.04426606
-0.06458617 0.020503925 0.15957366 0.15161575 0.095523864 0.1329444 0.05272772 0.102718875
0.03560714 0.1504017 0.13734521 -0.07123741 -0.05631259 -0.036162727 -0.09705594 0.06480286
0.010781316 -0.1113336 -0.038109075 -0.032059804 -0.04661676 -0.12135547 0.09160617 0.015440719
-0.09388011 -0.01436139 0.11752493 0.093486086 0.12435421 0.09327926 0.060683154 -0.081429765
-0.003841697 -0.06884585
00000000: 59c8 72bc fafa a2bd 4be8 a7bd ebd8 f2bc
00000010: ae0d 883d 9741 763d d1fe 1cbd 420a 0abe
00000020: 8bcf 24bd 9ba8 11be aa69 f9bd 5b56 e9bd
00000030: b521 d9bd 2c7d f6bd 236d 06be 8b67 56bc
00000040: 44dc 353e 3d94 3f3e 7a22 083e 1f91 80bc
00000050: 0bd9 c43d b6a4 32bd 978c b1bd 4b08 09be
00000060: 0dbd bf3c 5363 6b3d 03f3 813d f822 0dbe
00000070: 02dd cebd 38e7 24be 00d9 b93d 7310 c1bd
00000080: 229e f23b 6fde 59bd 158b d9bd 0348 78bd
00000090: 9001 e83b 973e 23bd edc8 dbbd b3f5 bebd
000000a0: 1602 a3bd 2d3e cdbd 1d88 c3bc 87e8 fe3d
000000b0: 2049 1d3e 61c7 f73b 8a03 b53d 7fc3 083e
000000c0: 5a63 593b 0c8e d1bd 88b1 fcbd e67d 62bd
000000d0: 6ab7 38bd 7af5 f9bd 232f 0bbe 5450 353d
000000e0: c145 84bd d9f7 a73c 4767 233e 2941 1b3e
000000f0: 04a2 c33d 9422 083e 06f9 573d 465e d23d
00000100: cbd8 113d e702 1a3e 39a4 0c3e ebe4 91bd
00000110: 08a8 66bd 5e1f 14bd 44c5 c6bd 5db7 843d
00000120: 1ea4 303c df02 e4bd 4318 1cbd 2451 03bd
00000130: 37f1 3ebd 3789 f8bd 049c bb3d 12fb 7c3c
00000140: 3744 c0bd 094c 6bbc e9b0 f03d a275 bf3d
00000150: 6cad fe3d 3209 bf3d e68e 783d a6c4 a6bd
00000160: fbc4 7bbb 0eff 8cbd

classifier_conv.weight f4 [32, 1, 35]
-0.12509538 -0.10826803 -0.095592 -0.08178822 -0.081250735 -0.16510932 -0.14228804 -0.100626424
-0.0860073 -0.046226256 -0.19357155 -0.09847266 -0.15144168 -0.14314349 -0.22794534 -0.19335817
-0.19487095 -0.23985906 -0.2149032 -0.20402916 -0.24356519 -0.15977786 -0.32693478 -0.30764654
-0.13432938 -0.3007629 -0.24732383 -0.307719 -0.31847915 -0.38426948 0.1334405 -0.4473593
0.40170017 -0.0717457 0.08136371 0.11351915 0.10360317 0.09090847 0.123234876 0.1596062
0.07153939 0.06015716 0.10683456 0.101089895 0.14482304 0.11905389 0.20795447 0.1612093
0.2605132 0.2960054 0.2178159 0.21702057 0.27740875 0.2729057 0.31259075 0.24719252
0.19413188 0.3737654 0.29131383 0.23334612 0.39500785 0.3580205 0.34421954 0.29888895
0.48101357 -0.14770369 0.51319265 -0.47691426 0.18326515 -0.11276617 -0.08317702 -0.0352227
-0.14583862 -0.08556882 -0.17906831 -0.12770323 -0.10316746 -0.044720907 -0.14243673 -0.10056623
-0.20699693 -0.19783756 -0.15454477 -0.12269152 -0.19366516 -0.15017523 -0.19947815 -0.2848249
-0.19172971 -0.17193447 -0.25717172 -0.18458492 -0.33771947 -0.32038924 -0.19645603 -0.3024794
-0.29202038 -0.32691512 -0.26241124 -0.4375464 0.14820997 -0.46223903 0.42002982 -0.062434096
0.09757718 -0.13172825 -0.09752822 -0.07484698 -0.13270615 -0.06543287 -0.19537792 -0.12202943
-0.16078338 -0.22690246 -0.16071363 -0.18088178 -0.11214399 -0.20236948 -0.20111814 -0.22636288
-0.25214657 -0.21276529 -0.23971608 -0.22277929 -0.28517368 -0.36146066 -0.2189966 -0.33982593
-0.26377454 -0.22941197 -0.4655896 -0.3976171 -0.2948162 -0.32905176 -0.41318455 0.10751064
-0.48377204 0.4291181 -0.1441896 0.009050581 -0.19815382 -0.071256116 -0.10469899 -0.040244505
-0.1674318 -0.13136667 -0.067208484 -0.16266215 -0.16981295 -0.06508567 -0.20815949 -0.15940453
-0.1712073 -0.22176714 -0.26222736 -0.1580403 -0.23951592 -0.302363 -0.20507382 -0.25859424
-0.22526011 -0.20984352 -0.437453 -0.25529942 -0.23676369 -0.33777133 -0.2920276 -0.348118
-0.40267545 -0.4401235 0.16692498 -0.5017634 0.4311126 -0.15910245 -0.018874418 0.20799531
0.119091764 0.15407066 0.049910538 0.08886119 0.0516658 0.13353539 0.10965663 0.16915782
0.118485115 0.20597523 0.20221758 0.17112857 0.2366506 0.27192786 0.13423516 0.20685546
0.1874268 0.14835222 0.25458035 0.27847874 0.27290857 0.40543574 0.22859208 0.16537797
0.37187243 0.39205322 0.31322837 0.29099333 0.42318413 -0.14538667 0.39800796 -0.3775337
0.13200636 0.027601432 -0.16775359 -0.118649125 -0.13811001 -0.073687024 -0.11298352 -0.089030705
-0.11853907 -0.13705409 -0.10941449 -0.06281202 -0.12287579 -0.18754672 -0.1803005 -0.11819244
-0.18681094 -0.08505757 -0.24607922 -0.16404179 -0.22994319 -0.2221535 -0.3011352 -0.22885747
-0.27949262 -0.22588871 -0.11777757 -0.3293728 -0.27512237 -0.1738435 -0.27023965 -0.4322796
0.14437523 -0.34830394 0.4265254 -0.07486995 0.0070181005 -0.16253427 -0.14854838 -0.06725082
-0.15586485 -0.11042965 -0.1447625 -0.11830215 -0.16786446 -0.09672481 -0.09947951 -0.17625464
00000000: 0119 00be a1bb ddbd bdc5 c3bd 9580 a7bd
00000010: c966 a6bd 6b12 29be f5b3 11be 3a15 cebd
00000020: 9824 b0bd be57 3dbd 9f37 46be 09ac c9bd
00000030: 8713 1bbe 3594 12be 816a 69be afff 45be
00000040: 408c 47be 9d9d 75be 960f 5cbe 05ed 50be
00000050: 2769 79be cf9c 23be ff63 a7be d983 9dbe
00000060: a48d 09be 98fd 99be 7542 7dbe 588d 9dbe
00000070: b30f a3be f8be c4be a0a4 083e 470c e5be
00000080: a5ab cd3e 69ef 92bd 04a2 a63d ba7c e83d
00000090: e62d d43d 382e ba3d 9162 fc3d cf6f 233e
000000a0: 3e83 923d 5b67 763d 14cc da3d 3808 cf3d
000000b0: 7e4c 143e 87d2 f33d 04f2 543e 0d14 253e
000000c0: fc61 853e 058e 973e 220b 5f3e a43a 5e3e
000000d0: 8508 8e3e 4cba 8b3e e50b a03e 0920 7d3e
000000e0: 82ca 463e 2e5e bf3e 1627 953e 49f2 6e3e
000000f0: 783e ca3e 774e b73e 8b3d b03e f907 993e
00000100: 6947 f63e a33f 17be 9860 033f 1b2e f4be
00000110: dca9 3b3e f3f1 e6bd b758 aabd ae45 10bd
00000120: b856 15be b53e afbd af5d 37be a3c4 02be
00000130: 7649 d3bd 452d 37bd efda 11be abf5 cdbd
00000140: 01f7 53be ee95 4abe fc40 1ebe b145 fbbd
00000150: 2950 46be 89c7 19be 0044 4cbe 92d4 91be
00000160: cb54 44be 970f 30be 03ac 83be d403 3dbe
00000170: 91e9 acbe 0f0a a4be c52b 49be 94de 9abe
00000180: b283 95be 6b61 a7be c45a 86be 1506 e0be
00000190: 5bc4 173e 98aa ecbe 260e d73e e5ba 7fbd
000001a0: 8bd6 c73d c5e3 06be e0bc c7bd 6049 99bd
000001b0: 1fe4 07be ab01 86bd 2611 48be 91ea f9bd
000001c0: 66a4 24be 1e59 68be 1d92 24be 1339 39be
000001d0: c0ab e5bd f239 4fbe eaf1 4dbe accb 67be
000001e0: 5b19 81be 25df 59be 2278 75be 4120 64be
000001f0: 4902 92be 5f11 b9be a540 60be aafd adbe
00000200: 750d 87be f9ea 6abe c361 eebe 7894 cbbe
00000210: 26f2 96be 7979 a8be ed8c d3be 8a2e dc3d
00000220: f8b0 f7be 5eb5 db3e 70a6 13be e348 143c
00000230: d6e8 4abe baee 91bd 6d6c d6bd 6cd7 24bd
00000240: 3e73 2bbe fc84 06be 9aa4 89bd e890 26be
00000250: 72e3 2dbe a34b 85bd c327 55be f13a 23be
00000260: f750 2fbe ed16 63be aa42 86be 51d5 21be
00000270: a943 75be 53cf 9abe dffe 51be 7766 84be
00000280: 96aa 66be 38e1 56be d7f9 dfbe 9bb6 82be
00000290: 2e72 72be 5df0 acbe a484 95be 863c b2be
000002a0: 7a2b cebe de57 e1be 62ee 2a3e 9173 00bf
000002b0: caba dc3e c1eb 22be 869e 9abc b9fc 543e
000002c0: 62e6 f33d b3c4 1d3e fe6e 4c3d dbfc b53d
000002d0: 859f 533d 80bd 083e a893 e03d b537 2d3e
000002e0: 53a8 f23d 2ceb 523e 2012 4f3e 543c 2f3e
000002f0: 8954 723e 213a 8b3e f174 093e ebd1 533e
00000300: d0ec 3f3e a5e9 173e 5b58 823e c494 8e3e
00000310: acba 8b3e 4695 cf3e 0b14 6a3e d858 293e
00000320: 1066 be3e 33bb c83e 785f a03e 14fd 943e
00000330: 97ab d83e 3ee0 14be b3c7 cb3e 194c c1be
00000340: ad2c 073e 661c e23c 99c7 2bbe 50fe f2bd
00000350: b66c 0dbe 39e9 96bd e763 e7bd bb55 b6bd
00000360: 9dc4 f2bd e857 0cbe b414 e0bd 97a3 80bd
00000370: 4da6 fbbd 3f0c 40be b2a0 38be e10e f2bd
00000380: 5e4b 3fbe aa32 aebd 31fc 7bbe 92fa 27be
00000390: 3a76 6bbe 357c 63be 652e 9abe 9d59 6abe
000003a0: a819 8fbe 5f4f 67be 5e35 f1bd 8da3 a8be
000003b0: d7dc 8cbe 0804 32be da5c 8abe c053 ddbe
000003c0: 1ad7 133e e554 b2be 8a61 da3e 6b55 99bd
000003d0: 18f8 e53b 626f 26be 111d 18be ccba 89bd
000003e0: 099b 1fbe f128 e2bd 9f3c 14be 6648 f2bd
000003f0: a9e4 2bbe a817 c6bd eabb cbbd 197c 34be

classifier_conv.bias f4 [32]
0.02509044 -0.02742354 0.017966423 0.026740352 0.029392978 -0.022997675 0.02546992 0.021700965
0.023569759 0.024099426 0.026272988 -0.022498969 -0.019168776 -0.030912828 -0.023051824 -0.035897717
0.01570295 0.025658721 0.02558232 0.030785669 -0.01864816 -0.037998486 -0.02262503 -0.029843442
0.02281629 0.025421526 0.025691625 0.029184124 -0.028065767 0.023966236 0.023903098 -0.029659515
00000000: 778a cd3c 55a7 e0bc 522e 933c 950e db3c
00000010: 8bc9 f03c 9f65 bcbc 4ba6 d03c 39c6 b13c
00000020: 5e15 c13c 296c c53c 733a d73c c24f b8bc
00000030: d607 9dbc e63c fdbc 2ed7 bcbc 7c09 13bd
00000040: 79a3 803c 3d32 d23c 0392 d13c 3a32 fc3c
00000050: 07c4 98bc 4da4 1bbd 2058 b9bc 3c7a f4bc
00000060: 3ae9 ba3c ce40 d03c 3e77 d23c 8b13 ef3c
00000070: 2eea e5bc d754 c43c 6ed0 c33c 83f8 f2bc

fc.weight f4 [2, 32]
0.09368627 -0.087887555 0.091173165 0.08486804 0.09121835 -0.08727047 0.08989832 0.087280795
0.08683 0.08791439 0.090737894 -0.08323977 -0.083412595 -0.08930801 -0.08726765 -0.090409346
0.08836957 0.089267865 0.09236922 0.087501355 -0.0852546 -0.088136025 -0.08773166 -0.09001435
0.08554716 0.08481291 0.090901256 0.08726635 -0.08832391 0.089287035 0.091445535 -0.088686995
-0.093703 0.08790895 -0.09119983 -0.084902346 -0.09120851 0.08725759 -0.08991032 -0.08727891
-0.08684755 -0.08790836 -0.09074289 0.0832296 0.083423756 0.089281164 0.08725781 0.09039038
-0.08836601 -0.089252174 -0.09239107 -0.08747885 0.08528136 0.08813536 0.08774183 0.09002801
-0.08555349 -0.0847965 -0.09090434 -0.08725722 0.08828805 -0.08927731 -0.09145891 0.08865608
00000000: 96de bf3d 64fe b3bd ffb8 ba3d 4ccf ad3d
00000010: b0d0 ba3d dcba b2bd 9c1c b83d 46c0 b23d
00000020: edd3 b13d 760c b43d cad4 b93d 9d79 aabd
00000030: 39d4 aabd 1ee7 b6bd 62b9 b2bd 8928 b9bd
00000040: 1bfb b43d 12d2 b63d 132c bd3d e933 b33d
00000050: f799 aebd a980 b4bd a8ac b3bd 7259 b8bd
00000060: 5933 af3d 64b2 ad3d 702a ba3d b3b8 b23d
00000070: 2be3 b4bd 1fdc b63d cc47 bb3d 87a1 b5bd
00000080: 5ce7 bfbd 9c09 b43d fac6 babd 48e1 adbd
00000090: 87cb babd 1bb4 b23d e722 b8bd 49bf b2bd
000000a0: 21dd b1bd 4c09 b4bd 69d7 b9bd 4874 aa3d
000000b0: 13da aa3d 0bd9 b63d 39b4 b23d 971e b93d
000000c0: 3df9 b4bd d8c9 b6bd 8837 bdbd 1c28 b3bd
000000d0: fea7 ae3d 5080 b43d fdb1 b33d 9b60 b83d
000000e0: ab36 afbd caa9 adbd 0e2c babd eab3 b2bd
000000f0: 5dd0 b43d 06d7 b6bd cf4e bbbd 5291 b53d

fc.bias f4 [2]
0.031750686 -0.031751234
00000000: 020d 023d 950d 02bd
