submit_entry/checkpoints/Combined_edgcn_12s_slice_noise/V/4/best.pth (torch_old, 75847 bytes, 26 tensors)

conv_time.weight f4 [15, 1, 10]
00000000: acb4 4436 7f52 20be 7538 46bd 4120 3bbd
00000010: e279 d2bc c987 ffbc b319 32be b230 313e
00000020: bb1e d7ba d19f 403e 0fa6 3b3e 7cc0 033e
00000030: 0239 e53d c3a5 f53d cbcd 35be 4139 e9bd
00000040: 2486 2b3e 05ef 76bd 57d5 3abe 0185 34be
00000050: 2fe7 3a3e f0f3 a1bc a566 3e3d 8ad7 fd3d
00000060: c2d1 88bd fad6 3cbe 267f 2a3d 02e4 fbbd
00000070: 888a 19bd a5ec e23d 54cd 913d 1320 453d
00000080: 764d fbbd 7372 99bd 7d43 ee3d c40f 42bd
00000090: c141 203d a4c4 9fbb 8b08 13bc 6ef9 8cbd
000000a0: 709a 1a3e ed23 86bd 8e93 2fbd 06db 7fbd
000000b0: b14e e9bd 6016 343e b182 34be 96d2 13be
000000c0: 8f42 e53d 6929 213e 3ad0 0a3e 01cb fabd
000000d0: 072c ae3b 113c 3e3e 7a6b cc3d 2053 29be
000000e0: c72d 13be ec67 393e 05ac 253d 5eca 183e
000000f0: 3986 1bbe 695b 5a3d 8732 293e bc3b 22be
00000100: 67cf cd3c 6893 09be ed00 e63d 8c28 a6ba
00000110: 950a febd 7f18 3bb9 c63f 123d 988d 10be
00000120: d1ae 07bd a687 183e 191b 33bd 239b 34bd
00000130: 4afa 5dbe 55d4 abbd 6b37 0ebd 34cf 09be
00000140: 6019 0a3e 518a 503b 5d9b a13c 98ae cd3d
00000150: 901d 2b3e fa02 a03d 689e 183e 275d 5b3d
00000160: 1629 833d 7c1d e73d 4078 d43d d38e c9bd
00000170: 858d 273e d219 a6bd 8c0e 343e a22a 0dbc
00000180: 0af6 0c3e 9f27 1cbe c7c9 1ebd c735 16be
00000190: 8932 153e b9c1 a93c 5588 363e 86b4 d93d
000001a0: bedb 55bd 4d6e d33d 16aa cb3d f904 0fbe
000001b0: 657b 673d b0ca 623d 34c6 4abe 82b9 e63d
000001c0: 4af7 11bd b32a d9bd 59a7 e43c d5b9 eb3d
000001d0: 5e35 4d3d 0f11 e3bd aaa0 d9bc 1221 923c
000001e0: 854c 443e 4cd9 4abd d001 543e ddd1 8dbb
000001f0: 3044 c43d c45b cebc 4682 04be 0322 97bd
00000200: f503 1d3d c23d 833d faf1 7fbd a71f 0fbb
00000210: a9a5 8cbd 7de7 6fbd 501c 1b3c cd15 44bd
00000220: bc82 f23d 00d7 40bd 33e7 373e 27f8 ae3c
00000230: 3063 61be 2184 493d f9af 2bbd 1b14 003e
00000240: 1bb3 6bbd 9ca2 1cbe 29c5 ec3d b362 bb3b
00000250: f7f1 9dbd a531 b63d
2.931144e-06 -0.1565647 -0.048393685 -0.045685057 -0.025692884 -0.031192677 -0.17392616 0.17303732
-0.0016412357 0.18810965 0.18325065 0.12866396 0.11192514 0.11994507 -0.17754285 -0.113878734
0.1675039 -0.06028654 -0.18245445 -0.17628862 0.18252252 -0.019769639 0.04648461 0.123946264
-0.06680633 -0.18441382 0.041625164 -0.122993484 -0.03748563 0.110802926 0.07119241 0.04812629
-0.12270634 -0.074925326 0.11633966 -0.047378317 0.039125208 -0.0048757363 -0.008974205 -0.068835124
0.15097976 -0.06549821 -0.04286533 -0.062464736 -0.11391962 0.1758666 -0.1762798 -0.14435801
0.11194336 0.15738453 0.13555995 -0.12245751 0.005315307 0.18577601 0.09981437 -0.16535616
-0.14372931 0.1810605 0.040447254 0.14920947 -0.1518792 0.05330983 0.16523181 -0.158431
0.025123311 -0.13435137 0.11230645 -0.0012676879 -0.12404362 -0.00017842835 0.03570535 -0.14116514
-0.033125702 0.14895496 -0.043727014 -0.044093262 -0.21677509 -0.083901085 -0.03472082 -0.13457948
0.13486242 0.0031820724 0.019727403 0.10043067 0.16710496 0.07813068 0.14904177 0.053555634
0.06404321 0.112849206 0.10374498 -0.09841695 0.16362579 -0.081103936 0.17583674 -0.0086161215
0.13765731 -0.15249489 -0.03876665 -0.14668952 0.14570059 0.020722257 0.17825444 0.10630135
-0.052211516 0.103237726 0.09944551 -0.1396674 0.056514163 0.05536908 -0.19802171 0.112658516
-0.035636224 -0.10603847 0.027911829 0.11510054 0.050099723 -0.11087238 -0.026565868 0.017838035
0.19169815 -0.049523637 0.20703816 -0.004327996 0.09583318 -0.025190242 -0.1294032 -0.07379534
0.03833385 0.06408264 -0.062486626 -0.0021838935 -0.06867535 -0.058570374 0.009467199 -0.047872353
0.11841342 -0.04708004 0.17959289 0.021358563 -0.22010493 0.049198274 -0.041915867 0.1250767
-0.057543855 -0.15296406 0.11561043 0.005718553 -0.07712167 0.08896188

conv_time.bias f4 [15]
00000000: 405e ecbb 0e77 0b3c 1835 a73c 8a97 ef3b
00000010: a892 873c 1429 50bb becf 183c 72df 38bb
00000020: effd a13c 4be7 5ebc 4bb9 853a e5af f43b
00000030: 346e b6ba 291e 3a3c ad01 33ba
-0.007213384 0.008512272 0.02041106 0.007311766 0.016549423 -0.0031762766 0.009326873 -0.0028209356
0.019774405 -0.013604949 0.0010202316 0.0074672573 -0.0013918341 0.01135973 -0.0006828558

bnorm.weight f4 [15]
00000000: 15af 7e3f e9de 843f eb55 803f 92d3 7e3f
00000010: 9d2b 813f 54a1 7b3f 676d 753f 589d 7d3f
00000020: acb8 7d3f 3a8e 803f ea2a 7c3f 16d5 7b3f
00000030: 8090 7b3f ef48 8a3f cc0e 803f
0.99485904 1.0380527 1.002622 0.9954158 1.0091435 0.9829304 0.9587006 0.9906821
0.9910991 1.0043404 0.9850298 0.9837202 0.98267365 1.0803508 1.0004516

bnorm.bias f4 [15]
00000000: c509 ef3c de13 923c a424 913d f843 94bc
00000010: 8c9d b73c e5ee 993b 1275 babd c66b fbbc
00000020: 8f28 843c da56 fb3c 152f f93c 2e92 363d
00000030: 2e79 083d d7f1 bb3d e29e 3d3c
0.029179463 0.017831739 0.07087067 -0.018098816 0.022413991 0.004697668 -0.09104361 -0.030691039
0.016132621 0.030681062 0.030417958 0.044573 0.03331869 0.09176987 0.011573525

bnorm.running_mean f4 [15]
00000000: 8ed2 3abd 04c7 093c 5e03 303d 4265 0dbc
00000010: 242f 5d3c 8022 e33d ac87 6dbd 3219 31be
00000020: e5db 963e d9b1 523b 01d9 373e 159f 26bd
00000030: 95e0 c53d 1c2d bf3c 59d9 5abd
-0.045610957 0.008409265 0.04297196 -0.008630099 0.013500009 0.11090565 -0.057990715 -0.17294767
0.2946464 0.0032149462 0.17953874 -0.040679056 0.09661976 0.02333694 -0.053429935

bnorm.running_var f4 [15]
00000000: 2ada 263d da6a 803d bb91 903c e2b5 953b
00000010: 1489 243c 5975 083e 1def 3c3d 7502 9b3e
00000020: c8b1 443f 06bd ac3c e3fc a73e 8e45 d23c
00000030: 65ab dd3d 20e2 6d3c aa8c 083d
0.0407354 0.0627038 0.017647615 0.0045688013 0.010042448 0.13326015 0.046126474 0.30275312
0.7683377 0.021086227 0.32810125 0.025667932 0.108237065 0.014519244 0.033337273

block2.conv_2.weight f4 [15, 15, 10]
00000000: f630 01be 7a5d 2b3c bfbb 16bd d8f8 9e3d
00000010: f71e c53d 60c8 8abd 9d39 2dbc c50c 9abd
00000020: ce2d 01be 403f b83d e6cc 123d be74 23bd
00000030: f157 a8bd fc47 cc3d 12d7 9abc 01c8 643d
00000040: 1396 2fbe 8494 a3b8 21bf 143e 4013 95bd
00000050: 33eb 983d a9b3 22bd c2c3 043d febb d0bd
00000060: f111 c8bd 436b 13be 8ee8 2cbe 018c c53d
00000070: 0ea2 90bc 8386 3c3d f468 c4bd f765 eb3d
00000080: c2e8 e53d d5c9 e6bd bac7 c4bd 79f9 c2bd
00000090: 6c24 1abe d0ee 813a 5572 973d 11a7 333d
000000a0: 5b08 5c3d b658 b5bc e735 04bd f85b 50ba
000000b0: 37cb b73c b04c f23c ac9f 223e c5cb 533d
000000c0: 6a64 c4bd 98fa b2bd 0dd9 ecbd 10c1 cb3d
000000d0: 1e71 3e3d 926d a6bd 61c2 c8bd 3669 bb3d
000000e0: 8a5e 933c b822 e7bd 5162 13bc 723f c4bd
000000f0: 1044 53b9 95d4 3bbd 7547 d1bd 5a5d 52bd
00000100: 42f0 d8bc 0267 9c3c cd17 3cbc e46e 053d
00000110: bc0b 9a3b a70e 7abc 9493 963d 7dc1 38bd
00000120: 5dc3 0e3e d890 84ba 25bd 943c 8641 013c
00000130: 9cb0 3bbc 56a0 91bd 1e04 9cbd 9309 07be
00000140: 2a65 01bc b877 7ebd 0b07 00be f37a 0fbe
00000150: 1c4b babd 2516 fdba 49f8 083e 47b2 0abd
00000160: 2f86 013e bdd3 33bd a42b b93d 91bb 963d
00000170: e550 afbd a751 1fbd 23db fdbd 41d3 12be
00000180: 31d8 c63d 1ff1 103d c7d8 863d f394 babd
00000190: 0aca 9fbd aadc f83a f5fb fdbd 4ead 0abb
000001a0: a3e0 823d 0684 f23c 4db6 593d 73d5 e8bd
000001b0: 5771 d33d 8016 b73b 7954 4c3d 5334 d8bd
000001c0: 23d4 1e3d 1513 903c 1d4f 92bb 4510 053e
000001d0: d60b e03d 9e18 1a3b c26d 143e f374 75bd
000001e0: 8fe7 82bd ecb2 dd3c 0409 7b3d 5725 c4bb
000001f0: 9fbc d33d 4ce6 833d 6d2b 0ebd 5d7a 6cbc
00000200: d4c0 ef3d f9e2 babd 3644 a93d 0d06 b73d
00000210: 145a 0dbe 6244 f4bd 0bb1 cabc 7dc5 053e
00000220: 4388 46bd 8e22 2ebe c143 d53d a5e8 d2bd
00000230: a310 16bd 187c 943c 0004 95bd 4f72 ec3d
00000240: a686 da3d f551 e13c 5520 5b3d c293 82bc
00000250: c77a 7fbc 1d0e 313d aa0d 98bd 32f1 04be
00000260: 747e 813d 832d a43c 331c edbd 8976 21bd
00000270: 34e6 bb3d 75ee a1bd 0118 00be cf04 913d
00000280: 3933 893d acae 493d c820 e4bd 0d81 9c3d
00000290: 2212 b0bd eb4e 34bd 3949 27be 9b76 05be
000002a0: f0e1 2fbe 83c1 493d c16e 0d3e c1f5 01be
000002b0: 6dfe 8fbc 8da3 14be f67a 1a3a fb63 6dbb
000002c0: 332d ffbd 7051 203d a043 93bd 6080 5ebd
000002d0: 77f9 963d 9fbd a93d 91b2 8f3d 4c3b 6fbd
000002e0: 8470 043e 21b1 abbd 0c42 d8bd 0708 153c
000002f0: 3a1a 9abd dc7f abbb aac2 2dbd 31df 20bd
00000300: e913 4abd 9257 d43d f1f8 03be f173 03be
00000310: d390 65bd e3ef c53d 1631 dfbd 008a a23c
00000320: 5c84 863d 20ce 383d 3336 bfbd 6dce 0c3e
00000330: 194a 98bd 998a df3d 8e16 c23c ee97 d43b
00000340: 72df 823d a8b3 b8bc 216f 2ebd a8de b53d
00000350: a2ef 9abd 7888 f5bd f96b d13d 64ec efbd
00000360: c723 593d c16a 093e 69c5 3bbb 42eb 34bd
00000370: 2a76 fe3d ca0d 683c 6d22 e83d c277 103e
00000380: 41d2 163d 9582 c0bd 5fe7 813d 144b 0f3e
00000390: c75b d4bd e723 9cbd 4128 993c 6a16 cc3d
000003a0: 2325 a3bd 4f36 bd3d dc0c c93d 5b7c 1abe
000003b0: ba0d c4bd 9fb5 d33d 9d18 90bd 1b5d 17bd
000003c0: 0de1 863d b893 913d 837b a93d 89cc d5bd
000003d0: 437e 7bbc c356 00be 9fb7 653d 1408 933c
000003e0: b31c 17bd 5d6c e8bd 3551 1b3d 6924 a0bd
000003f0: 06fd ecbd 0248 abbc 7023 2d3d 34b9 fabd
-0.12616333 0.010459298 -0.036800142 0.07762307 0.09625047 -0.067765 -0.010572818 -0.07521967
-0.1261513 0.08996439 0.035839938 -0.039906256 -0.082198985 0.099746674 -0.018901382 0.0558548
-0.17147093 -7.800109e-05 0.14526035 -0.07279062 0.07466736 -0.03972212 0.03241325 -0.10192107
-0.09769047 -0.14396386 -0.16885588 0.09645844 -0.017655399 0.046026718 -0.09590331 0.114940576
0.11226036 -0.11268965 -0.09608407 -0.095202394 -0.15052956 0.0009913091 0.07394854 0.0438605
0.053718906 -0.022137027 -0.032277968 -0.0007948275 0.022435768 0.029577583 0.15881222 0.051708
-0.09589465 -0.08739203 -0.11564837 0.09948933 0.046494596 -0.08126368 -0.098027 0.09150927
0.017989416 -0.11285919 -0.008995608 -0.09582414 -0.00020147883 -0.04585703 -0.102187075 -0.05135856
-0.026481751 0.019092087 -0.011480284 0.032576457 0.004701106 -0.015262282 0.07352367 -0.0451064
0.13941713 -0.0010113968 0.018156597 0.007889157 -0.011455681 -0.0711066 -0.07617973 -0.13187246
-0.007897655 -0.06212589 -0.12502687 -0.14011745 -0.09096357 -0.0019308968 0.13375963 -0.033861425
0.12648843 -0.0439031 0.09041527 0.07359994 -0.08560351 -0.03889623 -0.12395313 -0.143384
0.09709204 0.0353862 0.06584316 -0.09110441 -0.07802208 0.0018986661 -0.124015726 -0.0021160427
0.06390502 0.02960397 0.05315237 -0.11368837 0.10324352 0.005587399 0.049885247 -0.10556855
0.038776528 0.017587224 -0.0044649974 0.12994488 0.109397575 0.0023513208 0.14494994 -0.059925985
-0.063918225 0.027062856 0.061287895 -0.0059858966 0.10338711 0.0644041 -0.034709383 -0.014433471
0.11706701 -0.09125323 0.08264963 0.08936701 -0.13803893 -0.119271055 -0.024742624 0.13063617
-0.048469793 -0.17005369 0.10413314 -0.1029828 -0.03663696 0.018125579 -0.072761536 0.1154524
0.106702134 0.0275049 0.05349763 -0.015939597 -0.015593237 0.04322635 -0.07424481 -0.12982634
0.06322947 0.020041233 -0.11577644 -0.039419685 0.09174767 -0.0790681 -0.12509157 0.07080995
0.06699223 0.049238846 -0.11139065 0.07641802 -0.085972086 -0.044020575 -0.16336526 -0.13033526
-0.17176032 0.049256813 0.1381178 -0.12691404 -0.017577374 -0.14515515 0.00058929564 -0.0036222923
-0.12459793 0.039140165 -0.07190633 -0.054321647 0.073718004 0.082881205 0.07016481 -0.05840616
0.12933546 -0.08383394 -0.105594724 0.009096152 -0.075245336 -0.005233748 -0.042421974 -0.039275352
-0.049335394 0.10368265 -0.12887932 -0.12837197 -0.05604632 0.096648954 -0.10898034 0.019841194
0.06568214 0.04511845 -0.093365096 0.1375062 -0.07436008 0.10915107 0.023692396 0.006487838
0.06390275 -0.022546604 -0.04258645 0.08880359 -0.075652376 -0.1198892 0.10225672 -0.1171501
0.053012636 0.1341963 -0.0028651601 -0.04416967 0.12424882 0.014163444 0.11334691 0.14108184
0.036821608 -0.093999065 0.06342959 0.13993484 -0.10369068 -0.07624035 0.018695952 0.09965213
-0.07966068 0.09238874 0.09816906 -0.150865 -0.09572931 0.10337376 -0.070359446 -0.036954027
0.06585894 0.07108253 0.08275511 -0.104394026 -0.015349927 -0.12533097 0.056083318 0.017948188
-0.036892604 -0.11348794 0.037919242 -0.07819445 -0.11571698 -0.02090836 0.042270124 -0.12242356

block2.bnorm_2.weight f4 [15]
00000000: 66dc 803f 9793 893f de54 833f 84c4 783f
00000010: d0cd 7d3f d73c 793f 44d6 773f 9b13 8b3f
00000020: 8f83 773f af30 823f e9e7 803f 2b41 803f
00000030: 926b 813f ddff 7b3f a6ac 853f
1.006726 1.0748166 1.0260274 0.9717486 0.9914217 0.9735846 0.9681132 1.0865358
0.9668512 1.0171107 1.0070773 1.0019888 1.0110953 0.9843729 1.0443313

block2.bnorm_2.bias f4 [15]
00000000: 88c9 12ba 0a14 bb3d 4946 e33c 3c19 91bc
00000010: 0ea7 cd3b 8143 38bd 6fc1 ee3a 6319 193d
00000020: 05df 14bc f6b6 463d adaa bdba c7ce 1dbb
00000030: 8b5f 91bd ed58 b93b 050d 253c
-0.00055994885 0.091346815 0.027743476 -0.017712228 0.006276018 -0.04498625 0.0018215607 0.037377726
-0.009086375 0.04851433 -0.0014470421 -0.0024079548 -0.070983015 0.0056563527 0.010073905

block2.bnorm_2.running_mean f4 [15]
00000000: 948b 8abe d259 9fbe 9eb1 30bf b136 863d
00000010: bbad 43bd eab6 bbbd 7f36 b4be 55eb e3be
00000020: 93a4 963e 4f09 f03d ed46 7c3e d094 3cbe
00000030: d222 ffbe c929 de3e 2732 b9be
-0.27059615 -0.31123215 -0.6902102 0.065534 -0.047773104 -0.091657475 -0.35197827 -0.44515482
0.29422435 0.117205255 0.24636431 -0.18416142 -0.49831253 0.43391255 -0.36171076

block2.bnorm_2.running_var f4 [15]
00000000: 9124 593f a931 6c3f c697 ca3f 99df 563f
00000010: 4bb4 943f dd8a 6b3f 4c74 473f 49e2 9c3f
00000020: 62c0 763f 53aa 0f3f 67aa 2a3f ad13 a53e
00000030: c697 4d3f bf26 ba3f 0a6b 533f
0.8482142 0.92263275 1.5827568 0.8393493 1.1617521 0.92008764 0.7791183 1.2256557
0.963873 0.5611927 0.66666263 0.32241574 0.8030971 1.4543074 0.82585204

block3.conv_3.weight f4 [30, 15, 10]
00000000: 645a 703d ef22 513c 0906 93bd 4be2 cd3c
00000010: ce08 e6bd 2b46 22bd 4f1b 373d 40cd a8bd
00000020: 3f78 123d 87e0 fd3c cdd3 733d fffc bebd
00000030: af85 6fbd 939e 7f3d fe1b 65bd f86a 5f3d
00000040: 04ad a83c 1db6 4ebd e65c 253d 3aa4 26bd
00000050: dfee ba3d 3218 c23c dd9b fa3d 5e00 88bb
00000060: 3f22 ad3d 8c39 a83d d68c b63c 812b bdbd
00000070: f94e 2ebc 5903 99bd 4802 d4bc 4b98 adbd
00000080: 36a0 ebbd 23da 633c 7202 29bc e12a dcbd
00000090: 9ade 523d a28e 9e3d 801b e63d 9187 4c3d
000000a0: 3e4a b3bd b5b9 70bd 7143 dabd 351f aebd
000000b0: 7448 50bd a35e 333d 0ee1 633d 04dc 8b3d
000000c0: b2b9 a33d ee80 353d 1d7f b1bd c0bb a73d
000000d0: 79d4 70bd 5d36 f73c 1801 9d3b 1cd3 8d3c
000000e0: cbbf 61bb beb4 56bd 63d1 1f3d 0678 abbd
000000f0: 0fcc a1bd 13ce 5c3d 7832 473d 7332 553d
00000100: 19ac 8fbd bf11 c13d 13f2 f53d 0039 79bc
00000110: 92ad 4fbd a73f b1bd fa1a bb3d bb39 20bd
00000120: de2d 86bd afba b63c 01cc 9b3d 1008 de3d
00000130: 8106 ae3d a160 2a3d 7062 73bd e19d fdbc
00000140: 12bf 553d be22 c03b 67e6 303d cdfd f7bd
00000150: 3e97 483d b0bb 463d c3bd 0a3d b13a 05bd
00000160: edc3 b43d 74f0 9a3d 0c5e 06be 1676 c5bd
00000170: cb52 5dbd 68d9 aa3d 622a 8bbd 5197 db3c
00000180: 31d0 e3bd 0ca8 63bd 1d52 80bd c4cf 4f3d
00000190: 9da5 f8bd cd6e e8bd 57ca 43bc 2665 123c
000001a0: f9d3 a8bd 0d12 16bd b6d7 54bb c608 bfbd
000001b0: ca31 503d 692a 9fbd 2c7e 92bd 6dcb babc
000001c0: 8492 9e3d 433d 9c3d 9d5e f9bc 7ccd 26bd
000001d0: cc62 2d3b 5179 36bd f7d9 f1ba 399d c83c
000001e0: 50a7 c2bd f0dd e73d 3d1e 803d 7f1f 323d
000001f0: 63ad 06be 1d73 a5bd 775b cbbc 7c11 6fbd
00000200: b96e 81bd 756d 093e 5513 8a3d a9ce c63d
00000210: b4c4 71bd 11fb be3d 32f0 c23d 0c84 983d
00000220: e08b 52bc 9294 d6bb 6257 373c 9780 b13d
00000230: b0c3 d6bc 9f75 553d 9ed4 70bd 5bf0 91bd
00000240: 6e30 003d 7a11 8ebd b7cd c5bd 0cd2 043e
00000250: 1dc5 75bc 3334 2bbb 1728 d33d 87d1 ef3c
00000260: 0dcd f0bb 4906 113d edae 6abd 39ce 473d
00000270: 404a 853d e545 c6bd 9dfe 09be fa1b 53bd
00000280: 790a 033e 5c44 88bb 5436 6fbd 3d06 b4bd
00000290: 5984 9fbd 06e3 773c 5c57 0b3d 3489 dfbd
000002a0: 6a15 e2bd d380 d73c 0037 9dbd a86a 4a3d
000002b0: 901d 2fbc e513 8f3d 7f05 e33d 5649 9dbc
000002c0: a5bc 1cbd 7bdf 75bc 4f94 89bd 3918 db3b
000002d0: 6a77 dabd 8a12 a53d ddf0 96bd 2e01 233d
000002e0: 68d1 173d b4cf 8c3d 3588 c2bd a680 b3bc
000002f0: e474 65bd 7cf0 19bd 2745 dfbd 1475 babb
00000300: 2a8d c9bb c3b2 4c3d 442f 8b3c 140f 2fbd
00000310: 361e f7bd 8766 803d 9af4 bcbd ce3f 48bc
00000320: 932c 4c3d c1da 2e3d 4b4f c73c b123 debb
00000330: 3db4 bfbd 456b 853d 34ac a2bd 4836 cf3d
00000340: 0ad2 a9bd 776a 103d cbcf c1bc 193b 953d
00000350: 1ae7 bb3d ab9c a4bc 5c1d 1b3d 5f8a 0f3d
00000360: 0062 0ebe 7ec7 88bd 6be1 d1bd 4b25 a63d
00000370: 5ea6 9ebd 795a 633d 3780 223d 1e13 3a3e
00000380: d24b 053c 01c5 f13c 7409 b33d 4d59 11be
00000390: e3c1 273d dcbe 9c3d 0fe9 86bd 83ce b03d
000003a0: 7f54 353d 2072 ffbd 1f18 413d 33c0 9fbc
000003b0: eec3 be3d f111 c43d 1227 cabd ee53 be3d
000003c0: b859 963d 0851 453d 58eb 103d 66bd 0a3d
000003d0: f7a6 ecbd c157 ffbc e38c 8b3d 1beb f8bb
000003e0: 3d28 d2bd c2b1 0abe 0295 e1bd d3c2 debd
000003f0: 357b b83c 4a59 c6ba b42b fdbd 55d2 8bbd
0.058679953 0.0127646765 -0.071788855 0.025132319 -0.11232148 -0.0396177 0.044703778 -0.08242273
0.035759207 0.030990852 0.05952816 -0.09325599 -0.0584771 0.062407088 -0.0559349 0.054545373
0.020590313 -0.050466646 0.040371798 -0.040683962 0.09127592 0.023693178 0.1223676 -0.0041504344
0.084537975 0.08214101 0.022283953 -0.09236813 -0.010638946 -0.07471342 -0.025879994 -0.08476313
-0.11505167 0.013906988 -0.010315524 -0.10750366 0.05148182 0.07742049 0.11235714 0.049933974
-0.08754395 -0.058770854 -0.10657395 -0.08502046 -0.050850347 0.043791424 0.05563455 0.06829074
0.07994403 0.04431241 -0.08666823 0.08190107 -0.05879638 0.03017729 0.00479139 0.017312579
-0.0034446593 -0.052418463 0.039018046 -0.08372502 -0.07900249 0.053907465 0.048632115 0.052050065
-0.07015247 0.09427213 0.120090626 -0.015211344 -0.05070264 -0.08654719 0.09136005 -0.039117556
-0.06551717 0.022305815 0.0760727 0.108413815 0.08497334 0.04159606 -0.05942005 -0.030959072
0.052184172 0.0058635166 0.04318848 -0.121089555 0.04897236 0.048518836 0.033872377 -0.032526676
0.088264324 0.07565394 -0.13121814 -0.09641664 -0.054034036 0.08342248 -0.06795193 0.026805552
-0.11123694 -0.055580184 -0.06265662 0.05073525 -0.12140963 -0.113492586 -0.011950097 0.0089352485
-0.082435556 -0.03663831 -0.0032477207 -0.09327845 0.050828733 -0.07771761 -0.071529716 -0.02280208
0.077427894 0.07628872 -0.030440623 -0.04072331 0.0026456593 -0.04454929 -0.0018451799 0.024489032
-0.095045686 0.11321628 0.062557675 0.04348707 -0.1315208 -0.08078597 -0.024823887 -0.058366284
-0.06319947 0.13420661 0.067419685 0.09707386 -0.05902548 0.09325231 0.0951847 0.07447061
-0.012850732 -0.0065484727 0.011190267 0.08667105 -0.026216358 0.052114125 -0.058796518 -0.07125922
0.031296186 -0.06936927 -0.096583776 0.12970752 -0.015000609 -0.0026123642 0.10310381 0.029274715
-0.0073486627 0.035406385 -0.05729573 0.048780654 0.06508303 -0.096813 -0.13476034 -0.051540352
0.12796964 -0.0041585397 -0.05840142 -0.08790252 -0.07788915 0.01512981 0.03401886 -0.10914841
-0.11039241 0.026306545 -0.07676506 0.04941812 -0.010688201 0.069862165 0.11085033 -0.019200008
-0.038265843 -0.015006895 -0.06717741 0.006686237 -0.10667308 0.08060177 -0.0737016 0.039796047
0.03706494 0.06875554 -0.09498636 -0.02191193 -0.05601968 -0.03758286 -0.10901862 -0.0056902263
-0.0061508613 0.049975168 0.016990311 -0.04273899 -0.12066309 0.062695555 -0.092263415 -0.0122222435
0.049847197 0.04268909 0.024329802 -0.006779157 -0.093605496 0.06514601 -0.079430014 0.10117775
-0.08292015 0.035257783 -0.023658654 0.072866626 0.091749385 -0.020094236 0.037869796 0.03504407
-0.13904572 -0.06678675 -0.10248073 0.08112582 -0.07746576 0.055506203 0.039673056 0.18171355
0.008135753 0.029512884 0.087420374 -0.14194222 0.04095639 0.07653591 -0.06587421 0.08633139
0.044270035 -0.124729395 0.047142144 -0.019500827 0.09314714 0.095737346 -0.09870733 0.09293352
0.07341331 0.04817298 0.03538069 0.03387203 -0.115552835 -0.031169774 0.068139814 -0.007596386
-0.10261581 -0.13544372 -0.11014749 -0.108770035 0.022519687 -0.0015132811 -0.12361851 -0.06827227

block3.bnorm_3.weight f4 [30]
00000000: 770d 863f edf7 873f 60a4 813f 07d8 853f
00000010: 0167 823f eacd 833f 10c2 753f 5e3d 7d3f
00000020: 4fd0 813f e169 833f 5fcc 7a3f 509c 743f
00000030: 31cd 803f e129 873f c60d 853f 040d 803f
00000040: 12bc 853f 4da0 813f 637b 7d3f a1a2 853f
00000050: 4cdb 803f 3b28 863f 8cc8 733f 8b50 813f
00000060: 02d9 763f 6346 8b3f 1ac2 813f 30c9 753f
00000070: 9d6d 813f 4662 823f
1.0472859 1.0622536 1.0128288 1.0456551 1.0187684 1.0297215 0.9599924 0.98921764
1.0141696 1.0266687 0.97968096 0.95551014 1.006262 1.0559655 1.0394828 1.0003972
1.044802 1.0127045 0.990164 1.0440255 1.0066924 1.0481027 0.95227885 1.0102705
0.9642488 1.0880855 1.013736 0.9601011 1.0111576 1.0186241

block3.bnorm_3.bias f4 [30]
00000000: efb5 18bc dec2 663b fa33 9dbc 4054 553c
00000010: f659 cb3a 3385 4c3d b795 17bc 38bb bebc
00000020: 223e a93c 5557 9dbd 3c81 ddbc 4ac0 fdbc
00000030: a7fd 84bd 8c33 50bd c31c 39bd e616 f3bc
00000040: 9b2b 223d ab88 9dbc 77be 60bd 20ec 04bd
00000050: d03d 5bbd 6d00 323c 3ed9 6cbc b3e8 4bbc
00000060: 67e0 85bb 9a1d 703d 88a8 52bd 724b 30bd
00000070: d2f2 7abb 596b 03bc
-0.00932072 0.0035211365 -0.019189823 0.013020575 0.0015514481 0.049931716 -0.009252003 -0.023282632
0.02065951 -0.07682673 -0.027039163 -0.03097548 -0.06493693 -0.05083041 -0.045193445 -0.029674005
0.039592367 -0.019230207 -0.05486914 -0.03245175 -0.053525746 0.010864359 -0.014456091 -0.012445617
-0.0040855887 0.05862198 -0.051430255 -0.0430407 -0.0038291705 -0.008021199

block3.bnorm_3.running_mean f4 [30]
00000000: a5c8 e7bd 8ae1 09be 2d04 bebe 5187 debd
00000010: ea80 55bd 09d9 95be 7b3c cdbe f3d4 c33d
00000020: 6327 fcbe 2652 18bf ee63 333e 90bf 53be
00000030: 009b babd 8bdd 85bd b160 47be 7f85 8cbe
00000040: f4a5 59be 93cc 0dbf a26b e5be 7d36 c1be
00000050: e610 1bbe 97ee 15be 22f3 6ebe 1813 21bf
00000060: 2f38 e63e 93bc 56be 7e33 12be bae0 3e3e
00000070: 1172 a4be 50a6 223e
-0.11317567 -0.13464943 -0.3711256 -0.10865653 -0.052124895 -0.29267147 -0.40085205 0.09562101
-0.492488 -0.5950035 0.17518589 -0.20678544 -0.09111595 -0.065363966 -0.19470479 -0.274456
-0.21254712 -0.5539028 -0.4480868 -0.37736884 -0.15143165 -0.14641796 -0.23334935 -0.6291976
0.4496474 -0.20970373 -0.14277455 0.18640414 -0.32118276 0.15883756

block3.bnorm_3.running_var f4 [30]
00000000: f60e c63e 6e1a 8c3e 2cd9 463f 9755 7d3e
00000010: fc8d 793e 8823 8a3e 45da 9c3e c3be f03e
00000020: 7e22 c03e e6a1 a83e 1a16 cd3e 1d93 b43e
00000030: 52a8 823e be2e c93e 4aef ab3e 5584 433f
00000040: a889 d03e 2bd5 0a3f 500b c93e 1a05 a13e
00000050: 0e54 283e 945f c13e 79ab cc3e b156 293f
00000060: 06fa d03e 0830 833e db0f 273e 28cb d33e
00000070: a5ab a73e 8996 ce3e
0.3868329 0.27363914 0.7767513 0.24739681 0.24370569 0.26980233 0.30635276 0.4702054
0.37526315 0.3293602 0.40055925 0.3526849 0.25519043 0.39293474 0.33581 0.763738
0.40730023 0.5423152 0.39266443 0.31449205 0.16438314 0.37768233 0.39974573 0.66147906
0.40815753 0.25622582 0.16314642 0.41365933 0.32748142 0.40349224

block4.conv_4.weight f4 [30, 30, 10]
00000000: cdad b23b 4a84 063c b15e 493d db6d 0cbd
00000010: d1fe fc3d eb44 003c 1dfe a53d b97e a83d
00000020: 7a1d cc3d a59a 0ebd 10cd e8bc 701d 9bbd
00000030: 9c6c a13d a2ce 68bd bf08 333d 9e45 33bd
00000040: 62ca bdbc f714 35bd e96d 66bd 1174 24bc
00000050: c4bc 713d 14f9 9d3d eb7e 99bd b597 80bd
00000060: 9409 433c e892 2cbd 48f0 a6bd 6fc8 8bbd
00000070: 84ee bebc d605 6eb9 b3f8 9cbc 4809 cabc
00000080: ab70 20bd 1605 e13d 5e6e aabd 6e9a 78bd
00000090: 0857 7d3d 2ee3 683b 3a63 ecbc 6597 c13d
000000a0: f0da 243c dc01 f83d 5a9f c6bd 0d44 1f3d
000000b0: fbc9 4f3d 53a2 c53d 8276 823d 204d 553d
000000c0: 44e7 81bd 5211 2cbd 848c 383d a5f6 3d3d
000000d0: 24c7 6b3d fba6 393d 09b2 c1bd 3953 ddbb
000000e0: 2b99 3c3b 88ae 853c 24b8 963d 3802 f13c
000000f0: 1a77 183d f404 86bc c112 c23d 8f94 333d
00000100: 38fa 91bd 5655 933d 290c 44bd b96f 29ba
00000110: 5f77 78bc 7f11 94bc 872b 463a 5fe8 683d
00000120: b67e fcbc 8ec6 523b 4894 f63c ba3d 8f3d
00000130: 1ba7 0abd 43df 0ebc 9438 6b3a 88bd 7dbb
00000140: b5f3 4ebc 1784 e8bd 818b 9f3d 1478 b8ba
00000150: 686a 70bd a41d b63d 3607 b43d 6a8a 103d
00000160: c0b0 253c e034 d73d a07a 533d be1d 093e
00000170: 26b3 a33d 8916 d0bd 4e21 933d c792 1dbd
00000180: 7061 e5bb 077d 0fbd d7b9 86bd 190b 803d
00000190: efd9 2cbd 8e0f 28bd fa22 3c3b 6feb c1bd
000001a0: 6708 98bd 5138 bc3b fa05 4b3d aa77 913d
000001b0: ba47 2dbd 4162 c1bc e78b 883c 7a9e 92bd
000001c0: 5237 84bd 3c94 59bd f112 e93c 40b8 e7bc
000001d0: 9c03 373c 010f c43d fb62 49bd 9564 683d
000001e0: d770 6d3d b368 88bd b676 8fbc 3f19 b3bd
000001f0: 2353 183d 9be4 843d 075d a03c e5dc cbbd
00000200: 06ed 18bc de98 293d 411d adbd b489 5abd
00000210: 108d dbbd 70ee 42bd 29d1 0fbd 4dbd 1d3d
00000220: 44f5 553d c288 abbd dc76 243d be2f 843c
00000230: 59f8 9abd b0b8 73bd a975 f8bc d63d 80bd
00000240: aef4 89bd b0fc dc3d 5aaa d8bc ca26 e53c
00000250: 883b 913d 7474 383c 2511 3a3d a0e8 d73c
00000260: e3ea 993d 88bb 1d3d 7c0a bf3d 016f a33c
00000270: cc54 c43b ba1e 9bbd 014c 763c 7d10 78bd
00000280: 09aa 823c 8077 b63c 0f29 893d 7e5f 29bd
00000290: 1506 b5bd a220 a43d ce30 403d e8ed 633c
000002a0: 8f91 873d 0372 2b3d 6991 b9bd f177 c3bd
000002b0: 489d de3b 7b6e 69bc 77b2 973d c18c fe3d
000002c0: 4a55 ba3d 4ddd e9bd 0c93 bb3d 371a 8e3c
000002d0: 240f 183e a89b 9cbd 0b5f 77bc b485 e73d
000002e0: bdee 3c3d fc3c 3e3d 9989 b5bd 3981 cebb
000002f0: 7d00 7f3d 5f35 0b3c 0826 16bd caad d73d
00000300: 099a ee3c 8644 3cbd ff88 96bd 2d4f 62bc
00000310: 20d6 50bd 66b9 193b e419 2dbc 33f4 1cbc
00000320: f9e2 b5bb a632 903c 934f 3dbc 0490 57bd
00000330: 5d56 d1bc 35ae c2bd 82b8 83bd 3ff4 a83d
00000340: 397e e03b 6ecd 123d 1b2f a4bd 0ca5 6dbd
00000350: ee73 df3d 2956 b43d bb22 ef3d 59ee a239
00000360: e2f8 3ebd cdf4 7cbd 2c07 67bd 545d 7cbd
00000370: 56cd 5e3d 5762 1bbd e423 26bd d178 9c3c
00000380: e73d f9bc 308b a7bd ac22 b33d 40aa 8d3d
00000390: f35f aa3d 0ed7 1abd 548f 683d 108e 99bd
000003a0: 03d6 113d 2b7b 563c 06da 7a3d 2f77 58bd
000003b0: 84e0 253d 2645 e2bc 6532 993d ca9d f13d
000003c0: 49a2 97bd 61d7 a83d 8eaa 953d 163f a13c
000003d0: 97ac a1bd 32a6 a23d 5cc4 ccbc f8e5 223d
000003e0: a11b 3c3c d7b6 d73d e55e 89bd cebb a4bc
000003f0: c3a8 9c3d f890 9dbd b469 a3bc 9465 b8ba
0.0054528476 0.008210251 0.04916257 -0.034284454 0.1235329 0.007828931 0.08105109 0.082272954
0.0996656 -0.03481545 -0.028418094 -0.07573974 0.07882044 -0.056837685 0.043709513 -0.043767564
-0.023167793 -0.044209447 -0.056257162 -0.010037438 0.05901791 0.077135235 -0.07494911 -0.06278936
0.011904139 -0.04213229 -0.08151299 -0.06825339 -0.023307092 -0.00022699623 -0.019161558 -0.024662629
-0.03916995 0.10987298 -0.08321832 -0.06069415 0.061850578 0.00355358 -0.028855909 0.09452704
0.010061964 0.1210973 -0.09698363 0.038883258 0.050729733 0.096501015 0.0637026 0.052075505
-0.063429385 -0.042008705 0.04505588 0.046377797 0.057562962 0.04532526 -0.09457786 -0.0067543057
0.0028777819 0.016318575 0.07359341 0.029420003 0.03722296 -0.016359784 0.09476233 0.04384285
-0.071278036 0.07194011 -0.04786316 -0.00064634864 -0.015165179 -0.018074749 0.00075595867 0.05686223
-0.03082214 0.0032161805 0.030100003 0.06994195 -0.03385077 -0.008720222 0.00089729694 -0.0038717706
-0.0126313465 -0.11353319 0.0779028 -0.0014073872 -0.058695227 0.08892372 0.08790438 0.035288252
0.010112941 0.10508132 0.051630616 0.13390252 0.07993154 -0.10160548 0.07184087 -0.038470056
-0.007000141 -0.035031345 -0.06578415 0.06252117 -0.042200025 -0.04103046 0.002870737 -0.094687335
-0.074234776 0.005744018 0.049566247 0.07102902 -0.042304732 -0.023606421 0.016668273 -0.07159133
-0.06455864 -0.053119883 0.028451415 -0.0282861 0.011170294 0.09573174 -0.04916666 0.056736547
0.05796894 -0.06660595 -0.01751266 -0.0874505 0.03718866 0.064889155 0.019575609 -0.09954242
-0.009333855 0.04140555 -0.08452845 -0.05335398 -0.10720265 -0.047590673 -0.03511158 0.03851061
0.052235857 -0.08375694 0.040152416 0.016136046 -0.075669 -0.059502304 -0.030329542 -0.06261794
-0.06736122 0.10790384 -0.026448417 0.027972598 0.07091433 0.011258233 0.045426507 0.026356041
0.07515504 0.03850892 0.093281716 0.019950392 0.005991554 -0.0757422 0.015032769 -0.0605626
0.01595022 0.022273779 0.066972844 -0.041350834 -0.08839051 0.08014037 0.046921544 0.013911702
0.0661956 0.041856777 -0.09060938 -0.095443614 0.0067936517 -0.014247532 0.07407086 0.124291904
0.09098299 -0.11419163 0.09158906 0.017346485 0.14849526 -0.076468766 -0.015098344 0.11304799
0.046126116 0.046444878 -0.08864135 -0.0063020256 0.062256325 0.008496611 -0.036657363 0.105311945
0.029126184 -0.045963787 -0.07350349 -0.013812822 -0.050985456 0.0023456453 -0.010565255 -0.009579706
-0.005550739 0.017602276 -0.0115546165 -0.05262758 -0.025553877 -0.095058836 -0.064316764 0.08249711
0.0068509844 0.035840444 -0.08016797 -0.05801873 0.10910784 0.08805496 0.11676546 0.0003107663
-0.046624072 -0.061756898 -0.056403324 -0.061612442 0.054395042 -0.03793558 -0.04056157 0.019100579
-0.030425025 -0.08180845 0.087468475 0.06917238 0.08319082 -0.03780275 0.056777313 -0.074977994
0.035604488 0.013090889 0.06124308 -0.052848037 0.040497318 -0.027620863 0.07480315 0.11797674
-0.07404 0.08244205 0.07307921 0.019683402 -0.07894247 0.079418555 -0.024995975 0.039770097
0.011481197 0.10532921 -0.06707553 -0.020109084 0.07649376 -0.07693666 -0.019947864 -0.0014068359

block4.bnorm_4.weight f4 [30]
00000000: f473 833f 65b6 883f fdda 833f eafa 833f
00000010: c688 853f 378b 8a3f f7aa 893f 463a 833f
00000020: bf0c 853f f338 853f f5c1 873f 202f 813f
00000030: 6eb6 823f 5272 803f 08a5 883f 57f4 843f
00000040: 8165 863f f80d 833f 2674 863f 0605 893f
00000050: 74fe 873f 1287 883f 6591 983f b1c9 813f
00000060: 2c02 823f 1eb4 803f 212b 883f 9770 893f
00000070: 8318 873f a57e 813f
1.0269761 1.0680662 1.0301205 1.0310948 1.0432365 1.0823735 1.0755299 1.0252159
1.0394515 1.0408005 1.0606066 1.0092506 1.0211923 1.0034888 1.0675364 1.0387067
1.0499727 1.0238638 1.0504196 1.0704658 1.0624528 1.066622 1.1919371 1.0139676
1.0156913 1.0054967 1.0638162 1.0737485 1.0554355 1.0116774

block4.bnorm_4.bias f4 [30]
00000000: 90c0 b1bc e280 243c eb14 9cbc 8522 02bc
00000010: da3c 0bbc 251d 62bb a7e1 5bb9 5939 85bc
00000020: 55d5 023c 3a70 dfbb b666 1bbc b2f9 8dbc
00000030: e0bc b0bc 68d3 6cbc 4f33 7f3b 11e6 ae3b
00000040: c6a2 3dbc 9d7b 15bc 331a 2cbc 486e 3b3c
00000050: 8094 a238 d860 373c dc1c 083d 41d7 2fbc
00000060: 34ad f2bb e9c8 95bc c9ce aa3a e8f0 ec3b
00000070: 25cd 23bc b9ba 92bc
-0.021698266 0.010040494 -0.019052943 -0.0079428 -0.008498395 -0.0034502235 -0.0002096953 -0.016262697
0.007985433 -0.0068187984 -0.009484937 -0.017330978 -0.021574438 -0.0144547 0.0038940494 0.0053374846
-0.011574453 -0.00912371 -0.010504293 0.011439867 7.752422e-05 0.011192523 0.033230647 -0.010732473
-0.0074059013 -0.018284278 0.0013031597 0.0072308667 -0.009997641 -0.017911302

block4.bnorm_4.running_mean f4 [30]
00000000: 2e6c 233f cf0b cbbd a8b5 b33e 755c 03be
00000010: ff92 4e3e 45fe ba3e 69cf 40bd 8a02 c93d
00000020: 037d 31be 1bf7 013f 169d ce3e 7829 a3bd
00000030: 9c17 d93e 5ede a9be abe7 15bc 337b 03bf
00000040: 6c2f 823d ed44 bc3e 026b 673e 013c 253e
00000050: eeb1 1c3f f250 8fbe 5633 da3e a79d c2be
00000060: 169d 4e3e dfcb a0be ad10 013e 2742 3cbe
00000070: 8528 dd3e 45f3 e43e
0.63836944 -0.09914362 0.3509953 -0.12828238 0.20173262 0.36522117 -0.0470728 0.098149374
-0.17332844 0.5076768 0.40354222 -0.07966894 0.42400825 -0.33177465 -0.009149472 -0.5135986
0.06356701 0.36771336 0.22599414 0.16136171 0.61209 -0.27991444 0.4261729 -0.38010904
0.20177111 -0.3140554 0.12604018 -0.1838461 0.43194976 0.4471685

block4.bnorm_4.running_var f4 [30]
00000000: 8826 ac3e 715b 093f 3233 9d3e c118 873e
00000010: 1d13 a93e eee9 943e a824 c63e ff30 033f
00000020: 55b1 0f3f da66 9d3e b998 813e 7c44 863e
00000030: b359 c33e 235a d53e 588a 0d3f 9047 0d3f
00000040: f073 283f e893 f83e acda 9d3e c293 bc3e
00000050: 9de2 ed3e 53fb bf3e d0c3 873e 0e58 d53e
00000060: 72a1 ba3e 52c4 163f 270f e93e b9df eb3e
00000070: a88d de3e 7dd9 293f
0.33623147 0.53655154 0.3070312 0.26386073 0.33022395 0.29084724 0.38699841 0.5124664
0.5612996 0.30742532 0.2531183 0.26224124 0.38154373 0.4167033 0.5528922 0.5518732
0.65801907 0.48550344 0.30830896 0.3683148 0.46461955 0.37496433 0.2651658 0.41668743
0.36451298 0.5889331 0.45519373 0.46069124 0.4346745 0.66347486

conv_channel_res.weight f4 [1, 30, 3]
00000000: 8c5f 58bb ee16 82bd 1ccc 8ebd cae8 483a
00000010: cc3e bb3d 37be b33d 3562 2bbd f3ea 0bbe
00000020: 6026 0ebd e7ec 09be d44c f7bd 9f9d f6bd
00000030: 73f9 f1bd 9376 0bbe 983f 0ebe b235 02bd
00000040: c6fc 263e 7e01 2f3e 1f1f 013e bd67 01bd
00000050: 13c4 ae3d 5d69 06bd a83e 8fbd 7cd3 e2bd
00000060: b35a 613c a76f 533d 2316 643d 6808 e3bd
00000070: 862e 9abd 72e6 18be d1c9 8e3d b2da e5bd
00000080: 5f64 46bc 01bd 25bd a8b5 c1bd b05a 64bd
00000090: 6c3f 1b3c 3374 16bd 32d5 d0bd 8e26 b1bd
000000a0: 69fb 9bbd d917 c4bd c39b 9abc dd40 013e
000000b0: 76a7 193e 5216 51bc 340c 813d b9de d33d
000000c0: 27de a9bb abd8 cfbd e7ec 05be 500a 3dbd
000000d0: 5805 bcbc 1712 dcbd c81c ebbd 4005 8c3d
000000e0: 5cae 5fbd 8fa1 da3c 27ba 1f3e 7385 113e
000000f0: ee35 cb3d dcd8 053e de69 4f3d 4cd0 d63d
00000100: df30 ff3c 95d9 103e df1f 073e 71b2 aabd
00000110: d27e 57bd e596 3abd 1583 e6bd 8950 153d
00000120: 027a ac3c d3fa e3bd 7fbc f5bc 0175 30bd
00000130: 9a14 60bd d035 eebd b0d4 733d e86a 9dbb
00000140: 325e debd ae1c 48bc 82ad f23d 088f b23d
00000150: 5fc2 f73d f2a9 b63d 2028 4b3d 2157 99bd
00000160: 0a49 1a3c d39b 7abd
-0.0033015935 -0.0635203 -0.069725245 0.0007664083 0.09142837 0.08776515 -0.041841704 -0.13663845
-0.034704566 -0.13469277 -0.12075201 -0.120417826 -0.11815157 -0.13619451 -0.13891447 -0.03178949
0.16307363 0.17090413 0.12609528 -0.031593073 0.08533492 -0.032815326 -0.069943726 -0.11075494
0.013754535 0.05162015 0.055685174 -0.11085588 -0.07528405 -0.14931658 0.06972087 -0.112233534
-0.012108891 -0.04046345 -0.09458476 -0.05575055 0.00947557 -0.03673191 -0.10196914 -0.08649932
-0.07616312 -0.09574861 -0.018873101 0.126224 0.15005288 -0.012761669 0.06301156 0.10345215
-0.0051839533 -0.10148748 -0.13078652 -0.046152413 -0.022951767 -0.10745638 -0.11480099 0.06836939
-0.05460964 0.026688365 0.15598355 0.14211063 0.09922396 0.13071007 0.050638072 0.10488948
0.031151233 0.14145501 0.13195752 -0.08334816 -0.05261118 -0.04555406 -0.11255471 0.036453757
0.021054272 -0.11131825 -0.029997109 -0.043080334 -0.054707147 -0.11631358 0.059529006 -0.004804004
-0.1085781 -0.012213869 0.118495 0.08718687 0.1209762 0.08919133 0.049598813 -0.07487322
0.009416828 -0.06118376

classifier_conv.weight f4 [32, 1, 35]
00000000: 0911 94bc 3432 43bd f7f1 443c 4654 d0bc
00000010: 102e 9f3c bb59 cabd d96d f9bd 8b90 96bd
00000020: 1fc5 27bd 1ae7 6bbd 52fa 06be 5dea 58bd
00000030: 7ee1 f7bd 7695 c2bd ef9c 2ebe c355 2fbe
00000040: 6b6f 1dbe 6166 1fbe 65f8 4abe d647 21be
00000050: 00f9 34be 03a7 0abe 4a13 6fbe 1918 79be
00000060: 242d 04be 3418 44be e00e 42be 8cb5 8abe
00000070: 4cc8 5dbe 8605 90be cee0 fe3d a0c7 bdbe
00000080: 9725 6b3e b36f 9cbd 9021 0c3e 79b1 9ebb
00000090: 3e23 183d 5aca 83bc 96df 853d 5334 4d3d
000000a0: f9ab 2dbb 2d3b 3f3d cc57 9e3d 3fb4 423d
000000b0: 1e88 123e b697 2f3d 7a07 263e bf7e 033e
000000c0: ae77 4b3e 0e06 533e 627a 243e 990d 2b3e
000000d0: 5119 4a3e 2cf2 843e 1982 8a3e 9a19 213e
000000e0: eafc 363e 2b54 8f3e 6a47 5b3e 2599 643e
000000f0: c293 8f3e 9061 983e 9680 9d3e 769e 353e
00000100: ff86 ba3e d1fd 09be 3292 e13e 56d1 99be
00000110: 375c 3d3e c123 43be 2eb0 0c3d 8fef 333d
00000120: 445c 30bd b58f f8bc db8b aabd 9eec 66bd
00000130: 9e4a a1bd bbae 72bc 3f09 b3bd 521b ccbd
00000140: 13ef 0cbe 718a 1dbe 7001 0abe 9bba 9dbd
00000150: a075 01be 53c6 e2bd 4ca0 19be 05bd 59be
00000160: e70c 46be 9131 00be 0291 42be 82be 32be
00000170: bb73 76be 11b7 75be 1ca8 40be 4d43 3dbe
00000180: 961d 6ebe c2a5 93be 391e 22be 15e6 a5be
00000190: 0581 133e 56da c7be 5708 813e 0c4d 89bd
000001a0: 2559 2e3e 854a 13bb 7cf1 64bc 5dec 043d
000001b0: 8728 8cbd eb81 303d dba5 f2bd 102f d3bd
000001c0: 7e74 08be 3477 2cbe a407 24be 0c50 e1bd
000001d0: c527 72bd f879 2abe 4977 14be 3758 22be
000001e0: dcdc 55be 7bdd 20be c97a 17be aa8e 69be
000001f0: 4493 73be 428d 8cbe 6054 57be e306 65be
00000200: a1fe 43be 9634 67be 1700 b1be 86b4 abbe
00000210: c277 7dbe dead 4cbe 360f 90be be11 c53d
00000220: 02fd d6be e400 7e3e 53f0 10be 4e76 b03d
00000230: 48e0 a3bd 7971 79bb 7d5b 003b 560f d73a
00000240: dcac 82bd 73b4 5bbd 72a5 28bd 1901 08be
00000250: c663 f4bd 6ab0 99bd 8725 13be 3564 f7bd
00000260: ec20 21be b549 2abe 7798 40be 6054 febd
00000270: ca72 52be c375 6bbe 3828 4cbe 5d5f 52be
00000280: 3b7f 14be 0ddf 35be 8ce9 a6be 6013 31be
00000290: 66b9 80be f7f4 6bbe 209a 78be 798e 9fbe
000002a0: 79bc 90be 4e1a a4be 51fb 1d3e f1b6 dabe
000002b0: 7efc 873e 193c 2bbe f112 603d 8d38 c33d
000002c0: d25a 313d fb2f 4a3d eab1 67bc 83bb 38bc
000002d0: 275e 8dbc c35b f63d 6333 b73d 8ad0 ee3d
000002e0: 0c89 f73d 863a 0a3e 207a 1c3e a006 0b3e
000002f0: 3661 333e 4a47 493e cb50 b23d c3c7 2b3e
00000300: a507 df3d 5867 113e 4031 613e 7c8c 473e
00000310: 1dd5 823e ace4 9d3e ac76 193e aa67 303e
00000320: 9b3f 833e bba4 ab3e c692 893e 6a40 343e
00000330: 92e1 9d3e bbeb 0fbe 1bd8 a73e 48ab 45be
00000340: 69c7 003e 1719 33bd ff43 7ebd fcb8 78bd
00000350: 8ceb 30bd 1c45 bfbc 0125 9bbc 7799 68bc
00000360: 9d9d d5bd c89d dcbd 56d2 48bd 6588 96bd
00000370: 787f 61bd 22e6 18be accf 1cbe 5317 44bd
00000380: 4e89 f6bd 6119 37bd 2ed2 4dbe ef6a afbd
00000390: 6604 5fbe 9087 39be 970b 6bbe 3e83 5abe
000003a0: 06ff 3cbe 6920 13be 8540 e3bd 32fc 63be
000003b0: f07a 6abe 06ac 10be 441e 22be ad7a a6be
000003c0: fbce 043e 7aca 8ebe 8964 803e 2dbf b2bd
000003d0: 19aa 943d e268 3ebd 7d38 93bd 41f4 313d
000003e0: 6dbe bfbd ce25 3b3b f0bc 58bd 3577 c5bd
000003f0: 6610 13be 1db8 61bd 7d31 e3bd dd80 d5bd
-0.01807453 -0.0476553 0.01202058 -0.02543081 0.019431144 -0.09880396 -0.12179155 -0.07351788
-0.040959474 -0.057593442 -0.13181427 -0.05295788 -0.12103556 -0.09501164 -0.17052053 -0.17122559
-0.15374534 -0.15566398 -0.19821317 -0.1575006 -0.17673111 -0.13540272 -0.23347202 -0.24325599
-0.12907845 -0.19149858 -0.18950987 -0.27091634 -0.21658438 -0.28129214 0.12445222 -0.37066364
0.22963558 -0.076384924 0.13684678 -0.0048429337 0.037142985 -0.0160877 0.06536786 0.05009873
-0.0026500209 0.046687294 0.0773159 0.047535177 0.14309737 0.042869292 0.1621379 0.12841319
0.19869873 0.20607778 0.1606231 0.16704406 0.1973622 0.25966012 0.27052382 0.15732422
0.17869917 0.27993903 0.21413961 0.22324045 0.28042418 0.29761934 0.30762166 0.1773623
0.3643112 -0.1347573 0.4405685 -0.30042523 0.18492208 -0.19056608 0.034347706 0.043929633
-0.04305674 -0.030341962 -0.083274566 -0.056378 -0.0787556 -0.014812167 -0.08741998 -0.099661484
-0.13763075 -0.15384842 -0.13477111 -0.07701608 -0.12642527 -0.110729836 -0.15002555 -0.21263511
-0.1934086 -0.12518908 -0.19000629 -0.17455485 -0.24067585 -0.23995616 -0.18814129 -0.18482704
-0.23253474 -0.288374 -0.15831842 -0.324021 0.14404686 -0.39033765 0.25201675 -0.06704149
0.17026193 -0.0022474837 -0.01397359 0.032451976 -0.068436675 0.04309265 -0.11848041 -0.10311711
-0.13325688 -0.16842347 -0.1601854 -0.11001596 -0.05911996 -0.1664809 -0.14498629 -0.15853964
-0.20885032 -0.15709488 -0.14792933 -0.22808328 -0.23786646 -0.2745152 -0.2102828 -0.22365908
-0.19140102 -0.22578654 -0.3457038 -0.33536166 -0.24752715 -0.199882 -0.28136605 0.09622525
-0.41989905 0.24805027 -0.14154176 0.08616315 -0.08001763 -0.003806202 0.0019585781 0.0016407769
-0.063806266 -0.053638887 -0.041173406 -0.13281669 -0.11933093 -0.075043514 -0.14369784 -0.1207966
-0.15735215 -0.1662968 -0.1880816 -0.12418437 -0.20551601 -0.22994141 -0.19937217 -0.2054419
-0.1450166 -0.17760868 -0.32600057 -0.17292547 -0.25141448 -0.23042665 -0.24277544 -0.31163386
-0.28268793 -0.3205132 0.15427901 -0.42717698 0.26559824 -0.16722144 0.054705564 0.095322706
0.043299504 0.049362164 -0.014141539 -0.011275175 -0.01725681 0.12029221 0.08945348 0.116608694
0.120866865 0.13498887 0.15280962 0.13576746 0.17517552 0.19656101 0.08706816 0.16775422
0.1089013 0.14199579 0.21991444 0.19487184 0.25553218 0.30838525 0.14986676 0.17227045
0.25634465 0.33524117 0.26869792 0.17602697 0.3083616 -0.14054768 0.32782063 -0.1930362
0.12576069 -0.0437251 -0.062076565 -0.06072329 -0.043193385 -0.023348384 -0.018938543 -0.014196745
-0.10430453 -0.10772282 -0.049028717 -0.07350234 -0.055053204 -0.14931539 -0.15313596 -0.047873806
-0.120379075 -0.044701938 -0.20099708 -0.08565318 -0.21779022 -0.18118119 -0.2295364 -0.21339127
-0.18456659 -0.14367832 -0.110962905 -0.22264174 -0.2289846 -0.14128122 -0.15831858 -0.3251547
0.12969582 -0.27888852 0.25076702 -0.0872787 0.07259006 -0.046486743 -0.07188509 0.04344583
-0.09362493 0.002855647 -0.05291456 -0.096418776 -0.14361724 -0.055107225 -0.110934235 -0.10424969

classifier_conv.bias f4 [32]
00000000: 5c69 843c b203 acbc 5516 9c3c 93d8 aa3c
00000010: 45a5 de3c eef8 c0bc fe6d 633c e49a b53c
00000020: bb0a 933c 97a4 933c 52af be3c 3b91 85bc
00000030: 8823 8ebc 4dc9 8fbc 7d1b 8bbc 2b2a b3bc
00000040: 099f 893c 1abc a23c 22c5 9a3c d1e1 873c
00000050: 91c4 b7bc eda9 d7bc 1aae abbc 3441 93bc
00000060: 0ef6 7c3c abbd a33c 77b5 dd3c a519 993c
00000070: 90f5 e0bc f6c9 a23c eb4e 983c 2a1f 94bc
0.01616352 -0.020997856 0.019053617 0.020855224 0.027178416 -0.023556199 0.013881205 0.022168584
0.017949453 0.018022818 0.023276959 -0.016304603 -0.017350927 -0.017552042 -0.01698088 -0.021870693
0.016799467 0.019865084 0.018892828 0.01658717 -0.022432597 -0.026326144 -0.020957042 -0.017975427
0.015439523 0.019987902 0.027064068 0.018688986 -0.027460843 0.019871693 0.018592319 -0.018081266

fc.weight f4 [2, 32]
00000000: 41a6 bc3d c77d b7bd fa90 bb3d 442c af3d
00000010: fa27 b33d 98dd b1bd 3018 b43d 5ab6 b43d
00000020: a833 bb3d bb5a bd3d 2507 b23d 5816 b1bd
00000030: 1fee b3bd e772 afbd aa0a b0bd 38bf bcbd
00000040: 6e1b ba3d f91d b33d 4005 b33d 4ae6 b53d
00000050: 5e5f a9bd 50de afbd 4efb a7bd c102 bebd
00000060: 95a3 b23d 9436 b43d fae2 ba3d d8d9 b13d
00000070: a90a b5bd 086b b13d 1394 bb3d af56 babd
00000080: a8ad bdbd b8d4 b83d 2b36 bdbd b64c b1bd
00000090: c68c b2bd b60e b13d 15d3 b4bd fb96 b4bd
000000a0: 5d4b bcbd 51fc bcbd 2957 b2bd e375 b03d
000000b0: ec9f b43d 17ca ad3d 0d6d af3d 9d8e bb3d
000000c0: e5e2 b9bd d923 b2bd 1462 b4bd dc7f b4bd
000000d0: f204 ab3d 9ed1 af3d ac9c a83d 94db be3d
000000e0: b908 b3bd 872e b3bd 8c12 bbbd 4347 b1bd
000000f0: 85d4 b23d 79d1 b0bd 5d69 bcbd 756f b83d
0.09211398 -0.08959537 0.091585115 0.08553365 0.08747859 -0.08684844 0.08793676 0.08823843
0.09140712 0.09245821 0.08692769 -0.0864684 -0.08785652 -0.08566838 -0.08595784 -0.092161596
0.09087263 0.08745951 0.08741236 0.08881815 -0.08270143 -0.085873246 -0.082022294 -0.09277869
0.08722607 0.087994725 0.091253236 0.086841285 -0.08839924 0.08662993 0.09159102 -0.09098565
-0.09261638 0.09024948 -0.09238847 -0.086572096 -0.08718257 0.08645384 -0.08829323 -0.0881786
-0.09194062 -0.09227813 -0.08708031 0.08616235 0.08819565 0.08485811 0.08565722 0.09158061
-0.0907648 -0.08698244 -0.088077694 -0.0881345 0.083505526 0.08584903 0.08233008 0.09319225
-0.08741898 -0.08749109 -0.09134397 -0.0865617 0.08731941 -0.08633704 -0.09199784 0.09005634

fc.bias f4 [2]
00000000: 1a07 c93c 0207 c9bc
0.02453952 -0.024539474
