submit_entry/checkpoints/Combined_edgcn_12s_slice_noise/V/5/best.pth (torch_old, 75847 bytes, 26 tensors)

conv_time.weight f4 [15, 1, 10]
0	0x3ca15435	0.019693473
1	0xbe06838a	-0.13136116
2	0xbcb404ba	-0.02197491
3	0xbcec3378	-0.028833136
4	0xbd09ed19	-0.03367338
5	0xbd685288	-0.056719333
6	0xbe4503ac	-0.19239682
7	0x3e307743	0.17232995
8	0x3b7c0e8b	0.0038460817
9	0x3e3a7194	0.18207389
10	0x3e3950ac	0.1809718
11	0x3e030b5a	0.12797299
12	0x3decfbd2	0.115714684
13	0x3dfdf992	0.124011174
14	0xbe3708cc	-0.1787445
15	0xbdf25163	-0.118319295
16	0x3e287251	0.16449858
17	0xbd735e6a	-0.059416212
18	0xbe37a5ca	-0.17934337
19	0xbe3110be	-0.17291543
20	0x3e2a2e0d	0.1661913
21	0xbce71489	-0.028208034
22	0x3d4302e6	0.047610186
23	0x3e00956c	0.12557
24	0xbd9aabde	-0.07552312
25	0xbe47bd83	-0.19505887
26	0x3d2600b5	0.040528018
27	0xbdf1cde7	-0.11806851
28	0xbd13602f	-0.0359804
29	0x3dda286c	0.10652241
30	0x3d8e5b53	0.069510125
31	0x3d584a27	0.052805092
32	0xbded05e6	-0.11573391
33	0xbd8e1860	-0.06938243
34	0x3df5f263	0.12009122
35	0xbd2fd4ad	-0.042927433
36	0x3d2ea5aa	0.04263846
37	0xbc7d07fe	-0.0154438
38	0xbcedc908	-0.029026523
39	0xbda21416	-0.07913987
40	0x3e14b75b	0.1452307
41	0xbd9c7d28	-0.07641059
42	0xbd5c6edc	-0.05381666
43	0xbd73850e	-0.059453063
44	0xbdd2441e	-0.102668986
45	0x3e398970	0.18118834
46	0xbe37f1ec	-0.1796338
47	0xbe184bff	-0.1487274
48	0x3ddd9533	0.10819473
49	0x3e1a38e2	0.15060762
50	0x3db1b51c	0.08677122
51	0xbe275b38	-0.16343391
52	0xbd127a50	-0.035761178
53	0x3e2891a8	0.16461813
54	0x3e032dba	0.12810412
55	0xbe011a17	-0.12607609
56	0xbdf4e1be	-0.119571194
57	0x3e5329f3	0.20621471
58	0x3da44d1c	0.0802252
59	0x3e26abbe	0.16276452
60	0xbe0077c3	-0.12545685
61	0x3d8ae4fd	0.06781957
62	0x3e3b35d0	0.18282247
63	0xbe0ab8eb	-0.13547103
64	0x3d115d34	0.035489276
65	0xbe18b11a	-0.14911309
66	0x3da83a44	0.08214238
67	0xbd1c00ef	-0.038086828
68	0xbe2071ba	-0.15668383
69	0xbc741748	-0.014898129
70	0x3d8f7ea6	0.07006578
71	0xbdb271e2	-0.08713128
72	0x3c277e33	0.010222959
73	0x3e1eb498	0.15498579
74	0xbd58e7a6	-0.052955292
75	0xbd0b4077	-0.033997025
76	0xbe502084	-0.20324904
77	0xbe072e2d	-0.13201208
78	0xbdb7456b	-0.08948787
79	0xbe23321f	-0.15937088
80	0x3dd64fad	0.10464416
81	0xbc6d5d1e	-0.014487533
82	0x3cda4a45	0.026646743
83	0x3de9e6e3	0.11420991
84	0x3e16b0b0	0.14715838
85	0x3d750d5c	0.059827194
86	0x3e401260	0.1875701
87	0x3dc3b82d	0.09556613
88	0x3d8b24eb	0.06794151
89	0x3dd9d09c	0.10635492
90	0x3dd40d0d	0.10354052
91	0xbdca0ead	-0.098660804
92	0x3e2aecb4	0.16691858
93	0xbda05cb6	-0.07830183
94	0x3e357d74	0.17723638
95	0xbc436d8b	-0.011927973
96	0x3e0b7914	0.13620406
97	0xbe19a2a3	-0.15003447
98	0xbd1285e4	-0.03577222
99	0xbe17766c	-0.14791268
100	0x3d9c142a	0.076210335
101	0x3d4838f0	0.048882425
102	0x3e470ec4	0.19439226
103	0x3bdcfd78	0.006744083
104	0xbe189081	-0.14898874
105	0x3d93f714	0.07224861
106	0x3dc87901	0.09788705
107	0xbe273a41	-0.16330816
108	0x3c424111	0.011856333
109	0x3c3d5064	0.011554811
110	0xbe385b8f	-0.18003677
111	0x3e0993ca	0.13435283
112	0xbc8fcf8f	-0.017555026
113	0xbdbfabb6	-0.09358923
114	0x3d228eba	0.039686896
115	0x3dff7d21	0.12475038
116	0x3d676967	0.056497004
117	0xbde1ac35	-0.11019174
118	0xbcf511d7	-0.029915733
119	0x3bf2109d	0.0073872344
120	0x3e075634	0.13216478
121	0xbdee45d6	-0.11634414
122	0x3e2921a3	0.16516738
123	0xbc703776	-0.01466166
124	0x3dce8bce	0.100852594
125	0xbd040ce2	-0.03223885
126	0xbe0bd5f6	-0.13655838
127	0xbd80ec5c	-0.06295082
128	0x3d846b87	0.06465822
129	0x3db14f0e	0.086576566
130	0xbd7c0925	-0.06153216
131	0xbb97cc7f	-0.004632532
132	0xbd9101ec	-0.07080445
133	0xbd701d8b	-0.058621924
134	0x3c32bfc1	0.0109099755
135	0xbd318146	-0.043336175
136	0x3e008c37	0.12553488
137	0xbd2f4078	-0.04278609
138	0x3e345265	0.17609556
139	0x3c467489	0.012112745
140	0xbe4b2016	-0.19836459
141	0x3d20b0c7	0.039231088
142	0xbd0df30d	-0.03465562
143	0x3e18607b	0.14880554
144	0xbd388c7c	-0.04505585
145	0xbe203af2	-0.15647486
146	0x3de2fadf	0.11083006
147	0xbb19b5fb	-0.0023454416
148	0xbdd8e55a	-0.1059062
149	0x3d149337	0.036273208

conv_time.bias f4 [15]
0	0xbb583075	-0.0032987867
1	0xbbdca5ce	-0.0067336326
2	0xbc611eda	-0.013740266
3	0x3acb08ac	0.0015490255
4	0x3b36bcfc	0.002788364
5	0xbc407086	-0.011745578
6	0xbbba91b2	-0.0056936378
7	0x3c018785	0.0079058455
8	0x3c14923a	0.009068066
9	0xbba431b3	-0.0050108074
10	0xbc87ac68	-0.016561702
11	0xbc15fd13	-0.009154576
12	0x3c6497a7	0.013952172
13	0xbc1d68f8	-0.009607546
14	0xbbb0b68e	-0.005392856

bnorm.weight f4 [15]
0	0x3f7cc70d	0.9874123
1	0x3f8187ab	1.0119528
2	0x3f80e99f	1.0071295
3	0x3f79527d	0.9739149
4	0x3f81e89c	1.0149112
5	0x3f7e8c6a	0.99433005
6	0x3f773358	0.9656272
7	0x3f811fb4	1.00878
8	0x3f7d6177	0.98976845
9	0x3f83eed0	1.0307255
10	0x3f7c3331	0.9851561
11	0x3f7a9035	0.9787629
12	0x3f7b48ec	0.98158145
13	0x3f87bcd6	1.0604503
14	0x3f7e8572	0.9942237

bnorm.bias f4 [15]
0	0x3d2bd45b	0.041950565
1	0xbc93afd1	-0.018028172
2	0x3c68425a	0.014175976
3	0xbd0a7e7a	-0.033812024
4	0x3c83e646	0.016101014
5	0x3c090cdc	0.008364882
6	0xbce7be0e	-0.028288867
7	0xbd003638	-0.031301707
8	0x3c972639	0.018450843
9	0x3cfed6ff	0.031108378
10	0x3c8083cb	0.015687844
11	0x3d34a34a	0.044101037
12	0x3c4bf811	0.01244928
13	0x3d93711f	0.071993105
14	0x3b471bbd	0.0030381524

bnorm.running_mean f4 [15]
0	0xbcd05333	-0.025430297
1	0xbbb1ec95	-0.005429814
2	0xbbac5a4c	-0.0052597877
3	0xbc6a344e	-0.014294697
4	0xbbc56cd4	-0.006024936
5	0x3da8e4e6	0.08246784
6	0xbd8bdce5	-0.06829242
7	0xbdf9ee80	-0.122036934
8	0x3e6c47b0	0.23074222
9	0x3c3564dd	0.011071411
10	0x3d0d42f5	0.034487683
11	0xbcd745e9	-0.026278453
12	0x3d757cc1	0.059933428
13	0x3acbe12a	0.0015554775
14	0xbd67eb78	-0.056621045

bnorm.running_var f4 [15]
0	0x3c8faba5	0.017537901
1	0x3cd1c08d	0.02560451
2	0x3bb90be8	0.0056471713
3	0x3bbe5cbc	0.0058093946
4	0x3ba06a3e	0.0048954776
5	0x3e35439b	0.1770157
6	0x3d9e9748	0.07743698
7	0x3eadba9d	0.33931437
8	0x3f75e677	0.96054786
9	0x3c4ab3d7	0.012371979
10	0x3d5e8718	0.054328054
11	0x3bd67a58	0.006545346
12	0x3d2ac1b8	0.04168865
13	0x3bfec28c	0.0077746566
14	0x3d53599f	0.05159914

block2.conv_2.weight f4 [15, 15, 10]
0	0xbdd681c2	-0.10473968
1	0x3cb0de3f	0.02159035
2	0xbcf4b2f0	-0.02987048
3	0x3daa2fd5	0.083099045
4	0x3db8c883	0.090226196
5	0xbda5a0bb	-0.080872975
6	0xbc79263b	-0.015206869
7	0xbd9722a4	-0.07379654
8	0xbdbbcf9d	-0.091704585
9	0x3dea10ec	0.11429009
10	0x3d32c740	0.04364705
11	0xbd31d787	-0.043418434
12	0xbdd37cbb	-0.10326525
13	0x3dbeb5eb	0.09312042
14	0xbc82ca7b	-0.01596569
15	0x3d8abb1e	0.06773971
16	0xbe239d90	-0.15978074
17	0xbc34c379	-0.011032932
18	0x3dec81a1	0.11548162
19	0xbdf0a512	-0.11750235
20	0x3da3e4c2	0.080026165
21	0xbd02a218	-0.031892866
22	0x3c08edb3	0.008357453
23	0xbe0fe324	-0.14051491
24	0xbddc5317	-0.10758036
25	0xbe0ce83c	-0.13760465
26	0xbe248a0c	-0.16068286
27	0x3d8ce539	0.06879658
28	0xbd174fa9	-0.036941204
29	0x3ca20af0	0.019780606
30	0xbdb85f13	-0.09002509
31	0x3dd42b6c	0.103598446
32	0x3da46099	0.08026237
33	0xbdbe796f	-0.09300505
34	0xbdbb3351	-0.09140647
35	0xbd771bf1	-0.06032938
36	0xbdff2036	-0.124573156
37	0x3cb49676	0.022044402
38	0x3d89fb76	0.067374155
39	0x3cdce7c2	0.02696598
40	0x3d7fdda0	0.062467217
41	0xbc8d8167	-0.017273618
42	0xbcb9a477	-0.02266143
43	0xba2e7390	-0.00066547934
44	0x3c7df826	0.015501058
45	0x3d1fcafd	0.039011944
46	0x3e3673d2	0.1781762
47	0x3d573610	0.052541792
48	0xbdd3b5f1	-0.10337437
49	0xbde7213a	-0.11285634
50	0xbdfada93	-0.12248721
51	0x3db69dae	0.08916794
52	0x3d3c9d9a	0.046048738
53	0xbda5d4f2	-0.08097257
54	0xbdab1e04	-0.083553344
55	0x3dd1d5fa	0.10245891
56	0x3cf3671f	0.029712258
57	0xbdd2a9e6	-0.10286312
58	0xb9a891b2	-0.00032152008
59	0xbdb0cf9e	-0.0863335
60	0x3c6eda13	0.01457836
61	0xbd21c112	-0.039490767
62	0xbdcef703	-0.101057075
63	0xbd4b6ea2	-0.049666055
64	0xbc503c78	-0.012709729
65	0x3d0ba67b	0.034094315
66	0x3b90b28c	0.0044158157
67	0x3d3e1936	0.04641076
68	0x3c31d37f	0.010853647
69	0xbc7cbda6	-0.015426075
70	0x3da9d98d	0.08293448
71	0xbd25c6e9	-0.0404729
72	0x3e0a2ac8	0.13492882
73	0x3b0f72e1	0.0021888542
74	0x3d17b1e1	0.037034873
75	0x3cdd7804	0.027034767
76	0x3bb90524	0.0056463648
77	0xbd593cd4	-0.053036526
78	0xbd97ca1b	-0.074115954
79	0xbe100eea	-0.1406819
80	0xbc4f0af1	-0.012636886
81	0xbd9613e3	-0.07328012
82	0xbe0a7133	-0.13519745
83	0xbe1065e4	-0.14101368
84	0xbdaeec6e	-0.08541189
85	0x3b9e965e	0.0048397025
86	0x3e0d485c	0.13797134
87	0xbce83efc	-0.028350346
88	0x3e0b6a0c	0.13614672
89	0xbd0bdb7a	-0.034144856
90	0x3dd78ffa	0.10525508
91	0x3d7a5714	0.0611182
92	0xbdeb36aa	-0.11485036
93	0xbd0113f5	-0.031513173
94	0xbde6eb69	-0.1127537
95	0xbdf8efc8	-0.1215511
96	0x3db31387	0.08743959
97	0x3cc12c34	0.023580648
98	0x3d15b1df	0.036546584
99	0xbe0b3a42	-0.13596442
100	0xbd855289	-0.06509883
101	0x3b8604ce	0.004089928
102	0xbe07f75f	-0.13277958
103	0xbc42b2d2	-0.011883454
104	0x3d8a2629	0.0674556
105	0x3d308f36	0.043105327
106	0x3d866ba1	0.06563497
107	0xbdd5578f	-0.10417091
108	0x3de47bd8	0.11156434
109	0x3c5e957b	0.013585444
110	0x3d99534d	0.074865915
111	0xbda54ebb	-0.08071657
112	0x3d33fbd8	0.04394135
113	0x3cf4c49d	0.029878909
114	0xbba77aff	-0.005111098
115	0x3e062c3c	0.13102812
116	0x3df4473e	0.11927651
117	0x3c43d54f	0.011952712
118	0x3e103f59	0.14086665
119	0xbd8970b8	-0.067109525
120	0xbd56b0bb	-0.052414637
121	0x3ccb6174	0.024826743
122	0x3d3f2645	0.046667356
123	0xbce1fbb5	-0.027585844
124	0x3df83922	0.12120272
125	0x3dacf51b	0.08445188
126	0xbc0e7644	-0.008695189
127	0xba49bf08	-0.00076960074
128	0x3df0cade	0.11757444
129	0xbda02d71	-0.07821167
130	0x3dd702b6	0.10498564
131	0x3db30659	0.08741445
132	0xbdf78627	-0.120861344
133	0xbdd14321	-0.10217882
134	0xbd048ee4	-0.032362834
135	0x3de81f24	0.113340646
136	0xbd812cda	-0.06307383
137	0xbe2ba788	-0.16763127
138	0x3dda8cbf	0.106713764
139	0xbddd6999	-0.10811157
140	0xbcad63f7	-0.021165831
141	0x3cb18f77	0.021674855
142	0xbd8994ea	-0.06717856
143	0x3deaec11	0.11470807
144	0x3df05e74	0.117367655
145	0x3ccffea2	0.025389973
146	0x3d91a6fe	0.07111929
147	0x3b59b375	0.0033218537
148	0x3c4ee3dd	0.012627569
149	0x3d76c7e1	0.060249213
150	0xbd7d514a	-0.0618451
151	0xbe0bbabe	-0.13645455
152	0x3d8b5f1d	0.06805251
153	0x3cd5859e	0.02606469
154	0xbdda6a53	-0.10664811
155	0xbd24a397	-0.040195074
156	0x3dc657a4	0.09684685
157	0xbd96e5be	-0.073680386
158	0xbe0ddd89	-0.1385404
159	0x3d07d849	0.03316525
160	0x3d8cb8f2	0.06871213
161	0x3d52ae4f	0.051435765
162	0xbdd6b439	-0.104835935
163	0x3d8c5faa	0.06854184
164	0xbdb2e69c	-0.087353915
165	0xbd3629c5	-0.04447343
166	0xbe0efef5	-0.13964446
167	0xbdfbf1d5	-0.12301985
168	0xbe1b7cb7	-0.15184294
169	0x3e015023	0.12628226
170	0x3e080992	0.13284901
171	0xbe04e2fe	-0.12977216
172	0x3b4657ff	0.0030264852
173	0xbe08b6a4	-0.13350922
174	0xbc5c84d7	-0.013459406
175	0xbcd1c43a	-0.025606263
176	0xbe0029b9	-0.12515916
177	0x3d0a806d	0.033813883
178	0xbda40717	-0.08009165
179	0xbd833334	-0.064062506
180	0x3dae18de	0.08500837
181	0x3dad19a4	0.08452156
182	0x3d7a0e6c	0.06104891
183	0xbd9c161d	-0.07621405
184	0x3df2c6f9	0.11854357
185	0xbdcd0a7f	-0.100117676
186	0xbdec7367	-0.11545449
187	0x3c2a651f	0.010400086
188	0xbd9cb4e3	-0.07651689
189	0x3d02dcc5	0.031948823
190	0xbd62bc17	-0.055355158
191	0xbd0134d1	-0.03154451
192	0xbd190f32	-0.037368007
193	0x3df1cd26	0.11806707
194	0xbe090bd0	-0.13383412
195	0xbe099f4b	-0.13439672
196	0xbd4760ed	-0.04867642
197	0x3dec042d	0.11524234
198	0xbdea92ff	-0.114538185
199	0xbca18f1b	-0.019721558
200	0x3d8a7257	0.0676009
201	0x3d331e19	0.043729875
202	0xbdcddb5f	-0.10051607
203	0x3e073f87	0.13207828
204	0xbdb22c31	-0.08699835
205	0x3dc57380	0.096411705
206	0x3cab4ab1	0.02090964
207	0x3c3b0292	0.011414187
208	0x3d8f928f	0.07010376
209	0xbc66c285	-0.014084463
210	0xbd16a0d2	-0.036774464
211	0x3db9b8a5	0.09068421
212	0xbd90e3df	-0.07074713
213	0xbdfc3394	-0.12314525
214	0x3dccbb69	0.09996683
215	0xbdf2ce49	-0.11855752
216	0x3d4e59eb	0.05037872
217	0x3e0bb2c5	0.13642414
218	0xba33e40e	-0.0006862291
219	0xbd16b283	-0.036791336
220	0x3e056ff2	0.13030985
221	0x3c89b72b	0.016810974
222	0x3df7fe81	0.1210909
223	0x3e118507	0.14210902
224	0x3d1e7daa	0.03869406
225	0xbdc25eb8	-0.094907224
226	0x3d801ce6	0.06255512
227	0x3e1226b0	0.1427257
228	0xbdd2d150	-0.102938294
229	0xbd8a3fb4	-0.06750432
230	0x3cb8b109	0.022545354
231	0x3dd94542	0.10608913
232	0xbd998b25	-0.07497243
233	0x3dbc6b24	0.09200123
234	0x3dc2429b	0.0948536
235	0xbe1f315d	-0.15546174
236	0xbdcc6c20	-0.09981561
237	0x3dd8b95f	0.10582232
238	0xbd7e435b	-0.062075954
239	0xbcd4eb46	-0.025991093
240	0x3d75e732	0.06003494
241	0x3da8d5ef	0.082439296
242	0x3dcd02d7	0.10010307
243	0xbdc60655	-0.096691765
244	0x3c2365fc	0.009973045
245	0xbdcfe853	-0.10151734
246	0x3d37832e	0.044802837
247	0xbc5e5cee	-0.013571961
248	0xbd598424	-0.053104535
249	0xbdb24a6d	-0.08705602
250	0x3ce8a3cc	0.028398417
251	0xbda6b046	-0.0813909
252	0xbddc1283	-0.10745718
253	0xbc8d7e15	-0.017272035
254	0x3d347612	0.044057913
255	0xbdfa0fb6	-0.12210028

block2.bnorm_2.weight f4 [15]
0	0x3f7c1510	0.9846964
1	0x3f8d5c47	1.1043786
2	0x3f808fe6	1.0043914
3	0x3f802758	1.0012007
4	0x3f7785b7	0.9668841
5	0x3f79e511	0.9761515
6	0x3f76c033	0.9638702
7	0x3f826c57	1.0189313
8	0x3f79b641	0.9754372
9	0x3f83e662	1.0304682
10	0x3f80caa8	1.0061846
11	0x3f7c6562	0.985922
12	0x3f82c07f	1.0214995
13	0x3f7d54db	0.98957604
14	0x3f8c1949	1.0945216

block2.bnorm_2.bias f4 [15]
0	0x3b98ada0	0.0046593696
1	0x3de9450d	0.113901235
2	0x3c862d70	0.016379088
3	0xbc6df1f7	-0.014523021
4	0xbd088cb6	-0.033337317
5	0xbcf464fd	-0.029833311
6	0xbc3b096d	-0.0114158215
7	0xbb4ff80b	-0.0031733538
8	0x3c1feb94	0.009760756
9	0x3cb11433	0.021616077
10	0x3c85e895	0.016346255
11	0xbba4c5df	-0.005028471
12	0x3d49e424	0.049289837
13	0xbb900462	-0.0043950537
14	0x3dd61f26	0.1045516

block2.bnorm_2.running_mean f4 [15]
0	0xbe48a8c9	-0.19595636
1	0xbea2965f	-0.3175535
2	0xbf1df694	-0.61704373
3	0x3e06c32e	0.13160393
4	0xbd4f8339	-0.050662253
5	0xbd986ed2	-0.07443012
6	0xbe1dbe5f	-0.15404652
7	0xbef87390	-0.48525667
8	0x3ecb17c8	0.3966658
9	0x3d579a50	0.0526374
10	0x3e9bcdc1	0.30430415
11	0xbd420b0c	-0.047373816
12	0xbedfc4c0	-0.43704796
13	0x3e0fd5c1	0.14046384
14	0xbea0e5d2	-0.3142534

block2.bnorm_2.running_var f4 [15]
0	0x3f38f381	0.7224656
1	0x3eed7e94	0.46385634
2	0x3fb5dc4e	1.4207857
3	0x3f197baf	0.5995435
4	0x3ee89458	0.45425677
5	0x3f5ee31e	0.87065303
6	0x3f601679	0.8753429
7	0x3f642049	0.89111763
8	0x3f035b3f	0.51311105
9	0x3ecf6e90	0.4051404
10	0x3f46fa9d	0.77726156
11	0x3ec98c50	0.39364862
12	0x3f225f71	0.6342688
13	0x3f87ab59	1.0599166
14	0x3f061ab2	0.52384484

block3.conv_3.weight f4 [30, 15, 10]
0	0x3d712287	0.05887082
1	0x3c89d2f3	0.016824221
2	0xbdb70e38	-0.08938259
3	0x3c901403	0.017587667
4	0xbdca23d7	-0.09870117
5	0xbd0c995c	-0.034325942
6	0x3d0ac72b	0.033881348
7	0xbdb3079c	-0.08741686
8	0x3d527937	0.05138513
9	0x3b81e9bc	0.003964631
10	0x3d7ab267	0.061205294
11	0xbda1fb0f	-0.07909214
12	0xbd4ac534	-0.049504474
13	0x3d8685bd	0.06568477
14	0xbd81bf0b	-0.06335267
15	0x3d5a4f3a	0.053298213
16	0x3d185de1	0.037198905
17	0xbcc52695	-0.024066249
18	0x3d2a7a7b	0.041620713
19	0xbd804e37	-0.06264918
20	0x3dcca7fb	0.09992977
21	0x3c9df961	0.019283952
22	0x3dd676a1	0.104718454
23	0xbccde6bc	-0.025134437
24	0x3d6141fd	0.054994572
25	0x3d5826f3	0.05277152
26	0x3d165ad1	0.036707703
27	0xbdbf9136	-0.09353869
28	0xbd14e124	-0.036347523
29	0xbd95a436	-0.073067114
30	0xbb84b9fd	-0.004050492
31	0xbda6e6a5	-0.08149461
32	0xbdfdce69	-0.12392885
33	0x3c370cf1	0.011172519
34	0xbc407be4	-0.011748288
35	0xbdd3849c	-0.103280276
36	0x3d894bda	0.06703921
37	0x3d9cbc2f	0.07653081
38	0x3dccc7fb	0.09999081
39	0x3d41436b	0.047183435
40	0xbdb8f1d6	-0.090305015
41	0xbd862daa	-0.065516785
42	0xbdd114c5	-0.102090396
43	0xbdae9b55	-0.08525721
44	0xbd788205	-0.06067087
45	0x3d3bdae4	0.045863047
46	0x3d4f155d	0.050557483
47	0x3d7bb129	0.06144825
48	0x3db617ac	0.08891234
49	0x3d19bee8	0.037535578
50	0xbda784df	-0.0817964
51	0x3dbd0582	0.09229566
52	0xbd819112	-0.06326498
53	0x3c9bb2bb	0.019006124
54	0xbc125e62	-0.008933635
55	0x3cf24e95	0.029578486
56	0x3bc27650	0.005934514
57	0xbd8137e0	-0.063094854
58	0x3d165050	0.036697686
59	0xbd59476f	-0.05304664
60	0xbdbf5cf5	-0.09343902
61	0x3d95c209	0.073124
62	0x3d73f7c4	0.05956246
63	0x3d2e1744	0.042502657
64	0xbd995895	-0.07487599
65	0x3dafc433	0.08582344
66	0x3df05229	0.11734421
67	0xb8b8764a	-8.795837e-05
68	0xbd45b618	-0.04826936
69	0xbd6e0533	-0.058110427
70	0x3dcecbb7	0.10097449
71	0xbd9d2d70	-0.07674682
72	0xbd922abe	-0.07137059
73	0x3d1ed140	0.038773775
74	0x3d8a4436	0.067512915
75	0x3dc71f55	0.09722773
76	0x3d58481d	0.052803148
77	0x3d1fbdab	0.03899924
78	0xbd68c906	-0.056832336
79	0xbcf3c282	-0.029755834
80	0x3d70526b	0.05867235
81	0x3af98246	0.0019036017
82	0x3d16db52	0.036830254
83	0xbde50414	-0.111824185
84	0x3d408116	0.046998106
85	0x3d3f7a16	0.04674729
86	0x3d57da1a	0.052698232
87	0xbc6a62d6	-0.014305791
88	0x3dc9c999	0.09852905
89	0x3da1a7ab	0.07893308
90	0xbdf65db6	-0.12029593
91	0xbda2f967	-0.07957726
92	0xbdbeb63c	-0.09312102
93	0x3d931b01	0.07182885
94	0xbd8ec737	-0.06971591
95	0x3ca62d7d	0.020285362
96	0xbdd3c592	-0.10340418
97	0xbdc2802b	-0.09497102
98	0xbd9f5ac6	-0.077809855
99	0x3d106374	0.035251096
100	0xbdb8ff7c	-0.09033105
101	0xbdc5f35b	-0.09665557
102	0xbcc3efcf	-0.02391806
103	0x3c0e5209	0.008686551
104	0xbdbf45ed	-0.09339509
105	0xbd382c50	-0.044964135
106	0x3b00ee28	0.0019673202
107	0xbdcf5199	-0.101229854
108	0x3d481432	0.048847385
109	0xbdbadd3e	-0.0912423
110	0xbdd3cd15	-0.10341851
111	0xbcfe0dd6	-0.031012457
112	0x3d865e87	0.065609984
113	0x3d56b42b	0.052417915
114	0xbcdacc91	-0.026708873
115	0xbccc39f7	-0.024929984
116	0x3c776292	0.015099185
117	0xbd691808	-0.056907684
118	0x3af8a7c6	0.0018970899
119	0x3c937123	0.017998284
120	0xbda9bc78	-0.08287901
121	0x3e0093c5	0.1255637
122	0x3d822f4e	0.06356679
123	0x3d870c0b	0.06594094
124	0xbdd29fb9	-0.10284371
125	0xbdadd952	-0.08488716
126	0xbcff40c6	-0.031158816
127	0xbd58eeb7	-0.05296203
128	0xbd827804	-0.063705474
129	0x3e0d0ed9	0.13775195
130	0x3d8ab6e3	0.06773164
131	0x3dd87ce7	0.10570698
132	0xbd712dcd	-0.05888157
133	0x3db21615	0.08695618
134	0x3dbb9fbe	0.09161328
135	0x3d88f4e2	0.06687333
136	0xbcc0636d	-0.02348491
137	0xbc767fba	-0.015045101
138	0x3ca3c151	0.019989641
139	0x3db27b38	0.08714908
140	0xbce59a96	-0.028027814
141	0x3dc02775	0.09382526
142	0xbd2982f6	-0.04138466
143	0xbd56b86c	-0.052421972
144	0x3cb94929	0.022617893
145	0xbdaf12e9	-0.08548529
146	0xbd7fb69f	-0.06243002
147	0x3e055ee1	0.13024475
148	0xbc822091	-0.01588467
149	0xbb68701a	-0.0035467208
150	0x3d94dbb5	0.07268468
151	0x3cd7552f	0.026285736
152	0xbc0a420d	-0.008438599
153	0x3d365d48	0.044522554
154	0xbd6edefe	-0.05831813
155	0x3db7650d	0.08954821
156	0x3d39c7c2	0.04535652
157	0xbdb23744	-0.08701947
158	0xbde2c90f	-0.11073505
159	0xbd4b0ce1	-0.04957283
160	0x3dd90055	0.105957665
161	0xbd912ff4	-0.070892245
162	0xbdd6e118	-0.10492152
163	0xbdb80fed	-0.089874126
164	0xbd9b2e58	-0.07577199
165	0x3cb63617	0.022242589
166	0x3d97763a	0.07395597
167	0xbde627ce	-0.11238061
168	0xbe1bafd3	-0.1520379
169	0x3ab1eecb	0.0013575194
170	0xbc8b5ac7	-0.01701106
171	0x3d8efcca	0.069818094
172	0xbcb09364	-0.021554656
173	0x3db782e3	0.089605115
174	0x3d986017	0.07440203
175	0xbd838884	-0.06422523
176	0xbd999159	-0.07498426
177	0xbc68fef1	-0.014220939
178	0xbdd4220b	-0.10358056
179	0x3d0f2967	0.034951594
180	0xbe013152	-0.1261647
181	0x3d8565f2	0.06513585
182	0xbdc8c6dc	-0.098035544
183	0x3d28b496	0.041187845
184	0x3cfc9372	0.030832026
185	0x3d9768ce	0.07393037
186	0xbddd3b5a	-0.10802336
187	0xbcbce769	-0.023059564
188	0xbd828b62	-0.063742414
189	0xbc8a6d49	-0.016897814
190	0xbe08a3e3	-0.13343768
191	0xbd12726b	-0.03575365
192	0x3c4efe78	0.012633912
193	0x3d8a7a66	0.06761627
194	0x3b18bc5a	0.0023305626
195	0xbd16acf4	-0.036786035
196	0xbdd0d202	-0.10196306
197	0x3d8823b3	0.06647434
198	0xbdcc06fc	-0.0996227
199	0x3b11d11e	0.0022249888
200	0x3d328029	0.043579254
201	0x3c4f2a8c	0.012644421
202	0x3cbe85a1	0.023257079
203	0xbcabc02e	-0.020965662
204	0xbdc6c1ae	-0.0970491
205	0x3d75942b	0.059955757
206	0xbdaadcc8	-0.08342892
207	0x3da472a9	0.08029682
208	0xbda8b3ee	-0.08237444
209	0x3d557597	0.052114096
210	0xbd2b0b6f	-0.04175895
211	0x3cf1743c	0.02947437
212	0x3dc19077	0.094513826
213	0xbd3fcbdc	-0.046825275
214	0x3d0abf10	0.033873618
215	0x3c914637	0.017733676
216	0xbd99a926	-0.07502966
217	0xbd8a6d32	-0.067591086
218	0xbe039caf	-0.12852739
219	0x3db6f214	0.089328915
220	0xbdc2402b	-0.09484895
221	0x3c448de3	0.011996719
222	0xba6e984d	-0.0009101674
223	0x3e0e033a	0.13868418
224	0xbc78adc5	-0.015178149
225	0xbc1fc79b	-0.0097521795
226	0x3d881d67	0.06646233
227	0xbdebe667	-0.11518555
228	0x3d3fe189	0.046845946
229	0x3d9dc738	0.077040136
230	0xbdb1ed75	-0.086878695
231	0x3d99fca8	0.075188935
232	0x3d343cc3	0.04400326
233	0xbdeb04a5	-0.11475495
234	0x3d182c44	0.03715159
235	0xbc98920b	-0.018624326
236	0x3db3eaab	0.08784994
237	0x3dbf730b	0.093481146
238	0xbdc2e116	-0.09515588
239	0x3db02848	0.08601433
240	0x3d7319eb	0.05935089
241	0xb851dadf	-5.0033323e-05
242	0x3d4983f4	0.049198106
243	0x3d1115bf	0.03542113
244	0xbdf71000	-0.12063599
245	0xbca6a2e3	-0.020341342
246	0x3dc4c9f1	0.0960883
247	0xbca88c21	-0.020574631
248	0xbddce16a	-0.10785182
249	0xbde4e82e	-0.11177097
250	0xbdffdb00	-0.12492943
251	0xbdeb48c0	-0.11488485
252	0x3cef628d	0.029221797
253	0xbc80969c	-0.015696816
254	0xbdea311f	-0.1143515
255	0xbd836bcd	-0.06417046

block3.bnorm_3.weight f4 [30]
0	0x3f882dcf	1.063898
1	0x3f835c18	1.026248
2	0x3f81c8c8	1.0139399
3	0x3f854120	1.04105
4	0x3f8274e2	1.019192
5	0x3f8190a8	1.012227
6	0x3f797d90	0.9745722
7	0x3f7d19d6	0.9886755
8	0x3f84fa7a	1.0388939
9	0x3f832247	1.0244836
10	0x3f78e6f9	0.97227436
11	0x3f781315	0.96904117
12	0x3f7fefdb	0.99975365
13	0x3f819341	1.0123063
14	0x3f858c2e	1.0433404
15	0x3f836a15	1.0266749
16	0x3f829b12	1.0203574
17	0x3f8462f3	1.0342697
18	0x3f80f320	1.0074196
19	0x3f7c43c1	0.98540884
20	0x3f7cc863	0.98743266
21	0x3f84dd89	1.0380107
22	0x3f7c7a70	0.98624325
23	0x3f815a6a	1.0105717
24	0x3f7da2a8	0.9907632
25	0x3f8891b2	1.0669463
26	0x3f7aaa9d	0.97916585
27	0x3f720788	0.9454274
28	0x3f833986	1.025193
29	0x3f824cfd	1.0179745

block3.bnorm_3.bias f4 [30]
0	0x3ce6907b	0.028145066
1	0x381c90c0	3.7328107e-05
2	0xbc85112d	-0.016243542
3	0x3ce18cde	0.027532991
4	0xbc3cc6e1	-0.011522026
5	0x3d2fb674	0.04289861
6	0xbc5c0833	-0.013429689
7	0xbcba075f	-0.022708593
8	0x3d8b066e	0.06788336
9	0x3bd81398	0.0065941326
10	0xbd04aef0	-0.032393396
11	0x3c736d6f	0.014857634
12	0xbc005cf8	-0.0078346655
13	0x3c04603e	0.008079587
14	0xbcef6cdd	-0.029226715
15	0xbc6c03e9	-0.014405229
16	0xbce1a792	-0.027545724
17	0xbcc25f5c	-0.023727112
18	0xbb8bb494	-0.00426347
19	0xbc0aebac	-0.00847904
20	0x3b3a8a23	0.0028463684
21	0xbb52ee90	-0.0032185651
22	0xbc6f855e	-0.0146192
23	0xbd89ac41	-0.06722308
24	0xbcd5fcbf	-0.026121495
25	0x3d59dc4f	0.05318862
26	0xbd62f3c5	-0.055408258
27	0xbd0209de	-0.03174769
28	0xbccac334	-0.024751283
29	0xbca992f2	-0.020699952

block3.bnorm_3.running_mean f4 [30]
0	0xbe372856	-0.1788648
1	0xbecdb944	-0.4018041
2	0xbe5e24e4	-0.2169376
3	0xbed1ce24	-0.40977585
4	0x3bc53544	0.0060183126
5	0xbe862e6a	-0.26207286
6	0x3dacc823	0.084366105
7	0x3f00052d	0.500079
8	0xbea94db9	-0.3306711
9	0xbf1eb735	-0.619983
10	0x3ec08670	0.37602568
11	0xbead3cbc	-0.338354
12	0xbe23a4d6	-0.15980849
13	0xbeadcc47	-0.33944914
14	0xbeefef88	-0.46862435
15	0xbf2d4628	-0.67685175
16	0xbeff4bd8	-0.49862552
17	0xbea8e319	-0.32985762
18	0xbe507764	-0.20358044
19	0xbeecfd56	-0.4628703
20	0xbeb4a411	-0.35281423
21	0xbe79626e	-0.24353954
22	0xbef51a2e	-0.47871536
23	0xbf30411e	-0.6884936
24	0x3e841243	0.25795183
25	0xbec9bff2	-0.39404255
26	0xbe07053a	-0.13185588
27	0xbd49c0f8	-0.049256295
28	0xbeb95a93	-0.36201915
29	0x3d0216ee	0.03176015

block3.bnorm_3.running_var f4 [30]
0	0x3e933144	0.28748524
1	0x3e9a2355	0.3010508
2	0x3f033094	0.51246
3	0x3ec83c21	0.39108375
4	0x3e85193f	0.25995824
5	0x3e81e763	0.25371847
6	0x3f0dd81d	0.5540789
7	0x3f6fa4b9	0.9361072
8	0x3e6c00c2	0.23047164
9	0x3ec2c912	0.3804403
10	0x3eb5cb54	0.3550669
11	0x3e489c83	0.19590954
12	0x3eba6e91	0.3641248
13	0x3efecf43	0.49767503
14	0x3e8532bf	0.2601528
15	0x3f393ad9	0.7235542
16	0x3ef021b4	0.46900713
17	0x3ee2d297	0.44301292
18	0x3e93c24f	0.28859183
19	0x3f09c6f9	0.53819233
20	0x3e82e354	0.25564063
21	0x3ead9b9f	0.33907792
22	0x3f3af3c4	0.73028207
23	0x3eea968b	0.4581798
24	0x3f1db3ec	0.61602664
25	0x3ed7bed2	0.42137772
26	0x3e612d3a	0.21989909
27	0x3f2e6edd	0.68137914
28	0x3e4d3dba	0.20043078
29	0x3e9960ec	0.29956758

block4.conv_4.weight f4 [30, 30, 10]
0	0x3c69e114	0.014274854
1	0xbd15a906	-0.036538146
2	0x3d33c403	0.043888103
3	0xbd429f0c	-0.04751496
4	0x3d6d6644	0.057958856
5	0x3c168f69	0.009189465
6	0x3db9749d	0.09055445
7	0x3d97d80c	0.074142545
8	0x3e049d67	0.12950669
9	0xbd0ccef6	-0.03437706
10	0xbc9dbd42	-0.019255284
11	0xbd7ebb44	-0.06219031
12	0x3d2d043b	0.042240363
13	0xbd5e7737	-0.05431291
14	0x3d465189	0.0484176
15	0xbd4fd54e	-0.050740533
16	0xbbee116f	-0.007265262
17	0xbd4a8d1a	-0.04945097
18	0xbc94e4c1	-0.018175485
19	0x3c19983a	0.009374673
20	0x3d92ef63	0.07174566
21	0x3d70fe2b	0.058836143
22	0xbd56b2d4	-0.052416638
23	0xbdc47ef8	-0.0959453
24	0x3c9f3856	0.019436043
25	0xbd65901c	-0.056045637
26	0xbdc1ec19	-0.0946886
27	0xbdb9c680	-0.09071064
28	0xbcad9ecd	-0.021193886
29	0x3be68b8d	0.0070356787
30	0xbd107b62	-0.035273917
31	0xbcf5c182	-0.029999498
32	0xbd369aed	-0.044581342
33	0x3da83408	0.08213049
34	0xbd753d3a	-0.059872843
35	0xbda4fefb	-0.08056446
36	0x3dbb3b40	0.091421604
37	0xbcaa643e	-0.020799752
38	0xbcc7881f	-0.0243569
39	0x3d95d12e	0.073152885
40	0x3d12acf8	0.035809487
41	0x3dce38c3	0.1006942
42	0xbd40cd45	-0.04707076
43	0x3d0ca485	0.034336586
44	0x3ceb6a58	0.028737232
45	0x3d6f7c21	0.058467988
46	0x3d6cfed9	0.05786023
47	0x3c430ac6	0.011904424
48	0xbdadadde	-0.08480428
49	0xbd106843	-0.03525568
50	0x3cf4ee33	0.029898738
51	0x3d5f8092	0.054565974
52	0x3d64e422	0.055881627
53	0x3d072b79	0.033000443
54	0xbdc3972e	-0.095503196
55	0xbcc251a9	-0.02372058
56	0xbc0079b3	-0.007841515
57	0x3cad21c0	0.021134257
58	0x3d98a3ff	0.07453155
59	0x3cf6eb5b	0.030141523
60	0x3c5929d8	0.013254605
61	0xbcdf266d	-0.027240003
62	0x3db55042	0.088531986
63	0x3d737b19	0.059443567
64	0xbd8bc92e	-0.06825481
65	0x3d7ebb2a	0.062190212
66	0xbd554bab	-0.052074116
67	0xbc5d7b11	-0.013518111
68	0xbc3aa5a6	-0.011392033
69	0xbcd97fe7	-0.026550246
70	0x3ba7ee4e	0.0051248437
71	0x3d175c25	0.03695311
72	0xbd429a58	-0.047510475
73	0xbb47e7c2	-0.0030503129
74	0x3d15b220	0.036546826
75	0x3da1d326	0.079016015
76	0xbd14c115	-0.03631695
77	0xbb81e721	-0.0039643203
78	0x3c615063	0.013752076
79	0xbb6409d8	-0.0034795906
80	0xbd4395ca	-0.04775027
81	0xbdcd6410	-0.10028851
82	0x3cf21352	0.029550228
83	0xbc04a45d	-0.008095828
84	0xbd4a9daa	-0.049466766
85	0x3d2d65f6	0.042333566
86	0xbb8b1ca2	-0.0042453567
87	0xbc503a25	-0.012709175
88	0xbd019de9	-0.031644735
89	0x3da77840	0.08177233
90	0x3d8f53bb	0.06998392
91	0x3e09e146	0.13464841
92	0x3dc5ce95	0.09658543
93	0xbdd15eee	-0.102231845
94	0x3ce7d4ea	0.028299768
95	0xbd81ab44	-0.063314945
96	0xbbb3db7c	-0.005488811
97	0xbd2aeadd	-0.04172789
98	0xbd842af2	-0.06453504
99	0x3d6d750a	0.057972945
100	0xbd148134	-0.03625603
101	0xbd694252	-0.056948014
102	0xb809718d	-3.2769098e-05
103	0xbdbe30f7	-0.09286683
104	0xbd8bf054	-0.06832948
105	0x3b4323a1	0.0029775875
106	0x3d5471de	0.051866405
107	0x3d7c2d97	0.061566915
108	0xbd1890e4	-0.037247553
109	0xbc4a28f9	-0.01233887
110	0x3cbb969d	0.022898966
111	0xbd6392f0	-0.055560052
112	0xbd95fad3	-0.073232315
113	0xbcf3242a	-0.02968033
114	0x3d0914b9	0.03346703
115	0xbce2e268	-0.02769585
116	0x3d1db785	0.038505096
117	0x3de6c23d	0.11267517
118	0xbd2ab552	-0.041676827
119	0x3d1ca56f	0.038243707
120	0x3cfc7204	0.030816086
121	0xbd8e6cd7	-0.06954353
122	0xbc14aa23	-0.009073767
123	0xbdc34857	-0.09535282
124	0x3d29c426	0.041446827
125	0x3d87bf2e	0.066282615
126	0x3c8eade6	0.017416906
127	0xbdd9e18a	-0.10638721
128	0x3b5683a0	0.0032732263
129	0x3cf9c0f1	0.03048751
130	0xbda88ae6	-0.08229618
131	0xbdb3513f	-0.08755731
132	0xbdde0645	-0.108410396
133	0xbdae0b1b	-0.08498212
134	0xbd8d2398	-0.068915546
135	0xbc953d55	-0.018217722
136	0x3cb87d6a	0.02252074
137	0xbdd2c92e	-0.10292278
138	0xbd682b8f	-0.056682166
139	0x3b0b6f45	0.0021276039
140	0xbdb13c9a	-0.08654137
141	0xbd3c50e1	-0.04597557
142	0xbcc6fb36	-0.024289709
143	0xbd866942	-0.06563045
144	0xbd47f13d	-0.048814047
145	0x3dd0ed2c	0.10201487
146	0xbbc44059	-0.005989116
147	0x3d13fb2f	0.03612822
148	0x3d602e80	0.054731846
149	0x3c486659	0.012231433
150	0x3da24244	0.079227954
151	0x3ce50d06	0.027960312
152	0x3da347b0	0.07972658
153	0x3d34d77a	0.044150807
154	0x3dc9313f	0.09823846
155	0x3c801df0	0.015639275
156	0xbc08505d	-0.008319941
157	0xbdc3df26	-0.095640466
158	0x3c998a67	0.018742753
159	0xbd5b902f	-0.0536043
160	0x3d388c7b	0.045055848
161	0x3d0638d6	0.032769047
162	0x3d7b4c4a	0.06135205
163	0xbd6e0107	-0.05810645
164	0xbddb2836	-0.10701029
165	0x3d451d51	0.04812366
166	0x3c174780	0.0092333555
167	0x3d802b27	0.06258231
168	0x3d4cab32	0.049967952
169	0xbc3be203	-0.01146746
170	0xbdd5539a	-0.10416336
171	0xbdfd7e37	-0.12377589
172	0xbd129844	-0.035789743
173	0xbd4025b9	-0.046910975
174	0x3da11de6	0.07867031
175	0x3dc9b001	0.09848023
176	0x3da67870	0.081284404
177	0xbddcfc62	-0.10790326
178	0x3d921dc1	0.07134581
179	0xbbd9a346	-0.006641778
180	0x3e075930	0.13217616
181	0xbd2a456b	-0.04157011
182	0xbd329f42	-0.04360891
183	0x3dd01c4c	0.10161647
184	0x3c3f4a0c	0.011675369
185	0x3d2fe03e	0.042938463
186	0xbd9fe66a	-0.0780762
187	0xbca847f7	-0.020542128
188	0x3c807dc3	0.015684968
189	0xbb75597d	-0.0037437372
190	0xbc59dcf1	-0.013297305
191	0x3dc8b953	0.09800973
192	0x3c037f8f	0.008026018
193	0xbce141c1	-0.027497174
194	0xbdb3e599	-0.08784027
195	0xbc89295c	-0.016743354
196	0xbda65cd6	-0.08123176
197	0xbc23207b	-0.009956474
198	0xbd5e9d4e	-0.054349236
199	0xbd09fd89	-0.033689056
200	0x3bd06c5d	0.006360574
201	0x3ca8c98e	0.020603921
202	0x3d1bf7a8	0.03807798
203	0xbd87b10b	-0.06625565
204	0xbc023a80	-0.007948518
205	0xbdae2e4c	-0.08504924
206	0xbd52c66f	-0.051458772
207	0x3de180f9	0.11010928
208	0x39bf902a	0.0003653777
209	0x3d4ab1e7	0.049486067
210	0xbddef954	-0.10887399
211	0xbd900fee	-0.07034288
212	0x3d84fe81	0.06493855
213	0x3d26095b	0.040536266
214	0x3de02efd	0.10946462
215	0xbd043394	-0.03227575
216	0xbd36e8f0	-0.04465574
217	0xbda467a7	-0.080275826
218	0xbd71a3ab	-0.058993977
219	0xbdbb5a66	-0.091481015
220	0x3d6911ba	0.05690167
221	0xbcd4b224	-0.02596385
222	0xbd01f7f3	-0.031730603
223	0x3cacc35e	0.021089252
224	0xbd2542f0	-0.04034704
225	0xbd96c711	-0.07362188
226	0x3dc7dd0b	0.097589575
227	0x3dc447cb	0.09584006
228	0x3dae0090	0.08496201
229	0xbcaced8d	-0.021109367
230	0x3da9e0ae	0.082948074
231	0xbdc2a05f	-0.095032446
232	0x3d53a1c4	0.051667944
233	0xbbf8eebc	-0.0075968187
234	0x3d85a189	0.06524951
235	0xbd2797a4	-0.0409161
236	0x3da39f01	0.07989312
237	0xbd16157d	-0.036641587
238	0x3e0c2b6a	0.13688436
239	0x3dfe1922	0.124071375
240	0xbda1866a	-0.078869656
241	0x3d9475dc	0.072490424
242	0x3d97bae0	0.074086905
243	0x3c83fa6c	0.016110621
244	0xbdb86d51	-0.090052254
245	0x3d5175b9	0.05113766
246	0xbd03c8b8	-0.032173842
247	0x3d11ec96	0.035626017
248	0x3c0809dc	0.008303132
249	0x3dd6204d	0.1045538
250	0xbd39672c	-0.045264408
251	0x3b9f221d	0.0048563615
252	0x3dd5a6e0	0.104322195
253	0xbd295095	-0.041336615
254	0xbd2f0fa1	-0.042739514
255	0xbccd9398	-0.025094792

block4.bnorm_4.weight f4 [30]
0	0x3f836f6b	1.0268377
1	0x3f86b1cc	1.0523009
2	0x3f807b9a	1.003772
3	0x3f82ed6c	1.0228705
4	0x3f83215c	1.0244555
5	0x3f895b6b	1.0731024
6	0x3f86fc3f	1.0545729
7	0x3f835d5d	1.0262867
8	0x3f8513f4	1.0396714
9	0x3f8415b6	1.0319126
10	0x3f87c269	1.0606204
11	0x3f808e12	1.0043356
12	0x3f80e4e8	1.0069857
13	0x3f80e86e	1.0070932
14	0x3f86e1bf	1.0537642
15	0x3f852f7a	1.0405114
16	0x3f84891f	1.0354346
17	0x3f813379	1.0093833
18	0x3f841c29	1.0321094
19	0x3f867217	1.0503567
20	0x3f86b1cc	1.0523009
21	0x3f86f69d	1.054401
22	0x3f85fa90	1.0467091
23	0x3f7f702b	0.9978053
24	0x3f80a261	1.0049554
25	0x3f810b0e	1.0081499
26	0x3f92472e	1.1427972
27	0x3f88597c	1.0652308
28	0x3f858fd8	1.0434523
29	0x3f818e01	1.0121461

block4.bnorm_4.bias f4 [30]
0	0xbc8ab8ab	-0.01693376
1	0x3c5caabe	0.0134684425
2	0xbc9c89c3	-0.019108659
3	0xbc6e32b5	-0.014538457
4	0xbbe88234	-0.0070955995
5	0xb9ab0b4f	-0.00032624087
6	0x3b2a19ab	0.002595524
7	0xbc45cb04	-0.0120723285
8	0x3bf61258	0.007509511
9	0xbbec6e53	-0.0072153
10	0xbc1e3cc5	-0.009658043
11	0xbc1d2f56	-0.009593805
12	0xbc8565cc	-0.016283892
13	0xbc8e8b2f	-0.017400352
14	0x3c099001	0.00839615
15	0x3be7f32c	0.007078549
16	0xbb82cb9c	-0.0039915573
17	0xba7599ec	-0.00093689444
18	0xbc6390d8	-0.013889514
19	0x3c31ea2f	0.010859056
20	0xbb744b57	-0.0037276351
21	0x3c4a042f	0.012330099
22	0x3b371de5	0.0027941403
23	0xbca3f881	-0.020015957
24	0xbc85f26b	-0.016350945
25	0xbc4753bb	-0.012165959
26	0xbbd28b51	-0.006425299
27	0xbb27e61c	-0.0025619334
28	0xbb068581	-0.0020526352
29	0xbc930ec3	-0.017951375

block4.bnorm_4.running_mean f4 [30]
0	0x3d7bf804	0.061515823
1	0xbf0493a8	-0.51787806
2	0x3dc60d84	0.09670547
3	0x3ecd3ed4	0.40086997
4	0x3ec8c50c	0.39212835
5	0x3eae294f	0.3401589
6	0xbea4d2cc	-0.32192075
7	0x3df844b0	0.12122476
8	0xbe2531e6	-0.16132316
9	0x3deeb203	0.11655047
10	0x3e96175a	0.2931469
11	0xbc9b0848	-0.018924847
12	0x3ea78350	0.3271737
13	0xbeb7b67c	-0.35881412
14	0xbb4ef20f	-0.0031577384
15	0xbe8b83c4	-0.27248967
16	0x3e9ad757	0.30242416
17	0xbe5d89c5	-0.21634586
18	0x3e77c73b	0.24197094
19	0x3da68bc4	0.08132127
20	0x3f7246a8	0.9463906
21	0xbec9d944	-0.39423573
22	0x3e77931d	0.24177213
23	0x3e902c7c	0.2815894
24	0x3f27da9b	0.6556794
25	0xbf246bd0	-0.6422701
26	0x3ec29725	0.3800594
27	0xbd8aa85f	-0.067703955
28	0x3f8d9fb2	1.106436
29	0xbe83e187	-0.25758

block4.bnorm_4.running_var f4 [30]
0	0x3ea4740a	0.3211978
1	0x3ed3916d	0.4132189
2	0x3eac8678	0.33696342
3	0x3ee54734	0.44780886
4	0x3e9decb6	0.3084466
5	0x3e7f93ef	0.24958776
6	0x3eb8d404	0.36099255
7	0x3ecbfad0	0.39839792
8	0x3ec3cb8c	0.3824123
9	0x3ea0d4c1	0.31412318
10	0x3e6863bb	0.22694294
11	0x3e47f3ea	0.1952664
12	0x3ecd6820	0.40118504
13	0x3e818552	0.25297028
14	0x3ee2d765	0.44304958
15	0x3ecdf39d	0.40224925
16	0x3ef63836	0.4808976
17	0x3f4b5fa5	0.79442817
18	0x3e8dab76	0.27669877
19	0x3ebec8d7	0.37262604
20	0x3ee6dcff	0.45090482
21	0x3ea30749	0.31841496
22	0x3e663dd9	0.2248453
23	0x3eb2631a	0.34841233
24	0x3eb76138	0.3581636
25	0x3ed3fd88	0.41404366
26	0x3e687f16	0.2270473
27	0x3ed26330	0.410913
28	0x3f0342f7	0.51274055
29	0x3ef79157	0.48353073

conv_channel_res.weight f4 [1, 30, 3]
0	0xbb7f3588	-0.003894182
1	0xbd8592d5	-0.065221466
2	0xbd8e2efa	-0.06942554
3	0xbc7cabb3	-0.015421796
4	0x3d95ab73	0.07308092
5	0x3d858dd5	0.06521193
6	0xbc85024f	-0.016236452
7	0xbde16c30	-0.11006963
8	0xbc9d9735	-0.01923714
9	0xbe037323	-0.1283689
10	0xbdf11f74	-0.11773577
11	0xbdd4e9ea	-0.10396178
12	0xbdce0e1b	-0.10061284
13	0xbdf04cbf	-0.11733388
14	0xbdf40a06	-0.11915974
15	0xbd0effeb	-0.03491203
16	0x3e1abfe0	0.15112257
17	0x3e2b0816	0.16702303
18	0x3deb07b6	0.1147608
19	0xbd095ead	-0.033537555
20	0x3d93e100	0.0722065
21	0xbd1359c7	-0.03597429
22	0xbd9c6c81	-0.07637883
23	0xbdd86934	-0.10566941
24	0x3c96693b	0.018360725
25	0x3d587561	0.052846316
26	0x3d6731ca	0.056443967
27	0xbde1b85d	-0.11021493
28	0xbd929108	-0.07156569
29	0xbe06f315	-0.13178666
30	0x3da739a5	0.08165292
31	0xbdb85e1e	-0.090023264
32	0x3c14c4ba	0.009080106
33	0xbcf9b890	-0.030483514
34	0xbdba8852	-0.09108032
35	0xbd4e592d	-0.050378013
36	0x3c99a2c3	0.018754369
37	0xbca0cfd2	-0.019630346
38	0xbdb3b718	-0.08775157
39	0xbdc69623	-0.09696605
40	0xbd9e735a	-0.07736845
41	0xbdbfbd9b	-0.09362336
42	0xbd03bed8	-0.032164425
43	0x3de5dff5	0.11224357
44	0x3e0da1ef	0.13831304
45	0xbc6f975e	-0.014623491
46	0x3d82506d	0.06362996
47	0x3dd5e2d1	0.104436524
48	0x3c04240b	0.008065234
49	0xbdc24e0f	-0.09487545
50	0xbddd1933	-0.10795822
51	0xbd2def00	-0.042464256
52	0xbcc00e0c	-0.023444198
53	0xbdac841c	-0.08423635
54	0xbe02b85c	-0.1276564
55	0x3d1bbecf	0.038023766
56	0xbd6af773	-0.057364892
57	0x3c0d015d	0.008606282
58	0x3e083c58	0.1330427
59	0x3e046f84	0.12933165
60	0x3db22307	0.08698087
61	0x3dfc6f10	0.12325871
62	0x3d249e79	0.040190194
63	0x3db538fd	0.0884876
64	0x3cddaf7d	0.027061218
65	0x3e07e306	0.13270196
66	0x3de0b56e	0.10972105
67	0xbda77e4a	-0.081783846
68	0xbd824a91	-0.06361879
69	0xbd03679e	-0.03208124
70	0xbdbac164	-0.091189176
71	0x3d794a32	0.060861774
72	0xbaed32ff	-0.0018096863
73	0xbdd89f70	-0.10577285
74	0xbce7de56	-0.02830426
75	0xbd3c5467	-0.04597893
76	0xbd83c82a	-0.06434663
77	0xbdea0038	-0.11425823
78	0x3da77f71	0.081786044
79	0x3c8b2f49	0.01699032
80	0xbdb0e04d	-0.08636532
81	0xbcd65197	-0.026161952
82	0x3dddd178	0.108309686
83	0x3da8a2c4	0.0823417
84	0x3ddafe97	0.106930904
85	0x3d9e2ef7	0.077238016
86	0x3d33ef53	0.04392941
87	0xbd9ae387	-0.07562929
88	0x3bd1b1e6	0.006399381
89	0xbd7f6639	-0.062353346

classifier_conv.weight f4 [32, 1, 35]
0	0xbd11fdea	-0.035642542
1	0xbd76c49c	-0.060246095
2	0xba04533e	-0.00050478044
3	0xbd22603b	-0.039642554
4	0x3be50edf	0.006990298
5	0xbdc0e0be	-0.09417866
6	0xbdd7b76d	-0.105330326
7	0xbd1cc5bf	-0.038274523
8	0xbce70a3e	-0.028203126
9	0xbcb26b0e	-0.021779563
10	0xbdd3ed52	-0.10348
11	0xbd09aa70	-0.033609807
12	0xbdb9fa9b	-0.09081002
13	0xbd841b62	-0.06450535
14	0xbe1839e0	-0.14865828
15	0xbe20d73c	-0.15707105
16	0xbdc63f9e	-0.09680103
17	0xbe151187	-0.14557467
18	0xbe16aed3	-0.14715128
19	0xbdcb59e4	-0.09929255
20	0xbe1d9ff6	-0.15393052
21	0xbdccd3d8	-0.100013435
22	0xbe2d7590	-0.16939378
23	0xbe5ce64f	-0.21572231
24	0xbda6d40a	-0.08145912
25	0xbe1bc9fc	-0.1521377
26	0xbe0cd0c8	-0.13751519
27	0xbe6a0d85	-0.2285672
28	0xbe446287	-0.1917821
29	0xbe85919c	-0.26087654
30	0x3d83ccbf	0.064355366
31	0xbe9eadb3	-0.30991897
32	0x3e650318	0.22364461
33	0xbda18f35	-0.07888643
34	0x3e382be0	0.17985487
35	0x3ceb03e9	0.028688388
36	0x3d55d9da	0.052209713
37	0xbb89b921	-0.0042029773
38	0x3d9f8b5c	0.077902526
39	0x3d818aeb	0.063253246
40	0xbc59d441	-0.013295234
41	0x3cbba92b	0.022907814
42	0x3d2b0c83	0.04175998
43	0x3ceb5be1	0.028730335
44	0x3df1db40	0.11809397
45	0x3cb64425	0.02224929
46	0x3e1c2566	0.15248641
47	0x3de4997a	0.11162086
48	0x3e39c344	0.18140894
49	0x3e512e3d	0.20427795
50	0x3e24eee0	0.16106749
51	0x3de4a2b4	0.11163846
52	0x3e47bef9	0.19506444
53	0x3e5967ea	0.21231046
54	0x3e5d52a6	0.21613559
55	0x3e179cd2	0.14805916
56	0x3e1f664b	0.15566365
57	0x3e5f507d	0.21808048
58	0x3e45c481	0.19313242
59	0x3e3ad43a	0.1824502
60	0x3e788e04	0.24272925
61	0x3e846963	0.25861654
62	0x3e8d8ffb	0.2764891
63	0x3e2e5192	0.17023304
64	0x3eb3a666	0.3508789
65	0xbd9105f4	-0.070812136
66	0x3ebc0c49	0.36728123
67	0xbe945b4e	-0.2897591
68	0x3e42e54c	0.19032782
69	0xbe7431ca	-0.23847118
70	0x3b225241	0.0024768265
71	0x3cbcc23f	0.023041843
72	0xbd8cf745	-0.068831004
73	0xbd60c6f0	-0.05487722
74	0xbdca5211	-0.09878934
75	0xbd789911	-0.06069285
76	0xbd78e08a	-0.060761012
77	0x3c84fe14	0.016234435
78	0xbd9648e1	-0.07338119
79	0xbd8dd2a2	-0.06924941
80	0xbdf2cb70	-0.11855209
81	0xbe1aa990	-0.15103745
82	0xbdedf1ef	-0.11618411
83	0xbd664681	-0.05621958
84	0xbdf91352	-0.12161888
85	0xbde53c95	-0.11193196
86	0xbddeec84	-0.108849555
87	0xbe569e75	-0.20958884
88	0xbe1a687b	-0.15078919
89	0xbd94bc52	-0.07262482
90	0xbe34e434	-0.17665178
91	0xbe1a3baf	-0.1506183
92	0xbe440a09	-0.19144453
93	0xbe5f9c68	-0.21837008
94	0xbe16da71	-0.14731766
95	0xbe12dc22	-0.14341787
96	0xbe3ce57e	-0.1844692
97	0xbe7f651b	-0.24940912
98	0xbe10f66f	-0.14156507
99	0xbe9e4d35	-0.3091828
100	0x3d9b2b68	0.075766385
101	0xbea3498e	-0.31892055
102	0x3e77d4c6	0.2420226
103	0xbd8a65e0	-0.06757712
104	0x3e5a4171	0.21314026
105	0xbd16898f	-0.03675228
106	0xbd36a767	-0.04459324
107	0x3caf8ef7	0.021430476
108	0xbdaa22e9	-0.0830744
109	0x3cfa598d	0.03056028
110	0xbde29353	-0.11063256
111	0xbdb4c6d1	-0.08826984
112	0xbdc0c436	-0.09412424
113	0xbe16b824	-0.14718682
114	0xbe0b0d4d	-0.13579293
115	0xbdaf7b82	-0.08568479
116	0xbd69136e	-0.056903295
117	0xbe16ea92	-0.14737919
118	0xbdeed2eb	-0.11661323
119	0xbe18b74a	-0.14913669
120	0xbe51662e	-0.20449135
121	0xbde45990	-0.11149895
122	0xbe140172	-0.14453676
123	0xbe3501da	-0.17676488
124	0xbe31d968	-0.1736809
125	0xbe88e442	-0.26736647
126	0xbe42c4e7	-0.19020425
127	0xbe2aa3cf	-0.1666405
128	0xbe2eb83b	-0.17062466
129	0xbe37f27e	-0.17963597
130	0xbe9c3700	-0.30510712
131	0xbe9388c2	-0.28815275
132	0xbe51ea2d	-0.20499487
133	0xbe3fa7d1	-0.1871636
134	0xbe8c2978	-0.27375388
135	0x3cdd2e00	0.026999474
136	0xbeb1c646	-0.34721583
137	0x3e798e20	0.24370623
138	0xbe14e53b	-0.1454057
139	0x3e08acc0	0.13347149
140	0xbddab970	-0.10679901
141	0xbcbe8b95	-0.023259917
142	0xbbd38310	-0.006454833
143	0xbc624420	-0.013810188
144	0xbdb481bd	-0.08813808
145	0xbd4fbb72	-0.05071587
146	0xbcdef48f	-0.027216224
147	0xbdbd6544	-0.092478305
148	0xbdc72e9d	-0.09725688
149	0xbd306362	-0.04306353
150	0xbdea7054	-0.11447206
151	0xbde27c5f	-0.11058878
152	0xbdff452b	-0.124643646
153	0xbe100edb	-0.14068167
154	0xbe3a05f5	-0.18166335
155	0xbde79855	-0.11308352
156	0xbe146fe3	-0.14495806
157	0xbe63fffe	-0.22265622
158	0xbe17991a	-0.14804497
159	0xbe19bf14	-0.15014297
160	0xbe01c838	-0.12674034
161	0xbe1788ec	-0.14798325
162	0xbe89afbd	-0.2689189
163	0xbe20766a	-0.15670171
164	0xbe5070f2	-0.20355585
165	0xbe423893	-0.18966894
166	0xbe42e66a	-0.19033208
167	0xbe8c578d	-0.27410546
168	0xbe861f05	-0.2619554
169	0xbe9e0125	-0.30860248
170	0x3db1cbf0	0.08681476
171	0xbeb69982	-0.35663992
172	0x3e801f12	0.25023705
173	0xbe30f949	-0.17282595
174	0x3dbdf910	0.092760205
175	0x3deee628	0.116649926
176	0x3d6d160c	0.057882354
177	0x3d41f2db	0.047350746
178	0x3b736226	0.0037137358
179	0x3b56d18e	0.0032778713
180	0xbcc3df9a	-0.023910332
181	0x3dbec4ed	0.09314904
182	0x3d2a624f	0.04159766
183	0x3dcee715	0.10102669
184	0x3db67656	0.089092895
185	0x3df15e5c	0.11785576
186	0x3e0bc99d	0.13651128
187	0x3dee2465	0.116280355
188	0x3e1c39cc	0.15256423
189	0x3e416e36	0.18889698
190	0x3da449b4	0.0802187
191	0x3dc4d8a3	0.09611633
192	0x3dc4849f	0.09595608
193	0x3dbaf84f	0.09129392
194	0x3e250761	0.16116096
195	0x3e339123	0.17535834
196	0x3e63c677	0.22243677
197	0x3e7b586b	0.24545448
198	0x3e034985	0.12821014
199	0x3e0a8614	0.13527709
200	0x3e68b36c	0.22724694
201	0x3e8fb141	0.28064921
202	0x3e6208f9	0.22073735
203	0x3e2097bf	0.15682887
204	0x3e94d7ac	0.29070795
205	0xbda4f0b3	-0.08053722
206	0x3e834163	0.25635824
207	0xbe42a899	-0.19009627
208	0x3e0d968d	0.13826962
209	0xbdbca3ec	-0.09210953
210	0xbda9cdb1	-0.08291186
211	0xbd9b80ea	-0.07592948
212	0xbd68c60e	-0.056829505
213	0xbd3c8ccf	-0.046032723
214	0xbd04f1c5	-0.032457132
215	0xbc59a09a	-0.013282919
216	0xbda92b76	-0.08260243
217	0xbd9f542d	-0.07779727
218	0xbd1571f4	-0.036485627
219	0xbd23cc58	-0.0399898
220	0xbd0871a2	-0.033311494
221	0xbe084b3e	-0.13309953
222	0xbe007b83	-0.12547116
223	0xbcd6d06b	-0.026222428
224	0xbdd4afc9	-0.10385091
225	0xbd10e3c6	-0.03537347
226	0xbe12238d	-0.14271374
227	0xbda6bf09	-0.08141906
228	0xbe34efa1	-0.17669536
229	0xbe02f93d	-0.1279039
230	0xbe5e981d	-0.21737714
231	0xbe3e8959	-0.18607081
232	0xbe082b5b	-0.13297789
233	0xbe04e364	-0.12977368
234	0xbd947a4d	-0.072498895
235	0xbe39e46b	-0.18153541
236	0xbe381ef1	-0.17980553
237	0xbdc19463	-0.09452131
238	0xbe0f0461	-0.13966514
239	0xbe9b0e92	-0.30284554
240	0x3d92a7eb	0.07160934
241	0xbe58c852	-0.21170166
242	0x3e7e7038	0.24847496
243	0xbdb86c07	-0.090049796
244	0x3dde450f	0.10853016
245	0xbd92218b	-0.07135304
246	0xbdb3a7ec	-0.08772263
247	0x3cf38bcb	0.029729744
248	0xbde7b5e7	-0.11313992
249	0xb9ffbea0	-0.00048779417
250	0xbd345ba8	-0.044032723
251	0xbd8e75ed	-0.06956086
252	0xbdc80f82	-0.09768583
253	0xbd04890f	-0.03235727
254	0xbd8bbc3d	-0.06823013
255	0xbdb791cc	-0.089633554

classifier_conv.bias f4 [32]
0	0x3c6dc2b4	0.014511753
1	0xbceb777e	-0.028743502
2	0x3c96d761	0.018413248
3	0x3cc66887	0.024219764
4	0x3ca7a078	0.02046226
5	0xbccb63ba	-0.024827827
6	0x3c7a1b0d	0.0152652385
7	0x3cd46937	0.025929077
8	0x3c9f38d3	0.019436276
9	0x3c8affa3	0.0169676
10	0x3cac75d9	0.021052288
11	0xbc8834a0	-0.016626656
12	0xbc820ef3	-0.015876269
13	0xbca9b959	-0.020718263
14	0xbc995f47	-0.01872219
15	0xbca7eb49	-0.020497935
16	0x3c8d4f47	0.017249716
17	0x3c8fec71	0.017568799
18	0x3c623327	0.013806141
19	0x3ca6c3fc	0.020357125
20	0xbc71402f	-0.014724775
21	0xbcbba9be	-0.022908088
22	0xbc80b2fc	-0.015710346
23	0xbc81acc3	-0.01582945
24	0x3c8cdf6e	0.017196383
25	0x3cc2e67d	0.023791546
26	0x3ca0afd8	0.019615099
27	0x3c9d5dc3	0.019209748
28	0xbcbeb21a	-0.023278285
29	0x3cb726de	0.0223574
30	0x3cab6b57	0.020925207
31	0xbcc7ffb4	-0.024413921

fc.weight f4 [2, 32]
0	0x3dbbf1c5	0.09176973
1	0xbdb3d29a	-0.087804034
2	0x3dbfcba0	0.0936501
3	0x3dae211e	0.0850241
4	0x3db3ae01	0.08773423
5	0xbdb30d5b	-0.08742782
6	0x3db19a68	0.08672029
7	0x3db3b723	0.08775165
8	0x3dbd3c32	0.09239997
9	0x3dbd49b2	0.09242572
10	0x3db08b16	0.086202785
11	0xbdab94c4	-0.08377984
12	0xbdac6dc5	-0.084193744
13	0xbdac35ec	-0.08408722
14	0xbdad63f9	-0.08466334
15	0xbdc62d99	-0.09676666
16	0x3dc1a0da	0.09454508
17	0x3db1cd20	0.086817026
18	0x3db06e3a	0.08614774
19	0x3dba215b	0.09088393
20	0xbd9efbb9	-0.07762856
21	0xbdaea832	-0.085281745
22	0xbda2df7e	-0.07952784
23	0xbdbf6c2f	-0.09346806
24	0x3dabf06e	0.08395468
25	0x3db33cbd	0.08751819
26	0x3dc53701	0.09629632
27	0x3dac676b	0.08418163
28	0xbdb267ae	-0.087111816
29	0x3da9dced	0.082940914
30	0x3dbc30f2	0.09189023
31	0xbdc521f0	-0.09625614
32	0xbdc02b45	-0.09383253
33	0x3db9587c	0.0905008
34	0xbdc68da4	-0.096949846
35	0xbdb6e300	-0.089300156
36	0xbdb12cb3	-0.08651104
37	0x3dafba1b	0.08580419
38	0xbdb499e2	-0.08818413
39	0xbdb32c57	-0.087486915
40	0xbdc1b7db	-0.09458896
41	0xbdbbb794	-0.09165874
42	0xbdb1d144	-0.086824924
43	0x3da8ffc7	0.08251911
44	0x3daf4a0f	0.085590474
45	0x3da5670a	0.08076294
46	0x3daad833	0.08342018
47	0x3dc14533	0.09437027
48	0xbdc0b2d8	-0.09409112
49	0xbdadc034	-0.084839255
50	0xbdb60441	-0.0888753
51	0xbdb459a1	-0.08806158
52	0x3da5c2ae	0.08093773
53	0x3dae7756	0.08518855
54	0x3da57763	0.08079412
55	0x3dc2d7cd	0.09513817
56	0xbdad90bd	-0.08474872
57	0xbdaeffd9	-0.08544893
58	0xbdc5f4e0	-0.09665847
59	0xbdaa0dee	-0.08303438
60	0x3da950a6	0.082673356
61	0xbda766c6	-0.08173899
62	0xbdbf967d	-0.09354875
63	0x3dbd446f	0.09241568

fc.bias f4 [2]
0	0x3cb8f297	0.022576613
1	0xbcb8f27f	-0.022576569
