submit_entry/checkpoints/cv_edgcn_all_12s_slice_nosing/2/best.pth (torch_old, 360028 bytes, 27 tensors)

conv_time.weight f4 [75, 1, 10]
000000 8f 3b 95 3d c8 6b c0 3d 95 6a 64 3d 5d dc a3 3c
       0.072867505 0.09395558 0.055765707 0.020002538
000010 09 a9 ca 3c f3 a1 be 3c 25 eb 6a 3d 1c 7d 9f bd
       0.024738805 0.023270583 0.057353158 -0.077875346
000020 31 ac ad bd 22 7a 9d bc 77 2e 8f bd 36 c7 c2 bc
       -0.084801085 -0.019223277 -0.06991284 -0.023776632
000030 2a 8c d5 bc 2b 45 3b 3d d4 1a 96 bc ea e0 4a bd
       -0.026067812 0.04572026 -0.01832334 -0.0495309
000040 93 66 46 bb 30 10 3b 3d d6 34 27 bd ad 11 18 3b
       -0.0030273541 0.045669734 -0.040821873 0.0023203895
000050 e9 ae a5 bd 99 a9 c8 bc e0 80 74 bb 90 a7 11 bd
       -0.08090002 -0.024494933 -0.003730826 -0.03556019
000060 9a 98 04 3b 0a 4d ca bc ef e8 dd 3c 72 43 09 bd
       0.002023256 -0.024694938 0.02708861 -0.033511586
000070 28 68 48 3d fa 80 84 3d b2 df 65 3d bb 45 a2 bd
       0.048927456 0.06469913 0.056121536 -0.07923456
000080 94 ba 9e bd 4b d8 b2 bd 8d c2 9e bd ad ac e9 bb
       -0.07750431 -0.08732661 -0.07751951 -0.0071311803
000090 8d 1e 09 3c 9c 77 1c bd eb 00 9a 3c f4 aa 9f 3d
       0.0083691 -0.038200006 0.018799266 0.077962786
0000a0 43 1f 12 3c 82 ba 8f bd 54 71 8c 3c c3 19 ee bc
       0.008918586 -0.070179954 0.017143883 -0.029065019
0000b0 40 8b d9 bc 6d b2 99 3d a4 0f a5 3d 14 ab 1e bd
       -0.026555657 0.07504735 0.08059624 -0.03873737
0000c0 20 76 97 bc d3 ac c4 bd f9 ec 92 3d 36 5e 26 bc
       -0.018488944 -0.09603276 0.07174105 -0.010154298
0000d0 e0 a6 ef 3b ee 99 1d 3d 29 fb ab bd f0 af 92 3d
       0.007313594 0.038476877 -0.083975144 0.07162464
0000e0 47 47 8a bd a7 d5 90 bd c4 3c d8 bc 5d 17 3e 3c
       -0.06751876 -0.07072001 -0.026396163 0.01160225
0000f0 47 22 0c bd 75 15 39 bc f5 46 58 bd 07 d9 33 bd
       -0.034212377 -0.01129662 -0.052802045 -0.043908145
000100 0a e9 1e bd 9e c4 a9 3d 89 ca 93 bd 34 61 3d 3c
       -0.038796462 0.08289455 -0.07216365 0.01155882
000110 73 48 b4 3d 9b 02 b8 3d ba ab bf 3c 10 bb 1c bc
       0.08802881 0.08984872 0.023397315 -0.009566084
000120 f2 83 0f bc c9 d5 fa 3b 6c d5 8a 3d d1 93 4c bd
       -0.008759486 0.0076548797 0.06778988 -0.049945656
000130 82 8b a1 3d 52 bc 7e 3d 48 bc 2c 3d d8 71 4f 3b
       0.07887937 0.062191315 0.042171746 0.003165355
000140 fb ec 51 3d 82 c7 72 bd 90 30 9b 3d 32 7c 96 bc
       0.051251393 -0.059272297 0.07577622 -0.018369768
000150 1e eb c3 3d 3b 78 95 bc d1 98 77 3d 56 93 ca 3d
       0.095663294 -0.018245807 0.06044847 0.09891383
000160 ee 6c c2 3c 81 ac 8c bd 7d e5 21 3d 29 64 9b 3d
       0.023733582 -0.0686884 0.039525498 0.075874634
000170 fb 07 10 3d 41 f5 d8 3b 41 3f bd bc d8 f7 d3 3c
       0.03516386 0.0066210334 -0.02310145 0.025875017
000180 96 70 a3 bd 7e 98 23 3d 7f 50 8c bd 8e 4b b4 bd
       -0.079804584 0.03994035 -0.06851291 -0.088034734
000190 e3 14 8f 3d 5b 43 d6 bc 4f 5a ca 3d 94 4e 41 3d
       0.06986406 -0.026155164 0.09880506 0.04719408
0001a0 54 c1 cb 3d d2 3e cd 3c 69 a2 6d 3d 50 27 4b bd
       0.09948984 0.02505437 0.058016215 -0.04959804
0001b0 2d ad 9c bd 8d 40 ce bc 23 10 88 3d 28 2f 74 3d
       -0.07650218 -0.025177265 0.06643703 0.059615284
0001c0 ca 4d ce 3d 49 48 21 3d 99 07 01 3d 2c 3d 65 3c
       0.10073431 0.039375577 0.031501386 0.013991635
0001d0 47 77 c1 bc 45 d8 18 bc 88 18 1c 3d 73 f2 e8 3b
       -0.023616446 -0.009328906 0.038109332 0.0071089803
0001e0 cf 4e 77 bd 88 01 04 bd 6f 96 49 3c a1 e3 04 3d
       -0.060377892 -0.032228023 0.012303933 0.032443646
0001f0 61 25 eb 3c 15 ab d0 3c 7c 44 a8 bc ee e8 a2 bd
       0.028704347 0.025472203 -0.020540468 -0.07954584
000200 73 88 d5 bd e3 76 4c bd 5f 0b 41 bd e6 df bc 3d
       -0.10426416 -0.049918067 -0.047129985 0.09222393
000210 f1 85 9e 3c 71 1f 0c 3d 2f c4 99 3d c1 fa 5c bd
       0.019350978 0.034209672 0.07508122 -0.053950075
000220 30 12 1c 3d 83 84 77 bd 2b 72 94 bd 08 c4 54 39
       0.038103282 -0.060429107 -0.07248338 0.00020290923
000230 47 20 98 3d df 7a d1 3b f1 1e 08 3d b6 77 ea 3c
       0.074280314 0.006392821 0.033232633 0.028621536
000240 1e ca 1a 3d 12 61 32 3d 69 fe b7 3d 09 bd 1c 3d
       0.03779041 0.043549605 0.08984072 0.038266215
000250 cb 48 81 bc d0 51 07 3d b1 27 54 bc bf 37 4a 3d
       -0.01578178 0.033037007 -0.012948916 0.04936957
000260 a3 fd 85 bc 6e 7c a3 3d c2 9c dc 3c 78 2f 60 bd
       -0.016356295 0.079827175 0.026930217 -0.05473277
000270 83 00 e6 3d c5 8d 75 bd e7 c9 24 3d 25 af d0 3d
       0.11230566 -0.059949655 0.04023161 0.10189656
000280 08 c1 61 bd 42 ad 34 bd 97 f7 a5 bd 2b 06 8c 3d
       -0.05511573 -0.044110544 -0.08103865 0.06837114
000290 b5 3d 9f bd f1 00 65 3d 44 9a 53 3d ee 03 35 bc
       -0.077754416 0.0559091 0.05166079 -0.0110483
0002a0 8c ce 0b 3d cd 07 67 3d ad fc 5b bd 18 5e a9 bd
       0.034132525 0.056403924 -0.053707767 -0.082699
0002b0 99 5e 76 ba 88 51 3c bd 51 e3 c8 3c 49 d8 21 bd
       -0.00093982514 -0.04597619 0.024522455 -0.039512906
0002c0 46 e0 1c bd f2 ca 90 3d 93 fb 4f 3d e3 c4 a7 bd
       -0.03829982 0.07069959 0.05077703 -0.0819185
0002d0 ad d7 8c bd 72 05 0f bc cc 82 99 bd 38 fd 1d 3d
       -0.068770744 -0.008729326 -0.07495651 0.038571566
0002e0 64 32 82 3d 0c 2f cc bc 1a 15 a5 3d 17 34 33 3d
       0.063572675 -0.024924777 0.080606654 0.04375085
0002f0 59 a1 1c 3d 06 2a 69 ba b9 25 8d bd 08 57 20 3d
       0.03823981 -0.00088945066 -0.06891961 0.0391455
000300 e6 90 b2 bd 0f 86 03 bd 13 3c d4 bc 8b 69 9d 3a
       -0.087190434 -0.03211027 -0.025907552 0.0012009604
000310 8d b6 90 bc c7 50 ff bc 2a 5a ee bc 83 53 33 bd
       -0.017665172 -0.031166447 -0.029095728 -0.043780815
000320 36 a5 ee bc d3 b9 b1 3c 45 f1 21 3d 55 09 77 bd
       -0.029131513 0.021695053 0.039536733 -0.060311634
000330 2b 9c 84 3d 51 75 08 3d c3 39 23 bd c0 91 80 bd
       0.06475099 0.033315007 -0.039850008 -0.062777996
000340 c1 33 c2 bd 16 7f 35 bd 92 b5 d3 bc 03 f7 59 bd
       -0.094825275 -0.04431065 -0.025843415 -0.053214084
000350 10 25 6e 3b 79 bb 93 3d 92 9f f8 3b f4 7a 10 3c
       0.003633801 0.07213492 0.0075873816 0.008818377
000360 a3 80 0f 3d c6 06 bb 3d 4b fc c4 3c 3e 70 f9 3c
       0.035034787 0.09132151 0.024046084 0.030449029
000370 19 9a 65 3d 44 03 9b 3d 2c 26 0a bc db c3 1f 3d
       0.056055162 0.07568982 -0.008431952 0.03900514
000380 af ff 34 bc 9a 14 4d bd 51 e2 0d bd 1a 59 5c 3c
       -0.011047288 -0.050068475 -0.03463966 0.013448978
000390 4f 34 b3 bd 43 56 c1 bd 4e 26 01 3c 5c 39 e0 bc
       -0.087502114 -0.09440281 0.007882668 -0.027371101
0003a0 93 f8 a0 bc fd 42 0d bd 9d 1e 22 3b 9b e5 89 bc
       -0.01964978 -0.034487713 0.0024737485 -0.016833117
0003b0 68 a9 4f 3d 81 01 a9 3d ae 9b c0 3d 97 a0 72 3d
       0.050698668 0.0825224 0.094046935 0.05923518
0003c0 4e c8 91 3d 67 b9 86 bc 8f 1f 8f 3d 3b c6 97 3d
       0.07118283 -0.016445829 0.06988441 0.07410856
0003d0 0e ce 24 bd 95 5e 12 bd 1a 6f 76 3d d8 e4 26 3d
       -0.04023557 -0.03573473 0.06016455 0.040745586
0003e0 25 af 21 bc 81 24 a4 bd f4 90 02 3d 51 1f fa 3b
       -0.009868418 -0.08014775 0.03187652 0.0076331277
0003f0 1f c7 91 3d 29 43 0e 3c a4 22 18 3d 24 54 6f bc
       0.071180575 0.008683004 0.03714241 -0.014607463

conv_time.bias f4 [75]
000000 0a 61 bc 3a 91 93 ea ba 2b 8d 7a 3b 57 79 6f ba
       0.0014372182 -0.0017896761 0.0038231115 -0.00091352075
000010 5b 24 5e 3b d2 15 2f 3a 5f f2 c6 ba 83 09 34 39
       0.0033896181 0.00066789717 -0.0015178433 0.00017169681
000020 ca c7 19 3b 2a a3 9d b9 c5 55 f3 b9 d0 ae 84 bb
       0.002346503 -0.0003006694 -0.00046412475 -0.0040491596
000030 a6 0d d8 ba e6 a6 57 bb c9 e5 2b 3b 56 f9 80 3b
       -0.001648356 -0.0032905876 0.0026229492 0.003935973
000040 bb 7b 6e b9 1d 15 ea ba f7 ac be 3b 2a 58 73 bb
       -0.00022743542 -0.0017859075 0.005818959 -0.0037131407
000050 a8 7d f0 3a a5 72 4b 3b 5f 56 c2 ba e1 dd 79 39
       0.0018347995 0.0031043675 -0.0014826766 0.00023829147
000060 e8 22 4e bb 70 72 61 3b cd dd 3e 3b 85 1e 23 3b
       -0.0031453911 0.0034400485 0.0029123903 0.0024890017
000070 42 e0 bc 3b 77 b4 70 b9 d8 cd e7 ba b2 d5 bf ba
       0.0057640383 -0.00022955412 -0.0017685248 -0.001463583
000080 f5 54 09 bb bb d6 bb 39 10 a2 94 ba 30 87 bc 3b
       -0.002095518 0.00035827406 -0.0011339802 0.0057534203
000090 79 c9 2c bb 2c cf 89 3b 73 3b 39 ba 4b 23 49 bb
       -0.0026365204 0.004205605 -0.00070660486 -0.0030691202
0000a0 58 ff ed bb fc b1 82 3b 2b 64 99 bb 94 2b 42 bb
       -0.0072631054 0.0039885025 -0.0046811304 -0.0029628025
0000b0 59 ed 92 3b 0c 9e 9c ba a2 e2 57 39 ad 30 6f 3b
       0.0044838605 -0.0011948957 0.00020588425 0.003649752
0000c0 3e a8 d7 ba b1 4d 13 bb 27 49 48 3b 65 21 2d 3a
       -0.0016453338 -0.0022476728 0.003056118 0.00066044024
0000d0 68 51 bb b9 74 8e d3 3a 4a 72 00 bb 22 28 0a 3b
       -0.00035728072 0.0016140477 -0.0019599372 0.002108105
0000e0 06 89 ab 3b 9e 6f 8d b9 ad a5 82 3a ad 51 8d ba
       0.0052348403 -0.00026976777 0.0009967588 -0.0010781788
0000f0 29 f5 9c b4 05 73 36 b8 b7 d1 3d 39 1b 20 cd 38
       -2.9235642e-07 -4.34993e-05 0.0001810257 9.781142e-05
000100 f1 52 4d b9 14 29 2b 38 e2 ca 91 b9 d9 03 bb 38
       -0.00019581222 4.0807834e-05 -0.00027807715 8.9175715e-05
000110 1d 00 a0 b9 64 aa 40 3a c3 d3 17 39 ce dd e8 b8
       -0.00030517663 0.0007349609 0.0001447937 -0.000111039364
000120 ba f0 c4 b6 c1 34 ea b9 26 7c cf 39
       -5.8692794e-06 -0.00044671263 0.00039574614

bnorm.weight f4 [75]
000000 07 1c 7f 3f fb d5 7b 3f ea 60 7f 3f d1 77 80 3f
       0.9965214 0.98373383 0.99757254 1.0036565
000010 3b 1c 7e 3f be bc 7e 3f d7 39 82 3f b0 6e 80 3f
       0.99261826 0.9950675 1.0173901 1.0033779
000020 08 95 7d 3f 6a 94 7c 3f 3d 4c 85 3f ab 6a 81 3f
       0.9905553 0.9866396 1.0413891 1.0110677
000030 d1 41 7e 3f f0 fa 7b 3f cb b7 80 3f e6 c3 7c 3f
       0.9931918 0.98429775 1.0056089 0.9873642
000040 e6 7e 7d 3f 3f 0b 7f 3f b2 5d 7f 3f 16 b2 7f 3f
       0.99021757 0.99626535 0.9975234 0.9988111
000050 1a 82 7f 3f e5 b2 81 3f ca 53 80 3f c5 d3 81 3f
       0.99807894 1.0132719 1.002557 1.0142752
000060 03 b3 7e 3f 8e 1e 81 3f d7 fa 7f 3f 2b 7e 80 3f
       0.994919 1.008745 0.99992126 1.0038503
000070 5b cd 7f 3f b4 a7 7e 3f 2f f9 7f 3f cc ff 81 3f
       0.9992272 0.99474645 0.999896 1.0156188
000080 42 79 80 3f 41 f5 7f 3f 24 ac 7e 3f 8a 84 81 3f
       1.0037005 0.999836 0.99481416 1.0118573
000090 f1 8f 7d 3f c9 aa 80 3f 07 93 7f 3f ed 6d 7d 3f
       0.9904776 1.005212 0.9983372 0.9899586
0000a0 31 32 80 3f 4e 82 80 3f 4d cd 7f 3f 61 8a 7c 3f
       1.0015317 1.0039766 0.9992264 0.9864865
0000b0 ad a4 7f 3f c4 2c 80 3f 29 6b 80 3f 7b 2f 7f 3f
       0.9986065 1.0013661 1.0032703 0.99681824
0000c0 66 96 7d 3f bb 08 81 3f c1 4b 80 3f 89 56 80 3f
       0.99057615 1.0080789 1.0023118 1.0026408
0000d0 e3 8c 7e 3f cd 44 7f 3f e4 90 7f 3f fc f7 7f 3f
       0.99433726 0.99714357 0.9983046 0.9998777
0000e0 d6 d1 80 3f 9a 24 80 3f ba f3 7f 3f 5b 0e 7e 3f
       1.0064037 1.001117 0.9998127 0.99240655
0000f0 73 c6 80 3f d9 f3 7f 3f 13 1f 80 3f 64 65 7f 3f
       1.0060562 0.99981457 1.0009483 0.99764085
000100 bc 65 7d 3f db b0 80 3f a9 06 7b 3f 14 f8 7d 3f
       0.9898336 1.0053972 0.9805704 0.9920666
000110 7b fd 80 3f 68 27 80 3f fc b5 80 3f 88 8a 7d 3f
       1.0077356 1.0012026 1.0055537 0.99039507
000120 fe 59 80 3f ae d3 7e 3f 75 9f 80 3f
       1.0027463 0.9954175 1.0048662

bnorm.bias f4 [75]
000000 01 0e 10 bc 04 3d f1 3b 0a 85 b7 3b 65 82 8e 3c
       -0.008792401 0.00736201 0.0056005763 0.017396161
000010 6c a3 b6 bb ea ba e1 3c 9b bc 8a 3d 61 25 a8 bc
       -0.0055736806 0.027554948 0.06774255 -0.020525636
000020 e0 2e 04 3a 9f e2 8d 3c 08 47 2b 39 52 49 11 3b
       0.00050423853 0.017319975 0.00016334292 0.0022168946
000030 58 6a de 3b b3 01 13 3d c7 cb 86 3b b9 c3 0b 3d
       0.0067875795 0.035890292 0.0041136476 0.034122203
000040 78 90 a3 3d 35 c0 d7 3c ac 68 de 3c f7 91 ff ba
       0.079865396 0.026336769 0.02714952 -0.0019498457
000050 a3 8c 1e 3c b7 a7 0c 3b 52 d8 8c 3c 62 80 94 bb
       0.009677085 0.002146227 0.017192993 -0.004531906
000060 37 43 1d 3d ae 31 01 3d c8 a7 38 b8 bd 45 5b 3d
       0.03839418 0.03154152 -4.4025277e-05 0.053533304
000070 e5 f3 f0 ba f6 bf c1 3c 95 f9 ed bc b0 ae ff bb
       -0.0018383233 0.023651104 -0.029049674 -0.007802807
000080 7b 67 15 3b 4e 21 15 3c 2a 98 d1 3c 83 f3 8a bb
       0.0022797275 0.009102179 0.025585253 -0.0042404546
000090 a8 60 38 3c 8d 55 53 bc c1 9b 06 3d df dd b1 bb
       0.011253513 -0.012898815 0.032863382 -0.0054280604
0000a0 ef e9 53 bc fb 02 b0 bc f1 25 7b 3b a5 4a 75 bc
       -0.012934192 -0.021485796 0.0038322175 -0.01497141
0000b0 58 e3 11 3d f3 35 9d b9 ef 29 c1 bb 99 33 bc 3b
       0.035617203 -0.0002998557 -0.0058948915 0.0057434556
0000c0 10 61 0a bc eb 37 f4 bb 89 ce 4e bc f5 bd 04 bb
       -0.008445993 -0.007452955 -0.012622484 -0.0020254825
0000d0 e6 87 08 bc c2 5e 5c bb bc 53 92 ba 52 f6 fd 3b
       -0.008333182 -0.0033625816 -0.0011163871 0.007750311
0000e0 aa ed 83 bc 0e 5a c4 bb 60 a8 84 bc d4 5b 1b bb
       -0.016104538 -0.0059921807 -0.016193569 -0.0023705857
0000f0 dc e9 39 3b af 18 9d 3b fa 4c 28 bc 5d ae 6a bc
       0.002836815 0.0047942023 -0.010272259 -0.014323798
000100 3d 79 97 bb 97 72 6b bb 52 8b 35 bc 66 68 28 bc
       -0.004622607 -0.0035926455 -0.01108058 -0.010278797
000110 79 3c 02 3b 80 7e 7b 3c 9a 44 02 3c 40 ee 8e bb
       0.001987247 0.015349984 0.007950926 -0.0043618977
000120 c4 e6 81 b9 2f 2a 5a 3c a0 f3 12 39
       -0.0002477673 0.013315721 0.00014014402

bnorm.running_mean f4 [75]
000000 8a 82 f9 3c 8d 56 d3 bc b5 2c da bb db 39 16 bd
       0.030457754 -0.025798107 -0.0066581615 -0.03667627
000010 bb bf 5d bc 36 28 1c bc 01 71 f6 3a 4b dc 1b 3d
       -0.013534482 -0.009531071 0.0018801988 0.038051885
000020 50 73 35 3d 5d 09 d9 bb f9 61 1c 3d 89 03 57 3d
       0.044299424 -0.0066234306 0.03817937 0.052493606
000030 03 9c 37 bd d5 29 a2 3a 06 7c 89 3d 8d cb 91 3d
       -0.04482652 0.0012372086 0.06713109 0.07118902
000040 50 63 2f ba ae e6 51 bd 15 26 e1 3c dd 92 9f bd
       -0.0006690519 -0.051245384 0.02748398 -0.07791684
000050 23 d1 28 bd c6 06 53 3d 23 52 e0 bc 31 3c 4d 3d
       -0.041215073 0.05152013 -0.027382916 0.05010623
000060 a8 55 fa 3c 70 bf 16 3d 09 3f 36 bd d3 b1 57 3d
       0.030558422 0.036803663 -0.04449371 0.05265982
000070 e2 37 d5 bc 76 c5 34 3d 17 c6 38 3c 95 e6 5d 3c
       -0.026027624 0.044133626 0.011277697 0.013543745
000080 46 7b 38 bc cd aa 4e bc 53 8f 02 bc e1 42 5c 3c
       -0.011259859 -0.012613964 -0.0079687415 0.01344368
000090 18 02 4b bc 85 e9 8f 3c e9 a1 11 bc ac d8 4b 3b
       -0.012390636 0.017567405 -0.0088887 0.0031104488
0000a0 9c d9 75 ba 98 f7 59 3c 69 a4 3e bc 54 91 48 3b
       -0.00093784346 0.01330366 -0.011635878 0.00306042
0000b0 dc bc 32 3c 64 7a 92 3e 80 12 98 be c5 9a be 3d
       0.010909285 0.28609002 -0.29701614 0.09306864
0000c0 1d 8b 31 be 1c 86 ce bd 04 a0 0f be 89 e1 71 be
       -0.17338224 -0.10084173 -0.14025885 -0.23621191
0000d0 77 03 af be 8c c8 4d 3e c5 21 c1 bd 17 cf 19 3e
       -0.3418233 0.20096034 -0.09430269 0.15020405
0000e0 84 6f d5 bd ef 56 bc 3e 1e ae 96 be b9 c1 44 3e
       -0.104216605 0.36785075 -0.29429716 0.19214524
0000f0 73 18 e2 c0 82 73 b7 c0 31 19 88 c0 93 09 01 c1
       -7.0654845 -5.73285 -4.253075 -8.064837
000100 b2 f3 3c c0 62 88 32 41 1c 12 f5 bf c0 27 e9 c0
       -2.952374 11.158297 -1.9146152 -7.2861023
000110 ad fe eb 40 bf 25 f5 3f 6d 49 0a 41 5c da 9f c0
       7.3748384 1.9152144 8.642926 -4.995405
000120 ca af 09 41 49 b5 64 c0 7c 88 e9 40
       8.605417 -3.5735648 7.2979107

bnorm.running_var f4 [75]
000000 5f 19 19 3d 58 88 8e 3c 05 d5 33 3c 96 51 3a 3d
       0.03737771 0.017398998 0.010976081 0.045487963
000010 8b 07 82 3c 74 5b 57 3c 86 d9 83 3c b1 b7 1d 3d
       0.015872737 0.013144363 0.016094934 0.03850526
000020 d3 ac 58 3d 83 4b 80 3c 8d df 54 3d ce 69 a3 3d
       0.052899193 0.015661007 0.051971007 0.07979165
000030 41 ad 4f 3d 81 8f 4b 3c f7 dd ca 3d b5 81 6a 3d
       0.050702337 0.012424351 0.09905618 0.057252605
000040 7f 4b 70 3c 4f 0d 0c 3d 47 1e 8a 3c 28 21 72 3d
       0.014666437 0.03419238 0.01686014 0.05911365
000050 86 ca f0 3c c7 48 03 3d c6 75 c1 3c 96 ca 16 3d
       0.029393446 0.032051828 0.023615729 0.036814295
000060 2a 33 bf 3c 02 cf 83 3c bd 1b fe 3c ca 8b 08 3d
       0.023339827 0.01608992 0.031019086 0.03333644
000070 86 75 e6 3c f6 15 fa 3c 06 e5 3a 3d 14 98 76 3d
       0.028132211 0.03052805 0.04562857 0.060203627
000080 48 9c c0 3c 6a 59 3c 3d e5 9b 56 3c 81 04 84 3c
       0.02351202 0.04598371 0.013098692 0.016115429
000090 87 37 d3 3c 4a 0d 44 3d df d2 8f 3c 54 c0 29 3c
       0.025783313 0.047864236 0.017556606 0.010360796
0000a0 b9 34 35 3c 95 b6 c0 3c 65 28 55 3c 5d b1 23 3c
       0.011059933 0.023524562 0.013010119 0.009991017
0000b0 92 23 41 3c 2e 4b 27 3e 4d 33 33 3e 66 62 8e 3c
       0.011788266 0.16337273 0.17500038 0.017380904
0000c0 78 5a 72 3d 6f e8 a2 3c 80 b2 2b 3d 80 dd e3 3d
       0.05916831 0.019886224 0.041918278 0.11126232
0000d0 a5 98 6b 3e fe 9a a2 3d 44 45 96 3c 55 21 34 3d
       0.23007448 0.07939719 0.018343575 0.0439771
0000e0 2d e1 d0 3c 45 ed 88 3e 29 76 30 3e 28 df 98 3d
       0.025497997 0.26743522 0.17232575 0.07464439
0000f0 c8 56 0e 43 0e 62 bc 42 4b f3 50 42 13 37 39 43
       142.33899 94.19151 52.23759 185.21513
000100 f0 a2 cc 41 0b c0 b0 43 0d b3 2e 41 fa 37 17 43
       25.57956 353.50034 10.918714 151.21866
000110 aa c2 1a 43 af 30 2c 41 87 15 54 43 8c 05 8e 42
       154.7604 10.761886 212.08409 71.01083
000120 8d 14 52 43 f8 37 13 42 0e 95 17 43
       210.08028 36.804657 151.58224

block2.conv_2.weight f4 [75, 15, 10]
000000 c4 aa 06 3d 88 a0 80 3d d6 f8 1c 3d a7 6f 4d bd
       0.0328777 0.06280619 0.038323246 -0.050155308
000010 38 29 9b bd 62 a9 b1 3b 52 46 09 3d 51 6a af bc
       -0.07576221 0.0054218033 0.03351433 -0.021413
000020 c9 07 82 bc e8 49 21 bd 4a 48 45 bd 9b 57 73 3d
       -0.015872853 -0.039377123 -0.048164643 0.05940972
000030 90 bf a2 bc 2b f5 79 3d 04 fe 8d bd 65 3f 53 3d
       -0.019866735 0.061024826 -0.06933215 0.05157413
000040 04 6d 18 bd 31 5c 45 bd 64 17 6b bd e9 05 8b bd
       -0.03721334 -0.048183624 -0.057395354 -0.06788237
000050 52 8b 44 3d ba 9a e1 bc d7 cd 88 3d 6a f3 8f bc
       0.04798443 -0.0275396 0.06679886 -0.017572124
000060 bb a2 01 bd c9 99 b5 bb 97 18 0f bd 32 ad 1b 3d
       -0.031649332 -0.0055420143 -0.03493556 0.03800697
000070 32 f1 1b bc 95 41 c8 3b ff 17 05 3d cd 60 83 3c
       -0.009517955 0.0061113336 0.032493588 0.01603737
000080 64 6f 1f 3c 60 b7 9f 3d 3d 10 53 3d 8f b2 d9 bb
       0.009731147 0.07798648 0.051529158 -0.0066436003
000090 31 9a b8 3c c5 6d 04 bd 59 ff 78 3d 4e 3c 6a bc
       0.022534462 -0.032331247 0.060790394 -0.014296604
0000a0 b7 c6 f1 3c 9f 9a 05 3d 9a f5 89 3d 3b 05 12 bb
       0.0295137 0.03261816 0.06736298 -0.002228095
0000b0 60 46 49 3d 53 ff be bc 39 65 1a 3c ce ae cc bc
       0.04913938 -0.023315107 0.009423547 -0.024985697
0000c0 d8 3e e4 3c 2d d6 fa bc 6f 7a 9c 3c 3b 7a fe 3c
       0.027861997 -0.030619705 0.01910135 0.031064143
0000d0 56 47 1e bd 03 ee 11 3d 1f 6f 60 bd 06 ed 42 3d
       -0.03864225 0.035627376 -0.054793473 0.047589324
0000e0 72 c7 76 bd a7 c0 8e bc e3 01 c2 bc 40 dd 2b bd
       -0.0602488 -0.017425848 -0.02368254 -0.041959047
0000f0 c0 60 d2 bc 4e ee b8 bd 1a 94 d3 bb 35 63 c7 3c
       -0.0256809 -0.09029828 -0.006456864 0.024339298
000100 ea c8 b9 bc 39 c7 33 bd a9 cb ca bc 3a 9f 7a bd
       -0.022678811 -0.043891165 -0.024755316 -0.061187007
000110 9e e7 6d bc 0c bb e2 3b f6 57 18 3d af 8f 0e 3d
       -0.014520554 0.0069192704 0.03719326 0.034804996
000120 9f 2f 8b bd a5 47 3e 3d 73 4f 28 3d 24 d1 89 3d
       -0.067961924 0.046455044 0.041091394 0.067293435
000130 ce cc 80 3c 5d ee 1c 3d f4 36 a9 bc 08 2f 0d bc
       0.015722658 0.03831326 -0.020656087 -0.00861717
000140 75 ed 9c 3b c5 36 fd 3c 0d e4 9f 3d 03 53 c4 bc
       0.0047890493 0.030909905 0.07807169 -0.023965364
000150 e7 e8 8f bc 2d 08 07 3d 7f af 25 bd 18 24 97 bd
       -0.017567111 0.03296678 -0.04045057 -0.07379931
000160 67 b6 8d 3d 7f c9 3f bd c2 68 20 3d f7 6c 28 3d
       0.06919556 -0.04682302 0.039162405 0.041119542
000170 44 9c 41 3d 7b 48 3e 3d 4b cc 3a 3c dd 5c 36 3d
       0.047268167 0.04645584 0.011401246 0.044522155
000180 7d 58 1b bd 72 1f a5 bc 44 e9 fa 3c 5f ab 50 bd
       -0.037926186 -0.020156596 0.030628808 -0.050944682
000190 b7 de 12 3d a0 72 a4 3d 33 b7 78 3d 2c 08 ec 3c
       0.03585693 0.080296755 0.060721587 0.02881249
0001a0 12 21 bc bd 70 c1 9c 3c 5a c0 a3 bd 58 10 64 3d
       -0.09185995 0.019135207 -0.079956725 0.05567965
0001b0 e5 ae cb bc 03 86 a2 bd a9 9e b6 3d ec 80 02 bd
       -0.02486367 -0.07935717 0.08916981 -0.03186123
0001c0 da 88 71 3d 55 28 85 3d 8f 9e 95 bd af 40 09 3d
       0.058968402 0.06501833 -0.07305633 0.033508953
0001d0 50 a8 6b bc 69 57 1c bd 8a 05 3b ba be 01 76 3b
       -0.014383391 -0.0381693 -0.0007134309 0.003753766
0001e0 67 30 6f bb db 77 3d 3d 07 0d b0 3d 0a 86 c7 bc
       -0.0036497356 0.04625688 0.08596235 -0.024355907
0001f0 45 f9 5c bd d9 20 59 bd 33 e8 23 bd 77 5c 5c 3d
       -0.05394866 -0.05300984 -0.040016364 0.05379912
000200 de d0 af 3c 77 a8 2f 3d d4 f0 f5 bc 1c df 5d bd
       0.0214619 0.04288527 -0.030022062 -0.05416785
000210 6d a4 2c 3d 80 05 96 bd d3 db 18 bb d7 3c a0 bd
       0.042148996 -0.07325268 -0.0023324385 -0.07824104
000220 8b bf 8c bd 44 95 84 bc 4d 44 78 bc b5 2e 9d 3d
       -0.068724714 -0.016184457 -0.015153003 0.07674924
000230 09 19 dd 3c 40 17 37 3c 89 ed 99 3c 27 c3 07 bd
       0.026989477 0.011174977 0.018790023 -0.033145096
000240 53 0f 13 bd 93 8b 7e bd 01 33 a5 bc 3e a5 74 3c
       -0.035903286 -0.062144827 -0.020165922 0.014931975
000250 e0 81 7e bd fa f3 0b bc 6d b7 e6 3c e8 9b 2c 3d
       -0.062135577 -0.008542055 0.028163636 0.04214087
000260 6c ff 32 3c ec b7 8e 3d 3b 08 2b bd 1f 0e 5e 3d
       0.010925155 0.06968674 -0.041755896 0.054212686
000270 78 69 6e bd b7 28 2a bd 88 b3 a1 3d 88 2a 1f 3d
       -0.05820605 -0.041542735 0.07895571 0.03885892
000280 f9 a5 82 bd 12 38 30 bb f5 38 50 bd fd c5 8b 3d
       -0.06379313 -0.002688889 -0.05083557 0.06824873
000290 68 87 93 3a 0d cc d2 3c d5 da 85 3b 21 74 49 3d
       0.0011255564 0.025732065 0.0040849247 0.049183015
0002a0 57 03 a5 bd db 25 73 3d c4 79 e9 bc ed b0 4b bd
       -0.08057278 0.059362274 -0.028500445 -0.049729276
0002b0 12 fd a5 3d 15 4c 4f bd a7 f5 20 bd 8a 89 64 bd
       0.0810491 -0.050609667 -0.039296772 -0.05579523
0002c0 f5 ce 7d bc 44 7b b8 bc dc 29 c6 bc 2a 5b 92 bd
       -0.015491237 -0.022519715 -0.024189882 -0.071462944
0002d0 8d 7e 59 3d a2 19 a0 3d 73 fa 8a 38 95 19 8d bd
       0.053099204 0.07817389 6.6270026e-05 -0.06889645
0002e0 68 8f 2c bd c4 5d c5 3c df e7 cc 3c 6b f8 dc 3b
       -0.04212895 0.024092562 0.025012909 0.006743481
0002f0 99 bc 80 3d 44 40 a1 bc d8 3d 89 3d 0d fa c4 bb
       0.06285972 -0.019683965 0.06701249 -0.0060112537
000300 a3 f8 0c 3d ab a6 96 bc 16 61 45 bd a2 f6 b8 3c
       0.034416806 -0.01839002 -0.04818829 0.022578541
000310 38 07 c7 bc 24 98 1c b4 f9 aa ec 3c c4 53 86 bd
       -0.024295434 -1.458398e-07 0.02889012 -0.06558946
000320 8a b8 74 bc e4 6e 7e bd fa 33 9b bd 28 e5 92 bd
       -0.014936576 -0.062117472 -0.07578273 -0.07172614
000330 52 a7 a8 bd b5 c9 2f 3d 81 6b 6b 3d 39 c2 93 ba
       -0.08235039 0.042916972 0.05747557 -0.0011273093
000340 f5 86 9c 3c e6 a0 02 bd 16 b4 98 3d 36 75 2e bc
       0.019107321 -0.031891726 0.07456224 -0.010648062
000350 69 03 78 3d 25 47 84 3d f9 f9 b3 bd 29 c6 c2 bd
       0.060550127 0.06458882 -0.08787913 -0.09510452
000360 42 94 c2 bd 2f 32 53 bd 11 66 8a bd 9c e9 2a 3d
       -0.09500934 -0.05156153 -0.06757749 0.041726694
000370 bb 42 22 bd e2 13 b0 bc af 52 b5 bc b3 8c 97 3d
       -0.03961442 -0.021493856 -0.022134153 0.07399883
000380 1d d0 c2 3b e2 b2 73 bd 5a 91 b1 3c 5a fb 28 bd
       0.005945219 -0.059496768 0.021675754 -0.041255333
000390 35 b0 ba 3c f1 b8 07 bd 56 58 91 3c f9 08 71 3d
       0.0227891 -0.03313536 0.017742317 0.058846448
0003a0 63 ae 74 3c 6f 3d 19 bd 90 a2 d7 bc 31 a7 9d bd
       0.014934155 -0.037412103 -0.026322633 -0.07697905
0003b0 a9 dc 28 3d e2 ac 27 bc d5 66 fa bc 46 01 f8 bc
       0.041226063 -0.01023409 -0.030566612 -0.030274045
0003c0 af 15 95 3c 3c f6 f7 bc d5 b9 40 bd 40 20 ee 3c
       0.018198816 -0.03026878 -0.047052223 0.029068112
0003d0 5a d6 4c 3d 4b 76 28 bc aa 6f 63 3d 7b ea 80 3d
       0.05000911 -0.0102821095 0.055526413 0.062947236
0003e0 5f 21 5b 3d 68 b4 7d bd 3e b0 82 3d 3d 7c 5e 3d
       0.053498622 -0.061939627 0.06381272 0.0543177
0003f0 f0 34 96 bd 6f 14 99 3d 57 66 9b 3d 66 2a 3a 3b
       -0.07334316 0.074746005 0.07587879 0.002840662

block2.bnorm_2.weight f4 [75]
000000 14 cd 7e 3f c2 4d 82 3f 76 cc 82 3f 21 f4 7f 3f
       0.99531674 1.017998 1.0218647 0.99981886
000010 06 c3 7c 3f 10 7a 7f 3f d1 e8 7f 3f f5 0c 7f 3f
       0.9873508 0.9979563 0.99964625 0.99629146
000020 8f 2b 84 3f 31 0c 80 3f 4d 6e 7d 3f 7c b2 80 3f
       1.0325793 1.000372 0.9899643 1.0054469
000030 b2 b0 7f 3f 4f ef 7b 3f 4a 69 80 3f 3d 5e 7f 3f
       0.9987899 0.9841203 1.0032132 0.9975317
000040 d2 10 7e 3f 38 21 81 3f d3 ac 7d 3f 33 48 7e 3f
       0.99244416 1.0088263 0.99091834 0.9932892
000050 56 85 80 3f 20 47 80 3f 14 22 80 3f 49 b2 7e 3f
       1.0040691 1.0021706 1.00104 0.9949079
000060 4b ab 7d 3f 95 4f 81 3f b2 b2 81 3f e4 a2 87 3f
       0.990895 1.0102412 1.0132658 1.0596585
000070 1e ae 83 3f e2 78 7c 3f 85 2f 81 3f 5b bc 80 3f
       1.0287511 0.9862195 1.0092627 1.0057482
000080 9b b3 7f 3f 2c f1 7e 3f 61 49 80 3f c2 51 7f 3f
       0.9988343 0.9958675 1.0022393 0.9973413
000090 7d a0 7c 3f 7f 43 80 3f 2f 67 81 3f 7b 21 80 3f
       0.98682386 1.0020598 1.0109614 1.0010217
0000a0 8e 10 7e 3f 6a 28 7f 3f 6a 78 80 3f 39 00 7f 3f
       0.9924401 0.9967104 1.0036747 0.99609715
0000b0 40 0b 81 3f f4 ad 7d 3f d3 14 7e 3f 04 71 7f 3f
       1.0081558 0.99093556 0.99250525 0.99781823
0000c0 3d 9c 7f 3f 43 1d 7f 3f 5e 03 80 3f 21 bb 7f 3f
       0.99847776 0.99654025 1.0001028 0.9989491
0000d0 ab ad 7c 3f a7 87 7f 3f 97 e7 81 3f d8 2b 7e 3f
       0.98702496 0.99816364 1.0148801 0.9928565
0000e0 64 7d 80 3f b4 0a 84 3f 28 72 80 3f 9d 86 81 3f
       1.0038266 1.0315766 1.0034838 1.0119206
0000f0 0b bb 83 3f c0 70 80 3f 6f d1 7c 3f d2 3c 7f 3f
       1.0291456 1.0034409 0.9875707 0.9970218
000100 df 68 7f 3f a7 13 7d 3f de 77 7e 3f 55 f8 80 3f
       0.99769396 0.9885811 0.9940165 1.0075785
000110 42 d9 7d 3f 96 65 7d 3f bc a8 7d 3f 50 84 81 3f
       0.99159634 0.9898313 0.99085593 1.0118504
000120 fc 52 7f 3f d4 9e 7f 3f 67 c5 7d 3f
       0.99736 0.9985173 0.9912934

block2.bnorm_2.bias f4 [75]
000000 05 22 0d bc 71 bd 61 3c f4 c2 bb 3c 9d d6 99 bb
       -0.008614068 0.0137780765 0.02292011 -0.0046947733
000010 e5 32 79 3c e1 5c 88 3c 12 ec ec 3a 7f 11 11 3c
       0.015209888 0.01664585 0.0018075726 0.008854269
000020 29 33 ad 3b 74 4e 64 3c 8b b5 df 3c 49 e7 1d 3d
       0.00528564 0.01393472 0.027308246 0.03855065
000030 ed 2e cc bb 9c 64 87 3c 69 03 a4 3b a8 f5 fa 3b
       -0.00623118 0.016527466 0.0050052893 0.007658679
000040 9b 06 5d 39 e6 5a f4 3b 58 5d 6c 3c 69 6c 58 3c
       0.00021078663 0.007457125 0.014426552 0.013209441
000050 f8 60 d0 3b b1 ea 50 3c 4c af 20 bb 9f 9f 05 bb
       0.006359216 0.012751267 -0.0024518548 -0.002038933
000060 5c ed c8 bc b1 b1 2c bc 5d 2a ab bb 3f 5c 23 3d
       -0.024527244 -0.010540412 -0.005223556 0.039882895
000070 fa 98 09 3b 9a 2e b3 3c 3a 1e f3 3b 7e 54 de 3c
       0.0020995722 0.021872807 0.007419375 0.027139898
000080 e2 3f b7 bb 0f 19 d7 3c 8f e6 d8 3c 64 e0 84 bb
       -0.005592332 0.026257066 0.026477126 -0.0040550698
000090 44 ea 84 bb 00 6f 17 bc 3c 31 f1 3c 0b c1 8f bc
       -0.004056247 -0.009242773 0.029442422 -0.017548105
0000a0 00 2b e8 bc 97 e9 bb bc 5f 48 d3 3c b9 93 00 ba
       -0.028340816 -0.022938533 0.025791345 -0.0004904825
0000b0 c7 b3 7e 3c f7 86 e8 bb 86 0b 4d bc 97 a5 73 bb
       0.015545792 -0.007096167 -0.012514954 -0.0037177557
0000c0 21 77 4e ba 30 9d 87 bb bc de 9b ba 56 fc 00 3b
       -0.0007876028 -0.0041386113 -0.0011891942 0.0019681654
0000d0 6d d5 09 bc 8e 28 cd bb 2b d2 c1 3c f6 e9 48 bb
       -0.008412701 -0.006260938 0.023659786 -0.003065703
0000e0 6b a1 55 bb aa 80 c6 3c ca f8 83 ba e5 7d 0c 3c
       -0.0032597433 0.024231274 -0.0010068652 0.0085749375
0000f0 01 13 92 3c 1d 3c 45 3c 21 a4 e9 ba 01 ac af 3b
       0.017831327 0.012038258 -0.0017825403 0.0053610806
000100 d1 79 0d 3b 30 bd a2 3b 2c 8a c7 bb 0e 16 09 3c
       0.00215875 0.0049664006 -0.0060894694 0.008367075
000110 b4 bc 24 bb a3 b9 c0 3a c0 a4 29 3b d4 fb 59 3b
       -0.002513689 0.0014703762 0.0025885552 0.0033261674
000120 f1 95 ab 3b 54 3e bc bb 65 6e f8 bb
       0.0052363803 -0.005744735 -0.0075815194

block2.bnorm_2.running_mean f4 [75]
000000 30 f9 a8 bd 06 8f 65 be 39 b9 f1 be a9 1a 9d be
       -0.08250654 -0.2241784 -0.47211626 -0.30684403
000010 af d1 1d 3f 12 4f 32 3d 58 6b c0 be 60 4e cb 3e
       0.61648077 0.04353244 -0.37581897 0.39708233
000020 15 86 38 be 3a bf f3 be 1c e1 2f 3e a4 96 1f bf
       -0.18019898 -0.47606832 0.17175716 -0.62339234
000030 35 3e 2b 3f 27 32 d3 3e 19 f6 04 bf 00 5e 59 be
       0.66891795 0.412492 -0.51938015 -0.21227264
000040 b7 1d a8 3e 97 f8 88 be b1 c8 eb 3d bc 40 4e 3e
       0.3283517 -0.2675216 0.11512888 0.20141882
000050 a3 41 4f be 22 c0 7f be c6 45 50 be d3 6f a9 be
       -0.20239882 -0.24975637 -0.20339116 -0.33093128
000060 b7 08 27 3f e1 98 9e be c1 13 09 be 0d 9c 47 be
       0.6524767 -0.30976012 -0.13386442 -0.19493122
000070 37 1e 99 be f6 37 85 3e cd e5 14 be 1e 3f 4e be
       -0.29905865 0.26019257 -0.14540787 -0.20141265
000080 83 43 61 bd 66 67 3e 3e b6 51 2f be ae b0 c5 bd
       -0.054996025 0.18594131 -0.17121014 -0.096528396
000090 e3 e6 b5 be b3 a8 56 3e da 4c 4e be 42 4a 3f 3e
       -0.35527715 0.20962791 -0.20146504 0.18680671
0000a0 a4 1b 47 3e 58 34 9e 3e 2f 9c 93 be 1a 56 0f be
       0.19444138 0.3089931 -0.28830096 -0.13997689
0000b0 9e dd 49 bd 1b 60 36 be 96 6f 0d 3d 9d 94 ac 3e
       -0.049283616 -0.17810099 0.034530245 0.33707133
0000c0 61 b2 f9 be 99 48 c9 3e 99 a4 46 be 99 94 b4 3e
       -0.48768905 0.393132 -0.19398727 0.3526962
0000d0 a9 f0 0a 3e 16 27 29 3e 51 8a fc be 55 fa cb 3e
       0.13568367 0.16518816 -0.49324277 0.39839426
0000e0 05 53 d9 3e 93 b4 0d 3e f3 97 cd be 68 9f c7 be
       0.4244615 0.13838415 -0.4015499 -0.38988805
0000f0 bc 6d cf 3c e2 cd 43 be 95 c3 80 be b2 bb 87 be
       0.02532088 -0.19121507 -0.25149217 -0.26510388
000100 b7 0c 17 3e 9f e8 ce bd 83 0e af be fe ec b9 3d
       0.14750944 -0.10102963 -0.3419076 0.09078406
000110 ce 5c 34 be eb 55 c4 be b5 23 d3 be 0c 0e cc 3c
       -0.17613527 -0.383468 -0.4123818 0.024909042
000120 29 c3 b9 bd e4 fe 4a bc bf 30 84 3a
       -0.09070427 -0.012389872 0.0010085328

block2.bnorm_2.running_var f4 [75]
000000 45 a1 2b 3e 7a 6f a0 3e a4 6d da 3e 58 9b 7a 3e
       0.16760738 0.3133505 0.42661774 0.24473321
000010 4a f2 1c 3f 39 f3 c5 3e da a0 ba 3e e9 9f d9 3e
       0.61307204 0.38662127 0.36450845 0.42504814
000020 2d aa 50 3e a5 9d 3a 3f 78 ed 52 3e 15 b9 85 3f
       0.20377417 0.72896796 0.205984 1.0447108
000030 e4 0a 5c 3f e3 6d b7 3e 9a 10 7b 3f 25 84 5f 3e
       0.8595412 0.35826024 0.98072207 0.21827753
000040 49 25 3a 3f 91 a6 42 3e c3 47 69 3e cd 48 bb 3e
       0.7271314 0.19008853 0.22781281 0.3657898
000050 ae bd 2c 3e 59 c1 8d 3e 57 03 b4 3e ce 43 c0 3e
       0.16869232 0.27686575 0.35158798 0.3755173
000060 ce 47 38 3f a1 62 8f 3e f8 34 5a 3e 68 ec 1b 3e
       0.71984565 0.28004935 0.21309268 0.152269
000070 48 a2 82 3e 67 79 c3 3e 52 6d bc 3d f6 8d 91 3e
       0.25514436 0.3817856 0.09200539 0.2842862
000080 51 9e bf 3e 0c d8 0c 3f 4d 71 81 3e 13 f3 23 3f
       0.37425473 0.5501716 0.25281754 0.64042777
000090 1e cb c4 3f ae ba ba 3e e2 bf a4 3e ab 1e 48 3f
       1.5374486 0.3647055 0.32177645 0.78171796
0000a0 d6 d4 19 3e d8 d0 e6 3e 2f 36 b9 3f a4 e0 90 3e
       0.15022597 0.4508121 1.446966 0.28296387
0000b0 2c 2c ac 3d 89 b8 d4 3e ac e8 0b 3f a8 60 79 3d
       0.084068626 0.4154704 0.54651904 0.060883194
0000c0 d0 45 2b 3f c6 42 1a 3f f0 db a5 3c 10 ab 8a 3d
       0.669034 0.6025814 0.020246476 0.06770909
0000d0 8a 2b bf 3d 2f 7d 09 3d 24 ed e9 3d 7b 63 c8 3f
       0.09334476 0.03356665 0.11422184 1.5655359
0000e0 01 64 c5 3d fe 74 6b 3d 9e 3e 9c 3d d9 e3 9b 3d
       0.09638215 0.05748462 0.07629131 0.07611818
0000f0 5c e8 35 3d 0f d2 48 3f 37 d9 7c 3d 56 99 64 3e
       0.04441105 0.78445524 0.06173059 0.22324118
000100 3f 2d 46 3d 47 e0 c0 3e f0 fb 96 3e 75 fb 15 3d
       0.048382994 0.3767111 0.29489088 0.03661676
000110 21 74 96 3e b2 41 f0 3c a1 97 8c 3e f0 51 03 3d
       0.29385474 0.029328201 0.27459434 0.032060564
000120 88 11 43 3f be 64 07 3f 42 d4 8b 3e
       0.76198626 0.52888095 0.27310377

block3.conv_3.weight f4 [150, 15, 10]
000000 0d 3b 4b 3c 96 de 56 3d 38 a2 06 bc 11 00 2c 3d
       0.0124042155 0.05245837 -0.008217387 0.04199225
000010 3b aa 04 bc 3f b8 0b 3d 8e 52 73 bc 6d 4f 03 bd
       -0.008097227 0.034111258 -0.014851226 -0.03205817
000020 f9 56 f9 bc 86 60 e6 bc 12 e1 99 bc 97 31 51 3c
       -0.03043698 -0.028122198 -0.01878408 0.012768171
000030 54 83 a6 3c b0 45 26 3d 62 b7 0f bd 02 81 c9 ba
       0.020326294 0.040593803 -0.035086997 -0.001537353
000040 6b d4 ed bc 9b c1 8e 3c 94 ee d5 3c fe 04 94 3d
       -0.029031953 0.017426303 0.02611474 0.07227515
000050 95 47 15 bd 4a 3b ff bc b2 7a b1 3c 28 22 f6 3c
       -0.03644522 -0.0311562 0.021664951 0.030045584
000060 90 16 0f bd 8f ef 9b 3c 53 ef 7b bd 2a a4 db bc
       -0.034933627 0.019035129 -0.061507534 -0.026811678
000070 96 0b 2e 3b 30 19 9a bd d1 e4 05 bd 64 89 ec bc
       0.0026557199 -0.075243354 -0.03268892 -0.028874107
000080 92 2f 69 bc 04 1f 59 3d a3 18 81 bd 35 0f ec 3c
       -0.014232533 0.053008094 -0.06303527 0.028815845
000090 7e 10 c3 bc aa f6 90 bd ee cb 47 bd ca 94 bd 3c
       -0.023811575 -0.070782974 -0.048778467 0.023142237
0000a0 8a 22 d5 3a 85 d9 71 3d f1 d6 00 3a ca 9a a4 3c
       0.0016260904 0.059045333 0.0004914841 0.02009334
0000b0 27 10 35 3d c5 de 44 3d 9f 39 7c bc 9a bb a9 bc
       0.044204857 0.048064012 -0.015394597 -0.020719338
0000c0 bd d4 8d bc c7 83 3e 3d c7 80 dd 3c 52 3a ac 3b
       -0.017313356 0.04651239 0.027038945 0.0052559758
0000d0 ca 19 60 bd 27 8a 77 bd 02 04 80 bd 50 ec 9d 3a
       -0.054712094 -0.060434487 -0.062507644 0.0012048576
0000e0 03 a7 a2 bc a6 72 d2 bc e7 bb 4a 3d c5 1e 0d bd
       -0.019855028 -0.025689434 0.049495604 -0.034453172
0000f0 19 af e6 3c d1 41 88 bc cd 7c 92 3c 93 89 57 3d
       0.028159665 -0.016632946 0.017881775 0.052621435
000100 cf 83 24 bd c7 74 c2 3c 08 59 81 bd c1 1e 84 3c
       -0.040164765 0.023737324 -0.063158095 0.016127946
000110 a7 88 50 bd 92 6b 88 3b 61 9b 92 bc ef 79 10 3d
       -0.05091157 0.004163214 -0.017896356 0.035272535
000120 21 54 a2 bc d3 3b 1f 3d de d1 0c 3d 19 83 ce 3c
       -0.019815506 0.038875412 0.034379832 0.025208997
000130 35 a1 ef bc f1 e9 c1 3c be 8a 5a 3d 1a a7 0e bc
       -0.029251674 0.023671122 0.05335497 -0.008706832
000140 b3 7b de bc 95 88 86 bd 3f a9 04 3d 56 be 10 3c
       -0.027158594 -0.0656902 0.03238797 0.008834442
000150 2f 90 d5 3c 71 bf 98 3b f8 18 25 bd 56 6b db 3c
       0.026069729 0.0046614935 -0.040307015 0.02678458
000160 8f e1 45 bd c1 87 51 3d 20 0c b8 3b 4f a8 b7 bc
       -0.048310813 0.051154856 0.00561668 -0.022419123
000170 26 64 ee 3c 61 63 3d bc 1e ee 38 3c 98 e7 52 3d
       0.029100489 -0.011559338 0.01128724 0.051490396
000180 9b 0c bb 3c b5 d2 b0 3c e3 45 a5 bc 12 92 24 bd
       0.02283316 0.021584848 -0.020174926 -0.040178366
000190 a1 62 75 3d 3c 81 05 bd fb 4a ff bc 2c de 62 3c
       0.059908513 -0.03259395 -0.031163683 0.013846915
0001a0 8e f9 43 3c 26 4f bf ba f2 9b 59 3d 29 d4 34 3c
       0.011961354 -0.0014595732 0.053127237 0.011036911
0001b0 7b 26 22 3d 50 8e 73 3c 30 63 38 bd f9 16 12 bd
       0.03958748 0.014865473 -0.045016468 -0.03566644
0001c0 cb 43 46 bd 60 1c fa 3c 27 99 4f bc 2b 67 b6 bb
       -0.048404496 0.030531108 -0.012670792 -0.005566498
0001d0 a2 9a 57 bb 80 fd 9c 3c 8b df 3a 3d 0e c0 30 bd
       -0.0032898565 0.019163847 0.045623343 -0.043151908
0001e0 e8 5d 93 3d 38 e3 51 3d 50 67 1f bd 1e 98 5d 3d
       0.071956456 0.051242083 -0.038916886 0.05410015
0001f0 1f 23 88 ba 39 ef 14 3d 77 39 b2 3c 3b 80 8b 3c
       -0.0010386443 0.036360953 0.021755917 0.017028918
000200 d6 21 a3 3c 48 f7 70 3d e8 1f 17 3d e6 72 0e bd
       0.019913595 0.058829576 0.036895663 -0.034777544
000210 1f 9c 36 3d 0e 94 40 3d d9 a3 54 bd 47 1f 0a 3c
       0.044582482 0.047016196 -0.05191407 0.008430309
000220 19 10 89 3d 5b d7 fa bc 11 52 8a bb ae 4a f6 3b
       0.066925235 -0.030620268 -0.004221209 0.0075162267
000230 10 b2 45 bc d0 99 44 3d 62 1c 63 3a 6f e2 fc bb
       -0.012066379 0.04799825 0.0008663592 -0.0077174227
000240 35 e4 7e 3b 29 eb 4d 3b 4c 94 fc 3c 22 43 88 bb
       0.0038893346 0.0031420684 0.030832432 -0.0041583935
000250 f3 d8 1b bc d0 88 f2 bb 6e ee 0b 3c 21 c4 00 bd
       -0.009512174 -0.007401563 0.008540733 -0.031437043
000260 ea b6 57 bd 55 93 a8 bc cd a6 74 bd d7 b9 3d bc
       -0.052664675 -0.020578066 -0.059729386 -0.011579952
000270 24 b0 83 3d 62 2b 8a bc 49 98 38 bd 0c 60 6b bd
       0.064300805 -0.01686639 -0.045067105 -0.057464644
000280 26 9f 23 3d 82 4a 5e bd a7 05 6d 3d 4b b9 2a bd
       0.039946698 -0.054270275 0.05786672 -0.041680615
000290 b0 80 8e 3d 95 c2 58 3d 7a 62 2e bd 36 45 8b bd
       0.06958139 0.052919943 -0.042574383 -0.0680031
0002a0 9c 29 b2 3c 07 97 8f bd e9 e3 6c bc 26 33 21 ba
       0.021748357 -0.07011228 -0.014458635 -0.00061492843
0002b0 95 a0 37 3d 09 b8 c6 3c 45 42 23 3d 09 a5 21 bc
       0.044830877 0.024257677 0.03985812 -0.009866008
0002c0 8b 7c 95 bc 12 7d fc 3c 24 b2 40 3d d2 2b a1 bb
       -0.018247863 0.030821357 0.04704489 -0.004918554
0002d0 ec e3 54 3c be da aa bc de 74 00 3c 84 6c 31 bd
       0.012993794 -0.020856258 0.007840363 -0.04331638
0002e0 43 52 59 39 07 87 16 3d 51 f8 42 3c 48 33 d5 bc
       0.00020725378 0.036749866 0.011900024 -0.02602543
0002f0 e8 ae 3e bd e3 da 09 3d 50 71 0d 3d 9f e0 18 bd
       -0.046553522 0.033656012 0.03453189 -0.03732359
000300 40 88 17 3a 89 c4 7d bd e7 0b 2b 3d 3d a4 90 3b
       0.00057804957 -0.06195501 0.041759398 0.00441411
000310 a6 5b a3 bc d2 fd 35 3d 1a 86 03 bd a2 dd d2 bc
       -0.019941162 0.044431515 -0.03211031 -0.025740448
000320 8e 0d bd bc f6 60 71 3d df 3a 8b bb a3 dc ec bc
       -0.023077752 0.05893036 -0.0042489613 -0.028913802
000330 f1 be a3 3d c4 17 9a 3c 47 57 08 3a 48 45 12 bd
       0.079954036 0.01881016 0.00052009936 -0.035710603
000340 96 9a 54 bc b9 0c 6e bd 36 2e 8e bd 31 2b 2d 3d
       -0.012976309 -0.058117602 -0.06942408 0.04227752
000350 53 4d 3f bd 15 c5 fa bc 0e 73 52 3d d8 fe 22 bb
       -0.0467046 -0.030611554 0.051379256 -0.0024871137
000360 a5 9c ec 3b c0 63 bf bb d9 9e 85 3b df 9b 1c bd
       0.007220822 -0.0058407485 0.004077774 -0.038234588
000370 b9 6f 59 bd 59 e2 33 bc e9 38 71 bd 24 ad 39 3d
       -0.053085063 -0.010979258 -0.058892164 0.045331135
000380 eb 60 ae 3c 59 39 f7 bb a5 3f 1f bd a4 79 09 3d
       0.021286448 -0.007544678 -0.038879056 0.03356327
000390 1f 23 e0 bc 6a ff 44 3d dc 1d 86 bd bc 9f fd bc
       -0.027360497 0.048095144 -0.06548664 -0.030959956
0003a0 bd f8 ee 3b ca 5b de bc a3 b8 14 bd 88 e5 ae 3c
       0.0072928355 -0.027143378 -0.036308896 0.021349683
0003b0 72 64 24 3d c5 83 09 bd 0c 1b c5 3c bc b0 81 bd
       0.040134855 -0.03357293 0.024060749 -0.063325375
0003c0 4a c3 86 3d a5 ff f4 3c af cc 74 bd 2b 86 2d bd
       0.06580217 0.029907057 -0.059765514 -0.04236428
0003d0 82 d0 40 3c b5 4b 1a 3d 4e f9 0f bd 33 2b 79 bd
       0.011768462 0.037669856 -0.035149865 -0.060832214
0003e0 af ef 1c 3d e0 7b 5b 3d c2 67 d4 bc d2 f2 2e ba
       0.038314518 0.053584933 -0.025928382 -0.0006673756
0003f0 98 22 21 bd 9a b1 11 3d a1 74 2b bd 05 13 3f bd
       -0.03933963 0.035569765 -0.041859273 -0.046648998

block3.bnorm_3.weight f4 [150]
000000 be 0d 7b 3f 55 82 81 3f ee b0 7e 3f 76 18 81 3f
       0.98067844 1.0117899 0.99488723 1.008559
000010 ac 05 7e 3f 01 02 7f 3f ea 4e 81 3f c1 e7 80 3f
       0.99227405 0.9961243 1.0102208 1.0070726
000020 ff fd 80 3f 88 9a 7c 3f 2b 17 81 3f 42 9d 82 3f
       1.0077513 0.98673296 1.0085195 1.0204241
000030 4c b6 82 3f 18 16 81 3f 00 2b 85 3f ce 36 83 3f
       1.0211883 1.0084867 1.0403748 1.02511
000040 ea 87 80 3f 72 44 81 3f cf 9e 7f 3f 4f 39 7f 3f
       1.0041478 1.0099013 0.998517 0.9969682
000050 65 a3 7d 3f 48 8a 80 3f 57 46 79 3f 41 68 80 3f
       0.99077445 1.00422 0.97372955 1.0031816
000060 c0 ed 7c 3f 2c ca 83 3f 34 e3 81 3f 0c 68 79 3f
       0.9880028 1.0296073 1.0147462 0.9742439
000070 87 53 7b 3f a4 ef 81 3f fe c0 7b 3f a3 71 7c 3f
       0.9817433 1.0151258 0.9834136 0.98610896
000080 f2 d0 82 3f 84 92 80 3f 90 50 7f 3f 64 9b 7b 3f
       1.0220015 1.0044713 0.99732304 0.9828398
000090 e9 73 88 3f c1 24 7f 3f c2 ad 82 3f 22 55 83 3f
       1.0660373 0.99665457 1.0209277 1.0260355
0000a0 20 ca 83 3f 19 54 7e 3f e6 c5 80 3f ee db 81 3f
       1.0296059 0.9934707 1.0060394 1.0145242
0000b0 dd 1c 82 3f a1 b8 81 3f 61 65 7d 3f ee cd 80 3f
       1.0165058 1.0134469 0.98982817 1.0062845
0000c0 c5 85 7d 3f 88 c3 80 3f 63 f8 80 3f 2b 34 80 3f
       0.9903224 1.0059671 1.0075802 1.001592
0000d0 ec ff 82 3f ad 9b 7f 3f 2e 14 83 3f 05 de 81 3f
       1.0234351 0.9984692 1.0240533 1.014588
0000e0 fe 98 7e 3f 15 0a 7f 3f f1 4e 81 3f 83 88 7f 3f
       0.994522 0.9962476 1.0102216 0.99817675
0000f0 08 f7 7f 3f ac 5f 80 3f 6a 9b 80 3f ed ab 80 3f
       0.99986315 1.0029197 1.0047429 1.0052468
000100 98 34 80 3f df 98 80 3f f5 2f 80 3f 52 37 82 3f
       1.001605 1.0046653 1.0014635 1.0173132
000110 f4 dc 80 3f e4 24 80 3f 00 9d 7f 3f a3 8d 80 3f
       1.006743 1.0011258 0.9984894 1.0043224
000120 83 85 7e 3f 68 d1 81 3f 7b c5 81 3f 0a 69 81 3f
       0.9942247 1.0142031 1.0138391 1.011018
000130 66 fa 7e 3f df 25 7e 3f 02 a9 7f 3f 24 7c 7f 3f
       0.9960083 0.99276537 0.9986726 0.997988
000140 73 7a 7e 3f 15 e0 7f 3f 16 d1 7d 3f 08 0a 7e 3f
       0.9940559 0.999513 0.99147165 0.99234056
000150 05 11 80 3f 7e 60 80 3f 0e ad 7e 3f de 7c 7d 3f
       1.0005194 1.0029447 0.9948281 0.9901866
000160 62 65 80 3f 1f fd 7e 3f 52 ea 7d 3f 70 55 82 3f
       1.003094 0.9960498 0.9918567 1.0182323
000170 fc 4b 80 3f b2 02 80 3f 0b 0a 80 3f 7c 79 7d 3f
       1.0023189 1.0000823 1.0003065 0.99013495
000180 2d 70 7f 3f d4 82 7c 3f 12 9a 84 3f 09 05 7f 3f
       0.9978054 0.9863713 1.0359519 0.9961706
000190 88 72 7e 3f 00 00 80 3f d9 f6 7c 3f 1a 5e 80 3f
       0.9939351 1.0 0.9881416 1.0028718
0001a0 14 ea 81 3f 62 9c 82 3f 4d e3 7e 3f a3 13 80 3f
       1.014956 1.0203974 0.99565583 1.0005993
0001b0 e1 bf 81 3f f1 50 80 3f 34 be 82 3f ab 01 7f 3f
       1.0136682 1.0024701 1.0214295 0.9961192
0001c0 b1 4a 7e 3f df 42 80 3f 72 34 7e 3f b5 47 7e 3f
       0.9933272 1.0020407 0.99298775 0.99328166
0001d0 32 99 7f 3f 67 f5 7d 3f c3 7e 7d 3f eb 7d 81 3f
       0.9984313 0.9920258 0.9902155 1.0116552
0001e0 11 7f 83 3f 54 a4 7e 3f 17 d4 7e 3f 65 a8 7e 3f
       1.0273153 0.99469495 0.99542373 0.994757
0001f0 af ac 81 3f 6e 77 7d 3f 6a 8c 7d 3f b9 86 7d 3f
       1.0130824 0.9901036 0.9904238 0.99033695
000200 13 d9 82 3f 75 1f 82 3f c3 3c 84 3f af 5f 7f 3f
       1.0222496 1.016585 1.0331043 0.99755377
000210 44 0e 7d 3f 2e 75 7e 3f e6 03 7d 3f 90 8f 7e 3f
       0.9884989 0.9939755 0.98834074 0.9943781
000220 43 ed 80 3f 65 84 7d 3f 88 2b 7f 3f a0 0e 7f 3f
       1.0072407 0.99030143 0.996758 0.9963169
000230 09 25 81 3f e8 73 7f 3f 8f c7 7e 3f 62 60 81 3f
       1.0089427 0.99786234 0.9952325 1.0107539
000240 db 03 81 3f 82 21 80 3f d6 c7 7d 3f 8d fe 7d 3f
       1.0079302 1.0010226 0.9913305 0.9921654
000250 49 f4 7b 3f 66 9e 7d 3f
       0.98419625 0.9906982

block3.bnorm_3.bias f4 [150]
000000 91 f0 80 bb 90 34 78 3b 21 f3 c3 bb 94 34 62 3c
       -0.0039349278 0.0037873127 -0.005979911 0.013806481
000010 e2 68 80 bc 31 5e bf bb 22 0b b2 bb 0b 9c b2 bb
       -0.015675012 -0.005840086 -0.005433456 -0.0054507307
000020 da 7a a3 3b 6e d5 f2 3c 47 0e 07 bd d1 2c bd 3c
       0.0049890103 0.029642787 -0.0329726 0.02309266
000030 7a f3 b8 bc c2 be b9 38 61 1d ad 3a 17 09 a6 3b
       -0.022577036 8.857019e-05 0.0013207608 0.0050670016
000040 22 e9 e6 bb 3f 4b eb bb f9 97 be bb 48 26 bc bb
       -0.0070468346 -0.007180601 -0.0058164564 -0.005741868
000050 79 b0 ce bb 84 6f be 3b 85 b8 52 bb 24 6b 20 bb
       -0.0063076583 0.0058116335 -0.003215344 -0.0024477923
000060 3d e2 61 3c 25 2f 2c 3c 25 e4 15 3c 7c c0 81 bc
       0.01378685 0.010509287 0.009148632 -0.015838854
000070 1e 76 bc 3b 5c 4c 44 3b b1 fa b8 bb 01 be 7c 3c
       0.0057513854 0.002995274 -0.005645119 0.01542616
000080 b2 37 9b 3b c4 5b d2 bb 8a 4c 0b bd 53 51 8e bc
       0.004736864 -0.0064196307 -0.03400854 -0.017372763
000090 a5 e5 1f 3d 49 a4 1b 3a 61 e7 0b 3d 39 3d 52 3b
       0.039037365 0.0005937261 0.034156207 0.0032079949
0000a0 1a ad 7a 3c 35 a0 ad bc 81 8d 84 3c 9e 73 64 3c
       0.01530006 -0.021194557 0.016180756 0.013943581
0000b0 ec 33 90 bb 2e c5 58 3c f1 34 37 3c d0 46 24 bb
       -0.004400721 0.013230605 0.011182056 -0.0025066622
0000c0 2a 14 b9 bc 36 42 a1 bb 5b d6 bc bb 10 17 43 bb
       -0.022592623 -0.004921223 -0.005762858 -0.0029768385
0000d0 af bc 3b 3c 16 f6 55 3c 91 e1 2d 3c 4b 0c be bc
       0.01145856 0.01305916 0.010612861 -0.023199221
0000e0 9f f9 3b bb 42 f8 ac bb 1c ac be 3a fa b5 a9 3a
       -0.0028682721 -0.005278618 0.0014547142 0.001294791
0000f0 23 6c a2 3c 6f b2 a0 bb c5 35 32 3c ea 5e 6a bc
       0.019826954 -0.0049040834 0.0108770775 -0.014304856
000100 8e 4a 6f bc 67 ef 01 3c c4 63 44 3b 68 4f ce 3c
       -0.014605178 0.007930613 0.0029966692 0.025184348
000110 d0 cd 08 bc 56 87 93 bc 0c 3a 19 bc bc 71 4f 3b
       -0.008349851 -0.01800887 -0.009352218 0.0031653484
000120 82 4f cb bb b0 20 bb 3c 48 b8 bb 3c 7d 18 67 3c
       -0.0062045464 0.022842735 0.02291502 0.01410496
000130 92 43 18 bc 7c 57 96 bc 58 b1 68 bc 26 cc 49 bb
       -0.009293454 -0.018352263 -0.014202438 -0.0030791848
000140 79 f3 01 bc ec 26 f5 3a 3d 50 ca ba 84 4b 3d bc
       -0.007931584 0.0018703616 -0.001543529 -0.011553649
000150 81 78 df 3b 4e ae 06 3c 07 df 82 bc 7b 12 06 bc
       0.006819785 0.008220268 -0.015975488 -0.008183117
000160 07 73 97 3c 58 2d 79 bb 94 8f 20 3a 44 52 c9 bb
       0.018487466 -0.0038021412 0.00061249104 -0.00614384
000170 5e 72 f7 3b e0 2f b5 bb 14 80 ae 3b d2 9c 6e bc
       0.0075514754 -0.005529389 0.0053253267 -0.014563756
000180 07 d8 ad 3b d5 d1 25 bc 97 ae e6 3c 98 c7 10 bb
       0.0053052935 -0.010120829 0.028159423 -0.0022091623
000190 5d de 1c bc 85 e7 ee bb be 71 ad bc d7 58 52 38
       -0.0095745 -0.007290783 -0.0211724 5.015064e-05
0001a0 14 bb 83 3a 24 12 8c 3c a9 00 6a bc 03 a4 4e bc
       0.001005026 0.017098494 -0.014282384 -0.012612346
0001b0 fe 55 19 3b b2 18 29 bc 78 b0 79 3c f1 78 fc ba
       0.0023397203 -0.010320829 0.015239827 -0.0019262118
0001c0 61 1d 12 bc 1a 44 27 bb c5 56 32 3b e2 1f 45 bc
       -0.008918137 -0.002552277 0.0027212363 -0.012031527
0001d0 a2 9b 09 bc d7 f5 be bb f6 54 45 bc d5 1e e1 3a
       -0.008398922 -0.0058276462 -0.012044182 0.0017175326
0001e0 08 c8 07 bc fc 76 44 bb a3 bc c3 3b ce 6e 73 bc
       -0.008287437 -0.0029978147 0.005973415 -0.014857961
0001f0 ea eb 23 bc ac 55 d5 ba 59 ba 2e bb db 22 09 bc
       -0.010004977 -0.0016276143 -0.0026661365 -0.008370127
000200 84 cf d2 3c a2 a4 71 3c 16 8f ba bb 6e 2c 0a 3b
       0.025733717 0.014748724 -0.0056933267 0.002108361
000210 55 ce e0 bb de c8 88 bb a2 88 4d bc 76 99 da bb
       -0.006860534 -0.004174336 -0.012544783 -0.006671126
000220 89 ff f3 ba c7 db b8 bb c4 17 cc bb fb 5c 4c 3c
       -0.0018615584 -0.005641434 -0.006228419 0.01247334
000230 4c 50 be bc 9a e7 29 bb ec c1 29 3a 37 ec 9e bc
       -0.023231648 -0.0025925399 0.0006475735 -0.019399745
000240 42 52 a9 bb ba 03 d4 bb 4b 88 b6 bb 02 69 1e bc
       -0.0051672766 -0.006470171 -0.0055704466 -0.0096685905
000250 5b b3 d1 bb d7 df 3d bc
       -0.0063995547 -0.011589012
