submit_entry/checkpoints/Combined_edgcn_12s_slice_noise/II/4/best.pth (torch_old, 75847 bytes, 26 tensors)

conv_time.weight f4 [15, 1, 10]
000000 b3 d6 b2 39 8c e4 10 be a4 5d 5b bc cd bf ab bb
       0.0003411077 -0.14149684 -0.013389025 -0.0052413703
000010 0a 44 03 ba d9 3e ea bc c9 c0 36 be cf f2 34 3e
       -0.0005007392 -0.028594421 -0.17846979 0.17670749
000020 2a 8b 17 3c 02 ff 47 3e 19 83 37 3e 54 cf 03 3e
       0.009249488 0.19530872 0.17921104 0.12872058
000030 9b 81 e5 3d c0 5a f0 3d 77 fa 38 be cb af e8 bd
       0.11206361 0.11736059 -0.18064295 -0.11361655
000040 60 10 2f 3e 23 f4 66 bd ff 2b 38 be 8e 1a 32 be
       0.1709609 -0.05638517 -0.17985533 -0.17392942
000050 a4 eb 3a 3e 14 20 43 bc 7d d9 55 3d ab e3 00 3e
       0.18253952 -0.0119095035 0.052209366 0.12586848
000060 19 f6 8a bd 17 0d 3d be 25 e4 3c 3d 8b 64 f0 bd
       -0.06785221 -0.18462025 0.046116013 -0.11737927
000070 18 ab 1c bd 0c ad da 3d e3 b2 5e 3d eb 8e 33 3d
       -0.038249105 0.10677537 0.05436982 0.04383747
000080 5a 10 00 be 13 04 9e bd 65 22 fa 3d f4 75 05 bd
       -0.12506238 -0.07715621 0.122135915 -0.032583192
000090 dd 7b 5c 3d 72 e1 18 bc 26 be 9c bc 75 7c 77 bd
       0.053829063 -0.009331094 -0.019133639 -0.060421426
0000a0 8a 24 1b 3e c1 d2 81 bd 9f 56 24 bd f7 ec 63 bd
       0.15150657 -0.06339026 -0.04012167 -0.05564591
0000b0 cb cd d6 bd 97 98 39 3e a7 64 37 be e3 a8 19 be
       -0.10488471 0.18124615 -0.1790949 -0.15005831
0000c0 d0 c0 de 3d 34 34 1a 3e f1 a4 20 3e 17 b0 d4 bd
       0.1087662 0.15058976 0.1568792 -0.10385149
0000d0 f6 f0 42 3c eb 29 37 3e 96 ef e1 3d a5 ed 09 be
       0.01189827 0.17887084 0.110320255 -0.1346956
0000e0 9b 83 f9 bd c2 f4 34 3e 82 1f 09 3d e4 99 2b 3e
       -0.12183305 0.17671493 0.033477314 0.16757923
0000f0 84 2e 43 be 06 f0 7b 3b fb cd fe 3d a5 f7 2e be
       -0.19060713 0.0038442626 0.124416314 -0.17086656
000100 e5 19 3b 3d 86 f1 e2 bd 3d 9c e0 3d 43 e2 b1 bc
       0.04567899 -0.11081223 0.109673 -0.021714335
000110 02 d1 09 be b5 7a 82 3c c7 b7 9b 3d 21 8e c5 bd
       -0.13458636 0.015927652 0.07603412 -0.096462496
000120 4f 91 3a bc 3e eb 09 3e 47 69 7c bd 42 4f e6 bc
       -0.011387183 0.13468644 -0.061623838 -0.028113965
000130 e9 32 42 be 3e 1a e4 bd b0 97 c3 bd a6 65 4b be
       -0.18964733 -0.11137818 -0.095504165 -0.19862995
000140 f2 7f 08 3e 49 43 3c bc 1c 9c 40 3c 4a 8f d3 3d
       0.13330057 -0.011490651 0.011755969 0.103300646
000150 91 5a 1f 3e 63 32 86 3d 96 2a 35 3e 24 97 a8 3d
       0.15561892 0.06552579 0.17692026 0.08231953
000160 c4 fc 62 3d 02 43 ba 3d e9 33 e6 3d 2d 2c bf bd
       0.055416837 0.09094812 0.1124037 -0.09334598
000170 3c 67 2a 3e c2 4a ac bd d7 36 2d 3e 3d 67 99 bc
       0.16640943 -0.084126964 0.16915451 -0.018725986
000180 2f b9 05 3e 78 b3 1f be 32 c4 21 bd ce 69 17 be
       0.13058923 -0.15595806 -0.039493747 -0.14786455
000190 3d e1 03 3e cc df 0d 3d 63 d1 4d 3e 09 05 8a 3d
       0.1287889 0.034637257 0.20099406 0.06739242
0001a0 17 4a d4 bd 77 f5 a1 3d 56 0d c7 3d 07 69 0d be
       -0.10365694 0.07908147 0.097193405 -0.13809596
0001b0 9d 89 82 3d bf bd 77 3d b3 00 26 be 6f d2 0f 3e
       0.06373904 0.06048369 -0.16211204 0.14045118
0001c0 7e 59 a5 bc 15 ce d8 bd e2 ac 81 3c a3 09 bd 3d
       -0.020184275 -0.10586182 0.015829507 0.09230354
0001d0 83 a5 7f 3c 2c 0f 23 be 39 d3 88 bd fd d5 5f bc
       0.015603426 -0.15923756 -0.066809125 -0.013661859
0001e0 fa 4c 17 3e fc 6a 9f bd d8 68 46 3e e1 db 02 bc
       0.14775458 -0.077840775 0.19375932 -0.0079869935
0001f0 4e 4f c4 3d 6e 7d 0e bd 39 1a 0c be f8 f8 84 bd
       0.09585439 -0.034787588 -0.13681878 -0.064927995
000200 a6 82 66 3d 29 37 9e 3d 44 92 71 bd 49 6a 9b 38
       0.05627694 0.07725365 -0.05897738 7.410773e-05
000210 8a 63 8d bd 0f 45 77 bd cc 32 09 3c 40 41 42 bd
       -0.06903751 -0.060368594 0.008373927 -0.04742551
000220 a9 4c f3 3d 5a ab 40 bd d5 bc 34 3e c4 f5 65 3c
       0.11879856 -0.047038414 0.17650159 0.014035646
000230 c6 ed 36 be b3 85 17 3d bc d0 4e bd 1e 03 01 3e
       -0.17864141 0.03699274 -0.050492033 0.12598845
000240 fe 4c 8a bd 1b bb 27 be 47 8d ec 3d 3e b8 f8 3b
       -0.06752966 -0.16379969 0.11550384 0.0075903228
000250 cc 40 af bd e1 b5 9e 3d
       -0.08557281 0.077495344

conv_time.bias f4 [15]
000000 32 2e 21 3a db 9f 04 3b b8 aa 85 bb ef ea d4 b9
       0.0006148546 0.0020236883 -0.004079189 -0.0004061083
000010 c0 f9 9a bb 4d 46 38 bb bc 05 ba ba d2 60 b2 3b
       -0.0047294796 -0.0028118074 -0.0014192383 0.005443671
000020 81 34 50 bb f3 14 30 bb 40 c5 66 bb 60 e3 c7 bb
       -0.0031769576 -0.0026867955 -0.0035212785 -0.0061001033
000030 1a 12 92 bb a0 fa 34 bb cc 9a 53 3b
       -0.0044577243 -0.0027615204 0.003228831

bnorm.weight f4 [15]
000000 86 a5 7a 3f df 81 82 3f c3 7d 7b 3f 6a a6 80 3f
       0.9790882 1.0195884 0.9823877 1.0050786
000010 58 7c 7d 3f 23 4a 7e 3f fa 4d 7f 3f 63 e1 82 3f
       0.9901786 0.99331874 0.9972836 1.0225033
000020 e1 0c 80 3f 8e a4 7f 3f 44 ab 7e 3f 59 68 80 3f
       1.000393 0.99860466 0.9948008 1.0031844
000030 a9 53 7f 3f 74 00 81 3f c9 45 80 3f
       0.9973703 1.0078263 1.0021297

bnorm.bias f4 [15]
000000 b3 36 a4 3d 0b 5e 98 bc f5 d9 af bc 91 9b 49 bc
       0.080182455 -0.01859953 -0.021466235 -0.012305156
000010 2e 22 55 bd b5 4a be 36 ed 75 89 3c d2 7c 85 3c
       -0.05203455 5.6711383e-06 0.016779864 0.01629487
000020 59 e2 86 3c ff ec 00 3c 1e 1f 9b bc 9d 5b fa 3c
       0.016465353 0.007869004 -0.018935736 0.030561263
000030 b5 ba d9 bb 45 7f cc 3c 86 4e e0 3c
       -0.0066445717 0.02496303 0.027381193

bnorm.running_mean f4 [15]
000000 61 2c 55 3b cf 23 1e 3b 9c 8e 57 3c 59 bb 20 bc
       0.0032527673 0.002413023 0.013156559 -0.009810292
000010 ea f7 b0 bb e9 f6 aa 3d 2f da 7a bd 87 be cc bd
       -0.0054006474 0.083478756 -0.061243232 -0.09997278
000020 92 94 1c 3e a4 df 83 3b ac 59 ad 3d f8 61 5c bd
       0.1529105 0.004024463 0.08464369 -0.053804368
000030 32 af 24 3d f5 85 5e 3b 2e bd f5 bc
       0.04020614 0.0033954356 -0.029997434

bnorm.running_var f4 [15]
000000 86 12 1a 3c 1a 9c f2 3c 4a 70 2d 3c 23 05 f8 3a
       0.00940383 0.02961545 0.010585854 0.0018922429
000010 25 17 58 3b 20 92 f4 3d e3 63 6c 3d 63 68 46 3e
       0.003297278 0.11941934 0.057712447 0.19375758
000020 9f 20 ce 3e ba 2a 25 3c 9a ca 04 3e 9f cc 19 3d
       0.40259263 0.010080988 0.12967911 0.037548658
000030 3c 30 0e 3d 09 26 d7 3b 2c 71 a0 3c
       0.03471397 0.0065658134 0.019585215

block2.conv_2.weight f4 [15, 15, 10]
000000 94 b5 cd bd bb c8 ab 3c e6 86 13 bc 6d 89 c4 3d
       -0.10044399 0.02096974 -0.00900433 0.095965244
000010 02 aa ce 3d a4 4b af bd 58 de 6b bc 8e 51 21 bd
       0.1009102 -0.08559349 -0.014396273 -0.039384417
000020 47 02 82 bd 59 6c c0 3d dc a4 ba 3d 33 75 9c 3a
       -0.063480906 0.09395666 0.09113476 0.0011936784
000030 21 db 3d bd 6b d6 ed 3d d3 77 c0 3c a7 17 fb 3d
       -0.046351556 0.116131626 0.023494637 0.12260371
000040 24 2a e3 bd 70 e4 e8 bb d7 83 d0 3d d5 e3 d8 bd
       -0.11092022 -0.00710731 0.101813965 -0.105903305
000050 3b 09 d9 3d 0e 28 02 3b d1 74 44 3d 89 c6 fe bd
       0.10597464 0.00198603 0.047962967 -0.12440211
000060 12 87 ab bd 30 7f b7 bd ff 60 dc bd 06 89 d2 3d
       -0.08375372 -0.08959806 -0.10760688 0.102800414
000070 b2 07 05 bd 20 a8 db 3c a4 38 8b bd 59 c8 fc 3d
       -0.032478042 0.026813567 -0.06797913 0.12342901
000080 0d a9 d2 3d c8 d3 b6 bd cb 04 ae bd 70 ba 6a bd
       0.1028615 -0.08927113 -0.08497008 -0.057306707
000090 3b be f8 bd 5d 29 d6 3c 3f 7a 9b 3d d0 b1 59 3d
       -0.121456586 0.02614277 0.07591676 0.05314809
0000a0 46 e2 32 3d 38 26 16 bb 14 89 c0 3b 1a 78 6a 3b
       0.043672822 -0.0022910964 0.005875716 0.0035777153
0000b0 7a bf 79 3c 34 ca a0 3c 10 8a 2c 3e 11 61 bb 3d
       0.0152434055 0.019627668 0.16849542 0.09149373
0000c0 70 a4 b8 bd 15 37 17 be 06 a9 d2 bd 48 6d da 3d
       -0.09015739 -0.14767106 -0.10286145 0.10665375
0000d0 6d 0f 71 3d ea ca 9a bd 3f 01 aa bd 2c ae b4 3d
       0.0588526 -0.07558234 -0.08301019 0.08822283
0000e0 ef 88 48 3c 81 9e f0 bd 4a e5 7b bc 0d a8 c9 bd
       0.012239679 -0.11748982 -0.015374491 -0.09846506
0000f0 2d c7 52 3c ad fb 09 bd f2 c5 b1 bd 2e 1d 08 bd
       0.01286487 -0.033687282 -0.08680333 -0.033230953
000100 0c 5e de bb 6d 91 4a 3d 74 ec c0 3c 01 33 6a 3d
       -0.0067861136 0.049455095 0.02355025 0.057177547
000110 7f 20 a6 3c e2 25 f5 bb b8 36 c0 3d 64 51 c6 bc
       0.020279167 -0.0074813226 0.09385437 -0.024208732
000120 88 ec 21 3e 37 b0 c3 3c d8 07 34 3d 2e ac 13 3d
       0.15812886 0.023887737 0.043952793 0.036052875
000130 e5 bb ac 3c 6c 5c 3b bd ae 45 9e bd a4 ea 0f be
       0.021085689 -0.045742437 -0.07728134 -0.14054352
000140 a5 af 28 3c 9e a4 45 bd 79 1a e8 bd 97 de ff bd
       0.010295783 -0.048252694 -0.11333174 -0.124936275
000150 93 d7 a2 bd 53 8f 99 3a 60 47 03 3e 62 b7 30 bd
       -0.07951274 0.0011715688 0.12820196 -0.043143637
000160 70 4d 01 3e 23 f0 19 bd fa b7 13 3e f1 c1 d6 3d
       0.12627196 -0.037582528 0.1442565 0.1048621
000170 e9 05 ad bd cd 7e 05 3c d8 50 47 bd d0 80 80 bd
       -0.08448393 0.008147907 -0.048661083 -0.06274569
000180 e3 96 d3 3d 40 23 d0 3c 75 f5 29 3d 46 a7 a6 bd
       0.10331514 0.025407434 0.04149385 -0.081373736
000190 dc b5 76 bd f7 86 7a 3c 4c 37 e1 bd f8 d5 f5 3a
       -0.06023203 0.015290967 -0.10996875 0.0018755784
0001a0 91 45 a1 3d a7 ff 2e 3d 95 df 67 3d 82 35 f0 bd
       0.07874597 0.042724278 0.05660971 -0.11728956
0001b0 8b 53 bc 3d 49 10 b1 3b 1d 56 83 3d cb 6d d2 bd
       0.09195622 0.0054035527 0.06412909 -0.102748476
0001c0 d5 59 66 3c 7a 4d d7 3c 15 15 d2 3b a4 c7 28 3e
       0.014059504 0.02628206 0.0064112046 0.16482407
0001d0 9c a3 fd 3d ef 7c 10 bb 3c 0d 0f 3e 19 97 2e bd
       0.12384722 -0.0022047122 0.13969892 -0.042624567
0001e0 4b 1f 3d bd 07 10 26 3d 84 64 71 3d 00 0f a2 bc
       -0.04617242 0.04054263 0.05893375 -0.019782543
0001f0 16 3f 01 3e df df 9e 3d 79 8c a6 bc 94 55 7b bc
       0.12621722 0.07757544 -0.020330654 -0.015340228
000200 26 95 d5 3d 6c 6f bd bd 3e 1a 0c 3e 4d 78 f0 3d
       0.104288384 -0.09249768 0.13681886 0.117416956
000210 fe 7b c9 bd 1f 7f b0 bd 3f 4e b0 bc c3 c2 e3 3d
       -0.09838103 -0.086179964 -0.021521686 0.11121132
000220 f7 16 76 bd 2f 69 f5 bd 9e 11 20 3e 38 b6 d7 bd
       -0.060080495 -0.11982953 0.1563172 -0.10532802
000230 52 5c 1f bd 06 de 50 3c 43 27 75 bd 03 0e 03 3e
       -0.038906403 0.012748247 -0.059851896 0.12798314
000240 c5 92 04 3e d5 d1 38 3d 27 2d a9 3d f3 4b 3f 3c
       0.12946613 0.045121986 0.08260565 0.011675823
000250 fe 1c ba 3c c5 8a 8d 3d e1 0a 22 bc 87 a0 a0 bd
       0.022718903 0.06911234 -0.009890289 -0.07843118
000260 08 7f e1 3d f5 05 80 3d ce 33 b0 bd af 40 3f bd
       0.110105574 0.06251136 -0.08603631 -0.046692546
000270 d4 93 bb 3d b0 10 9d bd 5b a1 f6 bd 4f 75 10 3d
       0.09159055 -0.076691985 -0.12042495 0.035268124
000280 66 41 e1 3c c7 f3 22 3d 33 cd cf bd a2 ce c0 3d
       0.027497005 0.039783265 -0.101465605 0.09414412
000290 d9 c9 4d bd aa 87 24 bb d1 eb ee bd d4 d3 0c be
       -0.050241325 -0.0025105276 -0.11666072 -0.13752681
0002a0 55 97 1c be 59 43 fd 3d 31 12 da 3d 4f 9f 13 be
       -0.15292104 0.12366361 0.10648001 -0.1441624
0002b0 6b 65 74 3b 7d bc e6 bd 5f c4 98 bc bd 9b 33 3a
       0.0037291895 -0.1126642 -0.018648325 0.0006851515
0002c0 52 0f c2 bd 72 ae 51 3d ee 56 a5 bd 95 66 9f bd
       -0.09475578 0.051191755 -0.08073221 -0.07783238
0002d0 57 75 ad 3d cd 19 a5 3d b1 8a 9a 3d 15 a4 91 bd
       0.084696464 0.08061562 0.075459845 -0.07111374
0002e0 69 e1 0e 3e 8c 38 af bd 56 c9 dd bd 78 41 c9 3b
       0.13953175 -0.08555707 -0.108294174 0.0061418377
0002f0 10 7f b9 bd ba c5 0f 3d 5f cf 95 bc a4 a6 ea 3b
       -0.090574384 0.035100676 -0.018287359 0.0071609784
000300 ac f2 91 bb c9 9d 15 3e d9 60 e4 bd 3b b3 0c be
       -0.0044539776 0.14610972 -0.11151285 -0.13740246
000310 50 cf c2 bc 8d 1a 07 3e 54 b5 02 be 26 1e 0c bd
       -0.023780495 0.13193722 -0.12764484 -0.03420844
000320 86 69 59 3d 06 69 1f 3d 74 e2 cb bd 6a 1a 15 3e
       0.05307915 0.038918518 -0.09955302 0.14560857
000330 9b 20 8a bd 52 a1 f7 3d ba c9 24 3d a6 26 af 3c
       -0.067445 0.12091316 0.040231444 0.021380734
000340 72 c8 a7 3d 06 60 49 bb ea 0c d3 bc aa 62 cb 3d
       0.08192529 -0.00307274 -0.025762994 0.09930928
000350 75 8f 92 bd d1 3c f8 bd 34 ba d8 3d 6e 6e dc bd
       -0.071562685 -0.12120975 0.105823904 -0.1076325
000360 ae 91 69 3d 6d 41 0d 3e 60 e3 48 3b 07 fd 0d bd
       0.057023697 0.13794489 0.0030653104 -0.034665134
000370 3c a4 0b 3e 59 2d c5 3c 30 6d f6 3d 05 54 13 3e
       0.13636869 0.024069475 0.120325446 0.1438752
000380 01 22 3f 3d 62 91 a4 bd ab cf 8d 3d f6 dc 0a 3e
       0.046663288 -0.08035542 0.06924375 0.13560852
000390 76 55 ea bd 26 1c 8e bd 6a 6c be 3b 01 6b c8 3d
       -0.11442082 -0.06938963 0.005811264 0.097860344
0003a0 85 8e a1 bd b1 d6 c8 3d 95 cb e6 3d 6d dc 05 be
       -0.078885116 0.09806574 0.11269299 -0.13072367
0003b0 d2 cd 9e bd a9 38 f9 3d 4f de 4b bd bc d8 79 bc
       -0.07754101 0.1216901 -0.049772557 -0.015249427
0003c0 62 46 32 3d 01 39 a2 3d d6 64 e3 3d 72 3a f1 bd
       0.043524154 0.07921029 0.11103217 -0.11778726
0003d0 62 10 89 3b 13 9a cf bd 3e 88 61 3d 36 a3 07 bc
       0.004182861 -0.10136809 0.05506157 -0.008278659
0003e0 7d 16 93 bd 82 07 92 bd 7c cb d4 3b c9 8a bf bd
       -0.07182024 -0.07130338 0.006493984 -0.09352643
0003f0 f1 5f f2 bd 54 e6 9b bc 2d f9 39 3d 09 00 dd bd
       -0.118347056 -0.019030727 0.04540365 -0.10791022

block2.bnorm_2.weight f4 [15]
000000 87 42 80 3f dd 61 81 3f 90 a1 7d 3f 3a c7 80 3f
       1.0020303 1.010799 0.9907465 1.0060799
000010 a1 02 80 3f b6 bf 81 3f 5b df 81 3f 34 04 82 3f
       1.0000802 1.013663 1.0146288 1.0157533
000020 dd 90 7c 3f ad 4b 7f 3f 61 02 7e 3f 68 99 80 3f
       0.98658544 0.9972485 0.9922238 1.0046816
000030 28 58 7c 3f 6f 51 7e 3f 63 5e 7f 3f
       0.98572016 0.9934301 0.997534

block2.bnorm_2.bias f4 [15]
000000 e5 97 88 bb 5f 54 ca 3c 56 23 3c 3c 5f 39 a7 3b
       -0.004168498 0.024698434 0.011483034 0.0051032747
000010 bd 5b c3 3b 25 b5 c2 3b d5 02 b2 3c 08 25 5b bc
       0.005961864 0.0059420043 0.021729866 -0.013375528
000020 45 48 1e bc 89 96 ef 3a 59 d1 13 3d 74 1b 3e 3b
       -0.009660785 0.0018279116 0.03608832 0.0029008063
000030 d4 d0 6e 3b 9f d0 22 3c 22 7f e2 bb
       0.003644039 0.009937434 -0.006912128

block2.bnorm_2.running_mean f4 [15]
000000 42 96 83 3e 95 60 d2 3d e9 f9 d1 be d8 61 00 3d
       0.25700575 0.10272328 -0.4101098 0.03134331
000010 bd d1 36 be f7 dc c2 bd 54 8e 92 be 5b 0f 09 bf
       -0.17853446 -0.09514802 -0.28624213 -0.53539056
000020 c7 99 f8 bc 22 de dd 3e f2 2b c2 bd e2 e9 1a 3e
       -0.030346764 0.43333536 -0.09481038 0.15128282
000030 0b 21 00 bf 37 14 fc bc 0b f8 ba be
       -0.5005042 -0.030771358 -0.36517367

block2.bnorm_2.running_var f4 [15]
000000 bf 8c 2f 3f 13 7e f0 3e 2a 8b 52 3f 3b 9c 71 3f
       0.68574136 0.46971187 0.822436 0.94379014
000010 d8 5c 4c 3f 42 90 4a 3f d4 95 1e 3f 7d 7d 78 3f
       0.7982917 0.7912637 0.6194737 0.9706648
000020 07 8e 86 3f 54 77 2d 3f 29 60 e8 3e b9 06 9f 3e
       1.0512093 0.67760205 0.45385864 0.31059816
000030 01 9a 97 3f 3c 56 90 3f 3d da 26 3f
       1.1843873 1.1276317 0.65176755

block3.conv_3.weight f4 [30, 15, 10]
000000 da bb 6e 3d 0f 7c 9d 3c 0b 77 c2 bd 2c 31 89 3c
       0.058284618 0.019224195 -0.09495362 0.01674708
000010 4c 6b dc bd c4 d7 b3 bc ed 92 11 3d 62 8a ad bd
       -0.10762653 -0.021953471 0.03554051 -0.0847366
000020 a2 2c 29 3d 25 0a df 3b be 7d 89 3d 01 32 db bd
       0.04130233 0.0068066292 0.067134365 -0.10702897
000030 aa dc a0 bd 1a d8 5e 3d ea 50 40 bd 57 10 40 3d
       -0.07854588 0.05440531 -0.046952166 0.046890583
000040 31 f2 2e bc a6 5c 8b bd a6 e8 c8 3c 1b 34 36 bd
       -0.01067786 -0.06804781 0.024524998 -0.044483285
000050 0a 67 a6 3d 5e b1 95 3c db 20 c3 3d 89 d4 6b bc
       0.08125122 0.018273052 0.09527751 -0.014393934
000060 ac 32 85 3d 04 01 79 3d e0 0d f5 3c d5 8f b2 bd
       0.065038055 0.060791984 0.029913843 -0.0871884
000070 a4 52 ae bc fb 69 4a bd 6e 79 6e bc cf 30 9e bd
       -0.02127964 -0.049417477 -0.014555318 -0.07724153
000080 38 cc ef bd 3f ca 82 3c 71 d1 e2 bc d7 71 ed bd
       -0.117088735 0.01596558 -0.02768776 -0.11593979
000090 44 af 4c 3d c2 6f 9a 3d 5c d7 db 3d 0c 75 6d 3d
       0.049971834 0.07540847 0.10734436 0.057972953
0000a0 bf 10 9d bd 2f 28 6d bd fe 3d f6 bd 4a 73 ad bd
       -0.0766921 -0.05789965 -0.12023543 -0.08469255
0000b0 0a ef 1f bd 90 6d 60 3d cc 23 6f 3d 0c 73 63 3d
       -0.039046325 0.054791987 0.058383748 0.05552964
0000c0 ad b1 75 3d 09 62 17 3d b5 0a a2 bd 3e 0b a9 3d
       0.059983898 0.036958728 -0.079121985 0.082540974
0000d0 12 1f 5e bd e7 73 ab 3c d9 26 de bb 2a 0c 47 bb
       -0.05422885 0.02092929 -0.0067795333 -0.003037224
0000e0 23 d9 be bc 41 5f 81 bd 89 02 76 3d 9e 1a 8e bd
       -0.023296898 -0.06316996 0.06006101 -0.069386706
0000f0 ab 68 ad bd 3f e9 50 3d 66 b3 66 3d d8 6d eb 3c
       -0.084672295 0.05100369 0.05632343 0.028738901
000100 cd 84 9a bd 5a 27 b1 3d 21 2a 0e 3e 53 c6 4d 3c
       -0.07544861 0.08650084 0.13883258 0.012559491
000110 f2 f8 3f bd b1 74 9d bd 97 4c 93 3d d6 74 bc bd
       -0.046868272 -0.07688273 0.07192343 -0.09201972
000120 cb c2 ed bd 76 b7 d2 bc 74 a0 66 3d cf e6 c2 3d
       -0.116094194 -0.025722247 0.056305364 0.095166795
000130 10 53 94 3d 8c 9a 9d 3d e9 2a bb bc 56 3b dd bc
       0.072424054 0.07695493 -0.02284761 -0.027005833
000140 ac c5 82 3d b2 8e ff b9 9b 92 16 3d a3 e0 e6 bd
       0.06385359 -0.00048743706 0.036760908 -0.11273315
000150 0b 1e 24 3d f5 10 ca 3c 06 d2 de 3c 7c b0 1f bd
       0.040067714 0.024666289 0.027199756 -0.038986668
000160 36 35 aa 3d 23 2f 99 3d c0 9e f0 bd 7a 1b d1 bd
       0.083109304 0.07479694 -0.11749029 -0.10210319
000170 6e e0 df bd e9 06 84 3d 8b 65 96 bd 94 97 76 3c
       -0.109314784 0.064466305 -0.073435865 0.0150507875
000180 f3 64 01 be 2f 86 85 bd f2 ed 8c bd 68 ec 51 3d
       -0.12636165 -0.06519734 -0.06881322 0.051250845
000190 92 17 aa bd 70 ad c9 bd 70 c3 09 bd 8f 3e 42 ba
       -0.08305277 -0.09847534 -0.03363365 -0.00074098347
0001a0 ee 20 de bd 71 13 8c bd e7 10 e6 3c 3f 1c 4c bd
       -0.108461246 -0.06839646 0.028084232 -0.049831625
0001b0 f6 c6 8c 3d d7 6c a3 bd 22 18 9c bd 51 ea 14 bc
       0.06873886 -0.07979744 -0.076217905 -0.0090890685
0001c0 c7 66 a3 3d c5 c9 90 3d d3 8a 97 bc d6 f6 1f bd
       0.079785876 0.070697345 -0.018498814 -0.03905376
0001d0 96 19 a1 bc 09 3d 93 bd bb 9b d2 bb 4b 21 43 3c
       -0.01966552 -0.07189376 -0.006427256 0.011909793
0001e0 78 eb d3 bd 54 f2 ab 3d 44 b5 63 3d e4 f3 13 3d
       -0.103476465 0.0839583 0.05559279 0.036121264
0001f0 9f ef d1 bd a3 7d 90 bd 82 63 bc bc 8e 4c 52 bd
       -0.10250782 -0.07055213 -0.022996668 -0.05134254
000200 18 2e 64 bd 8e 03 ed 3d 45 8b 8d 3d af 94 cf 3d
       -0.05570802 0.11572944 0.06911329 0.10135781
000210 a2 34 6f bd 00 15 c7 3d 63 ca bf 3d b4 c4 a3 3d
       -0.058399804 0.09720802 0.09364774 0.079965025
000220 ef 96 a1 bc 04 55 f4 bb cf 08 a2 3c 77 6e a8 3d
       -0.019725291 -0.0074564237 0.01977959 0.082241945
000230 47 42 5b bb 16 f6 92 3d cb 76 94 bd 40 40 aa bd
       -0.0033456252 0.071758434 -0.072492205 -0.08313036
000240 d2 e6 a4 3c 11 39 a7 bd 26 51 b9 bd 65 cc 0e 3e
       0.020129595 -0.081651814 -0.09048681 0.13945158
000250 fe 0f 1d bd 41 85 0f bd 92 f4 cc 3d e0 17 bb 3c
       -0.03834533 -0.03503919 0.100075856 0.022838533
000260 ff 64 20 bc 17 20 88 3d f9 5d 59 bd 64 62 9d 3d
       -0.009789704 0.06646746 -0.053068135 0.07684782
000270 73 68 fe 3c a2 3d 96 bd a4 26 ec bd 15 65 d1 bc
       0.031055665 -0.07335974 -0.115308076 -0.025560895
000280 a7 ee e8 3d f9 b4 90 bd a6 5e b6 bd 0f 0a 99 bd
       0.11373644 -0.07065768 -0.089047715 -0.07472622
000290 35 29 be bd 23 e2 9e 3c e7 75 63 3d 6b 71 ac bd
       -0.09285203 0.01939494 0.055532362 -0.0842007
0002a0 4a 70 92 bd a2 ab 4a bd 54 31 45 bc f9 29 82 3d
       -0.07150324 -0.049480088 -0.0120356865 0.06355662
0002b0 26 6f 13 bd 74 5c ab 3d 7c 76 cf 3c 8c 31 61 bd
       -0.03599467 0.083672434 0.025325052 -0.054978892
0002c0 d6 e3 88 bd 26 40 94 bc cc ce cf bd ea fc 3e 3c
       -0.06684081 -0.018096995 -0.10146865 0.011656979
0002d0 79 bd fd bd 31 ac 24 3d 8a 9e c8 bd cc 6c 8b 3d
       -0.12389655 0.040203277 -0.09795864 0.06807861
0002e0 52 12 01 3d c9 55 af 3d d6 78 c1 bd fa 79 ee bc
       0.031511612 0.08561284 -0.09446876 -0.029110897
0002f0 e8 fa 46 bd 9e 75 34 bd 94 f3 e0 bd 8c ef 34 bd
       -0.048579127 -0.04405748 -0.10983959 -0.044173762
000300 94 b1 e9 bc b4 18 a1 3d f3 64 68 3c bc a1 0e bd
       -0.028527059 0.0786604 0.014184224 -0.03482221
000310 45 5f a3 bd 9c 7f 71 3d 26 5a c4 bd c0 a5 00 bd
       -0.079771556 0.05895959 -0.09587507 -0.03140807
000320 9c 02 1e 3d 12 89 3d 3c 74 11 4c 3d 19 a9 2e 3b
       0.038576707 0.011568325 0.049821332 0.0026651083
000330 cc 53 9a bd 0f 5f 84 3d 8d a7 8b bd 9a 0e 86 3d
       -0.07535514 0.064634435 -0.06819067 0.06545754
000340 30 52 c0 bd 7c 99 b5 3c 40 fa 71 bd ae ca 64 3c
       -0.09390676 0.022167914 -0.059076548 0.013964338
000350 67 36 82 3d c1 af 95 bd ba 81 5a 3d 66 bd 7a bc
       0.06358033 -0.07308913 0.053346373 -0.015303945
000360 81 49 b9 bd cb 1c 1e bd c0 0b f4 bd 50 7c 4c 3d
       -0.09047223 -0.038601678 -0.11916304 0.04992324
000370 90 1c e6 bd 0f f5 7f 3d d4 5f cb 3b 45 8b 0b 3e
       -0.112359166 0.062489565 0.006206492 0.13627346
000380 46 f5 b8 bd bf 1c ac bd 25 51 d8 3b 33 04 02 be
       -0.09031157 -0.084039204 0.00660147 -0.12696914
000390 a1 29 7c 3d 23 d0 d5 3d b5 21 b7 bd 63 c6 5a 3d
       0.061563138 0.104400896 -0.08941976 0.053411853
0003a0 80 9e 46 3d d2 9e ac bd a3 0e 8e 3d 1c 21 d9 bc
       0.048491 -0.0842873 0.069363855 -0.026505046
0003b0 ba 4f b3 3d d3 d8 90 3d 0a da d1 bd 03 f8 99 3d
       0.08755441 0.07072606 -0.10246666 0.075180076
0003c0 b0 38 89 3d 1c 9e b7 3b eb ac b6 3c 1e cf 5f 3d
       0.067002654 0.005603565 0.02229925 0.05464088
0003d0 f0 d6 a1 bd 87 31 2c bc b7 79 cd 3d ad 7e 32 bd
       -0.07902324 -0.010509855 0.10032981 -0.04357784
0003e0 15 e7 b2 bd ec ac 07 be 55 40 f7 bd a8 75 0a be
       -0.08735482 -0.13249558 -0.12072817 -0.13521445
0003f0 b2 47 0d 3d 12 98 e4 3c ff dc da bd b6 a6 ae bd
       0.034492202 0.027904544 -0.10686683 -0.08527891

block3.bnorm_3.weight f4 [30]
000000 d1 27 83 3f 93 84 84 3f 9f 86 7e 3f 27 6a 81 3f
       1.0246526 1.0352958 0.99424165 1.011052
000010 8a ee 7e 3f 5b 14 7d 3f a9 f2 76 3f 90 ca 7f 3f
       0.9958273 0.98859185 0.9646402 0.9991846
000020 02 41 81 3f 8f 71 82 3f 3a 97 7e 3f 7e 2a 7a 3f
       1.0097964 1.0190905 0.99449503 0.9772109
000030 c2 17 80 3f d4 ac 80 3f ab 89 83 3f 47 76 80 3f
       1.000725 1.0052743 1.0276388 1.0036095
000040 e1 53 81 3f 3d 94 80 3f 79 5f 81 3f df 4f 7b 3f
       1.0103723 1.0045239 1.0107261 0.9816875
000050 f1 43 7e 3f fc e6 80 3f 69 96 7d 3f 58 6b 81 3f
       0.9932242 1.0070491 0.9905763 1.0110884
000060 0b ed 7e 3f 3f d9 83 3f c7 e7 7b 3f 64 85 7d 3f
       0.9958045 1.0300673 0.9840054 0.9903166
000070 f1 9e 82 3f 80 52 82 3f
       1.0204755 1.0181427

block3.bnorm_3.bias f4 [30]
000000 15 5f 91 3b 5c 57 16 3c 45 10 6a bb 67 73 be 3b
       0.0044363835 0.009176102 -0.0035715264 0.005812097
000010 81 8f ac 3c 2d 0f 96 3c 7a b5 a0 bc 8c 09 ec bb
       0.021064522 0.018317783 -0.019617785 -0.0072032865
000020 4f c5 b0 ba b1 b3 04 3d 17 33 e4 3b 5f a4 30 bb
       -0.0013486537 0.03239793 0.006964098 -0.0026953442
000030 0a 8b ab bb 1b fd 85 3b b2 05 55 3c 9e 72 6f bc
       -0.0052350806 0.0040890104 0.013001846 -0.014614729
000040 45 bb 34 3b 41 0e aa 3c be 2e 9f 3c 06 91 6f bb
       0.0027577442 0.02075875 0.019431468 -0.0036554947
000050 67 9f 30 3b 39 77 80 3c 71 51 7b bb 36 cf 07 bc
       0.002695048 0.01568185 -0.0038348103 -0.008289149
000060 a1 e2 e7 3b 27 e5 d7 3b ef b8 0d bc a9 12 ab bb
       0.007076577 0.0065885964 -0.008650049 -0.0052207303
000070 40 26 52 bb 75 90 50 3d
       -0.0032066256 0.050919015

block3.bnorm_3.running_mean f4 [30]
000000 cc 48 a6 be 1a 51 d7 be 83 e1 5f be 9c b1 bd bb
       -0.32477415 -0.42054063 -0.2186337 -0.005788995
000010 d5 ff 34 3e 57 78 ac 3e dd 4b cc 3e ba 25 f2 3e
       0.17675717 0.33685562 0.3990163 0.47294408
000020 ae 21 b0 be 5b a8 07 bf 2c c8 bc bd cb e5 1b be
       -0.34400696 -0.52991265 -0.09217867 -0.15224378
000030 23 82 85 be 16 ad 82 be 2f 88 a4 be 5c 60 5d 3d
       -0.2607585 -0.2552268 -0.3213515 0.054046974
000040 63 83 34 be bd 15 ab be 4b fd 1c be 9f e7 9b be
       -0.17628245 -0.33415022 -0.15330999 -0.3045015
000050 34 b0 11 be 4e 2f 82 be bc 82 d9 3d 72 1a a4 be
       -0.14227372 -0.25426716 0.10620639 -0.32051426
000060 62 cc f9 3e cf ca 4b be f9 43 0e 3e 9d e1 ce 3d
       0.48788744 -0.19901584 0.13893117 0.10101626
000070 7e 27 a5 be 69 f2 ec 3b
       -0.32256693 0.007231046

block3.bnorm_3.running_var f4 [30]
000000 82 73 18 3f 59 d0 92 3e 78 90 fb 3e 75 c0 1c 3f
       0.5955125 0.28674582 0.49133658 0.61231166
000010 e5 ea ba 3e 4f b7 86 3e 07 83 30 3f 1f 3a 56 3f
       0.36507335 0.26311728 0.6894993 0.83682436
000020 34 4f 88 3e 69 de dc 3e 56 78 c1 3e 2c fc ff 3e
       0.26622927 0.43138435 0.37787122 0.4999708
000030 42 81 e7 3e 97 0b c3 3e aa 3e 08 3f 85 7e c9 3e
       0.45215803 0.3809478 0.5322062 0.3935434
000040 4c 20 87 3e ab 24 5e 3e 34 d1 85 3e f5 10 0b 3f
       0.26391828 0.21693675 0.26136172 0.5432275
000050 15 e7 04 3f 9d 7f d1 3e 9b b2 93 3e 30 00 c8 3e
       0.51915103 0.40917674 0.28847203 0.39062643
000060 4f 74 3f 3f 7b f5 9d 3e 2d 13 54 3e cf a1 2d 3f
       0.7478685 0.3085135 0.2071044 0.67825025
000070 d2 83 86 3e 40 11 de 3e
       0.26272446 0.43372536

block4.conv_4.weight f4 [30, 30, 10]
000000 0d f4 3a 3c 1a d7 be 3a b6 8b 9e 3d 03 a7 52 bc
       0.011410725 0.0014559955 0.077414915 -0.0128572015
000010 dd 5d ac 3d 9d 57 fb 3c 2e c3 cb 3d ce eb 82 3d
       0.084163405 0.030681426 0.09949337 0.063926324
000020 50 1d f9 3d 9d 58 95 bd b9 f0 03 bd 33 f6 92 bd
       0.12163794 -0.07292292 -0.032211993 -0.07175865
000030 4b a5 c7 3c 9f 20 e9 bc ff 1e 2a 3d 0d 76 25 bd
       0.02437081 -0.028457938 0.041533466 -0.040395785
000040 ba 81 17 bd 81 dd ab bd fc 5e 6a bd 84 61 bc bc
       -0.03698895 -0.08391858 -0.05721949 -0.022995718
000050 0f 1a c2 3d b1 19 87 3d ee ab 1e bd 0b d9 98 bd
       0.094776265 0.06596697 -0.038738184 -0.07463273
000060 1f 46 19 3d f2 05 4f bd f4 1a bb bd e0 f9 96 bd
       0.03742039 -0.05054278 -0.09136 -0.073718786
000070 d6 02 87 bc fb bd 54 bc fc 58 02 bd 16 2a 14 bd
       -0.016480844 -0.012984748 -0.031823143 -0.03617295
000080 65 38 4e bd b1 64 98 3d 40 61 79 bd 48 79 c0 bd
       -0.05034675 0.0744108 -0.06088376 -0.093981326
000090 54 fe b1 3d 7a 81 9c 3c 8a f8 be bc f9 dc 77 3d
       0.08691087 0.019104708 -0.023311872 0.06051347
0000a0 1e ad 15 bd 9d 82 97 3d 29 04 9b bd 5b 6c 45 3d
       -0.03654205 0.073979594 -0.07569153 0.04819904
0000b0 5e 13 85 3c b1 2d 99 3d 76 90 42 3d 5c df 29 3c
       0.016244587 0.07479418 0.04750105 0.010368194
0000c0 4b 9c 98 bd eb 72 88 bd 3f 25 b6 bb 43 c2 1c 3d
       -0.074516855 -0.06662544 -0.0055586393 0.0382712
0000d0 ed 9f 1a 3d 82 cf ce 3b 55 0e bb bd d1 6c b9 bc
       0.037750173 0.006311358 -0.09133593 -0.022634896
0000e0 9d 03 b2 bc 95 21 37 3c 43 72 2f 3d d1 15 8b bb
       -0.021730239 0.01117744 0.042833578 -0.004244544
0000f0 16 dd 4d 3c 23 4c 06 bd 15 69 a8 3d 9c 04 66 3d
       0.012564918 -0.032787453 0.08223168 0.05615674
000100 e6 ac 98 bd 73 5f 9a 3d be 25 35 bd d3 bb 64 3b
       -0.07454853 0.07537737 -0.044225447 0.003490199
000110 da 43 77 3c 0f 73 35 bd c7 e0 5c bc ce 65 eb 3c
       0.015091861 -0.04429918 -0.0134813255 0.028735068
000120 3d ff 43 bd cb 3e 93 3b 2c 2a 0f 3d 0d 6c 98 3d
       -0.047850836 0.0044935695 0.034952328 0.07442484
000130 fb d7 a1 bc d7 0b 49 3c 28 b0 53 3c ec f0 81 bc
       -0.019756308 0.012270889 0.012920417 -0.01586195
000140 a1 bd 08 bd 03 b2 d2 bd aa c1 2b 3d 0e ba 75 bd
       -0.03338397 -0.10287859 0.04193274 -0.05999189
000150 61 11 7d bd d9 c4 5c 3d 41 1c 05 3d f7 5f 93 3d
       -0.061784152 0.053898666 0.03249765 0.07196038
000160 e1 95 bf bc b2 42 35 3d 3d 84 87 3c 74 45 d7 3d
       -0.023386898 0.04425306 0.016542548 0.10511294
000170 3f 8d c5 3d a1 c8 cd bd d2 fe 37 3d 6f eb cd bc
       0.09646081 -0.100480326 0.04492075 -0.025136678
000180 be b5 94 3d f2 56 63 bd ad 80 99 bd 01 b4 82 3d
       0.07261227 -0.05550284 -0.07495246 0.06381989
000190 f6 58 0a bd 95 cb 98 bd 25 2c bb bb 81 07 c5 bd
       -0.033776246 -0.07460705 -0.0057120495 -0.09620572
0001a0 e4 24 9a bd e9 dd b9 3c 8e c8 b8 3d 4a a9 b3 3d
       -0.075265676 0.022688823 0.09022628 0.08772524
0001b0 34 e9 ce bc e7 39 36 bd 4a 46 19 bb 02 84 90 bd
       -0.025257684 -0.044488814 -0.0023387843 -0.070564285
0001c0 06 1e 4c bd 48 f6 29 bd 84 4d 02 3d 77 d4 2b bc
       -0.04983332 -0.041494638 0.031812206 -0.010487667
0001d0 f3 89 9e 3d 6c 8a d2 3d 91 4b 45 bd 13 1e 1e 3d
       0.077411555 0.10280308 -0.04816777 0.0386029
0001e0 97 65 19 3d 85 be a7 bd 87 54 0f 3b 1b 75 c3 bd
       0.0374504 -0.081906356 0.002187045 -0.095438205
0001f0 41 83 02 3d 34 db 82 3d 1e 37 e5 3c 24 38 a5 bd
       0.031863455 0.06389466 0.027980383 -0.080673486
000200 13 1d 37 3b b9 8a f1 3c 0c c1 aa bd 4a 6e a3 bd
       0.0027940914 0.029485093 -0.08337602 -0.0798002
000210 50 a9 a7 bd ac 4f 89 bd 05 7b 70 bd 3e 2f 0d 3b
       -0.08186591 -0.06704649 -0.05871107 0.002154305
000220 4c e5 f3 3c db 41 9c bd b7 06 9f 3c 70 e9 9a 3d
       0.029772423 -0.076297484 0.019412382 0.07564056
000230 5c d7 66 bd 06 36 e1 bc 65 c9 0a bd 95 7e 7d bd
       -0.056357726 -0.02749158 -0.03388347 -0.061888296
000240 af bc ef bc d3 b4 93 3d c4 bb 92 bb 57 59 43 3d
       -0.029264776 0.07212224 -0.00447795 0.047692623
000250 a9 a6 91 3d b9 80 15 bd 22 aa 77 3d cd 32 12 3c
       0.07111866 -0.036499713 0.060464986 0.008923245
000260 e1 f2 26 3d 58 98 48 3b d4 78 98 3d 97 e9 08 3d
       0.04075897 0.0030608382 0.07444921 0.033425894
000270 29 5f 41 3b 2e 40 72 bd e1 c4 64 bc 27 4c 9d bd
       0.0029506183 -0.059143238 -0.013962955 -0.076805405
000280 e2 e3 02 3d 6d 1c 98 3c cc ed aa 3d a1 90 b8 bd
       0.031955607 0.018568242 0.083461374 -0.09011961
000290 24 86 c2 bd 16 f4 3c 3d e1 83 ce 3c ba 95 b2 3c
       -0.094982415 0.046131216 0.02520937 0.02179991
0002a0 25 c1 20 3d 41 32 76 bd 8b 98 ce bd d4 35 8d bd
       0.039246697 -0.06010652 -0.10087689 -0.068950325
0002b0 67 0c 86 bc d3 87 b9 bc d7 8c a2 3d bf ed f0 3d
       -0.016363336 -0.022647774 0.07937019 0.117640965
0002c0 32 10 97 3d f2 22 d2 bd e0 9a b3 3d 57 eb 97 3d
       0.07376136 -0.102605715 0.087697744 0.074179344
0002d0 9a 75 cb 3d 53 07 35 bd 24 d4 0d bd c8 9f b0 3d
       0.0993454 -0.044196438 -0.03462614 0.08624226
0002e0 d6 c6 d2 3a ef 7b b1 3d 0b fb b1 bd d2 f8 7a 3c
       0.0016080986 0.086662166 -0.08690461 0.015318112
0002f0 05 9a 25 3d 0f 71 f1 bc 27 8c 21 bc 99 01 b6 3d
       0.040430088 -0.029472856 -0.009860075 0.088870235
000300 3e 19 7f 3c 5d 4c 8d bc 25 c4 86 bd 95 4d 27 b9
       0.015569983 -0.017248327 -0.0658038 -0.00015955263
000310 e5 c3 30 bd e2 90 88 3c 10 5f 6e bd 84 b7 09 bd
       -0.04315557 0.016670648 -0.058196127 -0.03362228
000320 4d 01 52 bd ed d2 dd bc 99 fd a2 3c 68 fb a3 bd
       -0.05127077 -0.027078116 0.019896315 -0.08006936
000330 03 75 d6 bc e3 1e bf bd f6 b4 4d bd 0d 8e 96 3d
       -0.026178842 -0.09332063 -0.050221406 0.07351313
000340 93 3e e9 bb 27 5e d7 3c cb 67 a0 bd 39 4a 3b bd
       -0.007118055 0.026290013 -0.07832297 -0.04572508
000350 d4 fe 57 3d ba 3a 59 3d 86 1a b2 3d 7c fa 41 bd
       0.052733257 0.05303452 0.08696465 -0.04735802
000360 e0 38 1a bd 3a 75 a7 bd 18 f5 93 bb f9 23 e1 bd
       -0.037651896 -0.08176656 -0.0045153014 -0.10993189
000370 90 75 6b 3d 7e 9b e4 bc ff 25 2b bd ba bf d8 3b
       0.057485163 -0.027906176 -0.041784283 0.0066146525
000380 97 a3 5e bd 09 a9 9b bd 9d 1a e1 3d fb a6 b1 3d
       -0.05435523 -0.076006 0.10991404 0.08674427
000390 da 80 a8 3d 22 bb 01 bd c6 75 9f 3d a3 d9 6f bd
       0.082277015 -0.031672604 0.077861354 -0.058557164
0003a0 bd 68 66 3d 31 04 ec 3c 73 d9 b7 3d 56 43 9c bc
       0.05625223 0.028810592 0.08977022 -0.019075077
0003b0 58 e9 4f 3d c8 62 2c bd d0 78 01 3e d1 1d c8 3d
       0.050759643 -0.042086393 0.12643743 0.09771312
0003c0 b7 13 b2 bd 9a e1 a4 3d 6c aa 83 3d e7 99 8c 3c
       -0.086951666 0.080508426 0.0642899 0.01716323
0003d0 2b f4 ac bd 68 28 bc 3d 18 5d ef 3a de 11 0d 3d
       -0.08445009 0.091873944 0.0018261997 0.034440868
0003e0 2f 3c 85 3c 7b 8a ce 3d ab 6d c9 3c f1 8d 1c 3d
       0.01626405 0.10085007 0.024588427 0.038221303
0003f0 08 49 7a 3d 46 b4 24 bd 9b c5 ef 3c a3 a6 0f 3d
       0.061104804 -0.040210985 0.02926903 0.035071027

block4.bnorm_4.weight f4 [30]
000000 7b 92 81 3f d3 98 83 3f 57 20 80 3f 5f 41 81 3f
       1.0122827 1.0281013 1.0009869 1.0098075
000010 eb 79 82 3f ff 5d 85 3f 04 17 84 3f c0 9b 81 3f
       1.0193456 1.041931 1.0319524 1.0125656
000020 87 5f 85 3f 86 d8 81 3f 5c de 80 3f 04 2c 81 3f
       1.0419778 1.0144203 1.0067859 1.0091558
000030 86 74 7e 3f 9e 85 80 3f de 39 84 3f cd 1e 84 3f
       0.9939655 1.0040777 1.033016 1.03219
000040 c3 30 85 3f dd 57 7f 3f 48 15 81 3f b9 b3 84 3f
       1.0405506 0.99743444 1.008462 1.0367347
000050 46 5a 83 3f 94 2d 84 3f dd 5d 83 3f 47 69 7f 3f
       1.0261924 1.0326409 1.026302 0.99770015
000060 46 61 81 3f 82 5a 81 3f 23 cd 83 3f 7f 35 84 3f
       1.010781 1.0105746 1.0296978 1.0328826
000070 2c 23 85 3f b4 2d 80 3f
       1.0401359 1.0013947

block4.bnorm_4.bias f4 [30]
000000 d3 26 ba bb 5e 21 0c 3c 74 a6 3c bc f0 34 7b bb
       -0.0056808977 0.008552877 -0.011514295 -0.0038331114
000010 92 d7 6e bb 2d 1f 36 3c 9c 57 fa ba 52 63 01 bc
       -0.0036444408 0.011115831 -0.0019099596 -0.007897215
000020 b3 08 36 3c 21 01 2f bc f0 15 f1 bb a9 4c a3 bb
       0.0111104725 -0.0106814215 -0.0073573515 -0.004983504
000030 d3 97 47 bc 88 78 5f bc 56 b6 d4 3b eb 6a 1a 3c
       -0.012182194 -0.013639577 0.0064914627 0.009424905
000040 ec 7c 0b bc c3 0a 4f bc e7 e4 ff bb 68 dd 15 3c
       -0.00851367 -0.012636843 -0.0078092697 0.009147026
000050 78 e6 48 3c 59 29 2b 3c cb bc f2 bb 26 fa 52 bb
       0.012261979 0.01044687 -0.00740776 -0.0032192557
000060 1b fe f5 bb d7 e5 7e bc 7d b6 b1 ba 11 13 90 3b
       -0.0075070984 -0.015557728 -0.0013558414 0.004396804
000070 cf 6e eb 3b af a9 77 bb
       0.0071848403 -0.0037790348

block4.bnorm_4.running_mean f4 [30]
000000 31 7c bf 3e 44 34 06 bf 74 b4 b2 3d c7 ef e9 3c
       0.37399438 -0.524235 0.08725825 0.028556718
000010 e2 34 b3 3d 3e cf ac bd 9d 79 c7 be 61 35 a0 3e
       0.08750321 -0.08437966 -0.3895997 0.31290725
000020 e8 ca f7 3d b4 10 77 3d 0d aa e9 3e c3 b0 24 3d
       0.12099248 0.060318664 0.4563755 0.040207636
000030 57 42 e6 3e 96 28 2c 3e 01 e3 08 3f 79 9f 8d be
       0.44972488 0.16812357 0.5347138 -0.2766073
000040 61 90 d4 3e 13 fc fd 3d 0d 28 e0 bd 65 eb 16 be
       0.41516402 0.12401595 -0.10945139 -0.14738233
000050 be 66 c6 3e f5 0d fa bd 08 93 9e 3e 6c 92 90 be
       0.3875026 -0.12209693 0.3097155 -0.2823671
000060 0c e1 07 3f 87 47 86 be 55 5f 1f 3f 1c de 95 bd
       0.5307777 -0.26226446 0.6225484 -0.073177546
000070 5a 6a ff 3e ea a1 0f be
       0.49885827 -0.14026609

block4.bnorm_4.running_var f4 [30]
000000 fa 61 c0 3e 73 fd ef 3e 76 2a 40 3f e8 3f 20 3f
       0.3757475 0.46873054 0.7506479 0.62597513
000010 26 4a 3d 3f 44 38 a7 3e 27 eb 07 3f 66 96 20 3f
       0.73941267 0.32660115 0.5309319 0.6272949
000020 fe b2 10 3f 26 9d 13 3f 0d 93 ec 3e e0 c8 10 3f
       0.5652312 0.57661664 0.4620594 0.5655651
000030 2d f6 69 3f 3c e2 ec 3e 4f cf 0d 3f 7c cf d0 3e
       0.9139126 0.46266353 0.5539445 0.40783298
000040 42 e3 82 3f 91 07 24 3f dd 17 14 3f e4 8e e4 3e
       1.0225604 0.64074045 0.5784891 0.44640267
000050 3f 97 3a 3f ef 22 e3 3e fb 80 c4 3e d8 28 2c 3f
       0.72887033 0.4436259 0.38379654 0.6724982
000060 26 27 d6 3e f2 31 2e 3f 45 52 fd 3e 7d 9f 16 3f
       0.41826743 0.6804496 0.4947683 0.5883711
000070 b1 5a ce 3e 37 c2 e8 3e
       0.40303567 0.45460674

conv_channel_res.weight f4 [1, 30, 3]
000000 6e 83 77 3c d4 79 4b bd 93 cc 48 bd 97 e9 f4 bc
       0.015107019 -0.04967673 -0.049023222 -0.02989654
000010 d8 fa 69 3d dc b1 3b 3d a5 3e 28 bc 53 ca da bd
       0.05712399 0.045823917 -0.010268842 -0.106831215
000020 9c 4b fa bb c6 c7 e3 bd d1 ec d1 bd 64 04 c4 bd
       -0.007638408 -0.11122088 -0.10250247 -0.0957115
000030 41 15 ca bd 4e 9a e6 bd fe 42 de bd 44 e8 82 bd
       -0.09867335 -0.112599 -0.108526215 -0.063919574
000040 0f d4 fd 3d dd b7 09 3e f0 51 a2 3d b8 87 8f bd
       0.123939626 0.13449045 0.079257846 -0.07008308
000050 5d 1e 26 3d 3b 2c b1 bc 0d 61 87 bd 48 a2 b2 bd
       0.0405563 -0.021627536 -0.06610308 -0.08722359
000060 7c 79 65 3c 6a be 4e 3d 68 58 5c 3d 26 58 b8 bd
       0.014006015 0.05047456 0.05379525 -0.09001188
000070 31 51 6d bd 63 4d e6 bd 57 72 91 3d e9 8a b7 bd
       -0.05793876 -0.11245229 0.07101887 -0.08962042
000080 c9 70 e2 3b ca 40 2d bd f2 c8 bd bd fc 38 55 bd
       0.0069104177 -0.042298116 -0.09266843 -0.052056298
000090 fc ae 8e 3c 43 67 1f bc f3 32 97 bd c0 69 c0 bd
       0.017417423 -0.009729209 -0.07382765 -0.0939517
0000a0 52 8a 94 bd e8 02 b8 bd ef 31 3e bd 86 b1 c4 3d
       -0.07252945 -0.08984929 -0.04643434 0.096041724
0000b0 22 f8 ee 3d 65 2d 84 bc c9 a7 6a 3d e8 fa c1 3d
       0.11668421 -0.016134927 0.05728892 0.09471685
0000c0 ef 31 11 3c 24 6e ca bd f5 d8 e1 bd b4 56 dc bc
       0.008862003 -0.09884289 -0.110277094 -0.026896812
0000d0 4a 63 3e bc ed 4d 92 bd 0b 41 b4 bd 85 ca a1 3d
       -0.011620352 -0.071437694 -0.088014685 0.07899956
0000e0 db 1f 99 bc a8 3d 12 bb 93 bb fa 3d de 4a e4 3d
       -0.018691948 -0.0022314582 0.12242808 0.11147092
0000f0 58 3d 79 3d 8b b0 c6 3d 78 19 85 3c 1b a0 97 3d
       0.060849518 0.09701642 0.016247496 0.074035846
000100 2f d7 7b 3b 0e e2 da 3d e7 9d d8 3d 12 56 af bd
       0.003842782 0.10687648 0.105769925 -0.085613385
000110 4e 14 63 bd 08 5f b5 bc 09 4c ae bd 59 00 8c 3d
       -0.055439286 -0.022140041 -0.08510596 0.06836004
000120 70 f6 b8 3a 4b cd e2 bd 18 ea d4 bc e9 6d 40 bd
       0.001411153 -0.11074313 -0.02599053 -0.04697982
000130 da d0 7f bd cc 3c f3 bd d3 7f 66 3d 6e 39 c3 3b
       -0.062455036 -0.118768305 0.056274246 0.005957774
000140 e2 50 b4 bd 6e 93 49 bd 3a d5 ac 3d 17 62 48 3d
       -0.0880449 -0.049212866 0.08439107 0.04892167
000150 b1 2d d3 3d d0 06 90 3d cb 25 27 3d 67 be 7d bd
       0.10311449 0.070325494 0.040807527 -0.06194916
000160 f3 9b 2e 3c ab 01 5b bd
       0.010657298 -0.053468388

classifier_conv.weight f4 [32, 1, 35]
000000 84 1f 2b bc f2 36 61 bd 9f a2 6d 3c fa d0 be bc
       -0.010444526 -0.05498404 0.014504104 -0.023293007
000010 e6 a4 cc 3c 6e fe 9e bd cd f1 b8 bd fd 34 02 bd
       0.024980973 -0.07763372 -0.09030495 -0.031788815
000020 34 62 b6 3c e7 2d 52 3c 8c a3 95 bd bf 56 3c 3c
       0.022263624 0.012828327 -0.07306585 0.011495291
000030 72 6a fb bc 59 cb bc bb 49 66 a2 bd 46 db b1 bd
       -0.030690406 -0.0057615456 -0.079296656 -0.08684401
000040 83 c7 f7 bc 14 82 4a bd 2f 98 48 bd c1 d9 03 bd
       -0.030246502 -0.04944046 -0.04897326 -0.03219009
000050 79 fa 23 bd f7 63 35 bc 94 5c 84 bd 32 60 eb bd
       -0.04003379 -0.011071197 -0.064629704 -0.11492957
000060 e7 3e dd bb 1e 2d 35 bd ee ef 84 bc 23 0f 05 be
       -0.0067518833 -0.04423248 -0.016227689 -0.12994055
000070 35 94 9e bd 82 72 ca bd 10 d2 3b 3d fc 5c 2d be
       -0.07743112 -0.09885122 0.045854628 -0.16930002
000080 3b 4a f1 3d 79 62 43 bc 2f 05 ab 3d e0 64 37 bb
       0.117817365 -0.011925333 0.08350598 -0.002798371
000090 44 2b 4b 3d 65 38 11 bc 4b 2d 92 3d 95 b1 6b 3d
       0.04960181 -0.008863543 0.07137545 0.057542402
0000a0 d8 44 bc bc b8 1c 66 3c cc 73 0a 3d cd d4 ba bc
       -0.022982046 0.014044933 0.03380184 -0.02280655
0000b0 aa 07 a8 3d 20 8d 94 bc b6 bc cb 3d a6 71 c0 3c
       0.08204587 -0.0181337 0.09948103 0.023491692
0000c0 ea 04 de 3d 62 c3 e6 3d d5 09 85 3d d6 f6 cc 3c
       0.10840781 0.11267735 0.06496016 0.025020044
0000d0 d4 53 88 3d e7 82 b4 3d 1a eb 03 3e b7 9d 1d bc
       0.06656614 0.0881403 0.12882653 -0.009620122
0000e0 84 a7 08 3d 2d e8 a7 3d be 0b 81 3d ea 58 b7 3d
       0.03336288 0.08198581 0.06301068 0.08952506
0000f0 e1 14 d2 3d ad f7 d1 3d 5a 1f 1c 3e c2 d2 c4 3c
       0.102578886 0.102523185 0.15246335 0.024026278
000100 f9 6f 24 3e 10 f1 3e bd ba b5 44 3e 78 3e 28 be
       0.16058339 -0.046616614 0.19209948 -0.1643008
000110 91 0a ec 3d bc 9e 05 be 55 1f 23 3d 0d a6 02 3d
       0.11525453 -0.13048834 0.039824802 0.03189664
000120 5c da 45 bd 63 2f 05 bd 1f fd ab bd 07 88 1f bd
       -0.048303947 -0.032515895 -0.083978884 -0.038948085
000130 35 ff 32 bd a3 68 d7 3c 22 21 c1 bc e4 55 03 bd
       -0.043700416 0.026295012 -0.02357537 -0.032064334
000140 2f ef a1 bd cc 26 c7 bd 85 a1 2a bd a3 29 77 3c
       -0.07906949 -0.09724197 -0.041657943 0.015085611
000150 7a 86 f0 bc 9d c6 99 bc db a4 f1 bc e8 f7 cd bd
       -0.029360998 -0.018771464 -0.029497555 -0.1005705
000160 53 01 18 bd 31 c5 4b 3c 49 b0 13 bd b8 f8 17 bd
       -0.037110638 0.012437151 -0.03605679 -0.03710243
000170 13 09 7f bd 52 e3 cf bd f4 c6 80 bd 4d 13 ba bc
       -0.062264513 -0.1015078 -0.06287947 -0.022714281
000180 4b ab 26 bd da 2d 0b be 7c a4 46 bb d1 5f 02 be
       -0.0406907 -0.1359171 -0.0030310443 -0.12731864
000190 00 f5 6a 3d 47 97 2a be ca 80 03 3e b3 f5 26 3b
       0.057362556 -0.1665927 0.12842098 0.0025476038
0001a0 d4 4b ec 3d 98 36 84 bb 83 71 2b bd 96 28 fb 3c
       0.115379006 -0.0040348284 -0.0418563 0.030659001
0001b0 6d 74 9c bd 0c e6 1c 3d 4a b9 d1 bd 9f 1f 92 bd
       -0.07639394 0.038305327 -0.10240419 -0.071349375
0001c0 91 14 b4 bd 5a 6b c9 bd 0b 6f c9 bd 59 31 3f bd
       -0.08792985 -0.09834929 -0.09835633 -0.04667792
0001d0 6d 46 47 39 c8 99 89 bd ac d5 25 bd fc a0 5b bd
       0.00019004355 -0.067187846 -0.040486977 -0.053620324
0001e0 2b ac d2 bd 1f 75 98 bc 64 01 5e bc 4e 96 41 bd
       -0.10286745 -0.018610535 -0.013550136 -0.047262482
0001f0 74 0f ad bd 3d 0c d5 bd 46 e8 62 bd f5 20 95 bc
       -0.08450213 -0.10402725 -0.055397294 -0.018204192
000200 02 ec 07 bd 8f d6 a4 bd ed 88 21 be 95 e9 f9 bd
       -0.03318406 -0.08048736 -0.1577489 -0.12202755
000210 c2 93 96 bd 47 7a fe bc b9 49 86 bd 3f d0 8b 3b
       -0.07352401 -0.031064166 -0.0655703 0.004266768
000220 7a 34 1d be 9a e1 e6 3d ae fa 79 bd 19 a2 b8 3c
       -0.1535205 0.11273499 -0.061030082 0.022538232
000230 d4 0d 9b bd 96 9a 2b bc 53 5e 45 3c 92 33 f3 3b
       -0.07570997 -0.010473868 0.012046414 0.007421919
000240 01 c5 78 bd c0 fa 04 bd 68 84 97 bb 8b c7 a8 bd
       -0.060734753 -0.032465696 -0.0046239384 -0.08241185
000250 86 c9 2e bd 15 36 18 ba 4b 98 91 bd e4 b0 47 bd
       -0.042672656 -0.00058063987 -0.07109126 -0.04875268
000260 b6 79 35 bd 5a 4e 89 bd 45 de b0 bd e4 48 a1 bc
       -0.044305526 -0.067043975 -0.086361445 -0.019688077
000270 4f 2f 59 bd 1d ec ce bd 29 e6 d3 bc 5a 90 6e bd
       -0.053023633 -0.10103629 -0.025866585 -0.058243133
000280 1e 24 fc 3c d4 a2 e3 bc e6 89 09 be 7c 3f d4 bc
       0.03077894 -0.027787603 -0.1343151 -0.025909178
000290 c9 75 dd bd 29 b3 2f bd a3 88 11 bd 81 da 19 be
       -0.10813481 -0.04289547 -0.035530698 -0.15024759
0002a0 9a 52 ef bd b5 66 e7 bd df 68 7f 3d 09 67 40 be
       -0.11685677 -0.11298887 0.062355872 -0.18789305
0002b0 43 14 01 3e 16 b6 b8 bd 44 a6 14 bc 68 37 b7 3d
       0.12605385 -0.09019105 -0.009072844 0.08946115
0002c0 8d ec 53 3d 52 e5 33 3d 07 f4 42 bc e1 17 51 bc
       0.051739264 0.04391987 -0.011899001 -0.012762041
0002d0 1f 6d 2e bd 33 19 a4 3d 44 38 15 3d 68 6d 3a 3d
       -0.042584535 0.08012619 0.036430612 0.045514494
0002e0 8c 29 44 3d f9 01 94 3d 6a af a7 3d d2 b4 0f 3d
       0.047891185 0.07226939 0.081877545 0.035084553
0002f0 73 ed a0 3d fc aa c1 3d fb ec 17 bc ef f9 45 3c
       0.0785779 0.09456441 -0.009272809 0.012083515
000300 2d 7a bd bc 50 71 04 bd b2 98 95 3d 4a be df 3c
       -0.023129547 -0.032334626 0.07304515 0.027312417
000310 b8 c4 da 3d e0 51 e0 3d b9 89 c3 bb 85 7c 08 3d
       0.106820524 0.109531164 -0.0059673456 0.033321876
000320 be 8f a0 3d 36 ef 02 3e b1 91 c4 3d 1c 9a a1 3b
       0.07839917 0.12786564 0.09598101 0.0049317013
000330 57 74 bd 3d b0 c5 44 bd c4 35 a5 3d 5b 32 81 bd
       0.09250706 -0.048040092 0.080668956 -0.06308433
000340 ff c9 75 3d bd f3 82 3c cd 69 72 bd 66 49 8e bd
       0.06000709 0.015985364 -0.05918293 -0.069475934
000350 b5 42 23 bd c6 00 d2 bc 2f 41 88 bc cc 9f 3d 3b
       -0.03985854 -0.025635134 -0.016632644 0.0028934358
000360 51 33 90 bd 05 b3 8e bd ff 0b 60 3c 27 bb ec ba
       -0.07041038 -0.06967739 0.013674735 -0.0018061147
000370 87 f4 00 3c 0d 7b b0 bd 55 f4 82 bd 1d 2c 03 3d
       0.0078708 -0.0861722 -0.06394259 0.03202449
000380 e6 54 ea bc 2c ef 15 3d 85 02 9e bd 6e 8d 96 3c
       -0.028604936 0.036605045 -0.07715324 0.018377986
000390 37 4e 99 bd 72 eb 5a bd be 45 c4 bd 39 38 b4 bd
       -0.074856214 -0.053447194 -0.09583615 -0.08799786
0003a0 59 ae a9 bc 2b dd 9e bc 0b c2 dc 3b 1b 13 91 bd
       -0.020713018 -0.01939257 0.006736999 -0.07083722
0003b0 06 68 61 bd ba 78 27 3b 14 ed ab bc e8 8c 0e be
       -0.055030845 0.0025554136 -0.020987071 -0.13920939
0003c0 dd 4c 5c 3d 46 9f 8b bd ef 7b 0c 3e 15 1b c9 bc
       0.05378424 -0.06817488 0.13719152 -0.024549047
0003d0 c4 47 67 3c e8 42 54 bd 1f 26 c0 bd 4c 9a 1e 3d
       0.014116231 -0.05182162 -0.09382271 0.038721368
0003e0 09 62 d5 bd 59 e3 92 bb 9e f8 28 bd 16 a7 93 bd
       -0.10419089 -0.0044826684 -0.041252725 -0.072096035
0003f0 70 6f d8 bd 92 02 24 3c 1c a7 35 bd c7 26 55 bd
       -0.1056813 0.010010378 -0.04434882 -0.052038934

classifier_conv.bias f4 [32]
000000 c9 55 db 3b 2e 2e 2b bc 9a 46 0d 3c c6 30 4b 3c
       0.006693576 -0.010448022 0.00862279 0.012401765
000010 0e 38 12 3c bc ed 24 bc 64 bf 01 3c 60 51 74 3c
       0.008924497 -0.010066446 0.007919166 0.014911979
000020 a2 eb d9 3b 91 1d 03 3c 83 79 22 3c 72 47 1b bc
       0.006650404 0.008002655 0.009916666 -0.009477483
000030 7b 8b 24 bc dd 68 23 bc b3 3e 0c bc 31 97 63 bc
       -0.01004302 -0.009973732 -0.0085598705 -0.013891027
000040 49 b1 fa 3b fc 2b 03 3c 29 a0 05 3c 60 f1 0b 3c
       0.0076505286 0.008006092 0.008155861 0.008541435
000050 e4 99 dc bb 55 d4 4c bc 16 26 01 bc 01 8b 15 bc
       -0.0067322124 -0.012501796 -0.007882616 -0.009127379
000060 26 e2 1d 3c 94 ea 1a 3c 76 12 1a 3c 24 70 08 3c
       0.0096364375 0.009455342 0.0094038155 0.008327518
000070 01 4a 3c bc d1 37 52 3c 56 9b 07 3c 8b c0 28 bc
       -0.011492253 0.0128306905 0.008276781 -0.010299812

fc.weight f4 [2, 32]
000000 67 70 b3 3d 65 d0 42 bd b6 0b 84 3d 9a 6c 90 3c
       0.087616734 -0.04756202 0.06447546 0.01762991
000010 f7 cd be 3d 89 db bb bd 6b 4e a6 3d d6 34 ad 3d
       0.093166284 -0.091727324 0.08120426 0.08457343
000020 52 09 aa 3d 76 fe e9 3d 4a 96 7d 3d 8b ac c4 bd
       0.08302559 0.11425488 0.061910905 -0.096032225
000030 a9 57 5a bd 5c 7a cf bd 14 5e a6 bd ea 11 ee bd
       -0.053306255 -0.1013076 -0.08123413 -0.116245106
000040 15 a8 ed 3d 3c fc e8 3d 03 9c 7e 3d 4f 29 00 3e
       0.11604325 0.11376235 0.062160503 0.12515758
000050 59 e6 cf bc 04 32 93 bd ae 7a 5d bd 37 6f a9 bd
       -0.025378393 -0.07187274 -0.054072075 -0.08273166
000060 59 ea 9d 3d e0 f6 ce 3d ad bf b1 3d 96 14 c6 3d
       0.07710714 0.101056814 0.086791374 0.09671895
000070 85 6c f0 bd cb c2 a8 3d 50 4d 84 3d e0 fe 0d be
       -0.117394485 0.08240279 0.06460059 -0.13866758
000080 30 d0 0a be 97 4e e4 3d 65 91 12 be 1e 5a f7 bd
       -0.1355598 0.11147802 -0.14313276 -0.12077735
000090 93 ee 79 bd 57 fc 4b 3d 74 3c eb bd 39 f2 9b bd
       -0.061018538 0.049801197 -0.1148614 -0.0761456
0000a0 3a 2f 09 be 59 29 be bd 00 7b 9a bd bc 71 80 3d
       -0.13396922 -0.0928523 -0.07542992 0.06271693
0000b0 1c 64 af 3d 66 ab 8e 3c a9 8d 48 3d 3c f7 5e 3d
       0.08564016 0.017415714 0.048963223 0.054435
0000c0 72 c7 d0 bd 5d 2b 81 bd 19 0e 02 be 23 2d 5a bd
       -0.10194291 -0.06307099 -0.1270069 -0.053265702
0000d0 48 d2 d6 3d 37 44 8a 3d 73 81 aa 3d 0c 47 f8 3d
       0.10489327 0.06751292 0.08325472 0.12122926
0000e0 6e 5b c1 bd 9f 2b 44 bd 20 65 be bd 22 ce 87 bd
       -0.09441267 -0.047893163 -0.09296632 -0.066311136
0000f0 8d 6b cc 3b 4d 3e 50 bd d1 da d2 bd 3f cd 2a 3d
       0.006238407 -0.050840665 -0.10295642 0.041699644

fc.bias f4 [2]
000000 f9 d7 3c 3c e2 d7 3c bc
       0.011526101 -0.01152608
