submit_entry/checkpoints/Combined_edgcn_12s_slice/V/3/best.pth (torch_old, 75847 bytes, 26 tensors)

conv_time.weight f4 [15, 1, 10]
0.016196668 -0.14474443 -0.02965625 -0.023914907 -0.020398367 -0.046460774 -0.18921776 0.17190374
0.0016659345 0.18261452 0.17896931 0.12511718 0.11147873 0.118530855 -0.1819103 -0.11519881
0.17094183 -0.055749252 -0.18125679 -0.1742216 0.16654746 -0.030015465 0.04651114 0.124977194
-0.074539185 -0.19349591 0.04155666 -0.11647409 -0.033356503 0.110638395 0.064810924 0.053368866
-0.1154763 -0.07485869 0.11167189 -0.04555769 0.042558994 -0.016512444 -0.037214138 -0.087528504
0.14885779 -0.07254534 -0.04952066 -0.059103664 -0.10644939 0.17746274 -0.17893031 -0.14624289
0.109921925 0.1513603 0.11981322 -0.13878609 -0.019615289 0.16904464 0.123760365 -0.12459005
-0.11600402 0.2095061 0.07929423 0.16690138 -0.15504202 0.03768994 0.1533995 -0.15482727
0.035542816 -0.13559183 0.085708916 -0.043783486 -0.16358079 -0.025029588 0.043408312 -0.12134597
-0.01807334 0.14592057 -0.04393124 -0.026360475 -0.22186051 -0.14685772 -0.0707822 -0.14196539
0.10409801 -0.041552786 -0.0019104662 0.09740365 0.1473556 0.06938503 0.202932 0.12010611
0.06990497 0.08633732 0.11872284 -0.090456374 0.16970655 -0.07672365 0.17663752 -0.0129141705
0.1362489 -0.14826956 -0.031880874 -0.14319378 0.13038166 0.039077442 0.16331697 0.008717538
-0.14792912 0.050649907 0.07542448 -0.16123845 0.04477903 0.059665166 -0.17588358 0.13990904
-0.018707974 -0.10198439 0.0306421 0.1196195 0.054377895 -0.107814826 -0.019829415 0.024188975
0.14259264 -0.11415889 0.15676941 -0.023078999 0.099341065 -0.034173634 -0.14478987 -0.0756737
0.052439358 0.07395639 -0.0632049 -0.0011900424 -0.067958415 -0.058846604 0.009509446 -0.043150064
0.12510645 -0.04555 0.17419566 0.014526519 -0.20283318 0.031822443 -0.039168414 0.14728937
-0.0454525 -0.15240653 0.12020232 0.0088830395 -0.08700017 0.06573777
00000000: e0ae 843c e237 14be aaf1 f2bc 32e9 c3bc
00000010: 7a1a a7bc a74d 3ebd 4dc2 41be 8907 303e
00000020: 7c5b da3a 4dff 3a3e bb43 373e b81e 003e
00000030: f64e e43d 4ec0 f23d b246 3abe 5bed ebbd
00000040: 600b 2f3e 5459 64bd 619b 39be 2667 32be
00000050: 6b8b 2a3e fee2 f5bc 7782 3e3d 0bf4 ff3d
00000060: 00a8 98bd cb23 46be 5137 2a3d f889 eebd
00000070: d4a0 08bd 6296 e23d 97bb 843d 5099 5a3d
00000080: d77e ecbd 834f 99bd 3bb4 e43d b39a 3abd
00000090: 5752 2e3d 1b45 87bc da6d 18bd 2542 b3bd
000000a0: 2d6e 183e a792 94bd 2dd6 4abd af16 72bd
000000b0: 2302 dabd cbb8 353e 8239 37be b2c0 15be
000000c0: bf1e e13d 32fe 1a3e a260 f53d f11d 0ebe
000000d0: 3eb0 a0bc 0a1a 2d3e 1376 fd3d 1129 ffbd
000000e0: 8493 edbd c488 563e 0365 a23d 32e8 2a3e
000000f0: 56c3 1ebe c460 1a3d c214 1d3e 0a8b 1ebe
00000100: 5895 113d 96d8 0abe 2888 af3d 5056 33bd
00000110: b981 27be da0a cdbc eacc 313d 3c84 f8bd
00000120: 8b0e 94bc 346c 153e 3ef1 33bd ecf1 d7bc
00000130: 672f 63be df61 16be 42f6 90bd 605f 11be
00000140: 5631 d53d 4133 2abd 9c68 faba 917b c73d
00000150: 63e4 163e bd19 8e3d 68cd 4f3e 31fa f53d
00000160: 562a 8f3d 9fd1 b03d f624 f33d 3141 b9bd
00000170: 8ec7 2d3e 4a21 9dbd 77e0 343e f595 53bc
00000180: d584 0b3e fad3 17be 8595 02bd 64a1 12be
00000190: c582 053e ab0f 203d 903c 273e 01d4 0e3c
000001a0: bb7a 17be 4776 4f3d 2678 9a3d b11b 25be
000001b0: 376a 373d 7663 743d d31a 34be 5144 0f3e
000001c0: 7741 99bc 31dd d0bd 2405 fb3c 12fb f43d
000001d0: 5bbb 5e3d 05ce dcbd 4c71 a2bc f527 c63c
000001e0: ce03 123e 23cc e9bd 2988 203e 2b10 bdbc
000001f0: 5473 cb3d a7f9 0bbd cc43 14be d0fa 9abd
00000200: a7ca 563d 7376 973d 9271 81bd 32fb 9bba
00000210: c82d 8bbd 2309 71bd 82cd 1b3c 1fbe 30bd
00000220: e81b 003e a392 3abd 5960 323e a300 6e3c
00000230: 80b3 4fbe 4058 023d 0f6f 20bd 06d3 163e
00000240: 672c 3abd 7510 1cbe a22c f63d 2b8a 113c
00000250: 252d b2bd 86a1 863d

conv_time.bias f4 [15]
0.0011663692 0.0008084061 0.010929542 -0.0096738795 -0.005811417 0.0019857197 -5.5370725e-07 0.0028117807
0.007809032 0.0037932047 0.00019717906 0.01677505 -0.0059507643 -0.020586675 -0.013462283
00000000: dbe0 983a 37eb 533a d211 333c 317f 1ebc
00000010: b36d bebb d922 023b 79a2 14b5 da45 383b
00000020: e9e2 ff3b 6a97 783b dac1 4e39 d46b 893c
00000030: a1fe c2bb 63a5 a8bc e890 5cbc

bnorm.weight f4 [15]
0.9773344 1.0098039 1.0020335 0.9886261 1.019748 0.9887949 0.9792938 1.0011214
1.0005603 1.0223509 0.9929727 0.96980536 0.9930222 1.0413548 0.9940572
00000000: 9632 7a3f 4141 813f a242 803f 9a16 7d3f
00000010: 1a87 823f aa21 7d3f 00b3 7a3f bf24 803f
00000020: 5c12 803f 65dc 823f 7533 7e3f 2a45 783f
00000030: b436 7e3f 1d4b 853f 887a 7e3f

bnorm.bias f4 [15]
0.01745849 -0.0152779855 0.019800667 -0.031225706 -0.020563278 0.018915148 -0.004026389 -0.03002897
0.008420232 0.0049355654 0.011177562 0.025198175 0.0065022437 0.04644119 -0.004442128
00000000: 1b05 8f3c 8450 7abc 0235 a23c 0dcd ffbc
00000010: 5274 a8bc f1f3 9a3c cdef 83bb 51ff f5bc
00000020: 03f5 093c 86ba a13b 1822 373c 676c ce3c
00000030: c610 d53b 1e39 3e3d 458f 91bb

bnorm.running_mean f4 [15]
-0.02230465 0.00020737713 0.022007883 -0.03781128 -0.011898087 0.12930675 -0.10060074 -0.16146569
0.24201837 0.030673789 0.07151901 0.00021792272 0.028677683 -0.008656116 -0.056217905
00000000: 3eb8 b6bc 6073 5939 e049 b43c 00e0 1abd
00000010: 32f0 42bc fd68 043e c307 cebd 4357 25be
00000020: aad3 773e 9947 fb3c 8f78 923d 2f82 6439
00000030: 76ed ea3c 62d2 0dbc bf44 66bd

bnorm.running_var f4 [15]
0.028883066 0.047565456 0.012108837 0.022099858 0.008361564 0.40650964 0.24820751 0.6804577
1.3586026 0.03280554 0.1305345 0.008214277 0.034942113 0.013517906 0.0466819
00000000: 2e9c ec3c ffd3 423d 2564 463c c30a b53c
00000010: f1fe 083c 0822 d03e 1c2a 7e3e 7a32 2e3f
00000020: b1e6 ad3f 1a5f 063d d6aa 053e 2d95 063c
00000030: 761f 0f3d 357a 5d3c 8535 3f3d

block2.conv_2.weight f4 [15, 15, 10]
-0.116091475 -0.0033630307 -0.03834859 0.08390017 0.10085923 -0.07698398 -0.020067776 -0.075645134
-0.097306006 0.10000961 0.041601844 -0.0343951 -0.0797739 0.10211086 -0.0035415592 0.0776211
-0.14941144 -0.009425477 0.12025943 -0.09669016 0.061905835 -0.03444822 0.026405187 -0.1268888
-0.08992159 -0.12552379 -0.17521626 0.08987643 -0.033793185 0.027895391 -0.090863176 0.10575267
0.095211715 -0.10765388 -0.09297153 -0.07616463 -0.13535711 0.021273546 0.08109456 0.055174503
0.023825591 -0.045372054 -0.019733932 0.00782503 0.023203969 0.026498374 0.15920694 0.052720785
-0.10219434 -0.119480774 -0.11243341 0.09943491 0.0554204 -0.07554653 -0.08564693 0.093680665
0.0144472495 -0.11473054 -0.01897264 -0.10394633 0.016284412 -0.035892785 -0.093239166 -0.043307133
-0.01938025 0.030381326 0.0010194664 0.041882537 0.015953844 0.0003706437 0.083529875 -0.036163334
0.14575844 0.008163732 0.031395935 0.017625764 0.00024360207 -0.05295218 -0.06282612 -0.12116779
-0.006306228 -0.06575567 -0.1271369 -0.13918552 -0.090702355 -0.0018836126 0.13179922 -0.03988154
0.12141185 -0.049875855 0.1036666 0.07185693 -0.10566707 -0.02461758 -0.09282158 -0.12660897
0.09634816 0.028851608 0.053759653 -0.09809506 -0.06957005 0.0035507227 -0.12362832 -0.0038854638
0.071450666 0.037382957 0.052829053 -0.11161134 0.09910864 0.003970964 0.07590263 -0.09836545
0.019882549 0.019921953 -0.0020304248 0.1408024 0.116651185 0.0023830428 0.14329524 -0.044152874
-0.05617218 0.028895684 0.065449536 -0.008771698 0.12993897 0.07502299 -0.031101113 -0.006023977
0.109617926 -0.088282004 0.08773286 0.06973194 -0.13535148 -0.10018752 -0.017244084 0.12932652
-0.06437901 -0.17442039 0.09208748 -0.12396189 -0.018617555 0.018410556 -0.06966786 0.116392076
0.11858862 0.03359559 0.06658543 -0.008441153 0.00067043625 0.06068485 -0.022555027 -0.09197206
0.088655755 0.032888714 -0.11276662 -0.0459615 0.09018157 -0.076008156 -0.13892195 0.039597265
0.06064835 0.04651014 -0.11111257 0.08190843 -0.070045635 -0.02029386 -0.12998974 -0.13853668
-0.15490738 0.14093144 0.15117797 -0.12527545 0.0007260896 -0.13117102 -0.027333608 -0.019145139
-0.14521892 0.020212099 -0.084732115 -0.07004164 0.0911462 0.085274346 0.061247073 -0.07963355
0.1315172 -0.0914711 -0.106135845 0.015294356 -0.0703925 0.041710902 -0.011291341 -0.0021950847
-0.025099063 0.12114063 -0.13391744 -0.13593455 -0.040778298 0.12276597 -0.120510496 -0.0092645185
0.066458486 0.03702964 -0.10494583 0.13011461 -0.08259154 0.108239435 0.03042328 0.01989066
0.07987676 -0.003679673 -0.025706882 0.09793249 -0.0722124 -0.12592375 0.09974237 -0.117339626
0.050935082 0.13389885 -4.732415e-06 -0.030509219 0.13713355 0.020401288 0.11680559 0.13772808
0.03832771 -0.09098193 0.06460463 0.1396488 -0.103326306 -0.06202142 0.01710735 0.09917609
-0.08345873 0.08612156 0.094676726 -0.14725682 -0.08634909 0.11671328 -0.052859988 -0.015731158
0.06620897 0.08069454 0.100890435 -0.12246138 -0.016035235 -0.1324551 0.029970322 -0.014721216
-0.055579804 -0.07701851 0.03448932 -0.08763276 -0.114265844 -0.021402026 0.035584908 -0.122644514
00000000: 5ec1 edbd 4b66 5cbb 6913 1dbd dad3 ab3d
00000010: 498f ce3d c7a9 9dbd 2d65 a4bc d6eb 9abd
00000020: 5f48 c7bd d7d1 cc3d b266 2a3d e0e1 0cbd
00000030: 8060 a3bd 801f d13d 8119 68bb d0f7 9e3d
00000040: 50ff 18be 516d 1abc 934a f63d 7e05 c6bd
00000050: f990 7d3d 9419 0dbd b14f d83c 23ef 01be
00000060: d028 b8bd 4f89 00be e46b 33be 2211 b83d
00000070: b96a 0abd e084 e43c 7916 babd db94 d83d
00000080: 5cfe c23d a379 dcbd dc67 bebd 34fc 9bbd
00000090: 0e9b 0abe dc45 ae3c e814 a63d a9fe 613d
000000a0: e32d c33c 0cd8 39bd 0ea9 a1bc 8e34 003c
000000b0: 4016 be3c 1e13 d93c 2507 233e c0f1 573d
000000c0: 444b d1bd 56b2 f4bd 7d43 e6bd 88a4 cb3d
000000d0: 8000 633d 24b8 9abd a867 afbd a6db bf3d
000000e0: 28b4 6c3c d8f7 eabd 836c 9bbc d0e1 d4bd
000000f0: e366 853c 5004 13bd 2df4 bebd d262 31bd
00000100: 54c3 9ebc 42e2 f83c 9e9f 853a 068d 2b3d
00000110: a3b1 823c f552 c239 b611 ab3d 0120 14bd
00000120: b341 153e 2cc1 053c 0699 003d e863 903c
00000130: 6f6f 7f39 63e4 58bd fbaa 80bd d126 f8bd
00000140: 7aa4 cebb e9aa 86bd 2d30 02be a686 0ebe
00000150: 28c2 b9bd 8de3 f6ba 60f6 063e d35a 23bd
00000160: c7a6 f83d a04a 4cbd 284f d43d ba29 933d
00000170: fa67 d8bd cfaa c9bc 3e19 bebd c8a5 01be
00000180: 2f52 c53d 355a ec3c 1533 5c3d 10e6 c8bd
00000190: be7a 8ebd 3eb3 683b d830 fdbd 44a3 7ebb
000001a0: ba54 923d df1e 193d 4763 583d 7c94 e4bd
000001b0: 78f9 ca3d dc1e 823b d772 9b3d d373 c9bd
000001c0: bae0 a23c 5d33 a33c e010 05bb 812e 103e
000001d0: d1e6 ee3d d32c 1c3b fdbb 123e a5d9 34bd
000001e0: cd14 66bd a4b6 ec3c 680a 863d 2bb7 0fbc
000001f0: b90e 053e a7a5 993d c3c7 febc c864 c5bb
00000200: 5d7f e03d 32cd b4bd 49ad b33d 9fcf 8e3d
00000210: 9499 0abe 1d2f cdbd 7743 8dbc 2c6e 043e
00000220: 24d9 83bd 429b 32be 5c98 bc3d bbdf fdbd
00000230: d883 98bc bcd1 963c 06ae 8ebd f85e ee3d
00000240: 97de f23d 889b 093d f15d 883d c34c 0abc
00000250: 37c0 2f3a ad90 783d 52c5 b8bc d95b bcbd
00000260: 2691 b53d 51b6 063d 30f2 e6bd 2042 3cbd
00000270: 1db1 b83d 2aaa 9bbd 8e41 0ebe be30 223d
00000280: 676a 783d 6b81 3e3d fd8e e3bd 9bbf a73d
00000290: 1674 8fbd 4f3f a6bc 081c 05be 8fdc 0dbe
000002a0: 0aa0 1ebe 5550 103e 66ce 1a3e 3548 00be
000002b0: 0c57 3e3a b251 06be bbea dfbc 44d6 9cbc
000002c0: 45b4 14be d893 a53c 0888 adbd fe71 8fbd
000002d0: dcaa ba3d 51a4 ae3d 36de 7a3d ea16 a3bd
000002e0: 72ac 063e 3355 bbbd c05d d9bd 2e95 7a3c
000002f0: f129 90bd 0dd9 2a3d 51ff 38bc 69db 0fbb
00000300: 8d9c cdbc 9418 f83d a721 09be 6d32 0bbe
00000310: 2507 27bd ba6c fb3d 35ce f6bd 35ca 17bc
00000320: 631b 883d 64ac 173d d7ed d6bd c43c 053e
00000330: c125 a9bd a3ac dd3d 3e3a f93c bdf1 a23c
00000340: 6d96 a33d ab26 71bb 3d97 d2bc d490 c83d
00000350: 18e4 93bd 28f2 00be ba45 cc3d c24f f0bd
00000360: 4ea1 503d c81c 093e 23cb 9eb6 78ee f9bc
00000370: bd6c 0c3e 9a20 a73c c537 ef3d 9708 0d3e
00000380: 84fd 1c3d bc54 babd 6f4f 843d 1800 0f3e
00000390: be9c d3bd 2c0a 7ebd b724 8c3c d51c cb3d
000003a0: 69ec aabd 8060 b03d dfe5 c13d 7eca 16be
000003b0: cbd7 b0bd 5f07 ef3d b783 58bd a1de 80bc
000003c0: 9298 873d 2e43 a53d a59f ce3d 08cd fabd
000003d0: 535c 83bc 4fa2 07be 5284 f53c 4131 71bc
000003e0: a6a7 63bd e1bb 9dbd ac44 0d3d ce78 b3bd
000003f0: 3604 eabd 4d53 afbc 7bc1 113d 0c2d fbbd

block2.bnorm_2.weight f4 [15]
0.9971133 1.0476204 0.9908257 0.99880975 0.9934554 0.985279 0.9523229 1.0163616
0.98456526 1.033699 1.0049348 1.0028479 1.0071847 0.9919178 1.0513365
00000000: d142 7f3f 6d18 863f c1a6 7d3f ffb1 7f3f
00000010: 1853 7e3f 3f3b 7c3f 6fcb 733f 2318 823f
00000020: 780c 7c3f 4050 843f b4a1 803f 525d 803f
00000030: 6eeb 803f 53ee 7d3f 3292 863f

block2.bnorm_2.bias f4 [15]
-0.006876066 0.09477021 0.018721579 -7.402219e-05 -0.010528563 -0.026082473 -0.018882096 0.008037951
-0.0051532146 0.028310487 -0.009853384 -0.013253101 0.03567728 -0.0023754416 0.046389457
00000000: 9f50 e1bb e216 c23d ff5d 993c 5c3c 9bb8
00000010: fe7f 2cbc e9aa d5bc a0ae 9abc 9cb1 033c
00000020: 4cdc a8bb 65eb e73c 1770 21bc 8923 59bc
00000030: 5722 123d 4cad 1bbb df02 3e3d

block2.bnorm_2.running_mean f4 [15]
-0.18165879 -0.1090955 -0.5589212 0.10206335 -0.15824646 -0.04092395 -0.2088979 -0.4038131
0.605294 0.034026 0.22806144 0.24680276 -0.24998389 0.1177167 -0.27206227
00000000: c304 3abe 766d dfbd 7615 0fbf 9706 d13d
00000010: 5c0b 22be df9f 27bd 55e9 55be 97c0 cebe
00000020: 8cf4 1a3f d95e 0b3d f088 693e ddb9 7c3e
00000030: c7fb 7fbe 7415 f13d bf4b 8bbe

block2.bnorm_2.running_var f4 [15]
0.6578268 0.5534057 1.7089827 0.6963985 0.54488295 0.6572255 0.7104661 0.8424944
0.95988995 0.36514828 0.714663 0.3600313 0.53460634 0.91883683 0.5296921
00000000: 5667 283f ffab 0d3f f2bf da3f 2c47 323f
00000010: 737d 0b3f ee3f 283f 1be1 353f b7ad 573f
00000020: 59bb 753f b7f4 ba3e 28f4 363f 0656 b83e
00000030: f6db 083f e438 6b3f e799 073f

block3.conv_3.weight f4 [30, 15, 10]
0.059130173 0.021858323 -0.0872228 0.025130538 -0.10004701 -0.02802793 0.03922897 -0.08621436
0.048181027 0.006303162 0.054942045 -0.08089566 -0.06037491 0.06167198 -0.045131043 0.05118002
0.008453727 -0.055279776 0.048159074 -0.04012819 0.08070142 0.022031838 0.106034115 -0.009866013
0.07679615 0.06599682 0.023376923 -0.08429554 -0.015712278 -0.07243686 -0.021650003 -0.07903004
-0.11326713 0.012045143 -0.013788136 -0.099980496 0.056677785 0.09034816 0.11732892 0.06208029
-0.08296384 -0.06166765 -0.117406696 -0.090304695 -0.052665368 0.050106175 0.061903857 0.06930014
0.08424618 0.04820582 -0.07933736 0.07672521 -0.05246724 0.02594285 -0.0039238054 0.015191168
0.013553692 -0.05288479 0.052734327 -0.06413768 -0.083597936 0.066078834 0.061740108 0.03491438
-0.08011341 0.07916052 0.108170874 -0.0028510548 -0.04862998 -0.06303656 0.113729246 -0.05869018
-0.09031551 0.022241307 0.08140338 0.10666777 0.06542215 0.0412476 -0.05066617 -0.0146753155
0.059260685 0.0050967396 0.03171364 -0.11876739 0.045388382 0.03675049 0.044519898 -0.016406639
0.091575846 0.07251875 -0.13783139 -0.07927902 -0.07308773 0.081605054 -0.06258833 0.03082543
-0.10552865 -0.055942446 -0.06489608 0.047320638 -0.096846074 -0.09385113 -0.020407973 0.009454051
-0.08609314 -0.04098409 0.012540737 -0.07715924 0.06346017 -0.086963534 -0.1006217 -0.025521372
0.073944256 0.064849354 -0.032623876 -0.034664985 0.0014177028 -0.06517449 -0.0116675785 0.013873109
-0.093667455 0.09323351 0.07324091 0.06039295 -0.1078638 -0.06760994 -0.011948568 -0.035709284
-0.05635545 0.13689683 0.058119517 0.10338434 -0.06326698 0.09185243 0.09515825 0.06718266
-0.024575228 -0.013216511 0.018599065 0.093114205 -0.018077808 0.11663137 -0.01812082 -0.0624763
0.05055418 -0.0683172 -0.07568763 0.13299693 -0.0039264183 -0.0073888404 0.09541724 0.037902035
-0.0056813317 0.058805596 -0.024455035 0.07389645 0.02767962 -0.08818796 -0.12563471 -0.052527092
0.090434104 -0.06700536 -0.076664135 -0.06801399 -0.06925841 0.0022288735 0.052654024 -0.07747676
-0.13475241 -0.035353288 -0.029436707 0.064760335 -0.028377468 0.091637835 0.08589538 -0.05171091
-0.057899 -0.009005277 -0.08567256 0.021504588 -0.11078422 0.08128636 -0.095980704 0.05329032
0.028735718 0.08142141 -0.09989331 -0.028116334 -0.05765511 -0.019633356 -0.09972165 -0.00449012
0.010173008 0.08021788 0.009083453 -0.060542963 -0.11426471 0.08067177 -0.10299081 -0.001264488
0.05824915 0.0029280223 0.03513894 -0.0065121427 -0.10170582 0.07434332 -0.07531633 0.07566913
-0.0915344 0.053046227 -0.031399358 0.05450467 0.1077845 -0.05031363 0.03873067 0.022539759
-0.07243071 -0.0617067 -0.13065125 0.08974702 -0.10681514 -0.0024969932 -0.029798167 0.15795076
-0.004236229 -0.0025548711 0.07253399 -0.086733535 0.06656016 0.06989955 -0.0606097 0.08730955
0.037904695 -0.13131088 0.048352 -0.029551731 0.07151179 0.095196225 -0.09561082 0.08505724
0.07154441 0.024952035 0.059903994 0.022821788 -0.10652215 -0.014449132 0.08905454 -0.030737426
-0.11711707 -0.122507975 -0.13202745 -0.10223938 0.024711534 -0.008140677 -0.09438142 -0.059660576
00000000: 7b32 723d 3a10 b33c dea1 b2bd 8fde cd3c
00000010: 72e5 ccbd d49a e5bc 8eae 203d 2891 b0bd
00000020: 7859 453d c18a ce3b e90a 613d a0ac a5bd
00000030: ae4b 77bd c29b 7c3d 54db 38bd 24a2 513d
00000040: 8081 0a3c 0c6d 62bd 7342 453d 755d 24bd
00000050: c946 a53d 1d7c b43c 6a28 d93d 0fa5 21bc
00000060: 4d47 9d3d 5729 873d f680 bf3c 24a3 acbd
00000070: 09b7 80bc c759 94bd 595b b1bc 80da a1bd
00000080: 99f8 e7bd fe58 453c a2e7 61bc 93c2 ccbd
00000090: f726 683d 7508 b93d 254a f03d e747 7e3d
000000a0: f2e8 a9bd 3897 7cbd ec72 f0bd abf1 b8bd
000000b0: a4b7 57bd 223c 4d3d e68e 7d3d 3bed 8d3d
000000c0: 4389 ac3d 7773 453d a07b a2bd 1b22 9d3d
000000d0: e3e7 56bd 1a86 d43c 4493 80bb 60e4 783c
000000e0: 4e10 5e3c b99d 58bd f3ff 573d 9e5a 83bd
000000f0: 6535 abbd 5754 873d 32e3 7c3d 6202 0f3d
00000100: 8012 a4bd e91e a23d b188 dd3d c3d8 3abb
00000110: 3b30 47bd 5019 81bd e1ea e83d 1d65 70bd
00000120: 57f7 b8bd 6733 b63c d1b6 a63d a274 da3d
00000130: 0cfc 853d 3ef3 283d 5487 4fbd bc70 70bc
00000140: 55bb 723d 8d02 a73b 29e6 013d 513c f3bd
00000150: 2be9 393d af87 163d 7f5a 363d 3767 86bc
00000160: 1e8c bb3d b684 943d ac23 0dbe 0a5d a2bd
00000170: 05af 95bd 8d20 a73d 4f2e 80bd 9d85 fc3c
00000180: 681f d8bd e823 65bd 3ce8 84bd 49d3 413d
00000190: 3c57 c6bd 0535 c0bd 9f2e a7bc 2ae5 1a3c
000001a0: 9a51 b0bd efde 27bd aa77 4d3c aa05 9ebd
000001b0: 68f7 813d f019 b2bd c012 cebd 3212 d1bc
000001c0: 1670 973d bdcf 843d 9da0 05bd dffc 0dbd
000001d0: 36d2 b93a 347a 85bd 5f29 3fbc 094c 633c
000001e0: b9d4 bfbd 36f1 be3d 55ff 953d 995e 773d
000001f0: b2e7 dcbd 1577 8abd edc3 43bc e643 12bd
00000200: f9d4 66bd af2e 0c3e bb0e 6e3d 2bbb d33d
00000210: 1e92 81bd 201d bc3d 54e2 c23d 1097 893d
00000220: fd51 c9bc 118a 58bc 115d 983c a9b2 be3d
00000230: e917 94bc 6ddc ee3d 1d72 94bc 26e7 7fbd
00000240: e611 4f3d e3e9 8bbd 1e02 9bbd 5930 083e
00000250: 2fa9 80bb 161e f2bb 1d6a c33d 2a3f 1b3d
00000260: 772a babb 23de 703d ed55 c8bc 0657 973d
00000270: 5fc0 e23c e49b b4bd 63a6 00be a626 57bd
00000280: 8435 b93d 1b3a 89bd 1602 9dbd eb4a 8bbd
00000290: 5ad7 8dbd 4b12 123b bfab 573d 23ac 9ebd
000002a0: 89fc 09be 9cce 10bd 4025 f1bc 11a1 843d
000002b0: dd77 e8bc 9eac bb3d ebe9 af3d d2ce 53bd
000002c0: 8027 6dbd df8a 13bc 1875 afbd 642a b03c
000002d0: d6e2 e2bd 7779 a63d 8891 c4bd f346 5a3d
000002e0: 2b67 eb3c 45c0 a63d dd94 ccbd 3a54 e6bc
000002f0: c427 6cbd 22d6 a0bc dd3a ccbd db21 93bb
00000300: b0ac 263c 4649 a43d c3d2 143c e6fb 77bd
00000310: 9e03 eabd 3e37 a53d d9ec d2bd 2dbd a5ba
00000320: a996 6e3d 10e4 3f3b d9ed 0f3d d063 d5bb
00000330: 244b d0bd 5041 983d 733f 9abd 6bf8 9a3d
00000340: 6376 bbbd 0047 593d 9d9c 00bd 4a40 5f3d
00000350: 1fbe dc3d aa15 4ebd 0da4 1e3d 4da5 b83c
00000360: 8d56 94bd 2ac0 7cbd 71c9 05be 49cd b73d
00000370: e5c1 dabd 98a4 23bb 491b f4bc d8bd 213e
00000380: 11d0 8abb a06f 27bb b38c 943d 5aa1 b1bd
00000390: b150 883d 7f27 8f3d e041 78bd 59cf b23d
000003a0: f441 1b3d 5c76 06be bf0c 463d 7916 f2bc
000003b0: c674 923d 3df6 c23d 9bcf c3bd 7e32 ae3d
000003c0: e085 923d 3668 cc3c e45d 753d c2f4 ba3c
000003d0: 4928 dabd 0dbc 6cbc 3a62 b63d 0ecd fbbc
000003e0: 13db efbd 76e5 fabd 3432 07be e162 d1bd
000003f0: d86f ca3c 7960 05bc 0c4b c1bd a65e 74bd

block3.bnorm_3.weight f4 [30]
1.0322318 1.0396787 1.0158813 1.0438601 1.0161422 1.0126785 0.9722214 0.9992902
1.0134019 0.99981356 0.980399 0.9755533 1.0019373 1.0091072 0.9960924 1.0131038
0.99364096 0.99995726 1.0052094 0.9912803 0.9938453 1.011933 0.9857174 1.0012887
0.9911112 1.0754297 1.006944 0.97390026 1.0066009 0.996991
00000000: 2c20 843f 3114 853f 6608 823f 359d 853f
00000010: f310 823f 739f 813f 80e3 783f 7cd1 7f3f
00000020: 27b7 813f c8f3 7f3f 6efb 7a3f dcbd 793f
00000030: 7b3f 803f 6d2a 813f e9ff 7e3f 63ad 813f
00000040: 415f 7e3f 33fd 7f3f b4aa 803f 8cc4 7d3f
00000050: a56c 7e3f 0587 813f fa57 7c3f 3a2a 803f
00000060: 77b9 7d3f aea7 893f 8ae3 803f 8751 793f
00000070: 4cd8 803f cd3a 7f3f

block3.bnorm_3.bias f4 [30]
0.010527397 0.044439405 0.0143313445 0.06788963 0.011350267 0.025522752 0.012057363 -0.024334425
0.01560311 0.0055617825 -0.011156965 0.020529581 -0.014570379 0.0040673297 -0.009605944 0.016463868
-0.0142426565 -0.008465596 -0.01819011 0.012160534 -0.024847304 0.022056913 0.0066812905 -0.032459512
-0.0042918078 0.065194815 -0.010155244 -0.0009840233 0.00933852 -0.0131590525
00000000: 1a7b 2c3c 1806 363d 04ce 6a3c b809 8b3d
00000010: 78f6 393c 1715 d13c 3f8c 453c fd58 c7bc
00000020: 30a4 7f3c 9d3f b63b b4cb 36bc a72d a83c
00000030: 99b8 6ebc 3c47 853b 4062 1dbc 3cdf 863c
00000040: 085a 69bc 48b3 0abc 6d03 95bc fa3c 473c
00000050: 938c cbbc b3b0 b43c baee da3b 44f4 04bd
00000060: 4ba2 8cbb dc84 853d 2e62 26bc 58fa 80ba
00000070: 9700 193c 1199 57bc

block3.bnorm_3.running_mean f4 [30]
-0.047936562 -0.23947105 -0.3418668 -0.22975445 0.082334556 -0.12885123 -0.20040862 0.1856987
-0.27682367 -0.47679085 -0.057513453 -0.2697884 -0.118822865 -0.24291995 -0.53377384 -0.5133469
-0.24562897 -0.4149849 0.047562648 -0.19830893 -0.12193516 -0.26043046 -0.06277371 -0.31376266
0.49267727 -0.31812292 0.08182588 -0.30877006 -0.3513426 0.25347582
00000000: 2159 44bd e637 75be 2a09 afbe c044 6bbe
00000010: 059f a83d 94f1 03be eb37 4dbe cd27 3e3e
00000020: d5bb 8dbe ee1d f4be 3a93 6bbd b521 8abe
00000030: 6759 f3bd 02c0 78be 67a5 08bf b46a 03bf
00000040: 2986 7bbe e778 d4be 0dd1 423d 7f11 4bbe
00000050: 24b9 f9bd 2457 85be 818f 80bd 80a5 a0be
00000060: 3240 fc3e 02e1 a2be 5494 a73d 1c17 9ebe
00000070: 2de3 b3be 95c7 813e

block3.bnorm_3.running_var f4 [30]
0.2982744 0.18694365 0.79294395 0.35296232 0.26633224 0.3791482 0.36619145 0.74798346
0.31420663 0.46038198 0.5767097 0.4002491 0.24109684 0.48471433 0.5868974 0.68470186
0.45945716 0.49437135 0.32720128 0.35937968 0.38378957 0.5243177 0.4188762 0.3682239
0.6871173 0.47614095 0.2314066 0.86570925 0.39694476 0.36952034
00000000: 6cb7 983e 286e 3f3e 60fe 4a3f 7ab7 b43e
00000010: b35c 883e b61f c23e 727d bb3e d87b 3f3f
00000020: b1df a03e 30b7 eb3e 3fa3 133f 73ed cc3e
00000030: 17e2 763e 7a2c f83e e83e 163f 9f48 2f3f
00000040: f83d eb3e 3e1e fd3e ed86 a73e 9d00 b83e
00000050: 1180 c43e af39 063f f176 d63e d887 bc3e
00000060: ebe6 2f3f bfc8 f33e daf5 6c3e 1f9f 5d3f
00000070: 583c cb3e c531 bd3e

block4.conv_4.weight f4 [30, 30, 10]
-0.00097108056 -0.022210287 0.04351542 -0.03229774 0.079543054 0.032266412 0.046587784 0.080765426
0.11003127 -0.06567382 -0.039535966 -0.066609375 0.053567853 -0.018268263 0.05025637 -0.060865045
-0.012649165 -0.051379982 0.002978504 -0.004163581 0.09090291 0.062093034 -0.06162445 -0.08201154
0.024388583 -0.07228729 -0.09460107 -0.086804666 -0.02230318 -0.009597666 -0.04345003 -0.034663264
-0.036420316 0.09147122 -0.03595683 -0.07059371 0.09474954 0.013323321 0.005367243 0.08844137
-0.009017519 0.09853068 -0.06383049 0.037047353 0.01285205 0.0786385 0.046634726 0.009418736
-0.07031333 -0.0499495 0.017836304 0.053136293 0.05841081 0.02889216 -0.07323792 -0.0032248846
-0.004433531 0.03275187 0.08494591 0.03986986 0.002432432 -0.007091974 0.07923681 0.04125591
-0.072727725 0.08628236 -0.042605598 -0.00012827909 0.0053994185 -0.050677534 -0.0022579557 0.045435626
-0.036418915 -0.00063684577 0.045778453 0.08753977 -0.012630607 0.015988665 0.023232205 -0.0011830686
-0.033046518 -0.10756068 0.02674808 -0.05587684 -0.06937263 0.036515992 0.026264781 0.021765182
-0.011351731 0.07683279 0.06085751 0.09555561 0.07423555 -0.11839084 0.05076338 -0.03367261
0.043669146 -0.05928274 -0.08717708 0.07470242 -0.049626738 -0.07019498 -0.00028464288 -0.1057678
-0.07173473 0.027592115 0.060863428 0.07580886 -0.025752544 -0.030123295 0.0029933578 -0.085787624
-0.07331779 -0.0214083 0.045492053 -0.024117114 0.057712466 0.09664526 -0.039549023 0.04497917
0.02462858 -0.079929516 -0.022538107 -0.11131607 0.028398987 0.053842217 0.023747677 -0.104418896
-0.005236805 0.018661855 -0.08534804 -0.08076523 -0.11257113 -0.08442472 -0.054118562 -0.008266682
0.018059885 -0.09481685 0.0053085526 0.047556963 -0.07657805 -0.03630685 -0.016582578 -0.06513726
-0.05588981 0.09614008 -0.014929873 0.015065907 0.07349952 -0.029223144 0.08712859 0.013360031
0.03988463 0.002200819 0.093809724 0.006688105 -0.013151784 -0.07717249 -0.008038261 -0.05649969
0.047648214 0.010278621 0.06847942 -0.07448011 -0.10525748 0.048224427 0.04422504 0.034028757
0.022870805 -0.011946578 -0.118168645 -0.08713519 -0.019587547 -0.02123922 0.05781981 0.08377222
0.084518574 -0.09849439 0.09417788 0.050487887 0.08180963 -0.05769628 -0.06404811 0.07921789
0.0020857777 0.03857933 -0.09689986 -0.03513946 0.015432182 -0.022556875 0.024927394 0.1225099
0.014525217 -0.019115632 -0.048718892 -0.010093281 -0.07328956 0.0038893465 -0.055079937 -0.016679969
-0.05805675 -0.017294552 0.011162596 -0.0731379 -0.0072860653 -0.0842209 -0.060546994 0.08578121
-0.0012629953 0.040823776 -0.109377734 -0.06668867 0.054572914 0.03958013 0.07757146 -0.05741426
-0.0560222 -0.089227095 -0.015004824 -0.06724835 0.0490389 -0.04022205 -0.043321606 -0.002695502
-0.054568823 -0.084670074 0.082897715 0.081060685 0.07559555 -0.0317415 0.065156125 -0.10577054
0.022328991 0.016816111 0.06742352 -0.04242841 0.04800322 -0.05249015 0.109432966 0.104253605
-0.07750117 0.08834641 0.06850248 0.021097453 -0.06963629 0.09695304 0.0070118615 0.044296417
0.028732218 0.11562414 -0.023539985 0.0015843491 0.08161411 -0.048817683 -0.02069985 -0.015142165
00000000: 1d90 7eba 59f2 b5bc 3a3d 323d a34a 04bd
00000010: 78e7 a23d c929 043d d5d2 3e3d 5868 a53d
00000020: 1358 e13d ff7f 86bd 77f0 21bd 7f6a 88bd
00000030: f769 5b3d 53a7 95bc a0d9 4d3d a04d 79bd
00000040: 713e 4fbc d173 52bd 0133 433b a66e 88bb
00000050: 4e2b ba3d 4455 7e3d eb69 7cbd abf5 a7bd
00000060: 91ca c73c 5c0b 94bd 35be c1bd a5c6 b1bd
00000070: 29b5 b6bc 873f 1dbc a9f8 31bd 11fb 0dbd
00000080: 782d 15bd 4355 bb3d 7847 13bd 6f93 90bd
00000090: 0c0c c23d 0f4a 5a3c b3df af3b c020 b53d
000000a0: 37be 13bc 74ca c93d 8fb9 82bd f7be 173d
000000b0: 6891 523c 390d a13d 0e04 3f3d 0b51 1a3c
000000c0: 6f00 90bd d997 4cbd 711d 923c 71a5 593d
000000d0: 2c40 6f3d 40af ec3c c3fd 95bd 9658 53bb
000000e0: 2747 91bb d326 063d 1ff8 ad3d 944e 233d
000000f0: 7069 1f3b ca63 e8bb e946 a23d f5fb 283d
00000100: 46f2 94bd ceb4 b03d 3583 2ebd a882 06b9
00000110: 9bed b03b 3f93 4fbd 36fa 13bb b51a 3a3d
00000120: 002c 15bd fff1 26ba 3082 3b3d 0d48 b33d
00000130: 9bf0 4ebc a9fa 823c 7751 be3c 3211 9bba
00000140: c95b 07bd c648 dcbd ca1e db3c 1ddf 64bd
00000150: 3d13 8ebd cb91 153d 3d29 d73c e54c b23c
00000160: 9cfc 39bc 835a 9d3d b945 793d a9b2 c33d
00000170: cf08 983d e676 f2bd 43ed 4f3d 4aec 09bd
00000180: 6bde 323d 75d2 72bd e689 b2bd 95fd 983d
00000190: 6845 4bbd 63c2 8fbd 1f3c 95b9 ca9c d8bd
000001a0: a8e9 92bd dc08 e23c ee4b 793d ad41 9b3d
000001b0: 00f7 d2bc 21c5 f6bc 362c 443b 6cb1 afbd
000001c0: a327 96bd 7660 afbc e055 3a3d 4191 c5bc
000001d0: e863 6c3d f3ed c53d 28fe 21bd 143c 383d
000001e0: e0c1 c93c 16b2 a3bd d6a1 b8bc aef9 e3bd
000001f0: fea4 e83c a889 5c3d 7d8a c23c 93d9 d5bd
00000200: 8199 abbb bfe0 983c f4ca aebd 3e68 a5bd
00000210: b18b e6bd dee6 acbd 6dab 5dbd fa70 07bc
00000220: 53f2 933c 562f c2bd 5ef3 ad3b 17cb 423d
00000230: f4d4 9cbd 7eb6 14bd 30d8 87bc af66 85bd
00000240: b7ec 64bd 17e5 c43d 6d9c 74bc fed6 763c
00000250: eb86 963d 6065 efbc 7970 b23d 08e4 5a3c
00000260: 115e 233d 9e3b 103b 501f c03d e427 db3b
00000270: 957a 57bc 9c0c 9ebd e9b2 03bc 386c 67bd
00000280: c62a 433d a967 283c f03e 8c3d 0789 98bd
00000290: 3c91 d7bd fa86 453d 5125 353d bd61 0b3d
000002a0: 8e5b bb3c 94bb 43bc 6702 f2bd ef73 b2bd
000002b0: 1076 a0bc dffd adbc 77d4 6c3d c590 ab3d
000002c0: 1318 ad3d 6db7 c9bd 55e0 c03d 63cc 4e3d
000002d0: cf8b a73d ef52 6cbd a82b 83bd fd3c a23d
000002e0: 8bb1 083b 5c05 1e3d 6f73 c6bd 65ee 0fbd
000002f0: 43d7 7c3c 32c9 b8bc 8934 cc3c 78e6 fa3d
00000300: 2dfb 6d3c 6398 9cbc 768d 47bd 4a5e 25bc
00000310: d618 96bd 68e4 7e3b 809b 61bd 6ea4 88bc
00000320: eacc 6dbd 4ead 8dbc 52e3 363c 53c9 95bd
00000330: f2bf eebb 027c acbd 2000 78bd 0fae af3d
00000340: 178b a5ba d536 273d 6f01 e0bd 1294 88bd
00000350: d987 5f3d c61e 223d c9dd 9e3d 372b 6bbd
00000360: 8977 65bd b2bc b6bd cbd6 75bc 81b9 89bd
00000370: 03dd 483d e0bf 24bd ff71 31bd 05a7 30bb
00000380: 8f83 5fbd 8167 adbd 47c6 a93d 2503 a63d
00000390: d7d1 9a3d 6003 02bd 9370 853d 3a9e d8bd
000003a0: 4aeb b63c f1c1 893c 5815 8a3d 6ac9 2dbd
000003b0: 069f 443d e9ff 56bd 641e e03d ea82 d53d
000003c0: efb8 9ebd f6ee b43d 074b 8c3d 91d4 ac3c
000003d0: 799d 8ebd 518f c63d c2c3 e53b 2970 353d
000003e0: d45f eb3c 59cc ec3d edd6 c0bc efa9 cf3a
000003f0: 4c25 a73d 0df5 47bd bb92 a9bc d816 78bc

block4.bnorm_4.weight f4 [30]
0.9969071 1.037967 1.0017633 1.01446 1.0174878 1.0575862 1.0346586 1.0277723
1.0388967 1.0297748 0.99049866 1.0092623 1.0053211 1.0020273 1.0483478 1.0344235
1.0319327 1.0170985 1.0240417 1.0505701 1.0410099 1.0465925 1.0194678 0.99540347
0.997053 0.98658997 1.0711988 1.0512583 1.0377204 1.0058026
00000000: 4e35 7f3f 1adc 843f c839 803f d3d9 813f
00000010: 0a3d 823f fc5e 873f b16f 843f 0b8e 833f
00000020: 91fa 843f a9cf 833f 5291 7d3f 822f 813f
00000030: 5dae 803f 6e42 803f 4330 863f fd67 843f
00000040: 5f16 843f 4930 823f cc13 833f 1579 863f
00000050: d03f 853f bef6 853f ec7d 823f c3d2 7e3f
00000060: de3e 7f3f 2991 7c3f 0b1d 893f a28f 863f
00000070: 06d4 843f 24be 803f

block4.bnorm_4.bias f4 [30]
-0.013378532 0.010417753 -0.016288754 -0.007983214 -0.007818409 0.005450416 -0.00084406725 -0.017032588
0.012748409 -0.009835112 -0.01657333 -0.01275543 -0.014839606 -0.014891749 0.010918121 0.009263832
-0.016888538 -0.0036882556 -0.012304277 0.009507739 0.005562188 0.010280688 -0.0046510794 -0.009031668
-0.0075575165 -0.023575107 -0.0021798133 0.0023242722 0.0029133256 -0.011640033
00000000: a131 5bbc 39af 2a3c fe6f 85bc 07cc 02bc
00000010: c918 00bc 6799 b23b 6544 5dba ed87 8bbc
00000020: b4de 503c 7323 21bc cbc4 87bc 27fc 50bc
00000030: d221 73bc 86fc 73bc ebe1 323c 54c7 173c
00000040: d559 8abc a9b6 71bb e197 49bc 59c6 1b3c
00000050: 0443 b63b 5570 283c 1568 98bb 90f9 13bc
00000060: 0ba5 f7bb 9520 c1bc 33db 0ebb d152 183b
00000070: 7eed 3e3b d6b5 3ebc

block4.bnorm_4.running_mean f4 [30]
-0.11061432 -0.4819111 0.24898882 -0.0930704 0.19520605 0.20767376 -0.7857997 0.5978971
-0.1889525 0.123119734 0.07636517 -0.30380446 0.5955112 -0.35308123 0.1485729 0.09266733
0.576301 0.0904893 0.1116611 0.12533139 0.5036075 -0.18742779 0.31682032 0.4154771
0.16938356 -0.24043578 0.41497728 0.17830572 0.3227408 -0.44991532
00000000: c389 e2bd 0dbd f6be edf6 7e3e b29b bebd
00000010: 18e4 473e 6ea8 543e 2b2a 49bf c90f 193f
00000020: c47c 41be 3326 fc3d 5865 9c3d 428c 9bbe
00000030: 6c73 183f 10c7 b4be 7f23 183e 5ec8 bd3d
00000040: 7688 133f 7452 b93d 93ae e43d df56 003e
00000050: 6cec 003f 12ed 3fbe 4636 a23e 6ab9 d43e
00000060: e272 2d3e cc34 76be e777 d43e c695 363e
00000070: 483e a53e 4d5b e6be

block4.bnorm_4.running_var f4 [30]
0.5759219 0.50358164 0.3425495 0.38644454 0.46589318 0.26810148 0.5960768 0.61657405
0.6339235 0.36460027 0.49075678 0.27315086 0.52528924 0.48758948 0.53808594 0.43333372
0.6613732 0.52860147 0.42744726 0.4702391 0.43437004 0.35828295 0.20888598 0.5523715
0.32432017 1.3220059 0.35927913 0.3894388 0.36182612 0.3485029
00000000: 9e6f 133f baea 003f a662 af3e 0fdc c53e
00000010: 8d89 ee3e 9944 893e 7d98 183f ccd7 1d3f
00000020: cf48 223f e3ac ba3e 7944 fb3e 6eda 8b3e
00000030: 5b79 063f 54a5 f93e 00c0 093f ebdd dd3e
00000040: c14f 293f 6d52 073f 5eda da3e 2ec3 f03e
00000050: c065 de3e dd70 b73e 35e6 553e 3868 0d3f
00000060: 4b0d a63e 7d37 a93f 6ff3 b73e 8664 c73e
00000070: 4641 b93e f96e b23e

conv_channel_res.weight f4 [1, 30, 3]
0.021994062 -0.03811089 -0.035404623 -0.026402766 0.06174185 0.05852658 -0.016130973 -0.10670932
-0.01695264 -0.12131783 -0.108156264 -0.09417437 -0.09683029 -0.10970686 -0.10921935 -0.054141153
0.13557044 0.15166666 0.09000862 -0.0566085 0.052172355 -0.037946932 -0.078169644 -0.104802094
0.013281865 0.04987398 0.054097094 -0.10994608 -0.06986285 -0.12647858 0.060893662 -0.097470865
0.005275412 -0.044122282 -0.09492543 -0.04918727 0.009694904 -0.023986705 -0.08558331 -0.093134955
-0.068913884 -0.088260345 -0.03995352 0.10543592 0.13315386 -0.019751186 0.057111997 0.09779173
0.009178508 -0.089444675 -0.107186966 -0.049360108 -0.025999097 -0.09221278 -0.11888932 0.0472938
-0.046300754 0.008866514 0.13450286 0.12819017 0.07512014 0.11261366 0.03144529 0.08238916
0.020941114 0.12425031 0.104212545 -0.08386645 -0.062141955 -0.027476035 -0.0834922 0.069405235
0.011398458 -0.0976857 -0.013047903 -0.027081676 -0.044036612 -0.090349 0.063984476 0.0039405255
-0.095953256 -0.05033294 0.08880636 0.06138539 0.099012956 0.07183475 0.042396348 -0.0704525
0.013237347 -0.052177098
00000000: e42c b43c 2a1a 1cbd 7004 11bd 9d4a d8bc
00000010: 06e5 7c3d 91b9 6f3d 1a25 84bc 6a8a dabd
00000020: 43e0 8abc 7c75 f8bd 0881 ddbd 7ede c0bd
00000030: f64e c6bd fdad e0bd 65ae dfbd 1dc3 5dbd
00000040: fad2 0a3e 814e 1b3e 7056 b83d 51de 67bd
00000050: aeb2 553d 3e6e 1bbd 6817 a0bd 7ba2 d6bd
00000060: 2e9c 593c a948 4c3d ea94 5d3d 692b e1bd
00000070: 4114 8fbd 9a83 01be a26b 793d ce9e c7bd
00000080: 5ddd ac3b 91b9 34bd 4468 c2bd 9778 49bd
00000090: 60d7 1e3c c47f c4bc 4d46 afbd 8abd bebd
000000a0: b922 8dbd d7c1 b4bd 4da6 23bd caee d73d
000000b0: 7c59 083e 3dcd a1bc 45ee 693d 0847 c83d
000000c0: 7461 163c c52e b7bd d784 dbbd d32d 4abd
000000d0: 0ffc d4bc 0eda bcbd 3e7c f3bd 25b7 413d
000000e0: dca5 3dbd db44 113c 1ebb 093e 4944 033e
000000f0: 97d8 993d fea1 e63d c7cc 003d a6bb a83d
00000100: b38c ab3c f276 fe3d 636d d53d 2cc2 abbd
00000110: 9088 7ebd 6c15 e1bc f5fd aabd 5524 8e3d
00000120: 99c0 3a3c 710f c8bd dfc6 55bc 64da ddbc
00000130: bc5f 34bd e608 b9bd 4b0a 833d 861f 813b
00000140: 2483 c4bd ea29 4ebd 1ce0 b53d 3f6f 7b3d
00000150: 4ec7 ca3d 191e 933d cba7 2d3d 6649 90bd
00000160: 75e1 583c a7b7 55bd

classifier_conv.weight f4 [32, 1, 35]
-0.02574192 -0.04138971 0.016030679 -0.033569466 0.02372757 -0.08065648 -0.09074198 -0.03329633
0.01204632 0.008245701 -0.079751566 -0.0043429146 -0.06523091 -0.026390253 -0.10471714 -0.12862635
-0.049096912 -0.09628756 -0.08484518 -0.04819998 -0.083437406 -0.04465296 -0.08556408 -0.1559092
-0.035927847 -0.08609224 -0.073751055 -0.16890962 -0.12180436 -0.1645555 0.049735066 -0.19768728
0.15398487 -0.06615223 0.11552382 0.016813707 0.027479647 -0.012278869 0.07654265 0.049939517
-0.02703018 0.0041453377 0.027251557 -0.01558354 0.0864931 -0.012305096 0.11611171 0.072588526
0.13616379 0.1473122 0.12468153 0.04994104 0.13958701 0.13944857 0.15221483 0.06407243
0.08551238 0.11154215 0.12036276 0.1293077 0.16121511 0.18051374 0.20254056 0.0846625
0.24797688 -0.05077819 0.24465147 -0.21220906 0.18911321 -0.16891433 0.017382037 0.045090094
-0.046305884 -0.04331883 -0.07851688 -0.03941267 -0.04487314 0.026583033 -0.035911333 -0.037569378
-0.089631625 -0.11541588 -0.084855065 -0.0128591545 -0.06521947 -0.07335476 -0.053053387 -0.15713619
-0.087149166 -0.009010861 -0.097276166 -0.08175661 -0.09184879 -0.15279208 -0.09811083 -0.07632433
-0.107482396 -0.18000372 -0.05828513 -0.2064625 0.061513465 -0.20476422 0.17343384 -0.057532366
0.14845772 -0.024119815 -0.012345692 0.04117475 -0.08583216 0.045484025 -0.10140492 -0.068572365
-0.08866311 -0.1134073 -0.10439117 -0.054713935 -0.01840909 -0.11762059 -0.07429233 -0.093854405
-0.170794 -0.043234292 -0.09116405 -0.10356219 -0.112038255 -0.17754118 -0.113668196 -0.060635302
-0.09887524 -0.11802093 -0.22205436 -0.2112121 -0.13030572 -0.105960906 -0.16845922 0.006880345
-0.21564433 0.16657999 -0.1399831 0.06913544 -0.09855053 0.0038819944 0.010686291 -0.005978941
-0.060578953 -0.03612121 -0.0010436702 -0.08472982 -0.055418048 -0.0029056582 -0.08187009 -0.070213154
-0.09602754 -0.09918027 -0.12580158 -0.080141544 -0.08219008 -0.16744147 -0.076724336 -0.08274039
-0.03946435 -0.083834074 -0.17396241 -0.08344478 -0.1481403 -0.1067466 -0.11549759 -0.20103943
-0.17821406 -0.20092502 0.06833942 -0.2381643 0.18198441 -0.1608134 0.032104813 0.11176269
0.037851114 0.04242991 0.0007378805 -0.016956048 -0.0382512 0.08012699 0.03687155 0.05868309
0.05267513 0.08047211 0.10350215 0.0790174 0.108001724 0.13071014 0.044726662 0.034391757
0.03775928 0.015294234 0.09463495 0.091480665 0.15839654 0.14330603 0.04795613 0.07082686
0.13717413 0.20164078 0.14709501 0.068435974 0.17928575 -0.05677036 0.12782265 -0.11040374
0.123857595 -0.02518566 -0.0722977 -0.05329606 -0.03855666 -0.032982215 -0.009290232 0.006503875
-0.06468455 -0.06550462 0.0071591353 -0.0062309136 0.0027591635 -0.09814223 -0.0952562 0.012411439
-0.051537436 -0.0023756053 -0.09578151 -0.026519127 -0.10878959 -0.066265896 -0.1428045 -0.124051325
-0.045905 -0.058164865 -0.02215607 -0.11611378 -0.11199199 -0.03356403 -0.06665453 -0.20597531
0.056090623 -0.09658424 0.17480096 -0.081977606 0.051949225 -0.06858863 -0.070064835 0.040013414
-0.11390473 0.0060964045 -0.03919728 -0.061852146 -0.099781424 0.0027983407 -0.040069874 -0.056770902
00000000: b8e0 d2bc 4288 29bd c552 833c 2380 09bd
00000010: 5260 c23c 392f a5bd eed6 b9bd bc61 08bd
00000020: ee5d 453c fa18 073c ca54 a3bd 024f 8ebb
00000030: c997 85bd 5f30 d8bc f175 d6bd a0b6 03be
00000040: d819 49bd 6a32 c5bd 4fc3 adbd 586d 45bd
00000050: 3be1 aabd 06e6 36bd 383c afbd a9a6 1fbe
00000060: 1429 13bd 2151 b0bd cb0a 97bd a5f6 2cbe
00000070: 9074 f9bd 3d81 28be ffb6 4b3d 896e 4abe
00000080: 36ae 1d3e d27a 87bd c197 ec3d e6bc 893c
00000090: ff1c e13c 4f2d 49bc 65c2 9c3d 618d 4c3d
000000a0: 656e ddbc 9dd5 873b a83e df3c 1b52 7fbc
000000b0: 4b23 b13d 509b 49bc facb ed3d 4ba9 943d
000000c0: 856e 0b3e 02d9 163e 0859 ff3d fa8e 4c3d
000000d0: e6ef 0e3e 9bcb 0e3e 34de 1b3e 6838 833d
000000e0: 1d21 af3d 3670 e43d c080 f63d 3d69 043e
000000f0: 9315 253e 98d8 383e cb66 4f3e 8863 ad3d
00000100: a7ed 7d3e cbfc 4fbd ea85 7a3e 554d 59be
00000110: e5a6 413e e1f7 2cbe c664 8e3c 64b0 383d
00000120: 3dab 3dbd 166f 31bd 75cd a0bd 2e6f 21bd
00000130: e6cc 37bd a9c4 d93c c317 13bd 59e2 19bd
00000140: c990 b7bd 295f ecbd 7ec8 adbd 34af 52bc
00000150: c991 85bd 053b 96bd 824e 59bd 4fe8 20be
00000160: 437b b2bd 4aa2 13bc ba38 c7bd 0270 a7bd
00000170: 381b bcbd 8775 1cbe 55ee c8bd ee4f 9cbd
00000180: bb1f dcbd e552 38be 63bc 6ebd e86a 53be
00000190: 8bf5 7b3d b6ad 51be a498 313e 0fa7 6bbd
000001a0: 4d05 183e eb96 c5bc 9645 4abc dba6 283d
000001b0: c6c8 afbd 754d 3a3d 62ad cfbd ab6f 8cbd
000001c0: 0195 b5bd 1642 e8bd 0acb d5bd b81b 60bd
000001d0: a9ce 96bc 10e3 f0bd 9426 98bd bd36 c0bd
000001e0: 9fe4 2ebe 7116 31bd 38b4 babd 6a18 d4bd
000001f0: 5074 e5bd 5bcd 35be dfca e8bd b95c 78bd
00000200: 1a7f cabd f5b4 f1bd 3862 63be fc47 58be
00000210: dd6e 05be 0802 d9bd 9380 2cbe 8474 e13b
00000220: ded1 5cbe f293 2a3e bb57 0fbe e296 8d3d
00000230: dcd4 c9bd 0f69 7e3b 8e15 2f3c feea c3bb
00000240: a321 78bd d5f3 13bd c3cb 88ba d486 adbd
00000250: 09fe 62bd db6c 3ebb 81ab a7bd eacb 8fbd
00000260: 16aa c4bd 071f cbbd 21d2 00be 4021 a4bd
00000270: 4653 a8bd c775 2bbe a621 9dbd cb73 a9bd
00000280: 5fa5 21bd 33b1 abbd 3423 32be 19e5 aabd
00000290: 17b2 17be f69d dabd 008a ecbd 48dd 4dbe
000002a0: bf7d 36be 4abf 4dbe 8af5 8b3d 58e1 73be
000002b0: 1f5a 3a3e 45ac 24be 5680 033d d6e3 e43d
000002c0: c509 1b3d fcca 2d3d 526e 413a 69e7 8abc
000002d0: 4aad 1cbd 9f19 a43d 9f06 173d ae5d 703d
000002e0: e1c1 573d 90ce a43d eff8 d33d e0d3 a13d
000002f0: 0230 dd3d e1d8 053e 4e33 373d 5fde 0c3d
00000300: 7aa9 1a3d ab94 7a3c f8cf c13d 375a bb3d
00000310: b432 223e d1be 123e a66d 443d ac0d 913d
00000320: 6077 0c3e ec7a 4e3e 13a0 163e 2928 8c3d
00000330: af96 373e 0988 68bd f1e3 023e 5b1b e2bd
00000340: 0da9 fd3d 2852 cebc d110 94bd f84c 5abd
00000350: 97ed 1dbd 5c18 07bd 0f36 18bc 751e d53b
00000360: 5579 84bd 4927 86bd 2e97 ea3b b12c ccbb
00000370: 15d3 343b cbfe c8bd af15 c3bd 5959 4b3c
00000380: eb18 53bd 0bb0 1bbb 1929 c4bd a43e d9bc
00000390: 14cd debd 6ab6 87bd 583b 12be 9f0e febd
000003a0: e206 3cbd 483e 6ebd a680 b5bc 10cd edbd
000003b0: 0e5c e5bd 707a 09bd 2c82 88bd 31eb 52be
000003c0: 48bf 653d f5cd c5bd 06ff 323e e0e3 a7bd
000003d0: b6c8 543d 3278 8cbd 277e 8fbd 1be5 233d
000003e0: e246 e9bd 59c4 c73b 548d 20bd ad58 7dbd
000003f0: 345a ccbd 5e64 373b 4f20 24bd 9b88 68bd

classifier_conv.bias f4 [32]
0.010526377 -0.014130431 0.012090437 0.013552484 0.017571675 -0.015592619 0.010084353 0.014577287
0.009623767 0.009984999 0.017661959 -0.008442695 -0.0104589835 -0.009116082 -0.011808969 -0.01563645
0.007659563 0.011314187 0.0060974895 0.0066820816 -0.011105071 -0.011489806 -0.010880265 -0.011048792
0.0132915145 0.017028857 0.012406132 0.010086094 -0.016388094 0.008075929 0.010566527 -0.013410609
00000000: d376 2c3c 5383 67bc f816 463c 3d0b 5e3c
00000010: 79f2 8f3c 2f78 7fbc d838 253c 93d5 6e3c
00000020: 01ad 1d3c 1f98 233c d0af 903c 3b53 0abc
00000030: 285c 2bbc 9f5b 15bc 687a 41bc 0318 80bc
00000040: 12fd fa3b 245f 393c 73cd c73b 5df5 da3b
00000050: 0bf2 35bc bd3f 3cbc 2443 32bc fe05 35bc
00000060: a7c4 593c 1a80 8b3c 1743 4b3c 2540 253c
00000070: 5340 86bc e750 043c 3a1f 2d3c 2cb8 5bbc

fc.weight f4 [2, 32]
0.086061455 -0.07647535 0.08368266 0.068956 0.089632474 -0.08684779 0.08579014 0.08570257
0.090826705 0.09804235 0.076714054 -0.087693416 -0.07299709 -0.09033076 -0.082628965 -0.11273208
0.10453587 0.09220898 0.0755421 0.10373962 -0.053334508 -0.080405585 -0.06788931 -0.090117455
0.08078789 0.09968092 0.100350976 0.08502108 -0.09663165 0.08532062 0.08856037 -0.11867532
-0.104725294 0.10087362 -0.11362728 -0.10781752 -0.078320086 0.07192177 -0.09906877 -0.08317738
-0.11073809 -0.09082527 -0.082266346 0.07599122 0.08557868 0.05978527 0.07116947 0.09074038
-0.10025293 -0.0739681 -0.100281976 -0.07777682 0.083482146 0.07934087 0.07930588 0.10517512
-0.08799156 -0.08058045 -0.103515394 -0.0744114 0.055879828 -0.07412399 -0.103572935 0.083392434
00000000: fd40 b03d 1c9f 9cbd d061 ab3d ce38 8d3d
00000010: 3b91 b73d 41dd b1bd beb2 af3d d484 af3d
00000020: 5a03 ba3d 6dca c83d 421c 9d3d 9b98 b3bd
00000030: 807f 95bd 55ff b8bd 6039 a9bd 14e0 e6bd
00000040: e716 d63d 10d8 bc3d d1b5 9a3d 7075 d43d
00000050: 4975 5abd afab a4bd 8d09 8bbd 808f b8bd
00000060: 1f74 a53d 8325 cc3d d084 cd3d 881f ae3d
00000070: d1e6 c5bd 94bc ae3d 245f b53d 0c0c f3bd
00000080: 377a d6bd d496 ce3d 6bb5 e8bd 6fcf dcbd
00000090: 4866 a0bd b94b 933d 91e4 cabd e758 aabd
000000a0: a7ca e2bd 9902 babd 427b a8bd 49a1 9b3d
000000b0: e043 af3d 66e1 743d 4dc1 913d 18d6 b93d
000000c0: 6851 cdbd 967c 97bd a360 cdbd 7449 9fbd
000000d0: b0f8 aa3d 777d a23d 1f6b a23d 0e66 d73d
000000e0: eb34 b4bd 5d07 a5bd e1ff d3bd 0165 98bd
000000f0: 3fe2 643d 52ce 97bd 0c1e d4bd a7c9 aa3d

fc.bias f4 [2]
0.014160201 -0.014160152
00000000: 3000 683c fbff 67bc
