submit_entry/checkpoints/Combined_edgcn_12s_slice/II/5/best.pth (torch_old, 75847 bytes, 26 tensors)

conv_time.weight f4 [15, 1, 10]
00000000: 8df0 dfba 12af 0bbe 91b7 f8bb cc39 033b
00000010: 8e38 e33b f8e7 e6bc ec38 3bbe d048 373e
00000020: cca8 933c 71b0 4c3e 18aa 363e 7683 fc3d
00000030: 03b5 e13d 54c4 f13d 356a 3dbe 0a0d 02be
00000040: 0c7e 1c3e f9ff 8ebd 3730 3fbe bd05 35be
00000050: 09d6 363e b8ba acba 9902 8b3d dd4a 043e
00000060: ee79 96bd b50c 40be 9a46 423d 7358 f5bd
00000070: 7e72 40bd 0131 c53d c7a5 6b3d 45b2 313d
00000080: 87ed ffbd 285f a6bd 0b41 ef3d e4a2 d4bc
00000090: 0fd2 883d 88c8 c939 51b3 adbc a073 8dbd
000000a0: 2382 123e 54b0 8cbd ad39 34bd f048 62bd
000000b0: db6e d2bd 974a 353e f53e 3fbe 1b8b 1fbe
000000c0: 1817 dd3d 9f73 1d3e 423b 103e 3566 c6bd
000000d0: 3c98 f53c 8a0f 4b3e 80a6 e83d c1be 29be
000000e0: 1fd2 26be 178a 1a3e d448 833c d502 133e
000000f0: 6b8e 3bbe 57ad c73c f358 243e dddd e6bd
00000100: a38a dd3d 0f68 c2bd 4ddc a03d 3a8d 77bd
00000110: 2e4d 19be 6eaa 8d3c 8527 363d 97bc f7bd
00000120: 8e7d 08bd 1606 e73d 9bc5 a8bd 70e6 f5bc
00000130: e6c6 1bbe d169 93bd b14a e3bd 7751 67be
00000140: 5b25 e03d 38b6 fdbc c591 47bb 1f98 d73d
00000150: cb6b 423e 0604 013e a544 643e 617e 933d
00000160: e463 a43c 5aae 603d 2e45 e33d 954a c2bd
00000170: 4ef6 293e 6197 a7bd 6e49 303e ffb4 84bc
00000180: f638 083e c683 1cbe 35d8 1fbd 1774 1cbe
00000190: 3f0e 0e3e 3e84 1a3d 52a5 413e e9ce 933d
000001a0: ca24 afbd 272d d13d 1bf8 e43d c9ff 10be
000001b0: df8a 2e3d 7d06 2e3d a6ae 42be c2d8 fa3d
000001c0: fcb2 c5bc 60e8 afbd ecc8 2c3d 413f ec3d
000001d0: 1b27 1c3d e3e4 02be 637d 37bd fcea 51bc
000001e0: 1125 0c3e 7c5f 93bd 1493 3a3e 6be4 b5bc
000001f0: 8ab7 ad3d dfb9 46bd 1868 1dbe 7a12 a0bd
00000200: abee 463d d50b 953d 030c 68bd 7a8a 6f3a
00000210: eef7 9ebd 8c78 8fbd 43c9 163c 7008 0dbd
00000220: a2e9 043e e7c5 44bd b566 2e3e 19c8 6b3c
00000230: 0f82 4bbe 232f 1e3d 4b1a 37bd 6f99 063e
00000240: 5776 81bd dee9 24be 27f0 f83d d792 4a3c
00000250: 7771 b1bd 0260 903d
-0.001708524 -0.13641003 -0.007590242 0.0020023463 0.006934232 -0.028186783 -0.18283433 0.1789887
0.018024825 0.19989182 0.17838323 0.12329762 0.11020853 0.11805025 -0.18497546 -0.12700287
0.15282458 -0.06982417 -0.18670736 -0.1767797 0.17855085 -0.0013178205 0.06787605 0.12919183
-0.07347475 -0.18754847 0.047430612 -0.11979761 -0.04698419 0.096284874 0.057531144 0.0433829
-0.124964766 -0.08123618 0.11682328 -0.025956579 0.066806905 0.00038487115 -0.021203669 -0.06906819
0.14307456 -0.068695694 -0.044000316 -0.05524534 -0.1027505 0.17704235 -0.1867636 -0.15580408
0.107954204 0.15376137 0.14085105 -0.09687463 0.029979818 0.19830146 0.11359882 -0.16576673
-0.16291092 0.1509174 0.016025938 0.14356549 -0.18316047 0.024374647 0.16049556 -0.11272786
0.108174585 -0.09492504 0.07854519 -0.06043742 -0.14970848 0.017293181 0.044471283 -0.120965175
-0.033322863 0.11280458 -0.08240815 -0.030017108 -0.15212592 -0.07197917 -0.11098231 -0.2258967
0.10944625 -0.030970678 -0.0030451876 0.10527062 0.18986432 0.12599191 0.22291811 0.07201839
0.020067163 0.054853775 0.11097179 -0.09486882 0.16597864 -0.0818317 0.17215511 -0.016199587
0.13302979 -0.15284643 -0.03902455 -0.1527866 0.13872622 0.037723772 0.18910721 0.07217199
-0.08551939 0.1021369 0.11180135 -0.14160074 0.042612907 0.042486656 -0.19011936 0.122483745
-0.024133198 -0.08589244 0.0421838 0.11535502 0.03812323 -0.12782626 -0.044797312 -0.012812372
0.13686015 -0.071959466 0.18220168 -0.022203645 0.08482273 -0.048517104 -0.1537174 -0.07816024
0.048567455 0.072776474 -0.05665208 0.0009137761 -0.077621326 -0.07005414 0.009203258 -0.034431875
0.12979749 -0.048040297 0.17031367 0.014390969 -0.19873832 0.03861917 -0.04470281 0.13144468
-0.063214 -0.16104838 0.121551804 0.012364111 -0.0866422 0.07049562

conv_time.bias f4 [15]
00000000: d11e e3bc a402 83bb 4d31 003d 5234 bfb8
00000010: d40f 84ba 85fc a4bc f349 9b3b 2d66 bd3c
00000020: b1bc 9aba 5952 ce3c 6976 893c 8ca0 bfba
00000030: d9f3 f5bc 87cb 893b 62db a93a
-0.027724655 -0.0039981175 0.031297017 -9.117335e-05 -0.0010075518 -0.020139942 0.00473904 0.02312001
-0.0011805502 0.02518575 0.016780095 -0.001461999 -0.030023502 0.0042051706 0.0012959058

bnorm.weight f4 [15]
00000000: 8a5a 753f f40c 863f 6982 7c3f 804e 793f
00000010: f11f 853f cfa1 7b3f 8b28 773f 95d8 813f
00000020: d130 7d3f 4f4c 813f 673b 723f 53f0 783f
00000030: 2fed 783f 64b6 803f 032b 823f
0.95841277 1.0472703 0.9863649 0.97385406 1.0400373 0.98293775 0.9654624 1.014422
0.9890261 1.0101413 0.9462189 0.97241706 0.97236913 1.0055661 1.0169376

bnorm.bias f4 [15]
00000000: f853 cf3d b1cc a33d d6b7 af39 689b 6e3c
00000010: 2c25 823d 308e 0cbd 6017 b63d b51e 2a3d
00000020: 6c8f 993c 134e fc3d 348c 96bd f372 333d
00000030: e3ea afbd 4a08 ea3c 1e13 993d
0.10123438 0.07998026 0.0003351557 0.014563419 0.06354746 -0.034315288 0.08891177 0.04153319
0.018745147 0.12319579 -0.073509604 0.043810796 -0.08589723 0.028568406 0.074743494

bnorm.running_mean f4 [15]
00000000: c7fd c9bc 978e 10bc f6b1 193d eeae 20bb
00000010: dc72 27bb c6a0 da3b 9a85 2ebc 1c43 d9bc
00000020: dc10 803d eb97 e93c f525 5e3d e7c2 61bc
00000030: 369c 96bc 68da b73b fdc2 47bc
-0.024657143 -0.008823059 0.037523232 -0.0024518329 -0.002555064 0.0066719977 -0.01065197 -0.026521258
0.06253216 0.028514823 0.054235417 -0.0137793785 -0.018385034 0.005610753 -0.012192485

bnorm.running_var f4 [15]
00000000: 1dee 5b3c 7ea3 283d 37bc aa3c 5c59 4a3b
00000010: 18ee cb3b 63a1 4f3e df56 893d 1390 2e3f
00000020: 788e 903f e997 5f3c 06a3 c83e a6ab 2c3d
00000030: 2cec 1b3d 00ee 053c ef29 4c3d
0.01342347 0.041171543 0.020841701 0.0030876016 0.0062234513 0.20276408 0.067060225 0.6818859
1.1293478 0.013647058 0.39186877 0.042155884 0.038067028 0.008174419 0.04984468

block2.conv_2.weight f4 [15, 15, 10]
00000000: 7f4d 32be cbbd 42bc 7e74 3abd 1d17 ab3d
00000010: 7db4 cb3d 9a85 cdbd 4fb9 3abc d903 7ebd
00000020: 7d58 bbbd 076a 9b3d f4d5 6c3d 4d12 b1bc
00000030: 1e78 8fbd 206a e63d bc76 643c 0203 243e
00000040: e348 edbd a4fc dabc 5119 9f3d 33e3 ffbd
00000050: 1fe8 9e3d 7cf3 3bbc b1a0 2a3d 6bb1 14be
00000060: 23ee d9bd ff81 c1bd a82c e0bd d9a6 ac3d
00000070: 9d31 89bd 446f 8f3c 985c d9bd 70a9 ac3d
00000080: 7857 a43d 8cd2 e6bd 9973 83bd 3961 38bd
00000090: 416f d2bd 615c 563d cc3e 8f3d 6f7b ff3c
000000a0: 8751 4e3a 74c8 f8bc 2739 693b c166 a63b
000000b0: 84ef 403c e858 a438 2708 303e 3791 623d
000000c0: 6c78 1bbe a193 2cbe 681e 0cbe ffeb a13d
000000d0: a36c 413d 1400 adbd 5b5c a7bd fe86 c83d
000000e0: fea4 c03c e059 00be c5c5 11bd 10e8 cebd
000000f0: 52b3 87bc 51a9 73bd a89d d6bd c88d 49bd
00000100: 9f59 89bc 5fe8 583d 7431 c73c a258 303d
00000110: f9f1 ac3c a972 adbb c4c0 a03d 23e3 24bd
00000120: 0553 0d3e a8a6 bbba 876e dc3c 6c75 013d
00000130: 7f12 ba3c ccdf 40bd b4e0 98bd 136f 0bbe
00000140: 78ee f7bb 4eb2 83bd 54da 06be 5b4e 0ebe
00000150: 3917 aebd 083c 16bb 8ffa ef3d aae8 59bd
00000160: b1b2 df3d c9e9 42bd 1f2f 033e ab31 bd3d
00000170: 4561 d1bd 8b9c b5bc 163b 45bd bb0a 58bd
00000180: 131e a63d 0743 ddbb 311c f43c 9bfd f0bd
00000190: 5916 c1bd 06a8 16bc efcb 03be 7819 39bc
000001a0: a4ce 873d c2d6 323d c518 673d dcdf 02be
000001b0: 4830 ab3d d4b6 8cbb 4661 ec3c f905 05be
000001c0: 877e f33a 1ab4 b23b 3878 dfba de72 2e3e
000001d0: 15e4 f43d 1e88 bebb f866 113e 6d0c 29bd
000001e0: 434a a7bd dc8e 923c 8956 6c3d c479 07bd
000001f0: 0854 f13d a3a2 ab3d 9b58 c5bc 7cb6 febc
00000200: 512e b03d 8e79 bdbd cfdb 9e3d 7726 a23d
00000210: 8176 01be 0db4 b0bd 76ab d3bc 6b31 cc3d
00000220: 5ecd 87bd 0272 02be cf96 0e3e f084 e4bd
00000230: 6464 bdbd 335a c9bc d760 9fbd 163f f23d
00000240: 9b5d f03d f391 d93c cb55 8f3d 8386 ddbb
00000250: 17cb 9a3c 62d0 803d 2939 49bd c862 e8bd
00000260: 9367 d53d c696 833d ebc8 b9bd a694 2cbd
00000270: f065 9f3d 896e c7bd 92d2 11be 4638 073b
00000280: 180f 373d d66a d63c 54b3 e6bd 083f b83d
00000290: 6914 41bd f6cb d9bc d21f 0cbe 4bc8 3fbe
000002a0: f13c 45be f04d d23d 8d06 ef3d 7f15 1ebe
000002b0: 174b 23bc 37e5 ecbd bd60 c93b 9451 d23c
000002c0: 12db 91bd 53b0 623d c379 90bd 3bb5 97bd
000002d0: c1f9 6c3d e2af db3d 4743 243d b83f acbd
000002e0: 7435 d43d 0ea7 aebd 9d24 d7bd 864e 9b3b
000002f0: 9a6d a8bd f039 043d 9c10 a2bc 60bf b33a
00000300: 701e 0abd df3c 183e 47a5 eebd 1aae 00be
00000310: 3b04 24bd 1b3b f03d c111 23be 6211 c4bd
00000320: 6da9 7a3d 4a4f 193d f3e6 dfbd f601 103e
00000330: d4cb 99bd 5b26 ff3d 753c 273d d64a 8c3c
00000340: b911 9a3d 8b5c edbc d3e9 58bd 7d66 b53d
00000350: 70f0 84bd e920 f9bd b0b8 ce3d f1fb f2bd
00000360: 36ae 863d 8ae0 0f3e a4a6 6eba e661 e6bc
00000370: d361 fb3d 3407 783c 5b7d e83d 59a9 0b3e
00000380: f0fd 2a3d 3b17 babd 64a1 813d a90d 0d3e
00000390: b44e debd f964 88bd 232b ff3a 8cae b83d
000003a0: fcc0 bdbd e8fe b33d 6fd9 dc3d 082a 0bbe
000003b0: d291 b5bd fec3 e33d 7024 7ebd bf76 19bd
000003c0: a9dc 2d3d 2e98 953d 2b4f c33d ea46 c0bd
000003d0: dea4 acba c62f f4bd 9689 1f3d 5a8c 7ebc
000003e0: f3b9 a0bd c5cd 85bd 4111 a639 fa17 cebd
000003f0: e233 02be 6a80 f1bc 7f64 233d c79f d5bd
-0.17412375 -0.0118860705 -0.04552125 0.08354018 0.09946535 -0.10035248 -0.01139672 -0.06201539
-0.09147737 0.075885825 0.05782123 -0.021615172 -0.070053324 0.112507105 0.013944324 0.16016772
-0.11586168 -0.026731797 0.077685006 -0.12494507 0.07759117 -0.011471625 0.041657154 -0.14520805
-0.10641124 -0.09448623 -0.109460175 0.08430261 -0.06698916 0.01750911 -0.10613364 0.08430755
0.08024496 -0.112706274 -0.06418533 -0.045014594 -0.10275126 0.052334193 0.069943994 0.031186787
0.0007870425 -0.030369021 0.0035587044 0.005078167 0.011775855 7.8366895e-05 0.1719061 0.05531427
-0.15182656 -0.16853191 -0.13683474 0.07906341 0.047222745 -0.084472805 -0.08171912 0.09791373
0.023516174 -0.12534285 -0.035589 -0.10102856 -0.016564999 -0.059487645 -0.10479289 -0.04920748
-0.016766367 0.05295598 0.024315573 0.043053277 0.021111475 -0.0052932096 0.07849267 -0.040255677
0.138012 -0.0014316635 0.026908172 0.031606123 0.022713898 -0.04708843 -0.07464734 -0.1361659
-0.0075662695 -0.06430493 -0.13169223 -0.13897078 -0.08500523 -0.0022923965 0.11717712 -0.0532004
0.109227546 -0.047586236 0.12810944 0.09237989 -0.10223631 -0.022169372 -0.048152052 -0.05274461
0.08111205 -0.006752375 0.029798599 -0.117671214 -0.094280906 -0.009195333 -0.12870763 -0.011297576
0.066312104 0.04366184 0.056420106 -0.12780708 0.08358818 -0.0042942557 0.028854977 -0.1299056
0.0018577137 0.0054535987 -0.0017049378 0.17036006 0.11957566 -0.0058145663 0.14199436 -0.041271616
-0.08168461 0.017890386 0.057699714 -0.03307511 0.11783606 0.0838063 -0.024090102 -0.031092875
0.08602584 -0.092517 0.07756769 0.07917493 -0.12642862 -0.08628092 -0.025838595 0.09970363
-0.066309676 -0.12738803 0.13924716 -0.11158168 -0.092476636 -0.024579143 -0.077821426 0.11828439
0.11736604 0.026558852 0.069987856 -0.00676042 0.018895669 0.06289746 -0.049126778 -0.11346966
0.10420146 0.06425242 -0.09071525 -0.04213395 0.07783115 -0.0973788 -0.14240482 0.0020632907
0.04469213 0.02617399 -0.11264673 0.08996397 -0.047138605 -0.026586514 -0.13684013 -0.1872875
-0.19261529 0.10268772 0.11671171 -0.15437888 -0.009966633 -0.11567157 0.0061455653 0.025673665
-0.071218625 0.055343937 -0.07054474 -0.07407614 0.05785537 0.10726906 0.040103223 -0.08410591
0.10361758 -0.08527957 -0.1050503 0.0047395853 -0.0822403 0.032281816 -0.01978331 0.001371365
-0.033720434 0.1486697 -0.11652618 -0.12566414 -0.040043097 0.117300235 -0.15924741 -0.09573628
0.061196733 0.03742913 -0.10932722 0.14063248 -0.0750958 0.124584876 0.04082914 0.017125528
0.075229116 -0.028974792 -0.052957367 0.08857439 -0.06491172 -0.1216448 0.1009382 -0.1186446
0.06576197 0.14050499 -0.0009103811 -0.028122853 0.12274518 0.015138436 0.11352035 0.1363882
0.04174608 -0.09086462 0.06329611 0.13774742 -0.10854855 -0.06659884 0.0019467812 0.09017667
-0.092653245 0.08788854 0.1078366 -0.13590252 -0.08865704 0.11121367 -0.06204647 -0.03746676
0.042446766 0.073044166 0.095365845 -0.09388526 -0.0013171693 -0.119231746 0.03894957 -0.015536392
-0.07847967 -0.06533388 0.00031674842 -0.10063167 -0.12715104 -0.029480178 0.039890762 -0.10430866

block2.bnorm_2.weight f4 [15]
00000000: f2e7 7b3f 40c0 843f 2732 873f 1732 753f
00000010: ca2c 803f f0a1 823f 364a 833f 8645 893f
00000020: 5ccb 743f 6cff 7d3f d67a 7c3f c27b 7e3f
00000030: 645e 7e3f 6cba 7d3f 8e6e 833f
0.98400795 1.037117 1.056218 0.95779556 1.0013669 1.0205669 1.0257022 1.0724342
0.956228 0.9921787 0.9862493 0.9940759 0.9936278 0.9911258 1.0268114

block2.bnorm_2.bias f4 [15]
00000000: c712 8fbb b1a1 473d 3f77 323d 4cf5 d8bc
00000010: 34a4 1bbd d513 d2bc 0a12 66bc 765b 66bc
00000020: b484 49ba a7f5 0c3d 455f c8bc 0ca8 92bc
00000030: b77d 223d 749e 903c 4c09 19bd
-0.004366252 0.048738185 0.043570753 -0.026484154 -0.037998393 -0.025644222 -0.014042387 -0.014059892
-0.0007687316 0.03441396 -0.02445949 -0.017902397 0.039670672 0.017653681 -0.03736238

block2.bnorm_2.running_mean f4 [15]
00000000: ddc7 91be 8759 a0be 461c e2be d0a3 5c3d
00000010: eb24 36bd 45c2 80be f5f9 f3be 7b6c 18bf
00000020: 22ff 013e 078b 873e 57f1 3a3c 07f9 36bd
00000030: 524c 07bf 0b71 5abe f750 fdbe
-0.28472796 -0.31318304 -0.44162196 0.05386716 -0.0444688 -0.25148216 -0.4765164 -0.5954053
0.12694982 0.26473257 0.011410079 -0.044671085 -0.5285083 -0.21332185 -0.49475834

block2.bnorm_2.running_var f4 [15]
00000000: 78f9 353f af85 fc3e 1fd0 873f 934a 4d3f
00000010: 5968 0c3f 874f 433f eff8 493f 2722 a03f
00000020: 24c9 8c3f 1016 1e3f 67b9 403f f9b2 db3e
00000030: 975e 743f 6e1e 4b3f d9a1 5c3f
0.71083784 0.49320742 1.0610389 0.80191916 0.5484672 0.76293224 0.7889547 1.2510422
1.0998883 0.61752415 0.752829 0.42909983 0.9545683 0.79343307 0.8618446

block3.conv_3.weight f4 [30, 15, 10]
00000000: 37da 683d 1f63 593c a27a c4bd 1d3c 283c
00000010: 4828 ddbd 12e6 0bbd 1204 f73c d06d c4bd
00000020: f3f8 473d b274 803c 3631 8c3d 94bd fbbd
00000030: 09f5 89bd 596e 953c e3e6 a5bd c171 253d
00000040: 3fc2 8bbc b73a 96bd 8171 f33c 7567 16bd
00000050: 7593 813d fd6b 79bc 4348 ae3d ad65 74bb
00000060: a942 9b3d 0471 723d 1665 893d ecbb acbd
00000070: 01e2 acbd 954b 88bd fa72 cbbc 3649 8cbd
00000080: 044e 02be cedf 5c3c 075f adbc 3e86 dabd
00000090: e1ca 123d d351 753d b403 cc3d 0b65 7f3d
000000a0: e7d1 96bd 1a00 97bd e765 08be a190 afbd
000000b0: 5efd 31bd fbee 523d 1942 773d f791 0e3d
000000c0: 5bc7 863d eed4 4d3d ddce 9fbd 6497 ac3d
000000d0: 232f d9bc a3ef 213d b381 8ebb e97f fa3b
000000e0: c9ec 35bd f052 9cbd 7860 7e3d 94af 93bd
000000f0: 734b c2bd 8cb6 323d fe69 243d 21a9 f73c
00000100: 6d79 a7bd 80f0 a23d 7144 0f3e 529b 1f3d
00000110: ac24 9fbd 49e9 72bd fd0c 8d3d ff28 bebd
00000120: 6ac7 eabd 43cd 2bbd 1bbc ae3d ac41 ea3d
00000130: 4b8f 8e3d 8bf6 f23d 1561 b63c ef73 95bd
00000140: 4931 863d cdf1 3bbb 526c 0a3d cd43 f9bd
00000150: 0abd 3a3d 582e 133d 3151 e43c 2028 35bd
00000160: 3241 bf3d 3f11 a63d 1c36 e8bd 8303 66bd
00000170: 0cdb debd 926b 503d 7eef 83bd 5f05 483c
00000180: 9168 00be 23f5 adbd 8c90 91bd 0952 863d
00000190: 2368 a8bd 55ce 7abd 30ac 09bd eef0 e0bb
000001a0: 621a e4bd 75c1 83bd cafa 793c 251f 8ebd
000001b0: 9552 853d ac5d babd 3e5b 99bd 741f b2bc
000001c0: 426c 823d 2076 9f3d ceb9 1cbd 698b 6cbd
000001d0: 5318 acbc 52d3 d0bd 2fe7 0cbd 5789 c53c
000001e0: 45e5 d6bd cb4e be3d 6476 243d 7d5d 953d
000001f0: 73f6 bcbd df0a a7bd c71a 033c 6905 e1bc
00000200: c161 78bd 3fd5 eb3d 392e 513d 0180 ba3d
00000210: 0161 56bd 6c85 a53d 632d a53d 946a 903d
00000220: 37bf dabc 357c 8fbc 5088 da3c 9ddd b93d
00000230: 16bc 74bc d82b ce3d 7e03 55bd 74fe 8fbd
00000240: 95c9 c93c b368 cebd 5670 9fbd fe97 0f3e
00000250: 737a 08bd e798 aebc 1754 be3d 2cca 183c
00000260: 29f0 58bd 72b5 fd3c 109b 07bc c228 d03d
00000270: b33c b53c 2c45 78bd 1878 92bd 9ca6 82bd
00000280: 0169 c03d af03 83bd cb0a f0bd a0b6 a9bd
00000290: 1387 dabc 37c8 833d c979 893d b1cf 66bd
000002a0: 7856 7cbd 3b98 c4bd 767b 38bb 4a35 103e
000002b0: 6c3f a23c 0f52 d53d e35f 553d 8a5a 57bd
000002c0: 80bd 4bbd abcf 593d 052d d0bd 7613 543d
000002d0: 8b90 f1bd 5304 023d 16e9 e7bd 3da6 053d
000002e0: b6e0 113c 4626 913d 9842 b6bd 9ba6 e03a
000002f0: d209 8cbd b90a b5bc e2ad 04be 327f 7abd
00000300: 0387 2ebd 87b7 ba3d 0e68 123d 327c 9dbc
00000310: ce38 abbd 35a7 223d af40 1cbe b118 7abc
00000320: e55c b9ba bcf0 c33c 1267 1d3d c966 3d3b
00000330: 7b33 a1bd e0e1 0b3d ed83 89bd 8f4a 6b3d
00000340: 7a18 e2bd 8a1b 223d b4be 82bd 93cc 4b3c
00000350: 7e79 383d 68a6 a5bc 0da3 183d 7e29 aabc
00000360: 8456 8cbd b3fd 16bb 478d eebd eb6f c83d
00000370: f95d 11be 17d4 c33d 78ff 113d e74e 293e
00000380: b970 7abd e44e babd f249 23bd b41d fabd
00000390: 1f09 663d 7f1e 143e 1547 a2bd f2fe 923d
000003a0: ad2f 0f3d 002b fcbd 3f77 573d 74c6 b3bc
000003b0: 8f20 e43d 2fcd db3d a3a5 8bbd 518c ca3d
000003c0: 9c63 6e3d f2a1 1e3d 7a8b b43c 4cd6 2b3d
000003d0: 2aef 7bbd 52f0 bdbb 68ac bf3d 6191 d7bc
000003e0: 01ee a9bd 50b9 dcbd 71d7 25be 128b d9bd
000003f0: ba04 3c3d b8ea a93c 74d9 c4bd e6f6 70bd
0.05684873 0.013268261 -0.09593703 0.010268238 -0.10798699 -0.03415496 0.030153308 -0.095912576
0.0488214 0.015680645 0.06845324 -0.122920185 -0.0673619 0.018241094 -0.08100679 0.040391687
-0.017060397 -0.07335418 0.029717209 -0.036719758 0.06326953 -0.0152235 0.085098766 -0.0037292049
0.07581074 0.05918981 0.06708734 -0.08434281 -0.08441544 -0.06655041 -0.024835099 -0.068499014
-0.12725073 0.013481094 -0.021163477 -0.10670136 0.03583801 0.059892487 0.09961644 0.06235222
-0.073642544 -0.07373066 -0.13320123 -0.08572508 -0.04345452 0.05149744 0.06036577 0.03480717
0.06580993 0.050251894 -0.07803128 0.08427313 -0.026511734 0.039535176 -0.0043489574 0.0076446426
-0.04441527 -0.076330066 0.06210372 -0.07211223 -0.09487047 0.04363112 0.040140145 0.030232014
-0.08177457 0.07956028 0.13990952 0.038966484 -0.077706665 -0.05930451 0.06887243 -0.09285163
-0.114638165 -0.0419438 0.08531972 0.11438307 0.06960925 0.118634306 0.02226309 -0.07297503
0.06552369 -0.002867806 0.03379471 -0.12171135 0.045590438 0.03593287 0.027870746 -0.04422772
0.09338607 0.08108758 -0.113384455 -0.056155693 -0.108816236 0.050883837 -0.06442164 0.012208312
-0.12539889 -0.08494022 -0.07107648 0.06558616 -0.082229875 -0.06123193 -0.033611476 -0.0068646586
-0.111378446 -0.064333834 0.015257547 -0.06939534 0.06509892 -0.09099898 -0.07488106 -0.021743514
0.06368305 0.077862024 -0.038263135 -0.05775014 -0.021007692 -0.10196556 -0.03440016 0.02411334
-0.104929484 0.09292372 0.04015197 0.07293222 -0.09226694 -0.0815637 0.00800199 -0.0274684
-0.0606401 0.11515283 0.051069472 0.09106446 -0.052338604 0.08082089 0.080652975 0.07051578
-0.026702506 -0.017515281 0.026676327 0.090754725 -0.014937421 0.10066956 -0.052005284 -0.07030955
0.024632255 -0.100785635 -0.07785098 0.14022824 -0.0333199 -0.021313144 0.092933826 0.009325545
-0.05296341 0.030970309 -0.008276716 0.10164024 0.02212367 -0.060612842 -0.07151812 -0.063794345
0.09395028 -0.06397187 -0.117208086 -0.08286786 -0.026675737 0.06434672 0.06712682 -0.056350414
-0.0616059 -0.09599348 -0.002814976 0.14082828 0.019805633 0.10416042 0.052093398 -0.05257658
-0.04974127 0.053176563 -0.10164837 0.051776372 -0.117951475 0.031742405 -0.113237545 0.03262924
0.008903673 0.07087378 -0.088994205 0.0017139496 -0.068378106 -0.02209984 -0.12956956 -0.06115646
-0.042609226 0.09117036 0.035743766 -0.01922426 -0.08360444 0.039710242 -0.1525905 -0.015264676
-0.0014142065 0.023918502 0.038428374 0.0028900376 -0.07871147 0.034150958 -0.06714616 0.05744415
-0.11039825 0.039577045 -0.0638403 0.012438911 0.04503774 -0.02022095 0.037264872 -0.020771738
-0.06852439 -0.00230394 -0.1164804 0.09786972 -0.14196004 0.09561937 0.035644025 0.16534005
-0.061142657 -0.090970784 -0.03986544 -0.12212697 0.056161042 0.14464758 -0.07923714 0.07177533
0.034957577 -0.12312889 0.052603956 -0.021945216 0.111390226 0.10732495 -0.06818702 0.098900445
0.058200464 0.03872866 0.022039164 0.041952416 -0.06150738 -0.0057964707 0.09359056 -0.02631444
-0.08297349 -0.10777533 -0.16195466 -0.10622229 0.045902945 0.020741805 -0.096117884 -0.05882921

block3.bnorm_3.weight f4 [30]
00000000: 67c1 823f a24f 923f 026e 833f b7ea 7d3f
00000010: 477e 883f fb30 733f d5a9 693f 2399 7c3f
00000020: f028 873f ebe5 873f f0d6 773f 29f6 733f
00000030: 637f 803f 8af6 833f d1e4 843f f2ef 783f
00000040: 2fca 843f 80fb 803f 9cf7 833f b0ae 803f
00000050: 3496 7f3f eea6 833f 5a26 803f 2307 873f
00000060: ecbf 773f 7806 863f bf3d 873f 1aaf 743f
00000070: 351b 833f a16b 833f
1.0215272 1.1430552 1.0267947 0.9918627 1.0663537 0.94996613 0.9127477 0.9867117
1.0559368 1.061704 0.96812344 0.95297486 1.0038875 1.0309613 1.0382329 0.9724113
1.0374202 1.0076752 1.0309939 1.005331 0.99838567 1.0285318 1.0011704 1.0549053
0.96777225 1.0470724 1.0565718 0.95579684 1.0242678 1.0267221

block3.bnorm_3.bias f4 [30]
00000000: 2e1c c2bc 4d76 14bc 838b 213c 4a4a 69bd
00000010: c159 c0ba cac8 63bb 37fb 2dbd 0fd5 8bbb
00000020: e540 9c3c 36ba e3bb 1ce3 01bb 935f c9bc
00000030: 49e5 cdb9 c589 7ebc 4136 86bc a639 96bd
00000040: c607 20bc 2e51 783b 0da4 7c3b 155e 67bc
00000050: f227 8cbc a484 72bc 1334 fc3a 46aa 35bc
00000060: ddfa 81bc ade1 0bbc 1799 8bbd f43b 57bd
00000070: 63cf eebc 7e71 203d
-0.023695078 -0.009061408 0.009859922 -0.056955613 -0.0014675186 -0.003475713 -0.042475905 -0.004267342
0.019073913 -0.0069496883 -0.0019819206 -0.024581706 -0.00039271478 -0.0155357765 -0.016383292 -0.07335214
-0.009767478 0.0037890184 0.003854993 -0.014121552 -0.017108891 -0.014802132 0.0019241594 -0.01108796
-0.015866691 -0.008537692 -0.06816309 -0.05254741 -0.029151624 0.039170735

block3.bnorm_3.running_mean f4 [30]
00000000: 52c0 b0be 7cc7 58be 574f cfbe 901d 71be
00000010: c099 07be de3a 2f3f 1477 c33e 6d79 1b3f
00000020: 2e13 94be 6be4 37bf 79dc 6abe b63e d0be
00000030: 9452 19bf 5311 48be fbe1 02bf 6efa dbbe
00000040: 9e96 8cbe 2a40 11bf b29d 06bf 64e1 59be
00000050: cb56 8dbe 1f9b a1be cdbd a0be a7da d1be
00000060: 9891 613e b08d bbbe 63ee c4bd e18e 653d
00000070: f598 9dbe 692b f9be
-0.3452173 -0.21169847 -0.4049022 -0.23546433 -0.13242245 0.684492 0.38176787 0.60732156
-0.28920883 -0.71832913 -0.22935666 -0.40672845 -0.5989163 -0.19537859 -0.5112607 -0.429645
-0.27458662 -0.5673853 -0.52584374 -0.21277386 -0.2760528 -0.3156366 -0.31394807 -0.4098713
0.22028196 -0.36631536 -0.09615781 0.056044463 -0.3078076 -0.48665932

block3.bnorm_3.running_var f4 [30]
00000000: 04bc 0c3f 5cd6 543e 7b80 503f fb5b e73e
00000010: 86eb 663e 37a1 b93e c416 ca3e 4f1f 523f
00000020: 5033 6d3e c015 9b3e 0ad5 053f b216 1f3f
00000030: 4312 0d3f 0065 873e d3f4 ba3e b93c d33e
00000040: b36e 833e 1244 6e3e 680c bc3e 946e 753e
00000050: f2e8 c23e 26c3 c53e 659e bc3e 95db aa3e
00000060: 73e6 b43e 1636 963e 2f7f 513e f2ac 6b3e
00000070: e55e 813e ada6 ef3e
0.5497439 0.20784897 0.81446046 0.45187363 0.22550783 0.3625581 0.39470494 0.82079023
0.23164105 0.3029003 0.52278197 0.62144005 0.5510599 0.26444244 0.3651491 0.41257265
0.25670394 0.23268154 0.36728215 0.23967963 0.38068348 0.3862545 0.36839595 0.33370653
0.3533207 0.2933814 0.20458673 0.23015192 0.2526771 0.4680685

block4.conv_4.weight f4 [30, 30, 10]
00000000: f0d9 2c3b ce14 2c3d c24a b93d 9fcc 9b3c
00000010: fb53 933d e7c1 893c f467 fd3c 2e5c 003d
00000020: 2357 b83d 64e6 46bc 8aa1 563c a33c bebd
00000030: 7b11 cc3c ae8f f7bc 782d 493d bf4e d9bc
00000040: fbe9 77bd fc2a 6abd 50df ffbc 8308 fa3b
00000050: 32e7 9e3d 56c7 2c3d bdc6 b2bd f3d9 c9bd
00000060: 19d7 d7bb caf2 8cbd 1f14 3bbd 14eb 76bd
00000070: ea8d b9bc ac4b 1bbd c382 34bd e070 3dbd
00000080: 0bb0 4fbd e323 933d 922e 583a bc25 acbd
00000090: 603a da3d 84ef d03a f74e dfbc c60b 543d
000000a0: 07fd 0abd 064f 6e3d 459b 81bd 505c 333d
000000b0: c5f3 22bc de34 ab3d b1b1 363d 0fd7 0d3b
000000c0: 16b9 86bd 9fd2 efbd fd29 e23b 1ead 283d
000000d0: 1ddd 3f3d 4bc7 733c 7e19 a0bd 1ca9 94bb
000000e0: 4db3 3fbc c881 313b c5ca ba3c e82b d8bc
000000f0: 8183 6f3c 6f58 f2bc 26ad 983d 71ae 5b3d
00000100: 5e7c 8ebd 3d9b c63d 0fe3 20bd 2865 0abc
00000110: 68f0 d93b 14d4 3bbd a6c4 0cbc d12a 1d3d
00000120: 871b 3bbd 7575 263c 76fa 333d 2776 8d3d
00000130: d296 b5bc 6229 303c 028e 803b 98e9 49bc
00000140: 02eb 05bd ee29 7fbd 79a6 173a 8db0 b3bd
00000150: 8686 c7bd 5bc6 ac3d 2b9f ad3c 32af 8c3c
00000160: 5ad5 6fbc 2d7c 7abc ca34 7e3d dd3b de3d
00000170: 31cb 033e 498f 04be 243e 133d bc5f 15bd
00000180: ab3e c93d a430 84bd ac50 b8bc bfdc 973d
00000190: bcc4 703a c225 7bbc 1f82 123b 743e d6bd
000001a0: 7562 c1bd 6a60 2e3d 19e9 a63d 4c55 653d
000001b0: 0f19 10bd cee1 dbbc 0245 593c e6b0 87bd
000001c0: 86cf 5bbd dbf3 eebc 1543 323c 877c 95bc
000001d0: 57d9 6d3d 96da 9c3d 0d60 54bd af8f e23c
000001e0: f4c5 3e3d c43a 98bd e5e7 01bd 3255 dabd
000001f0: 7562 b93c ef62 843d 5419 7f3d f11d 46bd
00000200: b623 2d3c 93d0 203c e80a 92bd 9352 bbbd
00000210: 725c c7bd 891f afbd 7d99 adbd 8d2b 84bc
00000220: 1049 c73b 454d 9dbd bf8d 813c c17c c03c
00000230: 7cb1 8abd cbea 66bd 5482 3abd 682d babd
00000240: edcb cbbc 6f69 b43d 55cc 973b ee99 f83c
00000250: c67d 933d 2915 c8bc 8ac8 b23d 3d3e 38bc
00000260: 37b9 953d 0f07 b23c 9a1e ae3d 8497 683d
00000270: 4e6e 29bb 6650 18bd 0318 5dbd 4e3b afbd
00000280: 3f59 ea3b 0f32 983c 16e3 ac3d 3985 97bd
00000290: e2b1 9dbd a8c3 3c3c a9f8 893c 88a4 88bc
000002a0: f2d9 6dbb 9c3a a3bd 207c eebd c164 d6bd
000002b0: a617 0bbd c41c c2bb 3d9f ab3d 5482 043e
000002c0: 48bd c03d 2fa2 dbbd f994 913d 92e2 3a3d
000002d0: 9d8a 0e3e 3146 96bc 3acb 74bd 2b40 053e
000002e0: e8d7 5fbc 6427 093e 893f a1bd cf54 823c
000002f0: a1fa 853d fbb0 7bbc b883 703c c18e d33d
00000300: 2270 dd3c bb56 3cbd aa4b 98bd 1cba a4bc
00000310: f0ab 2fbd fdef 253d 1838 cbbb bced f9bc
00000320: 0670 40bd d6c1 87bb b1e5 a33c 5256 a6bd
00000330: bbe2 43bd 736b 84bd 0521 b5bd 3d16 243d
00000340: 44dc bb3c 1afa 813d 1916 e4bd 4e25 42bd
00000350: 293e 233d 396c 873d 88e3 af3d aa20 78bd
00000360: b40a 84bc f713 00be 8391 c1bc 55e0 d7bd
00000370: acc9 883d ca41 b93b 5481 9cbc 98a7 b13c
00000380: 1483 4abd fe5b b5bd 5672 ef3d 16e9 a93d
00000390: c1b8 a03d 0dca 5cbd a3a0 803d df03 7abd
000003a0: 05d0 ca3d 98c8 553c 5050 513d b49b c9bc
000003b0: 3c2e 293d c667 c3bc 8c8c 033e 7915 cb3d
000003c0: c2de a9bd 228f ad3d e5de 5a3d 16b1 6a3c
000003d0: a381 a4bd 4748 943d 7549 33bb 6f2a c13c
000003e0: 53f8 113c 077d b33d b73b c73c f9c2 593d
000003f0: ed6f f63c ac66 2dbd 8c88 103d 8e08 ac3b
0.0026375018 0.04201203 0.09047462 0.01901847 0.071937524 0.016816093 0.030933358 0.03133791
0.09000995 -0.01213989 0.013100037 -0.09288909 0.02491068 -0.030219879 0.049115628 -0.026526807
-0.060525876 -0.0571699 -0.031234413 0.007630409 0.07758941 0.04218229 -0.087293126 -0.09856024
-0.006586921 -0.06882246 -0.045673486 -0.06028278 -0.022650678 -0.037913963 -0.044070017 -0.046250224
-0.050704997 0.07184579 0.00082466856 -0.08405635 0.106556654 0.0015940522 -0.027259333 0.05176904
-0.033932712 0.05818083 -0.063284434 0.043789208 -0.0099458145 0.08359693 0.044603053 0.0021643077
-0.06578271 -0.11710095 0.006901978 0.041180722 0.04684173 0.014879058 -0.07817362 -0.004536761
-0.0117004635 0.0027085412 0.022801766 -0.026388124 0.014618755 -0.029583184 0.074549004 0.053633157
-0.06957315 0.09697578 -0.03927904 -0.008446969 0.006650973 -0.04585655 -0.0085918065 0.03837091
-0.04568055 0.01015984 0.04394003 0.069073014 -0.022166643 0.010752054 0.0039231787 -0.0123237595
-0.032694824 -0.062295847 0.0005784999 -0.08773909 -0.09742455 0.08436271 0.021194061 0.017173383
-0.014638269 -0.015288395 0.062062062 0.10851262 0.1287048 -0.12945284 0.035947934 -0.036468253
0.09826406 -0.0645459 -0.022499405 0.07415151 0.0009184589 -0.015328826 0.002235539 -0.10461131
-0.09442607 0.042572416 0.081499286 0.05598955 -0.035180148 -0.02684107 0.013261082 -0.066255376
-0.053664707 -0.029169014 0.010880251 -0.018247856 0.0580686 0.076588795 -0.051849414 0.027656404
0.0465755 -0.07433084 -0.031715292 -0.10660781 0.022629956 0.064641826 0.062280014 -0.048368398
0.010567596 0.009815353 -0.071309865 -0.09146609 -0.097344294 -0.08550937 -0.08476541 -0.016134048
0.006081708 -0.076807536 0.01581466 0.023496987 -0.06772134 -0.05637626 -0.045534447 -0.09090692
-0.024877513 0.08809172 0.0046325126 0.030346837 0.07201724 -0.024424152 0.08729656 -0.0112453075
0.073107176 0.021731881 0.085019305 0.05678512 -0.00258531 -0.03718605 -0.053977977 -0.08556233
0.0071517522 0.018578557 0.08441751 -0.07398457 -0.07699944 0.011521257 0.016842203 -0.016680017
-0.0036293236 -0.07970163 -0.11644769 -0.10468436 -0.0339581 -0.0059238393 0.08379982 0.12940341
0.094111025 -0.107242934 0.071084924 0.04562623 0.13920064 -0.018344017 -0.059764124 0.1301276
-0.013662316 0.13393933 -0.078734465 0.01590958 0.06541944 -0.01536202 0.014679842 0.103299625
0.027031008 -0.04598115 -0.07436307 -0.020108275 -0.04288858 0.040512074 -0.0062017553 -0.030508868
-0.046981834 -0.00414298 0.020006986 -0.08121933 -0.04782365 -0.06465807 -0.088441886 0.04006027
0.02293218 0.06346531 -0.11137027 -0.047398858 0.039854202 0.06612439 0.0858832 -0.060578026
-0.016118385 -0.12507616 -0.023628956 -0.10540835 0.06679091 0.0056535946 -0.019104637 0.02168636
-0.049441412 -0.08855437 0.1169173 0.08296411 0.07847739 -0.05390363 0.06280639 -0.061038848
0.09902958 0.013048314 0.051101983 -0.024610378 0.04130386 -0.023853194 0.12846583 0.09916205
-0.08294441 0.08474566 0.053435225 0.014324447 -0.08032539 0.07240348 -0.0027357016 0.023579804
0.008909303 0.087640814 0.024320466 0.053164456 0.030082667 -0.042334244 0.03528647 0.0052500432

block4.bnorm_4.weight f4 [30]
00000000: 2f06 833f a790 853f 6aa1 823f 4958 853f
00000010: 075c 843f 209b 8a3f 82cb 883f 09db 813f
00000020: 50b1 873f e0b9 843f f30b 8d3f 30c8 843f
00000030: 8ec9 823f faac 833f 0057 873f 8076 883f
00000040: a11f 863f 25c4 7f3f 396f 883f 83d1 883f
00000050: 0971 843f caaf 893f 353d 843f 4ee4 7f3f
00000060: 1b50 823f cbb6 813f cb10 943f ec78 893f
00000070: d8b8 873f ed1e 823f
1.0236262 1.0434769 1.020551 1.0417567 1.0340585 1.082859 1.0687106 1.0144969
1.0600986 1.0369225 1.1019272 1.0373592 1.021776 1.0287163 1.0573425 1.0661163
1.0478402 0.9990867 1.0658942 1.0688938 1.0346996 1.0756772 1.0331179 0.9995774
1.0180696 1.0133909 1.1567625 1.0740027 1.0603285 1.0165688

block4.bnorm_4.bias f4 [30]
00000000: 51f1 3abc bc5f 49bb 592c 8dba 1a91 9d3b
00000010: 4355 7038 b891 d23b ff29 373b 4a45 6fba
00000020: 35a6 ad3b 853b 0ebc 6d15 8bbc 913c e4bb
00000030: 0efe f7bb 6871 2dbc 48de eeba 8e97 74ba
00000040: e2c7 baba 84e6 38bb f8f1 2bbc 0cef 43bb
00000050: 47bb 503b 072e 4abc 69af a8bb cee8 a1bb
00000060: 257c 8238 15d4 8ebc 68ec 693c 028c c839
00000070: e378 2cb9 0f89 bd3b
-0.011410073 -0.0030727228 -0.0010770663 0.004808557 5.7299865e-05 0.0064260624 0.0027948616 -0.00091274513
0.0052993544 -0.008681183 -0.01697799 -0.006965228 -0.0075681275 -0.01058612 -0.0018224204 -0.0009330445
-0.0014250244 -0.002821357 -0.010494702 -0.0029897122 0.0031849907 -0.012340075 -0.0051478636 -0.0049410826
6.222007e-05 -0.017435113 0.014277555 0.00038251287 -0.00016448232 0.005784161

block4.bnorm_4.running_mean f4 [30]
00000000: 44fa b93e a8c6 0cbf bfef c83e 00ea 93bd
00000010: 34ed d93d e90d 473e 8b7e 1bbe 5089 29bf
00000020: 2121 a1be bec6 1ebb c4f4 183f 79a9 b13b
00000030: 09ef 863f 297e 03be daed 743d d087 3bbe
00000040: 416e 883f 71e6 8bbf d767 0b3e 3b04 833e
00000050: 2517 2e3f 3ba7 7f3e cf85 b43e bdb0 edbe
00000060: 4325 043f 7c59 48bf f9cc 673f 8655 f0be
00000070: ffad 133e e85a a2bb
0.3632375 -0.54990625 0.39245412 -0.07222366 0.10640946 0.194389 -0.15184991 -0.6622515
-0.31470588 -0.0024227346 0.5974848 0.005421814 1.0541698 -0.12841095 0.059797145 -0.18313527
1.0658647 -1.09297 0.1361383 0.25589165 0.68004066 0.24966137 0.35258338 -0.46423903
0.51619357 -0.7826154 0.9054714 -0.4694025 0.14421843 -0.0049546845

block4.bnorm_4.running_var f4 [30]
00000000: b452 da3e 8858 ef3e 0e98 da3e 539d 8c3e
00000010: a802 ac3e c0b9 863e dd35 b83e 1976 133f
00000020: 891e 083f 31ba fc3e 6b70 ce3e cbb6 c43e
00000030: 5022 f13e fc03 b23e 45e3 ba3e 4964 353f
00000040: 5009 0c3f c055 f93e 803c 923e 3b5b ac3e
00000050: 42fb 3d3f 0b4a b73e 54cc bc3e 2a0d eb3e
00000060: 4d1e c33e ab45 273f 0d7d dc3e 2307 a63e
00000070: 5b95 113f f58e e73e
0.42641222 0.4674723 0.42694134 0.2746378 0.33595777 0.2631359 0.35978594 0.5760208
0.5317159 0.49360803 0.40320143 0.3842071 0.4709649 0.34768665 0.36501518 0.7085615
0.5470171 0.48698235 0.28561783 0.33663353 0.74211514 0.35798678 0.3687464 0.4590848
0.38109055 0.6534068 0.43064156 0.3242732 0.56868523 0.45226255

conv_channel_res.weight f4 [1, 30, 3]
00000000: 4216 083c 3b4b 82bd ad3b 81bd 3779 2bbc
00000010: 466e 9a3d b686 903d d61e b0bc 8bd6 03be
00000020: 3060 eebc 3bfc 0fbe feee 0abe 284d 04be
00000030: 8ef8 d2bd 5d0e 0abe 2c47 02be e48b 68bc
00000040: 6041 293e f8f8 323e 74d6 f63d 4247 e6bc
00000050: dffc ae3d 6203 07bd 0dcb 8dbd a665 b4bd
00000060: 1187 263d cadf 953d 126e 913d 966d dcbd
00000070: f2c2 aabd a035 0ebe 6c2b 9b3d 3828 d8bd
00000080: 4fca 69bb 6bee 8dbd bb12 fdbd c46e a1bd
00000090: 33b4 383c 343c f2bc b892 cdbd fc94 d7bd
000000a0: 4776 c0bd e4a2 06be 10f9 75bc 47cb fb3d
000000b0: a982 113e c674 e93b 047f b63d c29a 043e
000000c0: 0e62 fe3b 7082 cdbd ac43 00be 8663 14bd
000000d0: 998b 85bc 331e 96bd 6b39 ccbd 4fce ae3d
000000e0: 3352 97bc 909b 043d f3ef 1d3e 70c5 133e
000000f0: 7e90 963d 4c2d d93d 045d c93c e85b fc3d
00000100: 55b7 543d 76bd 143e 3eef c13d 43bf ccbd
00000110: a315 a4bd c0d0 d5bc 3d5f b0bd 76da 923d
00000120: 3057 8839 03f0 f5bd 79bc 0fbd 021b 2dbd
00000130: 9ed1 96bd 908e fabd 6d21 9a3d 6cd3 af3b
00000140: f686 c7bd 3544 b03a abe3 063e 6540 b93d
00000150: b257 033e 20ab b43d 87ca 6e3d 1bde 97bd
00000160: f81f 54bc 1d94 9cbd
0.008306088 -0.06362005 -0.063102104 -0.010465912 0.07540564 0.07056944 -0.021499079 -0.1287481
-0.0290986 -0.14061062 -0.13567731 -0.12920058 -0.10301314 -0.13482042 -0.12722462 -0.014193509
0.16528845 0.17477787 0.120526224 -0.02811015 0.08544325 -0.03296221 -0.069234945 -0.088084504
0.040656153 0.07318075 0.07101072 -0.10763089 -0.08337964 -0.13887644 0.075766414 -0.10554546
-0.0035673564 -0.0693024 -0.12357088 -0.07882455 0.011273432 -0.029569723 -0.1003775 -0.105264634
-0.093975596 -0.13148075 -0.015012994 0.122946315 0.14209999 0.007124516 0.08910945 0.1294966
0.007763154 -0.100346446 -0.12525815 -0.036227725 -0.016301917 -0.07329979 -0.09971889 0.08535444
-0.018471813 0.03237492 0.15423565 0.14430785 0.073517784 0.10604343 0.024580486 0.12322217
0.05193265 0.14525399 0.0946946 -0.09997418 -0.080119394 -0.026100516 -0.08611915 0.07170574
0.000260049 -0.12008669 -0.03509185 -0.042262085 -0.073642 -0.12234223 0.07525907 0.0053657796
-0.09742539 0.0013448062 0.13172786 0.090454854 0.12826422 0.08821702 0.058298614 -0.0741541
-0.012947075 -0.07645438

classifier_conv.weight f4 [32, 1, 35]
00000000: fe11 f8bd c74a 5cbc 1990 65bd 03b2 f4bd
00000010: fc7e e4bc 65a7 50be a57d 47be ddc9 7dbd
00000020: 0cf3 b4bd f681 74bd 8b3e 3bbe 0b32 a7bd
00000030: 9121 14be 4dba 0abe 4200 46be b31a 2abe
00000040: 7d78 18be 1644 37be 7a0e 41be 5975 2fbe
00000050: 11d8 5fbe cc72 64be 4be7 7abe 1020 a5be
00000060: 8e9d 5abe abf5 49be 16a6 51be 65b4 8ebe
00000070: e4c1 3fbe 32b4 b7be d635 fe3c 9d8c efbe
00000080: 239f 933e 39ea 923d f821 d33d 3013 f23d
00000090: b8fc 973c cb22 873d cfdb 313e 1a76 013e
000000a0: 2b83 f43d ec88 0e3e c9f1 9b3d ae5f c13d
000000b0: ad9e 2b3e 6b66 e93d dc52 4f3e 79cc 193e
000000c0: e201 7e3e f8fb 6d3e f806 2b3e 1c9c 173e
000000d0: 9fa4 703e d3de 843e c97a 913e 86b2 353e
000000e0: b36c 8a3e 5745 953e afef a43e a6e1 ac3e
000000f0: 3c1b 913e a0a8 993e 2823 a33e 572d 213e
00000100: af7c e63e 2dd1 babc d5f5 063f fd04 b7be
00000110: 480f 9e3c 8a83 20be ce77 80bd 3ea0 963d
00000120: 737a f5bd 2ab8 efbd c53c 08be 176d 31be
00000130: 19b9 32be 8bca 54bc c54d 0ebe f01d dcbd
00000140: 7fd9 47be 4eb7 40be 7077 19be d3db fdbd
00000150: 82b2 1fbe 69fe e3bd 0b3c 14be 19a1 80be
00000160: 38b6 3fbe 54f6 08be c454 57be 0fd0 80be
00000170: e296 79be ded0 aabe 2729 96be 0615 4cbe
00000180: 1f1e 7abe 0897 91be ff1e fbbd 3b9f c5be
00000190: 35b5 133d 040a f8be e0b9 9d3e 7371 bb3d
000001a0: 6bc8 063e 539e f8bd a8d8 fcbb cdb4 4cbd
000001b0: 9c2d 38be de9b e4bc 711f 75be 70f8 4abe
000001c0: 6852 f9bd b22f 50be 85ba 2cbe d505 30be
000001d0: 55a4 dabd 0f2b 46be a922 3cbe d50d 3abe
000001e0: ac2b 50be eda5 14be 32cf 39be b2d0 5bbe
000001f0: 4628 73be bd7d 92be 796e 95be 84b3 6bbe
00000200: 13ab 90be a074 a4be 2102 b1be 7cca a4be
00000210: f477 73be 3a5f 2ebe 4a39 babe 4948 86bc
00000220: 51f1 01bf 8f6d a33e 4582 a23c 0c44 723d
00000230: bdf4 3ebe d1c3 a73c 670f 8ebd 6ad2 cbbd
00000240: 9109 01be 1559 2cbe 4ec8 eebd c485 f3bd
00000250: 2542 22be 9012 a4bd 2f40 43be d3f1 16be
00000260: 42b0 2bbe 8930 57be dff3 59be d236 f2bd
00000270: 23e9 33be 7989 86be eb2d 3fbe 6d49 58be
00000280: d59b 1bbe f22f 87be d4cc abbe bdde 87be
00000290: 1e48 b9be e51a 70be 6348 7dbe 677a 9ebe
000002a0: a677 70be f4ad ccbe f088 173d e115 06bf
000002b0: ac21 a63e d3e0 c13b ce0b a23c b6a7 503e
000002c0: 8b54 783c f387 f33d 7f42 b23d 222c 463d
000002d0: 8598 dc3d f3eb 523e 7fb5 8e3d 692b 253e
000002e0: ae53 083e e5a1 443e 277b 383e 7d84 193e
000002f0: 26a6 5e3e 5096 633e 361a ba3d 0e32 0f3e
00000300: cdf6 193e 9657 103e 3d3b 683e 70b8 513e
00000310: 51b0 a53e 5131 a23e c58d 783e 5d11 8e3e
00000320: 7437 833e 253e a73e 1320 833e becc 0b3e
00000330: 1618 c33e 53e1 0cbd d091 d83e 70ef 87be
00000340: d039 05bd f3e5 65bc 03f5 2fbe 7716 08bd
00000350: b443 dcbd 7629 f4bd 3450 98bd 56c8 fdbd
00000360: 7fe3 38be 3ba3 cabd 74ed b1bd 9d6f 93bd
00000370: aac1 d4bd 225f 35be 242a 26be 3817 bfbd
00000380: c185 0ebe 5a39 44bd efda 3ebe 2df4 f6bd
00000390: fd25 5fbe 35de 45be e8e3 84be eee7 94be
000003a0: 6642 4dbe fa2d 7ebe f335 59be 6964 69be
000003b0: d723 75be d88f 12be 7d83 fbbd 6f21 c8be
000003c0: 4995 033d 0f8d bfbe e69a a13e c0f4 743d
000003d0: 52c2 283d 7a88 2cbe 6d81 71bd 5ab1 16bd
000003e0: 4940 4dbe 67c5 81bd 98fc 34be b64c 43be
000003f0: 9aed 0cbe 783f b8bd 4a15 eabd ae6e 31be
-0.12112807 -0.013445563 -0.056045625 -0.119480155 -0.027892582 -0.20376356 -0.19481523 -0.06196009
-0.0883542 -0.059694253 -0.18285577 -0.08163842 -0.1446593 -0.1354763 -0.19336036 -0.16611747
-0.14889713 -0.17897066 -0.18853179 -0.17134608 -0.21859767 -0.22309417 -0.24502294 -0.32251024
-0.21349165 -0.19722621 -0.20473513 -0.27872005 -0.18726307 -0.35879666 0.03103153 -0.46786967
0.2883235 0.07173581 0.103092134 0.11820066 0.018553123 0.06598433 0.17369007 0.12642708
0.11939081 0.13919419 0.07614476 0.094420776 0.16759749 0.11396488 0.20246452 0.15019406
0.24805406 0.2324065 0.16701877 0.14805645 0.23500298 0.2595125 0.2841399 0.17743883
0.27036056 0.29154465 0.32214114 0.33765906 0.2834109 0.30011463 0.3186276 0.15739952
0.45017 -0.02280482 0.5271886 -0.35745993 0.019294396 -0.15675178 -0.06272851 0.073547825
-0.11986246 -0.117050484 -0.13304432 -0.1732677 -0.17453422 -0.012987743 -0.13896854 -0.107478976
-0.19516562 -0.18819925 -0.14986968 -0.12395444 -0.15595439 -0.11132509 -0.1447603 -0.25122908
-0.18721855 -0.13375217 -0.2102843 -0.25158736 -0.24373963 -0.33362478 -0.29328272 -0.19929895
-0.24425553 -0.2843554 -0.122617714 -0.38598046 0.036061484 -0.4844514 0.30805874 0.09152498
0.13162391 -0.12139573 -0.007716257 -0.049977113 -0.17986149 -0.027906355 -0.23937775 -0.19821334
-0.12173921 -0.20330694 -0.16868027 -0.17189725 -0.10675875 -0.19352363 -0.18372597 -0.18169339
-0.2032916 -0.1451642 -0.18145445 -0.2146633 -0.23745832 -0.28611556 -0.29185846 -0.23017699
-0.2825552 -0.32120228 -0.34571937 -0.32185733 -0.23776227 -0.17028514 -0.36371833 -0.01639189
-0.50758845 0.31919524 0.019837508 0.059146926 -0.18648048 0.020479115 -0.069365315 -0.09952243
-0.12601306 -0.16830857 -0.11659299 -0.11890748 -0.15845545 -0.08011353 -0.19067453 -0.14740686
-0.16766456 -0.21014608 -0.21284436 -0.118268624 -0.17569403 -0.26276758 -0.1866986 -0.2112176
-0.15196164 -0.26403767 -0.3355471 -0.26537123 -0.36187834 -0.2344776 -0.24734645 -0.3095276
-0.23483142 -0.39976466 0.03699583 -0.52377135 0.32447565 0.0059166937 0.01978102 0.20376477
0.015156875 0.11891165 0.087040894 0.048381932 0.10771278 0.2059782 0.069682114 0.16129841
0.13313171 0.19202383 0.18015729 0.14991947 0.21743068 0.22225308 0.090870306 0.13983938
0.15035553 0.14095911 0.22678848 0.20480514 0.3236108 0.3167825 0.24272831 0.27747622
0.25628245 0.326646 0.25610408 0.13652322 0.38104314 -0.034394573 0.42298746 -0.26549864
-0.032525837 -0.014031875 -0.17183308 -0.03322455 -0.10755101 -0.119219705 -0.074371725 -0.12391727
-0.18055533 -0.09894415 -0.08687869 -0.07199023 -0.10388501 -0.17712072 -0.16227013 -0.093306005
-0.1391821 -0.047906257 -0.18638204 -0.120582916 -0.21791835 -0.19323047 -0.2595513 -0.29083198
-0.2004486 -0.24822226 -0.21211986 -0.2279221 -0.23939453 -0.14312685 -0.12280939 -0.39088008
0.03212479 -0.37412307 0.3156349 0.059803724 0.041200943 -0.16848937 -0.05896132 -0.03679023
-0.20044054 -0.0633648 -0.17674482 -0.19072232 -0.13762513 -0.08996481 -0.11429842 -0.17327377

classifier_conv.bias f4 [32]
00000000: 0317 6e3c 0ffb a3bc 0643 453c 77b0 aa3c
00000010: 44fe ab3c 4a05 bebc a51a 5c3c 1f38 9c3c
00000020: c5d9 a73c ffab 863c b67e 963c b5f0 53bc
00000030: 1b97 60bc 0738 76bc bb84 65bc 7202 34bc
00000040: 3923 873c 6d8d 823c fc50 573c 5402 6d3c
00000050: 7d6a 6fbc 3c62 a4bc 19ef 8fbc 1d73 1dbc
00000060: 5f26 b33c 1fa7 a53c bc9d 723c e7ae c23c
00000070: 434f b9bc f649 b23c 01ed 4e3c dbb9 a3bc
0.014531854 -0.020017175 0.012039905 0.020836098 0.020995267 -0.023195881 0.013434087 0.01906973
0.020489583 0.016439436 0.018370967 -0.012935807 -0.013707901 -0.015028006 -0.014008696 -0.010986911
0.016496288 0.015936578 0.013141867 0.014465887 -0.014612791 -0.020066373 -0.017570065 -0.009609965
0.021868883 0.020221291 0.014808115 0.02376504 -0.022620803 0.021763783 0.012629748 -0.019986084

fc.weight f4 [2, 32]
00000000: a225 bf3d a04c b0bd bfdd bf3d 84bc b43d
00000010: 2ead b53d 7d6a b2bd f3d0 b03d be60 af3d
00000020: a7fc b33d 34af b63d 0cd2 b93d d098 b0bd
00000030: 0d66 b6bd 1999 b4bd f9c4 acbd 8e52 b4bd
00000040: 69cf b03d 6843 b83d 8a98 b83d 4d49 b03d
00000050: fc50 adbd 02b0 b3bd b98f b1bd f21c bcbd
00000060: 8e71 b13d 7af7 b63d 23c2 b83d 05cf ad3d
00000070: a327 b3bd d3e9 ab3d 1e1e b53d 1cbe b5bd
00000080: a648 bfbd 777a b03d ee15 c0bd a705 b5bd
00000090: 5498 b5bd ec4e b23d 00ea b0bd 4b5c afbd
000000a0: c121 b4bd f1a1 b6bd a5dc b9bd 4a83 b03d
000000b0: b87d b63d 5d60 b43d e4af ac3d 8f29 b43d
000000c0: adc7 b0bd 9a21 b8bd 0fc7 b8bd 0919 b0bd
000000d0: 4b89 ad3d 76ae b33d 2da5 b13d 3f39 bc3d
000000e0: 067f b1bd 41d4 b6bd 03c8 b8bd 5abb adbd
000000f0: e7db b23d 4ad5 abbd 223a b5bd 7a7c b53d
0.0933335 -0.08608365 0.093684666 0.08825019 0.08870922 -0.08711717 0.08633604 0.08563374
0.08788424 0.08920136 0.090732664 -0.08622897 -0.089061834 -0.088182636 -0.08436007 -0.088048086
0.0863331 0.08997232 0.090134695 0.08607731 -0.08462712 -0.08773805 -0.08669991 -0.091852084
0.08664237 0.08933921 0.09021404 0.084867515 -0.087477945 0.08394208 0.08843635 -0.08874151
-0.093400285 0.08617108 -0.09379183 -0.08838969 -0.08866945 0.087064594 -0.08638382 -0.08562525
-0.087955005 -0.089176066 -0.09075288 0.086187914 0.08910698 0.08807442 0.08431986 0.08796989
-0.08631835 -0.08990784 -0.090223424 -0.08598525 0.08473452 0.0877351 0.08674083 0.09190606
-0.08666806 -0.08927203 -0.09022524 -0.08483 0.08733349 -0.08390291 -0.088489786 0.08861633

fc.bias f4 [2]
00000000: 9ae4 a53c fae4 a5bc
0.020250607 -0.020250786
